src/virtuose_teleoperation/network_controller/Brick_demonstration/Center_grasp_skill.pth (torch, 462279 bytes, 10 tensors)

lin1.weight f4 [256, 27]
-0.07560237 0.22981428 0.10770823 0.29205424 -0.073272794 -0.03216761 0.06269912 0.037040945
-0.016432595 -0.03463197 -0.021356257 -0.109467514 0.04533249 0.025446832 0.27180278 0.36538363
0.080450736 -0.05000008 0.050147735 -0.2377668 -0.15857975 0.004942991 -0.071668334 -0.063991405
0.24457365 0.17260219 -0.37012896 0.09697383 -0.08248629 -0.11928448 -0.034142416 -0.032893468
-0.10242028 -0.04747211 -0.033882357 -0.12282834 -0.12449375 -0.14862905 -0.073041275 -0.00025711342
0.067129865 -0.12455391 -0.021507971 0.1659919 -0.15747494 -0.0424863 -0.19770327 0.16656117
0.002228009 0.12543021 0.11328492 0.18573862 -0.1958983 0.13833776 -0.028996574 0.016749453
0.10089038 0.16318126 -0.12461599 0.049359813 -0.11861782 -0.029853905 0.09587736 0.02499189
-0.08855514 0.049993623 -0.14641248 0.033596836 0.033772726 0.08024735 -0.06553442 0.00070502504
0.10697098 0.1119069 0.100413956 0.04090111 -0.090657055 -0.025782637 0.013190891 0.14208177
0.15037923 0.029971654 0.067099094 0.1334112 0.10966839 0.051235687 0.057158627 0.07797022
-0.054878987 0.033464458 -0.099366955 -0.13716777 0.0039541405 0.013507351 -0.0020318897 0.12954527
-0.108816996 0.13953422 -0.17076895 -0.021896426 -0.012487151 -0.18053843 0.056497376 0.1019865
-0.05079401 0.16699633 -0.14233865 0.059526134 0.026012534 0.043870617 -0.23739976 0.08895019
-0.15134647 0.025488913 -0.23306818 -0.24081685 -0.00340698 0.19140805 0.07441887 0.209656
0.06266263 -0.11961008 -0.3101288 0.29331365 -0.010711416 -0.16294461 0.18668923 0.02299312
-0.111870326 -0.009227173 -0.17149317 0.12604545 -0.05576992 0.201922 -0.60938454 -0.040748715
0.010623436 0.20511997 0.052675687 0.0850917 -0.22475627 0.26348636 0.04444104 -0.10722991
-0.08323425 -0.07938086 0.17377537 0.14056654 0.18413056 -0.3284667 -0.23931052 0.16118772
0.099282056 0.18661319 -0.1724783 -0.115775734 -0.079653285 -0.1594004 0.15883255 0.07481483
-0.1846468 0.15995045 0.537018 0.0044836923 0.28992882 -0.46152747 -0.15402943 -0.10547834
0.11821555 -0.11213819 0.17425998 -0.25302452 0.25315034 0.16836336 -0.08867203 -0.38727888
-0.14672205 0.23455752 0.13798857 -0.1437627 -0.11304271 -0.13052759 -0.17946666 0.056497805
-0.24283032 0.097547226 0.18894573 0.22510712 0.42870665 -0.158443 -0.17024812 -0.12703101
0.1615772 0.0064581633 0.0277951 0.0152463745 0.13526656 0.04938697 -0.098542295 -0.011930696
-0.007457166 0.07107039 0.17706828 -0.04345832 0.15037955 0.046940494 0.022127567 -0.13251758
-0.099427454 -0.14137226 0.14749132 -0.003963478 -0.01227042 -0.08558579 -0.1984481 -0.11879662
-0.08629296 0.025485503 0.13637179 0.07675915 -0.16663773 -0.07466598 -0.3938594 0.08695866
-0.07083033 0.1388129 -0.18570927 0.37685117 0.029058237 0.103250675 -0.033062097 0.1455482
-0.2804809 -0.20768796 -0.1807878 -0.25791997 0.1283701 0.15112264 -0.12360145 0.06724086
0.107127726 -0.27206555 -0.37384817 0.054789294 0.0391027 -0.1450001 0.16834463 -0.17397155
0.09417148 -0.16853134 0.08235269 0.17854406 -0.1500054 0.04010208 0.076283485 -0.12976657
00000000: 6ad5 9abd 6f54 6b3e 2296 dc3d 2288 953e
00000010: 0c10 96bd 2fc2 03bd 6568 803d 3fb8 173d
00000020: a69d 86bc 41da 0dbd 51f3 aebc 8130 e0bd
00000030: 90ae 393d e075 d03c bc29 8b3e 9013 bb3e
00000040: 5bc3 a43d e2cc 4cbd b667 4d3d 2479 73be
00000050: bb62 22be d0f8 a13b d9c6 92bd ed0d 83bd
00000060: 8471 7a3e a1be 303e 8b81 bdbe 379a c63d
00000070: 92ee a8bd 6c4b f4bd ebd8 0bbd 4dbb 06bd
00000080: b9c1 d1bd 1d72 42bd 3ac8 0abd 6d8d fbbd
00000090: 94f6 febd 3732 18be aa96 95bd 2ecd 86b9
000000a0: 627b 893d 1f16 ffbd 7c31 b0bc c8f9 293e
000000b0: 1c41 21be 1d06 2ebd ba72 4abe 038f 2a3e
000000c0: ca03 123b c770 003e ed01 e83d 4432 3e3e
000000d0: 9099 48be 6aa8 0d3e 398a edbc 2636 893c
000000e0: 9e9f ce3d fd18 273e ab36 ffbd 842d 4a3d
000000f0: e6ed f2bd 2d90 f4bc 595b c43d cbbb cc3c
00000100: 665c b5bd 1dc6 4c3d 27ed 15be d69c 093d
00000110: 4555 0a3d b958 a43d e936 86bd 6ed1 383a
00000120: 9a13 db3d 722f e53d d5a5 cd3d ec87 273d
00000130: 68aa b9bd 1c36 d3bc 9b1e 583c e27d 113e
00000140: 03fd 193e 1d87 f53c 406b 893d f29c 083e
00000150: d299 e03d 83dc 513d 2a1f 6a3d daae 9f3d
00000160: cac8 60bd 0712 093d e780 cbbd b575 0cbe
00000170: bc91 813b f04d 5d3c 7429 05bb 84a7 043e
00000180: 72db debd 0fe2 0e3e 0ede 2ebe 2260 b3bc
00000190: e896 4cbc 11df 38be cb69 673d 4cde d03d
000001a0: 610d 50bd 1601 2b3e 39c1 11be add1 733d
000001b0: 3d18 d53c adb1 333d ec18 73be 842b b63d
000001c0: 92fa 1abe 20ce d03c 6da9 6ebe b198 76be
000001d0: a447 5fbb 7900 443e ec68 983d 10b0 563e
000001e0: 4455 803d 21f6 f4bd 34c9 9ebe 352d 963e
000001f0: ef7e 2fbc f4da 26be 762b 3f3e 115c bc3c
00000200: 451c e5bd 922d 17bc e89b 2fbe 0f12 013e
00000210: 006f 64bd a4c4 4e3e a000 1cbf 20e8 26bd
00000220: ec0d 2e3c f80a 523e 76c2 573d 8f44 ae3d
00000230: 8226 66be afe7 863e cf07 363d 5b9b dbbd
00000240: b876 aabd 6f92 a2bd 2cf2 313e adf0 0f3e
00000250: b98c 3c3e ca2c a8be d10d 75be 650e 253e
00000260: 6454 cb3d 8717 3f3e 279e 30be d41b edbd
00000270: 4321 a3bd dc39 23be 00a5 223e 8538 993d
00000280: 0d14 3dbe 0dca 233e 037a 093f f0eb 923b
00000290: 8d71 943e 544d ecbe e4b9 1dbe 0705 d8bd
000002a0: ff1a f23d b5a8 e5bd 3571 323e 6e8c 81be
000002b0: ec9c 813e 7267 2c3e ae99 b5bd 6b49 c6be
000002c0: 4e3e 16be d92f 703e e04c 0d3e 8736 13be
000002d0: f082 e7bd 06a9 05be 1cc6 37be 3e6a 673d
000002e0: 83a8 78be d7c6 c73d fd7a 413e 7b82 663e
000002f0: 707f db3e e23e 22be 8655 2ebe 6b14 02be
00000300: 7e74 253e 009f d33b 8db2 e33c eecb 793c
00000310: 5183 0a3e fe49 4a3d 8bd0 c9bd f778 43bc
00000320: 3e5b f4bb 5a8d 913d 6351 353e 5a01 32bd
00000330: 19fd 193e ad44 403d df44 b53c b0b2 07be
00000340: 9fa0 cbbd e4c3 10be f707 173e 10e0 81bb
00000350: df09 49bc 9a47 afbd fb35 4bbe a44b f3bd
00000360: 5dba b0bd f9c6 d03c 0ca5 0b3e e733 9d3d
00000370: 15a3 2abe 7aea 98bd f0a7 c9be 6217 b23d
00000380: 7e0f 91bd f824 0e3e 922a 3ebe a3f2 c03e
00000390: 8a0b ee3c 1775 d33d 1f6c 07bd 960a 153e
000003a0: 319b 8fbe 27ac 54be 7020 39be 160e 84be
000003b0: 7473 033e e5bf 1a3e c222 fdbd 93b5 893d
000003c0: c865 db3d 2d4c 8bbe 0769 bfbe bd6a 603d
000003d0: 272a 203d e87a 14be 8962 2c3e 9925 32be
000003e0: fadc c03d 7b93 2cbe 87a8 a83d 41d4 363e
000003f0: 049b 19be 1442 243d 843a 9c3d 87e1 04be

lin1.bias f4 [256]
-0.013951558 -0.04083079 -0.103428386 -0.17498043 -0.10485618 -0.057472005 0.10058078 -0.061372727
0.11498838 0.01033619 0.23125345 0.0037483065 -0.053870097 -0.1693823 -0.13931361 -0.036713645
0.026204085 0.07256957 -0.011383634 -0.15795371 -0.012184089 -0.19375356 -0.09997624 -0.107599854
0.05845531 -0.10409931 0.14570364 0.056099687 -0.0732246 -0.028887367 -0.089538015 -0.08421242
0.0231447 -0.15613596 -0.071174964 -0.14137009 -0.007858014 -0.1298314 -0.07313803 0.057056
0.11874899 -0.048825964 0.14204784 0.06832481 -0.084680304 -0.075176 0.13752778 -0.14755216
-0.11967824 0.0074954084 0.13209122 -0.16293374 0.10538083 -0.01290675 0.16714512 0.10531807
-0.16961206 0.08851498 -0.025174513 0.17392506 0.1320577 -0.0036817058 -0.20964433 -0.0408459
-0.07513036 0.047594644 0.09181938 0.005476171 -0.18362746 0.07727283 -0.18700023 -0.20348716
-0.07088955 -0.07725529 -0.0017085494 -0.019808125 -0.09654435 -0.10644844 -0.06861756 -0.15615354
-0.03905398 0.100058384 -0.07891513 -0.14272101 -0.14447069 -0.04584612 -0.18592352 0.09335515
-0.16289803 -0.075089805 -0.009693271 0.07528653 -0.011692561 0.16125411 0.08299267 0.090842076
-0.04254463 0.1071318 0.042774506 -0.07264336 0.14942709 -0.20715214 -0.09280019 0.11796183
0.04404408 -0.01204163 0.024071153 -0.02233528 -0.026758991 0.071705155 -0.15549752 -0.14441954
-0.1500164 -0.072834805 0.14050485 0.123956315 -0.00454591 -0.06188373 -0.05721768 -0.1884715
-0.14134167 0.0021482834 -0.12799774 -0.16026936 -0.058419723 -0.029909665 -0.07766137 -0.19293545
-0.1792134 0.057953805 -0.1213654 -0.022888407 0.06608992 -0.024852118 0.1575672 -0.09145702
0.006363026 0.033928294 0.09647897 0.13470113 -0.17955941 -0.039452095 0.053236708 -0.09490378
0.004684502 -0.015107106 -0.07409293 0.16353115 0.083833456 -0.11434185 0.0915508 -0.104734525
0.048311703 -0.18061946 0.041498777 -0.09916276 -0.052706454 -0.09717699 -0.0031465534 0.14074908
-0.2195679 0.13861196 -0.16150767 0.0063857012 0.090632334 -0.05939061 -0.17814055 -0.00655241
-0.07198285 0.17450969 -0.114568755 -0.2031241 0.02844198 0.0044409237 -0.07096713 -0.18056402
-0.07452059 -0.18256697 -0.1804145 -0.16934693 0.10160825 -0.16567849 -0.1675533 -0.17376392
0.025576308 0.051331922 -0.13948259 0.104016036 0.0942968 0.18545377 0.083248794 -0.084783606
0.056972016 -0.056880314 -0.06705667 0.1500407 0.035770956 0.05549863 -0.11361464 -0.18217832
0.16808838 0.055691026 -0.24835765 -0.16460161 0.15510283 -0.18154731 0.11086843 -0.19649564
-0.06896131 -0.16976598 0.013882718 0.03329285 -0.025750952 -0.047992896 0.025415102 0.111391574
-0.13008116 -0.049617343 -0.08308334 -0.10141485 -0.15390776 -0.06713779 0.090494476 -0.14932677
-0.22405544 -0.0860205 -0.04688892 -0.038797885 0.08792403 0.117323235 -0.11783373 0.04713648
-0.08032915 0.056306843 0.12126893 0.06378414 -0.22040705 0.020114992 -0.10850087 -0.06836523
-0.053121 -0.0016450183 -0.033528168 -0.052234814 -0.15288499 -0.09386435 -0.028212003 -0.032469768
0.07112021 -0.02076873 -0.10773899 0.1358048 0.04281465 -0.057137933 0.022533469 -0.02256358
00000000: 1395 64bc 303e 27bd 43d2 d3bd 122e 33be
00000010: d6be d6bd c467 6bbd 4cfd cd3d f861 7bbd
00000020: 077f eb3d 2059 293c b4cd 6c3e 26a6 753b
00000030: e4a6 5cbd 8e72 2dbe 3aa8 0ebe 0c61 16bd
00000040: f3a9 d63c 5b9f 943d 6c82 3abc 9ebe 21be
00000050: c69f 47bc 5567 46be 58c0 ccbd 505d dcbd
00000060: d66e 6f3d 0532 d5bd 5633 153e c9c8 653d
00000070: c7f6 95bd 33a5 ecbc b55f b7bd 9077 acbd
00000080: f499 bd3c 1be2 1fbe 2ec4 91bd 52c3 10be
00000090: e6be 00bc 86f2 04be 64c9 95bd 8db3 693d
000000a0: ac32 f33d bcfd 47bd fd74 113e e1ed 8b3d
000000b0: de6c adbd e0f5 99bd 15d4 0c3e ea17 17be
000000c0: dd19 f5bd 0b9c f53b ec42 073e 1ad8 26be
000000d0: e8d1 d73d d576 53bc 1728 2b3e 00b1 d73d
000000e0: c9ae 2dbe 5847 b53d c83a cebc 6919 323e
000000f0: 223a 073e c648 71bb 01ad 56be 084e 27bd
00000100: f2dd 99bd 9af2 423d cd0b bc3d 7471 b33b
00000110: d608 3cbe 3841 9e3d fd7c 3fbe f05e 50be
00000120: 8a2e 91bd 0538 9ebd 68f1 dfba a644 a2bc
00000130: 0bb9 c5bd a401 dabd 5d87 8cbd b7e6 1fbe
00000140: 11f7 1fbd 69eb cc3d 419e a1bd 7525 12be
00000150: 20f0 13be 24c9 3bbd bc62 3ebe fc30 bf3d
00000160: bece 26be afc8 99bd 86d0 1ebc d32f 9a3d
00000170: 2892 3fbc cc1f 253e 10f8 a93d 690b ba3d
00000180: 4743 2ebd eb67 db3d 5234 2f3d 0bc6 94bd
00000190: 6a03 193e b11f 54be 070e bebd f995 f13d
000001a0: 9167 343d 424a 45bc de30 c53c 7af8 b6bc
000001b0: ac35 dbbc 27da 923d be3a 1fbe b7e2 13be
000001c0: e69d 19be 6a2a 95bd 81e0 0f3e cfdc fd3d
000001d0: dbf5 94bb cb79 7dbd 165d 6abd acfe 40be
000001e0: dfbb 10be 37ca 0c3b d711 03be a71d 24be
000001f0: 8549 6fbd 1d05 f5bc ed0c 9fbd df90 45be
00000200: b883 37be f860 6d3d 6c8e f8bd 7880 bbbc
00000210: 275a 873d ab96 cbbc 4c59 213e d14d bbbd
00000220: ee80 d03b 65f8 0a3d c496 c53d 18ef 093e
00000230: 6cde 37be 8598 21bd bc0e 5a3d ea5c c2bd
00000240: 7380 993b cc83 77bc 09be 97bd b674 273e
00000250: e0b0 ab3d 0f2c eabd fc7e bb3d 0e7f d6bd
00000260: 7ee2 453d 4ff4 38be 9ffa 293d d815 cbbd
00000270: b9e2 57bd bb04 c7bd 6836 4ebb 8720 103e
00000280: 68d6 60be 4bf0 0d3e 4462 25be 253f d13b
00000290: 729d b93d 9143 73bd 7a6a 36be 99b5 d6bb
000002a0: bf6b 93bd abb2 323e 06a3 eabd c4ff 4fbe
000002b0: 28ff e83c 2b85 913b 3757 91bd c6e5 38be
000002c0: 409e 98bd d6f2 3abe 94be 38be 4869 2dbe
000002d0: fc17 d03d 9fa7 29be 1893 2bbe 2bef 31be
000002e0: 6885 d13c 6c41 523d 86d4 0ebe 5c06 d53d
000002f0: ae1e c13d 98e7 3d3e 587e aa3d 07a3 adbd
00000300: 7d5b 693d 55fb 68bd 0255 89bd 45a4 193e
00000310: 9184 123d 8852 633d cbae e8bd f48c 3abe
00000320: 5c1f 2c3e 461c 643d 7851 7ebe 538d 28be
00000330: 47d3 1e3e 8ae7 39be fd0e e33d 2736 49be
00000340: 963b 8dbd 22d7 2dbe 5774 633c 155e 083d
00000350: a9f3 d2bc 3394 44bd 5533 d03c 4421 e43d
00000360: ff33 05be 8e3b 4bbd 9927 aabd 97b2 cfbd
00000370: ff99 1dbe 8a7f 89bd 2b55 b93d 1ee9 18be
00000380: ca6e 65be 842b b0bd 990e 40bd 88ea 1ebd
00000390: 8411 b43d 2a47 f03d d052 f1bd 2f12 413d
000003a0: 9c83 a4bd 01a2 663d d85b f83d 42a1 823d
000003b0: 63b2 61be 32c8 a43c b435 debd 1203 8cbd
000003c0: 6895 59bd a89d d7ba d554 09bd 2cf4 55bd
000003d0: e28d 1cbe f43b c0bd dc1c e7bc 05ff 04bd
000003e0: 79a7 913d 2f23 aabc 42a6 dcbd 6a10 0b3e
000003f0: 6a5e 2f3d 7709 6abd 1c98 b83c 42d7 b8bc

lin2.weight f4 [256, 256]
-0.036928076 -0.00047082506 -0.023752691 -0.03946408 0.11459478 0.019642346 0.038610745 0.013046434
0.022909954 0.03312297 0.08480522 -0.040280916 0.061106145 -0.024465546 -0.030367844 -0.08962484
0.015701734 0.0987939 -0.01201314 -0.05525676 0.0612282 -0.24002789 -0.021650739 -0.039425544
-0.08010918 0.083787516 0.13568738 0.0010153267 -0.07671712 0.009114263 -0.18700571 -0.010672174
0.053857394 0.016118586 0.003455179 0.053689763 -0.078170136 -0.22871207 -0.024760768 -0.028065294
-0.027564352 -0.097012125 -0.02942127 -0.06904613 0.17547327 0.04005327 -0.03221115 0.05928304
0.041527726 -0.1379622 0.062366486 0.017492909 -0.012318857 -1.3542255 0.09417808 -0.17927907
0.047410272 0.03695497 0.017799094 -0.022133386 0.0019752958 -0.1530193 -0.021367062 0.026755735
0.0985186 0.037117854 -0.013926669 0.049005836 -0.05105932 0.010094704 0.05103138 -0.5158089
-0.056372985 -0.03052321 0.03551828 0.08429759 0.05996544 -0.013111057 0.014931495 0.0001317935
0.078842044 0.0607955 0.030154126 0.041622374 -0.04282239 -0.15810713 -0.2840368 -0.10145159
-0.056323696 0.012279563 0.041471824 0.05418887 0.07726685 0.108893774 0.22283532 -0.06855712
0.044729702 0.09145318 0.009886463 0.03984846 0.1006263 0.016991206 -0.028663326 -0.03675841
0.11494521 -0.0053244233 0.021995401 0.054788016 0.20655786 -0.045741346 0.0027783865 -0.12258788
-0.009292559 -0.007767587 0.14419796 0.04055556 -0.07303373 0.10933323 -0.06619687 0.024599686
-0.014306635 0.14515589 -0.011278235 0.100838415 -0.08222193 -0.060513705 0.04989873 0.033399194
0.045880303 0.00060263876 -0.0058716014 0.0927895 -0.042415477 -0.09949825 -0.03313639 -0.038452588
0.024247218 0.005983817 -0.061829448 -0.10145222 0.048521936 0.040195584 0.0111300945 0.01706522
-0.014256279 -0.024973884 -0.04782639 0.0887555 -0.029704437 0.050585207 0.050907448 0.04108699
0.11003446 -0.044495504 0.009404414 -0.031565517 -0.11129871 -0.106900364 -0.09981814 -0.21628904
0.0237357 0.047577992 -0.065123044 -0.027807185 0.062144287 -0.025919972 0.04710477 0.07605286
0.013918375 0.01600144 -0.017549727 -0.09205823 0.029211532 0.08062041 0.13077834 0.027840815
-0.06968687 -0.042101555 -0.023365758 0.012858503 0.07983602 -0.052469272 -0.0024225798 -0.35888278
0.080737986 -0.12995939 -0.0097512305 0.018541383 -0.0077218236 0.039304834 0.018976517 -0.0055451617
0.12943363 0.03907205 -0.055573262 0.22478138 -0.6383847 -0.01272543 -0.05504874 -0.046309944
0.0013045147 0.23705627 0.029639307 -0.07753074 0.0433397 -0.07541105 -0.018193895 0.114787936
0.19956987 -0.045089133 -0.061784204 0.046199135 -0.020876288 -0.04012854 -0.05750218 0.16110839
0.11122364 -0.06706966 -0.8019152 -0.058253303 -0.53590316 -0.034720093 -0.022296192 -0.53585243
0.1607043 0.007164465 -0.21476835 -0.061232477 0.0117706265 -0.1094477 0.0068184324 -0.040396947
-0.03022223 0.04824251 -0.032004043 -0.028585024 -0.31739256 -0.045457408 -0.041282196 0.015413836
0.041003138 -0.17339875 -0.07156832 0.08528027 -0.016020937 -0.056408867 -0.04120205 0.047730025
-0.36522812 -0.012933202 0.00875926 -0.21373592 0.07870374 -0.049175605 0.05794459 0.015134945
00000000: e541 17bd 12d9 f6b9 0195 c2bc 16a5 21bd
00000010: abb0 ea3d fce8 a03c 4d26 1e3d b6c0 553c
00000020: a8ad bb3c f4ab 073d 5cae ad3d 9afd 24bd
00000030: 704a 7a3d f86b c8bc fcc5 f8bc 3a8d b7bd
00000040: eca0 803c 7554 ca3d c3d2 44bc ea54 62bd
00000050: 6cca 7a3d dfc9 75be e45c b1bc ae7c 21bd
00000060: 4810 a4bd ca98 ab3d a2f1 0a3e b614 853a
00000070: de1d 9dbd fd53 153c 6d7e 3fbe 58da 2ebc
00000080: 9299 5c3d 200b 843c 4970 623b cce9 5b3d
00000090: aa17 a0bd 7f33 6abe 18d7 cabc 30e9 e5bc
000000a0: a3ce e1bc 4bae c6bd e004 f1bc 0f68 8dbd
000000b0: 44af 333e e60e 243d d7ef 03bd c6d2 723d
000000c0: fa18 2a3d f745 0dbe 0074 7f3d 4a4d 8f3c
000000d0: 08d5 49bc 4357 adbf 70e0 c03d ef94 37be
000000e0: 4631 423d 185e 173d 68cf 913c 1351 b5bc
000000f0: f773 013b 17b1 1cbe fa09 afbc d82e db3c
00000100: 1fc4 c93d e408 183d af2c 64bc 58ba 483d
00000110: 9423 51bd 4264 253c 4806 513d 0d0c 04bf
00000120: 5ce7 66bd d00b fabc 9e7b 113d 37a4 ac3d
00000130: 529e 753d c2cf 56bc 3ba3 743c 0c32 0a39
00000140: f077 a13d b404 793d c905 f73c 397c 2a3d
00000150: 8866 2fbd d6e6 21be 456d 91be dac5 cfbd
00000160: adb3 66bd 3830 493c 5cde 293d 26f5 5d3d
00000170: 153e 9e3d b303 df3d f12e 643e ad67 8cbd
00000180: 7e36 373d ce4b bb3d d5fa 213c 2438 233d
00000190: 2915 ce3d 2431 8b3c 5acf eabc fd8f 16bd
000001a0: 6568 eb3d 8078 aebb b32f b43c 6669 603d
000001b0: e783 533e 475b 3bbd 9715 363b 5b0f fbbd
000001c0: d13f 18bc 3e87 febb a1a8 133e 961d 263d
000001d0: b592 95bd 1aea df3d 3992 87bd 4885 c93c
000001e0: 6066 6abc bfa3 143e 59c8 38bc 5f84 ce3d
000001f0: f963 a8bd 38dd 77bd 9c62 4c3d 98cd 083d
00000200: fcec 3b3d 67fa 1d3a 9066 c0bb 6c08 be3d
00000210: dabb 2dbd bdc5 cbbd 06ba 07bd 7680 1dbd
00000220: 1aa2 c63c e513 c43b e040 7dbd 2ec6 cfbd
00000230: f0be 463d 20a4 243d 005b 363c 5ccc 8b3c
00000240: 2b93 69bc 0896 ccbc 9be5 43bd 72c5 b53d
00000250: b856 f3bc 6f32 4f3d 5484 503d d54a 283d
00000260: bf59 e13d eb40 36bd f914 1a3c d84a 01bd
00000270: 94f0 e3bd 94ee dabd 746d ccbd e07a 5dbe
00000280: 5f71 c23c 24e1 423d 3b5f 85bd e5cb e3bc
00000290: 028b 7e3d 1f56 d4bc eef0 403d 9ac1 9b3d
000002a0: e509 643c 7415 833c 72c4 8fbc 0689 bcbd
000002b0: 064d ef3c 501c a53d c2ea 053e 6c12 e43c
000002c0: fdb7 8ebd ae72 2cbd 8c69 bfbc 78ac 523c
000002d0: 1181 a33d 05ea 56bd 25c4 1ebb 7cbf b7be
000002e0: f559 a53d 1314 05be a0c3 1fbc 19e4 973c
000002f0: 5a07 fdbb 1bfe 203d a474 9b3c 30b4 b5bb
00000300: 408a 043e 040a 203d caa0 63bd 172d 663e
00000310: 2e6d 23bf 527e 50bc ca7a 61bd 7faf 3dbd
00000320: 40fc aa3a e1be 723e 22ce f23c 70c8 9ebd
00000330: f884 313d 1c71 9abd 5d0b 95bc f015 eb3d
00000340: 0b5c 4c3e 62af 38bd 6f11 7dbd 4e3b 3d3d
00000350: c004 abbc d35d 24bd 6887 6bbd 99f9 243e
00000360: 38c9 e33d d15b 89bd 514a 4dbf 049b 6ebd
00000370: f330 09bf a836 0ebd 81a6 b6bc a02d 09bf
00000380: ab8f 243e e3c3 ea3b 3cec 5bbe e8ce 7abd
00000390: 96d9 403c 1e26 e0bd 286d df3b 4577 25bd
000003a0: 9c94 f7bc f099 453d ac16 03bd 242b eabc
000003b0: 4781 a2be 8c31 3abd 8517 29bd 508a 7c3c
000003c0: e8f2 273d 718f 31be 6992 92bd 6ca7 ae3d
000003d0: 573e 83bc fc0c 67bd 7bc3 28bd 8f80 433d
000003e0: 2eff babe c8e5 53bc 0083 0f3c 97dd 5abe
000003f0: 6d2f a13d 5c6c 49bd 4e57 6d3d 8ff8 773c

lin2.bias f4 [256]
0.036178563 -0.010871787 -0.0012352508 -0.027949309 -0.051662143 -0.06394904 -0.05442772 0.05251298
0.03940162 -0.058794264 -0.07477731 -0.009932192 -0.013188507 -0.013313291 0.07708781 0.09037945
0.0020059503 -0.105098255 0.045107845 -0.048483375 -0.04139161 0.074657135 -0.015315855 -0.004005053
-0.027145404 -0.06972242 -0.038446773 0.0034528845 0.016387045 -0.083714195 -0.024422389 -0.00029331518
0.10916621 0.0298055 -0.014324439 0.0037262493 -0.015019053 -0.08576212 -0.030057112 -0.05138523
-0.059826482 -0.040575393 -0.07495768 -0.0045493827 -0.0523303 -0.006864949 0.03155211 -0.022167595
-0.037149128 -0.018357899 -0.0508601 -0.024083663 -0.066858105 -0.029932812 0.026812037 0.0893967
0.013357827 -0.034562737 -0.044618167 0.061685473 -0.032587606 0.0137376385 -0.056959562 -0.032238364
-0.030972976 -0.060873143 -0.005515411 0.0031556897 -0.027684702 -0.0032666586 -0.028508594 0.021729121
-0.05881069 0.012862005 -0.057684142 0.00019752141 -0.04599175 0.10239029 -0.04220122 -0.032746032
-0.0826203 -0.025978476 0.023439907 -0.00242499 -0.04721526 -0.055763453 -0.013366848 -0.014909802
-0.062961146 0.03982211 -0.049511738 0.08756828 -0.07713176 -0.08233254 -0.018567214 -0.039137468
0.019325469 0.04015779 -0.07086304 0.041992664 -0.0326296 -0.06727361 -0.06680886 -0.07153671
0.0032611885 0.05118522 -0.04180494 0.02498167 -0.0011323742 -0.0062878863 0.0026149678 -0.017241955
-0.06798151 -0.026801419 0.012459138 -0.06961384 -0.040227223 0.004371105 0.080326244 -0.049325917
0.044769686 0.04444426 -0.108386755 -0.09382258 -0.06547663 -0.031933606 -0.063484475 0.03808167
-0.08887528 0.017746065 -0.036899254 -0.020945925 0.015156432 -0.08061643 -0.0046739485 0.0018116225
0.007373411 -0.021782499 -0.061584566 -0.08055849 -0.085490584 0.054441866 0.0911198 -0.018877268
0.04323461 -0.004408035 -0.05893626 0.0025378473 0.09289308 0.0005745509 -0.057452295 0.055496868
-0.034363434 -0.024187239 -0.02010569 -0.036204204 0.0598882 -0.047482453 -0.032007582 -0.0736037
0.07174058 -0.047989134 -0.078951836 0.008932644 -0.063767076 0.078139566 -0.054034323 0.09228804
-0.05533434 -0.032967586 -0.08007205 -0.010703233 -0.029486533 -0.0106386505 0.066189714 0.07055663
-0.017840462 -0.037069358 -0.00783276 0.008271271 0.024238884 0.061454795 -0.02871656 -0.007867269
0.03919592 -0.081332706 -0.05745798 -0.068169355 0.06636614 0.007935022 0.029174048 0.0032842096
-0.07087603 -0.028551146 -0.06618428 -0.062901944 -0.04923265 -0.008989354 -0.04961302 0.049789503
0.028475937 -0.013432246 0.068852924 0.08087636 -0.08285072 -0.031586837 -0.010551428 0.0012918384
-0.014193358 -0.027249582 -0.0058921524 -0.052259855 -0.04272419 0.021821156 0.022798222 0.01624262
0.009362618 -0.071584456 -0.018243905 -0.08302115 -0.04702033 -0.030402262 -0.0530905 0.045307674
-0.060601555 -0.018135713 0.0016958839 -0.025511097 -0.0046299626 -0.0013940686 -0.010067195 -0.07630137
-0.09186319 -0.04226681 0.08674327 -0.06887394 -0.03020527 -0.03655677 0.012406495 -0.07618416
-0.03317874 0.06260432 -0.029499035 -0.009786258 0.03702919 0.02705183 0.033930223 -0.0034120888
-0.08305076 -0.04631931 -0.04638998 -0.008232441 -0.027671138 -0.014679753 -0.045850594 -0.0256853
00000000: f92f 143d 941f 32bc 24e8 a1ba f3f5 e4bc
00000010: af9b 53bd b7f7 82bd 9aef 5ebd da17 573d
00000020: 9863 213d 41d2 70bd d924 99bd a2ba 22bc
00000030: 9c14 58bc fd1f 5abc 37e0 9d3d dc18 b93d
00000040: 4376 033b c13d d7bd 01c3 383d 8196 46bd
00000050: 408a 29bd d7e5 983d 5aef 7abc d23c 83bb
00000060: 0a60 debc a1ca 8ebd 5d7a 1dbd ca49 623b
00000070: 203e 863c 5972 abbd 7611 c8bc 19c8 99b9
00000080: 8992 df3d aa2a f43c 0db1 6abc 1734 743b
00000090: 7912 76bc 0da4 afbd 553a f6bc 5279 52bd
000000a0: 9d0c 75bd 6232 26bd 6a83 99bd fd12 95bb
000000b0: 4c58 56bd 5ef3 e0bb c93c 013d d198 b5bc
000000c0: af29 18bd 4e63 96bc ae52 50bd 1a4b c5bc
000000d0: e7ec 88bd a835 f5bc eba4 db3c 9e15 b73d
000000e0: cada 5a3c a891 0dbd 8ac1 36bd e8a9 7c3d
000000f0: 957a 05bd d513 613c 6e4e 69bd 600c 04bd
00000100: 0abb fdbc 1e56 79bd 9fba b4bb b0cf 4e3b
00000110: 07cb e2bc 7015 56bb db8a e9bc 4501 b23c
00000120: 7ae3 70bd 29bb 523c 3546 6cbd c01d 4f39
00000130: d861 3cbd 00b2 d13d 30db 2cbd b420 06bd
00000140: d534 a9bd d0d0 d4bc 0c05 c03c 95ec 1ebb
00000150: ca64 41bd 3868 64bd a000 5bbc 3e48 74bc
00000160: c6f1 80bd 821c 233d d2cc 4abd 0057 b33d
00000170: 42f7 9dbd f69d a8bd 451a 98bc 9c4e 20bd
00000180: 7250 9e3c 7f7c 243d a420 91bd 8000 2c3d
00000190: 9ea6 05bd bfc6 89bd 15d3 88bd d781 92bd
000001a0: aab9 553b 98a7 513d a83b 2bbd 5ca6 cc3c
000001b0: 2c6c 94ba 9d0a cebb e15f 2b3b 003f 8dbc
000001c0: e439 8bbd a68e dbbc 6a21 4c3c b391 8ebd
000001d0: 4dc5 24bd 7d3b 8f3b 1682 a43d f909 4abd
000001e0: 6b60 373d 2f0b 363d e0f9 ddbd 0e26 c0bd
000001f0: 9d18 86bd d0cc 02bd 2604 82bd 86fb 1b3d
00000200: 3e04 b6bd 3260 913c ac23 17bd ca96 abbc
00000210: af52 783c 3a1a a5bd ec27 99bb f773 ed3a
00000220: a89c f13b 3671 b2bc 1940 7cbd d9fb a4bd
00000230: b015 afbd 6ffe 5e3d 059d ba3d 80a4 9abc
00000240: c616 313d 4771 90bb 2667 71bd 0352 263b
00000250: ba3e be3d 759d 163a 1953 6bbd af50 633d
00000260: acc0 0cbd 5124 c6bc b0b4 a4bc dc4a 14bd
00000270: 544d 753d f67c 42bd 621a 03bd 89bd 96bd
00000280: baec 923d 4190 44bd 80b1 a1bd 395a 123c
00000290: 5098 82bd a307 a03d 1853 5dbd 8301 bd3d
000002a0: 43a6 62bd 0509 07bd d1fc a3bd 9d5c 2fbc
000002b0: be8d f1bc bc4d 2ebc 798e 873d ff7f 903d
000002c0: 2926 92bc 0ad6 17bd fa54 00bc 3a84 073c
000002d0: a090 c63c 06b8 7b3d fe3e ebbc b8e5 00bc
000002e0: e78b 203d c391 a6bd 0f59 6bbd 609c 8bbd
000002f0: f9ea 873d e501 023c 6afe ee3c e53b 573b
00000300: 7427 91bd 18e4 e9bc a08b 87bd bcd2 80bd
00000310: 2da8 49bd 1548 13bc 0637 4bbd 14f0 4b3d
00000320: 5e46 e93c ec12 5cbc c302 8d3d 81a2 a53d
00000330: a3ad a9bd 3361 01bd e6df 2cbc e752 a93a
00000340: 428b 68bc 843a dfbc f512 c1bb 6e0e 56bd
00000350: 8fff 2ebd 48c2 b23c 56c3 ba3c 3e0f 853c
00000360: ab65 193c df9a 92bd 3e74 95bc fe06 aabd
00000370: 6498 40bd 2a0e f9bc 6d75 59bd 8a94 393d
00000380: 5639 78bd 5991 94bc 6c48 de3a a6fc d0bc
00000390: f1b6 97bb 2eb9 b6ba e0f0 24bc e543 9cbd
000003a0: c522 bcbd f61f 2dbd 75a6 b13d c80d 8dbd
000003b0: 0b71 f7bc 8dbc 15bd 9d44 4b3c 7106 9cbd
000003c0: 6ee6 07bd b236 803d f6a7 f1bc 8b56 20bc
000003d0: ecab 173d cd9b dd3c 6bfa 0a3d 5a9d 5fbb
000003e0: 8416 aabd 51b9 3dbd 6b03 3ebd 5ce1 06bc
000003f0: 95ae e2bc 5983 70bc d5cd 3bbd fa69 d2bc

lin3.weight f4 [128, 256]
0.0023014774 0.008140555 -0.060732353 0.0010910636 -0.012468618 0.03312043 0.009396337 0.033977322
-0.034639418 -0.01567848 0.0054540345 -0.024211735 0.022238538 -0.012517186 -0.038546816 -0.056533545
0.022713885 0.039993245 0.039583765 0.053830035 -0.027003985 0.02035975 0.0560271 -0.04006591
0.016390981 -0.037171185 -0.010439903 -0.013321553 0.039213836 -0.028969057 0.05082556 -0.014054151
-0.011879328 -0.063946694 -0.054332636 0.04785912 0.0063062683 -0.0030576186 0.036659297 -0.01830953
0.02821545 0.039475292 0.030314215 -0.002451674 0.031967893 0.031137003 0.0077007185 -0.003241085
0.031179497 -0.016851434 0.049345896 -0.05673317 -0.03205516 0.028543858 -0.042700183 0.049721655
0.03328172 -0.0037162371 -0.0063893194 -0.053088315 -0.0069353627 0.0071103703 -0.03221995 -0.056530163
0.018038042 0.048436783 0.0053766617 0.043529615 -0.04902413 -0.004357847 -0.049353804 0.009178042
0.0011610463 -0.028180629 -0.022546247 -0.02193104 -0.012937598 0.048899382 0.011707559 -0.043797903
0.016547427 0.024027452 0.03534706 -0.046289515 -0.047238484 -0.016668193 -0.028476747 -0.057517063
0.004985798 0.0011970026 0.021146856 0.041501448 0.06298594 0.033814006 0.0002308381 -0.06573457
-0.068850644 -0.06143493 -0.018998787 -0.06147165 -0.040190917 0.024556357 -0.06764805 0.003691569
-0.019483382 -0.010604486 -0.0073704394 -0.033669375 -0.017909912 0.017362457 -0.010896445 0.025742054
-0.052599218 0.05084803 0.027970942 -0.014543705 0.007022632 0.030766154 -0.0008644722 0.020897789
0.042370297 0.031620827 0.04916057 -0.02319754 -0.06215542 -0.00057220855 -0.022378547 0.0210083
0.0066939816 -0.020658644 -0.07867158 0.055300076 0.022370733 -0.018413492 -0.051366266 -0.021233598
0.029426863 -0.03860708 0.024799787 0.02140139 -0.048422858 0.019636584 0.008055661 -0.016693339
-0.053126425 0.007929881 -0.010177226 -0.017612848 0.0039312467 -0.06828097 0.048862692 0.03952729
-0.028286023 0.049378492 -0.013389066 0.0037414804 -0.06204765 0.04483294 -0.045022413 -0.003493566
-0.034454983 0.035927586 -0.011975115 0.0020397552 -0.03753375 -0.020903675 0.06173756 -0.06446601
-0.030962033 0.0010584444 -0.015158623 0.019623071 -0.03626694 0.05182693 -0.058973026 -0.041921698
-0.023571923 0.021637127 0.01862391 -0.013664226 0.039167024 0.03725438 -0.033368744 -0.066907816
0.033599023 0.043040324 0.029115442 -0.030676194 -0.018616337 0.0423756 0.009730107 -0.048552662
0.01188726 -0.035070036 -0.030355733 -0.051410414 -0.008671532 -0.045822766 0.01608677 -0.022898868
-0.05209715 -0.021237178 0.05293203 -0.01619833 0.017646484 -0.019485926 -0.00013041092 0.028500715
-0.0457601 -0.07163139 -0.016597882 -0.019498557 -0.021677604 0.04668214 0.013454366 -0.029632896
0.028313898 -0.043107294 -0.01807672 -0.037239168 -0.04284484 -0.004295823 -0.026663857 -0.01850179
-0.070659384 -0.045440692 -0.009818246 -0.063813426 0.031135663 -0.047553744 -0.05901029 0.024171045
-0.017085768 -0.00477695 -0.020180726 -0.033714425 -0.028633015 0.02817254 -0.061564635 0.061022528
0.040148556 -0.021576036 0.050999336 0.0031385052 -0.0039867335 -0.03474594 -0.014850471 -0.044843834
-0.06320154 -0.004377447 -0.01898976 -0.012776904 -0.04172673 -0.06358826 0.023510318 0.012422249
00000000: 62d4 163b f65f 053c 7dc2 78bd 0502 8f3a
00000010: 2d49 4cbc 4aa9 073d 18f3 193c ce2b 0b3d
00000020: 10e2 0dbd 2870 80bc c2b7 b23b b057 c6bc
00000030: 982d b63c e214 4dbc 44e3 1dbd b88f 67bd
00000040: 7812 ba3c f5cf 233d 9622 223d e27c 5c3d
00000050: 7637 ddbc 7ec9 a63c ac7c 653d 271c 24bd
00000060: 6146 863c d040 18bd 200c 2bbc a542 5abc
00000070: b09e 203d 8450 edbc 762e 503d 6243 66bc
00000080: 83a1 42bc 7cf6 82bd e68b 5ebd ed07 443d
00000090: d0a4 ce3b 5462 48bb 0f28 163d defd 95bc
000000a0: 1624 e73c d8b0 213d 8455 f83c 44ac 20bb
000000b0: c4f0 023d 0713 ff3c 4f56 fc3b 6268 54bb
000000c0: 256c ff3c 050c 8abc ec1e 4a3d 0a61 68bd
000000d0: 454c 03bd cfd4 e93c 63e6 2ebd efa8 4b3d
000000e0: 6a52 083d 1d8c 73bb 7f5d d1bb 2273 59bd
000000f0: 0a42 e3bb 1cfe e83b 11f9 03bd 2c8c 67bd
00000100: 84c4 933c a665 463d b52e b03b 1c4c 323d
00000110: 87cd 48bd 45cc 8ebb 3727 4abd 805f 163c
00000120: 402e 983a 10db e6bc e8b2 b8bc b9a8 b3bc
00000130: 38f8 53bc b84a 483d 10d1 3f3c 6e65 33bd
00000140: 788e 873c 38d5 c43c 14c8 103d 139a 3dbd
00000150: 247d 41bd bc8b 88bc 1148 e9bc 0397 6bbd
00000160: e85f a33b bee4 9c3a 2c3c ad3c 6cfd 293d
00000170: c6fe 803d 8e80 0a3d 210d 7239 d99f 86bd
00000180: 9101 8dbd 31a3 7bbd 58a3 9bbc b2c9 7bbd
00000190: 3b9f 24bd 6a2a c93c 108b 8abd 40ee 713b
000001a0: 9d9b 9fbc 70be 2dbc ba83 f1bb e6e8 09bd
000001b0: cfb7 92bc b63b 8e3c 0187 32bc 00e1 d23c
000001c0: 4772 57bd 0646 503d 5123 e53c b848 6ebc
000001d0: 1b1e e63b 4d09 fc3c bf9d 62ba d731 ab3c
000001e0: 7a8c 2d3d d784 013d 985c 493d c408 bebc
000001f0: af96 7ebd 4400 16ba 3753 b7bc 9919 ac3c
00000200: 3059 db3b 513c a9bc 911e a1bd 5582 623d
00000210: d442 b73c e4d7 96bc 6f65 52bd 15f2 adbc
00000220: 9b10 f13c 7522 1ebd ec28 cb3c f851 af3c
00000230: 0c57 46bd e7dc a03c e4fb 033c 78c0 88bc
00000240: 189b 59bd 55ec 013c 61be 26bc d248 90bc
00000250: b0d1 803b e5d6 8bbd 3f24 483d 5ee7 213d
00000260: 17b8 e7bc 1a41 4a3d d05d 5bbc a033 753b
00000270: ad25 7ebd bfa2 373d 6c69 38bd 50f4 64bb
00000280: ab20 0dbd ce28 133d 4633 44bc 6aad 053b
00000290: fdbc 19bd 2f3e abbc 86e0 7c3d c106 84bd
000002a0: 17a4 fdbc 80bb 8a3a e05b 78bc 90c0 a03c
000002b0: a58c 14bd 7a48 543d b38d 71bd 16b6 2bbd
000002c0: e819 c1bc 5840 b13c 2c91 983c ebdf 5fbc
000002d0: 9a6d 203d 0c98 183d aaad 08bd f706 89bd
000002e0: 219f 093d 0d4b 303d 8283 ee3c a44c fbbc
000002f0: 4a81 98bc 0a92 2d3d 076b 1f3c 28df 46bd
00000300: c8c2 423c 99a5 0fbd 96ac f8bc ba93 52bd
00000310: 0b13 0ebc a7b0 3bbd 67c8 833c 6896 bbbc
00000320: d263 55bd 97f9 adbc 42cf 583d 5cb2 84bc
00000330: 5c8f 903c f3a0 9fbc eabe 08b9 557a e93c
00000340: f16e 3bbd 7ab3 92bd 48f8 87bc 70bb 9fbc
00000350: 3b95 b1bc c635 3f3d b36f 5c3c b0c0 f2bc
00000360: 8cf2 e73c 4691 30bd a115 94bc 1988 18bd
00000370: 127e 2fbd fac3 8cbb 296e dabc 1191 97bc
00000380: deb5 90bd 0520 3abd b5dc 20bc 9db0 82bd
00000390: 3810 ff3c b7c7 42bd c6b4 71bd 5b02 c63c
000003a0: 74f7 8bbc f687 9cbb 0d52 a5bc 2318 0abd
000003b0: c98f eabc 19ca e63c 332b 7cbd c2f2 793d
000003c0: d072 243d 3ac0 b0bc aee4 503d 61af 4d3b
000003d0: 25a3 82bb c251 0ebd 644f 73bc 2bae 37bd
000003e0: cf6f 81bd b070 8fbb 6a90 9bbc 3856 51bc
000003f0: a6e9 2abd 903a 82bd b698 c03c b086 4b3c

lin3.bias f4 [128]
-0.014413586 0.12245739 -0.043625433 0.075856306 -0.02041929 0.06492009 -0.020012738 -0.07379892
-0.029619947 -0.008691648 0.09530686 0.05726888 0.029460978 0.041027177 -0.040412042 -0.011771941
0.06450418 0.035696574 0.06072113 0.12129085 -0.025233503 0.054436553 -0.061207946 -0.008450293
0.0043140347 0.096348144 0.068178035 -0.0060356683 -0.04779215 -0.06771715 0.08190809 -0.015755797
-0.08837383 0.08619665 0.044796072 -0.019814122 0.03226921 0.00012818586 -0.029264292 0.012402366
0.116132595 -0.061922595 -0.07829089 0.10967206 -0.056211166 0.08096268 -0.059951607 0.07671426
-0.032837026 -0.026798133 -0.0029827573 0.016028106 0.045277804 -0.005592686 -0.014961519 -0.028734772
0.04093221 0.088618465 0.0031397736 0.06630001 -0.03968605 0.031627882 0.023870954 -0.05362652
0.01913612 -0.082327224 -0.0027446996 0.05741359 -0.0722691 0.13164842 -0.039320655 0.097125284
0.044177894 0.0022082722 -0.04637388 -0.015237437 -0.015418403 0.026707772 -0.07673844 0.0867186
0.02805588 -0.019342734 -0.036097832 0.006783063 0.05058208 -0.00469257 -0.06284941 0.0007166088
0.047699194 -0.096262544 0.04562674 0.016301036 -0.009480225 -0.06693873 -0.053270843 0.113043435
-0.033436704 -0.09562656 0.013732798 0.10242572 0.03332687 -0.012295858 -0.0049318173 0.08346674
-0.041594833 -0.03758705 0.039952625 -0.034562502 0.082932726 0.06286603 0.05947453 0.08471682
-0.046530847 0.034895446 0.028484918 0.07594147 -0.026468813 -0.08086919 -0.04491119 0.0041881464
0.10368666 -0.07207262 0.0038265067 0.05042068 0.054326333 -0.032572262 -0.036351934 0.11424407
00000000: f626 6cbc f1ca fa3d 95b0 32bd 8d5a 9b3d
00000010: 5b46 a7bc d3f4 843d c1f1 a3bc e323 97bd
00000020: 88a5 f2bc 6a67 0ebc 3e30 c33d c692 6a3d
00000030: 2658 f13c 1d0c 283d 1987 25bd 19df 40bc
00000040: c41a 843d 9236 123d b8b6 783d 5667 f83d
00000050: 7eb6 cebc ddf8 5e3d 2fb5 7abd 1973 0abc
00000060: bf5c 8d3b 2d52 c53d eda0 8b3d dbc6 c5bb
00000070: b4c1 43bd 4aaf 8abd 6ebf a73d 4d12 81bc
00000080: 57fd b4bd df87 b03d 167c 373d 3a51 a2bc
00000090: b82c 043d a169 0639 abbb efbc 4b33 4b3c
000000a0: edd6 ed3d 8ca2 7dbd f956 a0bd bf9b e03d
000000b0: ae3d 66bd c3cf a53d d18f 75bd 5e1c 9d3d
000000c0: 1e80 06bd c287 dbbc 5d7a 43bb 604d 833c
000000d0: 3875 393d da42 b7bb 2921 75bc 2f65 ebbc
000000e0: 88a8 273d 997d b53d a9c4 4d3b 4dc8 873d
000000f0: d78d 22bd 3d8c 013d 058d c33c 7ba7 5bbd
00000100: 5ac3 9c3c 2d9b a8bd 6be0 33bb 832a 6b3d
00000110: d201 94bd d8ce 063e b20e 21bd 9fe9 c63d
00000120: e1f3 343d a9b8 103b 8af2 3dbd 71a6 79bc
00000130: 789d 7cbc 42ca da3c 0b29 9dbd 8599 b13d
00000140: 72d5 e53c a774 9ebc 52db 13bd 7544 de3b
00000150: 282f 4f3d 21c4 99bb 31b7 80bd cdda 3b3a
00000160: 3b60 433d 4c25 c5bd 1be3 3a3d c089 853c
00000170: f252 1bbc 2c17 89bd 8732 5abd 5183 e73d
00000180: edf4 08bd dcd7 c3bd 88ff 603c 93c4 d13d
00000190: c281 083d 9174 49bc 159b a1bb 9cf0 aa3d
000001a0: 585f 2abd e1f4 19bd 5da5 233d 6991 0dbd
000001b0: a2d8 a93d e8bf 803d 919b 733d 0380 ad3d
000001c0: 2197 3ebd 87ee 0e3d 3459 e93c 3487 9b3d
000001d0: 20d5 d8bc bf9e a5bd ccf4 37bd b83c 893b
000001e0: ac59 d43d cf9a 93bd 21c6 7a3b ea85 4e3d
000001f0: 4a85 5e3d 7e6a 05bd c4e5 14bd ccf8 e93d

lin4.weight f4 [64, 128]
-0.056624457 -0.101280145 -0.002663735 -0.014262564 0.024059692 0.12371648 0.063263446 -0.015697908
-0.10139808 0.23221934 0.08689509 0.06959587 0.14702715 0.009394233 0.08684165 -0.026389604
-0.028868033 -0.08333157 0.13432753 -0.06870341 -0.0626874 0.11871254 -0.03542979 -0.055987526
0.043895476 -0.042770714 0.07490987 -0.08852444 -0.019783933 -0.062588565 0.024168504 -0.027869113
0.043128893 -0.07333314 -0.0970175 -0.0013599617 0.041342806 0.09549243 0.053045098 -0.1213113
0.07068215 0.01615995 -0.033523504 0.054892633 0.060984857 0.25144 -0.0626531 -0.13496171
0.07587779 0.040100966 0.11786803 0.17781791 -0.12174306 0.014544298 -0.03885552 -0.038836874
-0.15961987 -0.25308722 0.015520988 -0.0919499 -0.05208028 0.0066273334 0.08348343 0.05893949
-0.103423364 -0.0068867253 0.019754466 -0.21858701 -0.0292664 -0.0259237 -0.057310246 -0.05223911
-0.08399238 -0.013832003 0.04297857 -0.074922115 0.036210384 0.053059444 0.037768845 -0.026784511
-0.14845158 0.009864387 0.019250711 -0.041237224 -0.09985745 0.085463926 0.058202986 -0.07648334
0.043003358 -0.04380086 -0.054502506 0.038818266 0.1420315 -0.03907634 -0.019179707 -0.20324688
-0.04068356 0.06608047 0.11815771 0.106430165 -0.17464402 0.08977999 -0.01893891 0.09881136
0.0092795165 0.11439452 -0.0034144127 0.021067828 0.00507014 0.0020829171 0.11646594 0.13746859
-0.016304161 0.056814443 0.099314146 -0.46024722 -0.07012422 0.0011042911 0.021672478 0.16365059
-0.013502568 0.061240073 -0.18356383 0.032425713 0.13011417 0.035317224 0.010310491 0.13047832
-0.0029602165 -0.045116525 -0.07122607 -0.018124709 -0.0033360468 -0.10468972 -0.026839595 -0.079149075
0.06711485 -0.02797283 0.011692191 -0.063850194 0.039869852 0.03072247 -0.076855525 0.005990149
0.02250355 -0.04313551 -0.081889145 0.051041503 -0.08592228 0.010087021 -0.029266171 -0.081220604
-0.05041059 -0.024886377 -0.074460395 -0.038920775 -0.054876704 -0.06191923 -0.095928445 -0.02651436
-0.033725675 0.029850245 -0.036630437 0.023455737 0.016985618 -0.028724242 -0.019295506 -0.03485408
-0.0698957 0.05004349 0.08217062 -0.016743261 -0.0025738964 0.013753994 -0.016785404 -0.08751005
-0.08687102 0.06323092 -0.04824271 -0.075754076 -0.05621449 -0.07290166 -0.12154984 -0.07027057
-0.072382815 0.029439408 -0.057347756 0.05016294 0.0054908595 0.07255879 -0.0011935317 -0.06864049
-0.0021554772 0.040728807 0.07588065 0.047291175 0.0797513 -0.09035686 -0.017718872 0.047004145
-0.017667409 -0.00408591 0.057787467 0.06931675 -0.04426198 -0.0200881 -0.074658714 -0.057304326
-0.041506555 -0.071000956 -0.04983082 -0.05827427 -0.051490124 0.026968548 0.014784903 -0.03844014
0.06771438 -0.06294202 -0.018987928 -0.07052819 -0.034885854 0.040887848 -0.08580013 -0.07606706
0.035417005 -0.08681388 -0.06639222 0.04986722 -0.09268897 -0.083199464 0.042920597 0.05652501
-0.027530631 -0.06699321 0.062042248 -0.059785567 -0.053961128 0.00865768 -0.09387238 -0.04567867
-0.04940308 -0.097799174 -0.043745503 0.028185928 -0.06195654 -0.06682567 0.017393835 0.05258679
-0.06398082 0.06469986 0.06027034 -0.03625911 -0.04825608 -0.028475538 -0.04426369 0.027555317
00000000: 0cef 67bd f76b cfbd 0f92 2ebb 87ad 69bc
00000010: d518 c53c 115f fd3d 4490 813d e698 80bc
00000020: cca9 cfbd e8ca 6d3e 0ef6 b13d 4888 8e3d
00000030: 498e 163e 45ea 193c 09da b13d 032f d8bc
00000040: a77c ecbc bea9 aabd 288d 093e 60b4 8cbd
00000050: 4062 80bd 8f1f f33d d41e 11bd 2d53 65bd
00000060: becb 333d 5830 2fbd 596a 993d 4d4c b5bd
00000070: ea11 a2bc 6f2e 80bd 07fd c53c c44d e4bc
00000080: eca7 303d af2f 96bd 1cb1 c6bd be40 b2ba
00000090: 1357 293d 8991 c33d d145 593d 0f72 f8bd
000000a0: cec1 903d df61 843c f14f 09bd 19d7 603d
000000b0: 42cb 793d bebc 803e 4550 80bd 6733 0abe
000000c0: d165 9b3d e940 243d cb64 f13d e615 363e
000000d0: 6d54 f9bd 354b 6e3c f726 1fbd 6a13 1fbd
000000e0: 6473 23be a694 81be be4b 7e3c 3b50 bcbd
000000f0: 2252 55bd 1a2a d93b 5cf9 aa3d 896a 713d
00000100: a1cf d3bd 0aaa e1bb 1ed4 a13c 46d5 5fbe
00000110: 17c0 efbc f05d d4bc 26be 6abd adf8 55bd
00000120: 3204 acbd a09f 62bc 4c0a 303d c470 99bd
00000130: 5751 143d dc54 593d 81b3 1a3d 316b dbbc
00000140: b103 18be 3d9e 213c abb3 9d3c 5de8 28bd
00000150: 1082 ccbd b607 af3d 4166 6e3d 4ca3 9cbd
00000160: 4a24 303d 8868 33bd 053e 5fbd e7ff 1e3d
00000170: b570 113e 830e 20bd c31e 9dbc f31f 50be
00000180: cea3 26bd 3355 873d abfc f13d 0ff8 d93d
00000190: e2d5 32be 92de b73d c625 9bbc 9c5d ca3d
000001a0: 1d09 183c ad47 ea3d 57c4 5fbb 7096 ac3c
000001b0: 6b23 a63b 8d81 083b b285 ee3d 91c4 0c3e
000001c0: 4e90 85bc 43b6 683d 3765 cb3d 86a5 ebbe
000001d0: 499d 8fbd dcbd 903a 7b8a b13c 0594 273e
000001e0: e039 5dbc dfd6 7a3d 28f8 3bbe d3d0 043d
000001f0: a63c 053e cba8 103d 55ed 283c 1c9c 053e
00000200: 3100 42bb 1bcc 38bd f9de 91bd 457a 94bc
00000210: 94a1 5abb 9067 d6bd b6de dbbc e918 a2bd
00000220: 8373 893d 4727 e5bc 9a90 3f3c e4c3 82bd
00000230: 924e 233d b0ad fb3c 6e66 9dbd 0349 c43b
00000240: 5d59 b83c dcae 30bd 7fb5 a7bd e510 513d
00000250: 05f8 afbd 0844 253c 9cbf efbc fd56 a6bd
00000260: 567b 4ebd 84de cbbc b17e 98bd 646b 1fbd
00000270: 65c6 60bd 059f 7dbd 2276 c4bd a534 d9bc
00000280: ef23 0abd 8088 f43c cc09 16bd 3f26 c03c
00000290: 6c25 8b3c 1a4f ebbc 9c11 9ebc 27c3 0ebd
000002a0: 7a25 8fbd 67fa 4c3d 1249 a83d 2a29 89bc
000002b0: d1ae 28bb 6f58 613c 8b81 89bc 7838 b3bd
000002c0: 6fe9 b1bd 367f 813d 269a 45bd f424 9bbd
000002d0: 2a41 66bd 774d 95bd 1fef f8bd 04ea 8fbd
000002e0: 713d 94bd ea2a f13c 7be5 6abd a877 4d3d
000002f0: abec b33b b499 943d 4770 9cba 6393 8cbd
00000300: e842 0dbb 40d3 263d 5067 9b3d 64b4 413d
00000310: a654 a33d 040d b9bd 2b27 91bc 6b87 403d
00000320: 3ebb 90bc 19e3 85bb 8db2 6c3d f1f5 8d3d
00000330: 0d4c 35bd cd8f a4bc abe6 98bd f1b7 6abd
00000340: c702 2abd f368 91bd 671b 4cbd 00b1 6ebd
00000350: 4fe7 52bd 25ed dc3c 613c 723c 6973 1dbd
00000360: d6ad 8a3d bfe7 80bd 928c 9bbc 1571 90bd
00000370: 78e4 0ebd 047a 273d fbb7 afbd 0cc9 9bbd
00000380: 6c11 113d 7acb b1bd a5f8 87bd 9241 4c3d
00000390: b7d3 bdbd 7b64 aabd 82cd 2f3d c586 673d
000003a0: eb87 e1bc bc33 89bd 0320 7e3d b6e1 74bd
000003b0: 5806 5dbd f1d8 0d3c 2a40 c0bd 8f19 3bbd
000003c0: e25a 4abd ef4a c8bd 7c2e 33bd 2de6 e63c
000003d0: 24c6 7dbd e6db 88bd 847d 8e3c 3f65 573d
000003e0: 6008 83bd 5c81 843d 08de 763d 6f84 14bd
000003f0: 2ba8 45bd 8845 e9bc d84d 35bd b0bb e13c

lin4.bias f4 [64]
0.11575604 -0.013712363 -0.0055703064 -0.021049177 -0.051386755 -0.08848865 0.1444798 -0.009624463
-0.009273478 -0.056074843 0.17801309 -0.037956942 -0.042061687 -0.09409475 -0.094123416 -0.10203411
-0.059131615 0.1064755 -0.07901692 0.043803174 0.07204469 -0.031747118 0.07167712 0.06263447
-0.034988943 0.024083266 0.09288067 -0.085548125 -0.03967548 -0.011101059 -0.025411777 0.018461248
-0.032692745 -0.057963397 -0.009906802 -0.073124975 -0.004354376 0.10961695 -0.07338373 0.056433406
0.01823975 -0.08326242 -0.03936221 -0.008577584 -0.0014438271 0.11407453 -0.077072494 0.009058691
-0.055468753 -0.074518144 -0.08304234 -0.0018369813 0.15670869 -0.08590086 0.08764875 0.14667477
0.16100012 0.078332245 0.056935817 0.053062256 0.08428393 -0.009042236 0.008901698 0.008906416
00000000: 8111 ed3d d2a9 60bc 1e87 b6bb 536f acbc
00000010: eb7a 52bd 8a39 b5bd 83f2 133e ecaf 1dbc
00000020: c9ef 17bc bcae 65bd 1049 363e bd78 1bbd
00000030: e048 2cbd c0b4 c0bd c7c3 c0bd 42f7 d0bd
00000040: fe33 72bd d40f da3d 9fd3 a1bd f56a 333d
00000050: 2b8c 933d 4409 02bd 74cb 923d 8046 803d
00000060: 9150 0fbd 454a c53c 3938 be3d db33 afbd
00000070: c282 22bd 37e1 35bc 5c2c d0bc 0b3c 973c
00000080: d4e8 05bd 076b 6dbd 2450 22bc 8cc2 95bd
00000090: 27af 8ebb da7e e03d 364a 96bd b726 673d
000000a0: 876b 953c 7d85 aabd 453a 21bd ff88 0cbc
000000b0: cc3e bdba e89f e93d 2fd8 9dbd e76a 143c
000000c0: 3433 63bd f89c 98bd 1a12 aabd ddc6 f0ba
000000d0: 3e78 203e caec afbd 3081 b33d e931 163e
000000e0: 37dd 243e a86c a03d 8835 693d cf57 593d
000000f0: 0e9d ac3d e325 14bc 6dd8 113c 37ec 113c

lin5.weight f4 [12, 64]
-0.009631463 0.044592835 0.09401591 -0.10260523 -0.06646769 0.09159868 0.08455728 0.08821453
0.041802514 -0.050484046 -0.03245559 -0.23991127 0.054749254 -0.071164206 -0.026586208 -0.01546615
0.07217233 0.019558186 -0.10042219 0.04422847 0.115811065 0.030149333 0.084804624 -0.037551608
0.007304183 -0.17234781 -0.14044328 -0.054099627 0.0053394074 -0.06785414 -0.00749032 -0.047343057
0.10398255 -0.09156952 0.0035100863 0.022085715 0.07564517 -0.04991567 -0.109678954 -0.0028032064
0.08800964 0.0127837835 -0.046150632 0.029344078 -0.110211976 -0.101068035 -0.107357316 -0.08684552
-0.053565226 0.02452907 -0.06963629 0.05951418 -0.14366218 0.006270498 0.020294454 0.21852104
-0.08560844 0.22168653 0.03502254 -0.08472062 -0.17114797 0.05892839 0.16478056 0.002017391
0.12761016 -0.014914744 0.03804372 -0.008199049 -0.027602106 0.06110223 0.13982584 -0.029184027
-0.032834347 0.08441672 0.033561148 0.0877955 0.008564369 0.04767196 -0.102081314 -0.057841852
-0.025203064 0.344866 -0.026109656 0.046772797 -0.089147866 -0.03510669 -0.0007146296 0.110418454
-0.003782296 0.028203107 0.07327549 0.13418269 0.06039397 0.0047648675 -0.03899965 -0.08850669
-0.10947131 0.02717996 -0.10319331 0.080501534 -0.007787135 -0.017463997 -0.120280474 -0.14519879
-0.0143838795 0.025143651 0.03436715 -0.005533614 -0.0036850618 0.16306973 0.01767186 -0.11505106
-0.06847765 0.07458565 -0.07875177 0.049915776 0.08973288 0.096114144 -0.11022545 0.20912409
-0.048375793 0.06256421 0.11459862 -0.065819204 0.039264936 -0.0035093767 -0.11788246 0.10617115
0.013905751 0.002605123 0.09571732 0.031493627 -0.023164198 -0.020804469 -0.2524009 -0.15469249
-0.031520847 0.109656915 0.04135698 0.13885327 0.025126172 0.0069275615 -0.03431845 -0.09073489
-0.064978406 -0.14311773 0.065526076 -0.1035976 0.123664305 -0.10619532 -0.053989235 -0.14181763
0.0021390885 -0.019942906 -0.0696176 -0.08856181 0.03264231 -0.0519422 -0.10376174 0.025770152
0.04015312 -0.005220101 0.05587979 -0.0029263513 0.109145574 0.006335821 -0.105220854 0.28284377
-0.010361315 -0.13877219 0.015987158 0.030799592 -0.0058625136 3.834629e-05 0.085039385 0.015944991
0.060971115 0.086790025 0.028180698 -0.0043476396 -0.11154963 -0.08012241 0.1584327 -0.13164486
-0.15783 0.051588535 0.05020262 -0.055188827 -0.124490604 -0.03924254 0.012232011 0.061366662
0.172847 0.01264456 -0.08708892 -0.008363777 -0.09083487 -0.03978413 -0.054642234 -0.02685228
0.011168571 -0.08935642 -0.08627576 0.11931381 0.06443789 -0.08502095 0.027552597 -0.08809172
-0.069020584 0.035810076 0.08449175 0.0056869863 0.14096873 -0.05332985 0.0050939224 -0.1164682
0.09455103 -0.15537357 -0.17851615 0.07389371 0.060511984 -0.07581165 -0.07054385 -0.110259175
0.04130361 0.034944694 0.07233861 -0.025238676 0.0043785837 0.1416931 0.022216061 -0.06502278
0.23767081 -0.02350109 0.109278634 0.018093973 -0.1083374 0.041711107 -0.007878572 -0.07712427
-0.0881353 -0.05710569 -0.025876246 -0.020069253 -0.029148314 -0.10346256 -0.023097197 0.18948317
0.10136545 -0.11854612 0.114174776 -0.01626378 -0.014552471 -0.10705241 0.08792868 0.053073972
00000000: 49cd 1dbc faa6 363d 6a8b c03d b122 d2bd
00000010: 3620 88bd 1798 bb3d 5e2c ad3d d2a9 b43d
00000020: 1d39 2b3d 5cc8 4ebd 27f0 04bd 4dab 75be
00000030: c140 603d 8abe 91bd 52cb d9bc bc65 7dbc
00000040: 16cf 933d 7d38 a03c 26aa cdbd ea28 353d
00000050: 5a2e ed3d bcfb f63c 0cae ad3d b7cf 19bd
00000060: ee57 ef3b f27b 30be 5dd0 0fbe 9297 5dbd
00000070: 32f6 ae3b 1df7 8abd 5c71 f5bb cbea 41bd
00000080: cef4 d43d cd88 bbbd 7a09 663b 1aed b43c
00000090: dbeb 9a3d 6074 4cbd 5c9f e0bd 00b6 37bb
000000a0: 663e b43d 1373 513c 7208 3dbd fe62 f03c
000000b0: d1b6 e1bd c2fc cebd 27de dbbd 10dc b1bd
000000c0: 3667 5bbd 30f1 c83c 799d 8ebd 24c5 733d
000000d0: 2e1c 13be c078 cd3b 8e40 a63c fbc3 5f3e
000000e0: 7a53 afbd cb01 633e cb73 0f3d 0182 adbd
000000f0: 6a41 2fbe e55e 713d 3cbc 283e 3436 043b
00000100: 3dac 023e f85c 74bc bbd3 1b3d 4e55 06bc
00000110: d01d e2bc 5546 7a3d 812e 0f3e 5713 efbc
00000120: 4f7d 06bd ace2 ac3d 6a77 093d 21ce b33d
00000130: 9151 0c3c ac43 433d 0210 d1bd 94eb 6cbd
00000140: a876 cebc 4792 b03e ebe3 d5bc d594 3f3d
00000150: 2893 b6bd 08cc 0fbd fb55 3bba 1223 e23d
00000160: 66e0 77bb 340a e73c 7611 963d 3067 093e
00000170: ab5f 773d 9b22 9c3b 19be 1fbd ff42 b5bd
00000180: 7f32 e0bd 82a8 de3c 0457 d3bd fddd a43d
00000190: 392b ffbb a810 8fbc 9c55 f6bd feae 14be
000001a0: 5daa 6bbc 0ffa cd3c 92c4 0c3d 5253 b5bb
000001b0: 1481 71bb c0fb 263e 94c4 903c e49f ebbd
000001c0: 033e 8cbd 5cc0 983d 9c48 a1bd 7c74 4c3d
000001d0: dfc5 b73d 7ed7 c43d e1bd e1bd a024 563e
000001e0: b225 46bd aa21 803d aeb2 ea3d 38cc 86bd
000001f0: 45d4 203d 92fd 65bb 5c6c f1bd 4370 d93d
00000200: f2d4 633c b6ba 2a3b 7107 c43d 76ff 003d
00000210: d8c2 bdbc 226e aabc b13a 81be b567 1ebe
00000220: 011c 01bd ce93 e03d f065 293d 8d2f 0e3e
00000230: 67d5 cd3c 9900 e33b 8191 0cbd 37d3 b9bd
00000240: 6613 85bd 748d 12be 8932 863d fa2a d4bd
00000250: b643 fd3d ef7c d9bd d123 5dbd a438 11be
00000260: f32f 0c3b 4e5f a3bc ac93 8ebd e55f b5bd
00000270: f1b3 053d 58c1 54bd 0981 d4bd ed1b d33c
00000280: 9977 243d 620d abbb 35e2 643d 07c8 3fbb
00000290: b787 df3d b89c cf3b 087e d7bd e6d0 903e
000002a0: 81c2 29bc 4c1a 0ebe 80f7 823c 6d4f fc3c
000002b0: 541a c0bb 04d6 2038 2129 ae3d 129f 823c
000002c0: d9bc 793d f8be b13d 35db e63c a576 8ebb
000002d0: 2274 e4bd 3817 a4bd 2f3c 223e e9cd 06be
000002e0: 309e 21be 804e 533d 43a1 4d3d ae0d 62bd
000002f0: eef4 febd c9bc 20bd c668 483c 9c5b 7b3d
00000300: cefe 303e 212b 4f3c ad5b b2bd 3908 09bc
00000310: a207 babd aff4 22bd 89d0 5fbd 50f9 dbbc
00000320: 62fc 363c 8000 b7bd 58b1 b0bd cc5a f43d
00000330: 03f8 833d 771f aebd fcb5 e13c 6f69 b4bd
00000340: aa5a 8dbd 96ad 123d 030a ad3d e659 ba3b
00000350: 1b5a 103e 6770 5abd ebea a63b e186 eebd
00000360: f8a3 c13d 401a 1fbe f0cc 36be 9655 973d
00000370: 6adb 773d 2343 9bbd 4b79 90bd 90cf e1bd
00000380: f92d 293d 2b22 0f3d 4426 943d 57c1 cebc
00000390: 397a 8f3b ff17 113e 75fe b53c aa2a 85bd
000003a0: fa5f 733e 5c85 c0bc 7acd df3d d039 943c
000003b0: 00e0 ddbd 44d9 2a3d 2015 01bc 54f3 9dbd
000003c0: 4880 b4bd a8e7 69bd 6cfa d3bc 4668 a4bc
000003d0: 72c8 eebc 2ee4 d3bd 5536 bdbc e007 423e
000003e0: b098 cf3d 4fc8 f2bd 77d4 e93d 9e3b 85bc
000003f0: 7d6d 6ebc 4b3e dbbd f413 b43d 1864 593d

lin5.bias f4 [12]
0.075587675 0.074010864 -0.07112323 0.095031366 0.14720233 -0.044929173 -0.06547994 0.08832206
-0.039261837 -0.0006400919 -0.03555309 -0.032385778
00000000: b6cd 9a3d 0293 973d 0ea9 91bd ce9f c23d
00000010: 35bc 163e a707 38bd 591a 86bd 32e2 b43d
00000020: 05d1 20bd d7cb 27ba 1ea0 11bd f3a6 04bd
