src/virtuose_teleoperation/network_controller/Brick_demonstration/Lift_with_grasp_skill.pth (torch, 462279 bytes, 10 tensors)

lin1.weight f4 [256, 27]
0.17747442 -0.17828189 0.09734612 -0.09141989 0.09999712 0.00025546178 0.039098606 -0.04498625
0.14439093 -0.18980004 0.04422881 -0.1544333 0.16249762 -0.011178889 0.16087802 0.072968595
-0.18709369 0.12395257 0.0417055 -0.013155267 0.15016718 0.14029126 -0.16041784 -0.0407866
-0.1442032 -0.0802999 -0.27639124 0.029532483 -0.013210867 -0.056772754 0.123799495 0.08498707
-0.1463075 -0.114256114 0.05329636 0.18154283 -0.031492665 -0.1705836 0.059491146 -0.022871152
-0.043881603 0.053859245 -0.029096998 0.16043474 -0.05111417 0.09674178 0.1781328 0.09006804
0.12988432 0.055384237 0.12551852 -0.13550583 -0.05375664 -0.03545681 -0.041330032 0.13508813
0.019188283 0.009345654 0.008885925 0.19809605 0.0033608866 -0.027258229 0.07967611 -0.025110196
0.12425121 0.09992489 0.17072238 0.060741678 0.10057585 0.12647773 -0.15822206 -0.041655276
0.05634309 0.1607265 0.19389194 0.02840907 -0.16603902 2.1525757e-05 -0.06828087 0.15234224
-0.054243855 0.15063772 0.15941662 0.18177736 -0.12372688 0.026581941 0.092944466 -0.15179926
0.121083185 0.12643127 0.0020947675 -0.14377531 -0.0036880372 0.15525645 -0.018698659 -0.08266737
-0.039023355 0.34913558 0.27818212 -0.5966327 -0.13040505 -0.05352742 -0.027797403 -0.14263509
0.02164432 -0.09362265 -0.3015472 -0.5767675 -0.039941244 -0.03527785 -0.17939223 -0.13834824
0.0063052718 0.060501184 -0.13532682 -0.08380062 0.36945143 0.15706527 0.047642145 0.13060692
0.11905266 0.5989911 0.12817708 0.16280504 0.0047304346 0.18867932 -0.053244755 -0.19227836
0.1873875 0.06665611 -0.16893257 -0.13614872 0.18023184 -0.101648144 -0.34397933 -0.072984524
-0.016626203 -0.03804399 -0.0035379298 0.08507476 -0.039171375 -0.16938923 0.0049210014 0.024633065
0.17857943 -0.023671642 -0.020037815 -0.0978775 -0.0033594423 -0.012061144 -0.1416522 -0.12758571
0.029859422 -0.1326979 -0.13139842 0.11758465 -0.02132047 -0.03769071 -0.09307605 0.18486623
-0.08667351 0.17701127 0.08606443 -0.06515035 -0.091230236 -0.11333949 0.000940508 -0.16789393
0.17850304 -0.110576645 0.17141776 -0.0022844272 0.12711927 -0.0789506 -0.1866711 0.26519245
0.18683738 -0.037795328 -0.0696385 0.0060103014 0.160035 -0.10149141 -0.18213972 0.0708847
0.1236128 0.07965162 -0.029185006 0.21565512 -0.1317864 -0.17402369 -0.029368214 -0.050083455
-0.06846085 0.08041794 -0.13581827 0.09790338 0.05603948 0.17781112 0.13574088 0.1648062
0.11558713 0.08583329 -0.14180349 0.048672326 0.10564072 -0.1542511 0.14910194 0.13338634
-0.035121523 -0.045972552 -0.16263066 0.007328174 -0.18217275 -0.030868864 0.062426258 0.07931324
-0.019843016 -0.037321437 -0.1593056 -0.14844511 0.14882597 0.10517571 -0.12706563 0.09304758
-0.078245915 -0.1700933 -0.1756843 0.05748814 -0.17494348 -0.17183125 -0.01621653 -0.02379805
0.12953304 0.0015147579 -0.15875986 -0.14079213 -0.069159225 -0.09440358 0.046853542 0.093968324
0.14382698 0.1747618 -0.16010362 -0.14650674 -0.16186522 -0.13428386 -0.07079735 -0.142879
-0.110340215 0.11026517 -0.058720876 -0.008515827 -0.04948144 0.14588997 -0.038467523 -0.032236908
00000000: dbbb 353e 878f 36be 675d c73d 5a3a bbbd
00000010: 4acb cc3d 80ef 8539 dc25 203d 8143 38bd
00000020: 37db 133e f15a 42be 4529 353d c323 1ebe
00000030: c765 263e a927 37bc 35bd 243e 8f70 953d
00000040: 7d95 3fbe d8da fd3d 63d3 2a3d 3089 57bc
00000050: 6dc5 193e 83a8 0f3e 9344 24be da0f 27bd
00000060: 01aa 13be 4674 a4bd 2783 8dbe 1bee f13c
00000070: 6472 58bc 8c8a 68bd 978a fd3d b30d ae3d
00000080: a2d1 15be 1cff e9bd 494d 5a3d 5de6 393e
00000090: 74fe 00bd 78ad 2ebe fdac 733d 485c bbbc
000000a0: 32bd 33bd 839b 5c3d d45c eebc 0149 243e
000000b0: 185d 51bd 8e20 c63d 7268 363e 9875 b83d
000000c0: 6500 053e 95da 623d ed87 003e 0ac2 0abe
000000d0: ec2f 5cbd 293b 11bd ae49 29bd 8b54 0a3e
000000e0: bf30 9d3c 841e 193c 4596 113c b1d9 4a3e
000000f0: 5242 5c3b a64c dfbc 3a2d a33d e6b3 cdbc
00000100: 6b77 fe3d 6ca5 cc3d d9d1 2e3e 44cc 783d
00000110: b6fa cd3d 6183 013e f704 22be b99e 2abd
00000120: 03c8 663d 7d95 243e 9c8b 463e 23ba e83c
00000130: 2206 2abe 3692 b437 d7d6 8bbd 9bff 1b3e
00000140: ce2e 5ebd c640 1a3e 1c3e 233e d823 3a3e
00000150: 8564 fdbd 5fc2 d93c ab59 be3d 4471 1bbe
00000160: 76fa f73d 3377 013e 5e48 093b d639 13be
00000170: ffb2 71bb 8cfb 1e3e ee2d 99bc 834d a9bd
00000180: f4d6 1fbd e6c1 b23e e36d 8e3e ecbc 18bf
00000190: e788 05be 913f 5bbd 61b7 e3bc ef0e 12be
000001a0: 6e4f b13c 3bbd bfbd 6564 9abe 09a7 13bf
000001b0: 6e99 23bd 827f 10bd 99b2 37be 29ab 0dbe
000001c0: 749c ce3b 17d0 773d 1d93 0abe a99f abbd
000001d0: bd28 bd3e b8d5 203e 6924 433d d2bd 053e
000001e0: e2d1 f33d 7b57 193f da40 033e 5db6 263e
000001f0: c301 9b3b 2735 413e 2c17 5abd 9ee4 44be
00000200: 82e2 3f3e 0083 883d a9fc 2cbe 926a 0bbe
00000210: b28e 383e e72c d0bd 0f1e b0be e978 95bd
00000220: ad33 88bc 04d4 1bbd 9ddc 67bb ad3b ae3d
00000230: 2a72 20bd 5f74 2dbe 5a40 a13b 48cb c93c
00000240: 87dd 363e 08eb c1bc 5826 a4bc 0074 c8bd
00000250: 172a 5cbb 1b9c 45bc 460d 11be d4a5 02be
00000260: bf9b f43c f5e1 07be 4f8d 06be 39d0 f03d
00000270: 44a8 aebc 9361 1abd a89e bebd 934d 3d3e
00000280: e281 b1bd 7142 353e 8c42 b03d 8c6d 85bd
00000290: ebd6 babd 891e e8bd 6c8c 763a 63ec 2bbe
000002a0: 80c9 363e 0276 e2bd 2388 2f3e 54b6 15bb
000002b0: 8e2b 023e dab0 a1bd b526 3fbe 4ec7 873e
000002c0: 4c52 3f3e 46cf 1abd a19e 8ebd 10f2 c43b
000002d0: 37e0 233e bada cfbd d682 3abe ff2b 913d
000002e0: b528 fd3d 6320 a33d 6515 efbc b2d4 5c3e
000002f0: 04f3 06be 4433 32be 9c95 f0bc 4f24 4dbd
00000300: 3435 8cbd 29b2 a43d f213 0bbe 9181 c83d
00000310: a789 653d 1e14 363e a8ff 0a3e f5c2 283e
00000320: f2b8 ec3d 5dc9 af3d ef34 11be a25c 473d
00000330: 295a d83d 00f4 1dbe 2eae 183e 6e96 083e
00000340: 96db 0fbd b74d 3cbd a788 26be 2e21 f03b
00000350: 7e8b 3abe b3e0 fcbc adb2 7f3d fb6e a23d
00000360: d28d a2bc 5dde 18bd 0221 23be ff01 18be
00000370: d665 183e 5d66 d73d 7e1d 02be bb8f be3d
00000380: 653f a0bd f02c 2ebe 96e6 33be af78 6b3d
00000390: 6224 33be 88f4 2fbe 87d8 84bc 21f4 c2bc
000003a0: 4fa4 043e d78a c63a f291 22be d02b 10be
000003b0: 5aa3 8dbd aa56 c1bd 80e9 3f3d 7772 c03d
000003c0: 6147 133e c2f4 323e 34f2 23be dd05 16be
000003d0: ffbf 25be b581 09be 33fe 90bd df4e 12be
000003e0: 0dfa e1bd b5d2 e13d 4d85 70bd f885 0bbc
000003f0: 0dad 4abd 2e64 153e 1f90 1dbd d90a 04bd

lin1.bias f4 [256]
-0.11815693 0.15748778 0.13511454 0.13695323 0.065811135 -0.09261278 0.07149519 -0.124744736
0.09531311 -0.10092154 -0.07208186 -0.0031520317 -0.15644865 0.085557096 -0.05139663 -0.010512826
0.01822992 0.09356414 0.14618333 -0.11297878 -0.035627276 -0.10586399 -0.086231396 -0.06202774
0.07405657 -0.090889655 0.017362017 -0.024262797 0.18464461 -0.14541933 -0.08076912 -0.01920661
0.019337056 -0.1538068 -0.17034513 0.08371592 0.020762771 -0.00692932 -0.15428153 -0.0075183315
0.02709555 0.09775242 0.14501253 -0.11410692 -0.1563036 0.17374694 -0.12036208 0.14104435
-0.010042072 0.0042142095 -0.17584293 0.12705217 0.04157258 -0.057351112 0.1588019 -0.17345709
-0.03603947 0.062384382 0.00770559 -0.025953872 0.08318516 0.14448416 0.1459677 -0.081305824
0.13272695 -0.04920653 0.04388652 0.1474827 0.11113465 0.08276011 -0.141728 0.03628098
-0.07526649 0.07382484 0.10394081 -0.030572746 0.0683294 -0.022858009 0.17613612 -0.16388227
0.04269802 0.20691332 0.13383184 0.144483 -0.09450624 -0.15849145 0.047911122 -0.03639193
0.14996795 -0.18827209 0.113335945 -0.16779892 -0.14771096 -0.0907286 0.043951254 -0.061804246
0.15650931 -0.09960814 0.09572727 0.07001577 -0.179727 0.0036874646 0.048893444 0.17333353
-0.069310546 -0.09023025 -0.033593573 0.13700923 -0.10704722 0.093613416 -0.023511123 0.1822551
0.035839904 -0.107968144 0.11631277 0.00019185987 -0.079470254 -0.031138776 -0.17772903 0.1646283
0.15624754 -0.0010930639 0.20547597 -0.19219159 -0.10623425 0.06948971 0.034152046 0.031309254
-0.11570405 0.06952762 0.091535136 0.01903187 -0.16999266 0.16132894 0.049220257 0.119129635
-0.16581264 0.03399501 -0.16552396 -0.103498 -0.021650061 0.059013028 -0.15722762 0.03665753
-0.12796147 0.06776716 -0.059604503 -0.17641222 0.118671514 -0.14834464 -0.121289924 -0.034731016
-0.16427329 -0.11389772 -0.0920632 0.13195226 0.1889596 0.09896665 -0.08732105 0.11510885
-0.01148639 0.093689546 -0.14419097 -0.047623802 0.023728851 -0.20405914 0.04419608 -0.07148505
0.006204758 -0.007489275 -0.0076749627 -0.14869761 0.12353148 -0.1166668 -0.009693592 -0.07982182
0.04483353 -0.17225309 -0.14499411 -0.119823866 -0.034611437 0.045336116 0.14256604 -0.08061016
-0.08092217 -0.11612617 -0.02922558 -0.07052207 0.08907391 -0.017430939 0.023310725 -0.13621393
0.040665068 0.0249503 0.016046192 -0.12199859 -0.18330944 0.16855477 0.15584189 -0.04830105
0.062085662 0.07975485 0.19067256 -0.18717828 0.12482932 0.18638262 0.10818902 -0.1365949
0.12090909 0.10750706 -0.14426316 -0.03844341 0.027724268 0.07663852 0.1567508 -0.16793306
-0.08247863 0.011608685 -0.025218766 0.12437736 -0.091682635 -0.12575448 0.059438564 -0.12682989
0.034927923 -0.065699704 -0.04192229 0.14887625 0.113313645 0.0923873 0.011494182 -0.00081207225
-0.01194712 -0.06659855 0.0333291 0.094646506 -0.17251685 -0.12519306 -0.0337689 0.1250975
0.13619594 0.11068276 -0.008929762 -0.11366747 0.149174 -0.03315162 -0.087494195 0.054360926
-0.065220065 0.037970513 0.107925154 0.120794654 0.032981694 -0.13102658 -0.07876678 0.009634912
00000000: 43fc f1bd 7a44 213e 775b 0a3e 783d 0c3e
00000010: fdc7 863d c5ab bdbd 126c 923d 2b7a ffbd
00000020: 8533 c33d f4af cebd a79f 93bd 5192 4ebb
00000030: 1334 20be 8f38 af3d 4685 52bd fd3d 2cbc
00000040: ea56 953c 8e9e bf3d 15b1 153e 6b61 e7bd
00000050: e8ed 11bd 38cf d8bd 169a b0bd cd10 7ebd
00000060: f9aa 973d 5b24 babd ca3a 8e3c c6c2 c6bc
00000070: 7a13 3d3e cee8 14be 486a a5bd 2e57 9dbc
00000080: bf68 9e3c 887f 1dbe f46e 2ebe 4173 ab3d
00000090: b016 aa3c 590f e3bb fafb 1dbe 565c f6bb
000000a0: 7df7 dd3c 6c32 c83d 2a7e 143e e4b0 e9bd
000000b0: 0d0e 20be b8ea 313e 6580 f6bd ee6d 103e
000000c0: 8187 24bc 5a17 8a3b 2b10 34be f719 023e
000000d0: 0248 2a3d 00e9 6abd f79c 223e bc9e 31be
000000e0: 209e 13bd c486 7f3d 2d7f fc3b 379d d4bc
000000f0: fb5c aa3d a8f3 133e 8f78 153e ab83 a6bd
00000100: 93e9 073e c98c 49bd 5ac2 333d b405 173e
00000110: 909a e33d 227e a93d 2521 11be 5d9b 143d
00000120: 5125 9abd 7a31 973d ebde d43d b273 fabc
00000130: 49f0 8b3d b840 bbbc 075d 343e c1d0 27be
00000140: 1ee4 2e3d 16e1 533e 370b 093e 5af3 133e
00000150: 7d8c c1bd 954b 22be 743e 443d b40f 15bd
00000160: 3391 193e 66ca 40be ad1c e83d 7bd3 2bbe
00000170: 8b41 17be ebcf b9bd 3b06 343d 7326 7dbd
00000180: fa43 203e 5aff cbbd a90c c43d 6e64 8f3d
00000190: 5b0a 38be 64a9 713b 7e44 483d 587e 313e
000001a0: b0f2 8dbd a3ca b8bd 6a99 09bd 264c 0c3e
000001b0: 933b dbbd 64b8 bf3d 669a c0bc 15a1 3a3e
000001c0: ddcc 123d 671e ddbd 6435 ee3d fe2d 4939
000001d0: 4dc1 a2bd bf16 ffbc 99fe 35be 5294 283e
000001e0: 5bff 1f3e 2345 8fba 4b68 523e dfcd 44be
000001f0: 5891 d9bd 9f50 8e3d 04e3 0b3d 223e 003d
00000200: 3ff6 ecbd 7f64 8e3d c676 bb3d b9e8 9b3c
00000210: 8e12 2ebe 6a33 253e 2e9b 493d 3dfa f33d
00000220: caca 29be 5a3e 0b3d 1d7f 29be c2f6 d3bd
00000230: 785b b1bc a5b7 713d 4700 21be 3526 163d
00000240: 5508 03be 82c9 8a3d da23 74bd 68a5 34be
00000250: 0d0a f33d a8e7 17be da66 f8bd 1c42 0ebd
00000260: 4237 28be 3543 e9bd a28b bcbd 7e1e 073e
00000270: a07e 413e 07af ca3d 61d5 b2bd 30be eb3d
00000280: 6931 3cbc 4ee0 bf3d cca6 13be 2d11 43bd
00000290: 0263 c23c e1f4 50be f306 353d c166 92bd
000002a0: 4851 cb3b 9868 f5bb 417e fbbb 3044 18be
000002b0: 13fe fc3d 01ef eebd dfd1 1ebc 9f79 a3bd
000002c0: 5da3 373d 1d63 30be 5679 14be 3766 f5bd
000002d0: b9c4 0dbd 5db2 393d d5fc 113e f116 a5bd
000002e0: 86ba a5bd 8fd3 edbd 7c6a efbc e06d 90bd
000002f0: 626c b63d 54cb 8ebc 22f6 be3c aa7b 0bbe
00000300: 6a90 263d 9264 cc3c 4e73 833c 66da f9bd
00000310: 78b5 3bbe 9f99 2c3e 0495 1f3e 52d7 45bd
00000320: 894d 7e3d 8356 a33d ab3f 433e aaab 3fbe
00000330: 84a6 ff3d 16db 3e3e 3492 dd3d 89df 0bbe
00000340: 2f9f f73d a92c dc3d b9b9 13be d676 1dbd
00000350: 011e e33c a8f4 9c3d 4883 203e a5f6 2bbe
00000360: 8eea a8bd 5b32 3e3c 9697 cebc 8fb9 fe3d
00000370: 1bc4 bbbd c8c5 00be da75 733d b2df 01be
00000380: 9510 0f3d 918d 86bd b5b6 2bbd 0473 183e
00000390: fc10 e83d 8e35 bd3d 1852 3c3c 3fe1 54ba
000003a0: dabd 43bc d264 88bd 1884 083d 07d6 c13d
000003b0: 42a8 30be 9c32 00be 4251 0abd 8f19 003e
000003c0: f376 0b3e a5ad e23d 234e 12bc 7eca e8bd
000003d0: 12c1 183e fec9 07bd 2830 b3bd 90a9 5e3d
000003e0: 1992 85bd f886 1b3d dd07 dd3d 3063 f73d
000003f0: d017 073d d52b 06be 7a50 a1bd c0db 1d3c

lin2.weight f4 [256, 256]
-0.027678696 0.036786504 -0.027504917 -0.027360907 0.010752083 -0.044489555 -0.0477922 0.035252847
-0.04157877 -0.03230583 -0.020018332 0.044859435 -0.048364248 0.014299958 -0.055066828 -0.03848786
-0.035256896 0.0010810494 -0.038472842 -0.057647295 -0.015319787 0.019031376 0.021973027 0.022663085
-0.061796747 -0.011887064 0.049274154 -0.04118553 -9.114687e-05 -0.03558357 -0.016932825 -0.027451545
-0.0043160617 0.028772622 -0.05056122 -0.025221389 0.05268142 -0.030382132 -0.056518573 0.018605266
-0.060705632 -0.05563859 0.016602935 -0.031823315 -0.013304455 0.039485082 -0.0072988495 0.030623935
0.028423646 0.045207806 -0.0056871995 0.042022564 0.048364885 -0.04783744 -0.049655847 -0.036736876
-0.009143069 0.0065233274 0.05635216 -0.0437394 -0.05367952 -0.011287652 0.045671396 0.0077720294
0.039198235 0.005907214 -0.030614045 -0.0582961 0.047885023 -0.022022283 -0.003289994 -0.024842482
-0.016065657 -0.029885024 0.04115314 0.009952741 -0.027945813 -0.022354329 0.0065862904 -0.05169259
-0.020044073 0.032025132 0.026238956 -0.03295898 -0.05631753 0.03984318 0.061003808 -0.0075696036
-0.022996502 0.025832996 -0.033501286 -0.03018564 0.058843095 -0.04189062 -0.007053171 -0.010012252
-0.022634353 -0.023266569 -0.02709918 0.01721229 0.05962295 0.02547837 -0.061734736 -0.011760153
-0.007199828 -0.05095826 0.028892472 0.017539017 0.00612859 0.0060234293 0.02228638 0.011589117
-0.067714706 -0.005645824 -0.06852338 0.023574248 0.021916397 0.037290357 -0.03538296 -0.023808409
-0.028241739 0.06172712 -0.045115523 -0.012876749 -0.026296211 0.0304414 0.019809976 0.05018219
0.049483985 0.020989262 -0.056573454 0.042558752 -0.02619134 0.029045625 -0.05305874 -0.0026546707
-0.019330263 0.060716465 0.04057414 -0.009219401 -0.05070782 -0.022962045 0.027790286 -0.05924512
0.023859538 -0.031585235 -0.049126916 -0.019873878 0.02928869 -0.05751566 0.048782133 0.018188475
-0.06575593 -0.018182203 -0.054977436 0.006511473 -0.024236856 -0.07180723 -0.04991995 0.006476457
-0.022124367 -0.021370606 -0.017161503 0.04478507 -0.008365598 0.029851336 0.04056574 -0.013676323
0.018976383 0.03314601 -0.026784763 -0.06962084 0.01291623 0.010698558 -0.058851197 -0.026875498
0.016132604 -0.007987015 -0.019341355 0.04464793 -0.008304494 -0.07169278 -0.005165974 0.027644143
0.0107852 0.057037003 -0.021035248 0.025038064 0.04941134 0.05218201 -0.011250624 -0.008573987
-0.05146487 0.017028145 0.0031238939 -0.0014022106 -0.0028476939 -0.043948073 -0.02616387 -0.031127974
-0.026110314 0.022894252 -0.05748996 0.028771043 0.039334647 0.002404481 -0.06609418 -0.04617776
0.014340831 -0.031578597 -0.01870465 0.04266396 -0.05802832 0.00023472864 -0.038041316 -0.022657933
0.0063922 0.020738065 -0.056004263 0.013145708 0.024743794 0.010104257 0.027495347 0.0021396354
0.012387207 0.043765847 -0.021596134 -0.00087186205 0.037428323 -0.006311253 0.05349441 0.029233932
0.034054834 0.042211756 0.039373036 -0.056848645 0.012659103 -0.004962752 -0.034980115 0.058422253
0.022385666 -0.011294484 0.032857373 0.015433915 0.03868366 -0.058082454 -0.016659204 -0.060831726
-0.051694736 -0.06334285 0.047117226 -0.056482367 0.03860958 -0.013389498 -0.04672789 -0.033192474
00000000: 6fbe e2bc 72ad 163d fe51 e1bc fb23 e0bc
00000010: 8129 303c ae3a 36bd c1c1 43bd 4a65 103d
00000020: 804e 2abd 1e53 04bd 7cfd a3bc 87be 373d
00000030: 9719 46bd 5f4a 6a3c c18d 61bd 72a5 1dbd
00000040: 8969 10bd 00b2 8d3a b395 1dbd 921f 6cbd
00000050: d8ff 7abc b0e7 9b3c c700 b43c efa7 b93c
00000060: 961e 7dbd f6c1 42bc b2d3 493d 29b2 28bd
00000070: 1a26 bfb8 14c0 11bd b5b6 8abc 10e2 e0bc
00000080: c06d 8dbb 90b4 eb3c 4819 4fbd 169d cebc
00000090: 79c8 573d f3e3 f8bc 0580 67bd 126a 983c
000000a0: 78a6 78bd 4ae5 63bd e102 883c 2a59 02bd
000000b0: eefa 59bc 1cbb 213d 302b efbb 0cdf fa3c
000000c0: b5d8 e83c d22b 393d b05b babb da1f 2c3d
000000d0: 421a 463d 31f1 43bd ee63 4bbd 6879 16bd
000000e0: d0cc 15bc a3c1 d53b 86d1 663d 1628 33bd
000000f0: 0edf 5bbd d8ef 38bc ee11 3b3d 82ac fe3b
00000100: 548e 203d 4d91 c13b 4eca fabc e4c7 6ebd
00000110: 1623 443d 1368 b4bc f19c 57bb 7682 cbbc
00000120: 209c 83bc 70d1 f4bc 3290 283d d210 233c
00000130: 9eee e4bc 6d20 b7bc cfd1 d73b 9cbb 53bd
00000140: 7833 a4bc c92c 033d 14f3 d63c ffff 06bd
00000150: 36ad 66bd 9a32 233d 21df 793d 700a f8bb
00000160: 2963 bcbc b89f d33c a538 09bd e047 f7bc
00000170: 7505 713d 8095 2bbd 491e e7bb 6e0a 24bc
00000180: ae6b b9bc 8899 bebc 19ff ddbc ca00 8d3c
00000190: 3237 743d 04b8 d03c 90dd 7cbd a8ad 40bc
000001a0: 89ec ebbb 9cb9 50bd e8af ec3c fcad 8f3c
000001b0: 57d2 c83b 3060 c53b ed91 b63c 48e0 3d3c
000001c0: 02ae 8abd 9b00 b9bb fc55 8cbd c81e c13c
000001d0: 048a b33c c6bd 183d b9ed 10bd da09 c3bc
000001e0: 385b e7bc 94d5 7c3d 0ecb 38bd 00f9 52bc
000001f0: 276b d7bc 3e60 f93c 8848 a23c d78b 4d3d
00000200: b8af 4a3d acf1 ab3c 91b9 67bd 1652 2e3d
00000210: 398f d6bc 17f1 ed3c 1f54 59bd fcf9 2dbb
00000220: 805a 9ebc d4b1 783d 1231 263d f80c 17bc
00000230: 01b3 4fbd e61a bcbc 74a8 e33c 03ab 72bd
00000240: 1475 c33c 855f 01bd 4e39 49bd 8bce a2bc
00000250: d6ee ef3c 8a95 6bbd c6cf 473d ffff 943c
00000260: 0cab 86bd d8f2 94bc 0530 61bd 325e d53b
00000270: 5f8c c6bc ab0f 93bd dd78 4cbd 7638 d43b
00000280: 293e b5bc 6911 afbc 4896 8cbc 8d70 373d
00000290: dc0f 09bc ca8a f43c 4328 263d a812 60bc
000002a0: 5c74 9b3c 1cc4 073d b86b dbbc 5f95 8ebd
000002b0: 989e 533c 0149 2f3c f40d 71bd 012a dcbc
000002c0: 8628 843c f8db 02bc c371 9ebc bfe0 363d
000002d0: 930f 08bc aad3 92bd 5547 a9bb f875 e23c
000002e0: 68b4 303c a29f 693d 1d52 acbc a01c cd3c
000002f0: 8c63 4a3d cebc 553d 8a54 38bc e879 0cbc
00000300: d4cc 52bd 9c7e 8b3c 3eba 4c3b 61ca b7ba
00000310: 60a0 3abb e502 34bd 9d55 d6bc 1800 ffbc
00000320: 4ce5 d5bc ba8c bb3c 987a 6bbd 40b1 eb3c
00000330: 5e1d 213d 7f94 1d3b 635c 87bd e424 3dbd
00000340: cef5 6a3c 8f58 01bd 7f3a 99bc 68c0 2e3d
00000350: 1baf 6dbd 7d21 7639 36d1 1bbd 219d b9bc
00000360: a975 d13b e0e2 a93c ba64 65bd 1861 573c
00000370: 7fb3 ca3c 538c 253c ec3d e13c 2039 0c3b
00000380: b6f3 4a3c d143 333d 60ea b0bc ac8d 64ba
00000390: 714e 193d a1ce cebb f41c 5b3d 007c ef3c
000003a0: 157d 0b3d 3ce6 2c3d 9f45 213d 20da 68bd
000003b0: 2068 4f3c 959e a2bb 4f47 0fbd 2c4c 6f3d
000003c0: 2562 b73c 800c 39bc 7495 063d 88de 7c3c
000003d0: c272 1e3d dee7 6dbd e278 88bc b02a 79bd
000003e0: dcbd 53bd e5b9 81bd fefd 403d 0e5a 67bd
000003f0: 1425 1e3d a05f 5bbc be65 3fbd d5f4 07bd

lin2.bias f4 [256]
-0.00030829685 0.039982717 -0.04079829 0.051393226 -0.03872133 -0.022818547 -0.00069232116 0.04399033
-0.05531291 -0.06207613 -0.0017981008 0.050277747 0.03037263 0.005321818 0.007777488 -0.017555146
0.047557864 0.061862927 -0.038399946 0.032138735 -0.04435025 -0.027159482 0.02150205 0.045079973
-0.0018257003 -0.0016033244 -0.036254402 -0.03913686 0.0085134525 -0.0064537823 0.030802608 -0.021971857
0.005314462 -0.022673406 -0.0513103 -0.06389923 -0.02094926 0.0073050386 -0.016923295 -0.027479708
-0.0010145456 0.018443195 0.047203336 -0.06748101 -0.04206778 -0.015664048 0.05013735 0.01977136
0.015534595 0.076750994 0.039094858 0.008845717 0.060616214 -0.03183849 0.04352218 -0.046107437
-0.019720443 0.0011470122 -0.04148166 -0.04024995 -0.040001824 0.04684586 -0.048621926 -0.004950748
-0.049071148 0.021756848 0.022932468 0.027050912 -0.0002690918 0.04291688 0.0031704137 -0.022854306
0.01878344 -0.026035823 0.07177559 0.058812704 0.029131422 0.04194495 0.031847224 0.03501927
0.059242044 -0.019680792 0.07980831 -0.052127197 0.023375608 0.053019132 -0.028612986 -0.04151465
0.011911325 -0.034700636 -0.054436065 -0.0470066 0.025183491 -0.005678326 0.056414448 0.070399016
0.01290742 -0.0040914924 0.00043399763 -0.044657554 -0.024105266 0.0010203437 -0.030620066 -0.016225157
-0.0068516955 -0.056322593 0.010682551 -0.009590409 0.00022069502 -0.045571446 -0.037778676 -0.05877912
-0.035257667 -0.036216356 -0.009222842 0.030429378 -0.036406584 0.009517925 0.028874207 0.0066478252
-0.050521195 0.0052943905 -0.0041956627 0.023232847 -0.06862913 -0.052580997 0.06461619 0.003489799
-0.05023206 0.0077058002 -0.036519848 0.034339435 0.01323398 0.027454685 0.032972943 -0.04901798
-0.070589684 0.02887334 0.0003258787 0.040532857 -0.015375383 0.0595489 0.05073744 0.005893772
0.05346244 0.016102336 -0.06623081 0.028135419 -0.0446269 -0.017632028 -0.06223531 -0.0059650843
-0.04393451 0.033598505 -0.026347756 0.04151038 -0.017670313 0.030853108 -0.02959729 0.032141387
-0.015785316 -0.028584335 0.016358197 -0.022366917 0.08063635 -0.014157809 -0.022362031 0.026551627
-0.025481168 0.02466232 -0.021034576 -0.05156546 0.008822128 -0.005591452 0.06787728 -0.05193576
0.04448848 0.0036096903 0.041722283 -0.013338782 0.011907183 0.07172082 0.04712052 0.06997603
-0.0005713254 -0.013627671 0.04967033 -0.055326317 -0.04343029 -0.0478227 0.05731743 0.046523623
-0.01814145 -0.03798403 -0.011411186 -0.022276297 -0.034814492 -0.054073315 0.037201546 0.025383284
-0.035764366 -0.02236881 0.034987345 0.012527817 -0.006007567 0.015783157 -0.0030738986 0.03983171
-0.014259671 0.027839372 0.049059153 -0.008105179 0.038104795 -0.0052011088 -0.036753576 -0.050561167
0.018328814 -0.05994477 -0.053551625 0.037903164 -0.053667285 0.014683876 -0.022775091 -0.033739224
-0.061441515 0.052408673 -0.009198278 0.034349814 0.03615226 0.06227237 -0.0067892247 -0.06616557
0.012600793 -0.019753424 -0.024032017 0.07954822 0.042892467 0.02948854 -0.028896138 -0.014550039
-0.0044562453 -0.040961046 -0.031903483 -0.060187183 0.032536812 0.023103578 0.023399057 -0.043986663
-0.073363476 -0.019829035 -0.017005272 -0.037757512 0.0027077347 0.030240385 -0.053621955 0.01976604
00000000: e7a2 a1b9 ebc4 233d 1c1c 27bd b481 523d
00000010: 429a 1ebd f6ed babc e37c 35ba 342f 343d
00000020: ca8f 62bd 8a43 7ebd 40ae ebba 0af0 4d3d
00000030: 06d0 f83c a562 ae3b 4cda fe3b cfcf 8fbc
00000040: 09cc 423d fb63 7d3d 4349 1dbd e8a3 033d
00000050: 9ca8 35bd 907d debc 1125 b03c c7a5 383d
00000060: 564c efba a426 d2ba 7f7f 14bd f94d 20bd
00000070: 027c 0b3c 407a d3bb c055 fc3c 53fe b3bc
00000080: f024 ae3b 94bd b9bc c02a 52bd 99dd 82bd
00000090: c89d abbc 1b5f ef3b b9a2 8abc 201d e1bc
000000a0: 80fa 84ba 2f16 973c 4958 413d 7c33 8abd
000000b0: 444f 2cbd e451 80bc d25c 4d3d 8cf7 a13c
000000c0: d084 7e3c a02f 9d3d ee21 203d a0ed 103c
000000d0: b548 783d 1469 02bd 5044 323d 27db 3cbd
000000e0: c48c a1bc 5857 963a ace8 29bd 22dd 24bd
000000f0: f4d8 23bd 72e1 3f3d c927 47bd e239 a2bb
00000100: d4fe 48bd 6b3b b23c dfdc bb3c e099 dd3c
00000110: e414 8db9 9cc9 2f3d b7c6 4f3b f438 bbbc
00000120: bbdf 993c 1449 d5bc 15ff 923d 97e5 703d
00000130: 05a5 ee3c 78ce 2b3d 3c72 023d 5e70 0f3d
00000140: c9a7 723d 9d39 a1bc 8a72 a33d 5483 55bd
00000150: 347e bf3c 972a 593d c865 eabc 440b 2abd
00000160: b827 433c 4122 0ebd 5af8 5ebd fe89 40bd
00000170: 9c4d ce3c 4011 babb d612 673d 5c2d 903d
00000180: a579 533c ed11 86bb 2d8a e339 d7ea 36bd
00000190: 6878 c5bc 0ebd 853a efd6 fabc 9fea 84bc
000001a0: 3084 e0bb 85b2 66bd de05 2f3c 1721 1dbc
000001b0: 5e6a 6739 20a9 3abd d0bd 1abd 60c2 70bd
000001c0: 586a 10bd 9a57 14bd 671b 17bc 0847 f93c
000001d0: 121f 15bd 12f1 1b3c 9a89 ec3c 00d6 d93b
000001e0: 50ef 4ebd 917c ad3b c57b 89bb d052 be3c
000001f0: 6e8d 8cbd 2c5f 57bd 7e55 843d 1db5 643b
00000200: 22c0 4dbd f080 fc3b d695 15bd 82a7 0c3d
00000210: 56d3 583c a6e8 e03c a30e 073d 14c7 48bd
00000220: 5391 90bd c887 ec3c b3da aa39 c805 263d
00000230: 08e9 7bbc 8ce9 733d 10d2 4f3d 8b20 c13b
00000240: 6efb 5a3d 0ce9 833c 05a4 87bd 407c e63c
00000250: b2ca 36bd 0b71 90bc 74ea 7ebd c176 c3bb
00000260: acf4 33bd 969e 093d 40d7 d7bc ca06 2a3d
00000270: 55c1 90bc a8bf fc3c 0476 f2bc b0a6 033d
00000280: 3550 81bc b229 eabc a001 863c d33a b7bc
00000290: ac24 a53d 28f6 67bc 9430 b7bc cc82 d93c
000002a0: e2bd d0bc a208 ca3c b450 acbc 4e36 53bd
000002b0: b08a 103c 8038 b7bb 3e03 8b3d 97ba 54bd
000002c0: 8d39 363d 8e90 6c3b fce4 2a3d e88a 5abc
000002d0: 5816 433c 5ee2 923d 7201 413d 984f 8f3d
000002e0: 00c5 15ba 9846 5fbc 1e73 4b3d d99d 62bd
000002f0: f6e3 31bd bce1 43bd aec5 6a3d 8e8f 3e3d
00000300: 619d 94bc 2495 1bbd fcf5 3abc c87c b6bc
00000310: a499 0ebd fb7b 5dbd a660 183d 9bf0 cf3c
00000320: a87d 12bd cb3e b7bc e44e 0f3d 7941 4d3c
00000330: 20db c4bb ae4b 813c 7673 49bb 9326 233d
00000340: 65a1 69bc 650f e43c 40f2 483d 96cb 04bc
00000350: c613 1c3d 106e aabb eb8a 16bd 3a19 4fbd
00000360: 4f26 963c a688 75bd f358 5bbd 5940 1b3d
00000370: 3ad2 5bbd a494 703c d492 babc 2432 0abd
00000380: 19aa 7bbd 7aaa 563d 60b4 16bc 64b2 0c3d
00000390: 6414 143d 5011 7f3d 2578 debb d081 87bd
000003a0: 8e73 4e3c efd1 a1bc cbde c4bc 2dea a23d
000003b0: 03b0 2f3d f391 f13c 98b7 ecbc 4963 6ebc
000003c0: b205 92bb c5c6 27bd 3aad 02bd d686 76bd
000003d0: 5245 053d b743 bd3c 61af bf3c 5c2b 34bd
000003e0: 973f 96bd 8070 a2bc a44e 8bbc 9fa7 1abd
000003f0: 4074 313b afba f73c b2a2 5bbd 64ec a13c

lin3.weight f4 [128, 256]
-0.019853836 -0.010845879 0.05827593 0.020411562 -0.036432616 0.05719616 0.0046426305 0.02699469
-0.05801621 0.021601075 0.06149604 0.002350673 0.016422197 -0.05444983 -0.015968302 0.047965042
-0.014010707 -0.03130986 0.00539527 0.023635251 -0.021414988 -0.052224614 -0.012512824 0.06021456
-0.012137658 0.018970959 0.05942037 0.046154764 0.07081265 0.028060734 -0.043419175 0.0037928277
0.033121005 0.02933263 -0.04677263 0.031745996 0.0054750964 -0.060419187 0.025787454 0.06076192
0.0025465935 0.018499672 0.03737142 0.050048012 -0.0580433 -0.052878924 0.015353464 0.024689168
-0.029192232 0.050492402 -0.029534936 0.012820929 0.068019204 -0.0287105 -0.0044904016 -0.056816638
0.00035812706 -0.0021755043 0.005839991 0.005662188 -0.0051024705 0.023952845 0.006590203 -0.04617421
0.05935581 -0.05635365 0.031605 -0.04438149 -0.027567305 0.04330332 0.009515481 0.018409284
-0.024592897 0.030998334 0.04902528 0.0495746 -0.0006975922 0.014534377 -0.027941555 -0.016100386
-0.047328588 0.018400475 -0.046949252 0.007596679 0.017855093 -0.052766386 -0.033205412 -0.058469273
0.0042453036 0.025419706 -0.001418151 -0.040161125 0.05875607 -0.01377698 0.009564248 0.009107754
-0.06430867 0.018762592 0.0025421565 -0.052432373 -0.010315299 -0.035244428 -0.016333945 -0.0077972896
-0.057295583 -0.051759977 -0.00069786824 -0.059803206 -0.060948566 0.038905896 0.016716495 -0.056541808
0.030393966 0.017379224 0.011280334 0.02180975 0.03755237 -0.040197663 -0.057080284 0.03301534
-0.04682265 -0.05218251 0.011924167 -0.043558896 -0.113854565 -0.048615716 0.010686258 0.043539453
-0.04283674 0.031862974 0.026704267 -0.04089255 -0.0063735205 0.062430546 -0.034276336 -0.05650255
-0.0020983354 -0.046238426 0.0389574 0.03169165 -0.06122294 0.031568527 -0.005560325 -0.09487151
0.04964342 -0.016981367 -0.039944567 0.0028756484 0.020095058 -0.031835604 -0.022586212 -0.020688077
0.021592721 -0.049551 0.03380026 0.03588345 0.030200215 -0.03814031 -0.0035443455 -0.0451067
-0.0028979536 0.011030643 0.009560175 -0.0064943787 -0.05327799 0.00015788525 0.023463158 0.026328832
0.01096511 0.049931627 0.044164807 -0.062451813 -0.025575109 -0.0028961897 0.0269117 0.04673693
-0.035168123 -0.016823955 0.005800848 0.05396758 -0.009808928 -0.009740164 0.029867843 -0.041540086
-0.021009319 -0.021574337 -0.010268874 0.013976212 -0.04048977 -0.05476772 -0.027281174 -0.06125301
0.060054746 0.054172076 0.0044434653 -0.0146866795 0.022302056 0.044401497 0.05893015 0.018467374
-0.037414923 0.06687849 0.04061875 -0.034332592 0.04398629 0.073762685 -0.006079047 0.06708003
-0.0018503062 0.006496854 -0.06875409 0.037017155 -0.11662638 -0.05092883 0.056587998 -0.034484312
-0.033554815 0.035893433 -0.03697714 -0.02737887 0.029514395 -0.052477412 -0.032873876 0.0006850064
0.045488622 -0.015434653 -0.008821742 -0.065652356 -0.03506705 0.0112461895 -0.0091198245 -0.052731026
-0.010129068 -0.030750569 0.015899291 0.028511563 0.040704522 0.35366923 0.018433942 -0.0033623318
0.021158306 0.022240784 -0.0015668347 0.023010626 -0.024397725 -0.0051652156 0.031222332 -0.03980714
0.044140536 0.034480717 0.023066938 0.008730822 0.005391009 -0.033982106 -0.039945237 0.025788844
00000000: 83a4 a2bc eab2 31bc beb2 6e3d 2636 a73c
00000010: 5e3a 15bd 8546 6a3d 3521 983b f823 dd3c
00000020: 68a2 6dbd bdf4 b03c 46e3 7b3d c00d 1a3b
00000030: d887 863c c906 5fbd f5cf 82bc fe76 443d
00000040: 2a8d 65bc c53e 00bd ceca b03b b79e c13c
00000050: 7c6e afbc 7ae9 55bd 9602 4dbc 8ba3 763d
00000060: 07dd 46bc fc68 9b3c c662 733d c70c 3d3d
00000070: 3906 913d a0df e53c 4ed8 31bd 1791 783b
00000080: e4a9 073d fc4a f03c a894 3fbd 1708 023d
00000090: 7068 b33b 1c7a 77bd 3640 d33c 7ee1 783d
000000a0: c0e4 263b a08c 973c c612 193d 25ff 4c3d
000000b0: d0be 6dbd 9297 58bd 188d 7b3c f040 ca3c
000000c0: 8c24 efbc 1fd1 4e3d 40f3 f1bc e00e 523c
000000d0: a74d 8b3d 4832 ebbc 3824 93bb 90b8 68bd
000000e0: 00c3 bb39 e892 0ebb 655d bf3b e089 b93b
000000f0: a032 a7bb c238 c43c a1f2 d73b 2b21 3dbd
00000100: 141f 733d 16d3 66bd 3f74 013d 5ec9 35bd
00000110: d4d4 e1bc d25e 313d d2e6 1b3c 11cf 963c
00000120: 0b77 c9bc 38f0 fd3c bbce 483d bc0e 4b3d
00000130: 9fde 36ba 9821 6e3c b0e5 e4bc f5e4 83bc
00000140: 9fdb 41bd 98bc 963c dc4d 40bd 90ed f83b
00000150: d844 923c 9121 58bd 6602 08bd 7a7d 6fbd
00000160: 301c 8b3b fd3c d03c 40e1 b9ba fe7f 24bd
00000170: 34aa 703d d8b8 61bc 5db3 1c3c b038 153c
00000180: 44b4 83bd 02b4 993c 4f9a 263b 54c3 56bd
00000190: 8001 29bc 765c 10bd c4ce 85bc 6880 ffbb
000001a0: c6ae 6abd 4502 54bd 25f1 36ba 35f4 74bd
000001b0: 34a5 79bd ca5b 1f3d 08f1 883c 6298 67bd
000001c0: c4fc f83c e05e 8e3c 26d1 383c 5caa b23c
000001d0: 84d0 193d 4ea6 24bd 04cd 69bd 183b 073d
000001e0: 1bc9 3fbd 54bd 55bd 955d 433c d06a 32bd
000001f0: 952c e9bd 4621 47bd 6a15 2f3c 6d56 323d
00000200: 9475 2fbd c082 023d e8c2 da3c f27e 27bd
00000210: f7d8 d0bb 2cb7 7f3d 5865 0cbd 386f 67bd
00000220: 3a84 09bb 8164 3dbd cb91 1f3d 1bcf 013d
00000230: e8c4 7abd 004e 013d 6333 b6bb ff4b c2bd
00000240: e656 4b3d 821c 8bbc ea9c 23bd 6075 3c3b
00000250: 649e a43c 0d66 02bd b806 b9bc 0b7a a9bc
00000260: 38e3 b03c fdf5 4abd 2472 0a3d 86fa 123d
00000270: 7166 f73c 0439 1cbd 4048 68bb cec1 38bd
00000280: 98eb 3dbb dfb9 343c 48a2 1c3c ccce d4bb
00000290: 063a 5abd 008e 2539 cf35 c03c 90af d73c
000002a0: 01a7 333c 1b85 4c3d 28e6 343d 79cd 7fbd
000002b0: e482 d1bc 00ce 3dbb ed75 dc3c 396f 3f3d
000002c0: 730c 10bd 64d2 89bc 0a15 be3b 1c0d 5d3d
000002d0: a0b5 20bc 3595 1fbc 68ad f43c f025 2abd
000002e0: bc1b acbc aabc b0bc c73e 28bc 7bfc 643c
000002f0: 9ad8 25bd 1e54 60bd c57c dfbc 70e4 7abd
00000300: f7fb 753d 8ae3 5d3d 7d9a 913b 66a0 70bc
00000310: cdb2 b63c 58de 353d be60 713d e448 973c
00000320: 6440 19bd 97f7 883d d95f 263d 55a0 0cbd
00000330: f82a 343d e410 973d be32 c7bb 4161 893d
00000340: f985 f2ba 90e3 d43b f2ce 8cbd 4d9f 173d
00000350: d0d9 eebd c09a 50bd d1c8 673d 6c3f 0dbd
00000360: c670 09bd fe04 133d 5775 17bd a749 e0bc
00000370: 2cc8 f13c 8ef2 56bd c2a6 06bd 0092 333a
00000380: 4752 3a3d a0e1 7cbc 1189 10bc be74 86bd
00000390: 78a2 0fbd f041 383c 516b 15bc 7dfc 57bd
000003a0: 64f4 25bc 9ee8 fbbc 3b3f 823c 1591 e93c
000003b0: c9b9 263d 2214 b53e c702 973c 915a 5cbb
000003c0: 2f54 ad3c 4e32 b63c 405e cdba c880 bc3c
000003d0: bddd c7bc f840 a9bb fac5 ff3c d00c 23bd
000003e0: b5cc 343d a73b 0d3d e0f6 bc3c b90b 0f3c
000003f0: 10a7 b03b d230 0bbd 9e9d 23bd 2043 d33c

lin3.bias f4 [128]
0.06702604 -0.061004512 -0.01625029 -0.010338262 0.027582387 -0.06764611 0.014002333 -0.06988468
0.047470465 0.009593549 -0.069298945 0.08615256 0.036128014 -0.0138176195 -0.04819841 -0.05022098
0.074032344 -0.006554197 0.052098412 -0.06437019 -0.014246434 0.0505144 0.030640608 -0.0030317528
-0.061204568 -0.027360216 -0.058431983 0.025908634 0.020021474 0.0686885 -0.000469039 0.0020954658
0.061939072 0.07543428 -0.05630049 0.0024383927 0.06618348 -0.039468538 0.021812527 -0.03747122
0.027597884 0.027934883 0.063640326 0.061489325 -0.06165921 0.050718967 0.017142717 -0.06489712
0.06119396 0.039980408 -0.0050270483 -0.04490961 0.046274733 -0.036195368 0.036053564 -0.06718453
-0.0076103583 0.0054932637 -0.03312649 -0.07984801 -0.028175805 0.032895405 -0.03686507 -0.061029337
-0.04881611 0.02976555 0.009771133 -0.008903061 -0.05842604 -0.032356843 0.067917 -0.042202838
0.0033325404 0.058482252 -0.024391234 -0.022789571 -0.0515967 0.047056165 0.0059703267 0.044471003
0.0173387 -0.056755345 -0.02789943 0.043663923 -0.0014718749 0.008362067 -0.028875304 0.024383007
0.00806212 -0.0306579 -0.03125413 -0.02457308 -0.011183202 0.050160404 -0.049077876 -0.023297757
-0.0021645073 0.055438723 0.09541221 0.053225078 -0.00024311244 0.09951279 -0.023551328 -0.05650959
0.073662475 0.098516844 0.03218747 -0.038543805 0.032860726 0.0054907096 0.06806754 0.014647896
-0.024034142 -0.04759801 0.05288445 0.033577718 0.0646855 0.06738408 0.06300952 -0.061489966
0.02809666 0.06174065 -0.03555033 0.045168146 -0.027845927 0.04115647 -0.004367265 0.035137556
00000000: f344 893d dedf 79bd 541f 85bc d061 29bc
00000010: 75f4 e13c 0b8a 8abd 0b6a 653c b31f 8fbd
00000020: 6470 423d 432e 1d3c 9bec 8dbd c170 b03d
00000030: f8fa 133d 4c63 62bc b26b 45bd 84b4 4dbd
00000040: 459e 973d 97c4 d6bb 2565 553d 85d4 83bd
00000050: e069 69bc 30e8 4e3d 0302 fb3c 5fb0 46bb
00000060: a4b1 7abd 8822 e0bc 6056 6fbd 583e d43c
00000070: 1304 a43c 8eac 8c3d 59e9 f5b9 1554 093b
00000080: d3b3 7d3d 4a7d 9a3d 589b 66bd 71cd 1f3b
00000090: 348b 873d c3a9 21bd 2fb0 b23c 6c7b 19bd
000000a0: f514 e23c b2d7 e43c dc55 823d 3bdc 7b3d
000000b0: 5e8e 7cbd b1be 4f3d e26e 8c3c c8e8 84bd
000000c0: 85a6 7a3d 7fc2 233d f0b9 a4bb 24f3 37bd
000000d0: 938a 3d3d 9841 14bd e7ac 133d 0b98 89bd
000000e0: 5060 f9bb d600 b43b a4af 07bd 5a87 a3bd
000000f0: f2d0 e6bc 55bd 063d d4ff 16bd e6f9 79bd
00000100: 67f3 47bd e2d6 f33c 1a17 203c 25de 11bc
00000110: 2550 6fbd 9c88 04bd 1118 8b3d e2dc 2cbd
00000120: c066 5a3b 168b 6f3d 20d0 c7bc 32b1 babc
00000130: 1057 53bd f7bd 403d bba2 c33b 3a27 363d
00000140: e409 8e3c 4b78 68bd 588d e4bc f1d8 323d
00000150: edeb c0ba 0d01 093c e78b ecbc dfbe c73c
00000160: fb16 043c 4726 fbbc 5504 00bd 7c4d c9bc
00000170: c039 37bc ff74 4d3d e205 49bd f0da bebc
00000180: 68da 0dbb b713 633d 7a67 c33d 8a02 5a3d
00000190: 00ec 7eb9 5dcd cb3d b7ee c0bc 9a76 67bd
000001a0: 5adc 963d 33c3 c93d 02d7 033d 1ce0 1dbd
000001b0: f898 063d 69eb b33b ff66 8b3d bbfd 6f3c
000001c0: 40e3 c4bc 22f6 42bd 5d9d 583d ca88 093d
000001d0: d579 843d aa00 8a3d 230b 813d e7dc 7bbd
000001e0: f72a e63c c4e3 7c3d 399d 11bd 3c02 393d
000001f0: 241d e4bc b093 283d 461b 8fbb 66ec 0f3d

lin4.weight f4 [64, 128]
0.030812696 -0.054891918 0.026956882 -0.022976818 -0.02027903 -0.031625308 0.0020249875 -0.064327344
-0.088379666 -0.004372746 0.033276845 -0.010693519 -0.06628069 -0.07974051 0.008206202 0.016289135
0.040943556 -0.0347154 0.05907654 -0.018745054 0.031223692 -0.03289477 -0.03200615 -0.014677892
-0.08723599 0.08649185 -0.02668316 -0.023898507 0.00069816253 0.034291897 0.066271864 -0.031396095
-0.005381594 -0.056423765 -0.018904947 -0.024293464 -0.08388941 0.015863452 0.0641721 -0.015575031
-0.06186293 -0.07792555 0.07208289 -0.0039669666 -0.005228801 0.06761969 -0.075879306 0.07707564
-0.003305788 -0.05324936 0.00067538215 0.07712193 0.06621522 -0.04399207 -0.08336287 -0.048645563
-0.008098253 0.0013940175 -0.050905574 -0.070856616 0.00862335 0.04434527 0.07244401 0.07539056
0.061932884 -0.0030547192 0.049342167 0.051730968 0.022320138 0.01051293 0.075639874 -0.06298778
-0.04063465 0.06639944 -0.08359369 -0.024748007 0.008481516 -0.017403012 -0.061300028 0.04079501
-0.04171265 0.073168315 -0.043553077 -0.008890066 0.02014438 0.030229257 0.0008628092 0.06675827
-0.0858719 -0.037349906 0.07293586 -0.01796641 0.0010058135 -0.06777987 0.015519418 -0.08532735
-0.07036865 0.028216662 -0.05557167 -0.061549053 0.039166614 0.051687565 -0.07437538 -0.060443077
-0.01581945 -0.0049881847 0.05790721 0.039598532 -0.019431647 -0.046582993 -0.038879476 -0.055288624
0.0075073442 0.0046363743 -0.08241184 0.061369203 0.080263086 -0.020906437 -0.06338355 0.005685241
0.015322297 -0.033728026 0.020333504 -0.003172899 0.041968536 0.005865777 0.04135154 -0.006935959
0.047892854 0.023852851 0.021506071 -0.06823214 0.0049104798 -0.015553139 -0.028949648 0.05606599
0.04809857 0.025493164 0.03437352 0.017850168 -0.015052302 -0.042802393 0.000452646 -0.008515665
-0.04534542 0.05820328 -0.07913075 -0.03574059 -0.08413205 -0.030964436 0.059491545 0.0673146
-0.0068261246 0.032808613 -0.04403484 -0.04234747 0.064022735 -0.020204492 -0.00873468 -0.0646671
-0.01856987 -0.015002076 0.054596733 0.03857717 -0.0018848276 0.031162094 0.0774218 0.057615634
-0.029870767 -0.0770585 -0.10005454 0.08660879 0.071631715 0.031437293 -0.049447488 0.04003762
0.045959953 -0.02816577 -0.017112354 -0.08767381 -0.04030895 -0.02714651 0.07603276 0.0038629167
-0.05403091 0.05923187 -0.066973515 -0.05050874 0.090933815 -0.024908029 -0.008516799 0.06910519
0.014828788 0.037386198 -0.022152204 0.012597789 0.07592689 0.05021428 -0.004453918 -0.052603737
0.08217222 -0.019529263 0.060799696 0.033538535 -0.030946007 0.0138056455 -0.011744103 0.033739936
0.08266922 0.03976478 -0.056227244 -0.03692419 0.061253373 -0.033452347 -0.02789079 -0.051046092
-0.08725201 -0.02899683 0.059760984 -0.03091053 0.07534075 -0.03296766 0.019512305 -0.011015774
0.014427256 -0.0016653345 0.06645611 -0.06343581 -0.01897685 0.010455916 -0.07687456 0.057885114
0.0027727247 0.04102773 -0.068869844 -0.061042532 0.049720835 -0.06041562 0.078572914 0.08454593
0.07514099 0.014299783 -0.07690106 -0.031441316 0.04159655 0.094893806 -0.05408285 0.00040050043
-0.09603041 -0.01244594 0.0142588895 0.03795196 0.035030704 0.056400627 -0.06407421 -0.02123452
00000000: e86a fc3c 59d6 60bd aed4 dc3c e139 bcbc
00000010: 3520 a6bc 8a89 01bd a7b5 043b 0ebe 83bd
00000020: 6600 b5bd 4149 8fbb 4d4d 083d df33 2fbc
00000030: 2cbe 87bd fe4e a3bd 4e73 063c cb70 853c
00000040: 6eb4 273d bc31 0ebd 3efa 713d 3a8f 99bc
00000050: d4c8 ff3c abbc 06bd e118 03bd 8b7b 70bc
00000060: c8a8 b2bd a422 b13d a496 dabc cdc6 c3bc
00000070: e504 373a a975 0c3d 8bb9 873d 3199 00bd
00000080: 1558 b0bb 9b1c 67bd 8cde 9abc 1603 c7bc
00000090: 36ce abbd 12f4 813c a96c 833d 6a2e 7fbc
000000a0: fc63 7dbd 6e97 9fbd 32a0 933d 54fd 81bb
000000b0: 5d56 abbb 317c 8a3d 9c66 9bbd d5d9 9d3d
000000c0: eba5 58bb 001c 5abd 210c 313a 1af2 9d3d
000000d0: d89b 873d 0731 34bd 27ba aabd 9240 47bd
000000e0: 89ae 04bc 77b7 b63a 5d82 50bd 461d 91bd
000000f0: f448 0d3c 63a3 353d 865d 943d 5e66 9a3d
00000100: 56ad 7d3d af31 48bb 031b 4a3d dae3 533d
00000110: b9d8 b63c 6d3e 2c3c 14e9 9a3d bdff 80bd
00000120: 8570 26bd 6efc 873d 2b33 abbd 55bc cabc
00000130: 0ef6 0a3c c390 8ebc bd15 7bbd ab18 273d
00000140: e2da 2abd 45d9 953d b664 32bd a4a7 11bc
00000150: d405 a53c 59a3 f73c 252e 623a 8fb8 883d
00000160: 9bdd afbd 37fc 18bd 655f 953d 4b2e 93bc
00000170: 80d5 833a 2cd0 8abd 2845 7e3c 1bc0 aebd
00000180: 701d 90bd a126 e73c 1f9f 63bd dc1a 7cbd
00000190: 2c6d 203d 57b6 533d 1f52 98bd 2993 77bd
000001a0: cb97 81bc ed73 a3bb 1c30 6d3d 1232 223d
000001b0: 1e2f 9fbc cfcd 3ebd 1640 1fbd 5376 62bd
000001c0: 2b00 f63b baec 973b 8ac7 a8bd 465e 7b3d
000001d0: f960 a43d fa43 abbc 3ccf 81bd 424b ba3b
000001e0: 5f0a 7b3c 6626 0abd 7392 a63c 69f0 4fbb
000001f0: 33e7 2b3d b435 c03b 3b60 293d 0b47 e3bb
00000200: 4c2b 443d 0e67 c33c 802d b03c 4bbd 8bbd
00000210: 17e8 a03b 98d2 7ebc d027 edbc 74a5 653d
00000220: 0203 453d 0ad7 d03c 40cb 0c3d 843a 923c
00000230: ee9d 76bc 9051 2fbd 1e51 ed39 4a85 0bbc
00000240: 1ebc 39bd 9066 6e3d 4d0f a2bd ba64 12bd
00000250: 6d4d acbd 21a9 fdbc 68ad 733d 3ddc 893d
00000260: afad dfbb 5362 063d e05d 34bd 8a74 2dbd
00000270: 5a1e 833d e483 a5bc e71b 0fbc 2f70 84bd
00000280: d71f 98bc 44cb 75bc d3a0 5f3d 1803 1e3d
00000290: 520c f7ba a647 ff3c 528f 9e3d 5ffe 6b3d
000002a0: 8ab3 f4bc d9d0 9dbd 65e9 ccbd f35f b13d
000002b0: a6b3 923d 64c4 003d 7389 4abd 7dfe 233d
000002c0: 8140 3c3d e7bb e6bc 352f 8cbc 548e b3bd
000002d0: ff1a 25bd 5c62 debc 10b7 9b3d fd28 7d3b
000002e0: 844f 5dbd 1e9d 723d 6929 89bd 41e2 4ebd
000002f0: 823b ba3d ec0b ccbc 0b8a 0bbc 0687 8d3d
00000300: 72f4 723c 4522 193d 8a78 b5bc f566 4e3c
00000310: 8f7f 9b3d 7dad 4d3d 2cf2 91bb 0477 57bd
00000320: e949 a83d d5fb 9fbc 1a09 793d b45f 093d
00000330: 7b82 fdbc 1331 623c 576a 40bc e332 0a3d
00000340: 7b4e a93d 65e0 223d 8a4e 66bd d23d 17bd
00000350: d1e4 7a3d 5405 09bd 3a7b e4bc b515 51bd
00000360: 2fb1 b2bd c38a edbc efc7 743d 1438 fdbc
00000370: 404c 9a3d 1909 07bd 45d8 9f3c 817b 34bc
00000380: 4c60 6c3c 5a47 daba 241a 883d a2ea 81bd
00000390: 5775 9bbc 4a4f 2b3c 6970 9dbd f118 6d3d
000003a0: 9ab6 353b b10c 283d a20b 8dbd bc07 7abd
000003b0: 13a8 4b3d 5f76 77bd d6ea a03d 6b26 ad3d
000003c0: 85e3 993d a349 6a3c 4e7e 9dbd 9cc8 00bd
000003d0: 2561 2a3d af57 c23d fb85 5dbd 42fa d139
000003e0: 97ab c4bd 0eea 4bbc 1e9e 693c 8473 1b3d
000003f0: 5b7c 0f3d 5804 673d 5739 83bd 04f4 adbc

lin4.bias f4 [64]
-0.07732911 -0.08300979 -0.07442097 0.015756754 -0.08491519 0.056262083 -0.028794078 -0.008364404
0.09892937 -0.052485682 0.05125255 0.03394704 0.0053823204 0.10235432 -0.061514568 0.011261764
-0.050759777 0.05354829 0.046787493 0.06735973 0.035234552 0.06558655 -0.020743461 0.06864925
-0.08752175 0.05066784 0.015588696 0.041801304 0.035051834 -0.04801414 -0.011340444 -0.019983876
-0.058742784 0.041673724 -0.0135967145 0.05123925 0.009381689 -0.06804655 0.093690425 0.08281869
-0.012425095 -0.086748146 -0.065167 -0.009298971 0.060956735 -0.037007686 -0.028815277 0.08048449
-0.06244124 -0.0683031 -0.04456716 -0.04886424 -0.024523238 0.05851729 -0.052084494 0.09765192
0.076089315 -0.06615267 -0.022284398 0.052796256 0.025669077 0.011103973 0.020685615 -0.0014469832
00000000: b95e 9ebd 0901 aabd 066a 98bd 4f14 813c
00000010: 04e8 adbd 1273 663d 8fe1 ebbc da0a 09bc
00000020: 7b9b ca3d 3afb 56bd 32ee 513d 0d0c 0b3d
00000030: 2d5e b03b 249f d13d b3f6 7bbd 4383 383c
00000040: 7ce9 4fbd 7455 5b3d 3ea4 3f3d e6f3 893d
00000050: 1b52 103d 3e52 863d 31ee a9bc fa97 8c3d
00000060: 9a3e b3bd 1589 4f3d bb67 7f3c d837 2b3d
00000070: 8392 0f3d 7aaa 44bd 45cd 39bc 3ab5 a3bc
00000080: 469c 70bd 11b2 2a3d c1c4 5ebc 3fe0 513d
00000090: a8b5 193c fd5b 8bbd c4e0 bf3d d89c a93d
000000a0: a092 4bbc 03a9 b1bd 4776 85bd b65a 18bc
000000b0: c5ad 793d 5f95 17bd 040e ecbc 0dd5 a43d
000000c0: 63c2 7fbd 7fe2 8bbd 0e8c 36bd df25 48bd
000000d0: f5e4 c8bc d3af 6f3d 8d56 55bd bbfd c73d
000000e0: b7d4 9b3d 0d7b 87bd c58d b6bc e340 583d
000000f0: f547 d23c 70ed 353c e174 a93c b3a8 bdba

lin5.weight f4 [12, 64]
0.05006984 0.0070324396 0.018197998 -0.024726806 0.038709372 -0.041916557 -0.06386033 -0.018263655
0.03512429 -0.07380113 -0.06636703 -0.029565306 0.012064528 -0.0056330548 -0.023965567 0.04921171
-0.024317235 0.07814879 0.024464414 0.11134334 -0.017777076 0.13167298 0.11217913 -0.030360647
0.05687751 -0.109709226 0.09176558 -0.011307947 -0.054761205 0.052398384 0.073285125 0.10545363
-0.06822507 -0.07887866 -0.067102045 -0.05739791 -0.048452333 -0.10295248 0.06273294 0.10866372
0.08426869 0.05547102 0.10632067 0.09537463 0.081448525 0.034809645 0.08750958 -0.08271628
-0.024224028 0.048436053 -0.020123646 0.02571478 -0.0532154 -0.026685646 0.09229471 0.054895602
0.049371112 0.037955627 0.06185974 -0.016947223 -0.0064471248 0.0030969125 0.0005010927 -0.08236783
0.023270652 0.008361459 0.00090816617 0.019865058 -0.0989054 0.027498927 0.100482896 0.020798516
-0.07426721 -0.120815784 0.022079062 -0.062134877 0.004834041 0.016596302 0.013624921 -0.05253321
-0.08141032 0.10270233 0.13283877 0.0068611195 0.032883048 0.0723521 0.08134259 0.020720536
0.01802276 0.01627029 -0.08405353 -0.09554008 0.11201047 0.11125045 0.122879155 -0.012475387
0.103683755 0.13169815 0.0013177737 0.123878226 -0.046496358 0.1115251 0.11314663 0.053915676
0.060692832 -0.09483286 0.09912893 -0.08781585 -0.09255595 -0.016881136 0.010961565 -0.05690504
-0.027862271 -0.11723497 0.028242692 -0.07491633 -0.12469573 0.13686587 0.07888906 0.14678271
0.06903767 0.097096056 -0.0344491 0.08615287 0.095029466 0.00086545065 -0.06910773 0.050235767
0.0050331056 0.10961528 -0.018274605 0.05019097 -0.001745969 0.08821213 -0.024537528 -0.10211208
0.104544304 0.0025252998 0.008379216 -0.101283364 0.04553927 0.028274016 -0.10374993 0.02976735
0.10951088 0.10584988 -0.100261144 -0.12457086 0.0790668 -0.020528547 -0.033326045 0.017823933
-0.064871415 0.049742263 0.06749481 -0.035186525 0.07306234 -0.117293954 0.11655059 0.07444622
-0.11710197 0.048951294 0.060288087 -0.10799514 0.05209681 0.08315858 0.09671895 0.026662175
0.0011447298 -0.10058115 0.1125223 -0.078673825 0.017785115 -0.007535454 -0.02840935 -0.12869859
0.041510064 -0.10878085 -0.030127034 0.03363183 0.10932857 0.09073314 0.017904207 -0.121314846
-0.0689917 -0.119625255 -0.08824152 0.083826944 0.042544167 -0.008126667 0.025461411 0.039991084
0.018301502 -0.022148967 -0.055904612 0.10058946 -0.045249656 -0.008848402 0.1258308 0.065803975
0.0016827851 0.05548425 -0.0877241 -0.024527088 0.10857543 0.043634616 0.025795862 -0.015315056
0.12250225 -0.086899966 0.10626886 -0.0034961593 0.011545955 0.10083011 0.019808626 0.110980995
0.10512929 0.1376002 0.0035016537 0.047832314 0.03879693 0.07677865 -0.074623376 0.003150942
-0.104592144 -0.06948084 -0.10690316 0.10262447 0.06775317 -0.029160902 -0.028912188 -0.051267665
-0.05870646 0.10080333 -0.057915535 0.008813257 0.121598236 -0.084481545 0.024446843 -0.0903359
-0.041602675 -0.11185903 0.06334089 0.016642291 -0.09851402 -0.07152203 0.12098846 -0.024401478
0.11614171 -0.113520145 -0.0907726 0.1287556 0.07763158 -0.09407268 -0.012823976 0.04882439
00000000: 0816 4d3d 6170 e63b f813 953c df8f cabc
00000010: b88d 1e3d b2b0 2bbd 34c9 82bd a99d 95bc
00000020: 7dde 0f3d 0c25 97bd 70eb 87bd f132 f2bc
00000030: 4caa 453c 7d95 b8bb 7053 c4bc 3892 493d
00000040: f034 c7bc 790c a03d 9869 c83c fa07 e43d
00000050: 3ba1 91bc 48d5 063e 2cbe e53d e4b6 f8bc
00000060: 64f8 683d 3baf e0bd 98ef bb3d f844 39bc
00000070: 494d 60bd b09f 563d 8316 963d 13f8 d73d
00000080: 96b9 8bbd 238b a1bd cc6c 89bd 121a 6bbd
00000090: f475 46bd c0d8 d2bd 217a 803d 168b de3d
000000a0: 1095 ac3d 9535 633d a7be d93d c653 c33d
000000b0: 7cce a63d 8f94 0e3d 3938 b33d 2767 a9bd
000000c0: 7871 c6bc e264 463d 58da a4bc cda7 d23c
000000d0: 64f8 59bd db9b dabc 0205 bd3d 36da 603d
000000e0: 5d39 4a3d 5c77 1b3d a460 7d3d e7d4 8abc
000000f0: 6742 d3bb 92f5 4a3b c35b 033a 77b0 a8bd
00000100: 18a2 be3c 80fe 083c 0012 6e3a 0cbc a23c
00000110: ea8e cabd 6e45 e13c fac9 cd3d a661 aa3c
00000120: 6819 98bd 446e f7bd 26df b43c 2481 7ebd
00000130: e066 9e3b f8f4 873c 103b 5f3c 102d 57bd
00000140: 74ba a6bd 9955 d23d e306 083e 3ed3 e03b
00000150: 60b0 063d 562d 943d f296 a63d 1dbe a93c
00000160: 78a4 933c 4549 853c 4224 acbd 84aa c3bd
00000170: bf65 e53d 47d7 e33d 11a8 fb3d 9165 4cbc
00000180: 2658 d43d e1db 063e 26b9 ac3a deb3 fd3d
00000190: f772 3ebd 4667 e43d 6cb9 e73d afd6 5c3d
000001a0: 0c99 783d bb37 c2bd 1c04 cb3d ccd8 b3bd
000001b0: f98d bdbd 4f4a 8abc 2398 333c 4215 69bd
000001c0: 6b3f e4bc e318 f0bd 385d e73c bc6d 99bd
000001d0: 7a60 ffbd 9126 0c3e 9690 a13d 354e 163e
000001e0: 9f63 8d3d 4cda c63d 801a 0dbd ea70 b03d
000001f0: cf9e c23d 69df 623a 5b88 8dbd 05c4 4d3d
00000200: c0ec a43b fa7d e03d a0b4 95bc 0c95 4d3d
00000210: 00d9 e4ba 90a8 b43d ed02 c9bc 2320 d1bd
00000220: 531b d63d 807f 253b fb48 093c a76d cfbd
00000230: 6387 3a3d e99e e73c d87a d4bd a8da f33c
00000240: 3e47 e03d d2c7 d83d b755 cdbd 021f ffbd
00000250: c6ed a13d 7c2b a8bc e480 08bd 7f03 923c
00000260: 4edb 84bd 8bbe 4b3d b83a 8a3d bf1f 10bd
00000270: b5a1 953d d037 f0bd 13b2 ee3d 4377 983d
00000280: 28d3 efbd 2781 483d a4f0 763d 8e2c ddbd
00000290: 7763 553d 0c4f aa3d 9614 c63d a26a da3c
000002a0: c20a 963a 7dfd cdbd 1772 e63d be1f a1bd
000002b0: 17b2 913c f8eb f6bb baba e8bc 90c9 03be
000002c0: 7506 2a3d 7fc8 debd f8cc f6bc 88c1 093d
000002d0: a8e7 df3d 4cd2 b93d d8ab 923c eb73 f8bd
000002e0: 854b 8dbd 16fe f4bd f8b7 b4bd 76ad ab3d
000002f0: cb42 2e3d b625 05bc 7394 d03c b1cd 233d
00000300: 08ed 953c c071 b5bc 3cfc 64bd d901 ce3d
00000310: b457 39bd e3f8 10bc cad9 003e 3cc4 863d
00000320: e690 dc3a 7443 633d b1a8 b3bd 08ed c8bc
00000330: cc5c de3d 36ba 323d d851 d33c 00ec 7abc
00000340: 76e2 fa3d 9cf8 b1bd 7da3 d93d d21f 65bb
00000350: 3f2b 3d3c 0480 ce3d b345 a23c 014a e33d
00000360: 064e d73d 11e7 0c3e 007c 653b d1eb 433d
00000370: 88e9 1e3d 203e 9d3d 24d4 98bd 0980 4e3b
00000380: 6834 d6bd f84b 8ebd 0bf0 dabd c72c d23d
00000390: 2dc2 8a3d d8e2 eebc 41d9 ecbc 0bfe 51bd
000003a0: 2f76 70bd fa71 ce3d d738 6dbd 7b65 103c
000003b0: 7f08 f93d a904 adbd bf44 c83c 0702 b9bd
000003c0: 9167 2abd 5916 e5bd deb8 813d 6a55 883c
000003d0: b8c1 c9bd 247a 92bd ccc8 f73d 9ce5 c7bc
000003e0: b4db ed3d 407d e8bd fce6 b9bd 82d8 033e
000003f0: 4efd 9e3d 2da9 c0bd a71b 52bc 15fc 473d

lin5.bias f4 [12]
0.03217787 0.05792534 -0.12608652 0.044309646 -0.04509552 -0.02644061 -0.039019365 0.02632446
0.045650735 -0.039783046 -0.021337835 -0.11623563
00000000: f1cc 033d 1f43 6d3d d31c 01be 087e 353d
00000010: 14b6 38bd fa99 d8bc c5d2 1fbd 65a6 d73c
00000020: 44fc 3a3d 8cf3 22bd afcc aebc f20c eebd
