src/virtuose_teleoperation/network_controller/Brick_demonstration/Pull_skill.pth (torch, 462279 bytes, 10 tensors)

lin1.weight f4 [256, 27]
000000 e4 e8 cb bd 42 7c 93 3e 30 e1 51 bd 22 6d 4f bd
       -0.0995653 0.2880574 -0.051240146 -0.050641187
000010 57 3f 95 bc 25 08 cc bd 96 0f c3 bd a2 52 e6 bc
       -0.01821868 -0.09962491 -0.09524457 -0.028115574
000020 59 ee 7b 3e 19 f9 b1 3e b9 b6 c5 bd 52 6b 92 3d
       0.24602641 0.3476036 -0.09653992 0.07149376
000030 86 04 0d 3e 12 85 3e 3e 64 9a 5d 3d 2b 05 04 3e
       0.13771257 0.1860545 0.054102316 0.12892596
000040 a4 68 ba bd b1 4e 54 be 82 94 37 3e 30 15 13 3d
       -0.0910199 -0.20733143 0.17927745 0.035908878
000050 86 b6 d1 3c 21 64 09 be ed 5c 95 bd 22 4d 45 be
       0.02559973 -0.13417102 -0.07293115 -0.19267705
000060 a2 74 c7 3d c3 c5 92 3d 59 d1 87 3e e1 bc 02 be
       0.09739043 0.07166626 0.26526907 -0.12767364
000070 65 cd ba 3d 81 af 8c 3c e1 8e fe 3d 3d bb b9 bd
       0.09121207 0.01717353 0.12429596 -0.09068916
000080 8a 56 5b be 1f 41 8d be ee 0c ca bc e1 4b 94 bc
       -0.21419731 -0.27588746 -0.024664368 -0.018102588
000090 bd 22 59 3d 0c 6b 65 be 40 c4 f6 3d c7 39 37 3e
       0.053011645 -0.22404116 0.120491505 0.17893134
0000a0 24 a6 27 3f 14 89 75 be 48 36 02 be 13 82 0e be
       0.65487885 -0.23978072 -0.12716019 -0.13916807
0000b0 4b 25 49 be eb 59 37 be f6 1e 9d 3d c9 04 28 be
       -0.19643132 -0.17905395 0.07671921 -0.16408075
0000c0 d0 93 be bd 36 aa 78 3d eb 82 7e bd a0 ba 39 bd
       -0.09305537 0.0607092 -0.06213657 -0.045343995
0000d0 56 67 b1 bd e8 c8 c1 3d 5a 40 19 3e 19 52 41 be
       -0.08662288 0.09462148 0.14965954 -0.18878974
0000e0 14 12 bc 3d db 2b dd 3d c0 4a c5 3d e4 d7 0d bb
       0.09183136 0.107993804 0.09633398 -0.0021643573
0000f0 15 ed 64 3e 5a 10 11 be 99 6d f7 bd 25 0d 44 3e
       0.22356065 -0.14166394 -0.12081451 0.19145639
000100 1a d1 b1 3d cf b1 4c be 17 db bd 3d 6e 2a 98 3e
       0.08682461 -0.19989704 0.09270304 0.2971987
000110 7b e5 4f bd 39 1c 15 be 32 c0 3d 3c d0 fd dd 3d
       -0.05075596 -0.14561547 0.011581467 0.108394265
000120 15 44 4d be 2b ee e4 3b 99 99 09 3e c9 0c c4 3c
       -0.20045502 0.0069863996 0.13437499 0.023931878
000130 75 e0 1b 3e 02 bc 24 bd 51 17 2b 3e 71 fb e3 3d
       0.15222342 -0.04021836 0.16708113 0.11131943
000140 87 aa 5d bd 09 80 20 be 2a 4a 8b bd 9d db 30 3d
       -0.054117706 -0.15673842 -0.06801255 0.04317819
000150 ac fb d4 3d 0c 46 ea 3d be 2d 6d 3d d1 17 a2 3d
       0.10399565 0.11439142 0.05790495 0.07914699
000160 f1 43 1b 3e ca 87 51 3e 00 93 d8 3d a5 7f c5 bd
       0.15162636 0.20461956 0.10574913 -0.09643487
000170 af 50 27 bd af 04 03 3e e1 79 37 be 81 6d 4b 3e
       -0.04084843 0.12794755 -0.17917587 0.19865991
000180 6b 86 43 bd 76 6c cb 3c b8 b5 e4 bc 8a 76 f8 bd
       -0.047735613 0.024831992 -0.027918682 -0.121319845
000190 0d 25 d0 3d 63 ed a9 bd 49 e1 b3 bd 30 52 2d be
       0.10163317 -0.08297231 -0.08783204 -0.16925883
0001a0 f3 48 fc 3d 6c 7e 79 3d 92 16 96 3a c1 20 cd 3b
       0.123186015 0.06091158 0.0011450818 0.006260008
0001b0 e1 06 80 be 7b 35 a5 3d 94 50 d8 be 6e c1 7f bb
       -0.25005248 0.08066841 -0.42248976 -0.0039025205
0001c0 fd f9 a0 be ba 81 dd 3c 89 f9 b2 be 98 8e 1c 3e
       -0.31440726 0.027039398 -0.34956005 0.1528877
0001d0 4c c6 be bd 4d b5 41 bd ff 38 bb 3c 90 61 58 bd
       -0.09315166 -0.047292043 0.022854326 -0.052827418
0001e0 b0 22 fe bc 54 27 8e 3d 32 14 a7 3e 88 1a b2 bd
       -0.0310224 0.06941095 0.32632595 -0.08696467
0001f0 ca 7a 56 be 4c a7 3c be 00 ba 13 3e ca ac 58 bd
       -0.20945278 -0.18423194 0.14426422 -0.05289916
000200 4d b5 15 3e 41 f1 96 bc 0e 50 31 be 77 6b fe bc
       0.14619942 -0.018425586 -0.17315695 -0.031057103
000210 51 99 a0 bc 4c 03 5d 3d 92 13 97 3d 8b 15 36 3e
       -0.019604357 0.053958222 0.073767796 0.17781655
000220 5c 87 d4 bd b3 90 1a bd f0 ff 0b 3e 34 98 24 3e
       -0.1037738 -0.037735652 0.13671851 0.16073686
000230 e9 cd 98 3d 15 7d 0a 3d 13 30 c4 3d 1f 10 3b be
       0.07461149 0.033810694 0.09579482 -0.18267868
000240 58 7a 29 be fc 0e 25 be 64 49 2b bd a3 36 2f be
       -0.16550577 -0.16118997 -0.041818038 -0.17110686
000250 d2 9b 82 3d 00 8b 3a bd 0a 14 94 3d 6d 5d 29 3e
       0.063773766 -0.045542717 0.07230385 0.16539545
000260 c7 a7 34 3d f7 e2 08 be 06 8b 53 3d da b6 08 3d
       0.044105317 -0.1336783 0.051646255 0.033377506
000270 6d e1 ed bd 80 d1 47 3d af 65 99 3c 4a 0c 21 be
       -0.11615262 0.04878378 0.018725244 -0.15727344
000280 76 88 34 be 32 e2 59 3d 3d 94 be 3d c0 e7 81 3c
       -0.1763018 0.053194232 0.09305618 0.015857577
000290 58 f1 8d bd f4 9c 1e 3d 07 b3 3d be 43 89 6d bd
       -0.06930798 0.0387239 -0.18525325 -0.05799223
0002a0 9f 39 08 be 8c a2 4c 3d fc 6b 78 bd 1b 6c c3 3d
       -0.1330323 0.049959704 -0.060649857 0.09542104
0002b0 7e 37 36 3e 2f 01 c7 3d c7 7c 8e bd e4 4f 55 3e
       0.17794606 0.09717023 -0.06957393 0.20831257
0002c0 3a 6f 5d 3e f0 af aa bd 92 21 20 3e 92 ce f5 bd
       0.21624461 -0.08334339 0.15637806 -0.12002291
0002d0 ef 4e 22 3e e1 25 d0 bd 0d 90 40 3d 04 20 12 be
       0.15850423 -0.10163475 0.047012378 -0.14270025
0002e0 79 2d 0d 3e 48 02 2f 3d 42 46 2c be f1 ea aa 3d
       0.13786878 0.042726785 -0.16823676 0.08345593
0002f0 c9 a7 b2 3d 08 74 5b ba 77 23 e0 bd c6 2c 26 3e
       0.08723409 -0.0008371477 -0.109442644 0.16228017
000300 7a b6 e6 bd 03 fd f8 ba 38 8a 75 bd 20 23 2c bd
       -0.112652734 -0.0018996302 -0.05994627 -0.042025685
000310 8e 4f 2f be 39 e4 08 3d 68 55 11 be e8 56 bc bd
       -0.17120191 0.033420775 -0.14192736 -0.091962636
000320 53 41 07 be bc 21 d2 bd 49 a3 d3 bd a0 2b 6a bd
       -0.13208513 -0.102603406 -0.103338785 -0.05717051
000330 7a ce ca bd af 72 11 3e c3 12 24 3e b6 45 d6 bd
       -0.099026635 0.14203905 0.16022782 -0.10462515
000340 f7 48 f5 3d 56 81 33 be cb f4 01 be 8b b3 6a bd
       0.119768076 -0.17529806 -0.12691037 -0.05730013
000350 4b 24 1a be d7 b6 14 be 8c 9b cd 3d e8 38 0d bb
       -0.15052907 -0.14522873 0.10039434 -0.0021548811
000360 14 48 01 be 8e cf e6 bd a2 23 e2 3d c2 d4 72 3d
       -0.12625152 -0.11270057 0.11041953 0.059284933
000370 41 33 2b be 99 38 93 bd 41 1d 8e 3c e2 97 98 bd
       -0.1671877 -0.071885295 0.017347934 -0.07450844
000380 f2 34 0c bc a9 10 91 3d 30 d1 cc 3c 21 cb 36 be
       -0.008557545 0.07083256 0.025002092 -0.17850925
000390 e9 ca e0 3d 54 b9 1e be 5a 73 2e be 78 d4 b0 bd
       0.10976202 -0.15500385 -0.1703619 -0.08634275
0003a0 49 fe 5b be d5 41 33 3d 48 03 8a 3d 52 6d 40 be
       -0.21483721 0.043763954 0.06738907 -0.18791702
0003b0 52 77 0e 3e 5a ba 06 bd 99 8c a4 bd 7e fd c3 3c
       0.13912705 -0.032892562 -0.080346294 0.023924585
0003c0 ea 26 62 3d db 88 db 3c c6 5c 0c be 8c 64 83 bd
       0.055212893 0.026798656 -0.13707265 -0.06415662
0003d0 13 65 a8 bd 2e 40 ae 3e 5e 53 16 be 9f 13 e4 3d
       -0.082224034 0.3403334 -0.1468024 0.11136555
0003e0 d1 25 b0 3c 2d b1 93 3e 49 ef 45 3e b4 ab b3 3c
       0.021502407 0.28846112 0.19329561 0.02193246
0003f0 71 5b 83 3d ec 3b d9 3b 3a 06 75 3b d6 a9 7a 3d
       0.064139254 0.0066294577 0.0037387745 0.061197124

lin1.bias f4 [256]
000000 58 26 64 bd 1e 9b 38 be 59 65 ec bd 59 58 1b 3e
       -0.05570063 -0.18027923 -0.11542768 0.1517042
000010 1a fb bc 3b 26 36 13 be 0e a5 25 3e 9e 3c 40 bd
       0.0057672383 -0.14376125 0.16176245 -0.04693281
000020 6b 45 82 3d ba cf 5c 3e 07 5d 7e bc 18 d0 b7 bd
       0.06360897 0.21563616 -0.015525109 -0.089752376
000030 ef 2c 6b 3d a9 02 85 3d d4 75 9d bd d9 36 3c 3d
       0.0574159 0.06494648 -0.076884896 0.045950744
000040 3f f7 91 3c 88 34 da bd d3 c7 3f bd 3e cb 14 3e
       0.017818091 -0.10654551 -0.046821427 0.14530656
000050 42 3d 4d bc a8 50 3d be bf b4 ab 3d 0d f0 f3 bd
       -0.012526812 -0.18487799 0.08384084 -0.119110204
000060 a8 d3 c4 bd 1f e9 05 3e 57 12 11 3d fe 43 9f bd
       -0.09610683 0.1307721 0.03541788 -0.0777664
000070 95 73 c3 bc 21 06 29 3c a8 7e 01 be fe 57 e5 bd
       -0.023858825 0.010316403 -0.12645972 -0.11198424
000080 78 af 1a be 3e 7d f8 ba 9f b9 fc 3d d6 ed 47 bd
       -0.15105999 -0.0018958224 0.12340092 -0.048810802
000090 c5 04 08 be b6 c7 8e 3c 37 e1 33 be 01 69 49 3d
       -0.1328307 0.017429214 -0.17566381 0.049172405
0000a0 6f 45 92 bd 71 20 5e bd dd 11 23 3e e7 4e de 3d
       -0.0714215 -0.054230157 0.15924783 0.10854893
0000b0 ad f2 25 3e b1 ca b2 bd 60 89 00 be e0 98 a7 bb
       0.16205855 -0.087300666 -0.12552404 -0.0051146597
0000c0 fc 9c 12 3e 45 b9 01 be d5 15 38 3c 77 06 25 3e
       0.14317697 -0.12668331 0.011235674 0.16115747
0000d0 0e 0f 1a 3e 06 43 6a bd 88 db d9 3d 4c 82 85 bd
       0.15044805 -0.057192825 0.106375754 -0.06518993
0000e0 0c 63 19 be ae be fd 3d 41 c5 2f be 28 22 2f 3d
       -0.1497919 0.12389885 -0.1716509 0.042757183
0000f0 f0 46 00 bd 68 32 32 be 48 24 51 bc e9 da 63 bd
       -0.03131765 -0.17402041 -0.012764998 -0.05562869
000100 78 9a c3 3d 09 fd 97 3d 2e 68 18 3e c5 c5 3e be
       0.09550947 0.074213095 0.14883491 -0.1863013
000110 1e 5e 2a be 8d c6 cc bd f3 53 0b be 58 02 9b bd
       -0.16637465 -0.09998808 -0.13606243 -0.075688064
000120 90 c0 41 be b5 16 61 bd 92 b3 da 3d f5 ac 0b 3e
       -0.18921113 -0.054953296 0.106787816 0.13640197
000130 0f 26 00 be ff a5 d8 3d c1 cc ad bd b7 7e 94 bd
       -0.12514518 0.10578536 -0.08486319 -0.072507314
000140 1c 01 61 bd 9b 16 84 3d 0c 4d 15 be d2 0c 09 3c
       -0.0549327 0.06449624 -0.14580172 0.008364873
000150 2a ff ef 3d c5 dd eb bd a4 a0 09 3e 7b 3d fe 3d
       0.117185906 -0.115169086 0.13440186 0.1241407
000160 a6 98 cf bd 49 c2 5a 3c 7b a9 37 bb ae fd d1 3d
       -0.10136537 0.013351985 -0.0028024602 0.10253464
000170 ce 32 e1 3d 87 95 09 3d 35 e1 55 bd ec 2a 3d be
       0.10996018 0.033589866 -0.052216727 -0.18473405
000180 39 38 19 bd c5 ee 5c bd 60 71 e8 bc 33 fa 1a be
       -0.037407134 -0.053938646 -0.028374374 -0.15134506
000190 ba 02 a1 bd ad fc a8 3d eb 51 32 be 38 26 13 be
       -0.07861848 0.08251319 -0.17414062 -0.14370048
0001a0 8a 05 c2 3d ce 99 ae 3d 90 57 37 be 97 39 29 3e
       0.09473713 0.0852543 -0.17904496 0.16525875
0001b0 b8 eb be bd ca d7 dc 3b c0 7d 32 be 67 04 4c 3d
       -0.093223035 0.0067395912 -0.17430782 0.049808886
0001c0 b4 01 79 3d 95 4f d2 bc 56 3b 44 be 96 54 48 3d
       0.06079264 -0.025672713 -0.1916326 0.048908792
0001d0 85 36 92 bd 64 11 1f be f9 01 32 ba e4 00 59 be
       -0.07139305 -0.15533978 -0.0006790455 -0.21191746
0001e0 52 91 20 3d d1 8b 2f be 91 5a c1 3d 91 c9 05 3e
       0.03920109 -0.1714318 0.09441102 0.13065173
0001f0 bd 9a 33 3e 27 a9 c1 3d 6a 5a 86 3d f9 24 17 3e
       0.17539497 0.094560914 0.06560214 0.14760198
000200 4f 8f 97 3d 59 eb 8c bc cd 62 01 be 9b 69 2b bd
       0.07400381 -0.017202066 -0.12635346 -0.04184876
000210 7a b6 71 bd 73 57 0b be 3a 83 16 be b0 d3 1c 3c
       -0.059011914 -0.13607578 -0.14698496 0.009571955
000220 2a f6 28 be d2 da c3 bc a6 65 3c be e2 95 3a 3e
       -0.16500154 -0.023908053 -0.18398151 0.18221238
000230 d6 77 c0 3d c0 28 c8 3d 82 47 b4 3d d4 42 1e 3e
       0.09397857 0.097733974 0.088027015 0.1545518
000240 b6 23 36 3a 9f 7f 4e bd f3 1b b2 bc 88 fb 12 bc
       0.00069480704 -0.050414678 -0.021741843 -0.008971103
000250 d7 a4 0a be b8 98 9f 3c 08 bb 3b bd 94 2d b8 3d
       -0.13539444 0.019482002 -0.045832664 0.08993068
000260 40 05 69 bd 42 f2 ad 3c 96 72 10 bd ee 00 94 bd
       -0.056889772 0.021233682 -0.035265528 -0.0722674
000270 a9 52 f5 3d 17 b4 1d 3d 38 fb 09 3e cc d9 d0 bd
       0.11978657 0.038501825 0.13474739 -0.101977915
000280 d7 fa 51 3d 4c b0 d8 bc 96 ea e2 bd 54 6c 2a 3e
       0.05126461 -0.026451252 -0.110799 0.16642886
000290 9e 19 3d be d9 1a fc bd ae b9 bf 3d d1 a9 1d 39
       -0.18466803 -0.12309808 0.093615875 0.00015035948
0002a0 cd ab 11 be ac 71 e3 3d 7f 30 f3 3d 7f c0 06 3e
       -0.14225693 0.111056656 0.11874484 0.13159369
0002b0 c7 88 36 be b1 c6 bd 3d a7 5b 26 3e fd 30 a2 3c
       -0.17825614 0.09266413 0.162459 0.01979875
0002c0 f9 95 37 3d 6e ae c2 3d 74 08 54 bc 65 d7 32 bd
       0.04482076 0.09505926 -0.0129414685 -0.043662447
0002d0 e4 68 1e be 24 bf b4 3d fd 2e 43 be 2f 0f 69 bc
       -0.154697 0.0882552 -0.19060893 -0.014224811
0002e0 46 05 f0 bd 3a 78 0a 3e b5 6a 92 bd 0b 0f f6 3d
       -0.11719756 0.13522425 -0.07149259 0.12014588
0002f0 15 aa f8 3d c1 b3 04 3e 72 59 a3 3d c5 fe 23 be
       0.121418156 0.12959196 0.07976045 -0.16015156
000300 01 45 e7 bd a4 b2 d1 3d 69 8d 93 bd 58 4e 2d be
       -0.11292458 0.10239151 -0.07204706 -0.16924417
000310 b0 66 77 bd a8 e3 04 3e 13 7a 98 bd 2a 7f 04 3e
       -0.060400665 0.12977469 -0.07445159 0.12939134
000320 d0 c7 96 bd 61 47 15 3e 2e 4c 16 3e f3 aa 13 3e
       -0.0736233 0.1457801 0.14677498 0.1442068
000330 3e 33 08 3c 5f fd 22 3e 11 d9 d6 3d 66 22 1e 3e
       0.008312998 0.15916966 0.10490621 0.1544281
000340 f9 37 33 3e de ef 2a 3e c3 9a 44 3d 48 a3 e8 bd
       0.1750182 0.16693065 0.047999155 -0.113592684
000350 0e f9 da 3c cb 5a 0a be 21 2f 20 3d 59 7c c0 bc
       0.026730087 -0.13511197 0.039107446 -0.023496794
000360 fe 4d 91 bd 99 03 16 be 4f 75 11 be ba 0a fb 3b
       -0.07094954 -0.1464981 -0.14204906 0.007661191
000370 ff 13 57 3d 81 ca d6 bd c0 11 fc 3c fe 8d 26 3e
       0.052509304 -0.10487843 0.030770183 0.16265103
000380 fa 51 3d be e0 51 1a 3e 78 9f 27 be 83 29 84 bd
       -0.18488303 0.15070295 -0.16369426 -0.0645323
000390 7b 8b e5 b8 10 d3 f9 bc 93 95 59 3d 74 af 2c 3e
       -0.00010945551 -0.03049615 0.05312116 0.16863805
0003a0 f4 09 11 3e 57 46 8f 3d 28 53 a0 bd 4d b1 9e bd
       0.14163953 0.06995838 -0.07828361 -0.07748661
0003b0 2e 7a 12 bd 5c de 3b 3c 50 f0 43 bd 77 64 27 bc
       -0.03576105 0.011466589 -0.0478366 -0.010216824
0003c0 ef fc 5f bd 62 72 d4 bd 07 fa 6e 3c 6f 43 af 3d
       -0.054684576 -0.10373379 0.014585978 0.08557784
0003d0 dd 28 99 3d df 2e 2d 3d 7f 1e a5 bd 7a ef 92 bd
       0.07478497 0.042281028 -0.08062457 -0.07174583
0003e0 e1 c6 62 3b 2d b0 9d bd e3 e9 c0 3d 37 1f 8b bc
       0.0034603404 -0.076996185 0.0941961 -0.016982658
0003f0 12 0b f8 3c 2a e8 6c bd ce bd 3b be 67 84 a6 3d
       0.030278716 -0.057838596 -0.18334123 0.081307225

lin2.weight f4 [256, 256]
000000 c4 4b 82 bd 00 80 2d 3d da 9c 4c bd 44 a8 db bb
       -0.063621074 0.0423584 -0.049954273 -0.0067034084
000010 b4 d3 0d 3d e0 55 36 3b 37 15 ab bb d0 2d 78 3d
       0.034625724 0.0027822182 -0.005221035 0.060590565
000020 d1 b7 33 bd 3e 63 71 3c 54 fb 1b 3d 48 8c 30 bc
       -0.043876473 0.014733134 0.038081482 -0.010775633
000030 7e 8e a2 bc 98 75 06 bc ee f8 2b bd 40 17 db bc
       -0.019843336 -0.0082067475 -0.041985445 -0.026744485
000040 22 55 12 3c 2b ae 51 bd ee 93 50 bd 5f 14 5b bd
       0.00893143 -0.05119149 -0.050922327 -0.053486224
000050 6c 28 a9 bc c8 b7 d0 3c fe 0b 67 bd c0 19 eb 3b
       -0.020649157 0.025478259 -0.05640792 0.0071747005
000060 80 57 4f ba 60 82 d2 bc 0f 3d 86 3a ef b0 4c bd
       -0.0007909462 -0.025696933 0.0010241586 -0.049973425
000070 52 2f 72 bd c8 8f 80 3d ea 8c c1 bc 8c da 3e 3d
       -0.05912716 0.06277424 -0.023626763 0.04659514
000080 00 f5 51 3c b3 c2 38 bd ed 7a 49 bd ed 9a 01 bd
       0.01281476 -0.045107555 -0.049189497 -0.03164189
000090 a9 a9 c2 3c d0 fc 0b bc fd b5 2a 3d 8d 8f 3b bd
       0.02376254 -0.008544162 0.041677464 -0.045791198
0000a0 0a 28 05 3d 6c 51 5c 3d 18 6d 51 bd 79 63 02 bd
       0.032508887 0.053788587 -0.05112943 -0.031833146
0000b0 3f cd ae 3c 51 7c 8f bd da 68 72 bc 72 75 34 bd
       0.021338103 -0.07006133 -0.014795506 -0.044057317
0000c0 dd 6e 17 bc 80 23 3e ba 70 a8 8f 3c 02 dd 2e bd
       -0.00924274 -0.0007253215 0.017536372 -0.04269124
0000d0 82 25 af 3c 4a 7c 6f 3c e8 77 a6 bc 97 ba 0a bc
       0.02138019 0.014617035 -0.020320848 -0.008467338
0000e0 84 14 30 bd 87 7c 32 3d 75 b4 66 3d f0 a4 7b bd
       -0.042988315 0.04357579 0.05632444 -0.061436594
0000f0 ac c0 fd bc 50 0a 4d bd 8c 39 78 3d 89 49 11 3d
       -0.030975662 -0.050058663 0.060601756 0.03547052
000100 49 dd 9d 3c 38 a7 92 bc 4e 29 73 3d f9 f9 c8 3c
       0.019270556 -0.017902002 0.059365563 0.024533259
000110 38 aa 58 3c 40 0c 90 3a 2a 90 46 bc 96 f4 73 3d
       0.013224177 0.0010989979 -0.012119332 0.059559427
000120 24 d9 0f bd 18 24 d4 bc ae 9a 04 3d 61 a1 a9 bb
       -0.03511919 -0.025896117 0.032374077 -0.0051767086
000130 80 57 b6 3b 21 33 55 3d 30 07 77 bc 10 cc 42 bd
       0.00556463 0.052050713 -0.015077397 -0.04755789
000140 40 80 6d 3b f5 94 96 bc 98 b2 8d bc 80 a0 d1 bc
       0.0036239773 -0.018381575 -0.017297074 -0.025589228
000150 b0 16 6d bd 9c 13 19 3d 10 c3 fc bc d2 c9 7e 3d
       -0.057882965 0.037372217 -0.030854732 0.06220419
000160 9c 7b 2e 3d 4a 6e 81 bd 0a 5d 28 bd cd de fb 3c
       0.04259835 -0.06319864 -0.041104354 0.030745888
000170 a8 b6 5d bd f0 52 73 bc 60 f1 af 3b 68 7a 3d 3d
       -0.054129273 -0.014851317 0.0053693503 0.046259314
000180 a6 11 1f bc e4 bf 8b bd a8 62 52 bd 6a f4 76 bd
       -0.009708798 -0.068237096 -0.051363617 -0.060291685
000190 89 47 71 3d 4b 34 dc bb 5a b1 25 bd 20 29 7a bb
       0.058906112 -0.006720101 -0.04045234 -0.0038171485
0001a0 f8 d1 2b 3b 29 01 61 3d 08 d0 e3 bc 78 52 d1 bc
       0.002621768 0.054932747 -0.027809158 -0.02555202
0001b0 80 d1 a0 bb 94 66 df bc c0 92 a4 bb a1 df c5 3b
       -0.004907787 -0.027270593 -0.005022377 0.0060386215
0001c0 54 86 8f 3c ce 7d 46 bd f0 fd e5 3b 81 f9 58 3c
       0.017520107 -0.04845982 0.007018797 0.01324308
0001d0 74 5b dd 3c 84 3f db bc 47 56 4d 3d ee f0 8a bd
       0.027021147 -0.026763685 0.05013111 -0.06784235
0001e0 38 f2 d7 3c 18 bf 83 bc 00 e3 af bc 98 51 50 bb
       0.026360616 -0.016082332 -0.021470547 -0.0031786915
0001f0 06 ea 0b bd a0 50 51 bc 70 53 16 bc ea bb 1f 3d
       -0.03415873 -0.01277557 -0.0091751665 0.03899757
000200 98 f3 43 bd 64 8f 32 bd 48 de 5e bd ce a0 61 bd
       -0.04783973 -0.04359378 -0.054411203 -0.055084996
000210 d0 1b a2 3c ee 02 4f 3d f0 c5 c1 bc 58 f5 36 3c
       0.019788653 0.050539903 -0.023653954 0.011166893
000220 a0 ec 7a 3b f1 fa f3 bc a2 b6 34 3d f0 f8 7a bc
       0.0038288012 -0.029782744 0.044119485 -0.01531814
000230 5e e2 35 bc 89 be c6 b9 4a 00 51 3d e1 22 37 3d
       -0.011101333 -0.00037907463 0.051025666 0.044710997
000240 88 d1 58 bd da a3 84 3c 00 f6 93 ba 3c ec 30 bd
       -0.0529342 0.016191412 -0.0011288524 -0.04319404
000250 d5 fa 51 bd 66 25 b8 bb c7 4b 56 bc a8 6b 52 3d
       -0.051264603 -0.0056196926 -0.01307959 0.0513722
000260 a8 a9 2f bc a0 ce 70 3c d0 52 1a 3c f8 6a a7 3c
       -0.010721602 0.014697701 0.009419158 0.020436749
000270 e2 a4 17 bd ad ce 02 3d e3 f2 e0 bc c7 b3 51 bd
       -0.03702248 0.031935383 -0.027459567 -0.05119684
000280 2c 1a 4c bd 14 dd ab 3c a4 3f 28 3d 48 73 14 3d
       -0.049829647 0.020979442 0.041076317 0.036242753
000290 f4 1a d4 bc aa 08 7f 3d 6b 5a 1c bd ce 51 25 bd
       -0.025891759 0.062264122 -0.038172167 -0.04036122
0002a0 b0 68 49 bc 61 90 06 bd 52 44 94 bc 39 67 fe bc
       -0.012293026 -0.032852534 -0.018098984 -0.03105508
0002b0 cf e0 99 bc fc ab c3 bc 74 36 80 bd 49 d4 d1 bc
       -0.018783955 -0.02388572 -0.06260386 -0.02561392
0002c0 7e 77 50 bd 31 6d 5d 3d f2 8e 1e 3d 6c fc a5 3c
       -0.050895207 0.05405921 0.038710542 0.020261966
0002d0 93 05 60 3c 81 db c4 3c 74 5f 9a 3c 78 e1 e0 bc
       0.013673204 0.024030449 0.018844344 -0.027451262
0002e0 a0 a6 dc 3c 6e 0b 7f bd 14 a4 64 bd 24 ba 65 bd
       0.026934922 -0.06226676 -0.05582054 -0.05608572
0002f0 06 8c 72 3d 86 55 00 3d 98 87 14 3d 82 68 41 3d
       0.059215568 0.03133156 0.036262125 0.047218807
000300 4b 3e f7 ba 84 b5 45 3c b5 7f 06 3d 74 c5 70 bd
       -0.0018863169 0.0120672025 0.032836635 -0.058782056
000310 74 18 c0 3c ea 2a 3e 3d 40 78 76 bc 10 22 e6 b8
       0.02344916 0.046427645 -0.015043318 -0.00010973599
000320 40 98 ed bc 16 83 3e bd e0 4f 36 3d a0 18 19 3d
       -0.029003263 -0.046511732 0.04450977 0.037377
000330 a8 c6 bd 3c 14 0b 8a bd aa 45 18 bd 0c 50 31 bd
       0.023166016 -0.06740394 -0.03717581 -0.04328923
000340 ba 78 ba 3c 39 24 3c bc ba 49 24 3c 95 0b 0f bd
       0.022762645 -0.0114832455 0.010027343 -0.034923155
000350 f8 cd 2b 3d c4 b0 90 3c c1 c8 1b 3d 72 ee 2d 3d
       0.041944474 0.017662413 0.03803325 0.042463727
000360 56 4e 7e 3d 16 dc 18 3d bc 4a 39 3d 81 51 82 3c
       0.062086426 0.037319265 0.045237288 0.015908005
000370 12 ca 35 bd 10 4e 6b bd 96 5b 2c bd e6 27 df 3c
       -0.044382162 -0.057447493 -0.04207953 0.027240705
000380 60 57 f6 3b dd 73 a1 bc 04 e7 71 bd a6 cc 3a 3d
       0.00751774 -0.019708568 -0.059058204 0.045605324
000390 0e e1 58 3d 04 e7 8e 3c 86 2c b3 bc 92 e5 04 bd
       0.052949004 0.017444141 -0.021871816 -0.032445498
0003a0 24 68 0d 3d 9e 25 07 3d 9f af 6d bd ea d8 06 bd
       0.034523144 0.03299486 -0.058028813 -0.03292171
0003b0 4a d7 75 3d 1c b1 40 bd 84 9f 27 bd 22 1d 92 bb
       0.06001977 -0.047043905 -0.04092361 -0.0044590393
0003c0 ca 89 47 bd 74 b6 94 3c ce 9b da bc af b0 57 bd
       -0.04871539 0.018153407 -0.026685622 -0.052658733
0003d0 1e 22 26 bd a0 9f 2f bb 90 23 78 bc 40 bc bc 3c
       -0.04055988 -0.0026798025 -0.0151451975 0.023038983
0003e0 98 97 04 bd 18 88 34 bd 18 73 28 3d 38 2c b4 3c
       -0.032371134 -0.0440751 0.041125387 0.021993741
0003f0 58 f0 35 3d 59 08 da bc 34 29 3b 3d 01 81 37 bd
       0.044418663 -0.026615309 0.04569359 -0.044800762

lin2.bias f4 [256]
000000 4b ea f6 3b 6c 32 3f 3d 82 85 b8 bc 82 d5 f3 3c
       0.007535254 0.046678945 -0.022524599 0.029764894
000010 76 82 05 3b 52 d7 b2 3c 99 9f 50 3d 00 83 a9 bc
       0.002037195 0.021831188 0.050933454 -0.020692348
000020 bb 36 e2 3c 23 b2 f3 3c 42 86 0d 3d b7 64 7b 3a
       0.027613988 0.029748028 0.034551866 0.0009589898
000030 59 0f c5 bc 82 1d 3a bd 10 3a a9 3c d8 41 ba bc
       -0.02405517 -0.045438297 0.02065757 -0.022736475
000040 8e ca 36 3d ce 5f f0 3c b6 2a 52 bd 2e 7f 95 3d
       0.044626765 0.029342558 -0.051310264 0.07299648
000050 83 dd bc 3c 2c 05 4b bd ee 4e 85 bd 1b 62 a7 3c
       0.023054844 -0.04956548 -0.06509195 0.020432523
000060 10 90 e1 bc 64 35 b2 3c 6a 80 8c 3d 5a 6b f8 bc
       -0.027534515 0.021753974 0.068604305 -0.030324627
000070 23 59 73 bd 3d df be 3c e4 f6 4e bd 61 9a 23 3d
       -0.05941118 0.023299808 -0.050528422 0.03994215
000080 62 3a 8d bd 74 d7 5f bd 92 f6 c8 3c 9e fc 88 3d
       -0.06895901 -0.05464883 0.024531636 0.06688808
000090 a1 58 06 bc a0 72 57 3a cf ab 62 3c eb ef da 3c
       -0.008199842 0.00082186796 0.013834908 0.02672573
0000a0 41 a1 04 bd 77 cb fe bc c8 e6 2c 3d 6d 32 09 3d
       -0.032380346 -0.031102879 0.042212278 0.033495355
0000b0 9d b3 20 bd 58 a7 85 bb ca a1 e6 3c f0 79 1d bc
       -0.039233793 -0.004078787 0.028153319 -0.009611592
0000c0 0e a2 15 3d 16 8d 5f bd c0 51 b6 3b 44 9a de bc
       0.0365315 -0.05457791 0.0055639446 -0.027173169
0000d0 70 fe 07 3c 32 40 89 3b 51 f6 53 bd 74 41 b0 3c
       0.008300409 0.004188561 -0.051748578 0.021515585
0000e0 65 ae 0e bd 87 0a 36 bd 98 7b ca 3c cc a7 09 ba
       -0.034834284 -0.044443633 0.024717137 -0.0005251139
0000f0 98 69 ad bb d7 7f 4f bd ac bb b5 3c 7f 45 81 bd
       -0.005292129 -0.050659027 0.022184215 -0.063120835
000100 e0 ce 0d 3d 59 19 28 3d c8 e7 03 bd 6e bb 43 3c
       0.03462112 0.0410398 -0.032203466 0.011946542
000110 51 7c 89 bd 4a 06 04 3d 7b 45 a8 3d 51 79 3b 3d
       -0.067131646 0.03223256 0.08216377 0.045769993
000120 37 40 d3 bc 27 f8 91 3c b1 3b b6 3c 39 e5 26 bd
       -0.025787456 0.017818524 0.02224526 -0.040745948
000130 00 98 89 3c fe e9 79 bc 56 ca 31 3d 55 64 be 3c
       0.016796112 -0.015253542 0.043405853 0.023241201
000140 00 c0 6e 38 f5 83 83 3d a2 12 a1 3d 7f b1 05 3b
       5.6922436e-05 0.06421653 0.07864882 0.0020399985
000150 04 1c d4 bc fd 6a 65 3d 5b ce 8a 3d 07 b5 ed bc
       -0.025892265 0.056010235 0.067776404 -0.029016985
000160 67 cc a0 3a 78 c9 27 bc 20 63 22 bc 5b f6 35 bb
       0.0012267948 -0.010240905 -0.009911329 -0.0027765248
000170 4b c4 50 bd 93 b2 3e 3d d7 be 3f 3d 6f 23 95 3c
       -0.05096845 0.04655702 0.04681286 0.018205373
000180 7f 99 a3 3d 98 fa 03 ba e8 9a 78 ba 48 f8 61 bc
       0.079882614 -0.0005034595 -0.0009483532 -0.013792105
000190 4b 19 e4 3b 88 59 77 bd 5d 9d f7 bb b8 3f 17 bd
       0.006961023 -0.060388118 -0.007556601 -0.036926
0001a0 ff a8 23 3d fc 9d 3f 3d 4b 84 19 3d 2a 79 0a bd
       0.03995609 0.046781525 0.03747968 -0.033806957
0001b0 31 10 74 3c 5d e6 2f bd db 9a e6 bc 50 a5 58 bd
       0.014896438 -0.0429443 -0.028150013 -0.05289203
0001c0 68 85 ac bc 93 9c 2a 3d 83 bf 0e 3d 9c 75 e3 3c
       -0.021059707 0.041653227 0.03485061 0.027766041
0001d0 b4 04 30 bd 03 6d ce 3c 39 94 28 3d 13 be 7f 3c
       -0.042973235 0.025198465 0.04115698 0.015609282
0001e0 3b 78 52 bc dc f4 3c 3d fa 7c 57 bd 83 bc 62 3c
       -0.012846048 0.046131954 -0.05260942 0.01383889
0001f0 f5 f3 3a 3d 89 21 0d bc 74 3d 81 bb fa bb 68 bd
       0.04564281 -0.008613952 -0.0039440934 -0.056819893
000200 0c 03 20 bd b0 06 01 3c a9 05 d8 bc d9 ba 6c bc
       -0.039065406 0.00787513 -0.026369886 -0.014448845
000210 60 44 59 bb 1e 16 87 3c b1 df 1e bd 6c 53 e5 3b
       -0.0033152327 0.016490038 -0.038787547 0.00699847
000220 65 a1 ef bc 20 06 15 bb 84 4e 12 3d c3 a0 8b bd
       -0.029251764 -0.0022739246 0.03571941 -0.06817772
000230 af a4 85 3d af e0 41 3c da 08 68 bd 1f 14 b0 3c
       0.065255515 0.011833354 -0.056649067 0.02149397
000240 09 a5 7a bd 3b ef 0e bd 2c 94 f2 bc fe ba 73 bc
       -0.061192546 -0.034896117 -0.02961167 -0.014876125
000250 05 ad 2f bc e1 fc 56 3b 9d 0f 57 bd a0 4f cf 3c
       -0.010722403 0.0032804536 -0.052505124 0.025306523
000260 79 06 63 3d 38 d4 87 3d 3e 48 3f 3b 9a 09 d6 bb
       0.055426095 0.066322744 0.0029187347 -0.0065319063
000270 b6 d4 1c bd b1 7d 35 bd 4b da f3 bc f9 7d 07 3d
       -0.038288794 -0.04430932 -0.029767176 0.03307912
000280 08 4e 49 bd 3b c5 1b 3c d1 0f 02 3c 4d e6 c5 bb
       -0.049146682 0.009507473 0.007938341 -0.006039417
000290 38 98 24 bd cb 9e 12 bd 1e 42 6f bd 10 c8 6d bd
       -0.04018423 -0.035795968 -0.058412664 -0.058052123
0002a0 1b ed ca bc fd d6 6a 3d ac f2 28 3d 58 71 6d 3d
       -0.024771264 0.057333935 0.041247055 0.05796942
0002b0 8d af 00 3a ee ad 07 bd 0a 6c 05 bd 4b 35 cb bc
       0.00049089716 -0.033124857 -0.032573737 -0.024805686
0002c0 20 02 ab bc f3 35 37 bd 16 50 24 bd 10 a9 0a 3d
       -0.020875037 -0.044729184 -0.04011544 0.033852637
0002d0 12 97 b7 bc 20 44 0d 3c 9e ab 76 bd 42 50 3c 3a
       -0.022410903 0.008622199 -0.06022226 0.000718359
0002e0 d4 90 3a 3d d7 8d 4d 3d 67 59 1b bd 13 7d 9a 3c
       0.045548275 0.050184097 -0.037927058 0.018858468
0002f0 3d 78 ad 3c 93 2e 84 3d 6f 1f a4 3c 10 d3 01 3d
       0.021175498 0.06454196 0.02003452 0.031695426
000300 2c 29 35 3d a0 52 72 bb 3e c1 74 bd b5 dd 13 3d
       0.044228718 -0.0036975518 -0.059754603 0.03610011
000310 46 f4 8b 3d e0 a0 0d bb b5 6c d5 3c 8c 86 a5 bc
       0.06833701 -0.0021610782 0.026052812 -0.020205759
000320 c4 12 e0 3c 65 b9 6c bd 62 33 51 bc 5b a1 f7 bb
       0.027352698 -0.057793994 -0.012768598 -0.007557077
000330 7b 02 14 bd a1 ae d8 3c 43 a0 be bc 30 99 be 3c
       -0.036135178 0.026450457 -0.023269778 0.023266405
000340 6c fe 03 bd 25 a9 31 bc 4b 75 cc bc c8 19 28 3d
       -0.032225057 -0.01084355 -0.024958273 0.041040212
000350 f4 e9 d1 3c 3c 86 19 bd ee 8e 61 bd 24 09 30 bd
       0.025624253 -0.03748153 -0.05506795 -0.042977467
000360 06 57 c4 bc 99 0b cb b9 e2 f9 e8 bc 1d e8 6a 3d
       -0.023967277 -0.00038727818 -0.028439466 0.057350267
000370 9b c8 42 bd e5 69 97 3c f4 f7 5b bc 48 78 07 bb
       -0.047554594 0.018483112 -0.013425816 -0.0020671058
000380 dc f7 27 bd 3a b3 4b ba 60 52 fb bc 88 37 7d 3d
       -0.04100786 -0.0007770542 -0.030678928 0.061820537
000390 3c 51 14 3d 06 f4 d9 3b e0 92 1e 3d 7d b8 95 3d
       0.036210284 0.0066514043 0.03871429 0.07310579
0003a0 8d 3f 34 bb c0 87 a3 bd ab 86 f3 bc c2 5e 47 bd
       -0.00275037 -0.07984877 -0.0297273 -0.048674352
0003b0 84 48 9b bc 63 79 a2 3c 9a 62 84 3d 23 a7 af 3c
       -0.018955477 0.019833272 0.06464119 0.021442002
0003c0 36 ba 3c 3b 59 0b 5d 3d cb 99 0a bd 20 45 7b bd
       0.0028797514 0.0539659 -0.033838075 -0.06134522
0003d0 cf 73 a3 bc 3f f2 50 bd 10 24 bb bc e4 91 b2 bd
       -0.019952683 -0.051012274 -0.022844344 -0.08719233
0003e0 5e 4b 4b bd 5c ae b5 bc ce ba 09 bd ce 8c 1f bd
       -0.049632423 -0.022177868 -0.033625416 -0.03895264
0003f0 17 1b f9 3c 29 b3 19 bd 93 09 38 3d 56 73 7e 3d
       0.030408425 -0.037524376 0.044931006 0.06212171

lin3.weight f4 [128, 256]
000000 e0 be 50 3c 20 1e a4 3b a6 7f 68 3d 2a 10 73 bd
       0.012740821 0.005008474 0.05676236 -0.059341587
000010 80 35 0f 3c 00 66 fc bb 9a fe 34 bd 48 9d 7b 3d
       0.008740783 -0.007702589 -0.04418812 0.061429292
000020 4c 38 2d bd 20 8a 99 bc a2 09 78 bd b0 46 e7 3b
       -0.042290017 -0.018742621 -0.06055606 0.007057987
000030 9c 2f 13 bd 18 87 67 bc a4 82 55 3d 90 99 26 bc
       -0.035934076 -0.01413133 0.05212654 -0.010168448
000040 c0 5e e7 ba b4 b4 57 3d d4 73 01 bd 50 26 ce 3c
       -0.0017652139 0.052662566 -0.031604603 0.025164753
000050 54 c6 7a 3d e4 c9 d1 bc a8 8b e6 bc 20 e5 e3 3b
       0.061224297 -0.025608964 -0.028142765 0.006954804
000060 54 a9 82 bc d6 4b 39 3d fa 1d 5c bd 36 49 0c 3d
       -0.015949883 0.04523834 -0.053739525 0.034249507
000070 6c 8a 7c 3d f2 32 1d bd 18 43 ad bc 00 b9 a2 3a
       0.061655447 -0.038378663 -0.021150157 0.0012414753
000080 b2 4c 0e bd 48 84 52 3d 68 13 96 bc 1e 45 00 bd
       -0.03474111 0.051395684 -0.0183198 -0.031315915
000090 a0 10 7c 3b 2a 8d 4d 3d bc d0 d3 3c 04 ac 27 3d
       0.0038462058 0.050183453 0.025856368 0.04093553
0000a0 82 8c 2f bd a0 c0 3e 3d a4 85 48 bd 96 e3 75 3d
       -0.042858608 0.04657042 -0.048955575 0.060031496
0000b0 48 94 4f bd 50 b8 d9 3b 20 42 80 bc 1e 3a 26 3d
       -0.05067852 0.006644286 -0.01565653 0.04058277
0000c0 02 1d 2c bd 92 72 4d 3d 68 eb 3e 3c 40 e2 0c 3d
       -0.04201985 0.05015809 0.011652805 0.034395456
0000d0 00 a6 34 bb 20 ea be 3b ec 9e 19 bd 36 ad 30 bd
       -0.0027564764 0.0058262497 -0.037505075 -0.043133937
0000e0 88 41 20 3c fe 0b 48 bd 38 92 02 bd c0 46 16 bc
       0.009781249 -0.04883956 -0.031877726 -0.009172142
0000f0 d0 04 c9 bc 22 dd 6a 3d f0 ac bf bc 28 64 9c bc
       -0.024538428 0.057339795 -0.023397893 -0.019090727
000100 d6 07 09 bd 50 42 80 bc ee 96 27 3d 68 7d 96 3c
       -0.03345474 -0.01565662 0.040915422 0.018370345
000110 82 c6 7f bd 3c c7 44 bd b8 77 e8 3c 18 cc ca bc
       -0.06244517 -0.048041567 0.028377399 -0.024755523
000120 90 e9 9e bb ae 8e 34 3d 00 0d d4 3a e8 b9 8a 3c
       -0.00484962 0.044081382 0.0016178191 0.01693435
000130 20 b7 c5 3b 7c ed 64 3d d0 c8 20 bd 38 0b e5 bc
       0.006033793 0.055890545 -0.03925401 -0.027959451
000140 c2 78 01 3d a8 9f a8 bc a0 aa df bb 02 d1 54 bd
       0.031609304 -0.020583943 -0.00682576 -0.051957138
000150 b0 b6 c1 3c 08 64 19 3c d8 a9 ae bc 66 8f 12 bd
       0.023646683 0.009362228 -0.021321222 -0.035781287
000160 58 85 41 bc 28 e3 2c bd ec 36 57 3d da a5 5a bd
       -0.011811577 -0.04220882 0.052542612 -0.053380825
000170 40 c3 9b bb 90 78 9d 3b 12 e4 0b 3d 38 2d d3 bc
       -0.0047535 0.004805632 0.03415305 -0.025778398
000180 14 82 27 bd 58 e1 5b bc fc a0 db 3c d2 16 2d 3d
       -0.040895537 -0.013420425 0.026810162 0.04225809
000190 6a d7 1b 3d ac e9 24 bd 3a a1 6d bd 50 47 e7 bc
       0.03804723 -0.04026191 -0.058015086 -0.028232247
0001a0 50 3a ab 3b 60 d3 7b 3b 4a ef 79 3d 24 63 52 bd
       0.0052254573 0.003842555 0.06101922 -0.05136408
0001b0 a4 65 72 3d 1c a6 da 3c e2 d6 67 bd 24 2b 40 3d
       0.059178963 0.026690535 -0.056601413 0.046916142
0001c0 0c 7d 09 bd c0 8e ce ba 18 f0 68 bd 00 73 88 b9
       -0.03356652 -0.0015759096 -0.056869596 -0.00026025623
0001d0 8e 26 49 bd 60 72 a4 bc f8 f0 4e bc 2c 80 a9 bc
       -0.049109034 -0.02007407 -0.012630694 -0.020691
0001e0 a0 08 de 3b d2 b1 1a bd 7c 62 6b bd 28 ca 55 bd
       0.0067759305 -0.03776724 -0.05746697 -0.052194744
0001f0 82 2e 2c bd f8 e6 dd 3c 94 d4 49 3d f2 f9 10 bd
       -0.04203654 0.027087674 0.049274996 -0.035394616
000200 2c cf aa 3c e8 0f 86 3c 58 7d 6e bd 34 79 17 3d
       0.02085074 0.016365007 -0.058225006 0.036980823
000210 26 7a 27 3d 22 68 61 bd 7a 49 66 bd 3a 0d 33 bd
       0.040887974 -0.05503095 -0.056222416 -0.043713786
000220 00 97 6e 3d 30 6d ee bb 90 f4 9e bb ec 8c f1 bc
       0.058249474 -0.0072761998 -0.0048509315 -0.029486142
000230 b2 25 47 bd 82 9f 44 bd 8e 8b 3e 3d fc 55 ca bc
       -0.048619933 -0.04800368 0.04651981 -0.024699204
000240 8e eb 01 bd 94 31 e6 3c 2a 9f 77 bd 08 b0 15 3c
       -0.031718783 0.028099813 -0.060454525 0.009136207
000250 20 2c b2 bb b0 c7 22 bd 18 7f 90 3c 78 ea 07 bc
       -0.005437389 -0.039741218 0.017638728 -0.008295648
000260 2e ec 71 bd 52 92 1f bd 38 96 89 bc 94 4d d4 bc
       -0.05906313 -0.0389579 -0.016795263 -0.025915898
000270 78 ba 11 bd 78 ae f3 3c ca 2c 7e 3d 84 9e 79 bd
       -0.03557822 0.02974628 0.062054433 -0.060942188
000280 c0 50 c3 bc a0 c2 d5 3c 98 59 29 3c e0 4c 78 3d
       -0.023842216 0.026093781 0.010336302 0.06062019
000290 78 da 1b bd 80 86 c4 3b 52 94 4e 3d 00 c0 e1 b7
       -0.038050145 0.005997479 0.050434418 -2.6911497e-05
0002a0 78 53 ab bc 5c 4c c7 bc c2 6c 2e bd b2 24 36 bd
       -0.020913824 -0.024328403 -0.04258419 -0.04446859
0002b0 a8 61 66 3c f0 94 82 bc f8 24 6f 3c 76 e0 09 bd
       0.014061369 -0.01594016 0.014596216 -0.03366133
0002c0 68 c8 f2 bc d8 9a fb 3c 3a d6 54 bd d0 44 65 bd
       -0.029636577 0.030713484 -0.051962115 -0.055973828
0002d0 6c 29 6f 3d e4 ea 68 bd 28 d6 23 bd 8a b8 33 3d
       0.058389112 -0.056864634 -0.039999157 0.043877162
0002e0 b0 9e f0 bb ec 59 19 bd 62 fd 62 bd 96 60 21 3d
       -0.007343136 -0.03743927 -0.055417426 0.039398752
0002f0 c0 a9 55 3b fc 9f e2 bc d4 1b ad bc 8e 43 5f 3d
       0.00326024 -0.027664177 -0.021131434 0.054507785
000300 88 c1 72 bc 44 91 e1 bc 44 19 2c 3d 40 46 d8 bb
       -0.014816649 -0.027535088 0.042016283 -0.0066001713
000310 2e 85 65 3d 10 fa 99 bc 48 7a 1c bd ec f1 4a bd
       0.056035213 -0.018795997 -0.038202554 -0.04954712
000320 d0 91 ff bb e8 ab 00 bd 44 ee 8c bc 80 b2 18 bb
       -0.0077993646 -0.031413943 -0.017203458 -0.0023299754
000330 74 5e a0 3c 6a cf 18 3d 80 31 60 bb c0 5a f1 bc
       0.019576289 0.03730718 -0.0034209192 -0.029462218
000340 b0 cf 95 bc a4 23 6d 3d 98 87 39 3c b0 2c 9d 3b
       -0.01828751 0.057895318 0.011323832 0.004796587
000350 f0 6d b6 3b 2a 73 41 bd 80 cf 52 3b 3c 08 23 bd
       0.005567305 -0.04722897 0.0032167137 -0.039802775
000360 30 39 f5 bb 74 dc 70 bd e6 54 11 bd 60 84 84 3b
       -0.007483624 -0.05880399 -0.035481356 0.0040441006
000370 34 88 11 bd 72 d6 06 3d f0 58 a3 3b da 72 4f bd
       -0.035530284 0.032919355 0.0049849674 -0.05064664
000380 9c 96 ed 3c 14 73 36 3d 68 62 22 3d 30 01 43 bc
       0.02900248 0.04454334 0.03964463 -0.011902139
000390 60 e6 7d 3c 00 28 b7 38 50 4e 67 bc 66 0e 0b 3d
       0.01549682 8.7335706e-05 -0.014117792 0.03394928
0003a0 20 cd ea bc d4 f5 08 3d f4 88 09 bd fa 42 38 3d
       -0.028662264 0.033437565 -0.033577874 0.04498575
0003b0 d0 13 ad 3c 56 7d 0d 3d e0 61 0f bb 26 1e 71 3d
       0.021127611 0.034543358 -0.0021878406 0.058866642
0003c0 b0 52 6d bd 60 d5 7a bb 02 15 5b 3d 96 c0 32 3d
       -0.057940185 -0.0038274154 0.05348683 0.043640696
0003d0 1c 9c 45 bd 76 ef 7d bd ac b3 76 bd 7c 81 e2 3c
       -0.04824458 -0.061995946 -0.060229942 0.027649634
0003e0 ea 9d 29 bd b8 73 15 bd e4 3d 5d 3d ec 82 bc bc
       -0.041410364 -0.03648731 0.0540141 -0.023011647
0003f0 c0 67 d0 bb 10 ce 8c bb e0 34 81 3b 9c c7 d7 3c
       -0.006360024 -0.0042970255 0.003943071 0.026340298

lin3.bias f4 [128]
000000 9a b5 01 bd 1a 52 4f 3d dc ec 28 bc 36 34 9e bb
       -0.03166733 0.050615408 -0.010310378 -0.0048280014
000010 75 ec 2b bd 27 d8 4c 3d e4 fa 73 3d f4 57 30 bd
       -0.04197355 0.050010826 0.05956544 -0.04305263
000020 bc ad 41 3d 7f 80 83 bd 9c 1b b3 3c 8d 4d 03 bd
       0.047284827 -0.06420993 0.021863751 -0.03205638
000030 5a d8 97 3d fa 06 4e bd 3a 2e e7 3c cc 6c 89 3b
       0.07414313 -0.050299622 0.028220285 0.004193878
000040 5a 08 c5 bc e3 10 0e bd d5 fb a4 3d 60 d5 ca 3c
       -0.024051834 -0.034684073 0.08055846 0.024759948
000050 81 53 dd bc ef 5b 16 3d 13 11 0a 3d b8 c1 64 3d
       -0.027017357 0.03670877 0.03370769 0.055848807
000060 f1 fa 23 bc 0e 6e 7a bd 2b 1d 47 bc 35 cf 44 bd
       -0.01000856 -0.061140113 -0.01215295 -0.04804917
000070 6b 05 0b 3d 49 32 04 bc 4b 6a 4f bc 7d 38 90 bd
       0.033940714 -0.00806863 -0.01265962 -0.07042024
000080 2d c1 18 3d 1c 27 b8 3d 2d 40 0e 3d f0 27 46 3d
       0.0372936 0.089918345 0.03472917 0.04837793
000090 3c 0e 07 bd 28 6d cb 3b a7 aa ba 3d 0d 8b 30 3c
       -0.03297256 0.006208081 0.091145806 0.01077534
0000a0 00 90 b5 b7 e2 a7 ea 3c f9 16 45 bc 3f a0 a5 bd
       -2.1643937e-05 0.028644506 -0.012029403 -0.08087205
0000b0 e2 4d 87 bd 0c 53 ab bc bb f9 39 bc ee 21 27 3d
       -0.06606652 -0.020913623 -0.011351044 0.040803842
0000c0 24 4d ee bc bc 4d a9 bc 36 a3 34 bd 4d 2f 58 bd
       -0.029089518 -0.02066695 -0.044100963 -0.052779485
0000d0 1d 50 3a 3d 80 7a 8d bb 6f fc 7a b9 42 16 7f bc
       0.04548656 -0.0043175817 -0.00023935897 -0.0155692715
0000e0 f9 7d c5 bb 75 60 84 3c 89 a2 1d 3d 6d 98 19 3c
       -0.00602698 0.016159276 0.038485084 0.00937472
0000f0 1a 93 ac 3c f8 55 96 3d 93 de b8 3d ff 26 0c 3d
       0.021066237 0.07340616 0.09026828 0.034216877
000100 1d b5 c8 3c 19 eb 6b bb 41 0f 89 3d 3f af 74 3c
       0.024500424 -0.0035998283 0.066923626 0.01493436
000110 c8 53 9c bc da c1 63 bd 91 e6 c2 bc 7e c0 af 3d
       -0.019082919 -0.055604793 -0.023791583 0.08581637
000120 4b f8 60 bc de 48 27 3d fd c2 9c 3c 39 fa c8 3d
       -0.013731073 0.040840976 0.019135946 0.09813351
000130 23 fc 83 bb b6 67 0a 3c 57 b7 9b 3b 6e c9 ce bc
       -0.00402786 0.008447578 0.0047520804 -0.025242534
000140 70 e2 ea bb fc 1f 5e 3d 4b 20 90 3c 90 d1 16 3c
       -0.0071681067 0.05422972 0.017593523 0.009205237
000150 92 a2 91 3c f5 30 a6 3c 84 19 ae 3b cb e3 09 bd
       0.017777715 0.020287016 0.0053131003 -0.033664506
000160 8e 9b 2e 3d db 3e 69 bc 7a 26 75 3d 53 b9 3b 3d
       0.042628817 -0.014236177 0.059851147 0.045831036
000170 6e 54 1c bc 21 67 4b 3d e6 52 80 3c bc 30 97 3d
       -0.009541614 0.0496589 0.015664529 0.07382342
000180 59 85 0d 3d 4e 15 ad 3d 98 f8 7c bb 51 a0 3b bd
       0.034551 0.08451329 -0.0038600322 -0.045807187
000190 45 d7 cf 3d 22 d1 d5 bc 89 da 1f bc 13 26 f8 3c
       0.10148481 -0.026100699 -0.009756693 0.030291593
0001a0 0d 6a 1a 3d 88 1a 6e 3a 90 6d f7 bb 00 ef 28 bc
       0.037698794 0.0009082933 -0.0075509027 -0.010310888
0001b0 d0 fe a3 3d 5e 9f 7a bd c9 62 18 3d 7b a8 07 3d
       0.08007586 -0.06118714 0.037203584 0.03311966
0001c0 64 bc 51 3c ff 1e 44 bd 3c bd 34 3d 39 0f a6 bc
       0.0128012635 -0.047881123 0.04412578 -0.02027093
0001d0 dc 96 b3 3c b9 71 0a bd dd e0 21 3d 57 fb 8c 3c
       0.021922521 -0.03379986 0.039521087 0.017209692
0001e0 cc 9f 8a bd d4 44 b0 3d 00 ec f4 39 30 1f 9b bc
       -0.0676876 0.08606878 0.0004671514 -0.01893577
0001f0 f8 50 2c bc c3 f9 aa bc 55 cd be bc e1 43 b6 3a
       -0.010517351 -0.020871049 -0.02329127 0.0013905728

lin4.weight f4 [64, 128]
000000 b4 0b ab bd f6 2a 47 3d fc 7b 83 3d d1 b4 e9 bd
       -0.083518416 0.048624955 0.064201325 -0.11411441
000010 e4 49 20 bc b9 bb 00 3c a0 52 3b 3d 57 c9 d0 3c
       -0.009783242 0.007857257 0.045733094 0.025486631
000020 a2 49 34 3d 7b fb 79 bd 9d 65 01 3d 16 e2 a8 3d
       0.044015534 -0.061030846 0.031591047 0.082462475
000030 5a 92 40 bd 53 c5 40 3d 3c eb b2 bd 75 57 0e bd
       -0.04701457 0.047063183 -0.08736274 -0.034751374
000040 4f 98 6e bd 33 33 47 3d 6a 2e 80 bb ba 3d 55 3d
       -0.05825072 0.04863281 -0.003911783 0.05206082
000050 76 1b 61 bd 04 4a 6b bd 92 ab 14 bd 92 ae 1c 3d
       -0.05495783 -0.057443634 -0.036296435 0.03825242
000060 31 5b 62 bd a4 c1 b4 3c 23 48 84 3c 41 92 8d bd
       -0.05526275 0.022064991 0.016147679 -0.06912661
000070 9d 1e 1c bd 11 ff 9d 3d 60 cf 88 3c 49 b0 51 bd
       -0.038115133 0.07714666 0.016700447 -0.05119351
000080 c1 6e 2c 3d 67 b0 17 bd 7a 7f 3e 3c 86 42 5d bd
       0.04209781 -0.037033465 0.0116270725 -0.05401852
000090 41 70 a1 bd 5e 2e 80 bd 4f da 82 bd b4 74 bf bc
       -0.07882739 -0.06258844 -0.06389295 -0.023371078
0000a0 2e 86 a2 3d 19 f1 d7 3c ac 7e e8 3c 86 6b 59 bd
       0.07935749 0.026360082 0.028380714 -0.053081058
0000b0 1a c3 9c 3d 11 ed b4 3d ca cb 30 bd e6 5e 1d bd
       0.076544 0.08834279 -0.0431631 -0.03842058
0000c0 c0 58 09 bc 91 db 55 3d f9 ed 2b 3d f1 46 b9 bd
       -0.008382976 0.052211348 0.041974995 -0.09046734
0000d0 d1 39 df 3c 46 fd 14 3d 28 48 8e 3d 8d bf 51 bd
       0.027249249 0.036374353 0.069473565 -0.051208068
0000e0 69 bc 0d bd 96 96 3a bd db 04 1d bc 0e 6e a6 bc
       -0.03460351 -0.045553766 -0.009583677 -0.02031615
0000f0 c7 15 ad bd 40 dd 3d 3d 12 38 ba 39 9d e5 a1 bc
       -0.08451419 0.04635358 0.0003551846 -0.019762808
000100 de 3a 8e 3d 09 3d 01 3e f7 72 c5 bc 75 f7 90 3d
       0.06944822 0.1262094 -0.024102671 0.07078449
000110 d6 45 95 3d 03 a9 76 bd 03 6f 9f 3d 35 61 93 3d
       0.07288711 -0.060219776 0.07784846 0.07196275
000120 ce 89 91 3d cc 10 46 bc c2 c8 91 3d 8e 92 3f bd
       0.07106362 -0.012088966 0.0711837 -0.046770625
000130 f7 1b c8 bc 7f e7 cc 3d 2f fb 66 bc c0 bc 8f be
       -0.024427397 0.10005092 -0.014097973 -0.28073692
000140 34 ae 7a 3d 55 fc ce 3d 1c d0 92 3d 20 55 83 3d
       0.06120129 0.10106722 0.071686 0.06412721
000150 22 da a1 bc ef 4f a3 3b b3 7a 92 bc 86 2c 02 3d
       -0.019757334 0.004983894 -0.017880773 0.031780742
000160 63 ec 04 bd 71 92 ae 3d f4 29 a6 bc 19 43 45 3d
       -0.032452 0.08524025 -0.020283677 0.048159692
000170 67 5d 1a 3d f5 4b b6 3d 35 19 c9 3d 3d 3f 9c 3d
       0.03768673 0.089012064 0.09819261 0.07629249
000180 91 91 fa 3c 58 7b 68 bd 70 50 ef 3c e6 35 94 3d
       0.03058699 -0.056758255 0.02921316 0.07236843
000190 74 5c 97 3d fd 2f 35 bd 77 74 5b bd 4c 6a cb bc
       0.07390681 -0.04423522 -0.053577866 -0.02483096
0001a0 dc 72 86 bd 3b b9 3d 3c 4d d3 80 3d ad 7b 8c bd
       -0.065648764 0.011579807 0.062903024 -0.06859527
0001b0 f9 a4 e9 3c 3c 6a a2 bd 17 ec 0e 3d cb 4a 65 bc
       0.028521048 -0.07930419 0.03489312 -0.013994883
0001c0 bd 60 cf 3c db 82 54 3d 53 07 84 bd 0a b4 b0 3d
       0.025314683 0.051882606 -0.064467095 0.0862809
0001d0 b3 3a 6e 3d 5d 6e 70 3d 3c 3b d4 bb e5 b2 31 3d
       0.05816145 0.058699 -0.006476788 0.043383498
0001e0 91 66 b0 3d 17 1f 93 bd 25 8c a3 ba 96 3c a3 bd
       0.08613313 -0.07183664 -0.0012477679 -0.0797054
0001f0 8e ed 1b 3d 31 59 a9 3c 07 22 07 3c 88 a6 78 bd
       0.038068347 0.020672413 0.008247859 -0.06070569
000200 9d b1 a7 bd 58 44 07 3d 4d d8 14 bd f7 13 15 bc
       -0.08188174 0.033024162 -0.036339093 -0.009098998
000210 51 7b 52 3d f5 3a 78 3d c6 a5 22 bd d9 65 a9 bd
       0.051387135 0.0606031 -0.039708875 -0.08271379
000220 cc 43 91 bd c6 14 28 3c 9b 0b 05 3d 4b a4 91 ba
       -0.07093009 0.010258859 0.03248177 -0.0011111585
000230 6c d2 6c 3b 47 c9 29 bc e4 87 03 bd ad cc 10 bd
       0.0036136163 -0.01036293 -0.032112017 -0.035351444
000240 3d ed 9a 3d c2 29 98 3d d7 b7 af bd c4 ba 7e bd
       0.07564781 0.0742984 -0.085799865 -0.062189832
000250 f2 eb b0 3c 8b 27 6e 3d 90 7e aa bc 5e cb f5 bc
       0.021596882 0.05814318 -0.020812303 -0.0300042
000260 ff 49 a4 3d b7 f6 2a bd 7e 67 8f 3d 37 43 95 3d
       0.08021926 -0.04173919 0.070021614 0.07288211
000270 a0 41 e0 bc d9 35 85 bd 3b 1b 8e 3d 90 5e 3d 3d
       -0.027375042 -0.06504411 0.069387875 0.04623276
000280 f7 ac 11 3d 4d 2d 09 bd 1f 04 89 bc 41 1e 23 3c
       0.035565343 -0.033490468 -0.016725598 0.009955944
000290 7a 11 9a bc f6 d5 b9 bd 6d 92 e5 3c f5 f4 48 bd
       -0.018807162 -0.09074013 0.028023923 -0.049061734
0002a0 d4 23 8d bb 50 36 36 3d 51 48 4d bc 09 fa ff 3c
       -0.0043072496 0.04448539 -0.012529449 0.031247156
0002b0 6d 97 f9 bc 8e 0b a2 3d e9 91 90 3d e0 2e 88 3d
       -0.030467713 0.0791236 0.0705908 0.06649566
0002c0 4a f1 4b bd 31 a5 1d bc 1a 86 92 bd 89 2b 8f 3d
       -0.049790658 -0.009621904 -0.07154484 0.069907255
0002d0 65 d4 54 3d ea 4a 62 3d f4 7e 7f bc 01 29 9a 3d
       0.051960368 0.055247225 -0.015594233 0.07527352
0002e0 d4 aa de 3c 5d d2 a0 3d 25 f4 d3 bb 33 70 cb 3a
       0.027181067 0.078526236 -0.0064683133 0.0015521109
0002f0 4e a2 a6 bd 31 1d 24 bc 4f ea 8f bb ed 85 9a bc
       -0.08136426 -0.010016725 -0.0043919454 -0.018862689
000300 95 f6 40 3d 7a 2e 9a 3d 38 e1 dd 3b de 8f 5c 3d
       0.04711016 0.07528396 0.006771233 0.05384814
000310 c6 4d 04 3d 4b 6f a6 3c 20 a7 bf 3c ea e4 1d bd
       0.032300733 0.02031674 0.023395121 -0.038548388
000320 b3 5e 28 bd 20 20 39 bb d5 f1 9e bb c8 2a 88 bd
       -0.041105937 -0.0028247908 -0.004850606 -0.06648785
000330 d0 0a a9 bd 6a c9 67 3d c5 40 fc 3c 97 54 62 bc
       -0.082540154 0.056588568 0.030792603 -0.013814113
000340 c0 15 81 3c 25 16 8e bd 7d e4 82 3d 47 bb 41 bc
       0.015757442 -0.069378175 0.06391237 -0.011824436
000350 bc 37 47 3c 3b f9 1b bd 1e 5a 8c 3d 7b 0a 25 bd
       0.012159284 -0.03807948 0.06853126 -0.040293198
000360 af c1 e8 bc 9f b1 38 3c 34 91 82 bd b5 fc bb bd
       -0.028412668 0.011272817 -0.063753515 -0.091790594
000370 c9 88 5c bd 17 d5 00 3d d2 bf 5c bd 0c ca 08 3d
       -0.053841386 0.03145322 -0.05389387 0.033395812
000380 46 66 5d bd 92 46 bc bd 55 14 eb 3c 93 fb 77 b9
       -0.054052614 -0.09193148 0.028696219 -0.00023649474
000390 2d cf a4 bd 14 f4 82 bd ad 20 71 bd 10 99 7a 3d
       -0.08047328 -0.063942105 -0.058869053 0.061181128
0003a0 fe b8 78 bd 10 e1 ef 3c 4c 43 95 3c 00 a2 49 3c
       -0.060723297 0.029282123 0.018220566 0.01230669
0003b0 ae c1 64 bb 4a 47 97 3d ba 62 a2 bc 07 b9 55 bd
       -0.003490548 0.07386644 -0.019822467 -0.05217841
0003c0 c2 5f 85 3d 29 45 8f bd a5 f8 88 3d 29 83 45 3d
       0.06512405 -0.06995613 0.0668805 0.048220787
0003d0 03 16 1f 3d bb f5 7c bd 5e e9 45 3d 20 0f 11 bc
       0.03883935 -0.061757784 0.04831826 -0.008853704
0003e0 85 00 a2 bc f3 fb bb bd 1a 0f 22 bd b7 6d 86 3d
       -0.019775638 -0.09178915 -0.039565183 0.06563895
0003f0 9a c6 89 bc 4b c8 5a 3c 21 57 9f 3d 54 15 6c 3c
       -0.016818333 0.013353418 0.077802904 0.014409382

lin4.bias f4 [64]
000000 c6 60 3a bc fd cd 9a 3c 33 dc 6b 3d 7e 91 a0 3c
       -0.011375612 0.018897051 0.057583045 0.019600626
000010 83 70 58 bd c1 2b ab 3c 44 40 94 bd 0e 30 9e 3d
       -0.052841675 0.020894887 -0.0723882 0.077240095
000020 57 85 1f 3d 4f ab fd bc e6 92 03 3e 8d 50 b8 3d
       0.038945522 -0.030965475 0.12849006 0.08999739
000030 ec 1c 94 bc 33 48 f3 3c 82 21 1d 3d 5f ec ff bc
       -0.018080197 0.029697513 0.038362034 -0.03124064
000040 9d 08 e8 3d d7 c4 98 bc af 55 0a 3d b5 03 81 bd
       0.11329768 -0.018648548 0.03377312 -0.06299535
000050 77 b2 44 bc 35 37 ee bc 23 b7 60 3d 42 31 34 3c
       -0.01200544 -0.02907906 0.054862153 0.010998072
000060 ab 47 e7 3c 4a 5d ad 3d 3c fb 8d bd 91 fd eb bc
       0.028232416 0.08465059 -0.06932685 -0.028807433
000070 65 ba 18 3d 9d 4a 88 bc 42 18 b1 bd 6b e1 c7 bd
       0.037287135 -0.01663714 -0.08647205 -0.09759792
000080 9c cb f5 bc 48 46 cc bc af 47 74 3d 93 ca a2 bc
       -0.030004315 -0.024935856 0.059638675 -0.019871986
000090 47 0f 92 bd fa 6b 3e 3b e4 40 6c 3d e0 89 42 bd
       -0.0713182 0.0029056058 0.057679072 -0.04749477
0000a0 ed 1e 37 3c 0f c0 05 3d 54 02 c0 bc b8 a0 15 bd
       0.011176807 0.032653864 -0.02343861 -0.036530226
0000b0 53 3b a9 3c eb 10 ed bc ca 1e a7 bd 90 b8 e3 3d
       0.02065817 -0.028938731 -0.081601694 0.11119187
0000c0 80 d0 aa bc 1a bc 58 bd 58 73 b3 3d 4b 92 7a ba
       -0.020851374 -0.052913763 0.087622344 -0.00095585425
0000d0 14 4c 44 3d 42 bd c2 3c 23 0d 17 3d 50 bf 51 3d
       0.047924116 0.023771886 0.036877763 0.05120784
0000e0 a6 60 03 3b d7 22 43 bd f4 ef 9f 3a 39 44 a1 3d
       0.002004662 -0.047640648 0.0012202249 0.078743406
0000f0 f7 70 32 3d 4a 5c 8b bd 4a 64 e0 3d 5b 9b 69 bd
       0.043564763 -0.06804712 0.109566286 -0.057032924
