src/virtuose_teleoperation/network_controller/Brick_demonstration/Release_skill.pth (torch, 462279 bytes, 10 tensors)

lin1.weight f4 [256, 27]
0	0xbe2d6c72	-0.169359
1	0xbc8d3ce6	-0.017240953
2	0xbdcb898a	-0.09938343
3	0xbd6b1a19	-0.057397936
4	0x3dbb1801	0.09135438
5	0x3e125e07	0.14293681
6	0xbde4692f	-0.11152875
7	0x3d87e970	0.066363215
8	0xbdc1d67c	-0.09464738
9	0xbe0c9a9a	-0.13730851
10	0xbe3a02fb	-0.181652
11	0xbe054be3	-0.1301723
12	0xbe33543b	-0.175126
13	0x3b97a3e1	0.00462769
14	0x3dadf447	0.08493858
15	0x3d878bad	0.06618438
16	0x3d8e2d8b	0.069422804
17	0xbe11f01c	-0.1425175
18	0x3dabe559	0.08393354
19	0xbcc7ef8c	-0.024406217
20	0xbddd94e2	-0.10819413
21	0x3d5f7882	0.054558285
22	0x3d8dd408	0.069252074
23	0xbd48e0a9	-0.049042378
24	0x3dfa5535	0.12223283
25	0xbe03ca48	-0.12870133
26	0xbe3cea57	-0.18448769
27	0x3dde5bf4	0.108573824
28	0xbd92a53a	-0.07160421
29	0x3cf57597	0.029963298
30	0x3e758650	0.23977017
31	0x3e226ec4	0.15862566
32	0x3dbfc8be	0.093644604
33	0x3be3262f	0.006932042
34	0xbd38201f	-0.044952508
35	0x3d7daff8	0.061935395
36	0x3e2ff671	0.17183854
37	0xbdc48d5d	-0.095972754
38	0x3c719b5a	0.014746511
39	0x3da0130b	0.07816132
40	0xbdf1ce43	-0.118069194
41	0xbe82879e	-0.25494093
42	0xbe1e8f86	-0.15484437
43	0x3e323b84	0.17405516
44	0x3dadfd01	0.08495522
45	0x3e9793b4	0.29604876
46	0xbe0f6fdb	-0.14007513
47	0xbd8190f2	-0.06326474
48	0xbe42fa9d	-0.19040914
49	0xbd9039e2	-0.0704229
50	0x3d087e2c	0.033323452
51	0xbdd84a66	-0.105610654
52	0xbd78ef10	-0.060774863
53	0xbf0fdf49	-0.5620008
54	0x3e2d1acf	0.16904758
55	0xbd426a90	-0.047464907
56	0xbd96ea54	-0.07368913
57	0x3e97d461	0.2965422
58	0x3e37635d	0.17908998
59	0x3dd8feb7	0.10595458
60	0xbd822574	-0.063548
61	0x3d2ea80b	0.042640727
62	0xbdbfb2ba	-0.09360261
63	0x3dda36b6	0.106549665
64	0x3d1aa86e	0.037758283
65	0xbdd28b45	-0.1028047
66	0x3d7bd1c4	0.061479345
67	0xbe311e29	-0.17296661
68	0x3deb57db	0.114913665
69	0xbd082015	-0.03323372
70	0xbe8b9f7e	-0.2727012
71	0xbdc7d917	-0.097582035
72	0xbed8cb74	-0.42342722
73	0x3d4fc2e9	0.05072299
74	0xbbfd9da4	-0.0077397395
75	0xbd4b38d8	-0.049614757
76	0xbdc5758a	-0.096415594
77	0x3e1fcfaf	0.15606569
78	0x3dde2485	0.10846809
79	0x3e2a68db	0.16641562
80	0x3e895ee8	0.2683022
81	0xbe2f65c7	-0.17128669
82	0x3c975642	0.018473748
83	0xbd7c087f	-0.06153154
84	0xbddc5ec6	-0.10760264
85	0xbdeb4994	-0.11488643
86	0x3d16deeb	0.036833685
87	0x3d7c26a8	0.061560303
88	0xbc9489e2	-0.018132154
89	0xbe412ccf	-0.1886475
90	0x3e30a1e8	0.17249262
91	0xbd483be4	-0.04888524
92	0x3df62e95	0.120206036
93	0xbdb286d0	-0.0871712
94	0x3d50d698	0.050985903
95	0xbd8ef15f	-0.06979632
96	0x3d5ea09a	0.05435238
97	0xbc3b706b	-0.011440377
98	0xba862587	-0.0010234573
99	0xbd3f637f	-0.046725746
100	0xbd85d25d	-0.06534264
101	0x3d6267fd	0.055274952
102	0xbdffc511	-0.12488759
103	0x3e355bf5	0.1771086
104	0x3db79bce	0.08965264
105	0x3dd1ab30	0.102377295
106	0xbe34dee6	-0.17663154
107	0x3e0f81b6	0.14014325
108	0xbd928b6c	-0.07155499
109	0x3db0f1ee	0.086398944
110	0xbecb3620	-0.39689732
111	0xbe3debb3	-0.18546943
112	0x3e348615	0.17629273
113	0xbe3f6f5b	-0.18694822
114	0xbf034257	-0.512731
115	0x3e60e51a	0.21962395
116	0xbe3dfde4	-0.18553883
117	0xbe65767a	-0.22408476
118	0x3c1a5c8d	0.00942148
119	0xbe453a63	-0.19260554
120	0x3d55ab67	0.052165415
121	0x3ed85106	0.42249316
122	0xbd8f8638	-0.07008022
123	0xbe2947f5	-0.16531356
124	0x3db182b7	0.0866751
125	0x3dd70eaf	0.105008475
126	0x3d80813b	0.06274649
127	0xbcddb343	-0.027063018
128	0xbe196de3	-0.14983325
129	0x3d723df0	0.0591411
130	0xbe0b8940	-0.13626575
131	0x3e35561e	0.17708632
132	0xbe23aed9	-0.15984668
133	0x3e11aff1	0.14227273
134	0x3f607f62	0.8769437
135	0x3de1f379	0.11032767
136	0xbdd71410	-0.105018735
137	0xbe27d42b	-0.1638953
138	0xbdcc85af	-0.099864356
139	0xbd315cda	-0.04330144
140	0x3d00227a	0.03128288
141	0xbd80512c	-0.06265482
142	0x3e09dda1	0.13463451
143	0xbd29c342	-0.041445978
144	0x3e1a074f	0.1504185
145	0xbd93ab21	-0.072103746
146	0x3e40a3e9	0.18812527
147	0x3db3deba	0.08782716
148	0x3d64a830	0.05582446
149	0x3e1e6e23	0.15471701
150	0x3e4fefba	0.20306292
151	0xbe604947	-0.21902953
152	0x3de41815	0.11137406
153	0xbe252115	-0.16125901
154	0xbda9b8e1	-0.08287216
155	0xbd243ebc	-0.04009889
156	0x3e033ce5	0.12816198
157	0xbe461219	-0.19342841
158	0x3d92ff99	0.07177658
159	0x3c5d3d2f	0.013503357
160	0x3c8bea0f	0.017079381
161	0x3f1dbccb	0.616162
162	0x3d94c849	0.07264764
163	0x3df2960b	0.11845025
164	0x3d91daed	0.07121835
165	0xbd9ed276	-0.07754986
166	0xbd8e34ce	-0.069436654
167	0x3d9f4885	0.07777504
168	0x3c8c5e50	0.017134815
169	0xbe4271f7	-0.18988787
170	0x3dc0c33e	0.094122395
171	0x3cdace90	0.026709825
172	0xbe5bbaec	-0.21458024
173	0x3e6ea6c8	0.2330581
174	0x3dfc4849	0.12318475
175	0xbf4c882c	-0.7989528
176	0x3d0cdb3e	0.034388773
177	0x3de8fd8f	0.113764875
178	0x3dcd6fa0	0.100310564
179	0xbdd7d4b0	-0.10538614
180	0x3d48b2cf	0.04899865
181	0xbe5d29ce	-0.21597978
182	0xbd70ffc4	-0.058837667
183	0x3de30533	0.11084976
184	0xbdaa322a	-0.08310349
185	0xbdea04fe	-0.114267334
186	0xbd053b54	-0.032527283
187	0xbcfc5e23	-0.030806607
188	0xbef45976	-0.47724503
189	0xbdc957bc	-0.09831187
190	0x3ccfccb3	0.025366163
191	0x3e0fcd14	0.14043075
192	0x3e41cf62	0.18926767
193	0xbe1e6c7e	-0.15471074
194	0xbe1bd667	-0.15218507
195	0x3e08e6a8	0.13369238
196	0x3e50b64c	0.2038204
197	0xbe7ff407	-0.24995433
198	0xbe3c88dd	-0.18411584
199	0xbc815165	-0.015785882
200	0xbdf68083	-0.120362304
201	0xbd1571d2	-0.0364855
202	0xbd1441b8	-0.036195487
203	0xbe6433be	-0.22285363
204	0x3de47be5	0.111564435
205	0x3de1c46a	0.11023791
206	0x3dc0e9d4	0.09419599
207	0xbe7082cb	-0.23487394
208	0x3ca33b86	0.019925844
209	0xbd9834e3	-0.07431962
210	0x3d9d8ef4	0.07693282
211	0x3e37f1c1	0.17963316
212	0x3d6f691d	0.058449853
213	0x3d44cd1a	0.048047163
214	0x3e12d3f8	0.14338672
215	0xbece1562	-0.4025069
216	0x3e74018f	0.2382872
217	0x3dacdf12	0.08440985
218	0x3cd5f2eb	0.026116809
219	0x3e91dd63	0.28489217
220	0x3e8d0943	0.2754613
221	0x3d5989ff	0.05311012
222	0x3d9f89f3	0.077899836
223	0xbde47acb	-0.111562334
224	0xbe18d55a	-0.14925137
225	0xbd0d7e6d	-0.034544397
226	0xbbd5d936	-0.0065261377
227	0x3c262f82	0.010143163
228	0xbd9a9af7	-0.075490884
229	0xbebaf51d	-0.36515132
230	0xbe887cbe	-0.2665767
231	0x3e509b4a	0.20371738
232	0xbe32777d	-0.17428394
233	0xbdca600e	-0.09881602
234	0xbdb8e7e6	-0.09028606
235	0x3d20c29a	0.039248087
236	0x3d35355b	0.044240337
237	0x3e0fa24f	0.1402676
238	0x3e164058	0.14672983
239	0x3d1c8690	0.038214266
240	0xbe04afda	-0.12957707
241	0xbcb21e4a	-0.021742959
242	0xbf5b88bd	-0.8575552
243	0xbe164aa7	-0.14676915
244	0xbdd4e1d1	-0.103946336
245	0x3c9de885	0.019275913
246	0xbd5f8a4a	-0.054575242
247	0x3c09723c	0.008389052
248	0x3d342cc3	0.043988
249	0x3dd56c86	0.1042109
250	0xbe225dac	-0.15856045
251	0xbc37a16a	-0.011207918
252	0xbe62b150	-0.22137952
253	0x3d87c267	0.06628876
254	0x3df00efe	0.117216095
255	0x3c9a5d87	0.018843425

lin1.bias f4 [256]
0	0x3d545cbf	0.051846262
1	0xbdec4115	-0.11535851
2	0x3bceaa67	0.0063069346
3	0xbdecfe4a	-0.11571939
4	0x3d29ac6c	0.0414242
5	0xbe16ec98	-0.14738691
6	0xbdec544a	-0.11539514
7	0x3ddf88ca	0.10914762
8	0xbe0735a3	-0.13204055
9	0x3e138dd8	0.14409578
10	0x3ddd0150	0.10791266
11	0xbe1c05f9	-0.15236653
12	0x3d5589ef	0.052133497
13	0xbd967702	-0.07346918
14	0xbe174a83	-0.14774518
15	0xbe59cd1b	-0.21269648
16	0x3d7a0be8	0.06104651
17	0x3d5bcd94	0.05366285
18	0xbe2d156a	-0.169027
19	0x3ba0e60d	0.0049102367
20	0xbd260748	-0.040534288
21	0xbd8c7e8a	-0.06860073
22	0x3e12b875	0.14328177
23	0xbe0bd9af	-0.13657258
24	0xbdeaa951	-0.11458076
25	0xbe074dff	-0.13213347
26	0xbe094d1b	-0.1340832
27	0xbb3111e3	-0.0027018718
28	0xbdefcbf8	-0.11708826
29	0xbd5ad57e	-0.05342626
30	0xbca6aeda	-0.020347048
31	0x3de31f7c	0.110899895
32	0xbe0d2cd2	-0.13786629
33	0x3daf11a2	0.08548285
34	0x3d93b1fb	0.072116815
35	0x3e21b9a0	0.15793467
36	0x3e18a5ad	0.1490695
37	0xbe45397e	-0.19260213
38	0xbe2ffb58	-0.17185724
39	0x3e05e96e	0.13077328
40	0xbbf428da	-0.007451159
41	0x3e46f78f	0.19430374
42	0x3cf911a4	0.03040392
43	0x3d4a1af2	0.049342103
44	0xbe0e8ac8	-0.13920128
45	0xbde924b1	-0.113839515
46	0x3cce3c6c	0.025175296
47	0x3e00e6ce	0.12588045
48	0x3e40be7f	0.18822668
49	0xbd5a11ec	-0.053239748
50	0xbd0c79f0	-0.034295976
51	0xbe071253	-0.13190584
52	0xbe08494d	-0.13309212
53	0x3b9ce7fe	0.004788398
54	0xbe2aadc3	-0.16667847
55	0xbe356651	-0.17714812
56	0x3cfa088a	0.03052165
57	0x3dd31ab0	0.103078246
58	0xbdada919	-0.084795184
59	0xbdb44e1e	-0.08803962
60	0xbc95e32f	-0.018296806
61	0x3cde16d7	0.0271105
62	0x3dbd4c7e	0.09243105
63	0xbdc38378	-0.0954656
64	0x3cba613a	0.02275144
65	0x3e2110b8	0.15729034
66	0xbd5d2cee	-0.053997926
67	0x3e1a2835	0.150544
68	0xbdd7a950	-0.10530341
69	0x3c06869b	0.008210803
70	0x3d728d81	0.05921698
71	0xbdfe2d0f	-0.12410938
72	0xbe3ce08b	-0.18445031
73	0xbdaa6e18	-0.0832178
74	0xbe45466d	-0.19265147
75	0x3e1ce88d	0.15323086
76	0x3e02fc6a	0.12791601
77	0x3cd457f7	0.025920851
78	0xbdc0110f	-0.09378254
79	0x3cd5e010	0.026107818
80	0xbc1042fc	-0.008805033
81	0xbe2558bc	-0.1614713
82	0xbce5f116	-0.02806906
83	0xbdc7f57c	-0.09763619
84	0x3ac08f4d	0.0014691144
85	0xbdaa9176	-0.08328526
86	0x3dbfbfc9	0.09362752
87	0xbc721fa7	-0.014778054
88	0xbdea33ea	-0.11435683
89	0xbe2c3e56	-0.16820654
90	0xbe741679	-0.23836698
91	0x3e18dc3e	0.14927766
92	0xbd480074	-0.048828557
93	0x3ddb0fb1	0.10696352
94	0x3d86523e	0.06558655
95	0xbde7d3a5	-0.11319665
96	0x3d980593	0.07422938
97	0xbdda48ed	-0.10658441
98	0x3cbaff09	0.022826688
99	0x3e1e640d	0.15467854
100	0x3e1826f2	0.14858606
101	0xbe5d1c09	-0.21592726
102	0x3c8acf90	0.016944677
103	0x3db3310a	0.08749588
104	0xbbc5bb0a	-0.0060342597
105	0xbd57359a	-0.052541353
106	0xbd0a4e08	-0.033765823
107	0x3e19a807	0.15005504
108	0xbd925871	-0.07145775
109	0x3cb77b3e	0.022397634
110	0xbdf764c9	-0.1207977
111	0x3dc1cd0c	0.09462938
112	0xbe0c0c43	-0.13676552
113	0x3e17b79c	0.14816135
114	0xbe105f74	-0.14098912
115	0x3de382a5	0.11108903
116	0xbdb88825	-0.090103425
117	0x3d81c721	0.06336809
118	0xbdcfdd47	-0.10149627
119	0xbe4039f0	-0.18772101
120	0xbd0e999e	-0.03481447
121	0x3d6f1044	0.05836512
122	0xbe024865	-0.12722929
123	0xbdb74a08	-0.08949667
124	0xbe27c58c	-0.16383952
125	0x3da9611e	0.08270477
126	0x3d557351	0.052111927
127	0x3d1b22d8	0.037875026
128	0x3d091a22	0.033472188
129	0x3d9d39af	0.07677018
130	0x3d57621a	0.05258379
131	0xbda8fc5c	-0.08251259
132	0x3d4a39b6	0.049371444
133	0xbe4be70f	-0.1991236
134	0xbe38fc3b	-0.18064968
135	0xbe149cdf	-0.14512967
136	0x3c77ee54	0.015132505
137	0x3d79cd44	0.060986772
138	0x3de2c48a	0.11072643
139	0xbda981af	-0.08276688
140	0x3dbb033f	0.091314785
141	0x3d5316d2	0.051535435
142	0xbda705a8	-0.08155376
143	0x3ccd1238	0.025033101
144	0xbe2e9c2a	-0.1705176
145	0xbe333399	-0.17500152
146	0x3dfcd8af	0.123460166
147	0x3e325fbf	0.17419337
148	0xbdd4a849	-0.1038366
149	0x3cb8f9c9	0.022580044
150	0xbe315d65	-0.17320783
151	0x3d7e6cb5	0.06211539
152	0xbe065038	-0.13116539
153	0xbde05c39	-0.1095509
154	0xbd9271e1	-0.07150627
155	0x3c17589f	0.0092374375
156	0x3e1979c0	0.1498785
157	0xbc1f2618	-0.009713672
158	0xbdf08ab0	-0.117452025
159	0xbdf146f6	-0.11781113
160	0x3d3c231e	0.045931928
161	0xbd66eb5a	-0.056376792
162	0xbe34e8fd	-0.17667003
163	0xbe1b9ff0	-0.1519773
164	0xbdda8aef	-0.10671031
165	0x3c6b6e23	0.01436952
166	0xbe635513	-0.22200422
167	0xbce2fe35	-0.027709106
168	0x3dcb9295	0.09940068
169	0x3df9df9a	0.12200852
170	0x3da15a08	0.078785
171	0xbe4224f7	-0.18959413
172	0xbdb99eb4	-0.09063473
173	0x3dfa82f2	0.12232007
174	0xbdc7cbf4	-0.09755698
175	0xbd941316	-0.07230203
176	0xbdcf4396	-0.10120313
177	0xbe11b91e	-0.14230773
178	0xbd493daa	-0.049131073
179	0xbe294c87	-0.16533099
180	0x3d60c613	0.0548764
181	0xbd92b3ea	-0.07163222
182	0xbe372d5f	-0.17888401
183	0xbdf3584f	-0.11882078
184	0x3d5294d5	0.05141147
185	0xbe410dde	-0.18852946
186	0x3da9a20a	0.082828596
187	0x3da32006	0.07965092
188	0x3e28d07b	0.16485779
189	0xbe4a7d51	-0.19774367
190	0xbe0f07f0	-0.13967872
191	0xbe127f66	-0.14306411
192	0x3dbf3af1	0.09337414
193	0xbd0d95c3	-0.034566652
194	0x3dab8436	0.083748266
195	0xbc5d1f23	-0.013496193
196	0xbc423075	-0.011852373
197	0xbd4f9bac	-0.05068557
198	0xbc1e1f38	-0.009650998
199	0x3c6e9004	0.014560703
200	0x3d38b24a	0.045091905
201	0x3dddea9c	0.10835764
202	0x3cb4dc78	0.022077784
203	0xbd8885a5	-0.06666116
204	0x3d135982	0.035974033
205	0x3de90a24	0.11378887
206	0x3e17b074	0.14813405
207	0x3cea0d1b	0.028570702
208	0x3d8a6087	0.067566924
209	0xbe3e9f51	-0.18615462
210	0xbe55240f	-0.20814537
211	0xbe221113	-0.15826826
212	0x3dcc877a	0.099867776
213	0x3de77a7f	0.11302661
214	0xbda12158	-0.07867688
215	0xbdc3ee71	-0.095669635
216	0x3dcffb3e	0.101553425
217	0xbe06942e	-0.13142464
218	0x3d66fbe2	0.056392558
219	0xbe1688dc	-0.14700645
220	0xbdcba0d3	-0.09942784
221	0xbd851da5	-0.06499795
222	0xbe411b74	-0.18858129
223	0xbd3a1dce	-0.04543858
224	0xbe2997f2	-0.16561869
225	0x3d98652a	0.074411705
226	0xbd6e8026	-0.05822768
227	0xbe2be4db	-0.1678652
228	0xbddfe242	-0.10931827
229	0xbe1cd009	-0.15313734
230	0x3db149aa	0.086566284
231	0x3daeba9c	0.08531687
232	0x3d9c9bd7	0.076469116
233	0x3cab1e59	0.020888494
234	0xbe3f5e2a	-0.18688264
235	0xbc9aa570	-0.018877715
236	0x3d7767f6	0.06040188
237	0xbe0abde0	-0.13548994
238	0x3d5f23a7	0.05447736
239	0xbb807eaf	-0.003921352
240	0x3cfc7acf	0.030820278
241	0xbe0f5428	-0.13996947
242	0xbe3895d1	-0.180259
243	0x3cde0a2c	0.02710446
244	0x3e05dbd5	0.1307214
245	0x3d8cd18d	0.06875906
246	0xbe2d8d45	-0.16948421
247	0x3c8723c5	0.016496548
248	0xbe4cfe13	-0.20018797
249	0xbdfd5102	-0.12368967
250	0x3dc058be	0.09391926
251	0xbd4ae3f8	-0.049533814
252	0xbe0396aa	-0.12850443
253	0x3e1a6dd0	0.15080953
254	0x3d57508d	0.052567054
255	0xbe105d69	-0.14098133

lin2.weight f4 [256, 256]
0	0xbd58c114	-0.05291851
1	0xbe07665d	-0.13222642
2	0xbe08deda	-0.13366261
3	0xbd389ac7	-0.045069482
4	0xbeaf0ac2	-0.34187895
5	0xbd5bde8f	-0.053679045
6	0x3d96dae4	0.07365969
7	0xbd86e81e	-0.065872416
8	0xbe17f568	-0.14839709
9	0xbbf1adc5	-0.0073754513
10	0xbd95e4a5	-0.07319001
11	0xbe34cfe0	-0.17657423
12	0x3d48dc70	0.04903835
13	0xbd097027	-0.033554222
14	0x3cae9a49	0.021313803
15	0xbd0519cd	-0.03249531
16	0xbd04d712	-0.03243167
17	0xbd0c9de8	-0.03433028
18	0xbdf2a9bc	-0.118487805
19	0x3d027429	0.03184906
20	0xbd9362d9	-0.07196588
21	0x3d4d77c4	0.050163046
22	0x3d0824ae	0.033238105
23	0x3c0f8dc1	0.008761824
24	0x3ccc3ef9	0.024932371
25	0xbafcbc40	-0.0019282177
26	0x3d44a4fd	0.048008908
27	0x3a08efbf	0.0005223713
28	0xbd7706a2	-0.06030906
29	0x3ca442d6	0.020051401
30	0xbd401082	-0.046890743
31	0x3d2e81b0	0.04260415
32	0xbc05e7e8	-0.008172967
33	0x3d29b512	0.041432448
34	0xbe209127	-0.15680371
35	0x3d24a7be	0.040199034
36	0xbe4960e5	-0.19665869
37	0xbc098088	-0.008392461
38	0xbd38732f	-0.045031723
39	0xbd658c72	-0.056042142
40	0x3d76d17e	0.06025838
41	0xbd2382a8	-0.039919525
42	0xbcead36c	-0.028665267
43	0xbd80761e	-0.06272529
44	0xbd572ae4	-0.052531138
45	0x3ba8b090	0.005148001
46	0xbb64f580	-0.0034936368
47	0x3cc68e7d	0.024237866
48	0x3e379111	0.17926432
49	0xbe3f9144	-0.18707758
50	0xbd0905ec	-0.033452913
51	0xbcb12718	-0.021625087
52	0xbc1ce16c	-0.009575229
53	0xbbf6ae30	-0.007528089
54	0xbcc3b24c	-0.02388873
55	0xbe46eda0	-0.19426584
56	0x3cd6e0ec	0.026230298
57	0xbd9b3e6a	-0.07580264
58	0x3d00820f	0.031374034
59	0x3c23e17c	0.01000249
60	0x3dbaa8d8	0.09114236
61	0xbc8ea2fe	-0.017411705
62	0xbcfe570c	-0.031047367
63	0x3da7d621	0.08195139
64	0x3d9d95b3	0.076945685
65	0x3e001519	0.12508048
66	0x3d6bccbe	0.057568304
67	0x3e3455bf	0.17610835
68	0x3c713db8	0.014724188
69	0xbd3e01ab	-0.04638831
70	0xbccc60ec	-0.02494856
71	0xbd27867d	-0.040899742
72	0xbe73384d	-0.23751946
73	0x3d28e0a2	0.04122985
74	0x3d6e4a52	0.058176346
75	0xbe4f6ecc	-0.2025711
76	0x3dab5bb6	0.08367102
77	0xbda7dfa6	-0.081969544
78	0x3c8345e5	0.01602454
79	0x3d27a6d0	0.04093057
80	0x3de9bc39	0.11412854
81	0xbc17a703	-0.009256127
82	0x3bc26f5b	0.0059336848
83	0xbc69149d	-0.014226106
84	0xbd4330c2	-0.04765392
85	0xbdd128bf	-0.1021285
86	0xbd00e25f	-0.031465884
87	0xbd312b36	-0.0432541
88	0x3d293b8e	0.04131656
89	0x3cf20077	0.029541237
90	0xbe1b34c5	-0.15156849
91	0x3c4b7b4f	0.012419536
92	0xbd2bc05d	-0.0419315
93	0x3d20e05b	0.039276462
94	0xbcf9c725	-0.030490467
95	0xbea330bb	-0.31873116
96	0xbd06bef4	-0.03289695
97	0xbd27f2fe	-0.04100322
98	0xbd98a984	-0.074542075
99	0x3e910c91	0.283299
100	0x3c2dba2f	0.010603472
101	0xbd5c2e8d	-0.05375533
102	0xbdcad3fb	-0.09903713
103	0xbcd7ab0f	-0.026326684
104	0xbcb6a7ff	-0.022296904
105	0x3d2b0b0b	0.04175858
106	0xbc89a4f4	-0.016802289
107	0x3ce62b0b	0.028096696
108	0x3e2a312c	0.1662032
109	0xbc8c0e08	-0.017096534
110	0xbca5022c	-0.020142637
111	0xbd6e6d32	-0.058209606
112	0x3c705000	0.014667511
113	0x3cf4ce90	0.029883653
114	0x3d05469a	0.032538034
115	0xbdc6a35c	-0.09699127
116	0x3c7d1eb8	0.015449218
117	0xbb6a6940	-0.00357683
118	0xbb8bb51b	-0.004263533
119	0x3d7325e2	0.0593623
120	0xbd55774e	-0.05211573
121	0x3d64e6b7	0.05588409
122	0x3d1a1896	0.037621103
123	0xbdf53b08	-0.1197415
124	0xbd3eb0e4	-0.046555415
125	0xbdbe387a	-0.09288116
126	0x3d464898	0.048409075
127	0xbccc6478	-0.024950251
128	0xbe315970	-0.17319274
129	0x3b572cb6	0.0032833046
130	0xbe0406e2	-0.1289325
131	0xbd293321	-0.041308526
132	0xbc1a0670	-0.009400949
133	0x3cf6a744	0.030109055
134	0x3ce53930	0.02798137
135	0x3b965bbe	0.0045885732
136	0xbc900ae1	-0.017583312
137	0xbd89bc6d	-0.067253925
138	0xbe1af22a	-0.15131441
139	0xbd3b00b6	-0.045654975
140	0x3c930c48	0.017950192
141	0xbd0af686	-0.03392651
142	0x3d33de01	0.04391289
143	0x3c813930	0.01577434
144	0x3d4983e8	0.04919806
145	0xbd4afbd1	-0.049556557
146	0xbd01367e	-0.03154611
147	0xbc69c9eb	-0.014269332
148	0xbd4232d8	-0.04741177
149	0xbe21ab84	-0.15788084
150	0xbd6a08d4	-0.057137325
151	0xbd91f0e7	-0.071260266
152	0xbc2bd514	-0.0104878135
153	0x3ce589dc	0.028019838
154	0xbe98d690	-0.29851198
155	0xbdb034f6	-0.086038515
156	0xbe73e8b3	-0.23819236
157	0x3bb574be	0.0055375984
158	0x3ce7aefa	0.028281678
159	0x3d181c82	0.037136562
160	0xbcf8c882	-0.030369047
161	0xbd6bcaf0	-0.057566583
162	0xbd41b09e	-0.047287576
163	0xbccab9c6	-0.024746787
164	0xbc1d38e7	-0.009596086
165	0xbcfb1cd4	-0.030653395
166	0xbcb2c1dc	-0.021820955
167	0x3cbe56b0	0.023234695
168	0xbc975ab2	-0.018475864
169	0x3e26eb64	0.16300732
170	0xbddcd8db	-0.107835494
171	0xbd13332c	-0.035937473
172	0xbd5a56c2	-0.053305395
173	0x3e1004b1	0.1406429
174	0x3de70466	0.11280136
175	0x3d329396	0.04359778
176	0x3d097354	0.03355725
177	0xbd696a0a	-0.056985892
178	0xbd20af40	-0.03922963
179	0xbc03accd	-0.008036804
180	0xbc8c887b	-0.017154923
181	0xbcd12d17	-0.025534196
182	0xbe2167ad	-0.15762205
183	0xbdec3449	-0.1153341
184	0x3c169d28	0.009192742
185	0x3d324484	0.043522373
186	0xbdd79620	-0.10526681
187	0x3c1e0a43	0.009646001
188	0x3dbf8388	0.093512595
189	0xbd0b2745	-0.033972997
190	0x3ac5c414	0.0015088343
191	0x38cf3800	9.88096e-05
192	0xbc2a47d7	-0.0103931045
193	0xbc8692ec	-0.01642748
194	0xbc1f106a	-0.009708503
195	0x3cbebd2e	0.023283567
196	0xbbce8d70	-0.0063034818
197	0x3d7d5d77	0.061856713
198	0x3bf4ff42	0.007476718
199	0x3b14a9e0	0.0022684261
200	0xbdc43b8c	-0.0958167
201	0x3c6ef9ea	0.014585951
202	0xbd1c8861	-0.038216
203	0xbc81e4e8	-0.015856221
204	0xbd0e0e07	-0.034681346
205	0xbd30b782	-0.043143757
206	0x3d52a233	0.051424216
207	0x3d9d7076	0.07687466
208	0xbbe2e0c5	-0.0069237673
209	0x3ba9ba21	0.005179659
210	0x3c802e10	0.015646964
211	0xbae77328	-0.0017658221
212	0xbdb0b770	-0.08628738
213	0x3b8f59fc	0.0043747406
214	0xbde346e6	-0.11097507
215	0xbba2e2ba	-0.0049708756
216	0x3d769c23	0.060207497
217	0x3ce8ca3c	0.028416745
218	0xbe033421	-0.12812854
219	0x3daf5b7d	0.08562372
220	0x3d04eb82	0.03245116
221	0x3d51409e	0.051087014
222	0x3d2d144c	0.042255685
223	0xbda1c9a9	-0.07899792
224	0x3d291d48	0.04128769
225	0xbcaf9397	-0.021432681
226	0xbe4d2b44	-0.20036036
227	0xbd30dea0	-0.04318106
228	0x3d679d80	0.056546688
229	0xbd7cb4ee	-0.061695985
230	0x3d428e62	0.047499068
231	0xbdece578	-0.11567205
232	0xbd1c6efc	-0.03819178
233	0xbb1af51e	-0.0023644636
234	0xbc5b8be7	-0.013400055
235	0xbafa4cc0	-0.001909636
236	0xbbeabe78	-0.007163819
237	0xbd79ba48	-0.060968667
238	0xbd14fd0f	-0.036374148
239	0xbd9f319b	-0.07773133
240	0x3d2af86b	0.041740816
241	0xbd4fd4cc	-0.05074005
242	0x3cdf7f08	0.027282253
243	0x3b617f3e	0.0034408118
244	0x3c85a454	0.01631371
245	0x3cee37ff	0.029079435
246	0xbd622036	-0.0552065
247	0x3c18ec3f	0.009333669
248	0x3c8d48fa	0.017246712
249	0xbd16968f	-0.036764678
250	0xbbe92126	-0.0071145473
251	0x3d4f02c6	0.050539754
252	0x3cf81fa4	0.030288525
253	0x3d4b0756	0.049567543
254	0x3cb2da12	0.0218325
255	0xbd53a585	-0.051671524

lin2.bias f4 [256]
0	0xbc38df01	-0.011283637
1	0xbd8bc6c8	-0.06825024
2	0xbcc667ff	-0.024219511
3	0xbd10ecd6	-0.035382114
4	0xbd014835	-0.031563003
5	0xbc89bf07	-0.016814722
6	0x3b8c1e28	0.004276056
7	0x3c5415bd	0.012944636
8	0xbd803824	-0.06260708
9	0x3d69ac66	0.057049178
10	0x3c425713	0.01186158
11	0xbbfbcd90	-0.007684417
12	0xbaafe1ca	-0.0013418731
13	0x3ce73b21	0.028226437
14	0x3c615959	0.013754212
15	0xbc369aa0	-0.011145264
16	0xbd681fd9	-0.056670997
17	0xbb0f42e3	-0.0021859936
18	0x3a1cf1ae	0.0005986941
19	0x3d791171	0.06080765
20	0x3d2a01f7	0.04150578
21	0xbc0fc36e	-0.008774621
22	0x3c5452e8	0.0129592195
23	0xbc129394	-0.008946318
24	0xbd227b2d	-0.03966825
25	0xbb4c4ca7	-0.0031173618
26	0x3cbf7f04	0.023375995
27	0xbd610f8a	-0.05494646
28	0xbd3085cf	-0.04309636
29	0x3c48e417	0.012261412
30	0xbd9a1ef4	-0.07525435
31	0xbb28465d	-0.0025676705
32	0x3cbdc174	0.023163535
33	0xbd53f48b	-0.051746886
34	0xbd6c6052	-0.057709046
35	0x3bcf3b07	0.0063241753
36	0x3bde2d28	0.0067802854
37	0xbd47fc46	-0.04882457
38	0x3c8efb3a	0.017453779
39	0xbca467d4	-0.02006904
40	0x3cbcc84f	0.023044733
41	0xbc5e65f4	-0.013574112
42	0x3c5f2757	0.013620219
43	0x3cc5c217	0.0241404
44	0xbc2811f9	-0.010258191
45	0xbaaa00a4	-0.0012970162
46	0xbc8809e2	-0.016606275
47	0xbd632bcf	-0.0554617
48	0x3c66acf8	0.014079325
49	0xbd60cd5e	-0.054883353
50	0xbd48e169	-0.049043093
51	0xbba1852c	-0.0049292054
52	0xbd2c2901	-0.042031292
53	0x3d3d5c67	0.0462307
54	0xbd4c70a3	-0.049912106
55	0xbd10cc28	-0.03535095
56	0xbb2cf059	-0.0026388376
57	0xbc3b1c53	-0.011420327
58	0x3d21ec2f	0.039531883
59	0xbc44c49a	-0.012009764
60	0xbc3c7a1a	-0.011503721
61	0xbc201dbd	-0.009772715
62	0x3c8c6b12	0.017140899
63	0x3cefd3fa	0.029275883
64	0x3c74916f	0.014927252
65	0x3c2cb2d6	0.010540685
66	0xbd378871	-0.044807855
67	0xbcbca274	-0.023026682
68	0xbd063b81	-0.03277159
69	0xbd41ab46	-0.04728248
70	0x3c8f7a07	0.017514242
71	0x3ce658e2	0.028118555
72	0xbd65fd13	-0.056149554
73	0x3b357e6c	0.0027693762
74	0x3d4d4363	0.050113093
75	0xbcb9a6ef	-0.022662608
76	0xbd3e32bb	-0.0464351
77	0xbd53099b	-0.051522832
78	0xbb9d11ef	-0.0047933976
79	0xbd42e763	-0.04758395
80	0xbd09fa8c	-0.033686206
81	0xbcdc4887	-0.026890052
82	0xbd446cfc	-0.047955498
83	0xbc8ac8ab	-0.01694139
84	0x3cdc63f0	0.026903123
85	0xbd1618e6	-0.03664484
86	0xbc55e19d	-0.013054279
87	0x3c832517	0.016008897
88	0xbd23f3cd	-0.04002743
89	0xbd65682a	-0.05600754
90	0x3b8480c5	0.004043671
91	0xbd02a316	-0.031893812
92	0x3c4e6b30	0.012598798
93	0xbd7e2ddc	-0.062055454
94	0xbd5236a1	-0.05132163
95	0xbcf67f42	-0.030089978
96	0xbd00c5d9	-0.031438682
97	0x3d9dde56	0.07708423
98	0xbbfdd216	-0.0077459915
99	0xbc100415	-0.008790036
100	0x3d3c07fd	0.045906056
101	0xbce40a79	-0.027837025
102	0xbcb85899	-0.022503184
103	0x3d1c51d0	0.03816396
104	0x3cdc1bd3	0.026868736
105	0xbcedd046	-0.029029977
106	0xbc465953	-0.0121062575
107	0x3be87a11	0.0070946296
108	0xbbbb5d71	-0.005717926
109	0xbccfeb33	-0.025380706
110	0x3c3fc48a	0.011704573
111	0xbca57920	-0.020199358
112	0xbc0076bd	-0.007840809
113	0xbc05bbf7	-0.00816249
114	0x3cfcbc79	0.03085159
115	0xbc979a1f	-0.018506108
116	0x3d32bc57	0.043636646
117	0x3cb9ccd7	0.022680683
118	0x3af437b4	0.0018632323
119	0xbd942d1a	-0.07235165
120	0xbbb313e5	-0.005465018
121	0xbc541bce	-0.012946082
122	0xbd43004e	-0.047607712
123	0xbd75617d	-0.059907425
124	0x3d29dcea	0.041470446
125	0xbd218832	-0.039436527
126	0x3b825014	0.003976831
127	0xbcae00b4	-0.02124057
128	0xbcc7fb2a	-0.024411757
129	0xbcdd35a5	-0.027003119
130	0x3a691724	0.0008891693
131	0xbcc2c68d	-0.023776317
132	0x3c744037	0.014907888
133	0x3c5473d0	0.012967065
134	0x3c00e12d	0.007866186
135	0xbd89a81b	-0.06721517
136	0xbde9cfb9	-0.11416573
137	0xbd4600b6	-0.04834052
138	0xbd817dc3	-0.06322815
139	0x3d8cebe8	0.06880933
140	0xbcfe7ddd	-0.031065876
141	0x3ad8fe25	0.0016555233
142	0xbd6d9650	-0.058004677
143	0xbc8e1f4f	-0.017348913
144	0xbc1928df	-0.009348123
145	0x3b4c3438	0.0031159054
146	0xbcf37c09	-0.02972223
147	0x3d120fad	0.03565948
148	0x3d1bd757	0.03804716
149	0xbd3578f1	-0.04430479
150	0xbd81e48c	-0.0634242
151	0x3c947c0b	0.018125555
152	0xbce33f85	-0.02774025
153	0x3c46fa64	0.012144659
154	0xbd8adc3d	-0.06780288
155	0xbb92f189	-0.0044843596
156	0xbcbd47d9	-0.023105549
157	0x3d519eda	0.051176883
158	0xbd4d577f	-0.05013227
159	0xbd86fa3f	-0.065906994
160	0x3ba4207c	0.0050087553
161	0xbd67ecb4	-0.056622222
162	0xbc56360c	-0.013074409
163	0xbca84b97	-0.020543857
164	0xbcf520ea	-0.029922921
165	0xbd9a44c8	-0.0753265
166	0x3c4f7224	0.012661491
167	0xbbf443fe	-0.0074543944
168	0xbd823846	-0.063583896
169	0xbd8d920a	-0.0691262
170	0xbd8f1bc8	-0.06987721
171	0xbc522443	-0.012826028
172	0x3d8b4fb1	0.06802309
173	0xbcc072b7	-0.0234922
174	0x3cd134f6	0.025537949
175	0xbd4901b5	-0.049073894
176	0xbc6d93d6	-0.014500579
177	0x3cee41a8	0.029084042
178	0xbc93e1fc	-0.018052094
179	0xbd65762a	-0.056020893
180	0xbdb9bd4a	-0.09069307
181	0x3cff30b8	0.03115116
182	0xbba83672	-0.0051334435
183	0xbd0edaed	-0.034876753
184	0x3abea7d0	0.0014545862
185	0x391c166f	0.00014885677
186	0xbd795fdb	-0.06088243
187	0x3d17368c	0.036917254
188	0xbd1aea8f	-0.03782135
189	0x3c0706a6	0.008241331
190	0xbd247b36	-0.040156566
191	0xbd107992	-0.03527219
192	0xbc48d59b	-0.012257959
193	0xbcc824db	-0.024431637
194	0x3c702ab6	0.014658621
195	0xbc38e754	-0.011285622
196	0x3d0e96d3	0.034811806
197	0x3d4cb7b8	0.049979895
198	0x3d510994	0.051034525
199	0xbbd634ec	-0.0065370705
200	0xbd2821f8	-0.04104802
201	0xbd405c1b	-0.04696284
202	0x3d49b071	0.049240533
203	0xbd61c12f	-0.055115875
204	0xbb4809ee	-0.0030523497
205	0x3cb060e2	0.021530572
206	0xbd37dff6	-0.04489132
207	0xbd04ddfa	-0.032438256
208	0xbd315b98	-0.04330024
209	0x3ccd6a28	0.025075033
210	0xbd77b35d	-0.06047379
211	0x3d1d7644	0.038442865
212	0x3dabc449	0.08387048
213	0xbcbd8683	-0.02313543
214	0xbc1541c1	-0.009109915
215	0x3cd62c05	0.026144037
216	0xbc40f019	-0.011775994
217	0xbd24edfb	-0.04026602
218	0x3cddd743	0.027080184
219	0xbd006cb0	-0.031353652
220	0xbb57027a	-0.0032807873
221	0xbd1e92e1	-0.038714293
222	0x3ce3add5	0.02779285
223	0xbc4ffdbd	-0.012694773
224	0xbbe12010	-0.006870277
225	0x3b851eb1	0.0040624966
226	0xbc1a8570	-0.009431228
227	0x3b255dce	0.0025232914
228	0x3cfb8237	0.03070174
229	0x3d4d5c92	0.05013711
230	0x3d313d9d	0.04327165
231	0xbd7a6c7a	-0.061138608
232	0xbd2b13d0	-0.04176694
233	0xbcce53e2	-0.025186483
234	0x3b6b9c17	0.003595119
235	0xbbce2252	-0.0062907124
236	0xbd861fd6	-0.06549041
237	0x3b0e12a5	0.0021678593
238	0xbcb985eb	-0.022646865
239	0xbccbe97b	-0.024891606
240	0xbd1a5b6a	-0.037684835
241	0xbd2d7a88	-0.042353183
242	0xbd101b4c	-0.035182282
243	0xbc432c13	-0.011912364
244	0x3a8d3648	0.0010773623
245	0x3bee1a90	0.00726635
246	0xbd18ed80	-0.037335873
247	0xbd50194d	-0.05080538
248	0x3c592eb5	0.013255765
249	0x3cf2b401	0.029626848
250	0x3c8dbd57	0.017302198
251	0x3cd53273	0.026025033
252	0xbd346cff	-0.04404926
253	0xbb5545bb	-0.0032542783
254	0xbc5dd8cc	-0.013540458
255	0xb9485496	-0.00019104997

lin3.weight f4 [128, 256]
0	0x3bf1d267	0.0073798182
1	0xbd072b52	-0.033000298
2	0xbd0b26de	-0.033972614
3	0xbd3649e8	-0.044504076
4	0xbce65c4c	-0.028120182
5	0xbce84b5c	-0.028356247
6	0xbae4fb90	-0.0017469991
7	0x3c373a82	0.011183383
8	0x3d011264	0.03151168
9	0x3d51d184	0.0512252
10	0xbd172bdc	-0.036907062
11	0x3d412052	0.047149964
12	0xbd8d8a5c	-0.069111556
13	0x3c163f69	0.009170392
14	0xbb1c7331	-0.002387237
15	0x3c753e39	0.014968448
16	0xb8bb6000	-8.934736e-05
17	0x3d0ec3dc	0.034854755
18	0x3c74f780	0.014951587
19	0xbd025e54	-0.03182824
20	0xbc074309	-0.0082557285
21	0xbbbe87b0	-0.005814515
22	0xbd7d1d32	-0.06179542
23	0x3d151100	0.036393166
24	0x3d4f9a8a	0.05068449
25	0x3d0e3e5c	0.03472744
26	0x3c3fb693	0.011701244
27	0xbd5d12f4	-0.053973153
28	0xbb178e20	-0.0023125485
29	0x3cd90330	0.026490778
30	0xbc74711f	-0.014919548
31	0xbd42357f	-0.0474143
32	0x39e950cb	0.0004450142
33	0xbcb2ef72	-0.021842692
34	0xbcdc3764	-0.026881881
35	0x3c155c00	0.009116173
36	0x3d4449a8	0.047921807
37	0xbc8915e8	-0.016734079
38	0xbda2f0e2	-0.07956101
39	0x3c3b6a3c	0.0114389025
40	0xbd714dfe	-0.05891227
41	0xbd7c3e54	-0.06158288
42	0x3c9aa602	0.018877987
43	0xbc907e5e	-0.017638382
44	0x3d3380b8	0.043823928
45	0xbdba26cf	-0.090894334
46	0x3d746a08	0.05967143
47	0x3c8117eb	0.015758475
48	0xbd251ed1	-0.040312592
49	0xbd0154dc	-0.03157507
50	0x3d44fd7c	0.048093304
51	0xbceaee39	-0.028678047
52	0x3c4e56c8	0.012593932
53	0x3cbed9a8	0.023297146
54	0x3cf4f368	0.029901221
55	0x3cb44d38	0.022009477
56	0xbc373894	-0.011182923
57	0x3d50efd6	0.051009975
58	0xbb8bee52	-0.0042703534
59	0x3b07f8c0	0.0020747632
60	0xbceef49c	-0.029169373
61	0xbd6df7ed	-0.05809777
62	0x3b87c5c6	0.0041434495
63	0x3a5dcf85	0.0008461404
64	0x3d3babfe	0.04581832
65	0xbd79f95a	-0.061028816
66	0xbd501eec	-0.05081074
67	0xbd5b7dcc	-0.053586766
68	0x3c90f9e4	0.017697282
69	0xbd681050	-0.05665618
70	0xbd9144ca	-0.070931986
71	0xba2e6e80	-0.0006654039
72	0x3d3bdcd4	0.045864895
73	0x3d20cfd8	0.039260715
74	0xbc1228ba	-0.008920843
75	0x3cd7e784	0.026355512
76	0x3cb877f0	0.022518128
77	0xbd0203c6	-0.03174188
78	0x3d3686c7	0.044562127
79	0x3c6f3bb8	0.01460164
80	0x3d7538a8	0.059868485
81	0x3d75d816	0.06002053
82	0x3d69f2bc	0.057116255
83	0x3ca4a864	0.020099826
84	0x3bd44187	0.006477538
85	0x3bd3cb40	0.0064634383
86	0xbd96a234	-0.073551565
87	0x3d29c854	0.041450813
88	0x3d3af7ea	0.045646586
89	0x3cbbaf48	0.022910729
90	0xbd851f6d	-0.065001346
91	0xbd38754f	-0.04503375
92	0xba956643	-0.0011398274
93	0x3ca2762f	0.019831745
94	0x3a9b2740	0.0011837259
95	0x3c4aa820	0.012369186
96	0xbcf8fd20	-0.030394137
97	0x3cb9a5eb	0.022662124
98	0xbd0692da	-0.032854892
99	0x3c929fed	0.017898524
100	0x3c7c406f	0.015396222
101	0x3cb06660	0.021533191
102	0xbd1734a8	-0.03691545
103	0xbcc47f84	-0.023986585
104	0xbd13d346	-0.036090158
105	0xbcfd9cd6	-0.030958574
106	0xbd37a0ef	-0.044831213
107	0xbd16cfd8	-0.03681931
108	0xbca087fc	-0.019596092
109	0xbd749992	-0.05971677
110	0x3ce2b669	0.02767487
111	0x3d083f00	0.033263206
112	0xbc6a4178	-0.0142978355
113	0x3d5167c4	0.05112435
114	0xbd45f911	-0.04833323
115	0xbd690b90	-0.056895792
116	0xbd5e7d5f	-0.054318782
117	0xbd80056b	-0.062510334
118	0x3b9f0d07	0.004853848
119	0xbbce1960	-0.006289646
120	0xbba4fa9c	-0.005034758
121	0xbd7bface	-0.061518483
122	0xbc0d0aa8	-0.008608498
123	0xbd773b08	-0.06035903
124	0xbd87e196	-0.06634824
125	0xb931d656	-0.00016959882
126	0x3c0eaa77	0.008707634
127	0x3d2693dc	0.040668353
128	0x3c420278	0.011841409
129	0xbd7909fc	-0.060800537
130	0xbd81f9cb	-0.06346472
131	0x3cb97f06	0.022643577
132	0xbd3716d4	-0.044699505
133	0x3d1bff95	0.03808554
134	0x3cd2785b	0.025692156
135	0x3c8d4158	0.017243072
136	0xbcc6acc4	-0.024252303
137	0x3b3e3ee0	0.0029029176
138	0x3d7f6904	0.06235601
139	0xbd4d043a	-0.05005286
140	0xbd17db26	-0.03707423
141	0xbd3d1a64	-0.046167746
142	0x3cd78a88	0.026311174
143	0xbd3b1e9a	-0.04568348
144	0xbd0b999b	-0.034082036
145	0xbb0d299d	-0.0021539696
146	0xbd2c4c12	-0.042064734
147	0xbd82f1e1	-0.06393791
148	0xbcae2e29	-0.021262245
149	0xbd0c691a	-0.03427992
150	0x3d41a2da	0.047274448
151	0xbd3cd26c	-0.04609911
152	0x3ceb12fc	0.028695576
153	0xbd6a7828	-0.057243496
154	0xbd5654cd	-0.052326966
155	0xbcf9f970	-0.030514449
156	0xbc0309d0	-0.007997945
157	0xbcd78700	-0.02630949
158	0x3d0e0e86	0.03468182
159	0xbc81abc4	-0.015828975
160	0xbd080582	-0.033208378
161	0x3b094b40	0.0020949394
162	0x3b973953	0.004614988
163	0xbc7caf38	-0.015422635
164	0xbd7cb504	-0.061696067
165	0x3d205ecc	0.039152905
166	0x3b86c761	0.0041131233
167	0xbbddcc40	-0.0067687333
168	0x3d7e03ee	0.062015466
169	0xba258200	-0.0006313622
170	0xbd5c2c9c	-0.05375348
171	0x3dbdc197	0.0926544
172	0xbd752bc6	-0.0598562
173	0xbcd0af9a	-0.025474358
174	0xbc8d2fad	-0.017234648
175	0xbd1c1744	-0.038108125
176	0x3cc4f2ec	0.024041615
177	0xbd1b58b0	-0.037926376
178	0xbda958b5	-0.08268873
179	0x3cde3aee	0.02712771
180	0x3d2d0d23	0.042248856
181	0xbd13d025	-0.036087174
182	0x3c712349	0.014717885
183	0xbafb3900	-0.0019166768
184	0x3d21a24e	0.039461426
185	0xbcd6b5a5	-0.026209662
186	0xbaec3880	-0.0018022209
187	0xbc8a348c	-0.01687076
188	0xbb4f7080	-0.0031652749
189	0x3d407f93	0.046996664
190	0x3ca6bc5c	0.020353489
191	0x39b10200	0.0003376156
192	0x3b5ddb5a	0.0033852668
193	0xbcb723c0	-0.022355914
194	0x3cc829e8	0.024434045
195	0x3c54ee6e	0.012996299
196	0xbcff9fc0	-0.031204104
197	0x3b96651f	0.0045896913
198	0xbd8405ab	-0.064463936
199	0xbd112b94	-0.03544195
200	0x3c69e58f	0.014275922
201	0xbc04650d	-0.008080733
202	0xbca60bfa	-0.020269383
203	0x3d57240e	0.05252462
204	0x3b66f3d7	0.0035240555
205	0x3c946184	0.018112905
206	0x3d632230	0.055452526
207	0xbd0c5ea4	-0.034269944
208	0xbd486b50	-0.048930466
209	0xbd865cc6	-0.06560664
210	0xbd0405cd	-0.032232095
211	0xbcc5d901	-0.024151327
212	0x3ccbc2ed	0.024873221
213	0x3c50aeb8	0.012736969
214	0x3d040a5e	0.03223645
215	0x3d2a6516	0.04160031
216	0x3d55b7ca	0.052177228
217	0x3d391476	0.04518553
218	0xbd816d2b	-0.0631965
219	0xbd13411c	-0.035950765
220	0x39fa9500	0.0004779473
221	0xbc811088	-0.015754953
222	0xbd12671e	-0.03574287
223	0x3ca34607	0.019930853
224	0xbb84c924	-0.004052298
225	0xbd7c50aa	-0.061600365
226	0x3cca697c	0.024708502
227	0xbc7bc4d0	-0.015366748
228	0xbc80d281	-0.015725376
229	0x3c54ddbf	0.0129923215
230	0xbca418d5	-0.020031372
231	0xbd7d67ea	-0.06186668
232	0xbd7a18a7	-0.061058667
233	0xbd6e6800	-0.05820465
234	0x3cea8b3f	0.02863085
235	0x3d0796a8	0.03310266
236	0xbd6cfb10	-0.05785662
237	0xbd6e3707	-0.058157947
238	0x3c8257a4	0.015910931
239	0xbd13391a	-0.03594313
240	0xbd300f7b	-0.042983513
241	0xbd63e8aa	-0.055641808
242	0x3d5d95ac	0.054097816
243	0xbcb14b6f	-0.021642415
244	0xbcc51b3e	-0.024060842
245	0x3d66af1a	0.056319334
246	0xbca61b18	-0.020276591
247	0x3b319980	0.002709955
248	0x3cd8128b	0.02637603
249	0xbd9ae51f	-0.07563233
250	0xbc8a8142	-0.016907338
251	0xbc24762d	-0.010037941
252	0x3d16dfe8	0.036834627
253	0x3d48b40b	0.048999827
254	0x3c0434c8	0.008069225
255	0x3bbbf3c4	0.0057358462

lin3.bias f4 [128]
0	0xbdac7d22	-0.08422305
1	0x3d85cdde	0.06533407
2	0xbdabc40d	-0.08387003
3	0xbd4a2d41	-0.049359564
4	0x3da1f68b	0.079083525
5	0x3ae3c1bf	0.0017376466
6	0x3df4e91f	0.11958527
7	0xbd66dbb7	-0.05636188
8	0xbb8eeec5	-0.0043619596
9	0x3d38a588	0.045079738
10	0x3da1dcae	0.079034194
11	0x3cb151a6	0.021645378
12	0xbdab444a	-0.083626345
13	0xbc56e6c8	-0.013116546
14	0xbd5a9c1a	-0.053371526
15	0xbd0ca1a3	-0.034333836
16	0xbd7cf24a	-0.061754502
17	0x3db0e3e5	0.086372174
18	0x3c8ac445	0.016939292
19	0x3e1ae2b0	0.15125537
20	0x3d879106	0.06619458
21	0x3d4e605a	0.050384857
22	0x3c75af9c	0.014995482
23	0xbd848d4c	-0.06472263
24	0x3c41b76d	0.011823517
25	0x3de68410	0.11255658
26	0x3db04f22	0.086088434
27	0x3cb5460f	0.022128133
28	0xbd84cc2d	-0.06484256
29	0x3e2575ae	0.16158172
30	0xbcd00202	-0.025391582
31	0x3debbfc4	0.11511186
32	0x3df3588d	0.11882124
33	0x3db7253b	0.08942648
34	0x3d8da7c0	0.069167614
35	0x3d7f0159	0.062257145
36	0x3d4c3509	0.049855266
37	0xbd6b16e1	-0.057394866
38	0x3dc5594d	0.096361734
39	0x3ca44caa	0.020056088
40	0x3e353f99	0.17700042
41	0x3da8ddf3	0.082454585
42	0xbb2806f0	-0.00256389
43	0x3d67bc6a	0.05657617
44	0x3d9d1053	0.07669129
45	0x3d7e8d4b	0.062146466
46	0xbdd0ce22	-0.10195567
47	0xbc8887c5	-0.016666302
48	0x3e68a754	0.2272008
49	0xbd83ac0f	-0.06429302
50	0x3d311a44	0.04323794
51	0x3c9d795d	0.01922291
52	0xbc804563	-0.015658086
53	0x3d90717e	0.07052897
54	0xbd5452de	-0.05183684
55	0x3de12b2b	0.10994562
56	0xbda33909	-0.07969863
57	0x3d96b36f	0.07358443
58	0x3dd0f701	0.10203362
59	0x3da66f0e	0.08126651
60	0xbd7aa6c6	-0.061194204
61	0xbda276c2	-0.079328075
62	0x3b854918	0.0040675513
63	0x3c616855	0.013757785
64	0xbd301a8d	-0.04299407
65	0x3db31ed4	0.087461144
66	0xbd7dbaa0	-0.061945558
67	0x3d8bb674	0.068219095
68	0x3c706153	0.014671641
69	0xbd7afe80	-0.061277866
70	0x3d6c64e6	0.05771341
71	0x3e008af4	0.12553006
72	0xbc430723	-0.011903557
73	0x3d6bafb3	0.057540607
74	0x3ca16a51	0.019704016
75	0xbd5b590b	-0.053551715
76	0x3dce7440	0.10080767
77	0x3c947636	0.018122774
78	0x3c1f8bc6	0.009737914
79	0x3d5e36ec	0.054251596
80	0x3d15f69d	0.036612142
81	0xbd81b435	-0.063332
82	0x3d4348f8	0.04767701
83	0xbc1ab2a0	-0.009442002
84	0x3c8ae5ed	0.01695534
85	0x3c839a31	0.016064735
86	0x3c02d165	0.007984494
87	0x3d680c77	0.056652512
88	0xbd5bf46a	-0.05369989
89	0xbd0c0e8c	-0.03419356
90	0xbcf15a00	-0.02946186
91	0xbd91712c	-0.07101664
92	0xbca960a1	-0.020675959
93	0xbd8c1617	-0.06840151
94	0x3e0f64dd	0.1400332
95	0x3e05ba1e	0.1305928
96	0xbc7a7722	-0.015287193
97	0x3dc19d0d	0.09453783
98	0xbd686df7	-0.056745496
99	0xbd02a32f	-0.031893905
100	0xbd555fa4	-0.052093163
101	0x3da88b54	0.082297
102	0x3bcfe56d	0.0063444884
103	0x3da63776	0.08116047
104	0xbd703676	-0.058645688
105	0x3d049fae	0.032378845
106	0x3c90da5e	0.01768225
107	0xbd6ae512	-0.057347365
108	0xbd85542f	-0.06510197
109	0x3ce5cff4	0.028053261
110	0x3d71f131	0.05906791
111	0xbd816e77	-0.063198976
112	0x3d4ff1cb	0.0507677
113	0x3c5de6d9	0.013543808
114	0xbc8250a0	-0.015907586
115	0x3d026cd6	0.031842075
116	0xbcc8137a	-0.02442335
117	0x394db183	0.00019616452
118	0x3dabdbb1	0.08391512
119	0xbc937213	-0.01799873
120	0x3da49f7b	0.08038231
121	0x3d7c74a5	0.06163468
122	0x3d181d82	0.037137516
123	0x3c15a484	0.009133462
124	0x3d11e20b	0.035615962
125	0xbcd856a1	-0.026408495
126	0xbd0db30c	-0.03459458
127	0xbd2a0cbd	-0.041516054

lin4.weight f4 [64, 128]
0	0x3c0c1376	0.008549562
1	0xbcd0a1b7	-0.025467737
2	0xbd0ad77f	-0.03389692
3	0x3d42b792	0.047538348
4	0x3c2d92fb	0.010594125
5	0xbd4f2229	-0.050569687
6	0xbcd96f6c	-0.026542388
7	0xbce256c2	-0.02762926
8	0xbcf4f41b	-0.029901555
9	0xbcff9b27	-0.031201912
10	0x3cb07f24	0.021545
11	0xb998d876	-0.00029152975
12	0x3cc41c95	0.02393941
13	0xbd9c496d	-0.07631192
14	0x3d8a0356	0.067389175
15	0x3d59ccb2	0.05317373
16	0xbdaa6ca4	-0.08321503
17	0x3d0639e8	0.032770067
18	0xbd838893	-0.06422534
19	0x3d064f69	0.032790575
20	0x3c5a2734	0.013315011
21	0xbd52fb9d	-0.05150949
22	0x3d42af1b	0.047530275
23	0xbd80792f	-0.06273114
24	0x3d8bcfb8	0.068267286
25	0xbcde5fc0	-0.027145267
26	0xbcf0e3aa	-0.029405434
27	0xbdc93fc1	-0.09826613
28	0xbd03c572	-0.03217072
29	0xbd1d46d4	-0.038397625
30	0xbc8bcb78	-0.017064795
31	0x3cce3452	0.025171433
32	0xbd94d017	-0.072662525
33	0xbd8f3cf4	-0.06994048
34	0x3d404436	0.04694005
35	0xbd21c28b	-0.03949217
36	0x3d2da67b	0.042395096
37	0xbcfc5519	-0.030802296
38	0x3d5e8285	0.054323692
39	0x3d26e0c3	0.040741693
40	0xbcbf7a4c	-0.023373745
41	0xbd87b8d7	-0.06627052
42	0xbc3f0dd3	-0.011661011
43	0xbd6b965a	-0.057516433
44	0xbd1ca2da	-0.038241245
45	0x3d213a7d	0.03936242
46	0x3d651554	0.055928543
47	0xbd8712d2	-0.065953866
48	0xbdb721ff	-0.08942031
49	0xbcb71f1a	-0.022353698
50	0x3c6145ca	0.013749549
51	0x3cbbb34f	0.02291265
52	0xbba14cbd	-0.004922478
53	0xbdc8d64d	-0.098065
54	0xbd185cd7	-0.037197914
55	0xbb994fe8	-0.004678715
56	0x3cb9cea7	0.022681547
57	0x3cd3422a	0.025788385
58	0xbddb2147	-0.106997065
59	0xbd5d7e8d	-0.054075766
60	0x3da1442a	0.078743294
61	0xbd70b8aa	-0.05876986
62	0xbb8f39c9	-0.004370902
63	0xbd2cc187	-0.04217675
64	0x3cdbe1a7	0.026840998
65	0xbda019f2	-0.07817449
66	0xbda63d01	-0.08117104
67	0x3d4f4e0d	0.050611544
68	0xbda35013	-0.07974257
69	0x3d355299	0.044268224
70	0xbd9125a7	-0.0708726
71	0xbd7214c2	-0.059101827
72	0x3d2f68fb	0.042824727
73	0x3bffec60	0.0078101605
74	0xbcb025b9	-0.021502363
75	0x3d017062	0.031601317
76	0x3ca6ba50	0.020352513
77	0xbd42e844	-0.047584787
78	0x3d9be1ff	0.07611465
79	0xbddd3e2b	-0.10802873
80	0x3d1a4ce5	0.03767099
81	0xbd57e100	-0.05270481
82	0x3d086237	0.03329679
83	0xbc95aa67	-0.01826973
84	0x3d7c14fc	0.06154345
85	0x3d689981	0.056787018
86	0x3d1097f9	0.035301182
87	0xbd8b51ff	-0.06802749
88	0x3d9d9785	0.07694916
89	0xbbde101d	-0.006776823
90	0xbdae1ee9	-0.085019894
91	0x3da94266	0.082646176
92	0x3d4ed099	0.050491903
93	0xbd25ca0a	-0.040475883
94	0x3cfb5826	0.03068168
95	0xbd8d3ae0	-0.06895995
96	0xbd8a16c1	-0.06742621
97	0xbdb310d2	-0.087434426
98	0xbc0806b6	-0.008302381
99	0x3c4d8431	0.012543724
100	0xbd9e8b17	-0.07741373
101	0xbd0cbe37	-0.03436109
102	0xbd810d39	-0.0630135
103	0xbc1b1d92	-0.009467499
104	0xbd08bc0d	-0.033382464
105	0x3c8d2507	0.01722957
106	0x3c8f3026	0.017479014
107	0xbccaceb2	-0.024756763
108	0xbd1e70cb	-0.038681787
109	0x3d1766fc	0.036963448
110	0xbd835659	-0.06412954
111	0x3d0d10d4	0.034439877
112	0x3cd2d971	0.02573845
113	0xbdb2af55	-0.08724848
114	0x3d369b3a	0.04458163
115	0x3d371953	0.044701885
116	0x3cfa6cee	0.03056952
117	0x3d73212f	0.05935782
118	0xbd808b7f	-0.06276607
119	0xbd7687fa	-0.06018827
120	0xbc04fc19	-0.008116745
121	0xbca33d34	-0.019926645
122	0xbd3b1333	-0.045672607
123	0xbccc0944	-0.024906762
124	0xbdd2d936	-0.10295336
125	0x3d24443a	0.04010413
126	0x3d14245c	0.036167488
127	0xbc37fad6	-0.011229238
128	0xbc788e32	-0.015170621
129	0x3d9cc945	0.076555766
130	0xbd28bafa	-0.04119394
131	0xbc5a8d34	-0.0133393295
132	0x3d984d8e	0.074366674
133	0x3e18835d	0.14893861
134	0x3dab2127	0.08355933
135	0x3d99542f	0.0748676
136	0xbce95c9a	-0.028486539
137	0x3d9d4662	0.0767944
138	0xbf1cf9e1	-0.61318785
139	0x3d8b9f5b	0.06817504
140	0xbce01946	-0.027355801
141	0xbc9ece1a	-0.019385386
142	0x3bf948e7	0.0076075676
143	0x3d74c73c	0.059760317
144	0xbbd7e6a6	-0.0065887747
145	0x3e09e8b8	0.13467681
146	0xbece6026	-0.4030773
147	0x3d52e2c4	0.05148579
148	0x3dcc7f3e	0.09985207
149	0xbcf2a3f4	-0.029619195
150	0xbc7e8c23	-0.015536341
151	0xbda4df68	-0.08050424
152	0xbcced570	-0.02524826
153	0x3de85701	0.1134472
154	0x3e0508dc	0.12991661
155	0xbc30d9ed	-0.010794145
156	0xbd7600dc	-0.060059413
157	0x3d8ccac8	0.06874615
158	0x3cfb1403	0.03064919
159	0x3e250f10	0.16119027
160	0x3e225dcd	0.15856095
161	0xbf1cce7f	-0.6125259
162	0x3bec538e	0.007212109
163	0xbc0e0a31	-0.008669422
164	0xbecd28d4	-0.40070212
165	0x3cf9b26c	0.030480586
166	0xbe811457	-0.2521083
167	0x3d66f0c2	0.05638195
168	0x3dd03934	0.10167161
169	0xbd79e99b	-0.0610138
170	0xbae7bead	-0.0017680727
171	0x3d512f29	0.051070366
172	0xbf00cd55	-0.5031331
173	0xbe37d9b7	-0.17954145
174	0xbe01e9ff	-0.12686919
175	0xbd986580	-0.074412346
176	0x3e079eca	0.13244167
177	0x3d0329c3	0.03202225
178	0xbe969b35	-0.2941529
179	0x3d511be2	0.05105198
180	0xbcf69758	-0.030101463
181	0xbe285a9e	-0.16440818
182	0xbce2e0e9	-0.027695136
183	0x3dd5228e	0.104069814
184	0x3d7600c9	0.060059343
185	0xbdab866a	-0.08375247
186	0x3d96894a	0.073504046
187	0x3c317469	0.010830977
188	0x3d639ca9	0.055569325
189	0xbcf34630	-0.029696554
190	0xbd6adfec	-0.057342455
191	0x3d95b897	0.07310598
192	0xbd402af3	-0.04691596
193	0x3b581173	0.0032969385
194	0xbbc4fca5	-0.006011563
195	0x3e3243dd	0.174087
196	0x3cbccb55	0.023046175
197	0xbdb1c4e2	-0.086801305
198	0xbee818b7	-0.45331356
199	0x3e30d818	0.17269933
200	0xbda315b6	-0.079631254
201	0xbf1a6fc4	-0.6032679
202	0x3cc1b19c	0.023644261
203	0xbd6508ad	-0.055916477
204	0x3e3b23cd	0.18275376
205	0xbf05d539	-0.52278477
206	0xbd93873d	-0.07203529
207	0xbed7160f	-0.42009017
208	0x3e03bf09	0.12865843
209	0x3d71e88b	0.05905966
210	0x3d7ea6ed	0.06217091
211	0xbcb3d0d8	-0.02195017
212	0xbd5fd80a	-0.05464939
213	0x3da836bf	0.08213567
214	0xba280b86	-0.00064104085
215	0x3b1e53eb	0.0024158906
216	0xbd659e49	-0.056059156
217	0xbc5db584	-0.013532046
218	0xbd6877e0	-0.056754947
219	0x3d40c75d	0.047065128
220	0xbe8d4fee	-0.27600044
221	0x3d880680	0.06641865
222	0x3e17911f	0.14801453
223	0x3dd31392	0.10306467
224	0x3b896fec	0.0041942503
225	0x3e680bee	0.22660801
226	0x3d17a260	0.037020087
227	0x3b6abee2	0.0035819341
228	0xbc9218f4	-0.017834164
229	0x3df69e78	0.12041944
230	0xbc3eb27b	-0.011639233
231	0xbe862e89	-0.26207379
232	0xbb1d6eca	-0.0024022334
233	0xbe818999	-0.2530029
234	0x3d5ab454	0.05339463
235	0xbd61a5a2	-0.0550896
236	0x3cdd7027	0.027031017
237	0x3e14ef20	0.14544344
238	0x3d6c9aa6	0.05776467
239	0x3dac2f26	0.0840743
240	0xbe9183ad	-0.28420773
241	0xbd28a48c	-0.04117255
242	0xbd192724	-0.037390843
243	0xbdfd9491	-0.123818524
244	0xbd82087d	-0.06349275
245	0x3d77174b	0.06032495
246	0xbeac0fef	-0.33605906
247	0x3d7522c6	0.059847616
248	0x3e24f2cc	0.16108245
249	0xbc9cee32	-0.01915655
250	0xbeb0f46a	-0.34561473
251	0xbea8e01e	-0.32983488
252	0xbea5f69c	-0.3241471
253	0xbf3b2c2f	-0.73114294
254	0xbe5566d9	-0.20840015
255	0xbce6967d	-0.02814793

lin4.bias f4 [64]
0	0xbdcd66b8	-0.10029358
1	0x3dacd054	0.08438173
2	0x3ca961b1	0.020676466
3	0xbc9c14d7	-0.019052906
4	0x3e045f01	0.12926866
5	0x3dcd326f	0.10019385
6	0xbcd45acf	-0.025922207
7	0xbc3d6bd4	-0.011561353
8	0x3ca9c5f0	0.020724267
9	0x3da74219	0.08166904
10	0x3d89b03d	0.06723068
11	0xbdc19c2c	-0.094536155
12	0x3d707e1d	0.05871402
13	0x3cab0689	0.02087714
14	0xbdba98e6	-0.09111194
15	0x3dfd7c2c	0.123771995
16	0xbd4634db	-0.04839025
17	0xbd3979b1	-0.04528207
18	0xbd53356b	-0.051564615
19	0xbd812120	-0.06305146
20	0x3b4176e1	0.002952032
21	0x3c4d1f72	0.012519704
22	0xbd342023	-0.04397596
23	0x3ca64f2f	0.02030143
24	0x3ca398d4	0.019970335
25	0x3d52f380	0.05150175
26	0x3e0efec0	0.13964367
27	0x3d243f24	0.040099278
28	0x3d1d6cc4	0.038433805
29	0xbbcb3e32	-0.0062024826
30	0xbc734ed3	-0.014850336
31	0xbcd364c3	-0.025804883
32	0x3d84ac70	0.06478202
33	0xbd1a9162	-0.037736304
34	0xbd7d58ab	-0.06185214
35	0x3dd4b732	0.10386504
36	0x3e34260d	0.1759264
37	0x3bdd39b8	0.0067512654
38	0x3de3ee80	0.11129475
39	0x3da07420	0.07834649
40	0x3da22ddf	0.079189055
41	0x3dda97be	0.10673474
42	0x3df2a072	0.11847009
43	0x3d1c1417	0.038105097
44	0x3d7ae2ae	0.061251335
45	0x3e195dec	0.14977235
46	0x3ce5da16	0.028058093
47	0xbd9ec264	-0.07751921
48	0x3db4afdb	0.08822604
49	0xbd98ebeb	-0.07466873
50	0x3e05bad4	0.1305955
51	0x3c9981f7	0.01873873
52	0x3c02a003	0.00797272
53	0x3de5d948	0.11223084
54	0x3d742537	0.059605803
55	0xbcb7d029	-0.022438126
56	0xbc06b7a8	-0.008222498
57	0xbd04851d	-0.03235351
58	0xbcd4e6bd	-0.02598893
59	0xbc8ef845	-0.017452369
60	0xbc2faf64	-0.010722969
61	0x3e01cf76	0.12676796
62	0xbd02cd79	-0.031934235
63	0x3d6cc6e6	0.05780687
