src/virtuose_teleoperation/network_controller/trained_policy_MLP/BC_AHEE_joint_epoch_299.pth (torch, 460039 bytes, 10 tensors)

lin1.weight f4 [256, 23]
00000000: a274 e3bd e4ad eb3c 17be a83d 1f49 f33c
00000010: bb4b 273e 7cb3 a93d 90b3 46be a4fb 063e
00000020: 6858 abbd 7ddd aabd 9cfc 37be ce65 00bd
00000030: cfca 003e 8e66 55be b241 553c 5b0f c6bd
00000040: 9ecc f7bd 222f 17be 2dea 41be 76f4 333e
00000050: 222c 6f3c cf51 443d 8389 a2bd 41f2 66bd
00000060: a738 583d c3e8 b23d c374 213e ed24 313e
00000070: 1886 2f3e 6d46 2c3e 41a2 b8bb e7c7 6e3d
00000080: 9ae4 01be 4031 20be 3040 1ebd e51f 263d
00000090: f87c 0cbe 9a3b d2bd ce88 26bd cdd0 523e
000000a0: 3542 3f3d 6464 f6bd 51fa aebc 3414 203e
000000b0: b97c 033e 149c 5dbd 5c29 2fbd 0da2 333e
000000c0: c162 ebbe 1faa 443e ee90 6ebd 73f6 b6bc
000000d0: cf14 77bc 1a7b 613d 3af1 27be 137f 1bbe
000000e0: 2723 12be 587c e4bc 6a34 263e 4190 1c3e
000000f0: 0690 33be f61a 103e 16c9 29be 40e4 473e
00000100: 36cd 583d 864e 80bb 470e 543e d239 5cbe
00000110: b6b4 a4be f4fa 3dbe 2ece 2fbd 3779 9cbc
00000120: 7836 1ebd 7a67 0ebd 446f 52be 39c4 4a3e
00000130: dc6b 113d 5a22 f4bd f4a0 0bba e42c 78bc
00000140: e7c5 5c3e 5172 24be b79a 4c3e 0aaa fa3d
00000150: 400f 6fbd a5ab e13d 586f 38be 205f 34be
00000160: 08a7 c23c 1734 503e 61b9 403e f53f 1cbe
00000170: e394 6c3d 00c8 16be b8d9 41be b985 663d
00000180: 5315 cebd 1742 93bd f83b 21be b59e 29bb
00000190: e07b fe3d 54f7 e4bc 7c74 adbd 2ae3 fc3d
000001a0: 6b73 5dbd d3e5 1e3b 23ee 1abe b4aa 483d
000001b0: e283 13be 34c4 fdbd b54f 5cbc 40d1 1dbe
000001c0: 3570 8fbd b199 43bd 315e 55be 456b 08be
000001d0: f438 44be eded 2c3d 2dda 24ba dcb6 91bd
000001e0: 0745 5f3e 6c4c 1cbc f377 573e 27bc bc3c
000001f0: 842c ae3d a57e 7c3d 8222 cc3d 2f42 48be
00000200: 1e8b 2f3e 1a3a e33d 0de7 fcbd 84ad e13d
00000210: eab7 dc3d ef0e 1dbc 0d00 283e aeba c4bd
00000220: 404a 21be 6ddd 6e3e dc5d 913d 03e3 3c3c
00000230: f040 82bd 97cd 8fbd 4c1c 4c3e b3a9 f9bd
00000240: 099b 14be 39f4 d9bd b845 1f3e 1588 b03d
00000250: bfc3 eabd 023c 18be 78b4 063c cb39 543e
00000260: d84f 38be 7b27 25be 4209 98bd 9556 aabb
00000270: bb7f 473e cf24 473e 1e69 42be bc83 533e
00000280: b431 48be f38d 9ebd 7d6f 4cbd f361 39be
00000290: 34e5 3fbe c789 13be 5c05 3c3e e4db 133e
000002a0: 89a5 1b3d 45c8 333e 907f 503d 5a40 863d
000002b0: 4d3a c1bd 223f ce3c 4c42 57be 7009 24be
000002c0: ab4d 2bbe ee8d 3bbe be90 c5bd cbf3 d83d
000002d0: ca9e a3bd 8c1b 373e 5a54 323e 95bf 0fbe
000002e0: 08a3 2abe 76a4 363e 235b f6bd 3d90 24bd
000002f0: 0540 18be 1049 4dbe 1d09 39be 4dad 863b
00000300: 0752 62bd e3f1 f6bd 7219 b3bd 6b2a 643e
00000310: b589 9f3d da82 07be db59 003e 96b4 6d3c
00000320: 57b9 18be 3582 a83d 145c 8ebd 57c6 91bd
00000330: cd8f 873b f3d8 d9ba b867 51bc 1846 543e
00000340: cd0d 8fbd 5535 733d 63ba 043d 2095 243d
00000350: 4ce8 db3d 3c9a eabd 0e21 35be a78d 0e3e
00000360: 2fb0 16bd 5f98 3e3b b380 26be 6cfc dcbd
00000370: f01a 4f3e 5a7b 8fbd 5682 ee3d 5fd7 b03d
00000380: 8799 abbd 3bf2 423d d41c 79bd dc56 3b3e
00000390: c1ec 423d 3bf0 83bd 0144 063d 9461 5cbe
000003a0: a203 c93e 7be3 be3d af72 3cbe 3a6d 01be
000003b0: 5666 803d f611 edbd 23c1 13be e5bd 9b3d
000003c0: 82e6 c7ba ce53 06be 6715 1dbe c714 5e3e
000003d0: 60eb eb3c 8090 033e b7e2 dc3d 9caf 98bd
000003e0: a391 dc3d ca57 153e a976 fe3d 3dfb 86be
000003f0: f6ce a33d 1c8b 77bd ff52 433d d0c6 1e3e
-0.1110623 0.028769441 0.08239382 0.029697953 0.16337483 0.08286187 -0.19404435 0.13181931
-0.083664715 -0.08343027 -0.17967457 -0.03134709 0.12577365 -0.20839903 0.013016151 -0.096708976
-0.120995745 -0.14764073 -0.18936987 0.17573723 0.014597924 0.04792958 -0.079363845 -0.056383375
0.052788403 0.08735802 0.15767197 0.17299242 0.17140996 0.1682374 -0.0056345765 0.05829611
-0.12684861 -0.15643787 -0.038635433 0.04055776 -0.13719547 -0.10265274 -0.04065781 0.20587464
0.046694 -0.12030867 -0.021359595 0.15632707 0.12840547 -0.054103926 -0.042764053 0.17542286
-0.4597378 0.19205521 -0.058243684 -0.022334313 -0.015080645 0.05504904 -0.16400614 -0.15185194
-0.14271222 -0.027891323 0.16230932 0.15289403 -0.1753541 0.14072785 -0.16580614 0.19520664
0.05293008 -0.0039156107 0.20708571 -0.21506432 -0.32169122 -0.18552762 -0.042921238 -0.019100768
-0.038626164 -0.03476665 -0.20550257 0.19801416 0.035503253 -0.119206145 -0.0005326413 -0.0151474215
0.21559869 -0.16059233 0.19980894 0.122394636 -0.058364153 0.11019067 -0.18011224 -0.17614412
0.023761287 0.2033237 0.18820716 -0.15258773 0.057759177 -0.14724731 -0.1893071 0.05627987
-0.10062661 -0.0719034 -0.15745533 -0.002588195 0.12425971 -0.027949966 -0.08469483 0.123480156
-0.05406515 0.0024245873 -0.15129904 0.04899092 -0.14405778 -0.123909384 -0.013446738 -0.15411854
-0.07003824 -0.047753993 -0.20836712 -0.1332217 -0.19162351 0.04221909 -0.0006288614 -0.07114956
0.21803676 -0.009539705 0.21041851 0.023038937 0.085045844 0.061644215 0.09967519 -0.19556497
0.17142913 0.11095066 -0.12348757 0.110194236 0.10777266 -0.00958608 0.1640627 -0.09605919
-0.1575098 0.23326655 0.070979804 0.011528733 -0.06360042 -0.07021635 0.1993267 -0.12190571
-0.14512266 -0.10642285 0.1555394 0.086197056 -0.11463117 -0.14866641 0.008221738 0.20725171
-0.17999208 -0.16128342 -0.07423641 -0.0051983097 0.19482319 0.19447635 -0.18985412 0.20655721
-0.1955021 -0.077419184 -0.04991101 -0.18103771 -0.18739778 -0.14408027 0.1836142 0.1443935
0.037999664 0.17556866 0.050902903 0.06555243 -0.09434948 0.025176588 -0.21021384 -0.16019225
-0.16728847 -0.1831586 -0.09646748 0.10593375 -0.07989271 0.17881602 0.1741499 -0.14037926
-0.16663754 0.17836174 -0.12029102 -0.04017662 -0.14868172 -0.20047402 -0.18069883 0.0041100145
-0.05525401 -0.12057855 -0.08745088 0.22281806 0.077899374 -0.1323351 0.12534277 0.014508387
-0.14914452 0.0822796 -0.06951156 -0.071179084 0.0041370154 -0.0016620442 -0.012781076 0.20729864
-0.06985054 0.059377033 0.032404315 0.04018128 0.107376665 -0.11455199 -0.1768839 0.13921224
-0.036789116 0.002908252 -0.16260032 -0.10790333 0.2022512 -0.07005949 0.11645953 0.08634829
-0.083788924 0.04759429 -0.06081851 0.18294853 0.047589067 -0.06442305 0.032779697 -0.21521598
0.39260584 0.09320732 -0.18403123 -0.12639323 0.06269519 -0.115756914 -0.14429145 0.07604579
-0.0015251192 -0.13117906 -0.15340196 0.21687613 0.028798759 0.12848091 0.1078543 -0.0745537
0.107699655 0.1458427 0.124249764 -0.26363555 0.07998459 -0.0604354 0.047686573 0.15505528

lin1.bias f4 [256]
00000000: ee98 30be 02db 29be 020d e1bc e341 5dbd
00000010: 653f 403d c64f 39be 0a79 bc3d e786 273e
00000020: 5481 0a3e b1a6 1cbe 42f2 8c3c fea7 423e
00000030: d826 b53d a85f e33d 92ca 40be 330c 193e
00000040: 8fe9 223e 0d23 3bbe e548 a7bc ef17 e9bd
00000050: 993a 94bd d1ba 54be 8647 373e ca8d 003e
00000060: 72d9 26be 1c00 7abc eb4b 3b3e 1c03 94bd
00000070: fd89 10bd 9ae1 113e f5b5 26be 6bb5 333e
00000080: e8a1 483e 1e11 c6bd b7ec 9b3d 8a2a 4dbe
00000090: dc9c 043e 3d06 ce3c 85b0 053e 9677 793d
000000a0: 109d 03bd d2b6 e5bd eda5 52be be77 bfbc
000000b0: ef67 cdbd dedf 37bc 068f 0a3e 9c02 55bd
000000c0: 40b9 1f3e afad 99bc 38f2 d23d 1df1 e5bc
000000d0: 3f8a b0bd ebe3 8ebd b755 d13d a04e f3bb
000000e0: fcda 9b3d 1f40 a3bd dbf7 aabc 0a48 debd
000000f0: 3b52 263c 40c7 53be 7976 a6bd d5de f63d
00000100: 6ca3 1fbe 2568 fe3d bc11 893c 7054 4abe
00000110: 2e73 8a3c 7b4c 9ebd 4d21 173d 4da6 aabd
00000120: 59b6 7fbd 52d0 40be 9476 0d3e 1090 eabd
00000130: e03c 243e 9744 fa3d 9404 dabd 3892 533e
00000140: ee25 2fbe 5749 003e 4218 353e b712 253a
00000150: 50d2 4dbe 90a8 733e 4cb3 2e3e 36c3 e73d
00000160: cfce 423c e06b 27be 0646 a2bd 5b88 1dbe
00000170: 561d 0e3e 4fad 2e3e b6d9 8e3c d682 49be
00000180: ebb1 30be 833f 3cbe 86c9 82bd ab56 d5bd
00000190: 0b02 df3c 54fd 16be 5db9 343e 97b5 77bd
000001a0: 7961 19be 9ad9 20be 59e4 3b3e d0c6 a3bc
000001b0: e6c3 133e fccb 883d 383c a33d 49b1 62bd
000001c0: 16b3 b7bd 725b 52be a53e c43c a537 573e
000001d0: 9100 313e 3f13 33be b4f7 253e 3b58 043e
000001e0: dac0 7f3d 88f4 5dbd eb1a 50be 53dd 19be
000001f0: c7fd 9fbb 1820 37be 58c3 87bd 0579 313e
00000200: bc21 543e 2aac b23d b2ab 1ebe ad25 5e3d
00000210: 3514 503c 7a46 72bd d55d 78bd a54a 53be
00000220: bbc5 54be 352b 19be 661b d53c fa5f 463e
00000230: cb77 523e 73a2 d73d c649 123e f91e 293e
00000240: 93de 573c ab59 943c 67f4 373e 4935 083e
00000250: f693 90bd 6ddc 263d a1ad e23d 1853 dabd
00000260: c5e8 423e 7a76 2e3e e0a4 8d3d a5a4 e5bd
00000270: d2af e23d 54f8 27be 0045 a3bd a155 ddbc
00000280: 725e 18be 0b36 0e3e a8a8 70bd 3b8b 20bd
00000290: be3a 103d 85d4 073e 886f 9e3d d3e5 3fbe
000002a0: ada9 9fbd 1a3f 35bd 173c 5fbd 6b64 14be
000002b0: 89c1 653d a9c4 38bd 3c84 343d 6dc7 1f3e
000002c0: 8f4c 933b 2b8c 1d3e 76fc 423e 707b 043e
000002d0: dadc 3d3e 7bb4 c5bd fc7e 2dbe f5ab 493c
000002e0: 6100 893d 820a f33d 60d0 9e3c d3fe 52bd
000002f0: a124 cbbc f3fd 643d 3e97 f03d 2037 b0bc
00000300: 191e 52be 1309 65bd 527a 283d 1043 a63c
00000310: bbae 50bd 0bb3 48bd 87ea 493e 63a5 2d3e
00000320: 056f 9a3d 461d 773d 1eca b0bd e61d 1e3e
00000330: 4571 c0bd 50da 253e 5d2d d33d a0e2 043e
00000340: 80e9 6e3c 4aeb 88bd 2261 e03b 48a3 88bd
00000350: 8510 02bc 64c5 1ebe 77c9 2abe bda2 c7bd
00000360: 919c e03b c82a 2bbe 1f98 e23d dfe4 a83c
00000370: 588c 52be 1368 ba3c af86 e2bd 8fc2 a63d
00000380: eb48 763b 1bce 083e 7a76 193c ce3a a9bd
00000390: 4ff8 de3d b619 1fbe 1be1 c13c 4127 4f3e
000003a0: c683 e83d c1ee f5bd fa25 7537 8793 193e
000003b0: 5b88 833d ba91 26ba d293 02be 4b4d 2dbe
000003c0: 1971 81bc e944 c7bc 3876 0d3d eb04 cbbd
000003d0: 8d73 4a3e e340 5d3d 6a1c 153e 1179 37be
000003e0: 5bac 10be 5a2f 3a3e b6fc 523e 1fed 1fbe
000003f0: 4072 163e 5067 a03d 6afc 29be 5b73 c0bd
-0.17245838 -0.16587451 -0.027472023 -0.054017913 0.046935458 -0.18096837 0.09202774 0.16360055
0.13525897 -0.15297963 0.017205361 0.19009396 0.088452995 0.11102229 -0.18827274 0.1494606
0.15909408 -0.1827509 -0.020420501 -0.11381518 -0.07237739 -0.2077439 0.17898378 0.12554088
-0.16293886 -0.015258815 0.18290679 -0.072271556 -0.035287846 0.14246216 -0.16280349 0.17549674
0.19593012 -0.096712336 0.07613509 -0.20035759 0.12950462 0.025149459 0.13055618 0.06090506
-0.03213221 -0.11216511 -0.20571108 -0.023372527 -0.100295894 -0.011222808 0.13531122 -0.05200444
0.15598011 -0.018759577 0.10300106 -0.028069073 -0.08620118 -0.06977066 0.10221427 -0.0074251443
0.07610127 -0.079712145 -0.02087014 -0.10853584 0.010151441 -0.20681477 -0.081280656 0.120542206
-0.15589684 0.12422208 0.01673209 -0.19758773 0.016900625 -0.07729431 0.036896992 -0.083325006
-0.06242976 -0.18829468 0.13814765 -0.11453259 0.16038847 0.12220114 -0.106454045 0.20661247
-0.17104313 0.12527977 0.17685035 0.0006297039 -0.20099759 0.2379477 0.17060584 0.113165304
0.011890127 -0.16349745 -0.07923512 -0.15384047 0.13878378 0.170583 0.017437797 -0.19678816
-0.1725537 -0.18383603 -0.06386094 -0.10416921 0.027222654 -0.14745075 0.17648835 -0.060475912
-0.14978589 -0.15708008 0.18348826 -0.019992262 0.14430198 0.06679532 0.0797047 -0.055344854
-0.08969705 -0.20542696 0.023955652 0.2101732 0.17285372 -0.1748781 0.16207772 0.12924282
0.062439777 -0.05418828 -0.20322768 -0.15025835 -0.0048825475 -0.17883337 -0.06629056 0.17331322
0.20715994 0.08724244 -0.15495184 0.05423515 0.01270013 -0.059149243 -0.06063636 -0.20633943
-0.20778553 -0.14957888 0.026014041 0.1937255 0.2055351 0.105290316 0.14285955 0.16515721
0.013175624 0.018109163 0.17964326 0.13301577 -0.07059471 0.04073756 0.11068273 -0.1066038
0.19034107 0.17037383 0.06916213 -0.11213044 0.11068691 -0.16403323 -0.07972145 -0.02701837
-0.14879778 0.13887803 -0.058754593 -0.03919528 0.03521227 0.13264664 0.07736117 -0.18740015
-0.07796035 -0.04424963 -0.054500666 -0.14491431 0.056092773 -0.045109425 0.04407142 0.15603419
0.0044952105 0.15385501 0.19041619 0.12937713 0.1854128 -0.096535645 -0.16942972 0.012309064
0.066895254 0.118672386 0.01938647 -0.05151255 -0.02479774 0.055906247 0.11747597 -0.02151066
-0.20519294 -0.055916857 0.04113228 0.02029565 -0.050947886 -0.048998874 0.19718371 0.16957621
0.075407065 0.06033065 -0.08632301 0.15441093 -0.093966044 0.16196561 0.10311387 0.12977076
0.014582038 -0.06685503 0.0068475166 -0.066717684 -0.007938509 -0.15504986 -0.16678415 -0.09747837
0.0068546017 -0.16715539 0.11064171 0.020616947 -0.2056135 0.022754705 -0.11060845 0.08142578
0.0037580084 0.13359873 0.009366626 -0.08263169 0.10887205 -0.15537152 0.023666909 0.20229818
0.11353259 -0.12008429 1.461198e-05 0.14997683 0.06422492 -0.00063541124 -0.12751701 -0.16924016
-0.015801 -0.024324851 0.03453657 -0.099130474 0.19770642 0.05401696 0.1456162 -0.17917277
-0.14128248 0.18182126 0.20604214 -0.15617798 0.1469202 0.07832205 -0.16600195 -0.09397002

lin2.weight f4 [256, 256]
00000000: 6ccc eabc fc00 273d e081 77bd 70b5 4cbd
00000010: a4b8 f13c b00c 3e3c 3864 343c ae43 5d3d
00000020: c079 85bc 7890 403c 8073 85bc 1cd0 4ebd
00000030: 065a 093d d868 9ebc b23c 693d 9e1e 6ebd
00000040: 903e 873c 2c78 45bd e218 51bd 4c57 a63c
00000050: 14a8 40bd 2833 76bd 6c42 e3bc 3448 fabc
00000060: 24cf 00bd 86b4 25bd 74dd 433d 8ce7 4f3d
00000070: 746f 553d 542a 723d 9872 37bc 0a15 3a3d
00000080: 0466 6d3d a056 12bc 0003 57ba b239 31bd
00000090: 9807 183d 601d 063c b0be 00bc 6004 ad3b
000000a0: 0020 5e37 e829 15bc b669 773d 644a 103d
000000b0: ec75 433d f83d 75bc 5c35 50bd 8003 ebbc
000000c0: 80e7 56bb 108e 99bc 60a7 7f3c 3234 72bd
000000d0: 00f2 3c3a cc37 103d 0463 243d 6012 39bd
000000e0: 82eb 313d 9add 1abd 8423 eabc 4c4d 41bd
000000f0: c40f bebc a82b 5b3c 6432 5f3d 006b c0ba
00000100: 907f 813c 8063 14bd 2686 2f3d 1ebe 7a3d
00000110: 1ad8 173d 92ca 023d 76e0 523d a0f4 f03c
00000120: 3c17 913c 1a21 273d 4ec3 09bd 8890 50bc
00000130: 5463 223d 70d1 f3bb b229 683d 3854 78bc
00000140: 5011 71bd c0a7 dfbb dc3b 5f3d 7868 43bd
00000150: c438 d6bc 420a 7a3d 9a6e 6fbd d04d debc
00000160: fcaf cfbc d26b 19bd 44b2 3d3d cc3e dcbc
00000170: 0cb5 9e3c a01c 503c b098 f03b d248 373d
00000180: 2000 78bc c472 3abd 305a ebbb fab7 75bd
00000190: d0e2 7a3c 76b5 3cbd 301b f43c 0005 323a
000001a0: bc9b b33c 3012 6d3d b23a 4f3d c406 3ebd
000001b0: 600f e3bc f4d0 95bc 1463 aabc 0c21 8cbc
000001c0: 5ec0 6d3d e06c 97bc b05d 313c c035 7e3d
000001d0: e019 6dbc 3236 06bd 3c7b f03c c4c4 a0bc
000001e0: 8829 e8bc 60bf f1bb 207a 84bb 4853 5fbc
000001f0: 7482 5d3d de75 07bd 20c6 f1bc 50a2 693d
00000200: 7485 d03c 9caf 66bd ccc6 79bd 04bb 60bd
00000210: b404 583d 102b 12bc 0aba 3c3d 9cce bb3c
00000220: 7097 f1bc 1059 9fbc d0c0 8bbc dc62 eebc
00000230: 38ec f13c 9431 cdbc 004a 6aba 74e0 adbc
00000240: 5033 313c 2cb9 8ebc 206d 5bbd 301f 02bd
00000250: c0f4 89ba d83f ee3c 0004 5cbc 5844 003d
00000260: 58ae a13c f4be f43c 4058 22bc f832 5f3d
00000270: f417 90bc 200c d73c 8692 6b3d 30b7 eabb
00000280: 6c14 72bd 4a8e 3dbd 4e0f 1d3d 4826 233d
00000290: 929b 023d 50d3 2abc 9cef e3bc 6068 5dbd
000002a0: 409c bb3c 1c0d bcbc 96d0 593d 80c2 2b3b
000002b0: 9ed2 3fbd cafa 4ebd 4cc6 c3bc 407b 82bb
000002c0: 0024 6fb9 0088 8fb8 b698 50bd 9065 81bb
000002d0: 54bd 3f3d 3c6f 51bd 3072 1e3d de1d 2a3d
000002e0: ba09 243d 2033 2a3c 3a44 29bd eebf 3f3d
000002f0: 4015 f23b 2452 6f3d 5251 483d 587f 363d
00000300: f849 883c 06a1 53bd 4811 293c b8b9 23bd
00000310: e85a a43c 72d9 27bd 5885 3fbc 7894 c03c
00000320: 60fd 38bc 485f edbc cc43 22bd a2e2 12bd
00000330: b8a8 42bd 64df babc d096 cbbc 1a67 59bd
00000340: 6492 14bd 04b9 47bd 5cae c03c 40b9 b4bb
00000350: c48a e63c 2854 713c 94bf e03c 609e 953b
00000360: eccc b83c 1cab 873c 3024 ccbc 1445 d9bc
00000370: 4822 373d 14f5 81bc 3473 c7bc c2ec 0bbd
00000380: d451 433d 3aaf 55bd 40ed 803a 7463 b4bc
00000390: 7cd0 a3bc 500b b63b e474 abbc ae29 003d
000003a0: bcb9 d53c 5408 ebbc 8023 b8bb fe1a 01bd
000003b0: c073 94bb baf9 293d 300d 2f3d b2d4 6dbd
000003c0: 28ce c2bc 54f4 53bd dccc f7bc b851 4a3c
000003d0: 78fa 783c 90d7 36bc 2060 5d3c 660c 26bd
000003e0: 1ab3 55bd 30a7 613c 00fc 06b9 ac3a 75bd
000003f0: 80c8 8bba 62da 3cbd 5ac5 213d 8885 25bd
-0.02866193 0.040772423 -0.060426593 -0.04997772 0.029506989 0.011599705 0.011010222 0.054019623
-0.016293406 0.011753194 -0.016290426 -0.050491437 0.03353312 -0.019337103 0.05694265 -0.058134668
0.016509324 -0.048210308 -0.05104912 0.020305298 -0.04703529 -0.06010738 -0.027741633 -0.030552007
-0.031447545 -0.040455364 0.047818616 0.05075793 0.052108243 0.0591224 -0.011196755 0.04543022
0.057958618 -0.008931786 -0.0008202046 -0.043267913 0.037116617 0.0081857145 -0.007857963 0.0052800626
1.3239682e-05 -0.0091042295 0.06040355 0.035227194 0.04771988 -0.014968388 -0.050832137 -0.028688192
-0.0032791793 -0.018744498 0.01560387 -0.05913181 0.00072076917 0.035209462 0.04013349 -0.04518354
0.04343749 -0.037808992 -0.028581388 -0.047192857 -0.023200877 0.013377108 0.054491416 -0.0014680326
0.015807897 -0.036227703 0.042852543 0.061216466 0.037071325 0.031931467 0.051483594 0.029413521
0.017711274 0.040803052 -0.033633523 -0.012729771 0.039645508 -0.0074407384 0.05668039 -0.015156798
-0.0588544 -0.0068254173 0.054500446 -0.04770705 -0.026150115 0.06104494 -0.058455087 -0.027136713
-0.02535247 -0.03745634 0.046312585 -0.026885413 0.01937344 0.012702137 0.0073424205 0.04474718
-0.015136749 -0.045519605 -0.007182382 -0.059989907 0.015312865 -0.046071492 0.02979812 0.0006790906
0.021924846 0.057878673 0.050593086 -0.04639317 -0.027717292 -0.018288113 -0.020799197 -0.017105602
0.058044784 -0.018484533 0.0108255595 0.06206298 -0.014471501 -0.03276653 0.029355638 -0.019625075
-0.028340116 -0.00737755 -0.0040428787 -0.013630696 0.054079488 -0.03307139 -0.029513419 0.05703956
0.02545426 -0.056319818 -0.060980603 -0.054865852 0.05273886 -0.0089214 0.04607586 0.022925667
-0.029491156 -0.019451648 -0.017059714 -0.029099874 0.029531583 -0.025048055 -0.00089374185 -0.021225192
0.0108154565 -0.017422281 -0.053570867 -0.031768024 -0.0010525212 0.029083177 -0.013428688 0.031315178
0.019736454 0.02987621 -0.009908736 0.054491967 -0.017589547 0.026250899 0.057512783 -0.007162951
-0.059101507 -0.046278276 0.038344674 0.03983143 0.031886645 -0.010426357 -0.027824216 -0.054054618
0.022901654 -0.02295547 0.05317744 0.002620846 -0.04683172 -0.05053214 -0.023898266 -0.0039819777
-0.00022806227 -6.844103e-05 -0.050926886 -0.003948875 0.046811417 -0.051131472 0.038683116 0.04153239
0.04004834 0.010388166 -0.04132483 0.046813898 0.007387787 0.058427945 0.048905678 0.04455504
0.016636834 -0.051667236 0.010319062 -0.039972037 0.020062879 -0.040978856 -0.0116895065 0.023508295
-0.011290878 -0.028976098 -0.039615437 -0.035860665 -0.047524184 -0.0228116 -0.024852186 -0.05307684
-0.03627242 -0.04876043 0.023520641 -0.0055152476 0.02814234 0.014729537 0.027435102 0.004565999
0.022558652 0.016561083 -0.0249196 -0.026522197 0.044710428 -0.015863933 -0.024346925 -0.034161337
0.04768546 -0.052169062 0.0009836331 -0.02202008 -0.019996874 0.005555548 -0.020929761 0.03128975
0.026089542 -0.028690495 -0.0056194663 -0.031519882 -0.0045304 0.041497923 0.042737186 -0.05806417
-0.023779944 -0.05174668 -0.030249052 0.012348585 0.015196435 -0.011159793 0.0135116875 -0.040539168
-0.052172758 0.013772771 -0.00012873113 -0.059870407 -0.0010664612 -0.046106704 0.03949485 -0.04041055

lin2.bias f4 [256]
00000000: f8c5 7d3d 1374 633d 00a7 ecbc 64ef bbbc
00000010: 83be 6abd 4329 003d 44b9 643d a885 50bc
00000020: e5a3 433c c021 13bd 3aa7 f2bc 882f ae3c
00000030: 7ca5 1c3d 1565 693c a16b 3a3d ac85 1c3d
00000040: 761a 623d 8e5e 7ebd f85f 173d 82d3 273d
00000050: df08 29bd 76d1 06bd f05f 7eba a091 31bb
00000060: 6406 c73c 6035 c7bb 5955 4d3d 360e a03b
00000070: 1180 483c 8f06 433d 6b66 203d dc3e f43c
00000080: a5de f73c 127c 36bd 0cb6 45bd 82bd 44bd
00000090: bc45 243b cb6a 083d d81c edbc e8d5 6cbc
000000a0: e79d 89bd dd39 293b 30ae c73b 07c4 7a3d
000000b0: 724a 2ebd 5a6a 653c d2e3 6bbd 25ce 13bc
000000c0: ae46 083d 0ba4 d9ba d2d1 52bd 71ab 00bd
000000d0: fde7 dd3b ecaa 1c3d 12bd cc3c c03d 38bc
000000e0: ac94 1fbd ea82 633c 428f 4ebd 46e6 15bd
000000f0: 58ae 7f3d c6d4 17bd d287 853c ca65 093c
00000100: e298 2bbd 9c87 e93c 109c 473d 1034 063c
00000110: b7d9 533d 4efe e23b 6075 233c c1d8 7e3d
00000120: d535 9c3c 78d5 6d3d 1fd6 4f3d 4da9 82bd
00000130: 4410 0b3d 486a 1bbc 6177 fbbc 7eb2 5dbd
00000140: 9440 46bb 5354 513d a098 483d 6228 e9bb
00000150: 6408 b1bc 2886 743c 98f5 3a3d 408d 88bc
00000160: d0c2 babc b5fd 423d 4807 133d 8cba 83bd
00000170: 13a6 cdba d44d 403d 8934 59bd e6dc 843d
00000180: a2e3 00bd 8efa 1cbd 705f 44bd 1809 55bd
00000190: ee00 c3bc 0b47 3bbc 7032 0fbc 2a8e 1d3d
000001a0: f0ef 56bc ac25 803d 8a69 3a3c f0cc 3abc
000001b0: 8c20 0cbd 17e1 88bb d82c 79bd 1869 4db9
000001c0: a335 72bd fe40 6dbd c674 803a aef3 7c3d
000001d0: 2a2e 3abd 47b4 1c3d b02d 4fbd 0fb9 90bc
000001e0: 647f 0a3d 9430 3ebc a862 8fbc 7e49 52bd
000001f0: 7840 eabc 3088 2fbd 1488 25bd 26e2 303c
00000200: 10b5 ddbc d030 9a3b 5095 9fbc 7af6 3abc
00000210: 608f a7bc 4d36 c2bc 07a7 81bd 447b 55ba
00000220: ca26 4c3d baa9 17bd f6d5 893d 8975 14bd
00000230: 20fc b53b 9393 163d d2ac 51bd 1079 cf3b
00000240: f095 27bb 6e9c 70bd 4920 d53c de33 7ebd
00000250: 09ff 3dbd cba0 d5bc 5980 a53c 949f 433d
00000260: bb0a 71bc 9289 39bd fada 08bd a34c 0abd
00000270: f89a 1dbd f064 9f3b 4a34 2b3d 313e 013b
00000280: 37e4 da3c 8be3 663c 6cc5 893d 6a55 8bbd
00000290: 69aa 66bd 1450 e13c 5873 213d 5d5f 7c3d
000002a0: 9239 3d3d d817 69bc 6b09 c43c 4466 7fbd
000002b0: 66e3 1fbd 27d5 dbbc 76ad 2abd fe46 683c
000002c0: 7c06 ea3c 0f7c 333d 0e3c 0fbd 3aa0 a13c
000002d0: f426 4ebd 16dd 8e3b a01b 01bd 02cf 0b3d
000002e0: 2e94 3abd d611 00bd 4651 47bd cfcd 733b
000002f0: db90 e4bc e27f 24bd 9d4a 0f3d a4a6 8b3c
00000300: 10f9 32bd b070 44bd 8601 2d3d 91e8 86bd
00000310: cffd 7c3d f2c5 06bd eba5 3a3d b9a6 003d
00000320: 603f 10bd 1543 6a3d 653a 6ebd 37b4 9c3c
00000330: c617 26bd 331f 043c cf49 1c3d 8d88 c13c
00000340: 47bf 1dbd a1c4 ea3c 5600 533c 62c4 5d3d
00000350: 1c04 3cbd 57a8 543d d61a 543c 68e7 2f3c
00000360: 0fe0 5dbc fc15 3a3d cb14 d93c 68f6 0dbd
00000370: 219f 1c3d b1ab 36bd bcfc f4ba 376b 8e3d
00000380: fb3c e7bc 2474 97bc 9c57 333d 82b8 35bc
00000390: f1c9 90bc 4e05 29bd 5635 893c e467 c23c
000003a0: c159 443d 549b 94bc 2b91 ef3b 8f4e 31bd
000003b0: fb97 19bd 03d8 2cbd 53d7 abbb c02b ce3c
000003c0: 1fe0 1f3d a057 003b 5886 4bbc abd4 f33b
000003d0: 3e42 6fbd 4a76 2abc 4031 be3c e69d 693d
000003e0: 47ff 903c 5f13 363c 18f3 e83c 67ba 223d
000003f0: f38b f93b 5f0a af3c 202d bfbb f137 883d
0.061956376 0.05553062 -0.028888226 -0.022941299 -0.057310592 0.03128935 0.055840746 -0.012727179
0.011940931 -0.03592086 -0.029620755 0.021262899 0.038243756 0.014245291 0.0455128 0.038213417
0.055201016 -0.062101893 0.036956757 0.040973194 -0.041268226 -0.0329146 -0.0009703627 -0.0027094856
0.02429504 -0.006079361 0.050130222 0.0048845066 0.012237565 0.047613677 0.039160173 0.02981513
0.030257532 -0.044551916 -0.048269317 -0.04803229 0.002506598 0.03330497 -0.028944418 -0.014455296
-0.067195706 0.0025821843 0.006093763 0.061222102 -0.042551465 0.014002407 -0.057590313 -0.009021317
0.03327053 -0.0016604675 -0.05146963 -0.0314135 0.00677204 0.03824894 0.0249925 -0.011245191
-0.038960144 0.013886193 -0.05042959 -0.03659656 0.062422127 -0.03706815 0.016300116 0.008386085
-0.041893847 0.028507046 0.048732817 0.008191124 0.0517213 0.006927288 0.009976715 0.06221843
0.019068638 0.058064908 0.05074131 -0.06379948 0.03395106 -0.009485789 -0.030696573 -0.0541253
-0.0030250894 0.05110581 0.04897368 -0.0071154097 -0.021610446 0.0149245635 0.045644373 -0.016668916
-0.022797972 0.047605235 0.035895616 -0.06432065 -0.0015689753 0.046949223 -0.053028617 0.064874455
-0.031467088 -0.038324885 -0.04794258 -0.052010626 -0.023804154 -0.011430512 -0.008740053 0.038465656
-0.013118729 0.06257185 0.011377702 -0.0114014 -0.034210727 -0.0041772234 -0.060833782 -0.00019589474
-0.059133183 -0.05792331 0.0009800426 0.06175583 -0.04545418 0.038257863 -0.05058068 -0.017666368
0.033812895 -0.011608262 -0.017503098 -0.05133962 -0.028595194 -0.042854488 -0.040412977 0.0107961055
-0.027063876 0.004705526 -0.019480377 -0.011411304 -0.020454109 -0.023707533 -0.06330686 -0.0008143673
0.04984168 -0.0370271 0.06730263 -0.036244903 0.0055537373 0.03676183 -0.051190205 0.0063315704
-0.0025571547 -0.058742933 0.026016371 -0.062061183 -0.0463858 -0.026077649 0.020202802 0.047759607
-0.014712031 -0.045297213 -0.033411957 -0.033764493 -0.038477868 0.0048643276 0.041797914 0.0019720907
0.02672015 0.014092336 0.06727108 -0.06803401 -0.05631486 0.027504005 0.03941664 0.061614383
0.04619748 -0.014226876 0.023930272 -0.062353387 -0.039035223 -0.026835037 -0.04166933 0.014177082
0.028567545 0.043819483 -0.034969382 0.019729722 -0.050330117 0.0043598516 -0.031520486 0.034132965
-0.04555147 -0.03126701 -0.048661493 0.003720153 -0.027901104 -0.04016102 0.034983266 0.017047234
-0.043694556 -0.04795903 0.04223778 -0.06587327 0.06176549 -0.03290362 0.045568388 0.031409
-0.03521669 0.05719288 -0.058161158 0.019128902 -0.040550016 0.008064079 0.038156327 0.023624683
-0.038512494 0.028658213 0.012878498 0.054142363 -0.045902357 0.051918354 0.012945851 0.010736324
-0.013542189 0.045431122 0.026499173 -0.03465882 0.038237695 -0.04459733 -0.0018691043 0.06954043
-0.02822732 -0.018487997 0.043784723 -0.011091353 -0.017674418 -0.041264825 0.016749065 0.02373118
0.04793716 -0.018140472 0.0073110065 -0.04328781 -0.037498455 -0.042198192 -0.0052441745 0.025167346
0.039032098 0.0019583479 -0.012422167 0.0074411235 -0.058412783 -0.010404179 0.023216844 0.05703535
0.01769985 0.011113017 0.028436229 0.03972855 0.00761556 0.02136725 -0.0058342367 0.06651295

lin3.weight f4 [128, 256]
00000000: 1c66 c2bc ea95 a0bc feaa 07bd ad99 383d
00000010: 9908 073b c01e cb3a 87c8 e33c d849 213c
00000020: 0794 82bd f8c0 203d 14cc eb3c f6b1 573d
00000030: 1464 483d 0231 163d ab64 58bd 5fc8 183d
00000040: e48a 7fbd 8cf1 183d 7374 68bd 7f8b a13c
00000050: 4fa2 393d 5ec6 fc3c fee5 c93b e2ee 473d
00000060: 3054 4d3d 9c47 ec3c e6dd 383d 36e7 053d
00000070: ddde 303d 0347 093a 5bde e5bc 2005 97bc
00000080: 549b 52bc c089 f73a dab1 5f3d ce41 593d
00000090: 3536 f03c 5553 dabc c81b 6dbc c00d c8bc
000000a0: 9810 31bd 017d 2b3d 74de c7bc f8e0 8ebb
000000b0: 547f 8dbc 60b2 ff3b 300c 82bb a224 24bd
000000c0: 7cb3 0cbd bb6e 633c 09dc b0bc 0cf2 263d
000000d0: 10e4 10bd 9494 003d c76e 463d da7a 48bd
000000e0: 8783 373b 6c16 2e3d 2c56 a8bc 0a07 17bd
000000f0: 262b 89bd 54dc d43c 829f ca3a bd72 8bbc
00000100: 741f 28bd 448c c83c 7188 bdbc 0c5d 54bd
00000110: febf 7c3d 0264 3c3c c032 dcba 7c07 d63c
00000120: 68a1 61bc edbf 15bd ad11 0bbd 0237 06bd
00000130: 155c 923c c0a9 afba 9874 3bbd e8ca b6bc
00000140: 9550 64bd 115d 133d 33ec ad3c 547c a53c
00000150: 0a00 2abd 952c 30bc 536a 693c f0b6 e6bc
00000160: 6192 0abd 0a61 5b3d ca02 273b f0d0 173d
00000170: c5d1 54bd 8044 07bc f2e8 84bd 8cf5 e73c
00000180: 55a4 eabc d443 7cbd bef1 003d 028c 50bd
00000190: efd5 80bd 180d f33c b231 14bd 969d 07bc
000001a0: 0853 21bd 9f24 953c 8c86 40bd 40f4 8e3c
000001b0: c8ad bd3c 3845 3ebc 60e3 883c 48a0 d4bc
000001c0: f652 6ebd 6866 c23c 5187 83bd 45b1 a8bb
000001d0: 008f 4b3b 661b 2e3d f4ae 94bc a23b 203d
000001e0: 94a8 4cbd b064 3abc 30eb 6a3d 969c 15bd
000001f0: 446f fc3c e4f4 05bd 7ce8 323d d6cb 56bd
00000200: e89e 3f3c 92aa 7bbd 704e abbb f398 9c3c
00000210: c9dd 1fbd e42b 69bd 80f9 f63a d031 b73c
00000220: a40f 88bc 1e5a 27bd 596f 1c3c cc71 7e3d
00000230: c6c6 7fbd e317 61bc a0b3 c83c 04f9 90bc
00000240: f0cb 063d 9ac3 a43c 6d44 f3bb f620 4ebd
00000250: c8e7 303d a436 87bd d08f 7e3c 4e69 003d
00000260: 2e1c 6e3d c074 8d3b d434 a63c f1b2 c53b
00000270: c017 d8bb 1626 59bd 369e 693d cebb 78bd
00000280: 2823 b03c 8e3d 5c3d 3e20 5bbd 66fe 1fbd
00000290: b57d 0e3d f04a 2d3d 0821 093d 1ca6 953c
000002a0: 7897 5ebc 8e63 383d 1f67 4abd e826 b73c
000002b0: 4004 a43b 3880 67ba 9853 46bc 08f1 8fbc
000002c0: b7a0 153b 272c 47bd de71 aabc f34f 0b3d
000002d0: e033 b13c d40c 833c 9091 083c 0e33 773d
000002e0: 2cfa 6dbd b50b 033c 4c04 ef3c c4a3 85bc
000002f0: 5155 bf3c f6ed 2cbd dd56 a0bc 4c0e fb3c
00000300: c501 e83c 8a6e 58bd 2233 58bd e0f7 313d
00000310: 9c45 0abd b859 2f3d 52d7 fabc 6082 77bc
00000320: 7668 0cbd d478 6d3d b07e fe3b 1019 08bd
00000330: 8027 603c d0e1 4d3d 00d4 c4ba 968f 813c
00000340: 407b 85bb 62d7 5a3c eb15 2f3d 00cc 653a
00000350: 3a68 693d 9885 b0bc 06d4 363c 6070 0ebc
00000360: de1c 5ebd f0ae f1bc 8737 043d 2a6b 4c3d
00000370: b30d 87bc 10f9 d4bc 15e4 bbbc f865 dfbc
00000380: 4624 4d3d f82c 24bc 7822 9cbc 6661 273d
00000390: 66cd 0fbd 00a5 113a 6485 4c3d 94a4 e83c
000003a0: 74db f03c 0002 1e3c e43a 5ebd 22d7 6abd
000003b0: e7f8 bbbc 004f 433b 0f07 303d 7871 2cbc
000003c0: 19d9 e7bc 473c 2c3d e0a6 eb3b 6657 22bd
000003d0: 00db 66bd 3082 af3b a913 4fbd 16dc 013d
000003e0: 2f54 5cbd cba6 043d c0d7 51bb b23c bbbb
000003f0: eb50 b53c 696d 003d 9039 75bd 9bb7 8bbd
-0.02373033 -0.019602735 -0.033122055 0.04506843 0.002060449 0.0015496835 0.02780558 0.009844266
-0.0637589 0.03924653 0.028783835 0.05265995 0.048923567 0.03666783 -0.05283038 0.037300464
-0.062388316 0.037339732 -0.05675168 0.019719837 0.045320805 0.030856308 0.0061614504 0.0488118
0.050129116 0.02884274 0.045133494 0.032691203 0.04318129 0.0005236717 -0.028060129 -0.018435061
-0.012854416 0.0018885657 0.05461297 0.053041272 0.029322723 -0.026651064 -0.014471956 -0.024420619
-0.043228716 0.04186726 -0.024398066 -0.0043603145 -0.017272629 0.0078032464 -0.003968738 -0.040074
-0.034350857 0.013881381 -0.021589296 0.040758178 -0.035373747 0.031391695 0.04844549 -0.048945285
0.002800198 0.042501852 -0.020548902 -0.036871947 -0.06697683 0.025983967 0.0015458914 -0.017022485
-0.04104562 0.024480946 -0.02313635 -0.05184655 0.061706536 0.011498453 -0.0016799793 0.026126616
-0.013771392 -0.036559988 -0.033952404 -0.032767303 0.017866174 -0.001340203 -0.04576549 -0.02231355
-0.05574091 0.035977427 0.021230793 0.020200886 -0.041503944 -0.010752817 0.014246541 -0.028163403
-0.033831004 0.05355934 0.002548384 0.037064493 -0.051957864 -0.008256078 -0.06489743 0.028315328
-0.028642813 -0.061588123 0.031480543 -0.05091477 -0.062908046 0.02966933 -0.036180206 -0.0082773175
-0.039385825 0.018205939 -0.047003314 0.017450452 0.023154154 -0.011613183 0.016709983 -0.025955334
-0.058184586 0.023730472 -0.06422294 -0.0051480853 0.0031060576 0.042506598 -0.01814983 0.03911937
-0.049965456 -0.011376545 0.0573532 -0.036526285 0.030814774 -0.03270425 0.043678746 -0.052440487
0.011695601 -0.061441965 -0.0052278563 0.0191159 -0.03902987 -0.056926623 0.0018842667 0.02236262
-0.01660902 -0.040857427 0.009548032 0.062120244 -0.062445424 -0.013738605 0.024499714 -0.017696865
0.032909334 0.020112801 -0.0074239285 -0.050324403 0.043189794 -0.06602219 0.015537217 0.031350426
0.058132343 0.004316896 0.020288862 0.0060332944 -0.006594628 -0.053014837 0.057035647 -0.06072598
0.021501139 0.05376964 -0.053497545 -0.039060973 0.034787852 0.042307794 0.033478767 0.018267684
-0.013585918 0.045016818 -0.04941475 0.02235742 0.0050053895 -0.0008831057 -0.012104891 -0.017570987
0.002283139 -0.04862609 -0.02080625 0.034011792 0.021631181 0.015997328 0.008335486 0.060351424
-0.05809991 0.007998397 0.029176854 -0.016313441 0.023356112 -0.042219125 -0.01957267 0.030646466
0.028321156 -0.052839793 -0.05278314 0.043449283 -0.03375779 0.04281017 -0.03062025 -0.015106767
-0.03427931 0.05797656 0.007766567 -0.033227026 0.0136812925 0.05026418 -0.0015016794 0.015815537
-0.0040735304 0.013357015 0.042745512 0.0008766055 0.056984164 -0.021548077 0.011158949 -0.0086937845
-0.05422675 -0.029502362 0.032279518 0.049906887 -0.016486024 -0.025997669 -0.022935906 -0.027270302
0.05008342 -0.010020487 -0.019059405 0.04086437 -0.035107993 0.0005555898 0.0499319 0.02839879
0.029401518 0.0096440315 -0.05425538 -0.057334073 -0.022945834 0.0029801726 0.04297548 -0.0105251
-0.028301762 0.042049672 0.007191524 -0.03963413 -0.0563612 0.0053560957 -0.05055586 0.03170403
-0.05379122 0.03238563 -0.0032019466 -0.0057140226 0.022133311 0.03135434 -0.05986935 -0.06822129

lin3.bias f4 [128]
00000000: 8927 6bbd 2c96 083d 5237 62bd 91a3 5e3c
00000010: 2db6 df3c b57d 10bd 9494 033a eedc bd3c
00000020: b3ce 5c3c f2c2 09bd 88e0 69bd 4ea9 1cbd
00000030: 05c3 c93c 8b90 ac3c 687b b5bc 4cfe 413d
00000040: f5e6 eabb 9208 6dbd 3c7b bfbc 1a28 e03b
00000050: 7d49 cf3c bca2 36bd 6185 aa3c 18c4 973b
00000060: d38a 06bd 3469 983c fb5b 953d 8c53 923d
00000070: 43b5 42bd 8653 c53b 4cc8 023d 799a 973d
00000080: 35fc 25bd 8008 f53c fadd c8bb d493 413d
00000090: 5a79 6bbd a496 4e3c 3304 093d 37f0 58bc
000000a0: 28c0 e13c f055 cfbb 82a0 6b3c bbb8 87bc
000000b0: 20d2 16bc a40f 6bbd 5e75 333d b8e5 63bc
000000c0: 3dc6 2d3d 360e 313d 4798 8f3d 306a 2e3d
000000d0: f35b 1bbd 603c 2c3d b082 803d 537b 583d
000000e0: 5646 f2bc 8190 0ebd 48ca 3abd 9b99 593d
000000f0: 59ac 9b3c dbd6 46bd 5b27 193d 17f1 3abc
00000100: 0406 d9bc 0ff9 313d ea27 3cbd 2070 d4bc
00000110: 1f03 11bd 6460 18bd 6ce1 a73c e54c 0abd
00000120: c493 e9b8 b7be 11bc 6d09 61bc 79c8 9dba
00000130: ac75 773d ed9d 8c3d 875c b5bc e767 173c
00000140: d872 d53b 6f15 4e3d ca93 56bd cd20 993d
00000150: dfc8 64bc 74ad ee3c 647c 8a3d 0080 fdb9
00000160: 9d61 2d3d 8d70 633d c844 fabc e5f5 403d
00000170: d4ef 403d 184a 09bc c3e7 7c3d b23c 733d
00000180: d090 9bbb 14b4 c73c 0d0f 8e3b 1546 34bd
00000190: 9cb0 e4bc 7050 01bc 2275 ccbb 9c57 8f3c
000001a0: c11c cd3c ffd6 d5bc 623e 863d e716 07bd
000001b0: ed51 953d 0710 343d 06eb 823d ebbd 283d
000001c0: 0ec2 f53b b104 65bb 7f98 a43b 58c9 17bd
000001d0: 9ce7 0dbd c8c0 8e3a 004d a9bc 3bb8 6a3c
000001e0: 9dfb 513d b995 ed3c b7c1 d4bc 37b9 253d
000001f0: e03d 84bc 62f9 b93c dafd 43bc 5c14 59bd
-0.05741075 0.03334634 -0.05522854 0.013588802 0.027308548 -0.035276134 0.0005019393 0.023176637
0.013477015 -0.03363318 -0.057098895 -0.0382474 0.024629125 0.021065017 -0.022153571 0.047361657
-0.0071686455 -0.0578695 -0.023374192 0.006840718 0.025303597 -0.04458879 0.020815553 0.0046315305
-0.032847237 0.018604852 0.072929345 0.071448416 -0.047536146 0.0060219197 0.0319293 0.0740251
-0.040523726 0.02991128 -0.0061299773 0.04726012 -0.057488777 0.012609158 0.03345127 -0.013240865
0.027557448 -0.006327383 0.01438153 -0.016567579 -0.009205371 -0.057387963 0.043813102 -0.01390975
0.042425383 0.043226443 0.070114665 0.042581737 -0.037929486 0.042049766 0.06274927 0.052851986
-0.029574554 -0.03480578 -0.045603067 0.053125005 0.01900308 -0.048544746 0.037391048 -0.011410019
-0.026492126 0.04345041 -0.045936503 -0.025932372 -0.035403367 -0.0372013 0.020493232 -0.03376474
-0.00011137829 -0.008895568 -0.013735157 -0.0012037895 0.060414955 0.068660595 -0.022138847 0.009241081
0.0065139346 0.05031341 -0.052387036 0.074769594 -0.013963907 0.029135443 0.06762007 -0.00048351288
0.04232942 0.05552726 -0.030550376 0.047109503 0.047103718 -0.008379482 0.061744463 0.059384055
-0.0047474876 0.02437786 0.0043352903 -0.044012148 -0.027916245 -0.007892713 -0.0062395493 0.01749783
0.025038125 -0.026103495 0.06554867 -0.032980826 0.07291017 0.043960597 0.063924834 0.041196745
0.0074999398 -0.0034945423 0.0050230618 -0.03705725 -0.034644708 0.0010891194 -0.0206666 0.0143261505
0.051265348 0.029002057 -0.025971277 0.040459838 -0.016142786 0.022701923 -0.011962378 -0.05299793

lin4.weight f4 [64, 128]
00000000: 1f08 833b 7b06 123c f6d1 ffbc fb58 0ebd
00000010: c5b1 63bd 90db f2ba d247 963d aae5 9ebd
00000020: 8f82 ad3c 5e5b 98bc 2a0e 46bc 9984 bbbd
00000030: 8dd3 69bd 89a5 933d d275 87bd b6ca 953c
00000040: 4c24 7c3d f065 8ebd c008 76bd e83f e0bc
00000050: 52f0 8d3d 9e67 73bc 1d47 09bd 09be c03c
00000060: 4d6c 5e3d 1ee6 6c3c 8726 b8bd e899 053d
00000070: 32a4 483d c02b aebd d952 35bc 5a56 01bd
00000080: 4a31 f43c 8351 153c 6ded a1bd f5f9 4e3d
00000090: 30a6 e4bc 10fd b23b 31a3 16bd eca1 32bd
000000a0: d80a e038 47b7 58bd a7cb 683d 3eb5 a43d
000000b0: cd96 61bd 104d 5abc 0311 2f3d 2e38 883d
000000c0: d828 873c dea8 663d 472f 9fbd 7a44 56bd
000000d0: 9601 ad3a c03e 8f3d 89c0 c3bd ec41 45bd
000000e0: c225 8f3d 5434 31bd 560c 703d e954 8cbc
000000f0: 8fb0 853d c500 6e3d d691 90bd 34d3 a9bd
00000100: 9e1e e53c 32d9 433c 49d9 ba3d de6b 7dbd
00000110: 7270 18bd 6ae8 523d 0774 65bd e0d2 98ba
00000120: 9715 07bd 7850 3bbb 2115 76bd cbf9 09bd
00000130: 5087 f3bc 3dc5 d6bc 4cf1 7c3d 2525 783d
00000140: e289 a9bd 80f3 f83c fd94 9b3d ba7f 3f3c
00000150: ceca 84bc ced7 97bd cac1 be3d 9a49 0ebd
00000160: 2dee 723d caea bfbd 78ed ea3c 008f 0abd
00000170: c1f7 81bd cd17 97ba 1922 eabc 5c89 81bd
00000180: 0519 4f3d 3f5c 5f3d ae62 903d 93c1 a6bd
00000190: c1cd 87ba 3147 a1bd ad11 62bd f876 7a3d
000001a0: 7c43 ebbc dfc3 a7bb 6632 8dbc 255d 4c3d
000001b0: 15ae b43c 1e97 5dbd 7613 0ebc 533e a1bd
000001c0: 9810 b23b 4d6e 453d 80c6 31bd 8f0e 733c
000001d0: 1c4c 1fbc b125 5e3d 1414 42bd 1f94 273d
000001e0: d0d1 73bd a5a1 a73d 043b ef3c ec72 a6bd
000001f0: 570e 1abd 4efd babd 78ee 123d e780 27bd
00000200: 75f6 d93b a1d0 a9bc f9c1 4cbd 2b01 573d
00000210: fbaa 573d 3fbe 9abd b176 a03b d7b4 1a3b
00000220: d989 f9bc 391b a13d 8ea5 eb3c a65a c73c
00000230: 086c dbbb f5e2 e03c 4ce9 423d 263c 92bd
00000240: 1a0b 863c 7f77 ab3d 0ac3 1cbd b71d b4bd
00000250: b72b b8bc 4a3c aabd b54d 4ebc 05a9 49bd
00000260: 8640 48bd 7d8f 97bd 6288 efbc 0f8a 39bd
00000270: cb9f b8bd 60a2 423d 595c 88bd 892d fc3c
00000280: 1042 0b3d eb40 393d e7a6 c4bd bf95 c6bd
00000290: 59ad a23d bcc1 2dbd 100b b53c 4e20 d03b
000002a0: 6a44 a83c 8584 043d a478 99bd c4a2 1b3c
000002b0: 1df6 573d b133 1b3c 180a a4bd 1bc5 8fbd
000002c0: 5ab8 b0bb 36d8 cdbd 1fee 74bd 3b55 7e3d
000002d0: 3673 88bc 6a69 953c dda9 9cbd b5e8 843d
000002e0: f344 00bd 735c cebd 7805 de3c 455b 92bd
000002f0: 18a4 813d d162 b23d 00fa f63c e58c 32bd
00000300: d1cf e03c 6b3b 853d 8172 e23c 8c92 b1bd
00000310: 0028 363d 4d34 14bd 4c0f 7a3b c082 85bd
00000320: a734 773d 1951 513b fae6 203d 2d11 303d
00000330: 6950 b8bd 25e1 bfbd 1715 ac3c ace0 2f3d
00000340: 0143 a73c 5aa6 b2bc 4aff f83c 7dcd cabd
00000350: a553 7a3c 888d 823d 9728 d4ba f733 abbd
00000360: 5a3a 75bd ac5e dcbc 4892 9a3d 4b87 3cbd
00000370: 55e8 9a3d 10ca ab3d 0890 a93c ba98 4cbc
00000380: 74b8 2d3d d5db 953d e995 a4bd 45b8 163d
00000390: f255 ec3c e6aa a33d 6e72 d7bc 39fa 06bd
000003a0: 0172 913d 0a23 7cbb ad36 873c 49d2 603d
000003b0: 9752 a03c a68c 823d 7f9b 34bd d6c7 95bd
000003c0: 6655 13b9 2576 883b 62b7 133d 0a33 b4bd
000003d0: ad22 8f3d e171 783c 48cc 803c 317a 413c
000003e0: 4c4a 2bbd 280f babd a1d0 b63d 4303 3ebd
000003f0: 6ddd aabc 0ba0 f9bb ccfe bc3c f7ba 9cbd
0.003998771 0.008912678 -0.031228047 -0.034752827 -0.055589456 -0.001852857 0.073379174 -0.07758649
0.02118042 -0.018598255 -0.012088338 -0.0915615 -0.057086516 0.07209308 -0.06614269 0.018285137
0.061558053 -0.06953037 -0.06006694 -0.027374223 0.06930603 -0.014856247 -0.033515085 0.023528116
0.054302502 0.014459161 -0.089917235 0.03261748 0.048984714 -0.085044384 -0.011067116 -0.031576492
0.02980866 0.009113672 -0.079066135 0.050531346 -0.027911276 0.0054622963 -0.036776725 -0.043611452
0.00010683172 -0.052909162 0.056834843 0.08042382 -0.055075455 -0.013324037 0.042740833 0.066513404
0.016498968 0.056313388 -0.07772689 -0.052311398 0.0013199325 0.069943905 -0.095582075 -0.04815857
0.069896236 -0.043262795 0.058605514 -0.017130332 0.065278165 0.058106203 -0.07059066 -0.08292237
0.027968701 0.011953639 0.09123475 -0.06187045 -0.03721661 0.05149118 -0.056018855 -0.0011659525
-0.032979574 -0.0028581899 -0.060078744 -0.033685487 -0.029727608 -0.026217097 0.061753556 0.0605823
-0.08278252 0.030389547 0.07596777 0.011688167 -0.016209986 -0.07414208 0.09314306 -0.03473816
0.059309173 -0.09370954 0.028677687 -0.03382778 -0.063460834 -0.0011527479 -0.028580712 -0.06325027
0.05056097 0.054531332 0.07050072 -0.0814239 -0.0010361002 -0.07874907 -0.05519264 0.061148614
-0.028718702 -0.005119785 -0.017235946 0.049893517 0.022055665 -0.054099195 -0.008671632 -0.078732155
0.005434107 0.048200894 -0.043402195 0.014835014 -0.009722736 0.054235164 -0.04738243 0.040912744
-0.059526265 0.08185128 0.029202946 -0.08127388 -0.03761133 -0.09130345 0.035871953 -0.040894415
0.0066516944 -0.020729365 -0.049989674 0.05249135 0.052653294 -0.07555818 0.0048969616 0.0023606324
-0.030461239 0.078665204 0.028765466 0.024335217 -0.006696228 0.027451972 0.04758577 -0.07140379
0.016362716 0.083724014 -0.03827194 -0.0879473 -0.022481782 -0.083122805 -0.012591769 -0.049233455
-0.04888966 -0.07400415 -0.029239837 -0.04529768 -0.09014853 0.047518134 -0.06658239 0.030783432
0.03399855 0.045227926 -0.096021466 -0.096965306 0.0794322 -0.042421088 0.022100002 0.0063515073
0.020540435 0.032352943 -0.074937135 0.009499256 0.052724946 0.009472773 -0.08009738 -0.07020017
-0.00539307 -0.100510046 -0.059797402 0.062093 -0.0166565 0.018238742 -0.07649586 0.06489698
-0.031315755 -0.10076227 0.027102217 -0.071463145 0.063301265 0.08710254 0.030148506 -0.0435914
0.027442845 0.06505474 0.02764249 -0.0867053 0.04447174 -0.03618269 0.003815609 -0.06519079
0.060352948 0.0031939207 0.039282776 0.04298513 -0.08999712 -0.09369115 0.02100615 0.042938873
0.020417692 -0.021807838 0.030395169 -0.09902475 0.0152787315 0.06374651 -0.0016186413 -0.08359521
-0.0598701 -0.026900612 0.07547432 -0.046027463 0.07563845 0.0838815 0.020698562 -0.012487585
0.042412236 0.0731732 -0.080364056 0.036796827 0.028849576 0.07991581 -0.026299682 -0.032953475
0.07101823 -0.0038473033 0.016505564 0.054888044 0.019570632 0.06374483 -0.044093605 -0.07313506
-0.00014050826 0.0041644746 0.03606356 -0.087987974 0.06989036 0.01516387 0.015722409 0.011808918
-0.041818902 -0.09084922 0.089265116 -0.04638983 -0.020857537 -0.0076179556 0.023070715 -0.07652848

lin4.bias f4 [64]
00000000: b0cb 433d 0808 d5bd 019c afbb 8aa7 543d
00000010: 4f2a a3bd 4218 a33c 3430 dd3b 2fd6 80bc
00000020: 0601 aa3d 1ec5 44bd bc6a 2f3c 57c3 8d3d
00000030: 1c2b a8bc adfb 873d 9197 dcbb ef31 23bd
00000040: b4e5 583c 34a6 97bd bcaa 9ebc ce8b 31bd
00000050: ffc3 d8bd 4aa4 b8bd 8b64 5fbc a2eb 7f3d
00000060: de85 0c3d a43e dfbc c3b5 a2bd 2075 cfbd
00000070: 5539 513d bd76 e83c d8c2 8abc f85e d03c
00000080: 26ed e7bc b7eb 5b3d 539f aa3d e68b a43d
00000090: a6b7 0c3d 1a8d 83bd 06d2 37bd b850 4e3b
000000a0: 20e3 a33c 1189 b53d aabe 8d3d 1d8e a9bd
000000b0: 48ce 5f3c fb8c 333d 20fa 27bd b8c1 85bd
000000c0: 592c 34bd c2eb 48bd 32bb 4cbc f398 e439
000000d0: 1c87 463d 4c23 203d 73d4 ca3c ee2f a1bd
000000e0: 3d95 04bd 12fa 033d fd91 51bb 6b98 a4bd
000000f0: 6d78 99bc 9d93 bf3d 6859 13bd eb8f 123c
0.047801673 -0.104019225 -0.0053591733 0.05191759 -0.07967054 0.019909028 0.006750131 -0.01572713
0.083009765 -0.048039548 0.0107066 0.06922024 -0.020528369 0.066398 -0.0067319353 -0.039842542
0.013238359 -0.074047476 -0.019368522 -0.04334622 -0.10584258 -0.09015711 -0.013634811 0.062480576
0.034307353 -0.027251549 -0.079448245 -0.10129762 0.051080067 0.028376931 -0.016938612 0.02543591
-0.028311323 0.053691592 0.0833117 0.08034496 0.03435483 -0.06423397 -0.04487803 0.0031481218
0.020005763 0.08864034 0.06921132 -0.08279059 0.013660021 0.04383562 -0.041010022 -0.065310895
-0.043987606 -0.04905296 -0.012495803 0.00043601505 0.048468694 0.03909616 0.024759507 -0.0787047
-0.032368887 0.032220908 -0.0031977885 -0.08036884 -0.018734181 0.09354327 -0.035973936 0.0089454455

lin5.weight f4 [19, 64]
00000000: c00d 83bc bf56 643c 31d8 d03d 0c56 d93d
00000010: e1a6 d33d c28d 99bd 7f1b f23d 0397 7cbd
00000020: ef5f 163b 2403 3b3d 07ac e5bd a71d 233d
00000030: 86c8 b8bd 4ac1 c33d e44a 2abd 3dcd 913d
00000040: 80bc 09be 41ab 8fb8 cc9f 993d a54d cdbc
00000050: 88a8 7abd b949 dd3c c3a3 523c 4344 1abd
00000060: fb56 003e 752c 2b3d b241 3a3b 0bb2 a43c
00000070: 1a66 153d 16aa 203d b809 073e 13fe 79bd
00000080: e4fb 143d af05 71bc fdfa 5e3d 8a41 ddbd
00000090: 6863 c7bd 17ad 7cbc dc07 a3bd 1e06 803d
000000a0: 4892 493d abc2 afbd 097d 4bbd cba9 7cbd
000000b0: 749f e33d 2516 b33d 2ef7 413d a7f2 8abb
000000c0: f69a d5bc 433e bd3c a118 be3c c18c 8fbd
000000d0: c938 a93b 753b 483d e2ea c63d 6745 953d
000000e0: ddc2 52bd d048 55bd 5501 9b3d 56b6 98bd
000000f0: 262a a0bd d27d 113d 2849 f93c 80a3 b5bd
00000100: 9e7c b8bd 8837 fcbd eb81 043e cf79 babd
00000110: 2663 e1bc 1abe edbd f71b 16bd 9b2b 67bc
00000120: 4cd5 fc3d 01c0 d0bd 0d00 c4bd d1dd 523d
00000130: 9074 893c 6c4f 13bd f59f f0bc 8f62 cc3d
00000140: 0351 61bd 3725 ae3d 4161 cfbd ccdd d03d
00000150: 1682 68bd ab79 4b3d d2b7 1ebd 03bd 96bd
00000160: 9c2c f0bc a774 423d 4f28 e4bd d6fb 19be
00000170: 15b5 a6bd 0539 9e3d 37f3 d13d 9d0c f03d
00000180: 8e42 af38 a9fe d83d 8f7b c43d 072d d73d
00000190: fffb c13d 3506 e33d e728 813d 00fd cebd
000001a0: b868 55bd eec0 92bc 1813 303c f3ee 8abd
000001b0: 2ae9 b13d 5772 0e3d b085 91bd 9348 913b
000001c0: ce85 28bd 7c13 3abd a8a2 eebc 3044 62bd
000001d0: 9687 5c3b 3005 4cbc b758 f83d fd4a 633d
000001e0: 838d 91bd bfef 4f3d 1951 b9bd 5442 25bd
000001f0: 9a3d 963d 21c1 9abd d655 2cbd b878 3ebd
00000200: 00b1 6b3d 7299 c23c 9af6 82bd f731 d83c
00000210: 1548 b83d 886f c63d 81b9 e43d ddf9 dd3a
00000220: b7d5 febc 4ce4 9cbc 6cbe 0cba 1aaf e83d
00000230: 3477 44bd 300f 0cbd 88da c9bd 72c6 99bd
00000240: 703a fcbc 13cc 2ebe 52f6 b2bd 7b1e 7dbc
00000250: a6c2 c9bd 97ad f5bd 5e0a c6bc 470b ac3d
00000260: 5a02 d13d a88e f53d fc3e 883d f7f6 62bd
00000270: 4a88 d3bd c5c7 23bd 1e92 4abd 1bf5 233d
00000280: b77a d2bd 3c5e 973c 6dd3 81bd bd6f 313c
00000290: 52b6 0cbe e9cb fabc 9731 ae3c 4fdf b9bd
000002a0: 2e6f 64bd 23ad aabd 3a0b 91bc 1e78 dbbd
000002b0: 4759 c8bb 01d4 f33c 862d 1ebd d9eb f2bd
000002c0: b8d8 a53d 4cd1 a6bd c3c3 9b3b d59d 853d
000002d0: f9db 1c3d 6049 213d 5755 b1bd 2105 7f3d
000002e0: 5ef8 ee3d aed6 233d d934 9d3c 3c16 5a3e
000002f0: 59ed b2bd 391e 673c efbc fb3c 826e 1f3e
00000300: 8596 1a3c f7dc 37bc bc85 433d cecb 6dbc
00000310: 2b60 9e3c bdb1 27bc 79bf 4a3d d58e b7bc
00000320: 4f8d cb3d 5d19 06be b2b0 5b3d e126 27bd
00000330: 8ef5 84bd 61f1 c03d 6740 503d 75ac 663d
00000340: 111c fa3d d006 95bc ccfe 6bbd 627c 013d
00000350: d82c 97bd aa1a cf3c 8e56 09be b4dd 933d
00000360: da41 a33d 3a90 fe3d ff20 4d3c efc5 50bd
00000370: e955 a3bc cd36 39bc 60ec 613d 5973 e33d
00000380: abc9 c7bd 7133 823d f918 64bd 173b 843a
00000390: 3268 65bb b076 863d 62ea 5abc 5429 4bbd
000003a0: 2734 ad3d 3a43 b23c 69b0 5fbd 7841 023c
000003b0: 2d89 a43d 9183 ebbb d741 53bd 42e6 0ebe
000003c0: e0d4 1cbe 12c3 093d 575f 02be 35bc f93c
000003d0: aa86 b3bd 5578 b83d c202 8dbc 9b79 5bbc
000003e0: 3468 c63d fb2f 05bd c02d a3bd 875c 403d
000003f0: ebac 7f3d cd28 823d f810 383d fbee c63d
-0.015997767 0.0139366975 0.10197485 0.10612115 0.10334564 -0.07497741 0.11821651 -0.061667453
0.0022945364 0.045657292 -0.11214452 0.0398232 -0.09022622 0.09558351 -0.041575328 0.07119224
-0.13450813 -6.85067e-05 0.07501182 -0.025061438 -0.06119588 0.027012693 0.012856427 -0.037662756
0.1253318 0.041790444 0.0028420505 0.020104429 0.036474325 0.039224707 0.13187301 -0.06103332
0.036373034 -0.014710828 0.05443858 -0.10803516 -0.09735757 -0.015422127 -0.079604834 0.06251167
0.04921177 -0.08582052 -0.04967979 -0.061685365 0.11114398 0.08744458 0.04735487 -0.004240352
-0.026074868 0.023100978 0.023205103 -0.070092686 0.00516424 0.048884828 0.09712769 0.07288628
-0.051455367 -0.052071393 0.075686134 -0.07456653 -0.07820539 0.035520382 0.030430391 -0.08869076
-0.09008144 -0.12315279 0.12940185 -0.091052644 -0.027513098 -0.116085246 -0.036647763 -0.014109517
0.12345371 -0.10192872 -0.09570322 0.05148107 0.016779214 -0.035964414 -0.029373148 0.09979736
-0.0550089 0.08503192 -0.101259716 0.101985544 -0.056764685 0.04967658 -0.038749523 -0.0736027
-0.029318146 0.04747453 -0.11140501 -0.15037474 -0.081400074 0.07725719 0.10251468 0.11721156
8.357047e-05 0.105954476 0.095938794 0.10506635 0.094718926 0.11085168 0.0630663 -0.1010685
-0.05210182 -0.017914262 0.01074674 -0.06783857 0.08687051 0.03477701 -0.07105577 0.0044337003
-0.04114323 -0.045428738 -0.029130295 -0.05524081 0.0033650151 -0.012452409 0.12126296 0.055491436
-0.07107069 0.05076575 -0.09048671 -0.04034646 0.07335968 -0.07556368 -0.042074047 -0.046501845
0.057541847 0.023754809 -0.06394692 0.026391013 0.089981236 0.09689242 0.111681946 0.0016935427
-0.031107767 -0.01915183 -0.0005368951 0.11361523 -0.047965243 -0.03419417 -0.09856135 -0.075085536
-0.030789584 -0.17070036 -0.08738388 -0.015449162 -0.09851579 -0.11996 -0.024174865 0.084005885
0.10205527 0.119901 0.06652638 -0.055411305 -0.103287295 -0.039985437 -0.049455754 0.040028673
-0.10277312 0.018477552 -0.063391544 0.010829863 -0.13741425 -0.03061481 0.02126388 -0.09075796
-0.05577009 -0.083338045 -0.017705549 -0.1071627 -0.0061141583 0.029764177 -0.038617633 -0.118613906
0.080979764 -0.08145389 0.004753561 0.06524245 0.03829572 0.039376616 -0.086588554 0.06226075
0.11668466 0.039999656 0.019190239 0.21297544 -0.08736677 0.014106327 0.030729739 0.15569499
0.009435301 -0.011222116 0.04773496 -0.014513923 0.019332966 -0.010235247 0.04949901 -0.022406975
0.09939062 -0.13095613 0.053635307 -0.040808562 -0.06492148 0.094210394 0.05084267 0.05631681
0.122123845 -0.018191725 -0.05761604 0.03161276 -0.073816 0.02528127 -0.13411924 0.07220021
0.079715446 0.12429853 0.012520074 -0.050970014 -0.019938426 -0.011304569 0.055157065 0.11105985
-0.09755262 0.06357468 -0.05568788 0.0010088411 -0.0035004732 0.065656066 -0.013361545 -0.04959996
0.08457213 0.021760572 -0.054611597 0.007950179 0.08033977 -0.007187315 -0.05157646 -0.13955024
-0.1531558 0.0336333 -0.12731682 0.030485252 -0.087659195 0.090073265 -0.01721323 -0.013395692
0.09687844 -0.03251646 -0.079677105 0.04696324 0.062420767 0.063554384 0.044938058 0.09713551

lin5.bias f4 [19]
00000000: fe1a 70bd 6377 8c3d 446e 013d d207 c1bc
00000010: 3726 82bd 5483 40bd 903c 753b aa92 953d
00000020: d629 fa3d ef8b 3dbd 3c54 613d a237 87bd
00000030: ef1a fb3d ac6b dd3d 10bd f9bc 8849 16bd
00000040: 933b cabc fa51 4a3d db86 3f3d
-0.05861949 0.06858709 0.031599298 -0.0235633 -0.06354945 -0.047000244 0.0037420131 0.073033646
0.12215011 -0.04627603 0.055011973 -0.06602408 0.122609966 0.108115524 -0.03048566 -0.03669122
-0.02468661 0.049394585 0.046759468
