src/virtuose_teleoperation/network_controller/trained_policy_MLP/BC_AHEE_epoch_410.pth (torch, 492807 bytes, 10 tensors)

lin1.weight f4 [256, 55]
0	0xbd622060	-0.055206656
1	0xbce955e2	-0.028483335
2	0xbc80f867	-0.015743447
3	0xbdd1c2db	-0.10242244
4	0x3d82b63a	0.06382413
5	0x3cb3d90e	0.021954086
6	0x3d0afeac	0.03393428
7	0x3d59e394	0.05319555
8	0xbddfe8fc	-0.1093311
9	0xbc3c77f5	-0.011503209
10	0x3d26c584	0.04071571
11	0x3e3addb6	0.18248639
12	0xbcdbfa08	-0.026852623
13	0x3d6af302	0.057360657
14	0xbdc58b9c	-0.09645769
15	0x3e12534b	0.14289586
16	0x3d835f53	0.06414666
17	0xbd907f49	-0.07055528
18	0xbd8a4e52	-0.0675322
19	0xbd4222b3	-0.047396373
20	0x3dc3c2a2	0.09558608
21	0xbd80298a	-0.06257923
22	0xbdabda0a	-0.08391197
23	0xbe1e54ea	-0.1546208
24	0xbda625d3	-0.08112683
25	0xbdb1ec4e	-0.0868765
26	0x3debdb60	0.11516452
27	0xbdc478d4	-0.09593359
28	0xbe145d1e	-0.14488646
29	0x3c98bb54	0.018644013
30	0x3ee02a45	0.4378225
31	0x3cad8d69	0.021185594
32	0xbea2b01d	-0.3177499
33	0x3ccd55f3	0.025065398
34	0xbee5ffa7	-0.4492161
35	0xbcf6c6eb	-0.030124148
36	0xbeb9e887	-0.36310217
37	0xbe3387c6	-0.17532262
38	0x3da6929b	0.081334315
39	0x3cec308f	0.028831748
40	0xbd9095eb	-0.070598446
41	0x3dd1d209	0.10245139
42	0x3e54e759	0.20791377
43	0xbdd9689e	-0.10615657
44	0x3c3e4f9a	0.011615658
45	0xbde568da	-0.112016395
46	0x3da00429	0.078132935
47	0xbd8aefac	-0.06783995
48	0xbdf20108	-0.11816603
49	0x3d6afe27	0.057371285
50	0x3d5fb7af	0.054618534
51	0x3d3c2981	0.04593802
52	0xbe11ba54	-0.14231235
53	0xbde31c26	-0.11089353
54	0xbe0e42cd	-0.1389267
55	0xbd17b0f9	-0.03703401
56	0x3d953312	0.072851315
57	0x3c4dac52	0.012553291
58	0x3ca84a01	0.0205431
59	0xbd32821f	-0.043581124
60	0x3dcf19c2	0.10112335
61	0xbde31c34	-0.11089364
62	0xbdd257d2	-0.10270657
63	0x3de1bc9a	0.11022301
64	0x3dda9062	0.1067207
65	0xbe06fb60	-0.1318183
66	0x3df1c745	0.11805586
67	0x3cb14480	0.021639109
68	0x3d6a5ae5	0.05721559
69	0xba24ca70	-0.0006286269
70	0xbcb574e8	-0.022150472
71	0xbde8de1e	-0.113704905
72	0xbcba1ddc	-0.022719316
73	0xbdbb73e5	-0.091529645
74	0x3dfcab7b	0.12337395
75	0x3c7eba05	0.01554728
76	0x3db42c5c	0.087975234
77	0xbd88e4ff	-0.066843025
78	0x3d8bd33d	0.068274
79	0xbd96d573	-0.07364931
80	0xbe14dc04	-0.14537054
81	0xbe449c73	-0.19200306
82	0x3e1e6e98	0.15471876
83	0xbe002c00	-0.12516785
84	0x3c9809cc	0.018559359
85	0xbd7487e6	-0.059699915
86	0xbd9ace94	-0.07558933
87	0xbc965560	-0.018351257
88	0xbe1771cf	-0.14789508
89	0xbd7ccb42	-0.06171728
90	0x3ae40775	0.0017397242
91	0x3e1aabd7	0.15104614
92	0x3d392163	0.045197856
93	0xbcedc897	-0.029026313
94	0x3d9a124b	0.0752302
95	0xbca7a713	-0.02046541
96	0x3de606c2	0.11231758
97	0xbd8125b3	-0.06306019
98	0x3d9357f2	0.071945086
99	0xbde2eaf9	-0.11079974
100	0x3dd69df3	0.10479345
101	0x3d8076b9	0.062726445
102	0x3d7f420a	0.06231884
103	0xbc0e4966	-0.008684492
104	0x3d8ffed1	0.07031024
105	0x3dc76ac2	0.09737159
106	0x3dd3409a	0.10315056
107	0x3da0101e	0.07815574
108	0xbdf8a528	-0.12140876
109	0x3d527120	0.051377416
110	0xbd5b4603	-0.053533565
111	0xbd04332a	-0.032275356
112	0xbc79531b	-0.015217568
113	0xbd406210	-0.04696852
114	0x3c54667d	0.012963888
115	0xbd2fbd38	-0.042905062
116	0xbd2fe099	-0.042938802
117	0xbd6bec30	-0.057598293
118	0xbd3f3fd6	-0.046691738
119	0xbe005cf2	-0.12535456
120	0x3d3dadc3	0.04630829
121	0x3de8fc40	0.11376238
122	0xbd428899	-0.04749355
123	0xbdb85a5e	-0.09001611
124	0x3cff756b	0.031183919
125	0xbd97e89f	-0.07417416
126	0xbd242f45	-0.040084142
127	0x3d8c3bc2	0.068473354
128	0xbdec7112	-0.11545004
129	0xbd93d118	-0.07217616
130	0x3d63696d	0.055520464
131	0x3cacb3b3	0.021081781
132	0x3d04f6f3	0.03246207
133	0xbce04c1e	-0.027380046
134	0xbd271368	-0.04078999
135	0xbe010417	-0.12599216
136	0xbcac12ab	-0.021004995
137	0xbaa22b9c	-0.0012372616
138	0x3e05d24c	0.13068503
139	0x3dcff36d	0.10153852
140	0x3dec7ea2	0.11547591
141	0x3d87a327	0.06622916
142	0x3d661be4	0.056178942
143	0x3d9edcbd	0.07756946
144	0x3d919f8f	0.071105115
145	0x3d89a99d	0.06721804
146	0xbde7e618	-0.11323184
147	0x3c34d611	0.0110373655
148	0x3d4b2dfa	0.049604394
149	0x3e08c7e9	0.1335751
150	0x3d4fbff3	0.050720166
151	0xbd86d85f	-0.06584238
152	0xbd188b05	-0.037241954
153	0xbd22635d	-0.03964554
154	0x3c6ded81	0.014521957
155	0xbda659f1	-0.08122624
156	0xbdcb163d	-0.09916351
157	0xbd27c952	-0.04096348
158	0x3dc0cb80	0.094138145
159	0xbdaee6cd	-0.085401155
160	0x3bc44e2e	0.005990765
161	0x3dc71d92	0.09722437
162	0xbdf15b09	-0.11784942
163	0x3d8dabd9	0.06917543
164	0x3def84b0	0.1169523
165	0xbdfa55d0	-0.12223399
166	0x3dd7e2f7	0.10541337
167	0xbdf17847	-0.11790519
168	0x3df34c6f	0.11879813
169	0xb82aa3d6	-4.0683743e-05
170	0x3d930c56	0.07180087
171	0x3b6194fe	0.0034421082
172	0x3df906d8	0.121595085
173	0xbd81afa6	-0.063323304
174	0xbd3471a1	-0.044053677
175	0x3dd56670	0.10419929
176	0x3d99053a	0.074717
177	0x3db1d4c1	0.08683158
178	0xbce5cd88	-0.028052106
179	0xbdb6d366	-0.0892704
180	0xbe0957fe	-0.13412473
181	0xbd1d5dc8	-0.038419515
182	0xbdcc2f02	-0.099699035
183	0xbbbd08fc	-0.0057688933
184	0xbdaba398	-0.083808124
185	0xbd897ebc	-0.06713626
186	0x3d9df930	0.07713544
187	0x3dfe0e95	0.12405125
188	0xbc0c03b3	-0.008545804
189	0x3dbfa899	0.09358329
190	0x3d8d4121	0.06897188
191	0x3d8aee10	0.06783688
192	0x3d6e65bb	0.058202486
193	0x3c6634e3	0.014050695
194	0x3dffd6e6	0.124921605
195	0x3d762960	0.060098052
196	0xbdaf1ac1	-0.08550025
197	0xbd70dd23	-0.058804642
198	0xbd974411	-0.073860295
199	0xbdf29ea9	-0.11846668
200	0x3da05a26	0.078296944
201	0xbe085541	-0.13313772
202	0xbdd10e77	-0.10207837
203	0x3c450ecd	0.012027455
204	0x3d8fefb8	0.070281446
205	0x3e005a16	0.12534365
206	0x3dd43e3f	0.10363435
207	0xbba4fafb	-0.005034802
208	0xbe03466e	-0.12819836
209	0xbdbd9538	-0.09256977
210	0x3cf011bb	0.02930533
211	0x3d18f788	0.03734544
212	0x3e09675c	0.13418335
213	0x3d86013e	0.06543206
214	0x3bfcd871	0.0077162315
215	0xbe075459	-0.1321577
216	0xbd12e5ac	-0.035863563
217	0x3d4024d4	0.046910122
218	0xbdff4568	-0.1246441
219	0xba805a58	-0.000979255
220	0xbd599f8f	-0.053130683
221	0x3d0c37b5	0.034232814
222	0x3d4d0147	0.050050046
223	0xbcbc9bc3	-0.023023492
224	0x3db68a00	0.0891304
225	0xbdab1c14	-0.08354965
226	0xbcd22267	-0.02565117
227	0x3d835688	0.06412989
228	0xbb952f01	-0.0045527224
229	0xbd9fc052	-0.07800354
230	0xbc150024	-0.009094272
231	0x3dea7b8c	0.11449346
232	0xbd9e663c	-0.077343434
233	0x3d977f15	0.07397286
234	0xbd6a46ce	-0.05719643
235	0x3cb4ee10	0.022086173
236	0xbd7e5b1c	-0.062098607
237	0xbdc57899	-0.09642143
238	0xbd7c83b0	-0.061649024
239	0x3decdb52	0.115652695
240	0xbd043d66	-0.032285117
241	0xbe0f4ffb	-0.13995354
242	0x3d8221ad	0.063540794
243	0x3ccc1c70	0.024915904
244	0xbdb44503	-0.088022254
245	0x3ddbb191	0.107272275
246	0xbe673fda	-0.22582951
247	0x3ced7ee6	0.028991174
248	0xbd413231	-0.047167007
249	0x3d897190	0.067111135
250	0x3dd8d230	0.10586965
251	0xbc3ad9e8	-0.011404492
252	0x3e1e8902	0.15481952
253	0xbde81c54	-0.11333528
254	0x3dbaec13	0.09127059
255	0xbdb25216	-0.08707063

lin1.bias f4 [256]
0	0xbc2d1bde	-0.010565726
1	0x3c8b2e28	0.016989782
2	0xbcd087c0	-0.025455356
3	0xbd72df51	-0.059295002
4	0x3d8335cb	0.064067446
5	0x3c8f21d2	0.017472181
6	0xbc67a1a8	-0.014137663
7	0xbd832b7a	-0.06404777
8	0x3de16567	0.11005669
9	0xba068986	-0.0005132187
10	0xbd92a6ab	-0.07160696
11	0x3d3719a6	0.044702195
12	0x3ded6fec	0.11593613
13	0xbd200d2a	-0.039075054
14	0xbda01682	-0.07816793
15	0xbd5e86f6	-0.054327928
16	0x3c830c0a	0.015996952
17	0xbd629694	-0.055319384
18	0x3c06defd	0.0082318755
19	0x3e035772	0.12826326
20	0xbcbd8e9d	-0.023139292
21	0xbd52bcbe	-0.05144953
22	0xbc9571ac	-0.01824268
23	0xbd9b4339	-0.07581181
24	0xbd7dc29c	-0.061953172
25	0xbb38e53a	-0.0028212802
26	0x3d1d2e2f	0.038374122
27	0xbd3db32b	-0.046313446
28	0xbd018729	-0.03162304
29	0x3d140a52	0.036142655
30	0xbdd2499c	-0.10267946
31	0x3d76b3fd	0.060230244
32	0xbd906c88	-0.07051951
33	0xbdaab4dc	-0.083352774
34	0x3d889f0b	0.0667096
35	0x3cb234ad	0.021753633
36	0xbdaf8f2a	-0.08572228
37	0x3d4e9d4f	0.05044299
38	0xbdaf3b6a	-0.08556254
39	0xbd945f21	-0.07244707
40	0xbdf2c471	-0.118538745
41	0xbd65db3d	-0.056117285
42	0x3e0711fe	0.13190457
43	0xbd5a3f0f	-0.053282794
44	0xbe110cd3	-0.14165048
45	0xbd4d5871	-0.050133172
46	0x3df8bd10	0.12145436
47	0x3e013fdc	0.12622017
48	0xbd6de0db	-0.058075767
49	0x3d54d692	0.051962443
50	0xbd8c00e2	-0.06836106
51	0x3da013d5	0.07816283
52	0xbcfd798a	-0.030941743
53	0x3dd8c66e	0.105847225
54	0x3d88bd34	0.06676713
55	0x3d740cf3	0.05958266
56	0x3db75779	0.08952231
57	0xbd807c32	-0.062736884
58	0x3d933e73	0.071896456
59	0xbde247a1	-0.110488184
60	0x3e044753	0.12917833
61	0xbe095c56	-0.1341413
62	0x3bc073bb	0.005873171
63	0xb8b2614a	-8.505823e-05
64	0xbc8be232	-0.017075632
65	0xbd5b8df8	-0.05360219
66	0x3ddadbc0	0.10686445
67	0x3d7397ea	0.05947105
68	0xbd355007	-0.044265773
69	0x3d93c429	0.07215149
70	0x3dfc6c85	0.12325386
71	0x3c28518c	0.010273349
72	0x3d49e0ad	0.049286533
73	0x3d2ba7b1	0.04190797
74	0x3ceebded	0.029143298
75	0xbc2eb4d1	-0.010663227
76	0x3df56e13	0.119838856
77	0x3d98d611	0.07462705
78	0x3da9ed56	0.08297221
79	0x3de90b96	0.11379163
80	0x3d9abdf9	0.07555766
81	0xbb07a7db	-0.0020699415
82	0x3d960e40	0.07326937
83	0xbc8214eb	-0.015879115
84	0xbcb2e8c9	-0.021839516
85	0xbde52a3f	-0.111896984
86	0x3de53534	0.11191788
87	0x3d0ad44f	0.03389388
88	0xbd5680f0	-0.052369058
89	0xbd8072f2	-0.06271924
90	0xbca1e4a6	-0.019762348
91	0xbd0bb4e3	-0.034108054
92	0xbdb0a246	-0.08624701
93	0x3e0dbde1	0.13841964
94	0x3dfeb59b	0.12436982
95	0xbdcbaa5a	-0.09944601
96	0x3dab7045	0.08371023
97	0xbdf1106b	-0.117707096
98	0xbda997b9	-0.08280892
99	0x3c476695	0.012170454
100	0xbda5f320	-0.08103013
101	0x3df76bfc	0.12081143
102	0xbdcafebe	-0.099118695
103	0xbdab9e89	-0.083798476
104	0x3bf610f1	0.007509344
105	0x3c0ea54b	0.008706401
106	0x3c86e4f7	0.0164666
107	0x3dfc4bb4	0.12319127
108	0x3d5a08f3	0.05323119
109	0xbdcf559f	-0.10123753
110	0xbdf59bff	-0.119926445
111	0xbd158302	-0.036501892
112	0xbb82a468	-0.003986884
113	0xbda94c29	-0.082664795
114	0x3c7b158a	0.0153249595
115	0x3d498026	0.049194477
116	0x3c87d642	0.016581658
117	0x3d0ad2c7	0.03389242
118	0x3b980f35	0.0046404847
119	0x3b77621f	0.0037747694
120	0x3bbbb239	0.005728033
121	0x3d9ccb7f	0.07656001
122	0x3db61ae3	0.08891847
123	0xbdea791d	-0.11448882
124	0xbd4b28ae	-0.049599342
125	0xbd864b77	-0.065573625
126	0xbe08db81	-0.13364984
127	0x3d0f0a0e	0.0349217
128	0xbd2f4daa	-0.042798676
129	0xbdb94ac5	-0.09047464
130	0x3de2ecd0	0.11080325
131	0xbdd4107e	-0.10354708
132	0xbdcca225	-0.09991864
133	0x3df2a9e7	0.118488126
134	0x3d93e63d	0.07221649
135	0x3c5896bf	0.013219534
136	0x3c8b66ca	0.017016787
137	0xbc12599f	-0.0089325
138	0x3c6eb18d	0.014568699
139	0x3e0380f2	0.12842157
140	0xbdab58a5	-0.08366517
141	0x3d876c4c	0.06612453
142	0x3dfcfd75	0.123530306
143	0xbda305f3	-0.07960119
144	0x3d472649	0.048620496
145	0xbc96649f	-0.018358527
146	0x3dbce962	0.09224202
147	0x3d824212	0.06360258
148	0xbddb1864	-0.106980115
149	0xbd2f4c61	-0.04279745
150	0x3dd091fa	0.10184093
151	0x3defaffa	0.11703487
152	0x3da35605	0.07975391
153	0xbcb38ad5	-0.021916786
154	0xbd540f7f	-0.05177259
155	0xbceecee2	-0.029151384
156	0xbdf70383	-0.12061217
157	0x3d93adc5	0.07210878
158	0x3e0935a4	0.13399369
159	0x3db2bc97	0.08727377
160	0x3dd985cb	0.10621222
161	0x3d3e5972	0.04647202
162	0x3d725d48	0.05917099
163	0xbc0b6527	-0.008508003
164	0xbde1c7aa	-0.11024411
165	0xbdc1dea6	-0.09466295
166	0x3de6ceaa	0.11269887
167	0x3be5ecce	0.0070167547
168	0xbdeb9587	-0.115031295
169	0xbc410e63	-0.011783215
170	0xbdf9d54d	-0.12198887
171	0xbe00dbe0	-0.12583876
172	0x3db8cba9	0.0902322
173	0x3d2aad13	0.041668963
174	0x3d2ad20b	0.04170422
175	0x3d632f26	0.055464886
176	0x3d68fe1f	0.056882974
177	0xbde5e073	-0.11224451
178	0xbda565c4	-0.08076051
179	0xbdc6da81	-0.09709645
180	0xbd4123cf	-0.04715329
181	0xbdae2fc8	-0.08505207
182	0x3c56379e	0.013074784
183	0x3e115d2e	0.14195701
184	0x3b357f28	0.00276942
185	0x3de99b37	0.11406558
186	0x3ce78cfe	0.028265473
187	0x3e15f5b7	0.14644514
188	0x3d562ce2	0.052288897
189	0x3d8066d8	0.06269616
190	0xbd286984	-0.041116253
191	0x3dde015d	0.10840104
192	0xbc83597b	-0.016033879
193	0x3cbe8efb	0.023261538
194	0x3d0316bc	0.032004103
195	0xbe07b3f0	-0.13252234
196	0x3dd7d958	0.10539502
197	0x3cf15a27	0.029461933
198	0xbc6f6e7b	-0.014613743
199	0xbd8a5a54	-0.0675551
200	0xbd89ef36	-0.06735079
201	0x3db47635	0.08811609
202	0x3c81bf74	0.015838362
203	0x3c9fdf5a	0.019515682
204	0xbdfec39d	-0.12439654
205	0x3c21e445	0.009881084
206	0xbdb0e3fa	-0.08637233
207	0xbd41c662	-0.047308333
208	0x3e08266e	0.1329591
209	0xbd3ab3f3	-0.04558177
210	0x3e094c0d	0.13407917
211	0xbdff9a59	-0.12480611
212	0x3da32d50	0.07967627
213	0x3db25d19	0.08709163
214	0xbde365cf	-0.11103403
215	0x3d063667	0.032766726
216	0x3c0255ea	0.007955054
217	0xbded3be8	-0.11583692
218	0xbd4066b2	-0.046972938
219	0xbdc261f1	-0.09491337
220	0x3e099cbd	0.13438697
221	0x3b13fb6a	0.0022580274
222	0xbdaa3083	-0.08310034
223	0x3da73fcf	0.081664674
224	0x3e1dd707	0.15414058
225	0xbcd4791e	-0.02593666
226	0x3c2396d4	0.009984691
227	0x3bbea6a9	0.0058182073
228	0xbcb7529f	-0.022378264
229	0xbd446bc5	-0.04795434
230	0x3d5976c8	0.053091794
231	0x3dffa806	0.1248322
232	0x3dba5648	0.09098488
233	0xbde24aef	-0.11049449
234	0xbdea2690	-0.114331365
235	0xbcd70409	-0.026247041
236	0x3dd32c19	0.10311145
237	0xbd7f20e4	-0.062287226
238	0x3de17455	0.11008517
239	0x3dc40f1b	0.09573194
240	0xbddb0057	-0.10693424
241	0xbe0f3bb5	-0.1398762
242	0xbe090cea	-0.13383833
243	0xbdfd7eb1	-0.1237768
244	0xbd8ef719	-0.06980724
245	0x3d45ce8c	0.04829268
246	0xbd69ccb2	-0.05707998
247	0x3d9bcb15	0.07607094
248	0xbcb56b2d	-0.022145832
249	0xbde7f161	-0.11325336
250	0x3d5ac7a7	0.05341306
251	0xbcc4a528	-0.024004534
252	0xbca538d6	-0.020168703
253	0xbe087034	-0.13324052
254	0xbd41f7eb	-0.047355574
255	0xbd1d3daa	-0.038388886

lin2.weight f4 [256, 256]
0	0x3cabcb1a	0.02097087
1	0xbd26fdd6	-0.04076942
2	0x3d449c96	0.048000894
3	0xbd361418	-0.044452757
4	0x3b34fea0	0.0027617589
5	0x3c5e24e1	0.013558597
6	0xbd1f25a1	-0.038854245
7	0x3d536b36	0.051615916
8	0x3d1e1b6a	0.038600363
9	0x3d969f3a	0.07354589
10	0xbd2a749e	-0.04161512
11	0xbc5b83c0	-0.013398111
12	0x3cf47cb1	0.029844614
13	0x3babe0f0	0.0052453205
14	0xbd10174e	-0.035178475
15	0xbde7a4d3	-0.113107346
16	0x3bbdde05	0.005794289
17	0x3e078659	0.13234843
18	0x3dad9c96	0.08477132
19	0x3cdf0a8f	0.027226714
20	0x3c181a08	0.00928355
21	0x3d632eb1	0.05546445
22	0xbc84b25c	-0.01619833
23	0x3d336db4	0.043805793
24	0x3bf1dba0	0.0073809177
25	0x3d1aa64d	0.037756253
26	0x3d2586dc	0.040411815
27	0xbbf97f4d	-0.0076140524
28	0x3dde1f95	0.108458675
29	0x3da60534	0.08106461
30	0xbd205b10	-0.039149344
31	0x3c811078	0.015754923
32	0xbade1b18	-0.001694533
33	0x3cd4ad17	0.025961442
34	0xbc3f5340	-0.011677563
35	0x3d7d458a	0.061833896
36	0x3d5ff184	0.054673687
37	0x39aabac5	0.0003256408
38	0xbd2f1c41	-0.042751554
39	0x3d8517de	0.06498693
40	0x3a761a80	0.0009388104
41	0xbbc49329	-0.005998988
42	0x3d89838f	0.06714546
43	0xbd9bd52b	-0.07609018
44	0x3bcef0c8	0.0063153245
45	0xbb9a4f90	-0.0047091916
46	0x3df4fc3c	0.119621724
47	0x3c4bb14e	0.012432409
48	0xbdeaf809	-0.1147309
49	0x3c9e4c31	0.01932344
50	0xbc37999d	-0.011206058
51	0xbc65a095	-0.0140153365
52	0x3d8a9f7f	0.06768703
53	0x3cc4e940	0.024037004
54	0x3c624b32	0.013811873
55	0x3d234de7	0.039869215
56	0xbd764337	-0.060122695
57	0xbc1279c1	-0.008940161
58	0xbd07c3a1	-0.03314555
59	0x3ce4abfd	0.027914042
60	0xbd1bdc5e	-0.038051955
61	0x3d79f0ae	0.061020546
62	0x3d588878	0.05286452
63	0x3d1195c4	0.03554322
64	0xbd4bb76a	-0.049735464
65	0x3d5a82ac	0.053347275
66	0x3bff6e30	0.007795118
67	0x3c418ac7	0.011812872
68	0x3d2ca018	0.042144865
69	0x3d00c552	0.03143818
70	0x3b88fec8	0.004180763
71	0x3d3f19d6	0.0466555
72	0xbd1b1df9	-0.03787038
73	0x3c513808	0.012769707
74	0xbdc0a3fb	-0.09406277
75	0x3d21c7b1	0.03949708
76	0x3d695dac	0.056974098
77	0x3d8d6e15	0.06905762
78	0xbd372dc2	-0.044721372
79	0x3d70859a	0.058721162
80	0xbca7411c	-0.020416789
81	0x3d986ea2	0.074429765
82	0x3dc1822f	0.09448659
83	0xbb9d1faa	-0.0047950344
84	0xba03cf82	-0.00050281745
85	0xbd52f86c	-0.051506445
86	0xbd1e63b1	-0.038669292
87	0xbc87878c	-0.016544126
88	0x3c161d40	0.009162247
89	0x3ce7e23a	0.028306115
90	0x3bcad280	0.0061896443
91	0x3c005678	0.007833116
92	0x3c5e4d94	0.013568301
93	0x3d3d9efd	0.0462942
94	0xbc92a2eb	-0.017899951
95	0x3d391eaa	0.04519526
96	0xbcd706f5	-0.026248435
97	0xbc9efc60	-0.019407451
98	0x3d7b1cc5	0.061306734
99	0xbcc3157d	-0.023813957
100	0x3d7b4466	0.061344527
101	0x3cc32830	0.023822874
102	0xbb825d80	-0.003978431
103	0x3cdbc8dc	0.026829176
104	0xbccca764	-0.024982162
105	0xbd3f9500	-0.046772957
106	0x3d9e6f5a	0.077360824
107	0xbd3f990e	-0.046776824
108	0x3cb2d379	0.021829354
109	0x3d6fe054	0.058563545
110	0xbd48a618	-0.048986524
111	0x3d8d4c1e	0.06899284
112	0x3d591297	0.052996244
113	0xbd0d52f0	-0.034502923
114	0x3cc3fb80	0.023923635
115	0x3d0bc6e2	0.034125216
116	0xbc4649fb	-0.012102599
117	0xbca1e670	-0.019763201
118	0x3d99226f	0.07477271
119	0x3a84b444	0.0010124524
120	0x3d626b42	0.05527807
121	0x3d758b5f	0.059947368
122	0x3d13ffcc	0.03613262
123	0xbb5ba9eb	-0.0033518027
124	0xbd316491	-0.0433088
125	0xbaaad65e	-0.0013033857
126	0x3d94380f	0.07237255
127	0xbda14bc4	-0.07875779
128	0xbd2dd1fb	-0.04243658
129	0x3d96c040	0.073608875
130	0xbd3a5155	-0.04548772
131	0x3ca3d50c	0.01999905
132	0xbd3cb69c	-0.046072587
133	0xbd1e9e61	-0.03872526
134	0x3d90acc9	0.07064206
135	0x3d935f68	0.07195932
136	0xbd81b4e7	-0.063333325
137	0x3d3ff9d2	0.046869107
138	0x3cc22354	0.023698486
139	0xbcea6c0c	-0.028615974
140	0xbb829be0	-0.003985867
141	0x3daa0b70	0.08302963
142	0x3cefa381	0.02925277
143	0xbd230910	-0.039803565
144	0x3d23a371	0.03995079
145	0x3c18d7c0	0.009328783
146	0x3d95fc53	0.07323518
147	0xbbd407d0	-0.006470658
148	0xbc6d9419	-0.014500641
149	0x3c50fe25	0.012755905
150	0x3d724539	0.059148047
151	0x3d414b3f	0.0471909
152	0xbd989081	-0.07449437
153	0x3d0c2c61	0.03422201
154	0xbc30f188	-0.010799773
155	0x3d26e65b	0.040747028
156	0x3d626ee0	0.05528152
157	0xbb6f607d	-0.0036526017
158	0x3b9f3669	0.004858781
159	0x3d12f575	0.035878617
160	0xbc0f4314	-0.00874402
161	0xbd379bba	-0.044826247
162	0xbceca651	-0.0288879
163	0xbc1f39da	-0.009718383
164	0x3c3eafb8	0.011638574
165	0x3d75c204	0.05999948
166	0xbc79a530	-0.015237138
167	0x3bccf77d	0.006255089
168	0x3c08786e	0.008329494
169	0xbd235965	-0.039880175
170	0xbd1bfcd8	-0.038082927
171	0xbd142a75	-0.036173303
172	0x3ce78918	0.028263614
173	0x3c5c9df4	0.013465393
174	0x3d1878b1	0.037224475
175	0x3d5d2dbd	0.053998698
176	0xbb7c7ea0	-0.0038527623
177	0x3ce3891c	0.02777534
178	0xbd08be72	-0.033384748
179	0xbd2901e4	-0.04126157
180	0xbd241b7c	-0.040065274
181	0x3bc8e454	0.0061307345
182	0xbd287588	-0.04112771
183	0x3ce7a0ad	0.028274858
184	0xbd490a4c	-0.049082085
185	0x3d1ff1f6	0.03904911
186	0x3d801448	0.06253868
187	0xbcadbdd6	-0.021208685
188	0xbc1e9837	-0.0096798455
189	0x3d86860b	0.065685354
190	0x3de0a11a	0.10968228
191	0x3d66c0db	0.056336265
192	0x3c685030	0.014179274
193	0xbd88547b	-0.06656738
194	0xbc20c85a	-0.009813393
195	0x3d764a6a	0.06012956
196	0x3d50962e	0.050924473
197	0x3dd1841f	0.10230278
198	0xbda92200	-0.08258438
199	0x3d07a2a6	0.033114098
200	0x3cd36d33	0.025808906
201	0x3cc936a8	0.024562195
202	0x3d49ca1d	0.049265016
203	0xbc34fb94	-0.011046309
204	0xbd48434a	-0.048892297
205	0x3cd2ff2e	0.025756445
206	0x3d08762d	0.033315826
207	0xbdce5514	-0.10074821
208	0x3dabaac0	0.08382177
209	0x3d3e4364	0.046450987
210	0xbbde85d4	-0.006790856
211	0x3c603a60	0.013685793
212	0xbcfc5624	-0.030802794
213	0x3d760579	0.060063813
214	0x3d268b3e	0.040660135
215	0xbcd01f73	-0.025405621
216	0xbd4bd971	-0.049767915
217	0x3c5d86b9	0.01352089
218	0x3cc89028	0.024482802
219	0x3d3b5f54	0.04574521
220	0xbd58e746	-0.052954935
221	0x3d738131	0.05944938
222	0x3dcce17c	0.10003945
223	0x3dc7ce39	0.09756131
224	0x3c0c1256	0.0085492935
225	0xbd6f05a1	-0.058354978
226	0xbd5b0990	-0.053475916
227	0xbd681c90	-0.056667864
228	0xbd0ec344	-0.03485419
229	0x3b684fdb	0.0035447988
230	0x3da029eb	0.07820495
231	0xbd6966b4	-0.05698271
232	0xbd81e875	-0.06343166
233	0xbd4ae3aa	-0.049533524
234	0xbcdba2f1	-0.026811095
235	0xbd424654	-0.04743035
236	0x3c122558	0.008920036
237	0xbcf829de	-0.030293401
238	0xbd1106df	-0.035406943
239	0xbc028420	-0.007966071
240	0x3ba21db1	0.004947387
241	0xbc19590b	-0.009359608
242	0xbd403f0e	-0.046935134
243	0xbd49d2e6	-0.049273394
244	0xbcb759ac	-0.022381626
245	0xbd699ef7	-0.057036366
246	0xbce25ff8	-0.027633652
247	0x3d861cc2	0.06548454
248	0xbd34bd50	-0.044125855
249	0xbc5f3c78	-0.013625257
250	0x3c869dbc	0.016432635
251	0x3c07e349	0.008293935
252	0xbc685370	-0.014180049
253	0x3c7eb2a8	0.015545525
254	0x3d64bc13	0.055843424
255	0x3d6e214a	0.058137216

lin2.bias f4 [256]
0	0x3c8ea57c	0.017412893
1	0x3b89401c	0.0041885506
2	0xbd42237a	-0.047397114
3	0xbb863fd4	-0.0040969644
4	0xbcde3ecf	-0.027129559
5	0xbce93c44	-0.02847112
6	0x3d8a35ba	0.06748529
7	0x3bbddb37	0.0057939547
8	0x3cb129bf	0.021626351
9	0xbaf79640	-0.0018889382
10	0x3cc525ac	0.024065815
11	0xbd6e2aeb	-0.0581464
12	0x3d4a7517	0.04942807
13	0xbd1b6454	-0.037937477
14	0x3c502e63	0.012706372
15	0xbc6cf28a	-0.014462123
16	0xbd23dda6	-0.040006302
17	0x3cbcd1e4	0.023049302
18	0xbd4cd9b1	-0.050012294
19	0xbd1d8256	-0.038454376
20	0xbd4aaacc	-0.04947929
21	0x3ce2cdf3	0.027686095
22	0x3ba87edb	0.0051420755
23	0x3c7eee3b	0.015559728
24	0x3cef9a92	0.02924851
25	0xbd2c6d73	-0.042096566
26	0x3d87e876	0.06636135
27	0x3cf91e3a	0.030409921
28	0x3d37fc5a	0.044918396
29	0xbba22a4c	-0.00494889
30	0x3d2d3b16	0.042292677
31	0xbd42e9d1	-0.047586266
32	0x3c89ede0	0.01683706
33	0x3d8188ef	0.06324946
34	0xbbf545bf	-0.007485121
35	0xbd6274d1	-0.055287186
36	0xbd3acb5e	-0.045604102
37	0x3d168a4a	0.036752976
38	0x3dac488b	0.08412274
39	0xbcb5f5da	-0.022211958
40	0x3c06dd05	0.008231406
41	0xbd5c7322	-0.053820737
42	0xbcabef28	-0.020988062
43	0x3d32378e	0.043510012
44	0xbc506268	-0.012718774
45	0x3bf38e00	0.007432699
46	0x3c606e9c	0.013698246
47	0xbd0980a8	-0.03356996
48	0x3d91d2fd	0.07120321
49	0xbc843c30	-0.01614198
50	0x3ca9f598	0.020746991
51	0x3cd76abd	0.026296014
52	0x3cbf269b	0.023333838
53	0x3cbc86f7	0.023013575
54	0x3d33792a	0.043816723
55	0x3ccc8ffe	0.024971005
56	0x3d7aaf10	0.06120211
57	0xbd38405e	-0.04498326
58	0x3cde7264	0.027154155
59	0xbceab189	-0.028649108
60	0xbd233acc	-0.039850995
61	0x3d0f4177	0.03497454
62	0x3d4fb8f1	0.050713483
63	0xbd1254d6	-0.035725437
64	0xbc1f43bd	-0.00972074
65	0x3d44ba83	0.048029434
66	0xbcd556e0	-0.026042402
67	0x3b99a179	0.0046884385
68	0x3c2ad768	0.010427333
69	0x3cac8f5c	0.021064453
70	0x3c3448d3	0.011003691
71	0xbce7f6b6	-0.028315883
72	0x3a1e95c1	0.0006049537
73	0x3a9b3840	0.0011842325
74	0x3d726e7c	0.059187397
75	0x3cad9c76	0.02119277
76	0xbc4f153c	-0.01263934
77	0x3d0a8d6d	0.03382628
78	0xbd723b78	-0.059138745
79	0x3d32d2c1	0.04365802
80	0x3d7ac034	0.061218455
81	0xbca8091e	-0.02051216
82	0xbd38cc16	-0.045116507
83	0xbd3859fc	-0.04500769
84	0xbd82a792	-0.06379618
85	0xbc052460	-0.008126348
86	0x3c2d6b11	0.010584609
87	0xbd685857	-0.056724872
88	0x3d4a7f98	0.04943809
89	0x3d186890	0.037209094
90	0xbd4e3382	-0.05034209
91	0x3c1e4df9	0.009662145
92	0x3ccd8c0c	0.025091194
93	0xbbbdbf0d	-0.0057905973
94	0xbc9d533b	-0.019204726
95	0x3d206045	0.03915431
96	0x3cd7dc1b	0.026350072
97	0x3c9b6904	0.018970974
98	0x3c3cc5a5	0.0115217315
99	0xbcc37559	-0.023859667
100	0x3c8b3718	0.016994044
101	0xbd7d509a	-0.061844446
102	0x3d77c3eb	0.060489576
103	0x3d1bad98	0.03800735
104	0x3cb541f6	0.02212618
105	0x3d9223c4	0.07135728
106	0x3c0cdb40	0.008597195
107	0xbd5aa750	-0.053382218
108	0xbd01848a	-0.03162054
109	0xbd0bb7d7	-0.03411087
110	0xbcfe6208	-0.031052604
111	0xbd0eb2b2	-0.034838386
112	0xbc4df618	-0.01257088
113	0x3c7a0039	0.015258842
114	0x3d4dba66	0.05022659
115	0x3d170112	0.036866255
116	0x3d58df05	0.052947063
117	0x3cd197e7	0.025585128
118	0xbd40e39c	-0.047092065
119	0xbced8805	-0.028995523
120	0x3d09e850	0.033668816
121	0x3cc1cf84	0.023658521
122	0x3c1d9f72	0.009620534
123	0xbc68b54c	-0.014203381
124	0xbc307990	-0.01077117
125	0x3d754818	0.059883207
126	0xbbb17530	-0.005415581
127	0x3ced34fe	0.028955933
128	0xbd616245	-0.055025358
129	0x3cd0bd62	0.02548093
130	0x3ceaad4b	0.028647086
131	0x3d499700	0.04921627
132	0x3c988d19	0.018621968
133	0xbb8d4573	-0.0043112575
134	0x3d28aae8	0.041178614
135	0xbc53072e	-0.01288013
136	0xbd2e4d14	-0.042553976
137	0xbd044057	-0.03228792
138	0x3c8acf66	0.016944598
139	0x3c375790	0.01119031
140	0x3b1cb9e5	0.0023914513
141	0xbd616806	-0.055030845
142	0x3d53b618	0.05168733
143	0x3d930784	0.07179168
144	0xbc819a9f	-0.0158208
145	0x39f19da3	0.0004608455
146	0xbcaaf83d	-0.020870322
147	0x3d42e390	0.0475803
148	0x3c2f4458	0.010697447
149	0x3d8e3fd4	0.06945768
150	0x3bcd4544	0.0062643606
151	0x3cc8cc37	0.02451144
152	0xbd875ccf	-0.06609499
153	0x3c56f1c0	0.013119161
154	0x3cb95bd0	0.022626787
155	0xbc6abc62	-0.0143271405
156	0xbbc6c258	-0.006065648
157	0xba7b712d	-0.00095917546
158	0x3cda67cd	0.026660824
159	0x3b15c5c3	0.002285347
160	0x3d5a6610	0.05331999
161	0x3d550b46	0.052012704
162	0xbc827374	-0.015924193
163	0x3cbdd788	0.023174062
164	0xbd4d9542	-0.05019117
165	0x3cd0d07b	0.025490036
166	0xbbafc9bd	-0.0053646252
167	0xbbc9489d	-0.0061426894
168	0xbd1c536e	-0.038165502
169	0xbb6b75a7	-0.003592828
170	0x3d879857	0.066208534
171	0x3b1b1da0	0.002366878
172	0xbc4d52d0	-0.012531951
173	0xbc764807	-0.015031821
174	0x3cea73c0	0.028619647
175	0xbd0c6519	-0.0342761
176	0xbce586b8	-0.02801834
177	0xbb91ec20	-0.004453197
178	0x3c8033b2	0.01564965
179	0x3ca2a624	0.019854613
180	0xbd6dcc16	-0.05805596
181	0x3d33d434	0.043903545
182	0x3cedc77e	0.02902579
183	0xbd17ee8d	-0.037092734
184	0x3cb94826	0.02261741
185	0x3abf30e7	0.0014586718
186	0x3c1c80e5	0.009552215
187	0x3d89e71a	0.06733532
188	0x3d2968d8	0.041359752
189	0x3c8b86a9	0.017031984
190	0xbcc804a2	-0.024416272
191	0xbbf4b360	-0.007467672
192	0x3be0019e	0.0068361303
193	0xbd3ec5c6	-0.04657533
194	0xbd4dcdb4	-0.050245002
195	0xbcd56b58	-0.026052162
196	0xbaf6af2f	-0.0018820519
197	0x3bd0245c	0.0063519906
198	0x3d547146	0.05186584
199	0x3d0844bf	0.033268686
200	0x3d70cabe	0.0587871
201	0xbd3e4c98	-0.046459764
202	0xbd7100ee	-0.058838777
203	0x3c5ab074	0.013347734
204	0x3d39352d	0.045216728
205	0x3bba5dc4	0.0056874473
206	0x3d32a1b1	0.043611232
207	0x3cb9878c	0.022647642
208	0xbd013150	-0.03154117
209	0xbcc5339f	-0.024072466
210	0xbcbad855	-0.022808233
211	0xbd716b3c	-0.058940157
212	0x3b1d5b9e	0.0024010907
213	0xbc92dd23	-0.017927712
214	0x3c9af6fc	0.0189166
215	0x3c2017aa	0.009771267
216	0xbd3c9bd2	-0.04604704
217	0x3cff504c	0.031166218
218	0xbd36828a	-0.044558086
219	0x3d33c55f	0.0438894
220	0xbd641962	-0.05568827
221	0xbd7f457e	-0.062322132
222	0xbd82cc28	-0.06386596
223	0x3b131bcc	0.0022446988
224	0x3d41ad7c	0.04728459
225	0x3abf7824	0.0014607948
226	0xbd00079e	-0.031257264
227	0xbcc30f18	-0.023810908
228	0x3d9c08fa	0.076189
229	0x3d507100	0.050889015
230	0xbd8586be	-0.06519841
231	0x3d85e6fb	0.06538197
232	0xbd339932	-0.04384727
233	0x3d026b40	0.031840563
234	0x3cd54f70	0.026038855
235	0xbcf2e678	-0.029650912
236	0xbc8a3655	-0.01687161
237	0xbd7144a6	-0.05890336
238	0x3d4146a3	0.047186505
239	0x3d3d3c6e	0.04620021
240	0x3c7ebddf	0.0155481985
241	0xbd494ade	-0.049143665
242	0x3d15739e	0.036487214
243	0xbd2be175	-0.04196306
244	0xbd2a8a48	-0.04163578
245	0x3d911f73	0.070860766
246	0xbb6383be	-0.0034715976
247	0x3d40221c	0.04690753
248	0xbd4e2142	-0.050324686
249	0xbd88ee5f	-0.06686091
250	0xbc6e3f71	-0.014541493
251	0x3cb38296	0.021912854
252	0xbd3d56ec	-0.046225473
253	0x3d4849d9	0.04889855
254	0x3d3e0c14	0.046398237
255	0x3ce58a34	0.028020002

lin3.weight f4 [128, 256]
0	0xbd76674e	-0.060157113
1	0x3cb71a3a	0.022351373
2	0xbbc353f0	-0.005960934
3	0xbc4342d2	-0.011917787
4	0xbcd9f575	-0.0266063
5	0x3cabe12c	0.020981394
6	0xbd78a260	-0.060701728
7	0xbc8d0945	-0.017216334
8	0x3c8ed9a2	0.01743776
9	0x3c11ec80	0.008906484
10	0x3d599424	0.053119794
11	0xbd69a395	-0.05704077
12	0xbc98b8f0	-0.018642873
13	0xbd302e76	-0.04301306
14	0xbd107f28	-0.035277516
15	0x3ccc5fc1	0.024948003
16	0xbd4bcf94	-0.04975851
17	0x3c2f35c0	0.010693967
18	0xbd25e768	-0.04050389
19	0x398eda00	0.00027246773
20	0xbcc780a6	-0.024353337
21	0x3d1e9fee	0.03872674
22	0x3d4bdcc6	0.049771093
23	0xbd3da1a4	-0.04629673
24	0xbd472033	-0.048614692
25	0xbd8fc0e9	-0.070192166
26	0x3d222576	0.039586507
27	0xbd5d40ff	-0.054017063
28	0x3a2a7d80	0.00065036863
29	0xbba14970	-0.0049220845
30	0x3d022685	0.031775016
31	0xbccefeb8	-0.025267944
32	0xbd80349d	-0.06260035
33	0xbd53e576	-0.051732503
34	0xbb348178	-0.002754299
35	0x3d410168	0.04712048
36	0xbd4807f1	-0.0488357
37	0xbd0d8686	-0.03455212
38	0x39935c01	0.00028106573
39	0x3b90d798	0.004420232
40	0xbd4077f5	-0.0469894
41	0x3c7c8ff8	0.015415184
42	0x3d72ef7c	0.05931042
43	0xbc07e5f9	-0.008294576
44	0x3d098482	0.033573635
45	0x3c117518	0.008878015
46	0x3d26e1bf	0.040742632
47	0xbd7e98e2	-0.06215752
48	0xbd92ad18	-0.07161921
49	0xbd21ba82	-0.03948451
50	0xbcb12efc	-0.02162885
51	0xbd68eeab	-0.056868237
52	0xbd82bf03	-0.06384089
53	0x3bed5bb7	0.0072435993
54	0x3bfcd2c5	0.0077155554
55	0xbd23f7cc	-0.04003124
56	0xbd23bd6e	-0.039975576
57	0xbc84f350	-0.016229302
58	0x3d23ac4b	0.039959233
59	0xbd14617d	-0.036225785
60	0x3cfb60ac	0.030685745
61	0xbcb127cd	-0.021625424
62	0x3d47de19	0.048795793
63	0xbd52eb4a	-0.05149392
64	0x3d13f475	0.036121804
65	0xbcc2cd7b	-0.023779621
66	0x3d3ad904	0.04561712
67	0x3d09875c	0.033576354
68	0x3cf42ca8	0.02980645
69	0xbd823fac	-0.06359801
70	0x3d613881	0.054985527
71	0xbd47af4d	-0.048751164
72	0x3cc11333	0.023568725
73	0xbc899e14	-0.01679901
74	0xbd7cb512	-0.06169612
75	0xbd8eb286	-0.069676444
76	0x3d0e4191	0.034730498
77	0x3d4a0b2a	0.049327053
78	0x3c543698	0.012952469
79	0xbd5b734c	-0.053576753
80	0x3d306515	0.04306515
81	0x3c0a78c0	0.008451641
82	0xbd2789de	-0.040902965
83	0xbd047b10	-0.032343924
84	0x3c7358ec	0.014852744
85	0xbce8a7ac	-0.028400265
86	0x3c6ec4a0	0.014573246
87	0xbd2b2a95	-0.041788656
88	0x3cbd3ea3	0.023101157
89	0x3d2f34a6	0.04277482
90	0x3cea81d4	0.02862636
91	0xbd65c452	-0.05609543
92	0xba8c3980	-0.0010698289
93	0x3cddea0d	0.027089143
94	0xbd19ddec	-0.037565157
95	0x3cdf3bb4	0.027250148
96	0xbc5d9dcc	-0.013526391
97	0xbb8c4a40	-0.004281312
98	0xbd64ed69	-0.055890474
99	0x3c426b63	0.011866423
100	0x3c31a694	0.010842938
101	0x3cb1d7b3	0.021709299
102	0xbcb116e3	-0.021617359
103	0xbd099f7d	-0.033599366
104	0xbd5ede52	-0.05441124
105	0x3d2819c3	0.041040193
106	0xbc843ba1	-0.016141715
107	0xbcd0caf0	-0.025487393
108	0x3c1a1a93	0.00940575
109	0x3d2e788b	0.042595427
110	0x3d5d10fe	0.053971283
111	0xbbc4bde0	-0.00600408
112	0xbcd027d3	-0.025409615
113	0x3c9d1f59	0.019179987
114	0x3d4a39d3	0.04937155
115	0x3c1de440	0.009636939
116	0xbcdc3c14	-0.026884116
117	0x3c6a9070	0.014316663
118	0x3d4c44c4	0.049870268
119	0x3c931a37	0.017956836
120	0xbc83f29c	-0.016106896
121	0x3d2bf624	0.041982785
122	0xbd91fce3	-0.071283124
123	0x3d40626b	0.04696886
124	0xbb0b9dc0	-0.0021303743
125	0xbd3d866a	-0.046270765
126	0x3ccab344	0.024743684
127	0x3bb3a252	0.0054819966
128	0x3d649897	0.055809584
129	0xbcc76c16	-0.024343532
130	0xbd6b9633	-0.057516288
131	0x3d42a883	0.047523987
132	0x3b553ef6	0.0032538748
133	0xbc229ed0	-0.009925559
134	0xbc8827d1	-0.016620548
135	0x3d1dd76d	0.038535524
136	0xbd30cf8f	-0.043166693
137	0xbd1f3d76	-0.038876973
138	0xbd395c5e	-0.045254104
139	0x3c892170	0.016739577
140	0x3cce2d12	0.025167976
141	0x3cc0d67c	0.023539774
142	0xbd8b2bbd	-0.06795452
143	0x3cd4873b	0.02594339
144	0xbcf5e7eb	-0.030017814
145	0x3d0544fc	0.03253649
146	0xbca4629b	-0.02006655
147	0xbcbd8080	-0.023132563
148	0x3d03018d	0.0319839
149	0xbbce0c98	-0.0062881224
150	0xbc000740	-0.007814229
151	0x3b7a6f74	0.0038213404
152	0xbd67aa8c	-0.05655913
153	0xbcba09ae	-0.022709694
154	0xbd91cc0b	-0.07118996
155	0xbcaa8838	-0.020816907
156	0x3c8e22d0	0.017350584
157	0x3bf3ccc9	0.007440184
158	0xbd92fd05	-0.07177166
159	0x3c59f665	0.013303374
160	0x3cc7c8db	0.024387768
161	0xbd3a9362	-0.04555071
162	0xbcf8a502	-0.03035212
163	0xbd775714	-0.06038578
164	0x3d3beea0	0.045881867
165	0xbd4c9fcc	-0.04995708
166	0x3d143b98	0.036189646
167	0xbd22f1e2	-0.03978146
168	0xbca3c96d	-0.019993508
169	0xbcda08db	-0.02661555
170	0x3c4e811e	0.012604026
171	0xbd5e38f6	-0.05425354
172	0x3cba4060	0.022735775
173	0xbd7e7fa6	-0.062133454
174	0xbb9d4f10	-0.0048006848
175	0x3c57b0c6	0.013164705
176	0x3d385162	0.044999488
177	0xbb71e02e	-0.0036907303
178	0xbb1aa657	-0.0023597681
179	0x3d1c6baf	0.038188633
180	0x3d643f52	0.05572445
181	0x3d4d294e	0.05008822
182	0x3d142e74	0.036177114
183	0x3d4f605d	0.05062901
184	0x3d30af53	0.043135952
185	0x3d05648e	0.0325666
186	0x3d51935b	0.05116592
187	0x3d32f2ca	0.043688573
188	0x3b556c1f	0.0032565666
189	0x3d5fdcad	0.054653812
190	0xbd6ba4ca	-0.057530202
191	0x3d60400a	0.054748572
192	0xbc3cd9bb	-0.01152652
193	0x3b052960	0.002031885
194	0x3d039f0a	0.032134093
195	0xbcf1fdbe	-0.029539939
196	0x3d12f45b	0.035877567
197	0xbd7c1405	-0.06154253
198	0x3ccb2a0c	0.024800323
199	0xbc94c7c9	-0.018161671
200	0xbd94fb4f	-0.07274496
201	0xbd910013	-0.07080092
202	0x3d582574	0.052770093
203	0x3d1d1d4c	0.038358018
204	0xbd122eef	-0.03568929
205	0xbd82b06d	-0.06381307
206	0x3c3175d1	0.010831312
207	0x3c4c5a68	0.012472726
208	0xbc397138	-0.011318497
209	0xbc0bb47c	-0.008526918
210	0x3c5794f0	0.013158068
211	0xbc6cdc08	-0.014456756
212	0x3d46dd12	0.048550673
213	0xbc19ced1	-0.009387688
214	0xbce86574	-0.02836869
215	0xbcf056df	-0.029338298
216	0xbb111ade	-0.0022141258
217	0xbd14b740	-0.036307573
218	0xbd70b374	-0.05876489
219	0x3c35d9b6	0.01109927
220	0x3d5a7490	0.05333382
221	0x3bf1475c	0.007363243
222	0xbd71b06e	-0.059006147
223	0x3d3c20a6	0.045929573
224	0x3d0cae7a	0.03434608
225	0xbd192c7e	-0.037395947
226	0xbd1e4558	-0.03864035
227	0xbd4d3020	-0.050094724
228	0x3cfa17f0	0.030528992
229	0xbcc604b8	-0.024172172
230	0x3c9b0354	0.018922485
231	0xbd8395c8	-0.06425053
232	0xbd138ec4	-0.036024824
233	0x3d0deb2d	0.03464811
234	0xbc2c3427	-0.010510481
235	0x3d1046f6	0.035223924
236	0x3d340b1f	0.04395592
237	0x3cb94650	0.022616535
238	0xbd81be22	-0.06335093
239	0xbcef5218	-0.02921395
240	0xbd5a1176	-0.05323931
241	0xbd809bb0	-0.06279695
242	0x3d22decd	0.03976326
243	0xbce28555	-0.027651468
244	0x3b69ca80	0.0035673678
245	0x3b6029d5	0.0034204621
246	0xbd08b622	-0.03337682
247	0x3d32b640	0.04363084
248	0x3c805114	0.015663661
249	0xbc70a359	-0.014687383
250	0xbb515c20	-0.003194578
251	0xbd839e1a	-0.0642664
252	0x3d3808d2	0.044930287
253	0xbc8c089a	-0.017093945
254	0x3d0c04a7	0.034184124
255	0x3d38ceae	0.04511898

lin3.bias f4 [128]
0	0x3d149de3	0.036283385
1	0x3d2ff966	0.042962454
2	0x3c565aee	0.013083203
3	0x3da268f3	0.07930174
4	0xbd05e934	-0.032693103
5	0xbd1a323a	-0.037645556
6	0x3d40636c	0.046969816
7	0x3b9c2490	0.004765101
8	0x3d0a58d3	0.033776116
9	0x3d1d55c8	0.038411885
10	0xbd32af21	-0.043624047
11	0x3d93efeb	0.07223495
12	0xbd79b419	-0.06096277
13	0x3d55c755	0.05219205
14	0xbb2f8a44	-0.0026785294
15	0xbc3f53cc	-0.011677694
16	0x3d993650	0.074810624
17	0xbd2dd2fc	-0.04243754
18	0x3dad208b	0.08453473
19	0xbce2c22d	-0.02768048
20	0xbd0897ca	-0.033347882
21	0x3d1e5f7c	0.03866528
22	0xbcc2d82b	-0.023784718
23	0x3d51c9f6	0.051217996
24	0xbd90efe6	-0.07077007
25	0x3d5dc0ea	0.054139055
26	0xbd84b30a	-0.064794615
27	0x3d735a21	0.059412125
28	0x3c59f717	0.01330354
29	0x3d4b9c43	0.04970957
30	0x3d6b3765	0.057425875
31	0x3d29d2e7	0.041460898
32	0xbb5c4f4a	-0.0033616596
33	0x3d1df202	0.038560875
34	0x3d743011	0.059616152
35	0xbd2c92df	-0.042132255
36	0xbd79262c	-0.06082742
37	0xbd6eeabc	-0.05832933
38	0x3c586946	0.013208693
39	0xbd09d7b8	-0.03365299
40	0x3d128299	0.03576908
41	0x3a2eba94	0.00066653755
42	0x3d9c60d4	0.07635656
43	0x3d2137fe	0.03936004
44	0x3d97c803	0.07411196
45	0x3a28445c	0.0006418878
46	0x3d700354	0.058596924
47	0x3d44beea	0.048033632
48	0x3a58f992	0.0008276935
49	0x3bd9c328	0.006645579
50	0x3af77ef0	0.0018882435
51	0xbcb0743c	-0.0215398
52	0x3d47173e	0.04860615
53	0xbcade839	-0.021228896
54	0xbc19a67c	-0.009378072
55	0x3ce8916e	0.028389659
56	0xbd242e6f	-0.040083345
57	0xbbf00b26	-0.0073255477
58	0xbd774f64	-0.060378447
59	0xbd4707a2	-0.048591264
60	0x3c461892	0.012090819
61	0xbd4bba95	-0.049738485
62	0x3d48fdd6	0.0490702
63	0x3d31cbcb	0.043407243
64	0x3d7791af	0.06044167
65	0x3d90d546	0.07071929
66	0x3d38e239	0.045137618
67	0xbd2e722e	-0.04258936
68	0x3d88ea11	0.066852696
69	0x3d042c2c	0.032268688
70	0x3d4360f4	0.047699884
71	0xbd635362	-0.055499442
72	0x3c94a55c	0.018145256
73	0xbce5f518	-0.028070971
74	0x3cb5e4c1	0.022203805
75	0x3cc6e626	0.024279665
76	0x3d5c697d	0.05381154
77	0x3bcd4303	0.006264092
78	0x3d036da3	0.03208698
79	0x3c1a56cc	0.009420108
80	0xbd6ddfd4	-0.058074787
81	0x3d919753	0.07108941
82	0x3d321d4d	0.043484975
83	0x3d3d11bf	0.046159502
84	0x3cc3ca64	0.023900218
85	0xbb3ce080	-0.0028820336
86	0x3d7a9eac	0.061186478
87	0x3c40d03e	0.011768399
88	0xbd1bcdc4	-0.03803803
89	0x3bbf1266	0.0058310507
90	0xbba1fe1d	-0.0049436227
91	0x3b856a2d	0.004071495
92	0x3d60fc1f	0.05492794
93	0x3d149fe2	0.03628529
94	0x3b0d2b0b	0.0021540548
95	0xbd46d766	-0.048545264
96	0x3cc54943	0.024082785
97	0xbd5c166c	-0.05373232
98	0x3c1b89c3	0.009493294
99	0x3d2e7eee	0.04260152
100	0x3c1cefac	0.009578627
101	0x3d9db15a	0.07699843
102	0x3d399e8b	0.045317214
103	0xbc7fc277	-0.015610329
104	0xbbc171e9	-0.0059034717
105	0x3ab97591	0.0014149417
106	0xbd1fbfb4	-0.03900118
107	0xbb81753e	-0.003950744
108	0x3d91414d	0.07092533
109	0xbccb463e	-0.024813768
110	0xbc239730	-0.009984776
111	0x3bb479f0	0.0055077
112	0xbd428f70	-0.047500074
113	0x3c8c0443	0.017091876
114	0x3d18edb6	0.037336074
115	0x3c62c2eb	0.013840417
116	0x3cf977b5	0.030452589
117	0xbd242cde	-0.04008185
118	0xbd2654c5	-0.040608186
119	0x3d149876	0.03627821
120	0xbcf77f6d	-0.030212129
121	0x3d66c3b5	0.056338985
122	0xbc798259	-0.015228831
123	0xb7b852c3	-2.1973048e-05
124	0x3d89530d	0.06705294
125	0x3d807e91	0.062741406
126	0x3d5c3afa	0.053767182
127	0xbd82cde7	-0.06386929

lin4.weight f4 [64, 128]
0	0x3baf7ee4	0.0053557027
1	0xbaf0bfa4	-0.001836766
2	0x3cdccaed	0.026952231
3	0xbd814f4e	-0.06313954
4	0x3ceaf6be	0.028682109
5	0x3ce1f774	0.027583815
6	0xbae64872	-0.0017569198
7	0x3db1ea84	0.086873084
8	0x3d50cb50	0.050975144
9	0x3d65cd61	0.056104068
10	0x3d86ff6c	0.065916866
11	0x3d651abf	0.05593371
12	0x3c338314	0.010956544
13	0xbda504b9	-0.080575414
14	0xbd3123e2	-0.04324711
15	0xbb07f568	-0.0020745639
16	0xbd94dac0	-0.07268286
17	0x3db9351b	0.09043332
18	0x3d9b795a	0.07591505
19	0xbc39eb2f	-0.011347576
20	0xba636a39	-0.0008675191
21	0x3d9e1f78	0.07720846
22	0xbc5bc845	-0.013414447
23	0xbd9c4c47	-0.07631736
24	0x3b109ada	0.0022064955
25	0x3cb821be	0.022477027
26	0x3d19748e	0.03746467
27	0x3d505cf5	0.0508699
28	0x3d85f8d3	0.065416
29	0xbcbad348	-0.022805825
30	0x3c979fd8	0.018508837
31	0x3bae81aa	0.0053255158
32	0x3cd3c702	0.02585173
33	0xbd905f44	-0.070494205
34	0x3d890661	0.0669067
35	0x3da7ff19	0.08202953
36	0x3d8ccaa7	0.0687459
37	0x3cc03517	0.023462815
38	0x3c9d1e39	0.01917945
39	0x3d3b02fc	0.045657143
40	0x3d28cf39	0.041213248
41	0xbbf1713c	-0.007368235
42	0x3d518f1d	0.051161874
43	0x3be66c1a	0.0070319297
44	0x3a97771e	0.0011555885
45	0x3d5c5a83	0.053797256
46	0x3dc3fbdc	0.09569523
47	0x3d1c9795	0.038230497
48	0xbd671d6f	-0.056424554
49	0x3c73b336	0.01487427
50	0x3d762b00	0.0600996
51	0x3d83d7b3	0.06437626
52	0x3c364a8c	0.011126172
53	0x3c4db307	0.0125548905
54	0xbcba45f0	-0.022738427
55	0xbc8a92cb	-0.0169157
56	0x3cd53834	0.026027776
57	0xbc8e90c4	-0.017403014
58	0x3cdd47c8	0.027011767
59	0x3d644d3a	0.05573771
60	0xbd22ef3a	-0.039778925
61	0xbd538e53	-0.051649403
62	0x3c004987	0.00783003
63	0xbd1a4396	-0.03766211
64	0x3db60781	0.0888815
65	0x3d02fc1b	0.031978708
66	0xbcb06ac1	-0.02153528
67	0xbda5ffe3	-0.08105447
68	0xbc5a9e5d	-0.013343421
69	0xbd20e690	-0.03928238
70	0xbcda8f12	-0.02667955
71	0x3d8e304b	0.06942805
72	0x3afc9f18	0.0019273488
73	0x3dae8407	0.08521276
74	0x3b742349	0.0037252477
75	0xbd8954d4	-0.06705633
76	0x3d0f0f7d	0.03492688
77	0x3d1df637	0.038564887
78	0xbd86e6d9	-0.065869994
79	0x3cbb4322	0.02285916
80	0x3d589082	0.05287219
81	0x3d54ef80	0.051986217
82	0x3d0c172c	0.034201786
83	0xbcf40c31	-0.02979097
84	0xbc995bfb	-0.018720618
85	0x3c8ebb64	0.01742334
86	0x3d878e51	0.066189416
87	0xbd981b20	-0.07427049
88	0xbd92a4be	-0.07160328
89	0x3d2ec80b	0.042671245
90	0xbc4e19b2	-0.012579368
91	0x3d989f99	0.07452316
92	0xbc71fafd	-0.014769313
93	0xbd78e6fb	-0.060767155
94	0x3dbcd20a	0.09219749
95	0x3d90cd7d	0.07070444
96	0x3da175ed	0.07883821
97	0x3d95c02e	0.07312046
98	0x3d419284	0.04725887
99	0xbcc13b2d	-0.023587788
100	0xbd15b497	-0.036549177
101	0x3d09e0ee	0.033661775
102	0xbc4d6ea1	-0.012538583
103	0x3dbc1a04	0.091846496
104	0xbda19637	-0.07889979
105	0xbc64fa2d	-0.013975662
106	0x3cf2cae7	0.029637767
107	0x3d6476f4	0.055777505
108	0xbd84890a	-0.064714506
109	0x3da07854	0.07835451
110	0xbd670327	-0.05639949
111	0x3daf9660	0.08573604
112	0x3d939485	0.07206062
113	0xbd9bc347	-0.076056056
114	0x3d96b683	0.0735903
115	0xbd0d500e	-0.034500174
116	0xbd764467	-0.060123827
117	0xbda2ad68	-0.07943231
118	0xbd07e3a5	-0.033176083
119	0xbd2eb0a2	-0.04264892
120	0x3aed81da	0.0018120364
121	0xbd262719	-0.04056463
122	0x3bfe44b3	0.0077596544
123	0x3d0b962e	0.03407877
124	0xbda265fd	-0.07929609
125	0x3d837962	0.06419636
126	0x3c0b7e65	0.0085140215
127	0x3da00c71	0.07814873
128	0x3ca995be	0.020701285
129	0x3d9d6bad	0.07686553
130	0xbc827ba9	-0.015928106
131	0x3da15f65	0.07879523
132	0x3b5c4856	0.0033612452
133	0x3abd8d8e	0.0014461742
134	0xbde00734	-0.10938874
135	0x3ca6cdfb	0.020361891
136	0xba6dc041	-0.00090694806
137	0x3ce8769c	0.02837687
138	0x3d75405b	0.059875827
139	0xbda8f1c6	-0.082492396
140	0x3d04f334	0.0324585
141	0x3d5f6b5a	0.054545738
142	0x3dae9148	0.08523804
143	0xbcac21ad	-0.021012152
144	0xbd1f8f83	-0.038955223
145	0x3caee205	0.021348009
146	0x3d142462	0.03616751
147	0x3c78481e	0.015153913
148	0x3d913eaa	0.0709203
149	0xbd902c41	-0.07039691
150	0xbd7dcda0	-0.061963677
151	0x3cf0684b	0.029346606
152	0xbd672b37	-0.056437697
153	0x3d9e8a1b	0.07741185
154	0xbdba6fef	-0.09103381
155	0x3d90f301	0.07077599
156	0xbd9afc16	-0.07567613
157	0x3c6daa06	0.014505869
158	0xbd110658	-0.03540644
159	0xbc006e76	-0.007838836
160	0x3dab9444	0.08377889
161	0xbb1b206a	-0.0023670443
162	0xbd8221de	-0.06354116
163	0x3dca1f51	0.098692544
164	0xbd17fb83	-0.037105095
165	0xbd287477	-0.041126695
166	0xbcb40fc8	-0.021980181
167	0xbd19290a	-0.037392654
168	0x3d15a15c	0.036530837
169	0xbc74f319	-0.014950537
170	0xbbd27690	-0.006422825
171	0x3db1ba88	0.08678156
172	0xbd8ad810	-0.06779492
173	0xbd571d28	-0.05251804
174	0xbd14c1cb	-0.036317628
175	0xbc7016aa	-0.014653841
176	0xbd158a1b	-0.03650866
177	0xbd5b20da	-0.053498127
178	0x3d4f80e7	0.05066004
179	0xbc0ac593	-0.008469957
180	0x3d4d5cd6	0.050137363
181	0xb9498ceb	-0.0001922135
182	0xbd7a26d1	-0.061072174
183	0x3cbc4fe3	0.022987312
184	0x3d9a8cb8	0.07546371
185	0xbd9c82a0	-0.07642102
186	0x3cf3521e	0.029702242
187	0xbafdc022	-0.0019359628
188	0x3d193882	0.037407406
189	0x3d8dffe9	0.069335766
190	0x3c94f106	0.018181335
191	0x3d2a89e5	0.041635413
192	0x3dda8f76	0.10671894
193	0x3be57aaa	0.007003148
194	0x3dae1c7d	0.085015275
195	0xbd57321a	-0.052538015
196	0x3d3a2683	0.045446884
197	0x3b90757f	0.004408538
198	0x3d3b130a	0.045672454
199	0xbd8b3a53	-0.06798234
200	0x3d0b2332	0.03396911
201	0xbd945d67	-0.072443776
202	0x3c8825ce	0.01661959
203	0xbda7d669	-0.08195192
204	0xbd5d2d63	-0.053998362
205	0x3d9338d3	0.07188573
206	0xbd9958ce	-0.07487641
207	0xbc834b4c	-0.016027115
208	0xbd9b73c9	-0.07590444
209	0x3cdb89da	0.026799131
210	0x3d50529f	0.050860044
211	0xbd965a63	-0.07341459
212	0x3cf3dc10	0.02976802
213	0xbd30bbb2	-0.04314775
214	0x3dc7ad39	0.097498365
215	0xbc9b9fa0	-0.018997014
216	0x3d9902ee	0.07471262
217	0x3dba81b8	0.09106773
218	0xbd34f445	-0.044178266
219	0x3db2968e	0.08720122
220	0x3d96f5c4	0.07371095
221	0x3d9ca7e2	0.076492086
222	0x3db007bf	0.085952275
223	0xbcabce92	-0.020972524
224	0xbd67e924	-0.056618825
225	0xbd197d97	-0.037473287
226	0xbcdb1d66	-0.026747417
227	0xbc842df6	-0.016135197
228	0xbd613964	-0.054986373
229	0xbd934a12	-0.07191862
230	0xbd1a12ff	-0.037615772
231	0x3d030389	0.031985793
232	0x3d86fd1e	0.06591247
233	0xbd9e54c3	-0.07731011
234	0x3c6a8b6f	0.01431547
235	0x3c2200b1	0.00988786
236	0xbceaa734	-0.028644182
237	0xbd904bec	-0.07045731
238	0x3c1f28af	0.00971429
239	0xbd4c79db	-0.049920898
240	0x3d80dd00	0.062921524
241	0x3d5b0501	0.05347157
242	0x3d7c191a	0.061547376
243	0x3c0e841c	0.0086984895
244	0x3d4fa4bb	0.05069421
245	0x3d249a6d	0.040186334
246	0x3d243915	0.0400935
247	0xbd71ce50	-0.059034646
248	0x3ddfc4a7	0.1092618
249	0xbd61a85c	-0.0550922
250	0x3bd099a2	0.0063659707
251	0x3d21b1e2	0.039476283
252	0x3c951976	0.018200617
253	0x3d81b7c4	0.06333879
254	0x3d99935e	0.07498811
255	0x3d6e5d04	0.058194175

lin4.bias f4 [64]
0	0x3d161a1f	0.036646005
1	0x3cab60f6	0.020920258
2	0x3dc9cf22	0.098539606
3	0x3baf4f39	0.0053500202
4	0xbdbcaac4	-0.092122585
5	0xbcd11956	-0.025524776
6	0xbd56cdf2	-0.0524425
7	0x3cc2ee78	0.023795351
8	0xbd2b5bbe	-0.04183554
9	0xbd7f6763	-0.062354457
10	0x3d98c5c2	0.07459594
11	0x3cfccb2f	0.030858604
12	0x3c5db851	0.013532714
13	0x3ccb7517	0.024836106
14	0x3dbcf30e	0.092260465
15	0xbd45f666	-0.048330687
16	0xbbaf8713	-0.0053566783
17	0x3d845ecd	0.06463394
18	0x3be81055	0.007082025
19	0x3c4245c5	0.011857455
20	0xbb65691b	-0.0035005275
21	0xbd40906e	-0.04701274
22	0xbdddd1e0	-0.10831046
23	0xbc8a284f	-0.016864924
24	0x3db2061b	0.08692571
25	0x3d792e5b	0.060835224
26	0x3d7789d7	0.06043419
27	0x3d775509	0.06038383
28	0x3d91c675	0.07117931
29	0x3cb73a86	0.022366773
30	0x3d5107ce	0.051032834
31	0x3d66b085	0.056320686
32	0x3da14a22	0.07875468
33	0xbd399ce0	-0.045315623
34	0xbd89ba67	-0.067250066
35	0x3abd0bfa	0.0014423125
36	0xbdc0189e	-0.09379695
37	0x3cbc6284	0.022996195
38	0x3dbff725	0.09373311
39	0x3d17dfa0	0.0370785
40	0xbd72e5a7	-0.059301045
41	0x3d013c46	0.03155162
42	0xbd944aad	-0.07240806
43	0x3d2c9cc0	0.042141676
44	0x3d8ed657	0.06974476
45	0x3d408488	0.04700139
46	0xbd253beb	-0.040340345
47	0xbda5e081	-0.08099461
48	0xbd56aace	-0.052408986
49	0x3d158297	0.036501493
50	0x3d6905cd	0.056890298
51	0xbd7853f3	-0.060626935
52	0xbdac707f	-0.084198944
53	0x3d95e5ea	0.07319243
54	0x3d5b5cf4	0.053555444
55	0xbd52cf76	-0.05146738
56	0xbbe189bd	-0.0068828748
57	0x3d20d852	0.0392688
58	0x3d5f340f	0.054493006
59	0xbdcf73b7	-0.10129493
60	0xbc02f63b	-0.007993276
61	0x3bcf680d	0.0063295425
62	0x3d90a52b	0.07062753
63	0x3d49b32a	0.04924313
