src/virtuose_teleoperation/network_controller/trained_policy_MLP/BC_EE_epoch_237.pth (torch, 439495 bytes, 10 tensors)

lin1.weight f4 [256, 7]
00000000: 7971 643e 81e8 b2bc b35d 5bbe b1ee 863e
00000010: 5d2b 7fbe cff7 a8be 7f78 123e 0b7b 1f3d
00000020: 0a13 21be e297 e43e 806e afbe 299e 4bbe
00000030: 7c16 02be 6589 8dbd 1c75 9fbd 9e00 26be
00000040: 0088 a1be 60f0 60be c608 58be 2f31 933e
00000050: 87ba 8f3e 922a 363a 1cf7 1a3e 8705 943e
00000060: 5cf4 f33d edbb 24be 37d1 803d 894e 08be
00000070: e3a8 9c3e 645a a93e 882a 183e 14f5 ab3e
00000080: 419c da3d f18c 813d 09c7 e53d 4809 10be
00000090: f717 3bbe 42c8 82be 595a 603d cdfa b53e
000000a0: 44d9 19be 3315 423e 9084 443d fac2 a7be
000000b0: f57d 263e a362 353e 0712 53bc e5d2 b63e
000000c0: 461b 403b fb74 7abe e2f5 7e3a b16a a3be
000000d0: b6c6 5cbe c049 acbe 47c7 54be 5479 6a3e
000000e0: 6af8 babe 91eb f13d 029e 2f3e b91b 063e
000000f0: 4393 62be 09a2 4c3e ceef 91be 868a 0cbe
00000100: 9f28 bd3e 1376 bfbe 8931 a23c 4ad7 8c3e
00000110: 079c a93b e141 58be de34 c0be f3e9 6ebe
00000120: 859b 763e 3fa4 88be 742c 06bc 1962 2dbe
00000130: 1a80 b83e 45c2 79be 5ddd edbd 8911 8a3e
00000140: 2c38 593e 6982 68be 17c6 9b3d 4ef7 573d
00000150: fd7a 0abe af85 5bbe 7736 f53d cd20 5cbe
00000160: 382c 823e eeec 9bbe a724 6fbd eecb bfbe
00000170: 0097 9bbd d10d b4be a5f3 95bd 9ce8 7c3d
00000180: eb14 c6be 3d1a 403e 7447 90bd 2148 1dbe
00000190: 99c6 a33e e828 6abe c66b a23e 1997 54be
000001a0: 6189 8ebd 64e6 373e 8405 27bd 37ec 1bbd
000001b0: ecd3 713e 1965 933e 4307 bfbe ff37 a2bd
000001c0: 5ca9 233e 7624 b73d eb56 0c3e 40bd 193e
000001d0: 3831 793d 68b6 fdbd 6f5e ca3d 14a0 48bc
000001e0: 4435 a7be b45e aebe d676 f6bd d6ba b1be
000001f0: b84c 713e 9eb4 a2be 1a61 b53e 1a5b b9be
00000200: 398a 833d e6f5 aabd c732 333d 7e6a 5e3e
00000210: 2dbe f53d d4cf 6ebe 2789 a7be 1925 a1bd
00000220: 1e5d 093e 8451 43bd 1ada 6b3e 25c9 2e3d
00000230: 805b 173e d609 223d 234f c13e 3239 9dbe
00000240: eb4a 1b3d b763 a6be 1551 9d3d f2e1 3a3e
00000250: 7ef1 a2be dd4c cc3e 7bb8 b23d d550 5dbe
00000260: cb46 fcbd 3688 3fbe ff9f e63c de4a 193e
00000270: 7e78 35be f333 11be d140 80be 82f3 6dbe
00000280: c0f2 b23e 3cbf 15be b70f d63d b9e7 f4bd
00000290: c4b2 afbe 28d3 71be eb6b 9cbe 8ecc a2be
000002a0: 9ebb afbe bbe0 0ebe 74a6 4b3e 9d60 72be
000002b0: 5c65 033e b007 f53d 63f9 65be 5287 9abe
000002c0: 88f6 74be 1206 433e 688a 42be 987a e53d
000002d0: aa90 263e 8a9f f3bd bc59 3b3d 84f9 1dbd
000002e0: ef0a 8a3e 1bd0 7cbe eed8 3dbe 8c2c b7bd
000002f0: 19cd 6fbe acca 58bd cd02 0bbc b48b a33e
00000300: c57a 8bbe 21bd 893e fc52 933d 7c4b c33c
00000310: 00b8 763e a672 0c3d 46c3 5cbe 32cb b4be
00000320: 90e5 a5be 2f8e f5bc 1011 87bd ba8e 2d3e
00000330: dab0 2e3d 3f15 3fbd 193a 35be 54e6 08bd
00000340: 5934 b83e 13c2 d5bb be44 6f3d e416 9e3d
00000350: c5a2 9a3e 0f3e cf3d 7ecb acbe c2ca 9a3d
00000360: bcf3 4d3e ec44 903e fefd 3dbe 9f70 4b3e
00000370: 99bb 8fbb 655b 963e ae23 bc3e 4ab2 213e
00000380: 14d8 c13e c7bf a83e 192d 213d 589a acbe
00000390: 9267 4dbe 4cdd 583d e867 9b3e 2863 a7bd
000003a0: dac0 193e 707e 91bd ba68 bcbe 4763 a33e
000003b0: 5ac0 72bd ea5e be3e 5dbd a23e b5a9 8ebe
000003c0: eae7 493d 1d19 f13d 2749 bb3c 34a2 acbe
000003d0: 1991 8b3e decc 8fbe 94ea b53e e152 fabc
000003e0: ca8d 893e aeb4 c03e a21a 3bbe 9146 853d
000003f0: 47ff 5abd c200 4ebe e589 333e 2b61 d7bd
0.22308911 -0.021839382 -0.21422462 0.26353982 -0.24918886 -0.33001563 0.14303778 0.038935702
-0.15729919 0.44647127 -0.34263992 -0.19884552 -0.1270389 -0.069109716 -0.07786009 -0.16211173
-0.31549072 -0.21966696 -0.21097097 0.28748462 0.28071997 0.00069490925 0.15133327 0.28910467
0.11911842 -0.16087313 0.062899046 -0.13311209 0.305976 0.33076775 0.14859974 0.33585417
0.10674334 0.063257106 0.112196036 -0.1406604 -0.1827086 -0.2554341 0.054773662 0.35542908
-0.15024287 0.189534 0.047977984 -0.32765943 0.16258986 0.17713408 -0.012882716 0.35707775
0.0029313131 -0.24458687 0.00097259704 -0.31917337 -0.21560177 -0.33650017 -0.20779143 0.22897846
-0.3651765 0.11812509 0.17150119 0.13096513 -0.22126488 0.19983687 -0.2850327 -0.13724717
0.36945054 -0.3739477 0.01979901 0.27508003 0.0051760706 -0.21118881 -0.37540334 -0.23331432
0.24082763 -0.2668781 -0.008189309 -0.16931953 0.36035234 -0.24390514 -0.11614487 0.26966503
0.21212834 -0.22705998 0.07606142 0.052726083 -0.13523479 -0.21437715 0.11973279 -0.21496888
0.2542436 -0.304542 -0.058384564 -0.37460274 -0.0759716 -0.3516679 -0.07321862 0.06174527
-0.38687834 0.18760009 -0.070448786 -0.15359546 0.31987455 -0.22867167 0.3172285 -0.20760764
-0.06959797 0.17958981 -0.040776744 -0.03806707 0.23615998 0.2878807 -0.37310228 -0.07920837
0.15982574 0.08942501 0.13705032 0.150136 0.060837954 -0.12388307 0.09881293 -0.012245197
-0.32657826 -0.34056628 -0.12034385 -0.34712857 0.23564422 -0.31778425 0.35425645 -0.36202317
0.06422848 -0.08347683 0.043749597 0.21720311 0.11999164 -0.23321468 -0.32721826 -0.07868404
0.13414428 -0.04768516 0.23032418 0.042672295 0.14780998 0.03956016 0.3775569 -0.307077
0.037913244 -0.3249795 0.07681481 0.18250254 -0.3182487 0.39902392 0.08726593 -0.21612866
-0.1231819 -0.18704304 0.028152464 0.14969966 -0.17721745 -0.14179973 -0.2504945 -0.23237422
0.3495083 -0.14623731 0.10452216 -0.1195826 -0.34316075 -0.23615706 -0.30551085 -0.31796688
-0.34322828 -0.13952915 0.19887716 -0.23669668 0.12831634 0.11964357 -0.22458415 -0.30181366
-0.23922169 0.19045284 -0.1899811 0.112050235 0.16266122 -0.11895664 0.045739874 -0.038568035
0.26961467 -0.24688761 -0.18539783 -0.089440435 -0.23418082 -0.052927658 -0.0084845545 0.31942523
-0.27242103 0.26902106 0.071935624 0.023839705 0.24093628 0.034289025 -0.21558866 -0.35311276
-0.32401705 -0.029975025 -0.06595051 0.16948977 0.042649128 -0.04665112 -0.17697944 -0.033422783
0.35977438 -0.0065233796 0.058415167 0.0771921 0.30202308 0.101192586 -0.33749002 0.07558204
0.20112509 0.28177583 -0.18553922 0.1986718 -0.004386377 0.29366603 0.3674597 0.15790668
0.37860167 0.32958815 0.03934965 -0.33711505 -0.2005904 0.05294542 0.30352712 -0.081732094
0.15014973 -0.07104194 -0.3679865 0.3191168 -0.059265472 0.3718179 0.31785098 -0.2786385
0.049293436 0.11772368 0.02286203 -0.337175 0.27259138 -0.2808599 0.3553053 -0.030557098
0.2686599 0.37637848 -0.18271878 0.065076 -0.053466108 -0.20117477 0.17533071 -0.1051658

lin1.bias f4 [256]
00000000: fddb 42be 47b1 07be 9419 8a3e 891d e4bd
00000010: 7a8e 95bc 5219 13be 8a68 9c3e 01ef 9bbe
00000020: 2249 89be 52ab 853e 08e2 3abe 3b37 46bd
00000030: ee40 dcbc a05c 32bd 104a 673e 071f 1a3e
00000040: d1e9 bdbe d73e adbe 1380 733d 0d38 903e
00000050: 361e 38be 47fb 883e 9b8f 883e 1f22 883e
00000060: c7b8 1dbd 1937 3dbe 547c 463e 6524 f73d
00000070: af34 ac3e 5f4b f6bd aae9 59bd 970b a93e
00000080: 74bf 73be b9c2 51be 8bf4 a03e 2907 7e3e
00000090: bcd1 edbd 193e ac3e 5cea 913b cef1 31be
000000a0: 78b7 ffbd 4ceb 723e 5c2d b9be 0fd9 c4bd
000000b0: 8cc1 a4be 3d0a 13bd 872c 96be 2768 463e
000000c0: a041 603e c2cb 4dbd 3459 91be c1ba 9a3e
000000d0: 978b 263e c5fb 403e 5fe7 eabc bcfb 493e
000000e0: 7091 91bd e620 6dbe d7fd 333e e8a1 10be
000000f0: 3a42 50be 1c10 27be 067b c93d 8f62 5d3e
00000100: 1dcf debd c365 693c 689a 933d 5348 833e
00000110: 652b 0c3d 9970 d4bd 1085 643e 1429 843e
00000120: 1a80 94be fcc0 c7bd c710 723e b128 3dbc
00000130: 60d6 21be 33d9 5abe 49bd 8cbe 8647 ac3e
00000140: e7d9 f9bd 0101 61be 3748 61be 28e4 82bc
00000150: 73ef a63e 2ee4 bbbe 398c 9d3d d1eb 9bbe
00000160: 648d aa3e 9d91 adbe 4ea4 11bd c964 46bc
00000170: 8643 a83e f525 9abe 128d 9cbe 5dda 5b3e
00000180: b214 a23e 29c3 4dbe c13b dfbd cf36 b4be
00000190: 53f3 3b3e be84 9a3e 65d3 653e f847 51be
000001a0: f552 333d 31dd b73e c51f 913e d8dc 4ebe
000001b0: 743a 30be ded6 0a3d ed38 0abe 47c9 ae3e
000001c0: c8aa bc3e 3fc1 ccbd de1f 643e 18e3 4d3e
000001d0: 44cd 8bbe 2701 95bd 0262 9c3e c2d8 ba3d
000001e0: 0347 8dbe 5e0c 963d 9903 b3bb a832 173e
000001f0: d427 52be 842d 793e 8d9b 8cbe d252 35be
00000200: 64d5 213e f699 243e 62e2 683e 9de4 8c3e
00000210: 3f98 673e 8a9c 873e 1f0e 323c d39c 37be
00000220: 59ea b73d b35b bf3c 6b4b 833e 6f21 b63e
00000230: d413 b23e 5534 a2be ba9c 423d 42e9 913e
00000240: 6863 5cbe b36e 723e 65ba 113e 2b6d 093d
00000250: 409b c5bd b0a9 a93d 2d64 69be 0b5f 2fbe
00000260: 1db8 5a3e d519 bfbc 71b0 29bc b8dd 9f3e
00000270: a70f 573e 4151 bebe a6ed f8bd b227 b7be
00000280: f27d 4b3d 1126 43bd 3954 cc3d 39aa 93be
00000290: e38e 783c 3394 fbbc 24cb 523e 8801 a9be
000002a0: e590 adbe 7b97 c43b 083e 8bbe 6fae 9c3c
000002b0: 652e 01be b27b 893e e283 12bd ce1d 96be
000002c0: 191f 2c3d 6ffb b83e b383 e9bd 56b7 a6be
000002d0: 1794 aebe 0ac9 81be 6095 97be 6a00 f2bd
000002e0: 8450 03be 9ce1 b23e f98f bdbe 7f01 0a3e
000002f0: 5c3a ae3e 32d8 5cbe 5e6b 593c 398e 5b3e
00000300: 0c74 a23e a470 abbe 7797 98bd 32a9 86bc
00000310: 3c35 5abe b670 9f3e 78b2 173e d209 bebd
00000320: 52c4 b3be 7b25 633d b3a5 3f3e 23c0 56be
00000330: 83de 213d a1d9 743e 8242 363e 6c84 6d3e
00000340: 9fad 223e 177e 6c3c 0359 0e3d 4469 9b3e
00000350: ef78 1cbd a911 7fbe 9069 5d3e 13f5 853d
00000360: dbc7 09be dd2f 8fbd 4de9 a43d f10b b13e
00000370: 44d0 99bd e88c 163e cbf9 a53e 0ece 7d3e
00000380: 4e99 a33e 5c7c 0ebe e7ee 33bd 2429 76be
00000390: 0a01 6b3e 8b6c f53d 46b4 4bbc 671a 403e
000003a0: 632a c03e 097a 17be ba20 ac3e 5a62 133e
000003b0: 7f6e 8abe 6393 5dbe 4250 2bbe 5b0d a9be
000003c0: 6cdf 8fbe 67ca a5be 97d6 1f3b e75e 24be
000003d0: 6ea3 f73d 9eda 48bd 615f 8abe 5c37 5f3d
000003e0: 6e91 a9be 1497 ccbd 8bdf acbd ec89 b9be
000003f0: b859 9b3e db05 233e 7665 ca3d c583 73be
-0.19029231 -0.1325122 0.2697264 -0.11138446 -0.018256415 -0.14365128 0.30548507 -0.30455783
-0.26813608 0.2610727 -0.18250287 -0.048392516 -0.02688643 -0.043545365 0.22586846 0.15050898
-0.3709245 -0.33837005 0.059448313 0.28167763 -0.17980275 0.2675421 0.26672062 0.26588532
-0.038506296 -0.1847805 0.19383365 0.120674886 0.33633944 -0.12026095 -0.053201355 0.33016655
-0.23803502 -0.20484437 0.3143657 0.24807419 -0.11612269 0.33641127 0.0044529866 -0.17377397
-0.12486166 0.23722571 -0.3616742 -0.09611713 -0.32178915 -0.035898436 -0.29330847 0.19375668
0.21900034 -0.050243147 -0.2838837 0.30220607 0.16264187 0.18846042 -0.02867478 0.19724935
-0.07107818 -0.23157081 0.17577301 -0.14124262 -0.20337763 -0.16314739 0.09837918 0.21619628
-0.108793475 0.014245453 0.07207185 0.25641116 0.03422107 -0.10373039 0.22316384 0.2581259
-0.29003984 -0.09753606 0.23639213 -0.011545346 -0.15804434 -0.21371917 -0.27488163 0.33648318
-0.12199765 -0.21973039 -0.22000204 -0.015977934 0.3260456 -0.36697525 0.07692761 -0.3045335
0.33310997 -0.33900157 -0.035557084 -0.01210899 0.32864016 -0.30107084 -0.30576378 0.21470018
0.31656414 -0.20093979 -0.10900069 -0.35198066 0.1835454 0.301794 0.22443922 -0.2043761
0.043780286 0.35910943 0.2834455 -0.20201433 -0.17209798 0.03389632 -0.13498278 0.34137937
0.36849046 -0.09997796 0.22277781 0.2010616 -0.27305043 -0.072756104 0.30543524 0.091233745
-0.2759324 0.073265776 -0.0054630754 0.14765418 -0.20523006 0.24333769 -0.27462426 -0.17707375
0.15804058 0.16074356 0.22742608 0.27518168 0.22616671 0.26486617 0.010867625 -0.17930917
0.08980245 0.023359155 0.25643477 0.35572383 0.34780753 -0.3168055 0.047512747 0.28498274
-0.21522295 0.23675041 0.1423126 0.033551376 -0.09648752 0.082843184 -0.2279212 -0.171261
0.21359296 -0.023327747 -0.010357008 0.31223845 0.21002065 -0.37171367 -0.12154703 -0.35772473
0.049680658 -0.047643725 0.09977002 -0.28840807 0.015170786 -0.030710315 0.20585304 -0.3300898
-0.33899608 0.005999503 -0.27195764 0.019126145 -0.12615354 0.26852185 -0.035770305 -0.29319614
0.042021845 0.3612933 -0.11402073 -0.3256175 -0.3409736 -0.25348693 -0.29606152 -0.11816485
-0.12823683 0.3493775 -0.37023905 0.13477133 0.340289 -0.21566847 0.013270227 0.21440972
0.31729162 -0.33484375 -0.074507646 -0.0164381 -0.2130937 0.3114068 0.14814174 -0.09279217
-0.35110718 0.055455666 0.18715553 -0.20971732 0.039518844 0.23911144 0.17798808 0.23195046
0.15886544 0.014434359 0.034752857 0.3035375 -0.03820127 -0.2490908 0.216223 0.06540885
-0.13455145 -0.06991551 0.08052311 0.34579423 -0.07510427 0.14702189 0.3241714 0.24785635
0.319529 -0.13914627 -0.043929007 -0.24039131 0.22949615 0.119835936 -0.012433117 0.18760072
0.37532339 -0.14792646 0.33618718 0.14392987 -0.27037427 -0.21638255 -0.16729835 -0.33018002
-0.28100145 -0.32380983 0.002438938 -0.16051827 0.120917186 -0.049036615 -0.27025893 0.054496154
-0.33118767 -0.09989753 -0.08441075 -0.3623804 0.30341887 0.15920202 0.098826334 -0.23780735

lin2.weight f4 [256, 256]
00000000: d840 3dbc 9d1f 11bc bbc6 4c3d 737f 723d
00000010: 903e 423d c484 513d 6636 e73c af6c 4ebd
00000020: d84b 663c b529 5438 af7e 983d f07e 873d
00000030: 2abe 69bd 1fd3 5abc 784f 9c3d fc4b 323d
00000040: 009b 75bb 8ce0 76bd 64ed bb3c e949 eabb
00000050: 406c 6a3d c26d 7a3d 1d4a 5abc 7668 4e3d
00000060: 0846 15bc 54be a9bc f328 243d 588e 1abd
00000070: 610c 94bc 5c49 d4bc 373c 3cbd 8089 6dbb
00000080: a636 06bd 302c ac3c af22 93bd 37a7 16bd
00000090: e2f4 0cbb abb2 323d 6265 2a3d b084 f63b
000000a0: 15d2 f03a 9bbe 2ebd f87e 333d d251 3cbd
000000b0: 42c6 16bd 20f4 393c f66c 68bd 81d3 c6bb
000000c0: 5080 fb3c 10d0 453d 318a 6abd ddbe 0f3c
000000d0: eb40 1d3d 20b6 6e3d da40 b9bd 5c54 88ba
000000e0: ad14 51bd cc57 19bd b27b 883d 5258 193d
000000f0: 91e4 cf3d 60c3 0ebd 3af8 36bb 98bb 79bc
00000100: 8635 7fbd 0dd0 ea3c 309a 22bd 11cd 683d
00000110: 596f 513d 83a1 10bd c520 4b3d 3cb9 393d
00000120: 7eef 483d e8db 583c 3ad9 81bd 20e9 8cbd
00000130: ea77 153d 28a1 88bc 3e15 0c3d 36b4 6dbd
00000140: 3239 03bc 8877 49bd 1a94 41bd e0a4 4abb
00000150: d0ee 79bc 8244 273d f88c 4c3d a0e9 25bb
00000160: 5274 ccbc 907a b9bb 5402 4dbd c03f 48bb
00000170: 8105 80bd 6eae 47bd 7317 1a3d 83da 8e3c
00000180: f603 09bd 32a3 6bbd 8266 1e3d c99f 2bbb
00000190: 869b 7b3d 23c9 48bd 09dc 623d 4081 60bc
000001a0: d9c5 f9bc 21c3 6fbd c029 d73b 61c7 18ba
000001b0: 08bf 663d 2ad1 8a3c 864d 6abd ae25 0b3d
000001c0: 514e 33bd d84f 65bd f407 28bd aeb1 b3bd
000001d0: 24c7 003d c8ca 053c f74d a7bd 1b9d 283d
000001e0: d8ec 4dbd d045 b23c 3115 933c 197a 3e3c
000001f0: 7005 313d dd3e 893b 6e0f 243d bcb9 01bd
00000200: 6212 643c d8fc fa3c 8425 843d 2119 9d3c
00000210: 487c 26ba a948 183d 8836 96bd 0f48 83bd
00000220: d406 dabc 4129 4a3c 48f7 97bc 673e 433c
00000230: 2b3b 033d 0402 243d 6af7 4dbd 1b87 0b3d
00000240: 2e23 11bd f07e 433d e6b0 e6bc f212 0ebd
00000250: e7ac 873d 2867 7f3d b286 643d 1af3 37bd
00000260: 2edf bbbc 2a66 67bd 01ca 523d 076f 7a3d
00000270: 3ce8 1abd 40d6 0bbc 526b b6bc c0e5 ba3b
00000280: 01e9 2fbb a0fd 19bd a941 b7bc fad4 6dbd
00000290: 0005 28ba f0de 0bbc 02b3 4a3c 8f2b 5cbb
000002a0: bcab 3dbd 088d 45bd 8860 8ebd 98ba 2d3c
000002b0: ec61 143c 5e62 153d 03b4 2bbd 02ac 0fbd
000002c0: a8e3 20bc c95e 503d 1980 5b3d b09c 5e3d
000002d0: 08aa 413d 2085 6f3d 0038 a838 7850 88bc
000002e0: 7030 f03b 520e b53d fac0 4abd 53e3 913d
000002f0: a08e 7abd a4a0 55bd bf66 cbbc 1e1c 58bd
00000300: accf 643d 2665 9bbd fc0e 53bd a06f 1c3c
00000310: d75e 8c3c f0f9 1ebd dd7e 0f3d 3457 a43d
00000320: 24fe 063d 0962 113d 1cb6 803c 20fd 6f3c
00000330: 1068 3dbc 48c5 56bc bb01 7ebd 55d9 b8bc
00000340: 9c0e a5ba 7b7a 063b ce18 533d ce84 253d
00000350: 1a85 f93c 2cb8 15bd 5fc7 ae3c 382b 81bb
00000360: 4eae 2abd 7bc1 dd3b e738 b33d e399 b33c
00000370: d00e cf3b b90b e83c 0140 bcbc f3a0 463d
00000380: 9f76 f83b 2cb2 08bd b919 d03d f0b5 87bb
00000390: fe67 a9bc 0efd 31bd f821 e1bb 3720 04bd
000003a0: 6eec 89bd 6c3e ecbc 903a 0c3d 4709 053c
000003b0: 702d 1b3d 1fd3 efbc f4aa 653d 666d 6b3d
000003c0: 78dd e13c 0031 953a 3a12 a13d 140e 7fbd
000003d0: f4d1 6bbd 908c 04bd 5045 2fbd ee08 3abd
000003e0: 26b3 44bd c45b d33c e430 3a3a 0896 723c
000003f0: ffd1 823d 8cdf 6a3d 4935 943c d470 323d
-0.0115511045 -0.008857635 0.04999421 0.059203576 0.047422945 0.051152006 0.028224181 -0.050396618
0.0140561685 5.058358e-05 0.07446038 0.06616008 -0.05706612 -0.013355999 0.07632345 0.043529496
-0.003747642 -0.06027274 0.022940345 -0.007149924 0.05723214 0.06113983 -0.013323334 0.05039259
-0.009110935 -0.020720638 0.040078115 -0.037733406 -0.018072309 -0.025913887 -0.045955863 -0.0036245286
-0.03276696 0.021017164 -0.0718435 -0.036780562 -0.0021508266 0.043627422 0.041600592 0.007523142
0.0018373156 -0.042662244 0.04382226 -0.045976467 -0.036810167 0.011349708 -0.05674454 -0.0060676937
0.030700833 0.048294127 -0.057260696 0.008773533 0.03839199 0.058279157 -0.090455726 -0.0010401118
-0.05104511 -0.037437245 0.06664218 0.037437744 0.101510175 -0.034854293 -0.002791895 -0.01524248
-0.062306903 0.02866366 -0.039697826 0.05683619 0.05113158 -0.03531028 0.0495918 0.04534267
0.049056523 0.0132360235 -0.06340261 -0.068804026 0.036491312 -0.016678408 0.034199946 -0.05803319
-0.008009242 -0.04918626 -0.04726038 -0.0030921027 -0.015254691 0.04083682 0.049939126 -0.0025316253
-0.02495781 -0.0056603625 -0.05005105 -0.0030555576 -0.0625105 -0.048750333 0.03762002 0.017438179
-0.033451043 -0.057528682 0.038671978 -0.0026187769 0.061427616 -0.049019944 0.055385623 -0.013702691
-0.030489849 -0.0585357 0.0065662563 -0.00058280496 0.056334525 0.01694544 -0.05720284 0.03397148
-0.04377586 -0.055984348 -0.04102321 -0.08774124 0.031439915 0.008166023 -0.081691675 0.041165452
-0.0502747 0.021761805 0.01795444 0.01162579 0.043218076 0.004188402 0.040053777 -0.03167127
0.013920398 0.030638143 0.06452468 0.019177021 -0.0006350917 0.03717867 -0.0733462 -0.064102285
-0.026614584 0.012338937 -0.01855053 0.011916733 0.03203885 0.040040985 -0.05028478 0.034064393
-0.03543394 0.04772848 -0.028160524 -0.034686036 0.066247754 0.062354237 0.055792518 -0.044909574
-0.022933569 -0.056493916 0.051462177 0.06114104 -0.037819132 -0.008534968 -0.022267971 0.005703658
-0.0026841762 -0.03759539 -0.022370176 -0.05806444 -0.00064094365 -0.008537039 0.01237178 -0.00335953
-0.046306357 -0.0482302 -0.069520056 0.010603569 0.0090565495 0.036470763 -0.04191972 -0.03507615
-0.0098199025 0.050871644 0.05358896 0.054348648 0.047281295 0.058476567 8.021295e-05 -0.016639933
0.007329993 0.08840622 -0.049500443 0.07123437 -0.061171174 -0.052155152 -0.024829267 -0.05276119
0.055862114 -0.07587652 -0.051527962 0.009548098 0.017135067 -0.038812578 0.035033096 0.08024445
0.03295721 0.035493884 0.015711837 0.014647752 -0.011560455 -0.013108559 -0.06201337 -0.02256457
-0.0012592855 0.0020519781 0.051537327 0.040409856 0.030458976 -0.036552593 0.021335302 -0.0039419197
-0.041670136 0.0067674494 0.08751088 0.021923965 0.0063189045 0.028325902 -0.022979738 0.048493337
0.0075825 -0.033373043 0.10161156 -0.0041415617 -0.02067947 -0.043454222 -0.0068705045 -0.032257285
-0.067345485 -0.028838359 0.034235537 0.008119888 0.03788513 -0.029275475 0.056071237 0.057477377
0.027571425 0.0011382401 0.078648046 -0.062269285 -0.057573274 -0.032360613 -0.04279071 -0.045418672
-0.04802241 0.025800593 0.0007102622 0.014806278 0.0638771 0.057342097 0.018091815 0.043564633

lin2.bias f4 [256]
00000000: 05b6 e7bc d731 ab3c 5014 9b3c 7061 af3c
00000010: a7c4 2dbd d187 2fbd 4807 83bd c08a 1ebc
00000020: e0c8 21bd 2a4d 3dbd c3e8 e03c 3c62 483d
00000030: 6484 13bd 04a8 2fbd 9000 7d3d 6041 673b
00000040: fa47 313d e8ab 33bd 809d d93b 66b4 6dbd
00000050: 702b 813c 2898 d6bc ec10 743d 8a9f 47bd
00000060: bc63 f4ba 9896 b83c acac d83c b4e6 d9bc
00000070: 2a59 a03c 96d5 a43c 908f 3fbb 1e4a cb3c
00000080: be91 653d 484a 2cbd be44 283c 94cd 18bd
00000090: 6acc 23bd 9b7b 4a3d 7240 02bd 3898 84bd
000000a0: 90f2 71bc fa8b 4cbd c5d8 123d e09f be3c
000000b0: 806a 27bb 6e9e 3e3d 0ac9 65bd ddee cfbb
000000c0: ec60 60bb e4d2 f9bb 4067 823a e3c2 583c
000000d0: 3cc4 1c3d f8a9 35bd feed 823c 52fd 4fbb
000000e0: 10a7 1d3d a0be 10bb 60ec a1bc 3558 c53c
000000f0: e4b2 9f3c 2abf 79bb 7f6a 57bd f886 823d
00000100: a3a9 92bc 23dc 5e3d 6204 7ebd 7823 aabc
00000110: fa60 2d3c f065 83bc 8640 223d fa74 a83c
00000120: e54e 50bc 2477 1e3d c4b5 6dbd 0b62 08bd
00000130: cf2c 4a3d 8470 ef3c 8825 15bd baa5 ab3c
00000140: b087 5ebd e34c fe3c 0632 00bd 8d69 d6bc
00000150: 7dd0 af3b 8540 4c3d 867e bc3b 426b b03c
00000160: 225f 203c bc39 78bd fc73 48bd 2881 e93c
00000170: 9db6 45bd b6d4 b4bb 8bab 6abc b2ff 6fbd
00000180: 40e0 1ebd e454 ba3c 1651 fe3c 10b0 adbb
00000190: 084f ba3c 000b 9e39 b3b7 10bd b82e 95bc
000001a0: 5c91 f8bc b40f 2ebd 6f97 403c b0a1 45bd
000001b0: 957c 44bc 1ee7 f53c f47c 3c3d 0cfa 273d
000001c0: 0062 a63b 467f 053d 2432 933c 24e8 23bd
000001d0: 0c4d 0d3d 589d 8f3c 185f eabc 92a3 0c3d
000001e0: 4091 c93a d59c 283d 1480 76bc 2e84 4e3d
000001f0: f28f 68bd 1dc5 5fbd 0039 203d 2a70 0abd
00000200: 75c4 383c d651 37bd 7293 0e3b 64b0 06bd
00000210: 8f54 443c 5448 1dbd 4f72 673d 70a7 3abd
00000220: b3a1 593c 5cb1 4cbc e06c dfbc 0ca7 1e3d
00000230: 5b78 0ebd a048 e1bc 0250 75bd 1c9f 413d
00000240: 802b cebc bd2d 543d 20f0 0d3d e1ab 84bb
00000250: 1020 da3c c4d0 383d 2124 3d3b e084 68bc
00000260: 7678 29bd ca68 89bd 72a0 f7bc d4f4 7c3d
00000270: 013f 263d 4198 21bc aa24 613d a038 7cbb
00000280: 00ad 56bc 1021 5bbc c62f 27bd f9ae 76bd
00000290: 84a2 b7bc 9617 7fbd 809e c9bc 38bb 16bd
000002a0: b8a6 84bc 2408 00bd 6003 30bb 16e0 3f3d
000002b0: 5cc3 dabc 30e2 01bc a6f7 183b d11c 9f3c
000002c0: 6d8e 253d 5f9a bd3c 81a3 d43c 816e fc3c
000002d0: 8408 b0bc 18ea 80bc ecc7 29bd 18e4 56bc
000002e0: 5bcd 21bd ecd1 72bd 8be6 1e3d 7d85 773c
000002f0: 4951 84bd 823e 59bd a520 053d 47ff 80bd
00000300: 997d 40ba 40a9 623c 25b8 8fbc f40e 83bc
00000310: 50f9 09bc 8118 f2bc 2c8a 84bc 0ce9 47bd
00000320: e401 e83c b297 493c 569c 90bd 505c 983b
00000330: e4f1 0ebd 706c 4bbd 3091 803b b8d3 533d
00000340: d9b3 5c3d 28e2 66bd 8ea9 c03c f4bd c1bb
00000350: 8294 653d 8edd 98bc 2198 f4bc ca7b cebc
00000360: 06c6 fbbc a8ee a6bc 76c8 763d ff4e 503d
00000370: 7579 aabc 50ab bb3c 1c70 663d 123a d5ba
00000380: 90e3 b6bc 8e1b be3c 2d25 97bc 4a00 07bd
00000390: 489e 00bd aba2 34bd 21f6 713d c65f 34bd
000003a0: f557 ee3c 51c9 85bd 139b a1bc 0151 54bd
000003b0: 928a 6abd b8c8 9fbc f0df 39bd 4472 98bc
000003c0: 805c 25bb e0d6 f2bb f02d 553d d79a 86bd
000003d0: 9f47 0d3c 243c 8d3a 345e 5a3d 314f 31bc
000003e0: 0624 32bd ec80 4a3d 0589 833d 53b5 903c
000003f0: 0634 413d 0087 f13b 4010 52bd 2b67 153d
-0.028285036 0.020897789 0.018930584 0.021408767 -0.04242387 -0.042854134 -0.06397873 -0.009676635
-0.03949821 -0.046216168 0.02745474 0.04892181 -0.03601493 -0.04288484 0.061768115 0.003528677
0.043281533 -0.043865114 0.00664109 -0.05803337 0.015767783 -0.0261956 0.05958645 -0.048736133
-0.0018645446 0.022532746 0.026449524 -0.026599266 0.019573767 0.020121377 -0.0029229857 0.024815615
0.056047194 -0.042063028 0.010270296 -0.03730543 -0.039989866 0.049434286 -0.03179974 -0.06474346
-0.014767304 -0.04993818 0.03585126 0.023269594 -0.0025545657 0.04653781 -0.05609993 -0.0063456134
-0.0034237457 -0.007624017 0.0009948984 0.013230058 0.03827308 -0.044351548 0.015982624 -0.0031736684
0.0384894 -0.0022086278 -0.019766033 0.024089912 0.019494481 -0.0038108327 -0.052591797 0.063733995
-0.017903155 0.054409157 -0.0620159 -0.020768866 0.010582203 -0.016039819 0.039612316 0.020563591
-0.012714122 0.03868784 -0.058034673 -0.033296626 0.04935914 0.029228456 -0.036412746 0.020953048
-0.05432862 0.031042522 -0.031297706 -0.026173377 0.00536543 0.049866218 0.0057523875 0.02153552
0.009788306 -0.060601935 -0.048938736 0.02850397 -0.048269857 -0.005518521 -0.014323126 -0.05859346
-0.03878808 0.022745557 0.031044524 -0.0053005293 0.022742763 0.00030144304 -0.03533144 -0.018210754
-0.03034275 -0.042495444 0.011754855 -0.0482499 -0.011992593 0.030017432 0.046017602 0.041009948
0.0050776005 0.03259208 0.017968245 -0.04001631 0.034497306 0.017531082 -0.028609797 0.03433568
0.0015378371 0.04116519 -0.015045185 0.050419025 -0.056777902 -0.05463134 0.03911686 -0.033798374
0.011277308 -0.04475578 0.0021755365 -0.032883063 0.011983051 -0.038399056 0.056505498 -0.045569837
0.013283181 -0.012493458 -0.027273595 0.038733527 -0.03478275 -0.02750045 -0.059890755 0.04727088
-0.025167227 0.051801432 0.03465283 -0.00404881 0.026626617 0.04512097 0.0028860646 -0.014191836
-0.041374646 -0.0670944 -0.030227873 0.061756924 0.04058743 -0.00986296 0.054966606 -0.00384859
-0.01310277 -0.013374582 -0.040817045 -0.06022546 -0.02241636 -0.062278353 -0.024611712 -0.03679964
-0.016192779 -0.031257764 -0.002685748 0.046844564 -0.026704483 -0.007927462 0.002334097 0.01942292
0.04041903 0.023144899 0.025956871 0.030814411 -0.021488436 -0.015736625 -0.041450426 -0.013115905
-0.039502483 -0.05928223 0.03879408 0.01510751 -0.064608164 -0.053038128 0.032501835 -0.0629869
-0.0007342934 0.013834298 -0.017543862 -0.015998341 -0.008421257 -0.0295527 -0.016179167 -0.048806235
0.028321214 0.012304233 -0.07061069 0.0046496764 -0.034898654 -0.04966396 0.0039235577 0.051715583
0.053882454 -0.056368023 0.02351835 -0.0059125368 0.05604983 -0.018660333 -0.029857697 -0.025205512
-0.030734073 -0.020377472 0.06024977 0.050856587 -0.020809868 0.022908837 0.05625926 -0.0016267917
-0.022325307 0.023206498 -0.018450344 -0.03295926 -0.03140095 -0.044100445 0.059072617 -0.04403665
0.029094676 -0.06532539 -0.019727265 -0.051835064 -0.057261057 -0.01950489 -0.04537958 -0.018609174
-0.0025232136 -0.007410869 0.052045763 -0.06572502 0.008623033 0.001077537 0.053312495 -0.010822103
-0.043491386 0.049439356 0.06422619 0.017664587 0.047168754 0.0073708296 -0.05128503 0.03647534

lin3.weight f4 [128, 256]
00000000: 68c7 223d d03c 30bd 40af 1dbc 988e 263c
00000010: 2657 2abd 56ce 79bd 228a 0bbd d058 10bd
00000020: bea4 1ebd cc16 033d 1096 833b 8ca0 e23c
00000030: 6434 603d 565e 2a3d 904d 9b3b 5cff c4bc
00000040: 5c5b 703d b0da e7bc b07e aebb 80c7 ed3b
00000050: e472 5ebd ca99 74bd 3630 69bd a08e 04bd
00000060: f874 71bd f050 bb3b f87c 49bc 40e6 5abc
00000070: 8275 643d 2a2d 6bbd b246 5d3d 80d9 9abb
00000080: 928f 363d e878 5dbd d2cc 11bd e669 3fbd
00000090: 4883 643d 5c34 edbc 3074 ac3b 90e4 a8bb
000000a0: d89d 5dbd f828 973c 00e0 70b9 265d 1fbd
000000b0: 8cce ffbc c2e1 1dbd 707f fabc 9432 c53c
000000c0: e8d3 3dbd 7015 d83b de79 12bd c457 123d
000000d0: ec09 b8bc 501b 863c 2a2c 07bd f6f1 053d
000000e0: 0082 65b9 1002 113c 2c0b ed3c 6c69 c53c
000000f0: a4f9 66bd 4cd7 71bd ee42 70bd eac1 1b3d
00000100: c072 fd3a 981d 2bbd e02d 3abb 4048 f73a
00000110: e48d 473d 202c 21bd 60f0 10bc 80fb 37ba
00000120: 0ce8 fd3c b0b3 47bd 6af7 7cbd 3261 4cbd
00000130: e4b6 efbc c6c6 623d 007e 07bb fa95 05bd
00000140: 80f4 38bb e44b 26bd 60ab c8bb 4cc4 813c
00000150: 70d5 e2bc 40ff 61bb f876 b7bc f8b9 fdbc
00000160: 58ca 7cbc c4c7 e6bc a056 f1bc 9079 423c
00000170: f816 373d 6cbd f23c ba3b 08bd 00d5 be3a
00000180: a40e c63c d8ba 053d 10c7 c4bb 1cb4 573d
00000190: 7887 883c 4075 aeba f40e 94bc 1875 15bd
000001a0: a8d5 64bd 803c a6bc 8480 2b3d 0206 213d
000001b0: f8b7 233c 98c4 53bc 5c8c 8bbc f03a f4bc
000001c0: 9473 e73c f8a1 993c c0de ab3c 9cc9 db3c
000001d0: 044f 83bc 4078 f13c 3694 78bd 7873 f9bc
000001e0: 985e 4dbc 66af 4bbd a060 bbbb 3aff 44bd
000001f0: 08b2 c93c c0ea 49bd c40a 09bd 9867 433d
00000200: 482f bc3c 2cb7 31bd 0c88 06bd d039 cf3b
00000210: 02d1 14bd 68c7 0e3c 9053 413c 2857 f03c
00000220: 8275 013d 6c1f 8d3c 9076 6ebc be9b 32bd
00000230: 685f 75bd dc59 ecbc 6044 673b e402 f93c
00000240: d8aa 1e3d 0e7b 5bbd 6431 063d f095 073d
00000250: 248e 5c3d 744b 85bc 7aa9 5b3d 40a8 573d
00000260: 00af 353c de3b 033d 14eb b93c 64e8 edbc
00000270: d498 1e3d 489e 8fbc 585c c83c 7405 9a3c
00000280: b664 363d b6dd 31bd c0c4 d03b 84b3 e73c
00000290: 7480 1dbd e22d 2abd 6059 fbbb e009 fbbc
000002a0: ce74 4d3d 0022 3439 d8af 67bc 0414 c33c
000002b0: fc08 57bd 54f1 5ebd a0a8 05bd ae40 5e3d
000002c0: f837 c23c 40c8 eb3b 1859 e1bc f0f4 313d
000002d0: 16e4 673d 8a6c 113d 820d 1fbd 10db a0bc
000002e0: 0c7d 7abd f882 0f3c 806d 1cba d60c 38bd
000002f0: dc03 8e3c 2c31 133d 6c4d c4bc 309c 84bb
00000300: e09f e2bb b867 fbbc 5ca0 7e3d bea8 3f3d
00000310: b461 8f3c 84b7 06bd f0e7 72bd 76a3 293d
00000320: 00d5 ab39 a861 4cbd 6c54 583d a266 7dbd
00000330: fe7f 2b3d 0813 373c 684d 013c 2ee0 38bd
00000340: 8040 043d 38dc 22bc a06f 303b b415 93bc
00000350: c02a 10bd 98ef 56bc 3090 e73b 5e99 1abd
00000360: 60c8 963b a044 243d f88f 66bd 4892 aabc
00000370: 4e9f 35bd 3ced 11bd 2efa 77bd 4434 05bd
00000380: 604c 6dbb 2289 0e3d dc65 3ebd 4c0c b03c
00000390: 2ab5 103d 0093 b339 94b2 e33c 6634 0dbd
000003a0: d822 0ebc 606f 05bb 740c 32bd 407a bbbc
000003b0: a010 c43c 40c5 783c 4832 77bc e051 93bc
000003c0: 7435 173d 889e c83c 84b9 e5bc 8c0b e8bc
000003d0: 924d 45bd a000 dbbb c068 fd3a 8c99 c43c
000003e0: 9ca3 02bd f021 69bc 3626 35bd 183a 77bc
000003f0: 94ae 58bd 1ac2 643d d8eb 3c3c 50c5 16bd
0.03974095 -0.043026745 -0.009624302 0.010165833 -0.041587017 -0.060987793 -0.03406728 -0.03524095
-0.03873133 0.032004163 0.0040156916 0.027664445 0.054737464 0.041593872 0.004739471 -0.024047546
0.058680877 -0.02830252 -0.005325161 0.0072564483 -0.054308787 -0.059716977 -0.056930743 -0.03236258
-0.05894944 0.0057164356 -0.012297861 -0.01336056 0.055776127 -0.05741612 0.0540225 -0.004725635
0.044570513 -0.054070383 -0.035595722 -0.046731852 0.055789262 -0.028955631 0.005262874 -0.0051542
-0.05410561 0.018452153 -0.0002297163 -0.038907193 -0.031226419 -0.038545378 -0.030578345 0.02407197
-0.046344668 0.0065943524 -0.035760753 0.03572823 -0.022465669 0.016370445 -0.033001103 0.032701455
-0.0002188757 0.008850589 0.028935991 0.02409812 -0.05639042 -0.059043214 -0.05865758 0.038026728
0.0019336566 -0.04177627 -0.0028408691 0.0018866137 0.0487193 -0.03934872 -0.008846372 -0.00070183724
0.030994438 -0.048755348 -0.06175939 -0.04989738 -0.029262014 0.055365346 -0.0020674467 -0.032613732
-0.0028221905 -0.04059972 -0.006123945 0.015840672 -0.027689666 -0.0034484416 -0.022395596 -0.030972466
-0.015429102 -0.028171428 -0.029460251 0.011869803 0.04469964 0.029631339 -0.033260085 0.0014559329
0.024176903 0.03264889 -0.0060051754 0.052662 0.016666159 -0.001331009 -0.018073536 -0.036488622
-0.05586782 -0.02029252 0.04187061 0.03931237 0.009992592 -0.01292529 -0.017034702 -0.02981326
0.028253354 0.01875399 0.020980239 0.026829533 -0.016028889 0.029476285 -0.06068822 -0.030450568
-0.01253476 -0.04972782 -0.0057183057 -0.048094966 0.024621025 -0.04929614 -0.033457533 0.047706217
0.022971764 -0.043387577 -0.03284459 0.0063240305 -0.036332138 0.008714534 0.011799708 0.029338434
0.031606205 0.017226897 -0.014554635 -0.04360556 -0.05990544 -0.028851442 0.0035288557 0.030396886
0.038737148 -0.05358415 0.032761946 0.033101976 0.053846493 -0.01627133 0.053628422 0.05265069
0.0110890865 0.032039516 0.022695102 -0.029041477 0.038719967 -0.01753153 0.024458095 0.018801428
0.04452964 -0.04342433 0.0063711107 0.028283842 -0.03845258 -0.041547664 -0.0076705664 -0.030644357
0.05016022 0.00017178804 -0.0141410455 0.023813255 -0.052498803 -0.054429367 -0.032631516 0.054260902
0.023708329 0.0071955025 -0.027508304 0.04344648 0.056614004 0.0355039 -0.03883124 -0.019635707
-0.06115441 0.008759253 -0.00059672445 -0.044934116 0.017335825 0.035935566 -0.023962699 -0.0040469393
-0.0069160312 -0.030689105 0.06216465 0.046791784 0.017502643 -0.032889858 -0.059303224 0.041415654
0.0003277436 -0.04989782 0.052814886 -0.061865456 0.04187011 0.011173971 0.00789199 -0.04513567
0.032288074 -0.0099402 0.0026922002 -0.017954685 -0.03519702 -0.013118647 0.007066749 -0.03774392
0.0046015233 0.04010451 -0.056289643 -0.020821705 -0.044341378 -0.035626635 -0.060541324 -0.032520548
-0.0036208853 0.03479875 -0.04648386 0.021490239 0.03532902 0.00034251064 0.027795114 -0.0344738
-0.0086753 -0.0020360574 -0.043468907 -0.022885442 0.023933709 0.015183747 -0.015087672 -0.017983377
0.03691621 0.024489656 -0.028042562 -0.028325818 -0.04816968 -0.006683424 0.0019333586 0.023998998
-0.03189431 -0.014229283 -0.044225894 -0.015089534 -0.052900866 0.055849172 0.011530839 -0.036809266

lin3.bias f4 [128]
00000000: 74c9 1abd 0065 d23a d048 4ebd 5a91 163c
00000010: f99a 81ba bfcd 77bd fd4d 30bd edf3 33bd
00000020: 7c8b c3bc 2758 023d d81c 063d af65 62bd
00000030: f324 503d d500 86bd 0fbd 4e3d f583 2dbd
00000040: a68e 60bd 431d 81bd b202 15bd 3a19 333d
00000050: 0eda ef3c dcbb 62bd f193 80bb abb1 293d
00000060: 4080 9cbd 30c3 5a3d a081 713c 4c73 353d
00000070: f578 48bd 553d 2d3d 6ac7 f439 90dd fbbb
00000080: ce16 36bd 0d27 b63c 99cf 1dbd 268f 423d
00000090: bb11 403d 64f3 68bd b0a4 313c dba4 84bb
000000a0: 630d 8dbc fdf1 9a3c f003 d3bc 26aa 23bd
000000b0: 1e46 883b f7b1 17bd 769a 54bd f19e 1f3d
000000c0: 9031 32bc 6826 213c b17e f73c 835d adbc
000000d0: d4b6 f6bc f511 7b3d d032 f4bc d6d8 22bd
000000e0: 07ce 68bc c85d e5bc ce10 58bd 8248 0f3a
000000f0: 85a1 55bc 4041 18bb 40ef 5ebd 3aee 14bd
00000100: 1617 eb3c 1250 5e3d ce10 28bd 14a4 b6bc
00000110: 54d5 7f3d c80c 06bd 7c5a 8cbc 3829 283d
00000120: 1e51 78bd 19c5 853d 7b7c a1bd dd66 593d
00000130: a179 ec3c e2db 73bd 058b 583d df65 e23c
00000140: 6da7 32bd fd02 493d c4f9 aabc f50a 12bd
00000150: 68de a4bc b1b6 213d 10b2 c6bc cbbd 2d3d
00000160: e880 4e3c eb8a 353d 8c3e f5bc 40ad 213d
00000170: 8f5c 913b da12 463d c429 523d b435 b73b
00000180: 045d 5dbd 4062 adba 634b 62bd 6f27 c0bc
00000190: 389e 5f3d d511 173d 7c6b f9bc 0487 95bc
000001a0: ecc8 263d bc28 0a3d 4d55 423d e27f 6dbd
000001b0: 63b9 8eba b8c6 30bd db51 813d 7117 583c
000001c0: ff1f 8bbb 8df7 52bd 6092 f13b 0d38 e33a
000001d0: ebf5 683d 5e3d c53b 8a06 393d 6975 57bc
000001e0: 413d fd3c 2b32 c0ba f21b 313d e610 da3c
000001f0: 988b 213d 70cb 213c 54e5 a1bc 1458 43bd
-0.037789777 0.0016051829 -0.05036241 0.009189928 -0.0009888104 -0.06049895 -0.043043125 -0.043933798
-0.023870222 0.03182235 0.03274235 -0.055272754 0.050816488 -0.065431274 0.05047327 -0.042362172
-0.05482354 -0.06304409 -0.036379524 0.04372523 0.029278781 -0.055354938 -0.003923886 0.041429203
-0.07641649 0.0534088 0.014740378 0.04429941 -0.04894348 0.04229482 0.00046687882 -0.0076863244
-0.044455342 0.022235418 -0.03852806 0.0474998 0.04689191 -0.05687274 0.010842487 -0.0040479726
-0.017218297 0.018914217 -0.025758713 -0.039957188 0.0041587492 -0.037034955 -0.051905118 0.038969938
-0.010876074 0.009835817 0.030211778 -0.021162754 -0.030116476 0.061296422 -0.029809386 -0.039757572
-0.014209277 -0.02799882 -0.0527504 0.00054658216 -0.013038998 -0.0023232251 -0.054427385 -0.036360003
0.028697532 0.05427558 -0.04103165 -0.022295035 0.062459305 -0.032727033 -0.01713299 0.041054934
-0.060624234 0.06531734 -0.07885071 0.053076614 0.028866591 -0.05953587 0.052866954 0.027636467
-0.0436167 0.049075115 -0.02087105 -0.03565498 -0.020125583 0.03948087 -0.024254829 0.04241733
0.012603976 0.044321936 -0.029937051 0.039471865 0.0044360827 0.048357822 0.051309362 0.0055911187
-0.054043785 -0.0013228133 -0.055247676 -0.023456303 0.05459425 0.03688224 -0.03044676 -0.018252857
0.040718958 0.033730254 0.04744463 -0.057983287 -0.001088899 -0.043158263 0.06314441 0.013189183
-0.0042457576 -0.051505614 0.0073721856 0.001733543 0.05687515 0.0060192784 0.04517225 -0.013150551
0.030912997 -0.0014663389 0.04323954 0.026619386 0.039439768 0.009875163 -0.019762672 -0.04769142

lin4.weight f4 [64, 128]
00000000: 9113 f63c 0eb2 403d 1e52 983d 5fe8 933d
00000010: 29ae 37bc 75cb aa3d 9dfc b23d 9685 8d3c
00000020: ac77 ca3d ecc6 b2bc 73f2 ba3d 8f2d 92bd
00000030: c10c a03d 5fbe 933c 5831 c8bb 0054 c1bd
00000040: 2fda 883d e89f 8e3d 5699 493d 05eb 923d
00000050: 7819 7dbd f322 96bc b6fc 6e3d 6381 aabd
00000060: 281a 263c 1319 94bc 3c22 ebbc 16e8 a43d
00000070: 9707 153c 93fd f63c 8301 733d 468e 933d
00000080: ddd3 d33c 1222 613d ee47 6cbd d462 863d
00000090: eb68 1f3d 93cf 1f3d 7d72 b43b 7de5 4bbc
000000a0: 278d 0f3d 1a3b dfbb 379f c93c 0017 9dbd
000000b0: f868 d3bc 9e69 0f3d 9bae 643c 325a e9bb
000000c0: cf18 193c a0c5 67bc e85c 203b a019 18bd
000000d0: 324e 0cbb 4345 9bbd 4b75 78bd d205 ad3d
000000e0: c21e 53bc 25c2 b93c e11f b6bc 10ac 28bd
000000f0: 0860 943d ffbe 613d a074 9cbc fe8b 5f3d
00000100: 59df 4f3b 724b 6cbd c1e3 99bd 1d9b febc
00000110: 15ac 8c3d b940 6abd 1fdb f53b 79f7 acbd
00000120: e873 5e3d 1416 2c3d e03d 693c e61e ea3c
00000130: 337d 993d 3f41 253d 9e4e 96bd 9791 c1bd
00000140: a75e f2bb 09fc 2fbd 05ba 5e3d 6721 36bd
00000150: a186 653d 38eb adbd 5c1c 443d 259d 003d
00000160: 9a72 6a3a 935e 57bd cdee bfbd 81ed 8bbd
00000170: 9479 0f3c 8109 a73c d1fc bdbb f7a5 a1bd
00000180: 7ce6 a73d 9d6a 73bd 6400 9dbd 34b6 7d3d
00000190: c20a 913c 6104 1abd 5454 fbbc fccc f63c
000001a0: ea43 d73c 8f9a 24bd 4f04 7cba 4b6f 5d3d
000001b0: 3fac 233c 8d74 b73c 2270 afbd 1894 c73c
000001c0: af66 f1bc d400 9bbd 6927 24bd 0723 9ebd
000001d0: 7780 ac3c af24 a03d 626b 863b 8a68 99bd
000001e0: 2767 6c3d e76c 133d ade3 b03c d67d 19bc
000001f0: 0a8b f6bc c7ec 9dbd 07e1 2c3d 4bb8 fc3c
00000200: 4a05 85bd f043 33bb 0c37 9abd 90db 3bbd
00000210: fdd9 84bd f889 723d e735 6dbd bf0d 693d
00000220: 3afa 493d 3027 aebd 62ca d3bc 52f6 45bd
00000230: 720c a1bd ef5e a73d 586f 953d 71fe 8bbd
00000240: fa43 a5bd 2f7a 943c 74c9 a23d 848c e03c
00000250: 370b 283d 7098 4dbc da2b debb 43e5 90bd
00000260: 21f3 9c3d b1f9 963d e65b efb8 b91e 9abc
00000270: d598 dc3c 5e5a 61bb c782 2abc bf5f 31bd
00000280: 149a 3ebd 248a a1bd c8a3 77bd 6f89 353d
00000290: 59b4 aabc f4e3 113d 4c20 26bd 38d0 f4bc
000002a0: 9749 24bd e223 fd3c 597b fcbc 7e97 953d
000002b0: a249 a6bd 368f 67bd 0d40 3fbd c080 6bbc
000002c0: 3907 643d 69d4 023d c198 84bd 0f99 7cbd
000002d0: a0ae 7a3d 6405 1f3d 84f3 4dbd 8632 723c
000002e0: b66e 4bbd 63d6 a0bd 007d fdbc 48f7 043d
000002f0: 9bef c33c 156f a7bd 410c 7abc 690c c03c
00000300: f486 cf3c 1088 a8bd 60b4 863d 4d4a a13d
00000310: beef 133d 38be 053d c060 86bd 9237 6dbd
00000320: 2259 993c 535b bfbc 5d87 adbd 23a4 993b
00000330: d3f5 8ebd ad13 05bd fc29 a9bd 9b80 02bd
00000340: f40f 1abc 89c3 9f3d ca9e 743d e8b3 5cbd
00000350: 0e13 f7bb 3d67 c43b acf8 aa3b e243 813c
00000360: 98d6 37bc cefe 943d 9b06 8c3d df5f a2bd
00000370: b1a1 3e3c 9bb6 10bc 1823 4cbc f6b0 a4bd
00000380: 407f 9ebd c6b8 2fbd b674 123d ef8b 383d
00000390: 23cf 6cbd 6bd4 633d d018 833c 0fba 813d
000003a0: 8201 843d 5c61 54bc b3cb f0bd c823 abbc
000003b0: 10a2 61bd 5058 91bb a66f 283a 9d4e 503d
000003c0: d738 da3b ab48 5a3d aa47 323d 9d41 babd
000003d0: ea7b 83bc 1d04 113c 0df6 a8bc 0155 4abd
000003e0: c805 50bd 865d a0bd e504 69bd bee5 02bd
000003f0: 28be 86bc e473 42bc b13b 053d 4426 7e3c
0.030038627 0.047044806 0.074375376 0.07222056 -0.011210957 0.083395876 0.087395884 0.017275613
0.09886107 -0.021823369 0.09128275 -0.07137596 0.078149326 0.018035112 -0.006109398 -0.0943985
0.0668224 0.069640934 0.0492185 0.07173733 -0.061791867 -0.018327212 0.058346473 -0.0832546
0.010138072 -0.018078363 -0.028702848 0.080520794 0.009096048 0.03015021 0.059327614 0.07204871
0.02585786 0.054964133 -0.057685785 0.06561819 0.038918417 0.039016318 0.005506812 -0.012444851
0.035046723 -0.0068124654 0.024612052 -0.076704025 -0.025806889 0.035012834 0.013957645 -0.007121348
0.009344294 -0.014146239 0.002446944 -0.037133813 -0.0021408913 -0.0758157 -0.060658734 0.08448376
-0.012885751 0.022675583 -0.022231998 -0.041179717 0.07244879 0.05511379 -0.01909858 0.054576866
0.003171882 -0.057689138 -0.07514144 -0.031079823 0.068687595 -0.05719063 0.007502928 -0.08445639
0.054309756 0.042013243 0.014235944 0.028579187 0.07494583 0.040345427 -0.07339214 -0.09451597
-0.0073965373 -0.04296497 0.05437662 -0.04446545 0.056036595 -0.0849213 0.047878608 0.031399865
0.00089434686 -0.052580427 -0.093717195 -0.0683241 0.008757014 0.020390274 -0.0057979603 -0.078929834
0.08198258 -0.059427846 -0.0766609 0.06194134 0.017705325 -0.037601832 -0.03067986 0.030127041
0.026277501 -0.04018646 -0.0009613679 0.054061215 0.009989797 0.022394443 -0.085663095 0.024362609
-0.029467909 -0.07568517 -0.040076647 -0.07721525 0.02105735 0.07819497 0.0041021565 -0.07490642
0.05771556 0.03599253 0.02159294 -0.0093683805 -0.030095596 -0.07711177 0.04220679 0.030849596
-0.064951494 -0.0027353726 -0.075300306 -0.045863688 -0.064868905 0.05921361 -0.057912733 0.056897875
0.0493109 -0.08503568 -0.02585334 -0.048330612 -0.07863702 0.08172404 0.07296628 -0.0683564
-0.08069606 0.018124668 0.079485804 0.027410753 0.04102632 -0.012548551 -0.00678013 -0.07074978
0.07663561 0.073718436 -0.000114135255 -0.018813478 0.026928345 -0.0034386138 -0.010407156 -0.0433042
-0.04653366 -0.07887676 -0.06045893 0.04432052 -0.02083795 0.035617784 -0.040558144 -0.029884443
-0.040109243 0.0309009 -0.030820535 0.073042855 -0.08119513 -0.05653306 -0.046691943 -0.014373958
0.05567095 0.03194085 -0.06474448 -0.061669406 0.06120169 0.0388235 -0.050281063 0.014782554
-0.04966613 -0.07853391 -0.030943394 0.03246239 0.023917964 -0.08175484 -0.015261711 0.023443418
0.025332905 -0.08229077 0.065773726 0.078755 0.036117308 0.03265211 -0.06561422 -0.057914324
0.01871926 -0.023358976 -0.08473084 0.004688756 -0.06980481 -0.032489467 -0.08259961 -0.03186093
-0.009403218 0.07800967 0.059721746 -0.05388251 -0.0075401133 0.0059937523 0.0052176323 0.01577944
-0.011220597 0.07275163 0.068371974 -0.07928442 0.01163523 -0.008832599 -0.012459539 -0.08041565
-0.07739115 -0.042900823 0.035755835 0.045055326 -0.05781473 0.0556225 0.016003042 0.06334316
0.064456 -0.012962665 -0.117576025 -0.020891085 -0.055086195 -0.0044355765 0.00064253283 0.05085622
0.006659608 0.053291958 0.043525375 -0.09094546 -0.016050298 0.008851078 -0.020625139 -0.049397472
-0.050786763 -0.07830338 -0.056889433 -0.03195738 -0.016448095 -0.011868451 0.03252763 0.015512053

lin4.bias f4 [64]
00000000: bc82 b1bd 59e6 8f3d ccbe 58bd fe7e 283d
00000010: ac3a c83c d1b4 3d3d 2ae6 07bd cffb 35bb
00000020: 9e36 833d 3274 4abd bc56 463d 0cc8 a63d
00000030: 2d8b 87bc 5ce2 b93c d41f 63bd 0f9c 55bd
00000040: bcb5 8fbd b366 acbd 29d4 f33c 3643 c3bc
00000050: f9bc 00bd 2378 243d fc37 99bd 07dc 4cbc
00000060: 930c 3f3d cbd3 753d 54eb a1bc 9c1a d4bc
00000070: 8972 3abd dd2b 1f3d b595 a73d bd53 3a3d
00000080: 0761 9a3d e3b6 043d 59af 50bd 7530 b43d
00000090: aff1 003c a2a1 75bd aeaf ac3b e611 a93c
000000a0: 0600 dcbc e70d 693d df1b d23c 9dc4 993d
000000b0: d558 19bd daaa 4e3d 23f3 893c 8eb1 44bd
000000c0: 0c07 e6bc 85b4 603d 9614 4ebd 7120 41bc
000000d0: 04ef 85bd acaf 0f3d fa8f 6c3d 8150 adb9
000000e0: 73bb 7ebd 2dd1 3a3d bafe bf3d 10db 1f3d
000000f0: 21ea 80bc 27f4 eebb 6649 d83c aac5 8dbd
-0.08667514 0.07026357 -0.052916333 0.041136734 0.02444204 0.046315018 -0.033178486 -0.0027768498
0.06406902 -0.04942722 0.04842256 0.08143625 -0.016545856 0.022690944 -0.055450276 -0.052150782
-0.07017085 -0.08418026 0.029764252 -0.02383576 -0.03143022 0.040153634 -0.07481381 -0.0125036305
0.04664285 0.060016435 -0.019765534 -0.025891595 -0.045519385 0.03886019 0.08182851 0.045490015
0.07538038 0.032400977 -0.050948475 0.08798305 0.007870122 -0.0599686 0.005269966 0.020638417
-0.02685548 0.056898024 0.025648056 0.07508204 -0.037438232 0.050455905 0.01683957 -0.04802089
-0.028079532 0.054859657 -0.0503126 -0.01178752 -0.06539729 0.035079643 0.057754494 -0.0003305711
-0.062190484 0.04560964 0.09374757 0.039027274 -0.015736641 -0.007292289 0.026402187 -0.06922467

lin5.weight f4 [3, 64]
00000000: d6b9 c2bd 3f07 c6bd cb89 cabd a526 bbbd
00000010: a7ae f73b 8026 3fbc fba1 193c 865f 8e3d
00000020: 5a0e c6bd 1d51 b7bd d0f8 a7bd c953 b63c
00000030: 576c 75bc b007 b1bd 4942 273d 46ea e13c
00000040: 42c6 983d 8a15 93bd ebf3 fcbb fcc8 57bd
00000050: 188f 763d bf25 c0bd 2875 00be 49bc d83d
00000060: 701e e0bd b770 c5bd 1456 0e3d b16f 5fbd
00000070: e022 8fbb 79af cdbd 41c4 a23d f597 f7bc
00000080: a123 d7bd a89c 153d ab6c a93d 88cf 003e
00000090: 0ded 303d 9e30 f5bc 8edc f93b 7adb 82bd
000000a0: 3018 00bd 4e13 8d3d e72a cd3d 0071 1cbd
000000b0: 9103 cebd 2ff3 d93b 1474 babd e3f1 07bc
000000c0: 633a 053e a14d 993d d8b0 babd ff36 823d
000000d0: 33e7 9a3d 9032 74bc 04de c13d 4025 c23d
000000e0: 26e1 eb3d 69a8 acbd 4b91 5c3d 5e07 b5bd
000000f0: 4ecb c4bd cdad ea3d 5c79 8abc b778 14bd
00000100: 69e9 f63d df64 073d 2749 f73d b096 bebd
00000110: 203d 7ebc e8a6 a6bd 9ea9 5abd 04d7 5dbc
00000120: da69 e8bc ebab 9dbd 2b68 03be 318e 91bd
00000130: 81ea 94bd a88f beba aee8 693d b6f0 7f3d
00000140: 663e a7bd 1e18 87bd 63b8 90bd 7d0f 933d
00000150: 346a 71bd 6313 babd 9e62 303d 5511 b4bd
00000160: a678 0bbe 6154 293d 7784 c8bd 036a a43d
00000170: 5c10 ba3c d5fd bbbc c13c b63d 5949 d43b
00000180: b3b3 c33d 43e9 3cbd e13b ecbd 6f4a 043d
00000190: cbeb 5bbd 55f2 cbbd f721 78bd 8bb1 d9bd
000001a0: e9bf 47bd d28b 2dbd 88c9 bc3d c273 e13c
000001b0: 1a67 f73d 3ff3 c83c ac46 e03d de4f c93c
000001c0: c374 efbd 51a3 133d 23cc e8bd 573e a03d
000001d0: 2888 cdbd cd06 e33d d792 283d 2d4a ba3d
000001e0: 707c 563d d98f f53c 1bf1 82bd f58e b5bd
000001f0: 558d e0bd 7a20 c4bd 7b84 77bd 6105 78bd
00000200: a8b7 b63c 390b 783d 099b fe3d 4a6a 043d
00000210: 41df 8dbd 22a7 acbd 4c71 d23d d6c2 01be
00000220: bdc3 573d 8cd4 423d a003 03be 1aff e83c
00000230: 0968 15bd e581 80bd f315 fc3c 5698 2e3d
00000240: afed c4bd 54f1 a8bd 66b5 d23d 3919 d1bd
00000250: 5437 2abb f194 4d3c 5660 edbd e072 e0bd
00000260: 606a 1f3d 70c0 eb3d 13dc a03d 61bf 343c
00000270: ca3a fb38 6980 c23d fdfb 5ebd 5c87 b4bd
00000280: d7a2 e63d ba0f 8b3d 0ea9 8e3d 6f83 2dbd
00000290: bc38 413d f983 d3bd dd1b 75ba ba06 213d
000002a0: 5eb4 513d f73a aabc 2979 4fbd d317 003c
000002b0: b140 a33d e959 67bc fd15 c2bd 66f7 4fbd
000002c0: d897 063e c3aa c8bd b2b1 ea3d 4d9a a33d
000002d0: 54d8 033d 7ce0 c63d 5736 e53d eeea b53d
000002e0: e813 8a3d 867a 6a3d 051b 5bbd d683 aebc
000002f0: a54e c73d 7e52 20bd bf08 8ebd 89f3 1fbd
-0.09508102 -0.09669351 -0.09889563 -0.0913823 0.007558662 -0.011666894 0.009376998 0.069518134
-0.09670706 -0.08951018 -0.08201754 0.022256749 -0.0149794435 -0.086440444 0.0408347 0.02757753
0.0745969 -0.071818426 -0.007719507 -0.052681908 0.06019506 -0.093821995 -0.12544692 0.105827875
-0.109433055 -0.09640639 0.03475006 -0.054549877 -0.004368171 -0.100432344 0.07947589 -0.030223826
-0.105048425 0.036526352 0.0827268 0.12579167 0.04319482 -0.029930409 0.007625169 -0.06389518
-0.031273067 0.06888448 0.100179486 -0.038193703 -0.10059274 0.006651304 -0.091041714 -0.008297416
0.13010554 0.0748551 -0.091157615 0.06358146 0.07563629 -0.014904633 0.09466174 0.09479761
0.11517553 -0.08430559 0.0538495 -0.08839296 -0.0960909 0.11458931 -0.016903572 -0.036247935
0.12056238 0.033055183 0.120744996 -0.09306085 -0.015517503 -0.081373036 -0.053384416 -0.013540033
-0.028370786 -0.076988064 -0.12832706 -0.07107199 -0.072712906 -0.0014538663 0.057106666 0.06248542
-0.081661984 -0.06596397 -0.07066419 0.071806885 -0.058939174 -0.09085729 0.0430628 -0.08792368
-0.13620242 0.041340236 -0.09790891 0.08028033 0.022712879 -0.022948185 0.08898307 0.0064784703
0.09555759 -0.046120893 -0.115348585 0.032297548 -0.053691667 -0.099583305 -0.060579266 -0.10629567
-0.048767004 -0.04236967 0.092181265 0.027521018 0.12080212 0.024530051 0.109509796 0.024574216
-0.116921924 0.036044423 -0.11367061 0.078243904 -0.10035735 0.110852815 0.041155662 0.09096179
0.052364767 0.029975818 -0.063936435 -0.088651575 -0.10964457 -0.09576507 -0.060429078 -0.060552005
0.022304371 0.060557578 0.12431914 0.032327928 -0.06927348 -0.084303156 0.10275516 -0.1267198
0.052676905 0.04756598 -0.12794352 0.028441954 -0.03647617 -0.062747754 0.030772185 0.042625748
-0.09615647 -0.08249155 0.10288505 -0.10209889 -0.002597292 0.012547717 -0.1159064 -0.10959411
0.038919806 0.11511314 0.07854476 0.011031956 0.00011979563 0.094971485 -0.054439534 -0.0881488
0.11261528 0.06790109 0.069658384 -0.042361673 0.047173247 -0.10327906 -0.000935016 0.039313056
0.051197402 -0.02078007 -0.050652657 0.00781818 0.07971323 -0.014120557 -0.0947685 -0.050773047
0.13143861 -0.09798195 0.11459674 0.07988415 0.03218873 0.09710786 0.11192005 0.088827
0.06742078 0.057245754 -0.053492565 -0.021303099 0.09731797 -0.03914117 -0.06935262 -0.039050613

lin5.bias f4 [3]
00000000: 9f5e eabd 5737 4f3d c8ab ffbd
-0.11443829 0.050589886 -0.124839365
