src/virtuose_teleoperation/network_controller/trained_policy_MLP/BC_EE_epoch_587.pth (torch, 439495 bytes, 10 tensors)

lin1.weight f4 [256, 7]
0.028613053 -0.16860282 0.30668905 0.36412916 0.355622 -0.26646376 -0.2984885 -0.30550542
0.037381325 -0.16633278 -0.22725196 -0.067135096 -0.094336115 -0.23615606 0.33177093 -0.31688023
0.047453225 0.10857261 0.16568364 0.3536433 -0.21616113 0.18264778 0.36426154 0.1247373
0.012728297 0.051903043 -0.28566667 0.14817274 -0.08553899 -0.3724637 0.26208547 0.11872014
0.19271582 -0.18359992 -0.1664009 -0.017111652 0.37003902 -0.027532244 0.32003775 -0.24962872
-0.066409595 0.26724386 -0.2829137 0.16105397 0.43592167 -0.35833836 -0.08304496 0.117620386
-0.26012984 0.18156767 0.2690728 -0.08297791 0.11732712 0.36091566 -0.09056342 -0.22644892
-0.34597844 -0.037055545 0.15862761 -0.34946933 -0.035268288 -0.31449574 0.22658908 0.2765624
0.30713165 0.10039023 -0.10332506 -0.065587945 0.115064405 0.042908832 -0.21239626 0.0803452
0.016898986 0.16684926 -0.02159558 -0.06747907 0.099377036 -0.26682076 0.0037610845 -0.15078403
-0.25911984 0.36492226 -0.20009755 0.2699114 -0.32472566 0.28325477 -0.058826033 -0.36426076
0.06733191 0.07014757 -0.05878007 -0.042676914 0.13752922 -0.35630676 -0.28573778 0.18839431
-0.37513798 -0.27259603 0.3008376 -0.2927109 0.44979706 0.03954011 -0.3968748 -0.31403658
0.15700679 -0.15000117 -0.20415078 0.40390646 -0.25746775 -0.33615726 -0.20010477 -0.07380952
-0.2557053 0.15060179 -0.06306354 -0.23723838 0.28341445 -0.15455477 -0.11372477 0.19146334
-0.32090303 0.16628271 -0.15801564 0.31948897 -0.2484637 -0.2212535 0.38447982 -0.3903107
-0.060398556 -0.14350875 -0.14586352 0.03762897 -0.34486365 -0.32939157 -0.117912315 0.26589262
-0.12276993 0.22021464 -0.21424241 -0.112367034 0.057974413 -0.18286742 -0.001239019 -0.31410676
0.26656908 0.37193802 0.32542008 -0.359287 -0.24030036 0.3289851 -0.18957204 0.2134184
-0.24217251 -0.03522849 -0.3566359 -0.0567296 0.44649416 -0.010247876 -0.12973376 -0.24519746
0.44365147 0.08156773 0.025564821 0.12238768 0.20223671 -0.33796266 -0.32563522 -0.16460232
0.09212581 0.36694753 -0.22439748 0.24143082 -0.06288854 -0.019150704 -0.12521648 -0.08890591
0.161687 0.06046984 0.25018772 -0.24388818 -0.2591605 0.3343695 0.33609298 0.050854586
0.37650514 0.010381653 0.18492693 0.29223588 0.15079075 -0.01935783 -0.33210284 -0.085591525
0.23610218 0.045311898 0.35278425 -0.28074062 0.21667261 -0.33933392 0.16371636 0.10339318
0.33520463 0.054671608 0.20692536 0.1977362 -0.047455028 0.014858271 0.23639861 0.13133399
0.2283236 -0.29552647 0.08505139 0.11275888 0.03246077 -0.18026659 -0.03966544 0.13715899
0.21392044 0.0019700017 0.18774739 -0.05838907 0.24947993 -0.11895099 -0.20510185 -0.121447764
0.08303541 -0.0979181 0.20019567 0.14110038 0.089191124 0.19034025 0.044964556 -0.29514727
0.030355643 -0.27653372 0.035339385 0.06409838 -0.30604538 -0.34753442 -0.021893138 0.004351626
-0.32882145 -0.3385986 0.36432156 0.121301994 0.25661445 0.1784316 0.22935584 -0.34297866
0.01119398 -0.15280731 0.15053749 0.1077867 -0.08583749 -0.013459795 0.04222681 0.092837304
00000000: ec65 ea3c 38a6 2cbe 5906 9d3e 236f ba3e
00000010: 1614 b63e f06d 88be 7cd3 98be 356b 9cbe
00000020: 291d 193d 2453 2abe bdb4 68be 207e 89bd
00000030: 4b33 c1bd e5d2 71be e1dd a93e 203e a2be
00000040: 505e 423d 515b de3d f9a8 293e bc10 b53e
00000050: 5859 5dbe 0508 3b3e 7d80 ba3e 4576 ff3d
00000060: 598a 503c 4998 543d e742 92be 98ba 173e
00000070: 112f afbd 90b3 bebe 1130 863e 8b23 f33d
00000080: 4c57 453e 9e01 3cbe ff64 2abe bc2d 8cbc
00000090: c175 bd3e 4d8b e1bc fddb a33e ac9e 7fbe
000000a0: c101 88bd 30d4 883e 11da 90be 55eb 243e
000000b0: 2031 df3e 2078 b7be 7a13 aabd f5e2 f03d
000000c0: bd2f 85be e0ec 393e e9c3 893e 53f0 a9bd
000000d0: 3349 f03d f0c9 b83e 5079 b9bd 3ae2 67be
000000e0: 1624 b1be 8ec7 17bd 476f 223e a5ed b2be
000000f0: 7b75 10bd 9605 a1be f806 683e 9699 8d3e
00000100: 5c40 9d3e 6599 cd3d 179c d3bd f952 86bd
00000110: e3a6 eb3d 2cc1 2f3d 687e 59be 068c a43d
00000120: be6f 8a3c 88da 2a3e 37e9 b0bc 7732 8abd
00000130: 3086 cb3d bb9c 88be 877c 763b 2167 1abe
00000140: 5bab 84be 17d7 ba3e 5fe6 4cbe d431 8a3e
00000150: 7142 a6be c506 913e 91f3 70bd 6380 babe
00000160: 50e5 893d 87a9 8f3d 5fc3 70bd fdcd 2ebd
00000170: 76d4 0c3e d76d b6be 394c 92be 70ea 403e
00000180: 1612 c0be b591 8bbe 6307 9a3e 34de 95be
00000190: cd4b e63e cff4 213d 2c33 cbbe 67c9 a0be
000001a0: 63c6 203e e899 19be e70c 51be d4cc ce3e
000001b0: d0d2 83be ce1c acbe 44e8 4cbe 7229 97bd
000001c0: ceeb 82be 5b37 1a3e 7527 81bd 9eee 72be
000001d0: b31b 913e 9b43 1ebe 88e8 e8bd f70e 443e
000001e0: 674d a4be 0446 2a3e dace 21be 0f94 a33e
000001f0: 456d 7ebe 4790 62be 8ada c43e ced6 c7be
00000200: 7a64 77bd f5f3 12be 3f5d 15be d620 1a3d
00000210: f891 b0be 03a6 a8be 037c f1bd 1423 883e
00000220: cd6e fbbd f27f 613e 5d62 5bbe b020 e6bd
00000230: 9476 6d3d 9941 3bbe 9466 a2ba 9ad2 a0be
00000240: be7b 883e a96e be3e 769d a63e 77f4 b7be
00000250: 4c11 76be bc70 a83e 2c1f 42be 5a8a 5a3e
00000260: 12fc 77be c04b 10bd fb98 b6be 4c5d 68bd
00000270: e29a e43e b5e6 27bc edd8 04be 0b15 7bbe
00000280: 4926 e33e fb0c a73d 516d d13c 64a6 fa3d
00000290: 2417 4f3e 7109 adbe a9b9 a6be 838d 28be
000002a0: 75ac bc3d 8ce0 bb3e 74c8 65be a439 773e
000002b0: b5cb 80bd f0e1 9cbc c038 00be 4d14 b6bd
000002c0: 4791 253e 39af 773d 9b18 803e d3bd 79be
000002d0: afb0 84be 7b32 ab3e 6114 ac3e e64c 503d
000002e0: 48c5 c03e cf17 2a3c 7c5d 3d3e f19f 953e
000002f0: e468 1a3e 5094 9ebc 6209 aabe 9c4a afbd
00000300: c5c4 713e f898 393d 23a0 b43e 3cbd 8fbe
00000310: 6ddf 5d3e 2dbd adbe 43a5 273e cebf d33d
00000320: f19f ab3e 56ef 5f3d 3ee4 533e 5c7b 4a3e
00000330: 3460 42bd 1b70 733c 7a12 723e 6b7c 063e
00000340: a9cd 693e 3f4f 97be 6c2f ae3d 21ee e63d
00000350: 96f5 043d ce97 38be 3a78 22bd 6873 0c3e
00000360: f60d 5b3e 251b 013b da40 403e 6129 6fbd
00000370: ab77 7f3e 949c f3bd 3806 52be 9bb9 f8bd
00000380: 780e aa3d 4989 c8bd 1800 4d3e 9e7c 103e
00000390: d6a9 b63d 8ee8 423e c12c 383d 8b1d 97be
000003a0: 66ac f83c d495 8dbe 08c0 103d 0346 833d
000003b0: fbb1 9cbe 08f0 b1be 3d59 b3bc 1698 8e3b
000003c0: 495b a8be cc5c adbe 5b88 ba3e 2e6d f83d
000003d0: f862 833e c6b6 363e 42dc 6a3e e69a afbe
000003e0: f566 373c 8579 1cbe 8026 1a3e 46bf dc3d
000003f0: 91cb afbd 7986 5cbc 05f6 2c3d 7c21 be3d

lin1.bias f4 [256]
0.18611932 0.14384657 0.16938312 -0.27732393 -0.23277906 0.15362601 0.27173796 -0.2247391
0.16782513 -0.21776578 -0.35691813 0.31087822 0.25706333 0.24420296 -0.041733976 -0.35849142
-0.13655801 0.007628039 0.134988 0.14327015 -0.11573138 0.19927269 -0.019553252 -0.27068514
-0.3525146 -0.31600973 0.29881123 0.16194892 -0.015469783 -0.3144235 0.33068916 0.34089267
-0.26712993 0.011515825 0.21463214 0.06761115 -0.3682794 -0.019797945 -0.18913119 0.07004839
-0.21980308 0.23696154 0.3158269 0.3117857 -0.15931104 -0.33902168 0.053459466 0.18412487
0.26358783 -0.17793413 0.25889042 0.26776728 0.33786827 0.07543125 0.13592114 0.20330793
0.25681236 -0.2138841 0.057310544 0.33467564 -0.07290626 -0.099803664 0.03856951 0.20248674
-0.11488336 -0.102619424 0.14754395 -0.36779356 0.21524812 -0.13356335 0.33525223 -0.08040992
-0.3724439 0.12379533 -0.1107106 0.07377148 0.26232916 -0.31986246 -0.09595114 -0.142926
-0.022540873 -0.12375664 0.113378376 -0.25792012 0.3714337 0.096333735 -0.03619411 -0.019586494
0.29484156 -0.35676408 0.038838666 0.08903676 0.11593316 0.19649315 0.33202597 0.025742086
0.14529547 -0.3714564 -0.13964666 -0.24487533 -0.35429218 -0.024155213 -0.3389011 0.12053335
0.32851097 0.2265028 -0.03713592 0.3178596 0.19843571 0.16828509 -0.042739466 0.2588792
-0.026463192 0.31785807 -0.30842996 -0.038321972 0.010095849 0.18769577 -0.24713476 0.04046126
0.10091447 0.33781338 -0.33631673 -0.3057025 -0.3574974 0.26271585 0.10909892 -0.14062601
-0.12956408 0.006439536 0.3222633 -0.18861674 -0.1719046 0.31914696 0.21411122 -0.17873667
0.113919504 -0.19316122 -0.024962086 0.22028421 -0.29551768 0.12091739 -0.04450813 0.044697996
-0.27030098 -0.22652069 -0.0734704 -0.35168156 0.32862008 0.08047445 -0.359065 -0.1285329
-0.09094336 0.058134217 0.31542298 0.104440965 0.105235785 0.1702016 0.25328898 -0.2946089
0.15448047 0.2942235 -0.07942185 0.20381235 -0.2841491 0.18173853 -0.3667752 0.21371248
0.23681712 0.18104587 0.08116248 -0.08315323 0.06739928 0.0789112 0.19653714 0.30580336
-0.08381392 0.3024268 -0.121993385 -0.02433236 -0.16334617 -0.24777372 -0.01794733 0.18438315
-0.30664408 -0.044281617 -0.009227978 -0.14422247 0.15665793 -0.121250845 0.35526788 -0.35498163
-0.26939029 -0.25610125 0.3174357 -0.27737924 0.21721262 -0.3474503 -0.026180817 -0.12422871
0.2529058 0.35123587 0.31104806 0.18268222 -0.09788845 0.091593616 0.26514634 0.07920267
-0.14888653 0.26548573 -0.106152065 -0.04796542 -0.29603755 -0.14969417 -0.12653922 0.32502964
0.2920574 -0.21946178 -0.32898638 -0.36074784 -0.0035509476 0.048139125 0.23512188 0.07429546
-0.03502093 0.2730963 -0.19029216 0.25014168 -0.088027254 0.07192264 -0.19878368 0.15038508
0.27844492 -0.014446901 -0.3121878 -0.1337214 0.30022022 -0.02249532 -0.1255828 -0.18394527
-0.2550577 0.21285327 -0.35573956 -0.16678208 -0.061987035 -0.048720192 -0.0071388115 0.24882685
0.24094497 -0.04174979 0.30143133 0.3165742 0.11206444 -0.06332541 0.2240113 0.32828143
00000000: 1096 3e3e 844c 133e c572 2d3e 67fd 8dbe
00000010: a25d 6ebe 2350 1d3e 3d21 8b3e 0222 66be
00000020: 5ada 2b3e fefd 5ebe f9bd b6be 6e2b 9f3e
00000030: ce9d 833e 5710 7a3e 3ff1 2abd 308c b7be
00000040: ddd5 0bbe a1f4 f93b 4b3a 0a3e 69b5 123e
00000050: 9304 edbd 240e 4c3e 242e a0bc 3e97 8abe
00000060: cb7c b4be 07cc a1be c9fd 983e f0d5 253e
00000070: f974 7dbc 1efc a0be 1750 a93e 7c89 ae3e
00000080: 41c5 88be dfac 3c3c 87c8 5b3e b777 8a3d
00000090: 1e8f bcbe 4d2f a2bc 9bab 41be 8875 8f3d
000000a0: 0f14 61be 0ca6 723e 10b4 a13e 60a2 9f3e
000000b0: 6f22 23be 4094 adbe 50f8 5a3d 3b8b 3c3e
000000c0: fcf4 863e 5d34 36be 498d 843e cb18 893e
000000d0: 12fd ac3e b37b 9a3d e92e 0b3e f42f 503e
000000e0: e97c 833e 6f04 5bbe 76be 6a3d 9b5a ab3e
000000f0: e14f 95bd dd65 ccbd 10fb 1d3d af58 4f3e
00000100: f847 ebbd 222a d2bd c315 173e 704f bcbe
00000110: 016a 5c3e d5c4 08be 2ea6 ab3e f5ad a4bd
00000120: f8b0 bebe 6888 fd3d 3dbc e2bd 8015 973d
00000130: 0250 863e 03c5 a3be 0882 c4bd 315b 12be
00000140: a3a7 b8bc 1f74 fdbd ec32 e83d 1b0e 84be
00000150: 8f2c be3e 9f4a c53d 4640 14bd db73 a0bc
00000160: 79f5 963e c8a9 b6be 4b15 1f3d e858 b63d
00000170: 5d6e ed3d 8035 493e 4fff a93e 11e1 d23c
00000180: 56c8 143e 892f bebe 89ff 0ebe 99c0 7abe
00000190: c965 b5be 27e1 c5bc 7284 adbe 30da f63d
000001a0: 9732 a83e 5af0 673e d61b 18bd 7ebe a23e
000001b0: bb32 4b3e ed52 2c3e 940f 2fbd d18b 843e
000001c0: 56c9 d8bc 4bbe a23e 88ea 9dbe 80f7 1cbd
000001d0: 0f69 253c 5233 403e e510 7dbe b5ba 253d
000001e0: 3fac ce3d e0f5 ac3e b531 acbe 0a85 9cbe
000001f0: e609 b7be b182 863e 416f df3d 4400 10be
00000200: 72ac 04be be02 d33b b2ff a43e bf24 41be
00000210: c207 30be 3b67 a33e f93f 5b3e bf06 37be
00000220: a14e e93d 0ecc 45be 4a7d ccbc 2f92 613e
00000230: 184e 97be 89a3 f73d 284e 36bd 3f15 373d
00000240: e464 8abe 0af5 67be a677 96bd 9b0f b4be
00000250: e440 a83e cacf a43d 5ed7 b7be 219e 03be
00000260: 8340 babd 251e 6e3d 1f7f a13e 25e5 d53d
00000270: dc85 d73d 5449 2e3e 18af 813e fad6 96be
00000280: 2130 1e3e 76a4 963e eca7 a2bd 2fb4 503e
00000290: fe7b 91be aa19 3a3e f6c9 bbbe 72d7 5a3e
000002a0: 3080 723e 1764 393e 8438 a63d 3e4c aabd
000002b0: a208 8a3d 329c a13d 0841 493e 4292 9c3e
000002c0: a2a6 abbd afd7 9a3e abd7 f9bd a854 c7bc
000002d0: 3844 27be 65b8 7dbe 4706 93bc f0ce 3c3e
000002e0: 7400 9dbe a460 35bd f230 17bc 0eaf 13be
000002f0: f06a 203e 5d52 f8bd ace5 b53e 27c0 b5be
00000300: 86ed 89be b41f 83be ef86 a23e a704 8ebe
00000310: fc6c 5e3e 01e5 b1be 2779 d6bc 9f6b febd
00000320: de7c 813e 30d5 b33e b141 9f3e 0c11 3b3e
00000330: bd79 c8bd 6f95 bb3d 43c1 873e 0235 a23d
00000340: b675 18be bfed 873e 4166 d9bd 6377 44bd
00000350: 3c92 97be 6e49 19be 7f93 01be 496a a63e
00000360: 8c88 953e 97ba 60be e770 a8be f1b3 b8be
00000370: 04b7 68bb 882d 453d cac3 703e 3828 983d
00000380: 1b72 0fbd 47d3 8b3e f3db 42be 9212 803e
00000390: a247 b4bd 2d4c 933d f38d 4bbe 8cfe 193e
000003a0: 5590 8e3e b2b2 6cbc 14d7 9fbe 43ee 08be
000003b0: 77b6 993e 1b48 b8bc c798 00be 265c 3cbe
000003c0: ec96 82be 35f6 593e 7f23 b6be ecc8 2abe
000003d0: 1ee6 7dbd d38e 47bd b1ec e9bb 77cc 7e3e
000003e0: 47ba 763e d401 2bbd 3555 9a3e 0316 a23e
000003f0: 0b82 e53d c1b0 81bd 3863 653e 8114 a83e

lin2.weight f4 [256, 256]
0.04797124 -0.03650578 0.052324504 -0.051154427 -0.032426298 0.0017959401 -0.041350797 -0.04730922
-0.03651811 -0.04178392 -0.016520232 -0.036159016 0.033575654 0.048316956 -0.011006646 -0.011346221
-0.049203843 -0.033118017 0.019453578 0.03809361 -0.032843336 -0.047889285 -0.03738541 0.007385686
-0.049624868 -0.037434362 0.0057697594 -0.011527538 0.042573713 0.034751035 0.03581862 0.016299628
0.03523864 0.02826219 -0.036425516 -0.03082557 -0.05083149 -0.0267554 0.056643836 0.024245821
0.04107123 -0.003701575 0.02459719 -0.0471474 -0.019869864 0.016753972 -0.044667535 0.053327
0.06106461 0.05555068 0.015019119 0.039478526 0.043221936 0.011658415 -0.020280503 -0.01470463
0.050248593 0.028099328 0.022255935 -0.028022967 0.052367322 0.04155872 -0.05826217 -0.02066926
0.062298253 -0.052638315 -0.035988048 0.049092196 0.020282157 0.007051684 -0.016009748 0.020282596
0.025951847 0.045737214 0.048439167 -0.028345838 -0.027452923 0.040691912 0.036973797 -0.013096444
0.048292495 0.014992081 0.043766923 -0.05653081 -0.010493711 0.048919395 -0.044456303 0.018854782
0.05260229 -0.054572143 -0.0032377392 -0.048045665 -0.0047822893 -0.021730572 -0.0009584874 -0.03130711
0.017132536 -0.05448083 -0.03453867 0.016160205 -0.0060134307 -0.05683572 0.01649309 -0.05220753
-0.051212728 0.025500305 0.010028586 -0.0284516 0.05195556 0.052986406 -0.008888461 -0.0028859898
-0.036850862 -0.049538553 0.04656978 0.013276294 0.01358106 0.0023477748 -0.041998833 0.0177456
-0.029346608 0.027398065 0.030537948 -0.037042253 -0.046667896 -0.021083362 0.028682888 -0.050916314
-0.0338957 -0.006219186 0.039069243 -0.0014807284 0.0591897 0.012399629 0.01674828 0.043685153
-0.051492803 -0.026933871 0.061723806 -0.049194157 0.060709976 0.046099223 0.010513477 -0.05563277
0.060597368 0.013264783 -0.008699775 0.02000568 0.040490054 0.04968497 -0.021820791 -0.011319697
-0.05745542 -0.026287578 0.04485508 -0.05371341 0.007205121 0.029396832 0.002549015 -0.011393651
-0.021018066 -0.027310692 -0.055781417 -0.048676655 -0.009330213 0.045675382 -0.027747825 -0.054051787
-0.053069398 -0.018764094 -0.054502897 -0.021171845 -0.013181254 -0.028117277 0.034718543 -0.04441174
0.006439477 0.00050860643 -0.029381774 0.043591693 0.04102741 -0.027369864 -0.017566994 -0.022675052
-0.028261997 0.058290437 0.0007385239 -0.047157124 -0.04716097 0.043483637 0.039703548 0.031991832
-0.02619563 -0.041010886 -0.04631637 -0.009036019 -0.047814935 -0.030842483 -0.014658652 0.059294946
-0.001760453 0.04605049 0.060434833 0.03614205 0.0452813 -0.048408486 -0.035980515 -0.0561186
-0.03099057 0.03977543 0.045313574 -0.022462964 0.053588435 -0.04019873 0.018688805 0.05518791
0.017923176 0.027235024 -0.042871155 0.00301674 -0.03548464 0.0400666 -0.047599845 -0.025648594
-0.014668755 0.024242423 -0.054583006 0.035826467 -0.020047426 0.002407074 0.057083376 0.02347552
-0.0477034 0.003446497 0.042302884 0.035136677 0.041227013 0.03015782 0.016663536 -0.013831779
-0.035557486 -0.02780778 0.049978226 0.0376406 0.058868937 -0.0024422482 -0.008442566 0.06141343
-0.046051413 -0.027595736 -0.017066278 0.037512735 -0.028217524 -0.045369096 -0.010170162 0.039651066
00000000: 7e7d 443d 1687 15bd 3852 563d 4e87 51bd
00000010: 70d1 04bd c065 eb3a 745f 29bd 50c7 41bd
00000020: 0494 15bd 9e25 2bbd 7055 87bc 7a1b 14bd
00000030: a086 093d 00e8 453d 3855 34bc 80e5 39bc
00000040: f889 49bd c2a6 07bd 1c5d 9f3c 0c08 1c3d
00000050: bc86 06bd 8e27 44bd 7221 19bd a003 f23b
00000060: 7243 4bbd c654 19bd 4010 bd3b 00de 3cbc
00000070: c661 2e3d 1a57 0e3d 8cb6 123d cc86 853c
00000080: 6456 103d 1c86 e73c ec32 15bd e885 fcbc
00000090: ae34 50bd 242e dbbc 5e03 683d 2c9f c63c
000000a0: 4e3a 283d 2096 72bb 0c80 c93c a21d 41bd
000000b0: 20c6 a2bc a03f 893c 4ef5 36bd 6a6d 5a3d
000000c0: e21e 7a3d 1c89 633d c012 763c 3cb4 213d
000000d0: 7c09 313d f002 3f3c 4c23 a6bc b0eb 70bc
000000e0: 78d1 4d3d 9030 e63c 1452 b63c 6c90 e5bc
000000f0: 1e7f 563d 7a39 2a3d 50a4 6ebd 9452 a9bc
00000100: 742c 7f3d 469b 57bd 3468 13bd e614 493d
00000110: c426 a63c d011 e73b e026 83bc b027 a63c
00000120: f898 d43c f256 3b3d 2668 463d 8835 e8bc
00000130: f4e4 e0bc 90ac 263d d671 173d 7892 56bc
00000140: 5ace 453d 58a1 753c f244 333d da8c 67bd
00000150: d0ed 2bbc b45f 483d d017 36bd 5875 9a3c
00000160: 8075 573d 0a87 5fbd 4030 54bb 88cb 44bd
00000170: c0b4 9cbb 5004 b2bc 0043 7bba e23b 00bd
00000180: 8859 8c3c 4a27 5fbd 6c78 0dbd 6862 843c
00000190: 500c c5bb 92cc 68bd 841c 873c 90d7 55bd
000001a0: 70c4 51bd 04e6 d03c f04e 243c 5413 e9bc
000001b0: 5acf 543d 4608 593d e8a0 11bc e022 3dbb
000001c0: eef0 16bd f0e8 4abd f4bf 3e3d d084 593c
000001d0: 1883 5e3c 20dd 193b f806 2cbd 385f 913c
000001e0: 4c68 f0bc e871 e03c b82a fa3c 9eb9 17bd
000001f0: d626 3fbd 04b7 acbc 60f8 ea3c a08d 50bd
00000200: 38d6 0abd 50ca cbbb 1207 203d 0015 c2ba
00000210: e670 723d d027 4b3c b033 893c 34ef 323d
00000220: 1eea 52bd 6ca4 dcbc 1ad2 7c3d d07f 49bd
00000230: 06ab 783d 8ad2 3c3d b840 2c3c 30df 63bd
00000240: f234 783d 8854 593c 8089 0ebc f4e2 a33c
00000250: e6d8 253d 7882 4b3d 84c1 b2bc 4076 39bc
00000260: 6056 6bbd 0c59 d7bc f6b9 373d 9802 5cbd
00000270: f018 ec3b a0d1 f03c 600d 273b 70ac 3abc
00000280: 142e acbc acba dfbc 0e7b 64bd 2c61 47bd
00000290: c0dd 18bc 1c16 3b3d 684f e3bc 6865 5dbd
000002a0: 4c5f 59bd 28b7 99bc 6e3e 5fbd 9470 adbc
000002b0: 30f6 57bc 3456 e6bc 0835 0e3d 16e9 35bd
000002c0: 4002 d33b 0054 053a 0cb2 f0bc 348d 323d
000002d0: 5c0c 283d c436 e0bc a8e8 8fbc 08c1 b9bc
000002e0: b485 e7bc f4c1 6e3d 8099 413a d427 41bd
000002f0: dc2b 41bd e61b 323d 30a0 223d de09 033d
00000300: 3898 d6bc 08fb 27bd 3cb6 3dbd d00b 14bc
00000310: 98d9 43bd 60a9 fcbc d82a 70bc 42df 723d
00000320: 00bf e6ba 709f 3c3d 848a 773d b009 143d
00000330: e278 393d fa47 46bd 4e60 13bd 9edc 65bd
00000340: f0df fdbc 90eb 223d ba9a 393d 4004 b8bc
00000350: 8c7f 5b3d 6ca7 24bd 4419 993c b80c 623d
00000360: a0d3 923c fc1b df3c aa99 2fbd 80b4 453b
00000370: 5858 11bd e01c 243d 0ef8 42bd 001d d2bc
00000380: 3855 70bc 0c98 c63c 6e92 5fbd c6be 123d
00000390: 803a a4bc 00c0 1d3b 42d0 693d bc4f c03c
000003a0: a464 43bd a0de 613b ca45 2d3d 7aeb 0f3d
000003b0: a8dd 283d 880d f73c f881 883c b09e 62bc
000003c0: baa4 11bd 24cd e3bc f8b5 4c3d 082d 1a3d
000003d0: 8e20 713d 200e 20bb b052 0abc a68c 7b3d
000003e0: 68a0 3cbd 7410 e2bc 94ce 8bbc f4a6 193d
000003f0: 7028 e7bc f2d4 39bd c0a0 26bc 2869 223d

lin2.bias f4 [256]
-0.040985458 0.0070694173 0.036504246 0.025407996 0.0406237 0.011015013 -0.015551254 -0.062415555
-0.030816227 0.034741372 0.019037286 0.00010443479 0.04529538 -0.027049385 -0.03384047 0.015693508
-0.028174795 -0.01810772 0.01579153 0.0393463 0.05331299 -0.013876669 0.023695858 0.034856994
0.06198056 -0.0010599523 0.05882115 -0.012087167 -0.06771181 -0.021257473 -0.028745094 0.04492291
0.04687237 -0.0017086789 0.016767176 -0.014950208 0.05677086 -0.049381033 0.02871088 0.031467505
0.015088752 -0.032070242 0.010011142 0.0029821657 -0.03919118 0.018347941 0.015514642 -0.013485313
0.04317138 0.018965857 -0.01314754 -0.051103383 -0.03114853 -0.021785956 -0.014499986 -0.04402753
-0.057662107 0.00584884 -0.028352454 0.043715928 -0.019571215 -0.039669067 -0.016779914 -0.06106013
0.0080988705 0.042533293 0.02189298 -0.03285329 -0.048712157 0.05449196 0.067384936 0.0015722811
-0.0025201996 0.007302639 0.032401204 0.051569518 0.006194571 -0.0064292774 0.045041017 -0.04037082
-0.037134517 -0.046409957 -0.055607952 0.006817609 -0.01878969 -0.049468238 0.03054076 -0.056428164
-0.014260098 -0.020442175 0.01881499 0.023030892 0.01136301 -0.04487434 -0.035535585 0.018211871
-0.05002656 -0.061998267 0.026899504 0.013637522 -0.01619073 -0.026018731 0.043499626 -0.02365863
0.020535456 0.054141454 0.0511226 0.012119143 -0.013927832 -0.03739135 -0.0440582 -0.06067048
-0.010422181 0.05764112 -0.020790393 0.045342874 -0.042871244 -0.03782818 -0.008573815 0.05814577
-0.05238638 -0.0045853173 -0.01926305 -0.051367566 -0.028204277 0.031237863 0.047336113 -0.050848395
0.0452596 0.024908798 0.05654241 -0.041441403 0.010597289 -0.04846677 -0.04544606 -0.048798647
-0.0030299542 -0.023148179 -0.012226991 0.010181658 -0.062365785 0.049687434 0.04572898 0.035193924
-0.0024313452 0.050536007 0.046346694 -0.0059713786 -0.055649217 0.0062173586 0.033658806 -0.010782316
-0.009943027 -0.056351632 0.0033426068 -0.06376263 -0.055294126 0.03930618 0.047505613 -0.05194664
0.053513374 0.024249142 -0.014447816 0.06182218 -0.031444166 -0.04879361 -0.041112307 -0.0034607623
0.041373976 0.011232339 -0.002084699 -0.03479934 -0.043173872 -0.04406604 0.0049132556 -0.016958984
0.008933773 -0.016326748 0.032523096 -0.045057517 0.029087186 -0.014661574 -0.011400349 -0.0478852
0.026668586 -0.0047420356 -0.0011926129 -0.007775298 0.029346779 -0.04894895 0.04196915 0.062326565
0.028348213 -0.009706661 -0.05292306 -0.046518512 -0.055034027 -0.032347105 0.054389626 -0.030194314
0.047198474 -0.061522156 0.020375157 -0.045870654 0.0146399215 -0.027779065 0.036043204 0.054319162
-0.03486701 0.0039311647 0.041740805 -0.034913998 -0.03891669 0.024752028 -0.030085199 -0.006956421
-0.030026913 -0.041394934 0.05117386 -0.055650637 0.04756254 -0.041385967 0.042224646 0.030812878
-0.021538086 0.010454234 0.022330694 0.04904367 0.010727584 -0.060778 0.046724547 0.040745497
0.0056249276 0.010062039 0.056378163 0.028536132 0.05244247 0.01911512 -0.030896299 0.041124288
-0.02607835 -0.057499073 0.025654275 -0.0193073 -0.021325503 -0.037462004 0.036181152 0.03160621
0.026914913 -0.04885877 0.00960476 0.052103095 0.04633041 -0.02344779 0.055398963 -0.017003253
00000000: 5ee0 27bd 92a6 e73b 7a85 153d 6e24 d03c
00000010: 0965 263d 5078 343c b0ca 7ebc 74a7 7fbd
00000020: 5072 fcbc f84c 0e3d 15f4 9b3c 0004 db38
00000030: a687 393d ac96 ddbc 4e9c 0abd ac8f 803c
00000040: d4ce e6bc a456 94bc 3d5d 813c 9629 213d
00000050: b95e 5a3d f85a 63bc d11d c23c 35c6 0e3d
00000060: 54df 7d3d 19ee 8aba 72ee 703d 4109 46bc
00000070: 7dac 8abd 2724 aebc d57a ebbc 1601 383d
00000080: 3efd 3f3d c0f5 dfba 515b 893c b8f1 74bc
00000090: 9088 683d c443 4abd 1433 eb3c 12e4 003d
000000a0: d036 773c 165c 03bd c605 243c 7070 433b
000000b0: ee86 20bd 6c4e 963c 2031 7e3c 81f1 5cbc
000000c0: 79d4 303d 495e 9b3c c868 57bc c851 51bd
000000d0: 342b ffbc 7678 b2bc 5991 6dbc 3656 34bd
000000e0: 1a2f 6cbd a0a7 bf3b 6843 e8bc 790f 333d
000000f0: d053 a0bc 087c 22bd 0876 89bc 301a 7abd
00000100: 20b1 043c 6437 2e3d e858 b33c 2c91 06bd
00000110: 6686 47bd f632 5f3d 1d01 8a3d 0015 ce3a
00000120: ef29 25bb fa4a ef3b 20b7 043d 8f3a 533d
00000130: d4fb ca3b b0ac d2bb ee7c 383d df5b 25bd
00000140: 5d1a 18bd 5e18 3ebd 2ac5 63bd 4066 df3b
00000150: d6ec 99bc 359f 4abd 9e30 fa3c 3821 67bd
00000160: 30a3 69bc 5976 a7bc e521 9a3c 48ab bc3c
00000170: eb2b 3a3c 28ce 37bd c38d 11bd 1031 953c
00000180: a6e8 4cbd e5f1 7dbd 595c dc3c ea6f 5f3c
00000190: 6ca2 84bc 3c25 d5bc aa2c 323d becf c1bc
000001a0: f939 a83c 6ec3 5d3d ee65 513d 5f8f 463c
000001b0: 9031 64bc ac27 19bd 5f76 34bd 9c81 78bd
000001c0: ccc1 2abc 1819 6c3d 9d50 aabc 73b9 393d
000001d0: c299 2fbd b9f1 1abd 3079 0cbc 422a 6e3d
000001e0: 1a93 56bd 6e40 96bb 8bcd 9dbc cc66 52bd
000001f0: a80c e7bc 8ce6 ff3c 83e3 413d 6846 50bd
00000200: 2162 393d 890d cc3c 0499 673d 76be 29bd
00000210: 40a0 2d3c 1885 46bd a625 3abd 17e1 47bd
00000220: 3292 46bb 40a1 bdbc b853 48bc f8d0 263c
00000230: 4473 7fbd 0d85 4b3d 504e 3b3d 8127 103d
00000240: 3457 1fbb d8fe 4e3d 08d6 3d3d 8eab c3bb
00000250: 6ff0 63bd fcba cb3b d1dd 093d 50a8 30bc
00000260: 14e8 22bc f8d0 66bd a30f 5b3b fb95 82bd
00000270: 187c 62bd 84ff 203d 3f95 423d 00c6 54bd
00000280: d730 5b3d 23a6 c63c 88b6 6cbc 4139 7d3d
00000290: 99cb 00bd cfdb 47bd 6165 28bd f5cd 62bb
000002a0: c277 293d d807 383c 729f 08bb c189 0ebd
000002b0: 16d7 30bd 987e 34bd 60ff a03b 91ed 8abc
000002c0: f65e 123c acbf 85bc f036 053d 3b8e 38bd
000002d0: 4048 ee3c 1937 70bc 88c8 3abc 4523 44bd
000002e0: 1478 da3c 1463 9bbb 7351 9cba edc7 febb
000002f0: a868 f03c b27e 48bd d8e7 2b3d 244a 7f3d
00000300: 833a e83c b008 1fbc dac5 58bd 328a 3ebd
00000310: 5c6b 61bd 667e 04bd a8c7 5e3d 115a f7bc
00000320: 3053 413d a8fe 7bbd cde9 a63c dee2 3bbd
00000330: 48dc 6f3c ec90 e3bc 0aa2 133d c57d 5e3d
00000340: b6d0 0ebd 00d1 803b 68f8 2a3d fb01 0fbd
00000350: 1b67 1fbd c4c4 ca3c 3c75 f6bc b0f2 e3bb
00000360: 00fb f5bc bc8d 29bd ae9b 513d ecf1 63bd
00000370: f0d0 423d 5584 29bd c0f3 2c3d 4a6b fc3c
00000380: a470 b0bc 3c48 2b3c dcee b63c 04e2 483d
00000390: c0c2 2f3c 5af2 78bd 3d62 3f3d c0e4 263d
000003a0: 5051 b83b 40db 243c caec 663d 9bc4 e93c
000003b0: eacd 563d 5097 9c3c 3c1a fdbc f171 283d
000003c0: 44a2 d5bc 2684 6bbd ea28 d23c 582a 9ebc
000003d0: d2b2 aebc c271 19bd b032 143d 8375 013d
000003e0: aa7c dc3c 2220 48bd 495d 1d3c 0e6a 553d
000003f0: f5c4 3d3d 9415 c0bc 06ea 623d 684a 8bbc

lin3.weight f4 [128, 256]
0.046394974 -0.058016982 -0.04535315 0.020193055 -0.011353763 0.04136224 0.054649472 0.022921912
-0.03165955 0.010476355 -0.034795728 -0.049701363 -0.03743631 -0.008048646 0.00930573 0.010643989
0.0476425 -0.033505924 0.04920682 -0.02581829 0.04403571 0.025641195 -0.0024136447 0.03282468
0.034445677 0.06440226 -0.03809137 -0.04451105 -0.030280817 -0.024153564 0.03102184 -0.059484165
0.051880002 0.035592526 0.06609935 -0.044025943 -0.01049421 0.014621265 -0.03921313 -0.018946823
0.0014822185 0.015367292 0.039439186 -0.055946022 0.058886997 -0.060772903 -0.00069942325 0.06539227
-0.054624017 -0.052070577 0.03166792 0.046628114 0.030632742 0.051564302 0.036442578 0.0001058653
0.020713694 0.04288242 -0.037915997 0.0043341294 -0.008696623 0.054367825 0.0292392 -0.013134398
0.037096478 0.059287824 0.06209041 0.03823217 -0.05382075 0.055314388 -0.045847073 0.02226717
0.0127921775 -0.01989908 0.008375513 0.06530403 0.0117064 -0.008230761 -0.044467844 -0.01935146
0.0019929959 0.0013915375 0.05749989 0.045504212 -0.0445431 -0.0053552003 0.07062506 -0.010665521
0.058998235 0.064011045 0.012207696 0.034013115 -0.022179745 0.0041236826 0.048589047 -0.052283198
0.03959651 0.02660729 -0.02229599 -0.014576362 0.05564075 -0.017219 -0.0267592 -0.0040012673
0.00069224567 -0.06113966 0.0050007985 0.0409246 -0.037606046 -0.05933582 -0.048815925 -0.056961536
-0.038731493 -0.0034029037 0.019172234 -0.020843068 0.009150021 -0.03853192 -0.036856808 -0.03254404
0.0083860755 -0.04370591 0.019925296 0.061656617 -0.034763664 -0.058654085 -0.0032175966 0.011174645
0.009714845 -0.03880513 -0.004581198 0.02497713 -0.030394264 -0.031582065 -0.05190473 0.022964647
0.0134877935 0.055231884 0.0031928122 0.042883843 -0.021446966 0.044725202 -0.05105921 -0.014537077
0.024311138 0.04009922 -0.05218461 0.023606764 0.043189757 -0.03886387 -0.0037034443 0.010079287
-0.022103447 -0.026682094 -0.031059235 -0.025575893 -0.024628006 -0.043478645 0.040800806 0.055922803
0.013215862 -0.034333758 0.0424055 0.0268489 0.046440683 -0.04288441 0.056626387 -0.00043331087
-0.040076915 -0.006338899 0.009776162 0.032828912 -0.042238027 -0.046318926 -0.030587994 -0.027091766
0.012403247 -0.045677014 0.0742751 0.040536836 -0.05667068 -0.036675006 -0.03294085 -0.03540103
0.026929773 -0.04158327 -0.017675702 0.027660254 -0.009217806 -0.054171823 0.009506851 -0.020922825
0.016117448 0.049682267 -0.031064324 0.04819487 -0.008652554 0.014979084 0.009123653 -0.041709702
-0.06697452 0.06372543 -0.050082088 -0.054927863 -0.015198216 -0.041803353 0.011210389 -0.05314128
-0.008241035 0.026058886 -0.044717163 -0.0198771 0.026163315 0.020199426 0.020937286 -0.0016499311
-0.008685879 0.01700294 -0.0126428995 0.046666242 -0.06409611 -0.022445925 0.12034915 -0.048158452
-0.010523699 0.003167726 0.009569518 -0.018221661 0.06192953 0.043577656 0.039179776 -0.036156893
-0.01025781 0.053067833 0.009968273 -0.034086294 0.055660002 0.0075783655 -0.04764662 -0.010322674
0.015286237 0.022307286 0.07289916 0.025183257 0.010619301 0.024864841 0.054885324 0.013077447
-0.058062036 -0.025880026 0.04069727 0.020410037 -0.051367432 -0.037569568 0.04601132 0.05739782
00000000: a808 3e3d 37a3 6dbd 3ac4 39bd e86b a53c
00000010: 2205 3abc 746b 293d 20d8 5f3d bcc6 bb3c
00000020: 72ad 01bd 05a5 2b3c f785 0ebd a893 4bbd
00000030: d156 19bd 78de 03bc 1077 183c 2064 2e3c
00000040: c824 433d 823d 09bd 178d 493d e180 d3bc
00000050: ca5e 343d 7c0d d23c 3d2e 1ebb 2c73 063d
00000060: e916 0d3d 55e5 833d b205 1cbd 3851 36bd
00000070: 7a0f f8bc b2dd c5bc 8421 fe3c aba5 73bd
00000080: 2080 543d 78c9 113d 195f 873d 8c54 34bd
00000090: e8ef 2bbc 088e 6f3c f29d 20bd 5e36 9bbc
000000a0: 0047 c23a 18c7 7b3c fc8a 213d a827 65bd
000000b0: 7e33 713d 02ed 78bd 8059 37ba 62ec 853d
000000c0: 6fbd 5fbd f547 55bd 39b6 013d 1ffd 3e3d
000000d0: 84f1 fa3c 1735 533d d044 153d 0004 de38
000000e0: c4af a93c 7aa5 2f3d ce4d 1bbd 5005 8e3b
000000f0: 487c 0ebc ccb0 5e3d 0c87 ef3c a831 57bc
00000100: 7af2 173d cad7 723d 8452 7e3d 5699 1c3d
00000110: 2673 5cbd 5791 623d 24ca 3bbd a469 b63c
00000120: 4896 513c 6503 a3bc 7339 093c 1fbe 853d
00000130: 33cc 3f3c 50da 06bc ea23 36bd f486 9ebc
00000140: ec9c 023b 4064 b63a 0185 6b3d a062 3a3d
00000150: d372 36bd ad7a afbb dfa3 903d 70be 2ebc
00000160: 22a8 713d 3918 833d ca02 483c 5651 0b3d
00000170: 4cb2 b5bc f51f 873b 4f05 473d e826 56bd
00000180: f32f 223d 88f7 d93c 14a6 b6bc b2d1 6ebc
00000190: 8ee7 633d dc0e 8dbc 1c36 dbbc 101d 83bb
000001a0: d277 353a 956d 7abd bddd a33b 8ea0 273d
000001b0: cc08 1abd 1e0a 73bd 35f3 47bd 8050 69bd
000001c0: eaa4 1ebd 4003 5fbb 170f 9d3c 15bf aabc
000001d0: f8e9 153c a6d3 1dbd 2af7 16bd e64c 05bd
000001e0: c065 093c f804 33bd 603a a33c a68b 7c3d
000001f0: 5864 0ebd 443f 70bd 50de 52bb dc15 373c
00000200: 032b 1f3c 21f2 1ebd e01d 96bb d79c cc3c
00000210: 64fd f8bc 325c 01bd 0e9a 54bd 5b20 bc3c
00000220: e8fb 5c3c d43a 623d 803e 513b f8a6 2f3d
00000230: 8cb1 afbc c631 373d 7623 51bd ec2c 6ebc
00000240: 2728 c73c 143f 243d 88bf 55bd f962 c13c
00000250: bee7 303d b92f 1fbd 7cb5 72bb 9823 253c
00000260: 4a12 b5bc 6894 dabc f06f febc 8984 d1bc
00000270: acc0 c9bc aa16 32bd bf1e 273d 4f0f 653d
00000280: 5887 583c 8ea1 0cbd 64b1 2d3d 39f2 db3c
00000290: 9638 3e3d 90a7 2fbd 12f1 673d 002e e3b9
000002a0: b127 24bd 8ab6 cfbb 322c 203c 9c77 063d
000002b0: c801 2dbd eab8 3dbd ac93 fabc 8def ddbc
000002c0: fd36 4b3c d217 3bbd 8b1d 983d f409 263d
000002d0: 841f 68bd 8838 16bd fcec 06bd ac00 11bd
000002e0: d49b dc3c 3853 2abd a2cc 90bc c297 e23c
000002f0: 4806 17bc 46e3 5dbd a0c2 1b3c 5866 abbc
00000300: bd08 843c a27f 4b3d 9c7a febc fc67 453d
00000310: 71c3 0dbc d56a 753c 607b 153c cbd7 2abd
00000320: f029 89bd 7a82 823d e022 4dbd 0afc 60bd
00000330: f001 79bc fe39 2bbd c8ab 373c acaa 59bd
00000340: 6805 07bc 7279 d53c 5829 37bd 4dd5 a2bc
00000350: 7354 d63c 4479 a53c ac84 ab3c 8042 d8ba
00000360: 384f 0ebc c049 8b3c 2a24 4fbc 1a25 3f3d
00000370: d244 83bd 84e0 b7bc 9d79 f63d cc41 45bd
00000380: 986b 2cbc a099 4f3b 78c9 1c3c 9845 95bc
00000390: d2a9 7d3d 7c7e 323d f97a 203d 4019 14bd
000003a0: 6010 28bc a85d 593d f851 233c 129e 0bbd
000003b0: befb 633d f053 f83b 1a29 43bd 6f20 29bc
000003c0: 2073 7a3c c5bd b63c 284c 953d 1e4d ce3c
000003d0: 94fc 2d3c 5ab1 cb3c 6fcf 603d ca42 563c
000003e0: 75d2 6dbd 5902 d4bc 2eb2 263d f332 a73c
000003f0: a866 52bd 8ce2 19bd 5e76 3c3d fa19 6b3d

lin3.bias f4 [128]
0.016975401 0.028207034 -0.059898354 -0.057083797 0.045946185 -0.059383944 -0.005551131 0.016650135
0.06341459 -0.01053191 0.037740648 0.02707664 0.0704622 0.003352724 0.011483162 0.037462275
0.014880583 -0.031480078 0.059149202 0.008810475 -0.03263459 -0.029477064 -0.011603663 -0.04841549
0.017199311 -0.036609203 0.026424093 0.021818431 0.017866462 0.028391736 0.0038474337 -0.02160956
0.04755243 0.06514875 -0.007744439 -0.007926794 0.0022525273 -0.055385098 0.026897794 0.0069737253
-0.023903722 0.05889231 -0.020674862 0.011115869 -0.010828758 -0.060778648 -0.029198976 -0.01091621
-0.059554853 -0.04241751 0.007695428 -0.051981688 -0.00087588385 0.039149664 0.05083374 -0.018163085
0.04626358 0.0053359754 -0.05817596 0.030518474 -0.04674194 -0.008242954 0.0110938 -0.03862617
-0.050810874 0.00032602996 0.0042970115 0.05338959 0.032770894 -0.06010741 0.009967258 -0.05311998
-0.03023869 -0.0338487 -0.023847684 -0.016576026 0.026296463 -0.036155924 -0.0074329465 -0.014109672
-0.041670784 0.041357916 0.036378354 -0.03630495 0.034597475 -0.03870891 -0.055568315 0.061554328
-0.014079382 0.022610785 0.015685802 -0.031697005 0.050237924 -0.060491357 0.012413242 -0.034157086
-0.017734528 -0.055277556 -0.046792656 0.024255387 -0.023713093 -0.022218896 0.029393194 0.02655554
-0.002843991 0.0069776718 0.01840919 -0.051319063 -0.02743525 0.033167474 0.0020811704 -0.051456526
0.059544347 -0.071326025 -0.052881893 -0.04945568 0.04197552 -0.049465165 -0.04612103 0.03734931
-0.037349083 0.04808552 -0.0574003 -0.05884541 -0.059931733 -0.008195029 0.009969389 -0.00080970675
00000000: ff0f 8b3c 7012 e73c fa57 75bd b3d0 69bd
00000010: 1132 3c3d 943c 73bd 43e6 b5bb dd65 883c
00000020: 82df 813d 088e 2cbc f095 1a3d d4cf dd3c
00000030: 7c4e 903d 60b9 5b3b df23 3c3c 0b72 193d
00000040: b0cd 733c 41f1 00bd 6f46 723d cf59 103c
00000050: d9ab 05bd e279 f1bc 4a1d 3ebc 524f 46bd
00000060: 92e5 8c3c 88f3 15bd 5777 d83c 91bc b23c
00000070: b05c 923c c995 e83c 3a25 7c3b 8806 b1bc
00000080: 56c6 423d b56c 853d 10c5 fdbb 62df 01bc
00000090: 239f 133b 7cdb 62bd c358 dc3c d983 e43b
000000a0: bdd1 c3bc 1039 713d 545e a9bc 551f 363c
000000b0: 1a6b 31bc 08f3 78bd b132 efbc e7d9 32bc
000000c0: caef 73bd fcbd 2dbd ee29 fc3b c0ea 54bd
000000d0: 929b 65ba 665b 203d 0a37 503d c0ca 94bc
000000e0: e17e 3d3d 68d9 ae3b ea49 6ebd e101 fa3c
000000f0: 7a74 3fbd 740d 07bc c5c2 353c 7a36 1ebd
00000100: 101f 50bd 00ef aa39 f2cd 8c3b 0baf 5a3d
00000110: c63a 063d 3033 76bd b64d 233c 5694 59bd
00000120: 21b7 f7bc efa4 0abd 385c c3bc 72ca 87bc
00000130: ae6b d73c 3c18 14bd 1390 f3bb 412c 67bc
00000140: fcae 2abd eb66 293d 7801 153d 80b4 14bd
00000150: 15b6 0d3d 3c8d 1ebd 9a9b 63bd 6420 7c3d
00000160: 35ad 66bc 413a b93c 837f 803c b8d4 01bd
00000170: 48c6 4d3d c9c5 77bd e960 4b3c 4de8 0bbd
00000180: 0048 91bc b86a 62bd a8a9 3fbd 3cb3 c63c
00000190: f641 c2bc 6704 b6bc ffc9 f03c 018b d93c
000001a0: 4062 3abb f4a4 e43b dfce 963c f033 52bd
000001b0: e4bf e0bc 9eda 073d 3f64 083b 14c4 52bd
000001c0: c6e4 733d 6113 92bd af9a 58bd 0a92 4abd
000001d0: 86ee 2b3d fc9b 4abd 68e9 3cbd 97fb 183d
000001e0: 5afb 18bd 52f5 443d 941c 6bbd e207 71bd
000001f0: fa7a 75bd 7144 06bc a656 233c 8042 54ba

lin4.weight f4 [64, 128]
-0.028585715 -0.036220603 -0.058477446 0.05680758 -0.06514696 0.08560511 -0.016894104 -0.055128
0.0277565 -0.07585337 -0.07637697 0.015621357 -0.04237012 0.027676445 -0.0016960098 -0.014984365
-0.0104714995 -0.0959415 -0.073482685 -0.058679465 -0.044135705 0.08244889 -0.090049624 -0.023828994
0.0048442343 -0.06617031 -0.033633858 0.071385704 0.07945487 -0.09130727 -0.034386277 0.034049425
0.009017014 -0.08547419 -0.08230389 0.0428702 -0.051489063 0.050751843 0.063656054 0.002772539
-0.0063487515 0.0067432956 0.056846503 0.025676679 0.07877317 0.018621815 -0.039098825 -0.016757388
-0.048328348 0.07207946 0.04495096 0.05307051 -0.027312974 -0.03468435 0.0029995274 0.039310113
0.059206694 -0.09931706 0.0007258109 0.07930294 -0.068040915 -0.053552806 -0.04420835 -0.03376149
0.06364719 -0.03894335 0.048179347 -0.013405728 0.07896899 0.059161205 -0.0523568 0.074534886
-0.043570913 -0.030392922 -0.029549902 0.043219857 -0.003176481 -0.085119754 -0.06862419 -0.044311345
0.01156585 -0.076779164 -0.055859465 -0.0060235118 0.0062706885 -0.021009624 -0.043248314 -0.01192853
-0.0155583825 0.07496215 0.010757984 0.01116294 -0.05499089 0.07019889 0.046025626 -0.027604036
-0.05948213 -0.08814092 0.018460562 -0.0067887343 -0.02309545 -0.050994918 -0.027708959 0.0021585969
0.019196868 0.016906472 0.04942513 -0.082434736 0.03834444 0.019288382 -0.085037105 -0.027587377
-0.056559995 -0.07794172 -0.030472752 -0.048775833 -0.07524001 -0.059017558 -0.022022793 -0.0873277
-0.02554077 0.005446452 0.012404197 -0.03993381 0.050773848 -0.08797083 -0.08969298 0.069774084
-0.008311733 0.019916456 0.0029096077 0.05332581 -0.04468697 -0.012639914 0.042675663 -0.07846737
0.07099821 0.0456431 -0.015494925 0.06614025 -0.04664122 0.037860513 0.059747748 -0.0399083
0.055266984 -0.10471996 0.07769121 -0.01446825 0.08436982 -0.009260247 -0.0016959611 -0.0034720888
-0.032594845 -0.06312043 -0.03379975 0.052987386 -0.071675986 0.07017189 0.0053694947 0.07963785
-0.05142764 -0.04517978 0.0013972207 0.068977036 -0.0020036688 0.03307889 -0.06461471 -0.07640038
0.009967108 0.014279014 0.014619803 -0.094098374 0.09835238 -0.0030145887 0.044796195 0.08180325
0.057106894 0.07254806 0.021643937 0.034327775 0.07256457 0.06842519 -0.020012673 0.032503005
0.068119735 -0.041905764 -0.018676754 0.02201853 -0.046000462 0.024131423 -0.05561034 -0.032836337
0.042192094 0.08405899 0.02280775 0.008292889 0.03552309 -0.071820155 0.05380129 -0.014363382
-0.060406215 0.034009732 -0.044929657 -0.09200662 -0.033374835 0.08729052 -0.075957105 0.052024364
0.052064683 -0.012567298 -0.118508406 -0.06287757 0.062157847 0.03361517 0.004772762 0.09120849
0.0049790586 -0.013046331 0.041516818 0.00019909117 0.063100666 0.04204341 0.0037256617 -0.06621891
-0.0761328 -0.026322983 0.064214885 -0.06989057 0.06251776 -0.020664133 -0.035261672 0.0679391
0.041223682 0.006086913 0.026161 0.018554118 0.041005727 0.01113307 -0.030755168 0.037683845
0.030418128 0.059639584 -0.0624132 0.024113718 0.064030245 -0.06600488 0.051935293 -0.046006814
-0.07616459 -0.06311414 -0.07277196 0.07640162 0.028056312 0.062970914 -0.03735367 -0.030248404
00000000: 972c eabc 0e5c 14bd 0c86 6fbd 11af 683d
00000010: c56b 85bd bb51 af3d 8165 8abc e6cd 61bd
00000020: 9961 e33c 0359 9bbd 876b 9cbd b8f0 7f3c
00000030: 4a8c 2dbd b6b9 e23c a54c deba fb80 75bc
00000040: a790 2bbc fa7c c4bd 177e 96bd e159 70bd
00000050: a4c7 34bd f7da a83d f06b b8bd 0635 c3bc
00000060: 62bc 9e3b 4d84 87bd a8c3 09bd ab32 923d
00000070: 3cb9 a23d 4eff babd a0d8 0cbd 6977 0b3d
00000080: 19bc 133c 180d afbd f18e a8bd aa98 2f3d
00000090: 32e6 52bd 2ae1 4f3d 1b5e 823d 7cb3 353b
000000a0: 3009 d0bb ddf6 dc3b e1d7 683d e657 d23c
000000b0: d453 a13d c78c 983c 1726 20bd ca46 89bc
000000c0: f2f3 45bd 659e 933d 7f1e 383d 7760 593d
000000d0: 75bf dfbc 2d11 0ebd b893 443b a403 213d
000000e0: b882 723d be66 cbbd 5844 3e3a 9469 a23d
000000f0: 0959 8bbd 305a 5bbd d113 35bd 7d49 0abd
00000100: 7559 823d 1083 1fbd b557 453d b3a3 5bbc
00000110: 7eba a13d 0553 723d 1574 56bd bfa5 983d
00000120: 6a77 32bd 94fa f8bc a312 f2bc 4e07 313d
00000130: 822c 50bb 4453 aebd d78a 8cbd d07f 35bd
00000140: b17e 3d3c 653e 9dbd e5cc 64bd e160 c5bb
00000150: 597a cd3b 601c acbc 2525 31bd e26f 43bc
00000160: 96e8 7ebc c185 993d 4142 303c c4e4 363c
00000170: 213e 61bd 70c4 8f3d 5e85 3c3d dc21 e2bc
00000180: 89a3 73bd 3a83 b4bd 9b3a 973c 0874 debb
00000190: ab32 bdbc 0ce0 50bd e6fd e2bc 3f77 0d3b
000001a0: c042 9d3c 717f 8a3c 0172 4a3d 8bd3 a8bd
000001b0: 0f0f 1d3d ab02 9e3c ef27 aebd ecfe e1bc
000001c0: 74ab 67bd e99f 9fbd fea1 f9bc 2bc9 47bd
000001d0: 6f17 9abd 65bc 71bd 2569 b4bc ddd8 b2bd
000001e0: e03a d1bc 2778 b23b f93a 4b3c a291 23bd
000001f0: 3df8 4f3d 0d2a b4bd f4b0 b7bd b7e5 8e3d
00000200: ef2d 08bc d627 a33c 1eaf 3e3b 2a6c 5a3d
00000210: af09 37bd a417 4fbc adcc 2e3d 80b3 a0bd
00000220: 8267 913d 42f4 3a3d 6dde 7dbc 8a74 873d
00000230: dd0a 3fbd a013 1b3d 0eba 743d e376 23bd
00000240: a25f 623d 6b77 d6bd 921c 9f3d 3d0c 6dbc
00000250: 16ca ac3d 4bb8 17bc 034b deba fc8b 63bb
00000260: 2c82 05bd 4945 81bd 9b71 0abd 4d09 593d
00000270: dcca 92bd 48b6 8f3d 96f2 af3b 2b19 a33d
00000280: caa5 52bd 6f0e 39bd f222 b73a d543 8d3d
00000290: fc4f 03bb bb7d 073d b854 84bd cd77 9cbd
000002a0: 154d 233c 87f2 693c e687 6f3c a6b6 c0bd
000002b0: f96c c93d 6890 45bb 377c 373d 7688 a73d
000002c0: ebe8 693d 1494 943d a04e b13c 489b 0c3d
000002d0: bc9c 943d 8222 8c3d 9ef1 a3bc df21 053d
000002e0: 5c82 8b3d 61a5 2bbd feff 98bc 3460 b43c
000002f0: fb6a 3cbd 43af c53c abc7 63bd 657f 06bd
00000300: 9ed1 2c3d 1f27 ac3d 52d7 ba3c e6de 073c
00000310: a980 113d 7216 93bd be5e 5c3d 6454 6bbc
00000320: 826c 77bd ca4d 0b3d 2908 38bd f76d bcbd
00000330: 0db4 08bd 5fc5 b23d 668f 9bbd 8017 553d
00000340: c741 553d 11e7 4dbc 89b4 f2bd f5c5 80bd
00000350: 3a99 7e3d 0fb0 093d d464 9c3b 84cb ba3d
00000360: 5f27 a33b 47c0 55bc 8a0d 2a3d 21c3 5039
00000370: ec3a 813d b635 2c3d 3b2a 743b c89d 87bd
00000380: 83eb 9bbd 4ca3 d7bc 1883 833d ca22 8fbd
00000390: 5009 803d d447 a9bc 8b6e 10bd a823 8b3d
000003a0: 2ada 283d ba74 c73b 984f d63c cefe 973c
000003b0: 9ff5 273d 7b67 363c 43f2 fbbc 605a 1a3d
000003c0: 702f f93c a348 743d fca4 7fbd 228a c53c
000003d0: 4a22 833d 912d 87bd 1aba 543d a471 3cbd
000003e0: 2efc 9bbd fc41 81bd 7709 95bd 7478 9c3d
000003f0: 5ad6 e53c e5f6 803d 2900 19bd 80cb f7bc

lin4.bias f4 [64]
-0.051739957 -0.041081533 0.08302999 0.019395493 0.0461833 0.09753053 0.020075675 0.041958027
-0.0487011 -0.0105820475 0.029875498 -0.04758624 -0.006073415 -0.08673707 0.09004642 -0.023803078
-0.08085314 -0.051778655 0.038302626 -0.056227613 0.033220794 0.0055389456 0.021986749 0.022551771
-0.07711622 -0.03548029 -0.03365208 0.0053064036 0.04910005 -0.034291513 0.08520552 -0.036633443
0.03684857 0.011876925 0.034874607 0.04848452 -0.07039059 -0.062588565 -0.047015697 -0.022665923
0.0043029035 0.0022542386 0.017622944 0.061315656 0.041514423 -0.06895943 -0.034621652 0.0529422
0.03752565 -0.03364438 0.070338115 -0.0844551 0.03454632 0.049952243 -0.07499026 0.0652865
0.050644852 -0.04587759 0.06409546 0.069969036 0.066066116 -0.06212477 0.038856663 0.05949444
00000000: 47ed 53bd 1c45 28bd a10b aa3d 4ce3 9e3c
00000010: b32a 3d3d 16be c73d be75 a43c 2edc 2b3d
00000020: ce7a 47bd 5360 2dbc 76bd f43c cae9 42bd
00000030: 7f03 c7bb 34a3 b1bd 426a b83d acfe c2bc
00000040: 5596 a5bd db15 54bd 37e3 1c3d ed4e 66bd
00000050: 8712 083d 0b80 b53b 8e1d b43c 7ebe b83c
00000060: 1cef 9dbd c853 11bd c3d6 09bd 57e1 ad3b
00000070: 221d 493d 4275 0cbd 3b80 ae3d f30c 16bd
00000080: 87ee 163d 6f97 423c add8 0e3d b497 463d
00000090: f128 90bd 6f2e 80bd 8893 40bd e3ad b9bc
000000a0: 5fff 8c3b d9bb 133b fe5d 903c 2026 7b3d
000000b0: 070b 2a3d 9a3a 8dbd 6fcf 0dbd ecd9 583d
000000c0: 7fb4 193d b0ce 09bd 6e0d 903d ccf6 acbd
000000d0: 7180 0d3d b99a 4c3d 7e94 99bd eeb4 853d
000000e0: fa70 4f3d 24ea 3bbd 7b44 833d ed4b 8f3d
000000f0: ac4d 873d 8b76 7ebd 2a28 1f3d 71b0 733d

lin5.weight f4 [3, 64]
0.13303168 -0.009351845 0.0039403606 0.044517424 0.12775955 -0.050167788 0.08209993 0.007388973
-0.018426232 -0.017896423 -0.014783648 -0.008650239 0.025355143 0.036696497 -0.047664452 0.105232984
-0.012034789 -0.044580672 -0.078832164 -0.010482075 -0.04549572 -0.04867125 0.09491289 0.09297496
0.1145384 0.1266014 0.018180266 0.019273987 -0.031083634 -0.11117787 -0.089895464 -0.062119734
-0.060829483 0.0962459 0.02670148 0.047652587 0.059196986 0.10407633 -0.035040386 0.027133042
-0.087988965 0.038729172 0.052954394 -0.08959496 0.085755005 -0.052108657 0.09652529 0.08732005
-0.110135965 0.101911984 -0.12258795 -0.0016013051 -0.10162822 0.08767009 0.07085535 0.018791689
-0.024861228 0.08004443 -0.05112274 -0.065742284 0.024131892 -0.059845865 0.09722288 0.05908158
-0.07615284 -0.070598975 0.09542113 -0.057775013 -0.03624051 0.037516702 -0.046574943 0.0036435018
-0.07590634 0.059548303 0.02032475 -0.052701678 0.08521976 -0.022340171 0.04208322 -0.06221661
-0.06401629 -0.025231706 0.049688064 0.00971339 0.06997932 0.0599178 0.09849284 -0.103536315
-0.039122824 -0.09701596 0.018282045 -0.07464506 -0.07169842 0.044278085 0.04405695 0.011599559
0.018892508 0.062136047 0.03279004 -0.044081025 -0.08499874 0.063414894 -0.090735525 0.022195976
0.012202765 0.09712916 0.11333784 -0.045741566 0.11122086 0.10443483 0.05811081 -0.027481273
-0.08782273 0.10633664 -0.02334132 -0.040169995 0.13071357 -0.016240193 -0.0473081 0.12572175
0.0988442 -0.017233457 -0.100895144 -0.029796464 0.103367254 -0.06206812 0.08433186 -0.0646721
0.06861208 0.07817453 -0.03450843 -0.10145358 -0.076170735 0.10755095 0.017372278 0.009661688
0.03387666 0.0034437878 -0.03396747 -0.053597357 0.12857655 -0.01901601 -0.044272665 -0.08955066
-0.0896022 0.043133125 -0.05902895 -0.01252474 -0.116634704 -0.08362853 -0.08595413 0.027310925
0.00874498 0.047480904 0.09655996 -0.07467631 0.0025205356 0.046982456 0.12673433 0.06227562
0.033304527 -0.054228988 -0.011419561 0.0013469951 -0.12622584 0.08318906 -0.07281427 -0.0059969253
0.04121139 -0.04699194 -0.07693883 0.013497377 0.00040809685 -0.13132426 0.09853696 -0.08571597
0.036416657 -0.050006624 -0.04694078 -0.07306736 0.067896485 -0.036976464 -0.016799448 -0.0737468
0.017398626 -0.099242456 -0.020552622 -0.028747886 -0.007663576 0.0050864904 -0.022271644 0.073328696
00000000: 7539 083e 7b38 19bc 241e 813b e757 363d
00000010: 66d3 023e bd7c 4dbd 0224 a83d 331f f23b
00000020: 9cf2 96bc 859b 92bc 1d37 72bc bbb9 0dbc
00000030: 97b5 cf3c 114f 163d cd3b 43bd 6484 d73d
00000040: 902d 45bc 399a 36bd c272 a1bd 02bd 2bbc
00000050: b859 3abd 815b 47bd b061 c23d a869 be3d
00000060: 1c93 ea3d cca3 013e c8ee 943c 7be4 9d3c
00000070: 1ba3 febc 39b1 e3bd 1d1b b8bd 4371 7ebd
00000080: 5628 79bd 921c c53d 10bd da3c 5c2f 433d
00000090: 8a78 723d f925 d53d 8286 0fbd 1d46 de3c
000000a0: 8f33 b4bd 7ba2 1e3d b5e6 583d 907d b7bd
000000b0: 52a0 af3d e36f 55bd 0daf c53d dbd4 b23d
000000c0: f78e e1bd 3bb7 d03d 640f fbbd e2e2 d1ba
000000d0: 7522 d0bd 608c b33d 9c1c 913d 07f1 993c
000000e0: c6a9 cbbc 56ee a33d 1466 51bd e4a3 86bd
000000f0: 3fb0 c53c f020 75bd ca1c c73d 87ff 713d
00000100: 05f6 9bbd 3296 90bd 276c c33d 7ea5 6cbd
00000110: ee70 14bd 1dab 193d 5ec5 3ebd d1c7 6e3b
00000120: c874 9bbd ece8 733d 1780 a63c b7dd 57bd
00000130: b387 ae3d bc02 b7bc 745f 2c3d d8d6 7ebd
00000140: f91a 83bd b9b2 cebc b685 4b3d e924 1f3c
00000150: 5151 8f3d 5e6c 753d 9db6 c93d d90a d4bd
00000160: 413f 20bd 4eb0 c6bd 3ac4 953c 82df 98bd
00000170: 9fd6 92bd f05c 353d 0f75 343d 140c 3e3c
00000180: 76c4 9a3c 5e82 7e3d d94e 063d 4e8e 34bd
00000190: d213 aebd abdf 813d 8cd3 b9bd 56d4 b53c
000001a0: 1bee 473c a7eb c63d ab1d e83d 825b 3bbd
000001b0: c3c7 e33d eee1 d53d 9a05 6e3d 6820 e1bc
000001c0: 67dc b3bd 06c7 d93d 4c36 bfbc 4b89 24bd
000001d0: c7d9 053e 270a 85bc 23c6 41bd 34bd 003e
000001e0: d46e ca3d 2e2d 8dbc 1da2 cebd b717 f4bc
000001f0: 36b2 d33d 243b 7ebd 2fb6 ac3d ce72 84bd
00000200: 7d84 8c3d f819 a03d b658 0dbd e5c6 cfbd
00000210: 67ff 9bbd ac43 dc3d 4f50 8e3c 0e4c 1e3c
00000220: 41c2 0a3d 2cb1 613b 7921 0bbd e788 5bbd
00000230: 92a9 033e 77c7 9bbc 4157 35bd 5666 b7bd
00000240: 5c81 b7bd 5cac 303d 57c8 71bd 9134 4dbc
00000250: 2dde eebd 6f45 abbd b808 b0bd 29bb df3c
00000260: 1b47 0f3c 567b 423d 3ac1 c53d e5ef 98bd
00000270: 922f 253b ad70 403d a5c6 013e b814 7f3d
00000280: 546a 083d 371f 5ebd 1c19 3bbc a88d b03a
00000290: 5941 01be 075f aa3d a61f 95bd db81 c4bb
000002a0: 46cd 283d 9f7a 40bd 1b92 9dbd 1a24 5d3c
000002b0: d5f5 d539 de79 06be bfcd c93d db8b afbd
000002c0: a229 153d bfd3 4cbd fa44 40bd 57a4 95bd
000002d0: 500d 8b3d a274 17bd ff9e 89bc 9008 97bd
000002e0: 9087 8e3c a13f cbbd f95d a8bc b080 ebbc
000002f0: bc1e fbbb 93ac a63b 0673 b6bc 5b2d 963d

lin5.bias f4 [3]
0.05828031 -0.04944442 -0.061059054
00000000: 56b7 6e3d 3b86 4abd 0f19 7abd
