src/virtuose_teleoperation/network_controller/trained_policy_MLP/Grasp_BC_AHEE_epoch_293.pth (torch, 480519 bytes, 10 tensors)

lin1.weight f4 [256, 43]
000000 a4 9b bf 3e 4a c8 e3 bd 1a 15 f7 be a3 c0 83 3e
       0.37423432 -0.111221865 -0.48258287 0.25732908
000010 73 cb 1f 3e 82 03 33 3e 16 0e 80 be 02 ee 7b bd
       0.15604953 0.17481807 -0.25010747 -0.06150628
000020 b8 0a 3d 3f a1 32 2e 3f 5f 62 01 c0 be 67 6c 3b
       0.7384448 0.68046004 -2.021629 0.0036072577
000030 44 c1 e3 3e 6a d3 45 3f e8 19 05 c0 09 55 08 3f
       0.44483387 0.7727572 -2.0797062 0.53254753
000040 26 2a 94 3e 85 18 e8 3e c7 f3 86 be c1 47 3b be
       0.28938407 0.45331207 -0.26357862 -0.1828909
000050 30 91 aa bf 57 4c 86 3f e6 fd 7e be e2 28 4b be
       -1.3325558 1.0492047 -0.24901542 -0.19839814
000060 c4 23 54 be 9c 34 ab bd 55 7d 84 3d 9f cf 79 bc
       -0.20716769 -0.08359644 0.06469218 -0.015247255
000070 30 a9 7a 3e f2 be ad bc 34 18 a4 bd 96 fc 9e 3e
       0.24478602 -0.021209214 -0.08012429 0.31052083
000080 75 62 a4 3e 36 b2 2a 3e 0b 5e 0c 3e 87 19 2a bd
       0.32106367 0.16669545 0.1370775 -0.04152825
000090 ea d3 29 bd f2 57 7e bd dc 37 d2 3e ce 6c 92 3c
       -0.041461863 -0.06209559 0.41058242 0.017874148
0000a0 5e 68 06 be 68 12 77 bc 58 a2 46 3c 7e 43 3b bd
       -0.1312575 -0.015080072 0.012123667 -0.045718662
0000b0 75 f4 82 3e 66 12 88 3e fb 5a 42 be 7a 74 7b bd
       0.2557713 0.26576537 -0.18980019 -0.061390378
0000c0 4e 9b 80 be a7 60 96 3d df 39 17 3e ac 43 92 bc
       -0.25118488 0.07342654 0.1476817 -0.017854534
0000d0 75 f3 79 3d aa a8 15 40 ed fb a2 3e 02 0b 1a 3e
       0.061023194 2.3384194 0.3183283 0.15043262
0000e0 6d 95 35 be bd de 0e 40 7c f6 16 3e c1 eb 33 3e
       -0.17732783 2.2323449 0.14742464 0.17570402
0000f0 a8 6b 63 3d b1 20 25 3d fd 90 47 3e 3b 1d 55 3f
       0.05552259 0.04031438 0.19488902 0.8324773
000100 a9 55 d2 bd 24 b6 3f be e4 33 ab be 31 9d 55 be
       -0.10270245 -0.18721825 -0.33438027 -0.20860745
000110 a9 d1 9d 3e 94 17 4c 3f 37 06 81 bd 2a 52 06 3f
       0.3082402 0.7972348 -0.063000135 0.5246912
000120 1b 95 08 3f 2f 60 bc be 2c a3 a6 3e d0 35 e4 3e
       0.53352517 -0.36792132 0.32546365 0.44572306
000130 e2 1d da 3d d6 fe 51 3f b8 4e 20 3d 28 7b 6b 3e
       0.10650231 0.82029474 0.039137572 0.22996199
000140 40 fc 42 bf 3a cd cf 3e d9 be 82 bd 86 7a 51 3d
       -0.7616615 0.40586263 -0.063840576 0.051142238
000150 c7 e4 e9 bd 36 bc 83 be 62 5f 2c bc 31 23 14 3e
       -0.11420589 -0.2572953 -0.010520788 0.1446655
000160 0e 90 ab 3c 27 ce bd bd 30 24 01 be e8 24 73 bd
       0.020942714 -0.09267836 -0.1261146 -0.05936137
000170 17 69 00 3c f4 c5 08 bd 00 b0 bf bc b1 2a 3c 3e
       0.007837555 -0.033391908 -0.023399353 0.1837566
000180 41 ab 9b 3e 08 1c d6 3d c4 d9 69 3c 00 55 25 3d
       0.30404094 0.10454565 0.014273111 0.040364265
000190 28 bc 62 3e 01 10 a1 3d 44 1f 3d 3e db 8a 8c 3d
       0.22142088 0.07864381 0.18468958 0.06862422
0001a0 9a 77 04 3e ce ae 2e 3e af 00 e2 bd 93 6b c0 3c
       0.1293625 0.1705887 -0.11035287 0.023488795
0001b0 d7 8b 14 3d bb eb f7 3e 34 e0 01 bc e0 5d e5 be
       0.036266174 0.48422036 -0.007926989 -0.44798183
0001c0 f6 64 4b 3d f5 d6 87 be a2 f7 86 be e4 c2 48 bf
       0.04965683 -0.26531187 -0.26360804 -0.7842238
0001d0 58 35 19 bf ea ec b3 3e e8 64 df bd de 38 1d 3e
       -0.5984702 0.3514169 -0.10907918 0.15353724
0001e0 d1 71 a8 3e 17 77 f3 3d 69 04 19 3e 5f d5 2a 3d
       0.32899335 0.11887949 0.14943089 0.041707393
0001f0 40 1d 5c 3e 38 a2 8a be 1a 97 43 be 08 d8 96 3c
       0.21495533 -0.27076888 -0.1910061 0.018413559
000200 cd 9f 8f bd c0 b3 b6 bd 4e 04 51 3e a4 e2 93 bd
       -0.070129015 -0.08921003 0.20411798 -0.07220963
000210 b1 e9 36 be 3e 52 18 be b5 4a 40 be d9 e5 19 3e
       -0.17862584 -0.14875123 -0.18778498 0.15029086
000220 67 8a 66 3d 29 e6 62 3e 66 0b 66 3e 4b 10 1a 3f
       0.056284335 0.22158112 0.22465286 0.6018111
000230 6b 98 07 3e c2 fd 84 3e c5 23 90 3e fd 8c 4e 3f
       0.13241737 0.25974852 0.2815229 0.8068388
000240 dc 60 ea 3d 21 a2 83 3e 98 4b 8a 3e a5 5d 79 be
       0.11444256 0.25709632 0.27010798 -0.24352129
000250 6b f4 44 3e 97 fe 99 bf 72 0e 96 3e ec e8 ee 3a
       0.19233863 -1.203082 0.29307896 0.0018227375
000260 27 3c 87 3c 90 ac 2e 3e 68 26 3e bf 61 f2 32 be
       0.016508175 0.17058015 -0.74277353 -0.17475273
000270 72 bf 93 3e 8f b1 35 bf ce 31 86 bf ac a5 6c 3f
       0.28857 -0.7097406 -1.0483949 0.92440295
000280 50 0c 5e bf 8e 2e a1 be 8d fe 85 3f 1f ae 8c bf
       -0.8673754 -0.3148083 1.0468308 -1.0990638
000290 eb 01 ea 3d cc 7c 3b bf e1 0f ba 3b 6d 84 a2 bd
       0.11426147 -0.732373 0.0056781624 -0.079354145
0002a0 6a 05 1d 3e eb 4c cc bd bc 64 19 be 51 74 b5 3c
       0.15334097 -0.099756084 -0.14979833 0.02215019
0002b0 6f 09 d6 3d a9 73 ba bc d4 c5 f3 bd 4f a1 9d bd
       0.10451018 -0.02276023 -0.11902967 -0.07696783
0002c0 e3 17 50 3e 85 4c ef 3d 8e d8 97 3d 56 3f 4e bc
       0.20321612 0.11684517 0.074143514 -0.012588343
0002d0 d3 f0 cf be 1e 55 a7 be fe 19 04 40 18 e9 17 be
       -0.40613422 -0.32682127 2.0640864 -0.14835012
0002e0 ec db dd be 35 e2 de be 62 e1 c3 3f 00 80 48 be
       -0.4333185 -0.43531957 1.5303156 -0.19580078
0002f0 e5 6f a0 be 50 b2 e0 bc 6e f0 26 3e a5 8b 47 bd
       -0.3133537 -0.027428776 0.16302654 -0.04871716
000300 b3 c6 fd bd 4a d4 d5 be 36 92 6b 3e a5 10 34 bf
       -0.123914145 -0.41763526 0.23004994 -0.703379
000310 03 16 79 3e 85 71 b0 3e 7e 7f 2e bf 43 e4 95 be
       0.24324803 0.3446161 -0.6816329 -0.29275712
000320 4f db 24 3f 98 12 ef 3e b3 3f 49 bf 49 f0 05 bf
       0.6439714 0.46693873 -0.7861282 -0.5231977
000330 9a 0f 13 40 39 31 3c 40 6b 09 57 bf 84 53 3a bd
       2.2978272 2.9405043 -0.83998746 -0.045489803
000340 e9 d2 85 3e 5f 81 5a 3f c8 a1 82 3e db 25 59 bb
       0.26137474 0.85353655 0.25514054 -0.0033134136
000350 64 bc 95 3d f5 51 5e 3d f6 78 83 bd 6c 67 1d 3e
       0.07311323 0.05427738 -0.06419556 0.15371484
000360 ad 4b 88 be 1e bd e2 bd 47 cd a9 3e 4e 80 8b 3e
       -0.26620236 -0.110712275 0.33164427 0.27246326
000370 98 ba 87 3e af 65 e9 bd 33 85 41 be e0 82 58 be
       0.26509547 -0.11396348 -0.18898468 -0.21143675
000380 b3 f2 50 be ab 4b 1b bf ec 19 52 be 3c a6 68 be
       -0.20405082 -0.60662335 -0.20517701 -0.22719663
000390 2e 7f 9a be 0c f3 39 bf be d6 6f be 08 07 b6 be
       -0.30175155 -0.72636485 -0.23421761 -0.3555224
0003a0 97 27 63 be 62 12 93 3e 87 32 bb be 17 84 4b 3e
       -0.22183071 0.28724962 -0.36561987 0.19874607
0003b0 68 f4 c4 be b3 95 10 3e 0f 9d 39 3d a8 0b 35 be
       -0.38467717 0.14119606 0.0453158 -0.17680228
0003c0 43 c2 5c 3e 6c 41 35 3e c9 81 98 3c ea 8d b5 3d
       0.2155848 0.17700738 0.018616574 0.088649586
0003d0 7b 7d 86 3d 53 b0 b6 be 95 85 c4 3e 7c a7 17 3e
       0.06566902 -0.356814 0.38383165 0.14809984
0003e0 f8 00 e1 3e f8 e3 dc 3f e1 a0 98 bb e6 aa 53 3d
       0.43946052 1.725707 -0.00465785 0.051676653
0003f0 06 47 a0 bc 8a 32 92 3e 4c 7f fa bd 39 91 10 be
       -0.019565117 0.28554183 -0.12231311 -0.14117898

lin1.bias f4 [256]
000000 9e 0f 2c be 7e ec 66 3e b9 ee 9c bd 81 47 05 bd
       -0.16802832 0.22551152 -0.0766272 -0.032538895
000010 aa 3c 9d bd 24 9e a3 be 88 2b 11 be 03 83 3b be
       -0.076775864 -0.3195659 -0.14176762 -0.18311696
000020 a7 c9 6b 3d 31 69 82 bc 13 86 eb bc 48 2c c2 bc
       0.057565358 -0.0159193 -0.028750455 -0.023702756
000030 93 ec 99 3d a1 d1 00 3d 90 13 98 3b 31 17 8f bd
       0.07515826 0.031449918 0.004641004 -0.06986845
000040 85 49 c4 3b c7 6b 4a be be 26 92 bd 41 4e 91 3d
       0.0059902095 -0.19767676 -0.07136296 0.07095004
000050 43 c8 76 3e 7e 39 1b be 52 8e 24 be 8b 64 48 3b
       0.24099831 -0.1515865 -0.16069916 0.0030577506
000060 31 5c 86 bd 80 11 c5 bd 1c 19 9c be 57 ba fa bd
       -0.06560553 -0.096224785 -0.30487907 -0.12242573
000070 b9 e0 9e 3c 89 0d 50 bd fd e7 95 bd b9 d0 80 3d
       0.019394265 -0.050794158 -0.07319639 0.06289811
000080 24 85 dd 3d 91 03 57 be 99 4e d4 3b 8f f9 2d 3e
       0.1081641 -0.20997454 0.006479096 0.1698973
000090 29 1d 2f be 4f a3 e5 3d c9 7d cc bd b5 68 5b 3e
       -0.17100967 0.11212789 -0.09984929 0.21426661
0000a0 f5 e7 c3 bd 62 6b 60 be af ec 56 be ef f6 c5 3d
       -0.09565727 -0.21915963 -0.20988725 0.096662395
0000b0 e3 95 cb be 30 ef 5b bc a8 75 04 be 62 9a 87 3c
       -0.39762792 -0.013423726 -0.12935507 0.016553108
0000c0 b5 0d 26 bd 9d 20 a4 be c6 e4 fd bd 38 86 36 bc
       -0.040540416 -0.32056132 -0.12397151 -0.011140399
0000d0 ff 21 0a 3e 80 d2 75 be 2f 0b 3a be 6d 13 06 3e
       0.13489531 -0.2400608 -0.18168329 0.13093348
0000e0 71 a3 0f be d9 42 0e be c3 94 6d 3e d0 73 31 3e
       -0.14027192 -0.13892688 0.2320128 0.17329335
0000f0 7c cb 01 bc 9c 59 24 3c ac ce 5d bb 1c 47 8a 3d
       -0.00792205 0.01003113 -0.003384511 0.06751844
000100 9a 2f 13 3e e6 87 ab bd f9 db 84 be 51 af b8 3d
       0.14373627 -0.0837553 -0.25949076 0.09017814
000110 62 91 17 3e e1 02 59 3d 92 a0 89 bc 76 8d aa be
       0.14801553 0.05298126 -0.016800199 -0.3331105
000120 ed 51 16 bd 4a 67 24 bd 1b 83 8d be b2 ca 92 3d
       -0.036699224 -0.040137567 -0.27639088 0.07167567
000130 75 73 a3 3d 73 f2 cf 3c 70 32 6a bc 28 63 8d bd
       0.07981006 0.025384163 -0.014294252 -0.06903678
000140 23 0d 02 be af 83 60 bd 82 9e 97 3d a8 c9 81 be
       -0.12700324 -0.054813083 0.0740328 -0.25349164
000150 fa 00 d0 bc 9d 30 d9 bd 1a c8 c2 bd 63 14 b5 bc
       -0.02539109 -0.106049754 -0.095108226 -0.022104448
000160 86 fe 98 bd 1f 2c a5 3d 95 10 8b bc 8c e9 ec bd
       -0.074704215 0.08065056 -0.01697568 -0.11567983
000170 19 b5 49 3d 87 0d a3 3d 08 ae 18 3e cb 64 7f be
       0.049244974 0.079615645 0.14910138 -0.24940793
000180 60 78 b6 3d 4a 27 0e 3e 9c 2e 90 bd 8a c7 06 be
       0.089096785 0.13882175 -0.0704014 -0.13162056
000190 c1 f6 d3 bc 6f 70 0a be c8 e2 07 bd a4 47 80 3d
       -0.025874497 -0.13519453 -0.03317526 0.06263664
0001a0 f2 e0 66 bd f9 18 d5 be c4 13 89 be 40 7b c2 bd
       -0.05636687 -0.41620615 -0.26772892 -0.09496164
0001b0 4b cc da bd e7 2f 40 3b 8b f8 cd bd 75 b7 b7 3c
       -0.10683497 0.0029325427 -0.100571714 0.022426346
0001c0 5c 60 50 be 55 65 2f bd 45 86 e4 3d 8b 17 94 3d
       -0.20349258 -0.042821247 0.111584224 0.07231053
0001d0 31 88 44 3e 8a be b0 3d 09 b6 7b be de c1 e1 bd
       0.19192578 0.086300924 -0.2458116 -0.11023305
0001e0 3b 84 3a be ab 0b b4 3c 6b a1 87 be 29 a8 c1 3d
       -0.18214504 0.02197822 -0.2649034 0.09455902
0001f0 4c 1d 78 bd ed d9 af 3c 05 12 65 be 6b 56 3d be
       -0.060574815 0.02146622 -0.22370155 -0.18489997
000200 26 96 57 be 5a 34 87 3d 54 46 45 be 9d 8e 4b be
       -0.21053371 0.06601782 -0.1926511 -0.19878621
000210 e6 46 45 be 7e f9 01 bc 56 50 55 bd 46 c1 ba 3d
       -0.19265327 -0.007933019 -0.052078567 0.09118895
000220 5e 7c 08 be 5f 20 f6 3c bb 1a 0b bd f6 e6 8a bd
       -0.13328692 0.030044733 -0.03396104 -0.067823336
000230 c5 18 37 be de 0d 6f bd 8a 2b be bd 13 42 c0 bd
       -0.17880543 -0.058362834 -0.09285648 -0.09387603
000240 e5 65 1c bd 97 a9 82 bd 15 f7 9d be 5b 25 84 be
       -0.03818311 -0.06380003 -0.3085257 -0.2580975
000250 ff 52 ce b9 b2 b3 94 3c 56 37 54 be 8f 65 26 3d
       -0.0003935322 0.018152092 -0.20724234 0.040624198
000260 dd fb 41 be da 53 60 bd bc 5f 50 be 49 3e e8 bd
       -0.18943734 -0.054767467 -0.2034902 -0.11340005
000270 5e 65 c8 3d 2a 8a ca bd ef 63 d3 bd c1 65 91 bd
       0.09784959 -0.09889634 -0.10321795 -0.07099486
000280 ea 10 6f 3e 36 2d a6 3e 31 8c 8a bc 97 27 f9 3c
       0.23346296 0.32456368 -0.016912552 0.030414386
000290 25 f7 63 bd af c6 e2 be 6f 8b ff bb e8 53 0a be
       -0.055655617 -0.4429221 -0.007798604 -0.1350857
0002a0 4d 27 50 3e 24 77 19 be 77 d5 13 be 8c b8 74 3d
       0.20327492 -0.14986855 -0.14436899 0.05974631
0002b0 c7 d3 50 be 28 5c 13 bd df c8 04 be a9 fe e9 bd
       -0.20393287 -0.03597656 -0.12967251 -0.11425526
0002c0 89 a7 8d bd 7f 0d 0b 3c 5f 92 8d 3d 57 93 21 3d
       -0.069167204 0.008487104 0.06912684 0.039447155
0002d0 a2 7c 0e be 4e be be be 32 52 22 3e 9e 49 63 3e
       -0.13914731 -0.37254566 0.15851668 0.22196051
0002e0 52 71 22 be 0d 3d 81 be 54 d9 84 be ae 6e c2 bc
       -0.15863541 -0.2524189 -0.25947058 -0.023734417
0002f0 8b ed bd be 86 e4 82 3e 4e 9e ef bd 3a 16 35 be
       -0.37095293 0.25564975 -0.11700116 -0.1768426
000300 8b 64 4c be b5 70 70 bd 6f 37 8d 3e fa 8c 86 3d
       -0.19960229 -0.058701236 0.27581355 0.06569858
000310 b9 d2 02 3e 27 b8 1f be 53 64 10 bc a3 e3 b5 ba
       0.12775697 -0.15597592 -0.008812982 -0.0013877045
000320 e7 57 a0 3d ec ce 9a be 81 9e 7c be 2a 49 b3 bd
       0.07829266 -0.30235994 -0.2466984 -0.08754189
000330 88 6d 0d bd c4 20 83 3d f3 7c 30 be e6 88 4d 3e
       -0.034528285 0.06402734 -0.17235164 0.20071754
000340 65 52 94 3c 78 45 5b 3d 2d 58 a8 bd f0 f9 28 be
       0.018105695 0.053533047 -0.08219943 -0.16501594
000350 d0 76 db ba cd 45 9e 3c dd d0 99 39 0f de 91 bd
       -0.0016743783 0.019320393 0.0002933805 -0.071224324
000360 c5 49 c8 be a1 88 70 3c 7b 87 27 bd dc 4d 10 be
       -0.39118782 0.014681012 -0.04090069 -0.14092201
000370 59 64 90 3d 4f d1 92 bd b6 70 3e be b6 c4 4a 3e
       0.0705039 -0.07168829 -0.18597683 0.19801602
000380 b9 46 c6 bd 40 47 63 be 8b 8b 1c be af 0e 49 3c
       -0.09681458 -0.22195148 -0.15287606 0.012271567
000390 9e 56 e7 bd bd 0b cd 3d d1 98 23 bd 19 0d 63 be
       -0.11295818 0.100120045 -0.03994066 -0.22172965
0003a0 53 6b 12 3e a0 7e 54 3d 80 62 23 3d a6 f1 84 be
       0.14298753 0.05187857 0.03988886 -0.25965613
0003b0 b7 c1 90 3c 74 c0 24 be 15 9f e3 3d e6 9e 1e 3c
       0.017670495 -0.1608904 0.11114327 0.009681439
0003c0 5f 95 80 3b 84 33 7b 3e c1 b5 7b be cb 74 33 ba
       0.0039240564 0.2453137 -0.24581052 -0.00068457116
0003d0 e2 ec c5 3d ff 9d b6 be 31 7f dc 3d e5 64 27 bd
       0.096643224 -0.35667416 0.10766447 -0.040867705
0003e0 02 dd f2 bd a8 d4 f2 bd a8 2e 29 bd 91 b7 88 be
       -0.1185856 -0.11856967 -0.04130426 -0.2670255
0003f0 fd cb 7a 3e be e8 3d 3d 15 0a 3c be b2 91 25 3e
       0.24491878 0.04636454 -0.18363221 0.1616886

lin2.weight f4 [256, 256]
000000 56 59 1a 3e d2 3b 20 bf a2 05 db bd ed 7a 6d 3d
       0.15073141 -0.6259128 -0.10694434 0.05797856
000010 6c bc e4 bd 11 61 48 3d 38 7e 20 bd b3 bb c8 3b
       -0.11168751 0.048920695 -0.03918287 0.006125891
000020 ad b8 52 bf 67 cb a8 bc 9f ee 06 be b4 43 7d bd
       -0.8231304 -0.020604802 -0.13176964 -0.061832145
000030 d3 fe 83 bd 2b 41 b4 bd bf 0c 42 3e bc 46 51 be
       -0.06445088 -0.08801492 0.18950175 -0.2043714
000040 cc dc cb bd ca 0b 74 bd 49 74 7d 3c 56 fb 3a be
       -0.09954223 -0.059581555 0.015469619 -0.1825994
000050 c2 9a b9 be 08 90 0c 3d 86 91 15 3c 2b a7 d7 3d
       -0.36250883 0.034317046 0.009128934 0.10529932
000060 4a e1 85 3a da f4 2f 3d 6b 28 63 3c 85 3c 29 be
       0.0010214236 0.042958118 0.013864617 -0.16526993
000070 2a 5b 2b bc d2 d2 a9 3d e8 4b 34 bd f5 b8 86 bc
       -0.010458747 0.08292164 -0.044017702 -0.016445616
000080 d8 15 04 3b 5c 4d be be dd 67 25 be cf ab 0f bd
       0.0020154621 -0.37168396 -0.16152902 -0.03507596
000090 44 6b 63 bc f3 8b e8 3c b6 6c 91 be d5 2b 13 3d
       -0.013880555 0.028387045 -0.28403252 0.035930473
0000a0 06 be 08 3e 29 21 cd 3d b5 5c 1b 3e c3 b2 0d bb
       0.13353738 0.100160904 0.15172084 -0.0021621443
0000b0 91 8f 23 3e b8 1c 24 3e 42 06 10 bd 75 d8 0c bd
       0.15972735 0.1602658 -0.035162218 -0.034386117
0000c0 88 1d d9 bc 47 31 90 3d 3a ac 88 bd 1e 07 bc 3d
       -0.02650334 0.07040649 -0.066734746 0.09181045
0000d0 02 b6 f4 3d 11 84 d7 3c b4 ab 69 3d 94 ab 9f 3d
       0.11948778 0.026308091 0.057048514 0.07796398
0000e0 19 b8 0d 3d ff 90 8f bd 2f 12 f8 bc 4a 90 ac 3d
       0.034599397 -0.07010078 -0.030282108 0.084259585
0000f0 32 a9 96 3d 8a 3c a3 3d a9 02 b5 3d 96 67 0f bf
       0.0735649 0.07970531 0.08838398 -0.56017435
000100 96 6f 9e be e0 35 64 bc aa dd f3 3d 66 53 13 3e
       -0.30944508 -0.01392886 0.119075134 0.14387283
000110 38 4d 63 be 03 6c 2e be ad cf 4a 3d 55 31 02 be
       -0.22197425 -0.1703339 0.04951446 -0.12714131
000120 b1 fb 05 3e 5b 6c 9c be 94 10 62 be e6 32 83 3e
       0.13084294 -0.3055142 -0.22076637 0.2562477
000130 79 9e c4 bb b3 05 ad 3d f7 a9 e6 3b f2 20 28 3e
       -0.0060003367 0.08448353 0.0070393044 0.16418818
000140 2e ff b9 bc 5b 89 dd 3c 2d b5 e8 bb e5 0b 81 be
       -0.022704687 0.027043035 -0.007101676 -0.25204387
000150 0a fc 4d be cf eb 52 bc b3 c6 3c 3d c5 7a e7 bd
       -0.20115677 -0.012873604 0.04608793 -0.11302713
000160 05 7a cf 3b 91 02 dc bc 3b 8b 06 3d 5b ed 86 bd
       0.0063316845 -0.026856693 0.032847624 -0.06588241
000170 24 de 1a be 88 91 f6 bd ca b4 ca bc 9b e2 7a 3c
       -0.15123802 -0.12039477 -0.02474441 0.015312816
000180 7b e8 05 be ba 50 4d bd 87 d3 00 bc e5 98 2d 3c
       -0.13076966 -0.050125815 -0.007862932 0.010595535
000190 e3 31 2f bd 5c 4e 8d be 12 37 be bc 71 4f 3c 3d
       -0.042772185 -0.27598846 -0.023219619 0.0459742
0001a0 f9 ee 33 3e ff 65 be 3d c3 ec b0 3d 5d 6e 79 3d
       0.1757163 0.09296798 0.08638909 0.060896266
0001b0 53 e7 b7 3d 65 00 3c 3d 2c 43 13 bb a9 8e 06 be
       0.089796685 0.045898814 -0.0022470457 -0.13140358
0001c0 a5 c5 65 3d b8 16 fc bc 8b 55 84 bd cb 9f 93 3c
       0.05609669 -0.030772552 -0.064616285 0.018020531
0001d0 40 d5 55 3e de 30 25 3d 26 9b 38 3d 22 ae 82 bd
       0.2088213 0.040329807 0.045069836 -0.063808694
0001e0 32 8d b3 3a b8 fe b3 bd f8 8d 71 be 68 8c 2d 3d
       0.0013698696 -0.08788818 -0.23589313 0.04237023
0001f0 ac cd 74 3d 7d e9 0f bf 4d 9b 2f bd 79 66 6d bd
       0.059766456 -0.5621565 -0.042872716 -0.057959054
000200 fb 8a 07 3b fb fd cf 3a 68 9c 3c be 66 c6 52 3c
       0.0020682204 0.0015868539 -0.18419039 0.012864685
000210 da 00 3d be f8 18 83 3d 42 f9 32 be 3e 67 b0 3e
       -0.18457356 0.06401247 -0.17477897 0.34453768
000220 33 43 38 3d d8 c8 24 bd ac 9b d1 bc 01 00 be bc
       0.04498596 -0.040230602 -0.025586925 -0.023193361
000230 60 e1 9f 3d 38 f4 24 bd 96 d7 aa 3d 32 51 3a be
       0.07806659 -0.040271968 0.08341901 -0.18195036
000240 a7 1e b4 3d 0b 5f 3f bc 4c 86 aa 3d b1 48 17 bd
       0.08794909 -0.011680375 0.08326396 -0.03693456
000250 21 b8 82 bd 67 36 0b bf 44 9c a9 3c 46 8a b9 bd
       -0.06382776 -0.54379886 0.020704396 -0.09059577
000260 71 3f bc 3d 72 a0 83 3e dc 95 f9 3c d8 54 26 bd
       0.09191788 0.25708348 0.030466966 -0.040608257
000270 c1 1d 40 bd 50 f0 57 bc bc 68 ce be 51 58 5d 3e
       -0.046903376 -0.013179854 -0.4031428 0.21615721
000280 30 9b 3c 3e a5 d9 26 bd 14 eb c4 3d 5f 71 2b 3e
       0.18418574 -0.040734906 0.0961515 0.16742466
000290 3e b6 bd bc 48 e8 06 3e dd 01 27 3d 68 20 b0 bc
       -0.023158189 0.13174546 0.04077326 -0.021499828
0002a0 0f c0 1d 3d a6 28 f0 bc cc 05 c0 3c 59 3a 36 bc
       0.03851324 -0.029316258 0.023440264 -0.01112231
0002b0 4e 80 09 3d 1d 2f 4c 3e 5c 00 8d 3d a5 ae 8a 3e
       0.033569627 0.19939847 0.06884834 0.27086368
0002c0 d8 c3 97 bd 18 2d cc bc fe 0b 0e be ef 67 d8 3b
       -0.07410401 -0.024923846 -0.13871762 0.0066041867
0002d0 04 22 4d 3d 5d d3 4a 3d 99 61 f9 3c a1 9f 5e 3e
       0.050081268 0.049517978 0.030442046 0.21740581
0002e0 af 82 50 bc 9d b5 55 bc 5a 5b 17 3e 9b c3 b6 3d
       -0.01272647 -0.013043788 0.14780942 0.089240275
0002f0 be cb 33 3e 3f 57 d4 be 27 2f 28 3e 0c c9 34 be
       0.1755819 -0.41472813 0.16424237 -0.17654818
000300 02 a3 b3 be 55 ef 19 3d b1 81 0a 3e b5 5e b4 3d
       -0.35085303 0.03758176 0.13526036 0.088071264
000310 62 2c df bd 73 d5 87 bd 42 a6 51 3d 2c 2a 9c bb
       -0.10897137 -0.06632509 0.051183946 -0.0047657695
000320 4c 0a 3d 3e 9b 87 b9 be 39 1a 59 be b1 67 68 3d
       0.18460959 -0.3623627 -0.2120141 0.056739513
000330 fa 72 f9 bd 7d f3 fc 3d 1d 33 f2 bc 68 da db bd
       -0.12180133 0.12351129 -0.029565388 -0.10735017
000340 b6 bd 04 be 78 5c 13 3d 60 ce ca bd 67 8f 03 bc
       -0.12962994 0.035976857 -0.09902644 -0.008029795
000350 4a 3f a0 3d 0d 47 d1 bd 29 1f 17 3a 92 00 da 3d
       0.078245714 -0.1021863 0.0005764836 0.1064464
000360 95 43 5a 3e 1f 27 70 bd f3 28 5b 3d 40 5a f8 3b
       0.21314843 -0.05863106 0.05350585 0.007579118
000370 4c c4 23 3e 01 aa 08 3d bd 4e 1f 3e 44 a0 13 bd
       0.1599285 0.033365253 0.1555738 -0.036041513
000380 08 65 05 be 19 dd c6 3d 8a 5c 73 3c 6c 9e b4 3d
       -0.13026822 0.0971014 0.014853606 0.08819279
000390 92 bd 0e 3d be 22 fb bc cd 5a 91 3d fe aa 86 3d
       0.034848757 -0.030656215 0.07097397 0.06575583
0003a0 7a df a1 3c 14 73 d1 3c 0c 23 09 3e 4b 08 7c 3e
       0.019759882 0.025567569 0.13392276 0.24612539
0003b0 7e 79 bb 3c e0 30 35 3d 05 98 87 3e 77 e0 ff bd
       0.02288508 0.044236064 0.2648317 -0.12493985
0003c0 d8 81 a6 bd 72 85 5a bd 32 c8 79 bd 32 21 07 be
       -0.081302345 -0.05334992 -0.060981937 -0.13196257
0003d0 13 a0 dc 3d 7a 60 56 3e fa 3a 03 bd f2 75 11 bd
       0.10772719 0.2093524 -0.032038666 -0.035512872
0003e0 b0 54 35 3d 16 c7 39 3d c2 75 1b bd b4 a0 34 bc
       0.044270217 0.04535588 -0.0379541 -0.011024643
0003f0 94 1e 52 3e 0c e0 74 bd 0a dc 6e 3d d5 9a a6 b9
       0.20519477 -0.05978398 0.058315314 -0.00031777346

lin2.bias f4 [256]
000000 e9 a1 a7 bd 94 0d fb 3c 60 2c f1 bd 90 f1 4a bd
       -0.08185179 0.030646123 -0.11776042 -0.04954678
000010 70 da bb bd 49 eb f5 bd 44 c5 87 bd 1e 02 12 3c
       -0.09172523 -0.12007768 -0.06629422 0.008911638
000020 1f f0 bc bc b3 02 c6 bd f2 06 f9 bc 91 b5 23 bc
       -0.023063717 -0.096684836 -0.03039882 -0.009992019
000030 ce db 37 bd 27 87 ee bb b5 e5 8e 3c fa 87 b8 bd
       -0.044887356 -0.007279295 0.017443517 -0.090103105
000040 3e 76 57 3d c4 b8 4a bc 84 60 98 bd 4a 26 85 bd
       0.052603 -0.012373153 -0.07440284 -0.06501444
000050 a1 7d 05 be 7b 44 df bd 88 58 bb bd a2 f4 b1 bd
       -0.13036205 -0.109017335 -0.09147745 -0.08689238
000060 a6 01 f4 bc 23 4a 06 3c de 3f 07 bd dd a1 8f bd
       -0.029785942 0.0081963865 -0.033019893 -0.07013295
000070 2b f8 41 bc d4 59 02 be c5 cd bb bd 49 b0 66 39
       -0.011838953 -0.12729579 -0.09170107 0.0002200018
000080 23 64 8d bc ba 47 ea bd 67 81 63 bd ce 05 81 bd
       -0.017259663 -0.11439462 -0.05554333 -0.06299935
000090 1e fe a3 3d 57 53 bb bd f5 8a ec 3c d5 ef 7a bd
       0.080074534 -0.09146755 0.028874854 -0.061263878
0000a0 20 e4 b5 bd 10 65 8c bc 19 ad 6b 3d 94 1d 83 bd
       -0.08881402 -0.017138034 0.057538126 -0.06402126
0000b0 8c b9 e1 bc 56 f9 6b bc b5 82 b5 bc e3 45 75 bd
       -0.027554296 -0.014402708 -0.022157053 -0.059881102
0000c0 04 a6 29 bd 5e 4f fc 3c 79 af 8e bd 2a 6d ec 3d
       -0.04141809 0.030799564 -0.069670625 0.11544259
0000d0 ea 70 33 be 1a 18 a9 3e 5d f6 97 3d f1 ff 81 be
       -0.17523542 0.330262 0.07420037 -0.2539058
0000e0 40 be 47 bd cb 0f b4 bc 0f 58 5a bd 58 6e 7a 3e
       -0.04876542 -0.021980187 -0.053306635 0.24456155
0000f0 23 b6 41 bd 6e 9d 85 bd f1 d3 72 bd 90 fa 64 bd
       -0.04729284 -0.06524168 -0.059284154 -0.055903018
000100 49 46 98 bd 7d 8c aa bd be 47 c9 bd f7 2b 4b 3d
       -0.07435281 -0.08327577 -0.09828137 0.049602475
000110 a8 ec db 3d 8b 1f 53 bd ae e8 94 3c 0b 63 72 bd
       0.10738498 -0.051543754 0.018177357 -0.059176486
000120 61 e4 df bd 32 ce 31 bd b0 fe 66 bd 32 2f 14 be
       -0.10932232 -0.043409534 -0.056395233 -0.14471129
000130 e0 0e 06 bd 18 da c3 bc 2b 4b cc bc e6 fe 8c bd
       -0.03272903 -0.023907706 -0.024938187 -0.068845555
000140 c4 ae 33 3e 74 ce 4d bd f4 8b 96 bd 73 9b 1d be
       0.17547137 -0.050245717 -0.07350913 -0.1539133
000150 50 37 a6 3e a5 1f 43 3d 72 a9 96 be d2 5c a7 bc
       0.32464075 0.0476376 -0.29426152 -0.020430002
000160 dc b0 ff 3d 19 82 44 3e 8f 7f 30 3d 89 e8 52 bc
       0.12484905 0.19190253 0.0430904 -0.0128728235
000170 39 1f 4d bd f7 c4 26 be b1 a5 76 3e 81 1e 7c bd
       -0.050078604 -0.16286074 0.24086644 -0.06155253
000180 ee 47 7b bd ba b8 3e bd c1 56 32 bd 8b 90 b0 bd
       -0.061347894 -0.046562888 -0.043539766 -0.086213194
000190 9e 0a a7 3d 1f e2 8c be 10 9d 83 be 62 d6 ed 3c
       0.08156322 -0.27516267 -0.25705767 0.02903289
0001a0 29 16 2c bd 1b 74 c0 bd 29 bb 2f bd 5a 3d bf bc
       -0.04201332 -0.09397145 -0.0429031 -0.023344684
0001b0 13 e7 15 3d 9e c4 71 3d 63 97 42 be 2c 63 22 bd
       0.036597323 0.0590254 -0.19003062 -0.03964536
0001c0 01 27 14 3c 25 60 1a be ff 54 95 3d dc 7d b4 bd
       0.009042502 -0.15075739 0.07291602 -0.08813068
0001d0 35 5e 78 3d d7 ce 1e bd a4 ed 09 be ae 75 92 bc
       0.060636718 -0.038771477 -0.13469559 -0.01787838
0001e0 a5 23 f4 bc cd 29 d8 bd ed 94 f2 bd 54 9f 29 be
       -0.029802153 -0.10554848 -0.118448116 -0.16564685
0001f0 ab e1 9e bb 3a 5b 3a 3d 8b e3 b4 bd ca 93 87 3b
       -0.004848679 0.045497157 -0.08832463 0.004137491
000200 e1 26 28 bc 70 56 4e bc 1c 79 f7 bd f2 c5 6f 3d
       -0.010263176 -0.0125938505 -0.12083647 0.058538385
000210 35 2a 83 bc 41 a6 ac 3c 20 0d d3 bd a7 af d3 3c
       -0.016011337 0.02107537 -0.10305238 0.025840594
000220 f6 02 f2 3c 47 e2 b7 3d fa b1 a2 3c 21 48 92 bc
       0.029542428 0.08978706 0.019860256 -0.01785666
000230 ee 02 78 bd 44 af 58 bd 75 d6 23 bc 52 57 1e bd
       -0.06054967 -0.05290152 -0.009999861 -0.038657494
000240 5c be a5 3d 0b 6d 02 3c 00 53 d8 3d 21 3a b4 bd
       0.08092949 0.007960568 0.10562706 -0.0880015
000250 fe f7 62 bd 5a f8 5c bd f8 ff 09 3e 88 8b 4d 3c
       -0.055412285 -0.053947784 0.1347655 0.012545474
000260 5d f7 36 3d 6e 8e dc 3d 59 82 a7 3c 67 a0 15 bd
       0.044669498 0.10769354 0.020447897 -0.036529925
000270 45 10 c4 3d f3 0a 90 bd 19 7d 34 3b 5b b0 10 3e
       0.09573416 -0.070333384 0.0027540384 0.14129774
000280 c1 cd 40 bd 55 d4 e3 3c 19 51 34 bd d9 4a b3 bd
       -0.047071222 0.027811209 -0.044022653 -0.087545104
000290 7d 0f b3 3e c7 30 2e bc 4a 1c 35 3e 57 be 8e 3d
       0.34972754 -0.010631747 0.17686573 0.06969898
0002a0 d8 cb 1e 3c f2 22 c5 3c 26 b4 1d bd 1e 24 a9 bd
       0.009692155 0.024064515 -0.03850188 -0.08258842
0002b0 95 54 0d 3e ad ef e4 bd 22 5b 00 bd f2 c6 ac bc
       0.13801797 -0.11178527 -0.03133691 -0.021090958
0002c0 11 f6 93 3d ee 99 c3 bc 5c 22 46 ba 2d 68 c4 3c
       0.07224668 -0.02387711 -0.00075582205 0.023975456
0002d0 3d 60 11 bc 27 14 00 bc 4a b6 0b be c8 fe 1b 3e
       -0.008873043 -0.007817305 -0.13643757 0.1523391
0002e0 30 77 54 bd 17 3b 8a 3c 54 de a4 bc d6 c3 25 3c
       -0.05187148 0.01687388 -0.020125546 0.010117492
0002f0 22 60 5c 3a 18 df 3f bd 79 0d c8 bd 38 3d 4e bd
       0.0008406659 -0.04684362 -0.09768195 -0.05035135
000300 c6 62 94 bd 18 31 8b bd 8f 38 b3 3c 6a f8 9a bd
       -0.07245402 -0.06796473 0.021877555 -0.075669125
000310 58 9c 12 3d 82 4b 25 3e 7b fd 17 3d d6 54 9a 3a
       0.035793632 0.16142085 0.037106972 0.0011774551
000320 c6 8a 3a be ad 6d 3b 3e 7f a0 7b 3c 16 db ce bc
       -0.18217 0.18303557 0.0153580895 -0.025250953
000330 79 47 5c 3d 76 73 86 3d 32 61 2e bd f0 76 97 bd
       0.0537791 0.06564991 -0.04257316 -0.073957324
000340 d7 99 08 3c 44 ab 04 3c 38 f2 73 bd 59 e5 99 3c
       0.0083374595 0.0080974735 -0.05955717 0.01878612
000350 63 ad c8 3c 3f 41 83 3c 8e 68 d1 3c 57 cb bf 3c
       0.02449674 0.016022323 0.02556255 0.02341239
000360 d1 bf a2 bd e3 e6 ce bd 5f 5a b0 bd f4 10 30 be
       -0.07946742 -0.10102632 -0.08610987 -0.17193967
000370 9c c1 91 bd 7c 8f c8 3c 45 89 a0 bc 8c 1e 84 3e
       -0.07117006 0.024482481 -0.019596705 0.25804555
000380 81 54 0f bd b6 90 ba 3b fe 4c 0b bd 02 3b 31 be
       -0.0349927 0.0056935204 -0.034008972 -0.17307666
000390 69 4c 90 bd 86 d9 9f bc 05 5b d2 bd 24 71 bb bd
       -0.07045824 -0.019512903 -0.10271267 -0.09152439
0003a0 64 26 99 bd 32 cf a5 bc 54 97 fd 3c ee b0 1c 3d
       -0.074780256 -0.0202404 0.030955948 0.03825467
0003b0 3d 13 00 bd 0f a4 62 bd f0 f1 bf bd ed 8d 49 3c
       -0.031268347 -0.05533224 -0.09372318 0.012301904
0003c0 a4 4d 8d bd 9b d4 2e bd c6 ec f1 3c c8 2e 19 3d
       -0.068995744 -0.042683225 0.029531848 0.03739813
0003d0 94 92 63 bd 6a be 25 bd 3e 18 b8 3c 33 fe af bd
       -0.05555971 -0.040464796 0.022472497 -0.085934065
0003e0 3f 04 ea bc 02 e0 29 bc fc 7d 82 3d c2 ea 2a be
       -0.028566478 -0.010368349 0.06371686 -0.16691115
0003f0 fe 56 f4 3c 4d f4 d3 bc 77 22 94 bd 3e 16 db 3d
       0.029826637 -0.025873328 -0.07233136 0.10697602

lin3.weight f4 [128, 256]
000000 22 15 00 be a0 8c c2 bc 1d 4d a2 3c 89 8b bf bd
       -0.12508062 -0.023748696 0.019812161 -0.09352786
000010 ca 22 82 bc 90 9c 2d 3c f4 fa 3e bd b4 5c 78 3d
       -0.01588573 0.010596409 -0.046626046 0.060635284
000020 72 ea 24 3d f0 2a 3b bd 62 e3 e2 3c 49 14 05 bd
       0.040262647 -0.045695245 0.027696315 -0.03249005
000030 b5 f4 f2 39 eb 9c 87 3c b4 aa 17 3d 87 5e 89 bc
       0.00046340158 0.016554317 0.03702803 -0.016768707
000040 41 5d 09 bd 53 ff c8 3c ef 99 be ba 48 84 fe bc
       -0.0335362 0.02453581 -0.0014541725 -0.031068936
000050 5f 84 6e bc 60 39 90 3b 41 9f a5 3c be f7 8d bd
       -0.014557927 0.004401371 0.02021754 -0.06932019
000060 47 88 85 3c 44 4e 5b bd 4a 87 40 3d d2 d7 de 3c
       0.016300334 -0.053541437 0.04700402 0.02720252
000070 54 19 ce 3c a6 3c 3a 3d 2e 4f 25 bd c6 14 cb 3b
       0.025158562 0.045467995 -0.040358715 0.0061975447
000080 70 0d 24 3c d3 04 4a bd b9 00 87 3c ba 1d 7c 3d
       0.010012969 -0.049321007 0.016479837 0.061551787
000090 62 b8 1d bd 5a 70 f0 bc 46 de 82 bb 52 0d 49 3d
       -0.03850592 -0.029350448 -0.003993782 0.04908497
0000a0 a6 c7 a0 bc ec f5 51 bc 8b f8 c4 3c 3c e2 60 3d
       -0.01962645 -0.01281498 0.024044296 0.054903254
0000b0 4f ff 18 3d fc d4 64 bd 6c 72 93 3c fe 4a 10 bd
       0.037352856 -0.05586718 0.017998897 -0.035227768
0000c0 c7 48 44 3c 38 d1 49 3d be 9c 2c bd 39 ec cb bc
       0.011980242 0.049271792 -0.04214167 -0.024892913
0000d0 be 6a 08 3d 53 be 35 be 8d a8 07 3d 3e dc e3 bd
       0.033304922 -0.17748384 0.033119727 -0.11125992
0000e0 ee 33 5a 3c 65 4a 7b bc 02 ec da 3b 69 df 39 3d
       0.013318045 -0.015337561 0.0066809664 0.045379076
0000f0 44 10 42 bd c8 7e ac 3c d4 81 e0 3a c3 a9 22 3c
       -0.047378793 0.021056548 0.0017128536 0.00992817
000100 80 24 9a bb 3d 13 49 3b 14 e8 ab bc cf e4 2a 3d
       -0.004704058 0.0030681633 -0.020984687 0.041722115
000110 c9 76 d6 3b f1 96 55 bd 32 32 2d bd 15 f9 4f 3d
       0.006544922 -0.052145902 -0.042284198 0.050774653
000120 20 c5 1d bd 65 b0 c8 bc 1f f1 dd 3b e1 64 52 bc
       -0.03851807 -0.024498174 0.0067731286 -0.012841434
000130 3a 27 46 bc f0 51 63 bc c4 c5 e7 ba 15 ed 83 bd
       -0.012094313 -0.013874516 -0.001768284 -0.06441704
000140 a6 ec 4d 3b f5 e6 5c 3d cc e1 42 bb 7d 6b 20 bc
       0.003142157 0.053931195 -0.0029736636 -0.009791252
000150 c0 4c fe ba 7e ef e6 bc fa 19 cf bc 06 f0 cb bb
       -0.0019401535 -0.02819037 -0.025280941 -0.0062236814
000160 8a cc d5 bc aa 14 74 3c fe 9c 79 bd 5d 9d 3d 3c
       -0.026098508 0.014897505 -0.060940735 0.011573163
000170 88 6f 27 bd cb 0d af bb a3 50 80 bc e6 47 0d bd
       -0.04087785 -0.0053422204 -0.01566345 -0.034492396
000180 b0 8f 5a 3d 06 3b de bc e5 e7 1b 3d b9 1f 22 bb
       0.053359687 -0.027127754 0.03806295 -0.0024738146
000190 a8 99 e4 3c bf 6b 47 bd 0f 8b 7a 3c de ac b6 bc
       0.0279053 -0.04868674 0.015291943 -0.022299226
0001a0 90 86 b6 3c 91 80 40 3d d6 93 52 bd 15 48 76 bd
       0.022280961 0.04699761 -0.05141052 -0.060127337
0001b0 79 06 88 bd 63 3e 1f bd 53 1b 9d bb 4e 52 27 bd
       -0.066418596 -0.038877856 -0.004794517 -0.040849976
0001c0 af 64 02 3d 8a 33 e5 bd c1 bf d6 bc 39 be e6 bc
       0.0318343 -0.11191471 -0.026214482 -0.028166877
0001d0 6e 3c 74 bd db 1b 2f 3d c7 85 62 bd c4 48 c9 3c
       -0.059627943 0.042751174 -0.05530336 0.02457083
0001e0 7c a9 1f 3d 67 58 24 bd 20 3c b4 3d 49 a2 8c 3c
       0.038979992 -0.04012337 0.088005304 0.017167227
0001f0 c6 41 dc 3c d0 9c 30 3d 40 13 0d 3d ab 7a 84 bc
       0.026886832 0.043118298 0.034442186 -0.016171774
000200 d6 b6 af bc 32 7e 41 bd 91 3a a0 3c 55 4b d0 3c
       -0.021449488 -0.04723949 0.019559177 0.025426546
000210 d4 a0 1b bd 43 16 09 bd 2a fc 34 3b fc 13 a1 bd
       -0.037995175 -0.033468496 0.0027616122 -0.0786514
000220 a6 8e 5f bd 29 4b 5b bd 58 ed f4 3c 06 5c 73 bd
       -0.0545794 -0.053538475 0.02989833 -0.059413932
000230 85 d0 47 bd 85 fe 63 bd e4 74 79 bc b4 67 13 bd
       -0.048782844 -0.05566265 -0.015225623 -0.03598757
000240 9f 1e 0e 3d d6 70 df ba 5b fb bd bc 52 21 b4 3c
       0.03469717 -0.0017047178 -0.023191145 0.021988545
000250 4e 9d 88 bb 02 f3 e8 bc 61 70 47 be fc 71 31 bd
       -0.004169143 -0.028436188 -0.19476463 -0.043321595
000260 6a cb 59 bd 90 70 a0 3c e7 d4 6e bd 90 3b a1 3c
       -0.053172506 0.019584924 -0.05830851 0.019681722
000270 60 b8 83 bd fc 6e 4b 3d 9c 48 1a bc c5 1e 5e bd
       -0.06431651 0.04966639 -0.0094167255 -0.054228563
000280 83 d3 0f 3d 1e 31 b8 bc f6 8b d0 3c a6 8a 4b bd
       0.035113823 -0.022484358 0.025457364 -0.049692772
000290 71 8c 20 bd 07 0d e9 3c 26 c1 06 3d a1 34 8a bb
       -0.039196435 0.028448595 0.032899044 -0.0042176996
0002a0 64 95 2e bd 5a c0 48 3d 82 e3 40 bd f1 5a 9e bd
       -0.04262294 0.049011566 -0.04709197 -0.077321894
0002b0 b2 c3 80 3c 17 15 d4 3c 77 3d b5 bc 8e 5a 1d 3d
       0.015718315 0.025888963 -0.022124035 0.038416438
0002c0 81 40 11 be 72 11 ea bc 78 80 98 3c 6b 4f 5b bd
       -0.14184763 -0.028572772 0.018615946 -0.053542536
0002d0 b2 74 34 3d 82 4d 95 3c 2a 10 7c 3c 76 0b 51 3c
       0.0440566 0.018225435 0.015384713 0.01275908
0002e0 b8 11 a5 be 40 09 e3 bc 42 15 0b bd 60 a6 86 bd
       -0.3224008 -0.027714372 -0.03395582 -0.06574702
0002f0 9e 5d 10 3b 3a dc 7c bd e2 8f 37 bd d0 0d 73 bd
       0.0022028456 -0.061733462 -0.04481495 -0.059339345
000300 b5 b4 7e bd 9c 74 36 3c dc 8a 62 bd 4e c3 0b 3d
       -0.062184054 0.0111362 -0.055308208 0.034121804
000310 97 20 39 bd 00 84 df 3c ac 75 83 bd 7c 08 3e 3d
       -0.045197096 0.027284622 -0.064189285 0.04639481
000320 85 0e dd bb 3f d6 86 bd ac 60 d8 bc c7 b2 8d 3c
       -0.0067461156 -0.06583833 -0.026413284 0.017297162
000330 40 19 d0 ba b3 af 76 3c ff 34 39 bd 45 43 90 bc
       -0.0015876666 0.015056538 -0.045216557 -0.017610202
000340 89 d5 1d bd a7 f8 cd 3b f8 58 25 3c 86 73 49 bc
       -0.03853372 0.006285745 0.010092013 -0.012295609
000350 2c 51 e9 bc ee 86 ca bb c3 ae 00 bd 39 b4 1b bc
       -0.028481089 -0.0061806357 -0.031416666 -0.009503418
000360 08 2c da 3b 26 b0 63 bc 8c f8 27 bd 93 bc 00 3c
       0.006658081 -0.0138969775 -0.041008517 0.00785746
000370 a0 4f 2e bb 61 8e d1 3c 76 87 72 bd 2a 51 b8 bd
       -0.0026597753 0.025580587 -0.059211217 -0.08999856
000380 40 68 fd 3c 98 a9 93 bd fc b2 57 bd 01 b3 86 bd
       0.0309335 -0.07210082 -0.052660927 -0.06577111
000390 08 03 0c 3c 16 ea 50 3d 42 9c 3d 3c 34 b2 42 3c
       0.008545645 0.05100449 0.011572899 0.011883307
0003a0 73 3a 82 bc 5f 62 a7 bc 96 7d 43 3d 02 97 7a 3d
       -0.015897011 -0.02043265 0.04772719 0.06117917
0003b0 a1 f5 be 3c 9f 49 d6 bc f3 1e 58 3d 51 bf c1 3c
       0.023310484 -0.026158152 0.05276389 0.023650797
0003c0 1b 90 6a bd fa e2 2b 3d 63 05 c1 bc 35 c1 66 bd
       -0.057266336 0.04196451 -0.023562139 -0.0563366
0003d0 68 32 0b bd 8e 5d 9d 3b ea fb 56 bd 04 80 ac bc
       -0.033983618 0.0048024124 -0.052486338 -0.021057136
0003e0 00 66 18 3d 96 34 0c 3d e1 1d 5d bd 74 a2 45 bd
       0.03720665 0.034229837 -0.053983573 -0.04825063
0003f0 cc 5d 97 bc 69 76 4e bc 35 fb 62 3c c1 e7 42 bd
       -0.018477343 -0.012601473 0.013853838 -0.0475843

lin3.bias f4 [128]
000000 b6 5a 9a bd 8d 4f 29 3e 22 74 af 3d aa 01 c7 bb
       -0.07536833 0.16534252 0.085670725 -0.0060731964
000010 c9 06 e7 bd 7f 49 cb 3e 98 27 52 3b b0 6c fa bd
       -0.11280591 0.3970451 0.0032067057 -0.12227762
000020 56 e1 b6 bd e8 d6 0a bd db 9f f5 bd d0 a8 1b bd
       -0.08929698 -0.033896357 -0.11993381 -0.03800279
000030 c5 d6 8f bd 0c 6d 96 bd 6a d9 89 3c 94 76 0d be
       -0.07023386 -0.07345018 0.016827304 -0.13814765
000040 6c 6b d5 bc bb 21 a8 bd 8e 2d 4e bd 42 11 e3 bd
       -0.0260522 -0.082095586 -0.050336413 -0.11087276
000050 e2 3c 35 bd d1 0c 2e 3e 7e 00 91 bd 2b a0 83 bd
       -0.044247515 0.16997077 -0.07080172 -0.06427034
000060 5f 21 0a be 7b 06 95 bd 90 87 e0 bc 52 17 09 be
       -0.13489293 -0.07276627 -0.027408391 -0.13387802
000070 9b 5f 06 be 4b 59 1e be 3b bf 29 be 8d c4 f2 3c
       -0.13122408 -0.1546375 -0.16576855 0.029634738
000080 15 5a d7 bd e8 76 97 bd 51 61 27 3c 66 29 ca bd
       -0.10515229 -0.073957264 0.010216073 -0.098711774
000090 8b d9 d0 3c e7 e5 2e be b7 41 55 3e b6 94 ab 3e
       0.025494358 -0.17079888 0.2082585 0.33511895
0000a0 bb cc 57 bd 37 4a 02 be b0 cd 18 3d af 2c 73 3e
       -0.05268548 -0.12723623 0.037305534 0.23747514
0000b0 11 1a 9b 3e 29 6f 10 be b5 ec a1 3d 41 17 b6 bc
       0.30293325 -0.14104904 0.079064764 -0.022227885
0000c0 12 be 5a bd 48 77 a8 bd 4b a4 2e bb c7 3f 0a be
       -0.05340392 -0.08225876 -0.002664822 -0.13500892
0000d0 68 0f 5e 3e 40 df d6 bd a4 90 20 3c 59 81 1b bd
       0.21685565 -0.104918 0.00980011 -0.037965152
0000e0 b6 6d fb bd 5f f4 9c bc 29 2b 0e be 05 8a fa bd
       -0.12276785 -0.019159494 -0.13883652 -0.122333564
0000f0 c2 e2 13 bd 46 cb f2 bd 71 1f 0d 3e 20 f4 9e bd
       -0.036104925 -0.118551776 0.13781525 -0.07761407
000100 31 b3 a3 bd f1 04 a3 3e 7c fe fe bd 12 c4 71 bc
       -0.079931624 0.31839707 -0.12450883 -0.014756219
000110 51 df 94 3e ab c1 17 3d 1e 61 b6 bd ae 42 0a bd
       0.29076627 0.03704993 -0.089052424 -0.033754997
000120 45 37 bb 3e f6 c6 fd bb 86 cb 89 3e 41 6e 8b be
       0.36565605 -0.0077446653 0.2691309 -0.27232555
000130 13 f8 cd bc 79 54 b3 bd dd d3 05 be 53 27 bc bd
       -0.025142705 -0.08756346 -0.130691 -0.09187188
000140 aa 7c c0 3d 05 32 2f 3e a1 52 8f 3e 7a cd 87 bd
       0.09398778 0.17108925 0.27992728 -0.066309884
000150 bc c3 83 bd de 9e 12 bd ff 53 8b 3d 19 03 2d bd
       -0.06433818 -0.03579604 0.0680313 -0.042239282
000160 f8 1a 2d be b4 e2 55 bd 2d 4b 3c 3e ae b3 bf 3e
       -0.16904819 -0.052218154 0.18388052 0.37441772
000170 1a bc 39 bd 1e ef d1 bd 06 16 e2 bd 65 db ae be
       -0.045345403 -0.10250686 -0.11039357 -0.3415176
000180 99 48 14 bb bc c1 eb 3d 5f d8 a9 bc d6 c7 d1 bd
       -0.002262628 0.11511561 -0.020733057 -0.10243194
000190 17 82 88 bd 4c c3 27 3e fe 85 db bc 9c 4a 7c bd
       -0.06665438 0.16383094 -0.02679729 -0.06159459
0001a0 f5 26 83 bd 5b b2 1b 3c 54 c2 13 3e 29 fd dd bc
       -0.06403915 0.0095029725 0.14429599 -0.027098255
0001b0 d5 6a 4b bd 8b 20 15 3d 1e a7 f1 bc 57 b9 a1 bd
       -0.04966243 0.03640799 -0.029498633 -0.07896679
0001c0 25 9a 26 bd 89 14 2c 3e 54 c8 4f bd 93 e4 cd bd
       -0.040674347 0.16804709 -0.050728157 -0.10053363
0001d0 ea de 00 be 51 e8 f8 bd 42 cd fc bd 82 e7 0c 3d
       -0.12585035 -0.12153686 -0.12343837 0.03440047
0001e0 08 46 af 3e c6 7e 76 3d 3a 11 6d bd 9f 1e 11 3d
       0.34233117 0.060179494 -0.057877757 0.035429593
0001f0 d1 2c b3 bd 9f 53 2f bd 4d bd e2 bd 1e be d0 bd
       -0.087487824 -0.042804357 -0.110712625 -0.10192512

lin4.weight f4 [64, 128]
000000 49 64 ce bd 24 44 9b 3d 9e 17 10 bc f6 1e ed 3b
       -0.100777216 0.07581356 -0.008794693 0.007236357
000010 33 14 52 3d 55 99 1f 3d 48 f0 5f bd 3e e3 92 bc
       0.051288795 0.03896459 -0.05467251 -0.017930623
000020 c9 a7 0c 3d c8 60 8e 3d 71 7a a6 bd 76 ef 3b bc
       0.0343397 0.06952053 -0.081288226 -0.011470666
000030 ba b8 94 3d ae 44 0d 3d 16 7e f2 3c 1c f1 82 bc
       0.07261796 0.034489326 0.029601138 -0.01598411
000040 be 6c 12 3d 6c ce 79 3b cc a1 e8 3c b5 92 83 38
       0.035748236 0.0038117422 0.028397463 6.273893e-05
000050 09 fd 9a bd 5f ce 96 bd dc 2a 3d 3c 88 af de bb
       -0.07567794 -0.07363581 0.011545863 -0.0067958273
000060 43 60 cf bc b2 84 28 3d 4e 5b 9a 3d e0 d8 2a 3d
       -0.025314456 0.041142173 0.07536946 0.041710734
000070 4c 14 87 3d 42 e7 9a 3d eb fb 2b bc 52 10 1e 3d
       0.06595668 0.0756364 -0.010497074 0.038589783
000080 71 cb e5 3d 53 c6 e6 3c fa 79 5c 3d e7 d8 9e 3d
       0.11220444 0.02817074 0.053827263 0.077562146
000090 db 23 f6 3c c9 69 57 bd c1 90 a9 bb 0e 3b 66 bd
       0.030046394 -0.05259112 -0.0051747267 -0.056208663
0000a0 00 3a 99 3d 6d 39 05 3d 3d af ae 3d 8b 60 18 bc
       0.07481766 0.03252547 0.08529518 -0.009300361
0000b0 cd 11 30 bd 5b 46 3d bd 21 19 14 bc c4 8a 73 3d
       -0.042985726 -0.046209674 -0.009039194 0.05945851
0000c0 d2 ad 85 bd 80 cf 05 3d 22 d6 ac bb 59 22 db bd
       -0.06527294 0.03266859 -0.00527455 -0.10699911
0000d0 2f 4e 08 3e 72 ea 82 bd 35 24 cd bc 30 4b 2d bd
       0.13311075 -0.06392373 -0.025041679 -0.042308033
0000e0 14 a5 ea 3c 22 ce 9b 3d 7c 7e c3 3c b7 35 e8 3c
       0.028643169 0.07607676 0.023864023 0.028345926
0000f0 93 a4 26 3b 19 c1 41 3c d6 07 3b 3d 15 d2 e8 3a
       0.0025427684 0.011825823 0.04566177 0.0017762805
000100 a7 14 70 bd 6d e2 92 bc 44 cf b0 bd 02 8c 13 bc
       -0.058613446 -0.017930234 -0.08633283 -0.009005548
000110 8c 17 bc 3d ad b8 ea 3b 00 42 c7 bc 20 c3 b1 3d
       0.09184179 0.0071631283 -0.024323463 0.08679795
000120 a9 45 ed 3b 50 58 9c bd 9b 34 03 3c 7a a8 f1 3d
       0.00724097 -0.07634032 0.008008148 0.117997125
000130 e9 43 44 bd b8 f7 0e bd 35 c9 6c bd 75 c9 53 bd
       -0.047916327 -0.03490421 -0.057809073 -0.051705796
000140 f2 27 b4 3d a3 76 4b bc 18 04 d6 bd d2 13 60 3d
       0.087966815 -0.012418422 -0.104499996 0.054706402
000150 76 ef a2 3b f4 37 d7 bb 69 32 52 3d b0 51 4c 3c
       0.0049723936 -0.0065679494 0.051317606 0.012470648
000160 5d 83 e8 bc cd 0a 11 3c 72 ce 46 bc 80 fd 65 3d
       -0.028382951 0.008852673 -0.012134181 0.05614996
000170 ca 63 c1 3c 55 dd 98 3d 3c 7e 86 3d e0 b5 7c 3d
       0.023607153 0.07464091 0.06567046 0.061696887
000180 f4 0c 1e be c4 c4 e7 b8 7f 29 8e bd 44 22 2d 3d
       -0.15434629 -0.00011051589 -0.069415085 0.042269006
000190 27 56 87 3d 81 df d1 3c 77 9d 64 bd df f1 52 3d
       0.06608229 0.02561927 -0.055814233 0.051500197
0001a0 c6 5d 94 3c ac eb 80 3d 54 ee 4e 3d 6c 1a 24 3c
       0.01811112 0.06294951 0.050520256 0.010016065
0001b0 1e 57 82 3d 27 de b9 3c 72 81 d8 3b 3b 3c a5 bb
       0.063642725 0.022688938 0.006607228 -0.0050425804
0001c0 62 c7 4a 3d f2 f2 eb 3d 42 dd a3 3d 8a 2e 6d 3c
       0.049506553 0.115209475 0.08001186 0.014476428
0001d0 63 69 51 3c c3 00 0e 3d 84 66 4b 3d fd 95 f1 3c
       0.012781474 0.034668695 0.049658313 0.029490465
0001e0 91 43 29 bd 86 4e cf 3c 08 7b 97 3d aa 57 d1 bb
       -0.041324202 0.025305998 0.07396513 -0.006388624
0001f0 0e af 85 3d b9 24 50 bd 34 cc 54 bd 65 d6 90 3d
       0.0652753 -0.05081627 -0.051952556 0.070721425
000200 1d bc 7a 3d da 59 3b bd 84 87 97 bc e8 66 1a 3d
       0.061214555 -0.045739986 -0.018497236 0.037695795
000210 74 bc a3 bc 67 ff 0c 3e 6c 34 bc bc 82 8b 22 3a
       -0.019987322 0.13769303 -0.022974215 0.0006200598
000220 99 24 8b 3d 92 e3 bc bd 11 82 7a bb 7e 40 9d bc
       0.0679409 -0.09223093 -0.0038224498 -0.019195791
000230 b8 bb 6a bc 3c c6 07 bc e0 16 05 bd 35 b4 59 3c
       -0.014326982 -0.008287009 -0.03249252 0.013287594
000240 62 cb de bc 06 e4 26 3d 4d a9 04 bc 86 a4 a5 bd
       -0.02719659 0.040744804 -0.008097005 -0.08088021
000250 12 54 34 3d ce 69 bf 3d af 2c 33 bc 47 26 58 3d
       0.04402549 0.093463525 -0.010935946 0.05277088
000260 44 ac de 3b 1d f5 c8 3d 59 01 44 3d 70 ac f9 3c
       0.006795438 0.09812377 0.047852848 0.030477732
000270 19 a6 d6 bc b0 78 31 3d d2 55 b0 bb 2d 03 01 3e
       -0.026202248 0.043327987 -0.0053813243 0.12598868
000280 b8 ee f4 bc 9c 89 70 3b b2 dd 2b be e0 f8 bb bc
       -0.029898986 0.0036703115 -0.16783789 -0.022945821
000290 40 ca 43 3d 66 22 83 3d f1 64 3f 3e 82 c9 94 bd
       0.047800303 0.06403045 0.1869085 -0.07264997
0002a0 d7 97 5f 3d a5 99 72 bc 6c 3c bb bc 4f bf 04 be
       0.054588165 -0.0148071395 -0.02285596 -0.12963603
0002b0 15 be 4a be 6e 61 54 3d 05 ac fe bd a2 7e ab bb
       -0.19799073 0.05185073 -0.12435154 -0.0052336017
0002c0 a8 af dd bc 58 5d b1 3c f7 bf 04 bd 0f 39 91 bc
       -0.027061298 0.021650955 -0.032409634 -0.017727403
0002d0 98 f8 0e be be a3 8a bc 28 e8 c8 3d f2 5e 54 bc
       -0.13962018 -0.016923781 0.09809905 -0.01296209
0002e0 7a 6e 8c bd 2c bd 74 bd f3 91 74 bd b5 0d 9c bd
       -0.06857009 -0.05975072 -0.0597095 -0.07619802
0002f0 25 b0 ee bb 0a 27 ca bd 4d 2c a6 3c 04 f0 04 be
       -0.0072841817 -0.09870727 0.020284796 -0.12982184
000300 e9 2e 01 3d 61 74 64 3d 7a f0 9f 3d 6b 11 7d 3c
       0.031538878 0.05577505 0.07809539 0.015446047
000310 b6 db ab 3d 7a 90 26 3d 15 5e ab 3d 6c 67 e6 bd
       0.08391516 0.040665127 0.08367554 -0.11250195
000320 a0 fd cb bd 2f aa b1 3c 88 d6 49 bd 2a 30 1b be
       -0.099604845 0.021687595 -0.04927686 -0.15155092
000330 ce 13 93 bc 9d 66 d0 3b c0 fc c2 3d 40 18 7d bd
       -0.01795378 0.0063598887 0.095208645 -0.061790705
000340 2a f0 0d be ca 5c a4 bc 4e 63 57 3d a0 cb b9 bb
       -0.13861147 -0.020063777 0.05258494 -0.005670026
000350 a3 b8 6c bd 6a 3c 7e ba 71 96 47 bd 5c 0b e4 3c
       -0.05779327 -0.00096983335 -0.048727456 0.027837448
000360 39 d4 5a 3d 5e b5 66 3d 79 0c 26 3b fa 27 da 3d
       0.053425048 0.05632531 0.0025337024 0.10652156
000370 30 2e 6e bc ed b4 ff bc aa ff 8f 3d 06 e6 91 bd
       -0.014537379 -0.031214202 0.07031186 -0.071239516
000380 4f d9 18 bd 6d 18 c7 bd 2c e4 da bc f8 34 5e bd
       -0.037316617 -0.09721456 -0.026720129 -0.054249734
000390 c8 e4 99 3d 0f 24 d6 3d a7 01 15 3d 5f 7d 30 bd
       0.0751434 0.104560964 0.03637853 -0.043088313
0003a0 7c c1 82 bd 0a 7e 35 bc 2f 05 15 bd 84 3f aa 3d
       -0.063845605 -0.011077413 -0.036381897 0.08312896
0003b0 48 1d 47 3c 4e f7 26 bd 00 b1 49 bd 29 16 37 3c
       0.012152977 -0.040763192 -0.049241066 0.011174717
0003c0 f8 62 e7 bc ef 94 2f be 61 fd 97 bc b7 2d 58 3d
       -0.028245434 -0.17146657 -0.018553438 0.052777972
0003d0 b0 d2 02 bd 26 df 76 bd bd 64 8a 3d 90 66 1c bd
       -0.03193921 -0.060271405 0.067574956 -0.03818375
0003e0 b9 a7 c5 3d 34 57 94 3d ec 55 27 bc 88 bf 4d be
       0.09651131 0.07243195 -0.010213356 -0.20092595
0003f0 20 d8 be bc 42 56 8d bd f3 61 4d bd 23 a0 3b be
       -0.023296416 -0.06901218 -0.05014224 -0.18322806

lin4.bias f4 [64]
000000 15 6d c2 3e 28 fa e7 bd a9 42 9c 3d 54 0c 2a 3c
       0.37973848 -0.113270104 0.07629902 0.010378916
000010 42 67 61 3d 2a eb c9 3c 5a c9 e4 3a 4e b8 34 be
       0.055030115 0.024648268 0.0017455027 -0.17648432
000020 b4 d6 cc bc c4 9a 4a be e3 37 7f 3d fe 19 12 be
       -0.025004722 -0.19785601 0.062309157 -0.14267728
000030 e8 ea c9 be 94 44 3c 3e 8a 09 0a 3d f6 b4 4e bb
       -0.39437032 0.18385535 0.033700503 -0.0031540967
000040 36 f0 aa bc 9e dc 4a be 5f 19 71 3c 8b a1 22 3d
       -0.020866495 -0.19810721 0.014715522 0.03970484
000050 87 a6 0d 3e 90 1b a3 3d 69 48 7a be 69 a9 8c be
       0.13833056 0.079642415 -0.24441685 -0.27473
000060 71 27 55 be 15 fb f3 3d 52 0f 0b bd 09 3c 85 3e
       -0.20815827 0.119131245 -0.033950157 0.26022366
000070 9b 72 a7 be dc 33 d1 bc df 2b 93 3e 05 fb 37 bd
       -0.32704625 -0.025537424 0.28744408 -0.044917125
000080 dc 3c a2 be 3d b2 66 be 48 eb 98 bd 51 b0 92 3e
       -0.31687057 -0.2252893 -0.07466751 0.28650144
000090 80 2a 59 bc 60 d1 37 3e 74 f8 15 3d d8 6f 8d 3e
       -0.013254762 0.17950964 0.036613896 0.27624393
0000a0 a8 8f 82 bd 94 ac a4 be 77 c2 2d 3d 13 81 9c be
       -0.063750565 -0.32162917 0.042421784 -0.30567226
0000b0 32 4f f1 3d ce 14 a3 3d df 91 e8 3d 1f cd 95 bc
       0.117826834 0.079629526 0.11355948 -0.018286286
0000c0 26 4b 0f 3e 9a 14 9a 3e fe 7f 80 3c 1f e8 97 bd
       0.1399351 0.30093843 0.015686031 -0.074173205
0000d0 40 81 c4 bd c2 b6 36 3d 04 84 a6 3e 42 81 12 3d
       -0.09594965 0.044607885 0.32522595 0.0357678
0000e0 ac a2 a9 bd a1 09 5e bc 89 0a a8 3d b8 dc 45 3c
       -0.0828298 -0.0135521 0.082051344 0.012076549
0000f0 b3 f9 7b 3e 0a 82 06 be 76 47 36 bc fc c7 7f bc
       0.24606971 -0.13135543 -0.011125436 -0.015611645
