src/virtuose_teleoperation/network_controller/trained_policy_MLP/Grasp_proper_dataset_AHFF_epoch_40.pth (torch, 456199 bytes, 10 tensors)

lin1.weight f4 [256, 20]
00000000: ab81 a8bd 6a9f 28bd ed44 0d3d 5ba6 ed3d
00000010: df5f 4ebd db5a c9bd af40 133c 927a 44be
00000020: ae7c a13d fb7b 37bc ae2f efbd cf69 fcbb
00000030: 1534 8ebc fd44 61be 2861 153e ad5a b33d
00000040: 964f d1bb 5b5b 1f3e 8b48 6abe 5b80 3b3e
00000050: 24f4 f9bb 5f75 b33a 23ab c63d fba4 9a3d
00000060: 717c 3c3e 2030 1fbd c8b5 c3bd e3c3 38be
00000070: 6555 40be a964 0fbe d467 893d f3d4 5a3e
00000080: cd21 95bd ac58 b8bd 7d1b f53d 57b5 17be
00000090: c199 b53d 0c7f 17be 50b8 333e b0ba 0dbe
000000a0: 2785 6a3d 5e55 34be f5b8 62be 8489 2a3d
000000b0: c27d e2bd 04f4 443e db2e a83d db66 3f3b
000000c0: feab 50be 8bf8 023e 0c5c 42be 754b 153e
000000d0: a1c8 923d 0980 3b3e 14cb 54bd 6ccb 8a3d
000000e0: 960a 52be 2d95 a03d 58c2 503e 2880 6b3d
000000f0: 8b7d 0140 213b f23d 4b09 9abd b9c1 8bbf
00000100: 0719 f93f 2cbc 6b3e d22d d73e 0c72 bcbf
00000110: ef13 0e3f 971e 05bb 77bb 0b3c b0d5 be3e
00000120: 39d2 3ebf f2ad e13f 12ad 78bf 647e 983e
00000130: 7128 c0bd 5002 663e 99a2 b63c 2972 10bd
00000140: 358d da3e 10ef 623d cf8b a33d fb77 4e3e
00000150: 682c 4a3f 2403 5e3e 9188 02be 0deb 08be
00000160: 39e6 d4bd a253 85bd 626b e8b8 eaa6 e3be
00000170: d9bf 683e 6706 6dbd 115c a9be 1ef0 fcbd
00000180: 4f3a 41be 306b 0ebe b8bc 34bd cfc0 48bd
00000190: 965d f13e 5b21 4a3d 20c4 f53c 299e 51be
000001a0: d1d8 723e e7fa cabd 8119 e8bd 1628 b23d
000001b0: e361 873e e8b2 723e a154 33be 0553 ddbc
000001c0: f86a 833d f9dc ad3e 4c2c 6c3d 8ae6 3d3e
000001d0: a6cc f93d 43a1 8bbd 9d2d 44be 1411 363c
000001e0: eb57 3a3d f92f 60bd 1bf0 633d 3c50 743e
000001f0: aca1 b03e a873 3cbe 56d2 9fbe 6411 a53e
00000200: 82d8 123d 5dfa 903d ad02 01be f66e 743e
00000210: 5c92 3c3e 81eb 82be 7781 42be 0369 3fbe
00000220: a3c4 c3bd 01d1 13be 6a66 9f3d f51f 30bd
00000230: 6ebc 89bc 8248 87bd 09ed 79be 5b3a 59bd
00000240: 39ff 013e 0a70 593e c4dd 5cbe 9461 3ebd
00000250: a3ec bbbc e1fa 34be a4f3 3fbe 6a87 5d3e
00000260: 977d 073d 3d48 95bd a7e8 1a3c 5901 bfbd
00000270: e7f4 72bd 7244 1d3e a1e9 513e 6035 15be
00000280: ec3b adbd eb44 1dbe ebed 0bbe 855a 9fbd
00000290: 5ab6 4dbd cd2a a33d 3bbc acbd c826 553e
000002a0: 0a8f 2e3d df5d 2c3e ee30 593e 2e0d acbd
000002b0: ef84 e93d a9bd 5cbe ba3b 4e3e 16f3 81bd
000002c0: a387 8f3d 7c1d 7cbd 1058 87bc 3370 473d
000002d0: 84df eaba 6767 fb3d fb74 2c3e 3675 14be
000002e0: 8f1c f3bd 84a8 973c 1c09 6dbd 6009 213e
000002f0: f1cb 0dbe 46d6 10be e836 1e3d 9649 d9bd
00000300: 17a7 ea3d 7695 293e 5164 09be ea2f 2c3b
00000310: 652e 233e 5f85 dc3d a06d a4bc ef98 0e3b
00000320: 1fb0 363f d9ea 0dbe 20c3 c4be c4c7 463f
00000330: 3b57 333f b30c ca3d f30a dfbd 389c 6e3f
00000340: 7eda bd3d b6b8 5bbe 3b7a f9be dc31 803e
00000350: 9e1e 61be 1b58 763f 3394 c8be 4a67 51bd
00000360: 98e1 033e b90c 803d e215 35be 2baa 13be
00000370: 66cb ee3e e9ae 0c3e 5b27 0c3e 5ece 783e
00000380: 2bc0 f93d f66d d33d 6b78 78be 2c71 a7bd
00000390: 2228 69bd 5175 df3d becf d4bb b551 1dbd
000003a0: 6f7c 65be a2ff 533f caad 773e a864 153e
000003b0: 2b8f a6bd 29e3 1abe 4215 cb3d 81a7 32bc
000003c0: 155c babd 9be4 883d 498c f03d a173 b9bb
000003d0: 16a8 763c 6fbe 4ebe 41d6 2cbe 7c42 19bd
000003e0: b526 9fbd 4e59 7a3d b1fa 55be 4e56 febd
000003f0: e5cd 823d 4a5d cebb 55de 983d c616 403e
-0.08227857 -0.041167654 0.03448956 0.116039954 -0.0503844 -0.098317824 0.00898759 -0.19187382
0.07885109 -0.011198993 -0.11679016 -0.007703043 -0.017358819 -0.21998973 0.14587843 0.087575294
-0.006387661 0.15562193 -0.22879235 0.18310682 -0.007627981 0.0013691596 0.097006105 0.07550999
0.18406846 -0.038864255 -0.095561564 -0.18043475 -0.18782575 -0.14003243 0.06709257 0.21370296
-0.072818376 -0.09001288 0.119681336 -0.1481527 0.08867217 -0.14794558 0.17550778 -0.13840747
0.05725589 -0.1761069 -0.22140868 0.04163505 -0.11059143 0.1923371 0.08212062 0.0029205594
-0.2037811 0.12790124 -0.18980426 0.14579566 0.07167173 0.1831056 -0.051951483 0.06777081
-0.2051185 0.07840953 0.20386636 0.057495266 2.0232875 0.11827684 -0.07521304 -1.0918494
1.9460763 0.23021 0.42027146 -1.4722304 0.55499166 -0.0020312422 0.008528582 0.37272406
-0.74539524 1.7631209 -0.97139084 0.29783928 -0.093827136 0.2246182 0.02229433 -0.03526512
0.42685857 0.05540377 0.07985651 0.20162956 0.7897401 0.21680886 -0.12747408 -0.13370915
-0.10395474 -0.06510092 -0.00011082624 -0.44463283 0.22729434 -0.057867434 -0.33078054 -0.12350486
-0.18869899 -0.13908076 -0.04412529 -0.049012 0.47141713 0.049348217 0.030000746 -0.2047049
0.23715521 -0.09911137 -0.113329895 0.08699052 0.2644187 0.2370106 -0.17512752 -0.027017126
0.06416887 0.3395765 0.057659432 0.18544975 0.12197237 -0.068178676 -0.19158025 0.01111247
0.045494 -0.05473325 0.055648904 0.23858732 0.34498346 -0.18403494 -0.3121516 0.3223983
0.03585101 0.07079003 -0.12598677 0.23870453 0.18415207 -0.255703 -0.189947 -0.18692403
-0.0955899 -0.14435197 0.07783206 -0.042999227 -0.016813483 -0.06605627 -0.24406828 -0.053034168
0.12695016 0.21234146 -0.21568972 -0.046479777 -0.022939986 -0.17673828 -0.18745285 0.21633688
0.033078756 -0.07289169 0.009454883 -0.09326429 -0.05931559 0.15358141 0.20499279 -0.14571142
-0.08458695 -0.15358321 -0.13664977 -0.07780937 -0.050222732 0.07967148 -0.084343396 0.20815575
0.04261688 0.16832684 0.21210071 -0.08400951 0.11402308 -0.21556725 0.20139971 -0.06345193
0.070082925 -0.061551556 -0.016521484 0.048690986 -0.0017919396 0.12275582 0.168415 -0.14497837
-0.118706815 0.018512972 -0.057870016 0.15726233 -0.13847329 -0.14144239 0.03862658 -0.106097385
0.11457651 0.16560921 -0.13417174 0.0026273676 0.15935667 0.10767626 -0.020071805 0.0021758636
0.7136249 -0.13859119 -0.3843012 0.7764857 0.7005498 0.098657034 -0.1089076 0.9320712
0.0927019 -0.2145718 -0.48726067 0.2503804 -0.21984336 0.9622819 -0.39175567 -0.051123895
0.12879026 0.06252427 -0.17684129 -0.14420383 0.46639556 0.13738598 0.13686888 0.24297473
0.12194856 0.10323708 -0.24264686 -0.08175883 -0.05692304 0.10911048 -0.0064944914 -0.038408
-0.22410749 0.8281194 0.24187389 0.14589179 -0.08132776 -0.15125717 0.09916164 -0.010904194
-0.090995945 0.06684228 0.11745507 -0.005659536 0.015054723 -0.20189832 -0.16878606 -0.03741692
-0.07771055 0.061120324 -0.20896412 -0.12418805 0.063869275 -0.006297742 0.074642815 0.18758687

lin1.bias f4 [256]
00000000: 8ad2 4dbe b804 0d3e 6b0a 1c3e 2196 fdbe
00000010: 1400 30be 7a7d 1dbe 5d0b ef3d 24f9 ecbb
00000020: a3d9 493e b13d 54bc 8874 c9bd 36e2 37bd
00000030: 52d8 403d 5095 2a3e 5b50 cbbd 8a0a 543d
00000040: 7231 053d 72cb 793e c437 16bd 6559 73be
00000050: 6584 af3d 5a67 0a3e 6d8b 303e 578f dc3d
00000060: 375f 41be f8ec eb3d c52f 163e 5cac 2a3e
00000070: aea9 eebd 7bbb 92bd d54c 5a3e 9a54 46bd
00000080: 342e 1c3e 07dd b3bd 6590 13bd ac04 573e
00000090: 0c3b 2ebe 7cf9 3bbe 51c9 043e 7629 3ebd
000000a0: 1f2c 8cbe e7ba c33d 28b5 863d ce55 93bd
000000b0: 2a35 323d d7a4 543e a19f f9bd 417f 17bc
000000c0: 3b87 8abe 4621 aebc cd42 a33d e562 d13d
000000d0: 3aa3 00bf 4649 dbbd 1291 aabc 9e07 383e
000000e0: 1959 fdbd 45b8 40be 13f6 7ebe 1374 44bc
000000f0: b3da f3bd 1e0d 5f3e 4521 aebd 1614 9ebd
00000100: 54e7 203e 862d ddbd aa52 aabd aa1d 55be
00000110: 2945 9ebd 5783 023e 25f1 583d 5e0b b0bd
00000120: 07d6 fabd 5e20 893c fd73 38be c5db e63c
00000130: 4511 9cbd be85 a13d b059 16be fb54 443e
00000140: 3745 8d3b 00fd 443e cba9 b4be f43c 0e3e
00000150: 8141 f8bd 3029 663e c175 2e3e 6a68 3cbd
00000160: 59e0 32be a896 b1bd 46d1 4f3e ff2a f83d
00000170: f8ee 3bbe 8712 db3d 266f 9abd db3f b93d
00000180: 262e 19bd 6dd6 4f3d 1746 643d 715e 583e
00000190: 966f 56be 9535 593e c2dc 30be 2944 a93c
000001a0: aa19 13be e9d3 a83c 7992 33be 0455 15bd
000001b0: d1ea 063e 0a1c 2bbd a312 08bc 2977 3ebd
000001c0: 5a22 4f3e 1e3c 45bc f662 18bf 72f4 473e
000001d0: 73e7 0a3e a50c 263e 42af 5fbe eff6 a83d
000001e0: 5c4f 943b 177d 583e 6c11 a0bc 8dc9 b63d
000001f0: 28c2 3c3c 28c3 f83c f68a 2a3e 5b2c bf3d
00000200: 4642 693e 7823 363e f78c 523e dff5 1ebd
00000210: be32 1e3e c1e8 d9bd 3980 06bc f4d4 503e
00000220: f339 24be 1afa d73d e659 8fbb 4a76 153f
00000230: d9e9 ee3e b602 b13d 25a0 02be e185 33be
00000240: 773d ca3d f92b 86bd d7ce 20be 7e8c 423e
00000250: 55f9 b3bd 8891 b3bd 0397 f4bc 290b 503e
00000260: fad1 08be ef28 4c3e 7394 90be 6578 4e3e
00000270: 024a e33d 24d7 5e3e ede7 3dbe a63f 16be
00000280: d180 593d 8f2d 5fbd 82ca c33a cc68 2e3e
00000290: 24bf 193e a170 fabd 2fb5 ed3d 72a2 b3be
000002a0: 3398 64be abea 0dbe 7e33 98be c6ee 11be
000002b0: 660a b7bd cc98 38be 6fb4 103e 78e5 9abd
000002c0: bc5a 0fbc 92c1 e8bd 8bd3 b43c f3b7 973d
000002d0: d47b 463e 8e62 d6bd 7386 963f 1535 2d3e
000002e0: db52 dcbc 6ffb 1abe ffe4 28bc 1b80 c93c
000002f0: 1100 71bf e7ea 2bbe c428 043e 23e5 853d
00000300: 88d0 a43d e855 aebd 304d 0e3e e2c0 91bd
00000310: 6aea 52be 2062 36be b83c 61be 803a f33d
00000320: 6e37 2c3e a698 2cbd 3f91 67bd 5637 b4be
00000330: 8db9 4a3e 27c8 d7bd e699 213e 567c 52be
00000340: b20d e33d e664 c0be a469 203e f699 f9bd
00000350: d891 b8bd c1f3 66be dac2 1ebc 90a7 2bbe
00000360: 4144 5d3e f72d 183e f675 183d 6956 64be
00000370: 306e d3bd 9742 13bd 70ac 1bbe 08fd 33be
00000380: 8cfc 7bbe 8743 57be 8dd8 23be 3e94 64be
00000390: 588e 26be 1285 333d a884 43be c43f 94bc
000003a0: e7bd 7dbe 2a1a 193d c5fc 96bd 5fda 253e
000003b0: 4936 ad3e 16ef 8ebc 8511 0bbe 2ae4 603a
000003c0: 399a 15be 6ac0 d53d 2078 423c 8a50 87bf
000003d0: c70f 133e 913b 413e 9da6 ce3d ef41 babd
000003e0: d1cb 8ebd 3ce8 97bd 4fb6 543d 575f 0f3e
000003f0: 5c88 5abe b355 6cbe b44d 94be 3e6b 5bbe
-0.20099846 0.13771331 0.15238349 -0.49528602 -0.1718753 -0.15379897 0.11672089 -0.0072318483
0.19711928 -0.0129541615 -0.0983668 -0.044893466 0.0470813 0.1665852 -0.09927436 0.051767863
0.032517858 0.24394014 -0.036674276 -0.2376457 0.08570174 0.13515988 0.17240687 0.107695274
-0.18883978 0.115198076 0.1466666 0.16667312 -0.116534576 -0.07164665 0.21318372 -0.048420526
0.15252 -0.08782392 -0.036026377 0.20997876 -0.17014712 -0.1835689 0.12967421 -0.04642626
-0.27377412 0.09557133 0.065775216 -0.071941 0.043507732 0.20766006 -0.1218865 -0.009246648
-0.27056298 -0.0212561 0.079717256 0.10223941 -0.50249064 -0.10707335 -0.020821128 0.17971656
-0.1237051 -0.18820293 -0.24898557 -0.011990565 -0.11906948 0.21782348 -0.085024394 -0.07718675
0.15713245 -0.107996985 -0.08316548 -0.20812097 -0.07728035 0.12745415 0.05296435 -0.08595918
-0.12247854 0.016739067 -0.18012996 0.028180966 -0.076204814 0.078868374 -0.1468265 0.19173042
0.0043112296 0.19237137 -0.35285792 0.1389044 -0.12121869 0.2247665 0.17037107 -0.045998015
-0.17468394 -0.086713135 0.20294675 0.12117576 -0.18352878 0.10696893 -0.07540731 0.090453826
-0.037397526 0.0507416 0.055730905 0.21129777 -0.20941004 0.21211846 -0.17271712 0.020662384
-0.14365259 0.02060886 -0.17536344 -0.03645803 0.13175513 -0.041774787 -0.008305225 -0.04650036
0.20227948 -0.012038259 -0.59526 0.19526842 0.13564853 0.16215761 -0.218442 0.08250224
0.004526062 0.21141468 -0.019539557 0.089251615 0.0115209 0.030366495 0.16654572 0.09334632
0.22779188 0.17786968 0.20561586 -0.0388087 0.15449044 -0.106400974 -0.008209282 0.20393735
-0.16037731 0.1054575 -0.0043747304 0.5838362 0.46662787 0.08643095 -0.12756403 -0.1753154
0.09875005 -0.06551356 -0.15703903 0.18998906 -0.08787791 -0.08767992 -0.029857164 0.20316757
-0.1336135 0.1993749 -0.28238258 0.20163114 0.110981 0.21761757 -0.18545504 -0.14672717
0.053101365 -0.054486807 0.0014937671 0.17032164 0.1501432 -0.122285135 0.11606824 -0.35084873
-0.22323684 -0.1385905 -0.29726785 -0.14251241 -0.0893753 -0.18027037 0.1413133 -0.07563299
-0.00874966 -0.113650456 0.022073528 0.074081324 0.19383174 -0.104680166 1.1759781 0.1691478
-0.026894977 -0.15134977 -0.010308503 0.024597218 -0.94140726 -0.16788827 0.12906176 0.06537845
0.08047587 -0.08512479 0.13896632 -0.071168676 -0.20597234 -0.17810869 -0.21995819 0.11876392
0.1681802 -0.042137764 -0.056535 -0.35198468 0.19797345 -0.10536223 0.15781364 -0.20555243
0.110865965 -0.3757698 0.15665299 -0.12187569 -0.090121925 -0.22553922 -0.009690011 -0.16763139
0.21608068 0.14861284 0.03722187 -0.22298588 -0.10323751 -0.035952177 -0.15202498 -0.17576993
-0.24608058 -0.21021853 -0.16000576 -0.22322175 -0.16265237 0.043828078 -0.19093573 -0.018096812
-0.24779473 0.037378468 -0.07372431 0.16196583 0.3383048 -0.01744799 -0.13580902 0.0008578921
-0.14609613 0.10437091 0.01186946 -1.0571454 0.14361487 0.18870379 0.10090373 -0.09094607
-0.06972469 -0.07417342 0.051931676 0.14001213 -0.2134108 -0.23079567 -0.28965533 -0.21427628

lin2.weight f4 [256, 256]
00000000: 35f6 81bc db50 0dbd 4c17 913b c886 28bc
00000010: 0cf7 69bd 0a37 29bd bba3 533c 61b9 13b8
00000020: 1488 53bd dcb0 4cbd 3a4e 143d 2288 1fbc
00000030: 49e9 2bbd 1eb8 0b3d b56e d6bc 91ec 1c3d
00000040: b14a 0f3d d34b 41bd 76fe fe3c f3c7 a73c
00000050: 8e39 2c3d 75a9 4f3d 63fb ca3c f957 ddbc
00000060: 130b 56bd c2bc cbbc cb9d 8a3b ed38 dfbc
00000070: 4732 4bbd d85c 8bbd c05a 1cbd 5f97 153d
00000080: f163 f13c c960 353c 3726 113d 9b96 71bd
00000090: 24c1 083d 901b 453d 7d5c 87bd b461 34bc
000000a0: ea34 763d e56a dc3c b741 4abd 2637 213d
000000b0: ea6e 6a3d a523 6cbd 2eb3 c43b 0731 40bc
000000c0: 4024 46bd 52cd 29bd 40c2 693c 831c 47bd
000000d0: ea6d 36bd 2e5f 413b e9c7 dc3c 1c67 c9bc
000000e0: b5a2 dcbc bc13 38bc 3b10 453c cc39 89ba
000000f0: 50ff 4e3c 09d6 5ebb 262d 3f3d 3ee8 063d
00000100: 4063 5cbd fefb c4bb be9e ee3c 25a8 1cbd
00000110: 0004 85ba 3372 a2bb 296c fe3c 804b 1a3a
00000120: 0848 33bc 7b08 ebba 1193 543d 9b0e 473c
00000130: e9d9 283c 1f67 26bd 53fe 083d 9fca 52bb
00000140: 9288 f4b9 53c1 d33c 7090 17bd 8001 b1bb
00000150: 9482 e93c d3cb 8cbc 2bad 6ebd b252 76bd
00000160: f141 9c3c 9204 233d 701e 10bd df51 15bd
00000170: 498a 3e3d 3814 3bbd 45e3 613d 80e4 523d
00000180: 585a 453d 0441 d93c 77eb c4bb 90eb 77bd
00000190: 343b cabc 5a5f 3b3b ae26 1c3d 2100 1fbd
000001a0: 8055 3e3c 3d81 1cbd 69d2 053d db8c ea3c
000001b0: ae88 273d c9ed 67bd 827b 343c 3703 a0bc
000001c0: de83 02bd 9272 46bb d230 8cbd 8e27 33bd
000001d0: 07e5 063d 34fd f8bc 73b7 ca3c 54dc e53c
000001e0: 163b b63c e75f 273d 6a99 45bc 9070 16bd
000001f0: a112 51bd 1e49 ffbb 841f 40bc 3192 163d
00000200: d505 693d af88 c0bc d76c a2bc f6cc 19bc
00000210: 7b9f 75bd 48e4 5f3d 2bcb c73c 1959 20bd
00000220: 2540 2f3d d64e 00bd 72ef 61bd 29a2 223d
00000230: ddc8 68bc 8566 a8bb e69f 2bbd 82cc 4dbd
00000240: 56e8 8bbd f6bd 2f3b c6db 6cbd ca2e 853d
00000250: babe 3abd 03d9 8cbd 2f35 653d 22c8 28bd
00000260: 7b5e eebc 09b3 a2bc 33c2 723c 1dab 123d
00000270: 4519 7b3c c5d3 cc3c 232c b2bb d669 203d
00000280: b00b 5f3c ce5f 913c d244 01bb 47d6 3cbd
00000290: 2524 0bbd 6b63 6dbd 2b07 693d 4d92 d03c
000002a0: 6828 1e3d dd90 463c ada1 383c e73b e73c
000002b0: b00c 4b3c 10e8 933c 6c0d 193d e275 a83c
000002c0: 60fe 82bd 589d 82bd b4b8 02bd 7f25 f5bc
000002d0: c462 3fbd a8e7 1b3d 82ad f93c 86eb 06bd
000002e0: 057f c3bc 86f8 5fbd 80ba fb3a cc33 04bd
000002f0: 7ed9 0e3d fab2 2dbd c8e4 0cbd 5fbf 89bd
00000300: 6be3 bcbc 6d27 043c dad8 56bd 0ca3 64bd
00000310: fec3 6c3d 0e30 723d 67ce 5ebc 68ca ba3c
00000320: c8c7 f33c 2dcd 0abd 1033 06bd fc4b 2dbd
00000330: a09f e7bc 3bfb 083d 616c 52bd b87e 373c
00000340: 1131 03ba b386 6dbd 0045 873d 5614 493d
00000350: 55a9 023d 3476 ce3c 3c89 583c d8c2 6cbc
00000360: bf2a 73bd 2c94 133d 7a64 88bd 635d 1b3d
00000370: 1d2d ccbc 3636 493d 36ec 24bd 181e 7fbd
00000380: b6a1 543c f788 743d c308 11bd 2ff4 04bd
00000390: 496d 71bd e84b 373d 6df4 5abc 6de2 a63c
000003a0: 3d22 8bbc ba4e 87bd 26be 65bd 1ecc 6bbd
000003b0: 5956 3fbc 2c78 5a3d 379b 043d 3e79 56bd
000003c0: 7281 f43c 7ce7 32bd 41bd 2c3b 7890 af3b
000003d0: 28c9 64bd 49cd d4bc adff 85bc 42f1 0d3b
000003e0: 31ab 8abd ce9d 7cbd aa7e 4ebd 80b8 24bd
000003f0: 9470 6cbc fb34 293d d1de f33c ae46 f13b
-0.015864471 -0.034500938 0.004427826 -0.010286041 -0.057120368 -0.041312255 0.012917454 -3.522018e-05
-0.051643446 -0.049973354 0.036207415 -0.009737046 -0.041970525 0.034111135 -0.026175836 0.038311545
0.03498334 -0.047191452 0.031127196 0.020481085 0.042047076 0.050698716 0.024778074 -0.027019488
-0.052256655 -0.02487028 0.004230236 -0.027248824 -0.049608495 -0.06804818 -0.038172483 0.03652131
0.029466601 0.011070439 0.035436835 -0.05898152 0.03338732 0.04812199 -0.066094376 -0.011009622
0.060109057 0.02690644 -0.049379077 0.039359234 0.057234682 -0.05765118 0.006002805 -0.011730439
-0.048374414 -0.041455574 0.014267504 -0.048611175 -0.044538416 0.0029506194 0.026950793 -0.0245853
-0.026933054 -0.011235174 0.012027795 -0.0010469495 0.012634113 -0.0034002087 0.046673916 0.032936327
-0.05380559 -0.006011485 0.029128429 -0.038246293 -0.0010148287 -0.0049574613 0.031057434 0.0005885884
-0.010942467 -0.0017931605 0.051898066 0.012149478 0.01030586 -0.040625688 0.033445667 -0.0032164229
-0.0004664106 0.02584902 -0.03700298 -0.00540179 0.028504647 -0.017187035 -0.058270615 -0.06013746
0.019074412 0.03979928 -0.035185277 -0.03645503 0.046518598 -0.04567358 0.05514838 0.051487446
0.04818186 0.02652026 -0.006009515 -0.060527384 -0.024686433 0.002859077 0.038122825 -0.038818482
0.0116170645 -0.03820919 0.032671366 0.028631618 0.040901832 -0.056623254 0.011015775 -0.019532783
-0.03186404 -0.0030280692 -0.06845249 -0.043738894 0.03293326 -0.030394174 0.024745679 0.028059162
0.022244971 0.040862944 -0.012060503 -0.03672844 -0.051043157 -0.0077906987 -0.011726264 0.036760513
0.056890327 -0.023502676 -0.01982729 -0.009387245 -0.059966546 0.054661065 0.02438887 -0.03914747
0.042785782 -0.031325184 -0.055159993 0.03970543 -0.014208046 -0.0051391744 -0.041900538 -0.050243862
-0.06831424 0.0026816106 -0.05782678 0.06503065 -0.045592047 -0.06877329 0.055958923 -0.041206487
-0.029097786 -0.019860761 0.0148168085 0.035807718 0.015325849 0.025003323 -0.0054373904 0.039163433
0.013613626 0.017745879 -0.0019724858 -0.04610279 -0.033970017 -0.05795614 0.0568916 0.025460387
0.038612753 0.012119499 0.011269015 0.028226806 0.012393162 0.018054992 0.037366316 0.020564023
-0.063961744 -0.06377667 -0.031914428 -0.029925106 -0.04672505 0.03806272 0.030478243 -0.032939456
-0.023864279 -0.05468037 0.0019205362 -0.03227596 0.034875385 -0.042407013 -0.03439787 -0.06725954
-0.02305766 0.00806604 -0.0524529 -0.055819556 0.0578041 0.05912786 -0.013599015 0.022801593
0.029758349 -0.033887077 -0.03276354 -0.042308792 -0.028274357 0.033442717 -0.05137289 0.011199646
-0.0005004565 -0.057989787 0.066049576 0.04909166 0.03189977 0.025202848 0.013216313 -0.014450751
-0.059366938 0.03602998 -0.066597894 0.037930857 -0.024923855 0.049123965 -0.04026433 -0.06228456
0.012978008 0.059700932 -0.035408746 -0.032459434 -0.058942113 0.044750124 -0.01336394 0.02037164
-0.0169841 -0.06606813 -0.056089543 -0.05756771 -0.011678302 0.05333726 0.032374587 -0.05236172
0.02984688 -0.043677792 0.0026357921 0.005357798 -0.0558559 -0.025976794 -0.016357267 0.0021658693
-0.067709334 -0.06167393 -0.050413765 -0.040215015 -0.014431138 0.04131029 0.029769333 0.007363162

lin2.bias f4 [256]
00000000: e452 91bc e90c 19bb 346f 44be 6485 74bc
00000010: c60d 37bb 405b 413a 02f5 0b3d eaa1 0a3d
00000020: 577b bbbb 7698 bebb 1048 1bbd 5ce3 6fbd
00000030: a41a 55bd 2760 333d 031a 153d 76c9 603a
00000040: 9aca 173d 7b8d 573b 3d48 92bd f86f 753d
00000050: 76ea bbbb ac20 963c bf1d 5c3d 9e7c 52bd
00000060: a513 75bd 2428 60bd f9d5 76bd 5883 223d
00000070: 80fa 6ebd b468 0bbd ed5a b2bc a106 89bd
00000080: fd99 783a 2ab8 33bd e57e 01bd 404d 9b3e
00000090: 7c96 e63c 0960 db3c c579 093d 3464 86bc
000000a0: 35ae 20bd bcac 393d 11be 25bf 8186 89bd
000000b0: 5be0 d5bc 80b5 b3bc 5343 82bd ecf9 b0bc
000000c0: 825f e83c dfc8 a53c 2ba2 46bd e797 b1bc
000000d0: a8db 113d 7665 22bd e9a3 4fbd ba20 9f3c
000000e0: 0dbf a7bc b75d 24bd 9951 1fbd 8bcd d63e
000000f0: e1cd 3c3d 5ae9 39bd f99d 183d 73fb 33bd
00000100: f6d0 443d 9892 1f3b 0c29 2b3d d391 05bd
00000110: 4f8c 95bc 0490 a43c 8c57 843d ea8a 13bd
00000120: d775 143d 3e90 373d a5aa 533d 90d2 6bbc
00000130: 9014 a73c 6619 44bd f44d b2bc ce08 1ebd
00000140: 2ea1 8ebb 3716 99bd 66a0 4d3d ecd7 20bc
00000150: c538 7ebd b6cd 3b3d 3925 8dbd 1965 463c
00000160: 62cb 013c 3466 81bd ea59 273a c460 12bd
00000170: feb6 6fbd 5089 aabc 259e 4abd 442d 85bd
00000180: 2c51 88bd 6e1d 613d 9447 85bd 43ef eebb
00000190: d774 95bc 8cab 333d 5bbd 3a3d b4fd 1a3d
000001a0: 2374 06bd 75c2 293d 5faf 44bc 3866 633d
000001b0: 974e 15bd 6ee8 d73c 2818 1abd 0df6 52bd
000001c0: 3f7b 20ba 0131 7ebd a70c a53c ef83 8bbd
000001d0: a983 44bb c863 aabc b5b5 313d 78fe 963c
000001e0: c958 8a3d 9fca acbb 87f3 293d f51a 083c
000001f0: 030e 10bc 5602 9cbc 9fcf 2b3d a03b 553b
00000200: 55f5 553e cb90 2bbd d333 93bc ecfe 34bc
00000210: 6ead bc3c 4d64 98bc 8633 d1bc 9d3d 7abd
00000220: cab4 19bd a886 80bd 364a 5c3d 99d0 1fbd
00000230: 983d b63c d45b 5a3d 8397 5abd a60f df3b
00000240: f528 65bd 1699 3ebb f554 64bd 7091 293d
00000250: 4650 20bd 803c 223c a441 1bbd 54a4 8fbc
00000260: 7677 e0bc fb79 0bbc f8d4 fc3a 79e5 9ebc
00000270: d80e 703d 5128 da3c 2118 38bd 8cf3 1bbc
00000280: 73fa 5bbd 3882 d2bb dc9b 833d 8c07 9cbd
00000290: 842d fb3c 4636 513c 395d 5e3c 6e26 573c
000002a0: 8755 08bd 4ee4 263d aeff 17bd ac76 0a3c
000002b0: a760 e33b 8ffd 193c 3cb8 893a c2be 383d
000002c0: c3f4 b93c 0e09 8f3b 9ad7 ac3a 948c 43bd
000002d0: f03f 403d d570 343d d021 4cbd 21cf 913c
000002e0: 57e8 6c3d 06c3 85bd fa42 22bd 8a30 4abd
000002f0: 3669 87bd e0ed 6f3c 6090 173d fe72 86bd
00000300: 03ff 573d 83e6 fcbb 8ca3 84ba d74d 47bd
00000310: e90b ad3c 90e0 b7bb 798a 3e3d a09b c33c
00000320: d4b5 50bd b547 1a3d 9f70 cfbc 73d7 61bb
00000330: 79e0 d5bc c3c3 4c3c f745 d03c d7c0 ff3c
00000340: 4451 2dbd 6d87 f83c 83b8 d0bc ccf7 693d
00000350: 25f5 f6bc 0367 cebc b5ae 8e3c 0eb7 9fbc
00000360: 8e5f d4bd f8dd 5e3c 62c8 e0bc 7270 e8bc
00000370: 02f5 56bd 3817 6c3e 8b52 703c b6c6 1a3d
00000380: 11e0 4ebd 7632 06bd 409e 233d 680f cbbd
00000390: 224e 2c3e dd6d 3fbc 868e 13bd ed39 cb3d
000003a0: ae31 01bd 50d9 2d3d b067 9ebb 9b8d 4ebd
000003b0: a4e3 9938 e1b5 7ebb c92d 5e3c 1012 5cbc
000003c0: 1029 8b3d 9ed2 c53d 4a29 073d c91a d2bc
000003d0: 67a0 7b3c 8084 3d3d ee92 adbd 4187 19bd
000003e0: 5c78 cf3c 1958 a0bb 9ddb 003d 3849 223d
000003f0: b47f bebc 7669 0f3d 6cde cebc cfe4 0f3d
-0.01773972 -0.0023353642 -0.19183046 -0.014924381 -0.0027931794 0.0007375963 0.034169205 0.03384582
-0.0057214904 -0.0058165146 -0.03791052 -0.058566436 -0.05202736 0.04379287 0.03640176 0.0008574942
0.03705845 0.0032890725 -0.071426846 0.059921235 -0.005734737 0.018326126 0.053739306 -0.051388375
-0.059833188 -0.05472578 -0.060262654 0.03967604 -0.058344364 -0.0340354 -0.021771872 -0.066907175
0.0009483395 -0.043876804 -0.031615157 0.30332375 0.028147928 0.026779192 0.033563394 -0.016405202
-0.039228637 0.045330748 -0.64743143 -0.06715108 -0.026107958 -0.021937132 -0.06360497 -0.021603547
0.028365854 0.020237384 -0.0484945 -0.021678878 0.03560987 -0.039647542 -0.050693426 0.019424785
-0.020476842 -0.040128436 -0.038896177 0.41953692 0.04609478 -0.045388557 0.03726003 -0.043940973
0.048050843 0.0024348851 0.041787192 -0.032609772 -0.01825538 0.020088203 0.06462011 -0.03602115
0.036245193 0.044815294 0.05167641 -0.014393464 0.020395547 -0.047875784 -0.021765687 -0.038582616
-0.00435271 -0.0747494 0.050201796 -0.009817105 -0.06206586 0.045850478 -0.06891865 0.0121090645
0.007922025 -0.06318322 0.00063839427 -0.035736814 -0.058524124 -0.020817429 -0.049467225 -0.06502774
-0.06656107 0.054959707 -0.06507793 -0.007291706 -0.01824419 0.04386477 0.04559074 0.037839606
-0.0328256 0.041445214 -0.012004702 0.055517405 -0.036451902 0.026355948 -0.037620693 -0.051504184
-0.0006121881 -0.062058453 0.020147635 -0.06812274 -0.0029985702 -0.020799533 0.04338618 0.018431887
0.06755216 -0.0052731778 0.04149201 0.008307208 -0.008792403 -0.019044083 0.04194605 0.003253676
0.20894368 -0.041886132 -0.017969048 -0.011047106 0.023031916 -0.018602515 -0.025537264 -0.061093915
-0.03752593 -0.06275684 0.05378171 -0.039017294 0.022246167 0.05331023 -0.05336715 0.0068072854
-0.055947263 -0.0029082946 -0.055745084 0.041398466 -0.039139055 0.00990212 -0.037904397 -0.017534412
-0.027400713 -0.008512969 0.0019289544 -0.01939653 0.058607906 0.026630552 -0.044944886 -0.009518515
-0.053705644 -0.0064242147 0.06426212 -0.07618627 0.030661352 0.012769287 0.013572031 0.013131721
-0.03328469 0.040745072 -0.03710907 0.008451145 0.006939012 0.009398832 0.0010507177 0.045103796
0.02269972 0.004365093 0.0013186813 -0.047741488 0.046935976 0.044052918 -0.049836934 0.017798962
0.057838764 -0.065313384 -0.039614655 -0.049362697 -0.06611864 0.014644116 0.03700292 -0.06564902
0.052733433 -0.007717909 -0.0010119542 -0.04865822 0.021123843 -0.0056114867 0.046518777 0.023877919
-0.050954655 0.03766604 -0.025322257 -0.0034460693 -0.026108013 0.012497845 0.025423987 0.031219883
-0.04231383 0.030338014 -0.025478607 0.057121083 -0.03014619 -0.025195604 0.017417291 -0.019496467
-0.10369788 0.013602726 -0.0274393 -0.02837393 -0.05247975 0.23055732 0.014668117 0.03778716
-0.050506655 -0.032762967 0.03994584 -0.09915048 0.1682668 -0.011683908 -0.036024593 0.09923158
-0.03154152 0.042443573 -0.004834138 -0.050428014 7.33801e-05 -0.0038865732 0.013560721 -0.013432041
0.067949414 0.09659313 0.03299836 -0.025647538 0.015358067 0.04626894 -0.0847529 -0.037482504
0.025325947 -0.0048933146 0.03145944 0.039620608 -0.023254253 0.035012685 -0.025252543 0.03513032

lin3.weight f4 [128, 256]
00000000: c915 bb3b ffc5 563d 1096 2a3d dcc1 2c3d
00000010: 68b8 0cbd bd98 3ebd 84bd 47bd a148 9e3c
00000020: e770 153d 0b90 fbbc f3f0 18bd a395 ba3c
00000030: 22e9 45bd 5482 263c 9a0d 04bd 00ba 353d
00000040: 208e 87bd 5a3b 593d 04b9 c23c c34e 12bc
00000050: e4c1 b0bc a069 06bc 9c08 2fbc 0739 2bbd
00000060: 8d89 a63c 27be a0bd ddec 26bd 1c6b 443d
00000070: 94b3 03bd 8eef 2f3d 5882 a53d 4207 723c
00000080: 90f1 5d3c 029c 6f3c 54f9 7fbd 43ed 043d
00000090: fac3 b6bb 3c0f cd3c 19bb 6ebc ed09 ab3d
000000a0: 025b 01bd c1b4 b13a 260f 3fbd 89ce e9bb
000000b0: 9e21 123d 103c d1bc 2c2a 89bd 622c 273c
000000c0: 00fd 0b3c c20c 3bbc fc81 bb3c 9417 33bd
000000d0: e4b8 7abd e820 76bd 8410 5dbd 2636 59bc
000000e0: 40a9 3a3d 3a3e 063b 6893 81bc 239c 793d
000000f0: 8420 c1bc c82f 823c 9278 1ebd 8880 bf3c
00000100: 0466 d7bc b1e5 ecbc 5100 84bd 0094 f9b9
00000110: ea2c 17bf b839 6cbd e8d9 71bd d2fe 4c3d
00000120: 3165 9eb9 1afb d33c 10fa 25bd 3884 42bd
00000130: d2a3 3d3d cce6 acbc ecf6 983c 9c37 833c
00000140: 57d4 833c 7e89 77bd aabb d23d 439b 273d
00000150: 6d48 a03c 9ef9 3cbd 076b bc3c 5a26 16bc
00000160: c0d7 59bd 3062 92bb fb46 3a3c 7d45 b03a
00000170: de2c f83c 5f25 373d 93e1 453d 5f8f 443d
00000180: b42d 013d 29f5 9c3d 9737 81bd d269 51bd
00000190: 22f1 33bc f538 383d bb9c 513d a0f1 6dbd
000001a0: b79e 08bd 8de4 77bd 4456 56bd 7d89 ddbc
000001b0: d4d8 b7bc 61fe 83bd 0c70 513d f0a4 213d
000001c0: 0df5 3dbd 0cc6 0fbc eb62 0bbd a031 03bc
000001d0: b600 6dbd 13f0 2d3d 7fee 0c3d 12b2 713c
000001e0: 93b0 323d df93 15ba 47bb b3bb 51f5 35bc
000001f0: 6e66 fd3c c09d 6a3d 6fdd 26be cde6 89bd
00000200: 2e5e 043e 5e08 fabc a01f f4bc c76f 43bd
00000210: e178 38bd 6d41 643d 53ee 67bc 7358 4a3d
00000220: 18a6 55bc 3da2 9fba 3016 77bc c6f3 9a3c
00000230: 7c7d 8b3d 50f8 4f3d 40b0 603b 96c6 88bc
00000240: d570 86bd 10ce 09bd dbc0 e7bb d1d2 60bd
00000250: 57c4 2cbd 18a7 85be 5d78 643d 182d 9e3c
00000260: 4f26 6dbd 1d51 323d df24 df3a e0cc 13bd
00000270: 9806 d13c a1f7 1b3d d290 033d 7b61 29bc
00000280: cd8e 083d aa5e 87bc ce96 173d 280d ee3c
00000290: e204 843d d5fd 63bd 5ace 7b3d d796 21bd
000002a0: 49e6 023d c329 84bd f6f2 923c d855 d13c
000002b0: fe48 ba3d 904e c73c 1534 6bbd 76b5 6b3d
000002c0: 61b1 e9bc b77d 263e 0220 663d a960 f13c
000002d0: 0b44 c13c 4c06 3b3d ea29 abba f501 3ebc
000002e0: 3d68 dcbc e1cd 5cbd 7995 94bc 78c2 453d
000002f0: 4e59 3fbd d1e0 503d 47c7 1c3d 9431 05bd
00000300: d3c7 0abd 9df3 babb 626f b5bb 1a6c f83b
00000310: 0d5b 903b 1426 293d 7821 4dbb 4263 9bbc
00000320: 30a5 bc3c 4fc3 8abb 78e8 1e3c 9384 5cbd
00000330: 2cf2 60bc e825 1cbd 4c57 86bd a9e5 523d
00000340: 8031 413a a33a e83b 47db fb3c 6c35 0fba
00000350: bee9 303d 3c08 633d 6fe3 583d 8c88 7ebd
00000360: ebe4 9abd 918f 463c 04df bf3c 33ca 20bc
00000370: c873 44bd 9625 ff3d f0ae 0f3d 3e5c 5ebd
00000380: 2216 763d c707 d13c cbfd 373d 3934 3fbd
00000390: d5f4 823d 9ff6 90bc a09f 9c3b 3f9a 003e
000003a0: 69f8 6abd eec9 02bd 4498 1abd 5cc6 f13c
000003b0: c995 26bd 6146 32bc 5e7d 383d 4125 303c
000003c0: bcde 933d de83 4cbc 1bb7 0dbd 5e0c 33bd
000003d0: 3622 2dbd 126a 5e3d 57f7 70bd 1905 993c
000003e0: 027f 1bbd 5dd4 88bc 3865 68bd 1067 353d
000003f0: 8240 3d3d e183 ec3c e847 37bd 0bfc 133d
0.005709384 0.052434918 0.041647017 0.042177066 -0.03435555 -0.04653238 -0.04876472 0.019321742
0.036484625 -0.030708333 -0.037339162 0.02277643 -0.048318036 0.010162909 -0.032239534 0.044366837
-0.06618905 0.053035118 0.023769863 -0.008929911 -0.02157683 -0.008203894 -0.010683205 -0.041802432
0.020329261 -0.07848769 -0.040753234 0.04795371 -0.03215368 0.042953067 0.08081502 0.014772238
0.0135463625 0.0146245975 -0.062493637 0.032452833 -0.0055775614 0.025031678 -0.014570975 0.083515026
-0.031580932 0.0013557897 -0.046645306 -0.0071352166 0.03567659 -0.025541335 -0.06697497 0.010203453
0.008544207 -0.011416616 0.02288913 -0.043723658 -0.06121148 -0.060089976 -0.05397083 -0.013257539
0.045571566 0.0020483867 -0.01581736 0.06093992 -0.023575075 0.015891925 -0.038689204 0.023376718
-0.026293762 -0.02891812 -0.06445373 -0.0004760325 -0.5905291 -0.057672232 -0.059045702 0.050047703
-0.00030211502 0.02587657 -0.04052168 -0.047489375 0.04629881 -0.021106146 0.018672429 0.016017728
0.016092462 -0.060433857 0.102897 0.040919553 0.019565785 -0.04613649 0.023000253 -0.009164417
-0.05318427 -0.0044672713 0.011369462 0.0013448443 0.030294832 0.044713374 0.048310827 0.04798829
0.031537727 0.07663948 -0.06309431 -0.05112631 -0.0109827835 0.044976193 0.05117486 -0.05809176
-0.033354487 -0.060520697 -0.052328363 -0.027043099 -0.022442259 -0.06445003 0.051132247 0.039463937
-0.046376277 -0.008775245 -0.034029882 -0.008007437 -0.057862006 0.04246528 0.034407135 0.014751928
0.043625426 -0.00057059334 -0.0054849717 -0.011105851 0.030932631 0.05727935 -0.16295408 -0.06733475
0.12926552 -0.030521568 -0.029800236 -0.04771402 -0.045037154 0.055726457 -0.014155942 0.049400758
-0.013040088 -0.0012179088 -0.0150809735 0.018915068 0.068110436 0.05077392 0.003428474 -0.016696256
-0.0656449 -0.033643782 -0.0070725507 -0.05488855 -0.04217943 -0.26104045 0.05577885 0.019308612
-0.057897862 0.043534387 0.0017024538 -0.036084056 0.02551584 0.038077954 0.032120533 -0.010338183
0.03333931 -0.016524632 0.037009053 0.029059008 0.06446244 -0.055661995 0.06147609 -0.039450493
0.0319579 -0.06453278 0.017938118 0.025553629 0.090959534 0.024329454 -0.057422716 0.0575461
-0.028526964 0.16258894 0.05618287 0.029465036 0.023592016 0.045660302 -0.0013058756 -0.011597146
-0.026905173 -0.05390728 -0.01813768 0.048281163 -0.046716027 0.05099565 0.038275983 -0.032517985
-0.033881973 -0.0057053105 -0.0055369595 0.007581246 0.0044053853 0.04129608 -0.0031300467 -0.018968228
0.023027986 -0.0042347084 0.00969898 -0.05383737 -0.013729613 -0.038122088 -0.06559619 0.051488552
0.0007369742 0.007087068 0.030744208 -0.00054629776 0.043191664 0.055427775 0.052951273 -0.06214194
-0.07563194 0.01211919 0.023421772 -0.009813833 -0.04796198 0.12458341 0.035078943 -0.054287188
0.0600797 0.025516404 0.04491977 -0.046680663 0.06394354 -0.017695723 0.004779771 0.1255884
-0.05736581 -0.031930856 -0.037742868 0.02951353 -0.04067019 -0.010881037 0.045041434 0.0107510695
0.072202176 -0.012482611 -0.03459845 -0.043712966 -0.042268954 0.054300375 -0.05882963 0.018679189
-0.03796292 -0.016702825 -0.056737155 0.04428774 0.046204098 0.028871479 -0.04474631 0.03612904

lin3.bias f4 [128]
00000000: 34d3 623d 3203 28bd ad5d ba3d 5dce 85bb
00000010: dd40 8a3d ec31 ab3c 82d9 cd3c d388 a93b
00000020: b8ae 74bd 059f 60bd acac 8cba 888d 463c
00000030: 29b4 c0bc 39d4 e6bc 0c7b 2cbc 4b66 e53c
00000040: f57c bdbc 393c 2ebb b65a d9bc 3146 2abd
00000050: 2c74 2cbc 4385 24bc 3add 5fbd a2eb 32bd
00000060: ff70 7fbd 8c94 563c 25f5 53bd a8c4 79bb
00000070: eca7 3cbd 71e2 b73c e1de 11bd c1e6 143c
00000080: f9c8 81bd 9fba 74bd c039 6fbd b0e2 283c
00000090: 127e 1c3d 8e82 273c 2e5b 24bd 7644 493d
000000a0: b13e 36bd 08a3 5abc 3b1d 633d 70bb 57bd
000000b0: f574 8b3b 8ea3 83bd 2448 9ebc 97b0 a1bd
000000c0: 8c4b b73e b7da d1bc f7e9 9dbc 8e9d 203d
000000d0: 55d2 2abd 77bf 5b3c d755 5fbd c91a 29bd
000000e0: 80f7 2fbd cc1b 98bd 074c 283d dc60 f7bc
000000f0: 54d6 f9bc df07 413b dd37 37bc 431b 50bd
00000100: 58d6 55bc d71a eabb 4a15 183d af19 60bd
00000110: 26af 183d fdd5 ec3d 59ea 8ebc f1e8 8f3b
00000120: 84ae 103c 3174 f6bc 3c91 e53c 60e6 103e
00000130: 9304 66bd 99a9 e8bc db2c ccbd e09d 71bd
00000140: ad2b 82bd 0941 123d cfa2 3a3d 980a 823d
00000150: 4bb0 373d a1f5 80bd 663c 173e bfb4 36bc
00000160: 8827 07bd 4a3f 8c3c 1323 b83c 4b4a 423d
00000170: 9a61 c4bc ca0c 63bd 5aba 07bd 7b8f f3bc
00000180: 0e9a 393d fd91 2d3c 99f4 373d 3283 97bc
00000190: 4b0d 45bd 304b 503d e3a3 ba3b db96 4dbd
000001a0: 126e 65bd 5525 88bd 58b2 443d 3d46 4abd
000001b0: 2c25 0e3d 7249 52bd 8955 0f3c fabd c9bc
000001c0: 41c2 273d dc67 e73d 95e0 ebbb 0d87 8d3c
000001d0: 6676 16bd 517b d9bb 82f4 f6bc 547f 1bbd
000001e0: d37b 04bd a1cc 18bd c54b 79bd 142a a9bc
000001f0: e62d a2bc ee16 8bbd 4320 6dbc e8ca 413d
0.0553772 -0.041018672 0.090998985 -0.0040834383 0.06750653 0.020897828 0.02512813 0.0051737814
-0.059736937 -0.054839153 -0.0010732613 0.012118705 -0.023523407 -0.028177368 -0.010527384 0.028002879
-0.023130873 -0.0026586188 -0.026532512 -0.041570846 -0.010525744 -0.010041538 -0.054654337 -0.04368175
-0.06236362 0.01309694 -0.05174746 -0.00381116 -0.04605858 0.022446843 -0.035612945 0.009088219
-0.063371606 -0.05974829 -0.058404684 0.010307953 0.038206168 0.010223998 -0.04012602 0.049137555
-0.04449338 -0.013344534 0.0554478 -0.05266899 0.0042558857 -0.0642768 -0.019321509 -0.0789501
0.35799825 -0.025616987 -0.019276602 0.039212756 -0.041704495 0.013412348 -0.054525223 -0.04128531
-0.042960644 -0.07427177 0.04108813 -0.030197553 -0.030497707 0.0029454154 -0.011182752 -0.05080725
-0.013051592 -0.007144313 0.037129678 -0.054711994 0.03727641 0.115642525 -0.01744573 0.0043917825
0.00883067 -0.030084701 0.028023355 0.14150381 -0.056156706 -0.028401183 -0.09969493 -0.058988452
-0.06355987 0.035706554 0.045565423 0.06349677 0.04484586 -0.0629685 0.14769134 -0.011151492
-0.032996684 0.017120022 0.022477662 0.047434133 -0.023972321 -0.05543212 -0.033136703 -0.029731503
0.045312934 0.010593888 0.044911 -0.018495176 -0.04810838 0.050852954 0.0056958064 -0.050192695
-0.056013174 -0.066477455 0.048021644 -0.04938339 0.03470342 -0.051339574 0.0087484205 -0.02462672
0.04095674 0.112991065 -0.007198403 0.017276311 -0.036734007 -0.006637015 -0.030145887 -0.037963226
-0.03234465 -0.037304524 -0.060863275 -0.020649947 -0.019797277 -0.06791483 -0.014473024 0.047312647

lin4.weight f4 [64, 128]
00000000: 02c8 7b3d 2f9b 073d 3231 bf3d 4ce2 1e3b
00000010: 7f24 a5bc 5916 c33d e57d 813d b1ca bfbc
00000020: a905 30bc aac5 8b3d 0bee 933d 730d 9d3d
00000030: 7cf7 0fbd f192 753d 04ba 94bb 3246 6e3c
00000040: 9c29 243d 5143 d73c b346 903d 96bc 88bc
00000050: b0a3 923d ed03 4a3d 8f50 b63c f93d 483c
00000060: 8c82 5f3c eb53 8dbd 65fc 88bd 03fd 463d
00000070: d41f 6fbd 06b3 803d 1b3c 9b3d 3e65 9dbd
00000080: b3d8 513d 9dff a7bc 3d60 b3ba ca96 65bd
00000090: 9d7b ad3d 91a9 a5bd a2b8 6fbd 6d83 8bbc
000000a0: 7325 33bc b61c 983d 02ea 4ebd 5af4 633d
000000b0: 82b7 56bd 7b28 363d 31f8 acbd ee7f 0bbd
000000c0: 90c4 93bc 5df8 a23d d3e7 8fba 21fd 853d
000000d0: 95fa 58bc 069c 9a3d 082c edbb 99e9 aebc
000000e0: 2b97 1bbd e93d 6d3c 373a 86bb af96 42bd
000000f0: 76cd 24bd 76fe 69bd d18f 783d ea6a 97bd
00000100: 1a8e a53d 517e 08bd be87 dd3b 8efd 883d
00000110: 2e62 0c3d ab26 c2bd f1d5 2b3d 2946 c0bd
00000120: d6bd 703d 7e18 923d 8497 873b dd5a 9d3c
00000130: 564d 38bd a5ec f73c 6493 843c c56e 74bd
00000140: e3f3 d7bc 76da 3dbd 1ec1 b43b c824 883d
00000150: 7836 be3c 1cad 22bd 7ea6 f5bb 6e53 703d
00000160: ff34 a53d bcdf b93c fa87 8a3d 541a 85bd
00000170: f64a a3bd a013 243d faa5 a23d bbe0 7d3d
00000180: 77a8 e7bc 9344 793d 9823 1e3d 9f18 d1bc
00000190: 3506 2dbb 94c8 dd3b e953 75bc 17f0 693c
000001a0: a9da bb3c 4ba2 7abd c6a8 3f3c acde 453c
000001b0: 0d97 65bc cf1f 5d3d a7d0 2f3c 86e1 6bbd
000001c0: 5615 61bd eb67 04bd 12f4 81bc 970a af3c
000001d0: cfe6 96bd 8ced 08bd 7efc a73d b82d 8bbd
000001e0: ed8b 36bd 6775 563b 5cd3 68bd 9d2f 993b
000001f0: 6d9f 4fbd a6c9 b1bd 317a 93bc 46fa b63d
00000200: 0970 553d 2818 903d be46 d6bc 8ae1 6ebd
00000210: fec9 67bc c265 80bd 6eac 70bd 741f b9bc
00000220: e704 adbc 9d48 f83c aa6e 05bd 8833 27bd
00000230: d902 183c e8af afbd d0b4 fa3c 4ce5 833d
00000240: db09 373b aa3c 873d b5bd 9abd a0d4 a7bd
00000250: f90d 863d c335 a1bd 926e 81bd 5b13 7a3d
00000260: db71 123d 927d 7d3d 5bb4 a23c f216 983b
00000270: dbe1 713d 207d 0a3d a75c a43c 266a 603c
00000280: 0c77 f0bc 6a02 433c 56f9 0fbd 81a9 bf3c
00000290: e65c 9d3d c272 603c c20a ebbb 4e40 8abc
000002a0: 2f05 733c afd6 313d bce1 683d af7e 96bd
000002b0: 1fe8 ed3d 1516 743d 556a 31bd 5acf 93bd
000002c0: 1b55 61bc 200b 233d 4aa3 d1bc 9921 0bbd
000002d0: f3b2 933c 1dee d33c 94df d43c c920 44bd
000002e0: 13bc 903d 2c7c a63d 0885 023d 2f5d f43b
000002f0: 3ca3 883d 39b6 b23c a8e9 373d 7c35 b7bd
00000300: 9c9d c3bc 0455 bfbc 983b 5d3d 9c79 823c
00000310: 02db 3dbc 7082 c23c 40bd 6d3d e8f7 9f3d
00000320: ee45 65bd 3cd0 acbc 6a7a 2dbd ef62 96bd
00000330: 9ee6 803c 302f 50bd 0526 0a3d 1629 91bc
00000340: fdc3 96bd 91d1 86bd fee2 d6bc 1593 af3d
00000350: 50c8 1dbd 2038 23bd 7d5f 0cbd 8ff1 823d
00000360: 0d97 fc3c 0469 62bd 9370 02bd 6a04 15bd
00000370: 3698 0abe 6eb9 263d cae7 e1bc 2ac7 abbc
00000380: 9d5e 87b9 6eb7 b6bd 44c1 b43b 701f 60bd
00000390: 1119 86bd c891 6fbd f3b6 313d 66a5 bbbc
000003a0: b50e 9d3d 0cac 813d f441 1e3a b183 39bd
000003b0: 77ce 9abd 2088 a1bd de59 3ebd 2cba 313d
000003c0: 162a f23c 296a c6bd 3476 99bb b282 bb3c
000003d0: 86f4 5cbd 687e 9abd e5e9 3dbd 7d39 2a3d
000003e0: 0db8 ad3d b1c1 393d b5ff 5abd a118 9bbd
000003f0: 5190 8ebd dd34 bcbb 03cf 69bd 3e37 9c3d
0.06147004 0.03310698 0.09335555 0.002424377 -0.020159004 0.09525747 0.063228406 -0.02341208
-0.010743537 0.06824811 0.072231375 0.07668581 -0.03514813 0.059954587 -0.0045387764 0.014543103
0.040078744 0.026277216 0.07044735 -0.016691487 0.07160127 0.04932015 0.02225521 0.012221807
0.013641965 -0.06900772 -0.066887654 0.048581135 -0.058379963 0.06284146 0.075798236 -0.07685326
0.05123205 -0.020507628 -0.0013685297 -0.056052007 0.08470843 -0.08088983 -0.05852569 -0.017030442
-0.010934222 0.07427351 -0.050516136 0.055652954 -0.0524211 0.0444722 -0.08445776 -0.03405755
-0.018038064 0.07957528 -0.0010979123 0.06542421 -0.013243337 0.0754929 -0.007237915 -0.021351622
-0.037985962 0.014480093 -0.004096295 -0.047506984 -0.040235005 -0.05712744 0.06068403 -0.07393439
0.08083744 -0.03332359 0.0067605665 0.06688987 0.03427332 -0.094800316 0.041952077 -0.09388382
0.05877479 0.07133578 0.004137935 0.019208366 -0.04499563 0.030264208 0.016183563 -0.05967595
-0.026361411 -0.04635092 0.0055161854 0.066476405 0.023219332 -0.03971587 -0.007496654 0.058673315
0.08066749 0.022689693 0.06764217 -0.06499162 -0.07973282 0.04005778 0.07941814 0.061981898
-0.028278572 0.060856413 0.038608164 -0.025524436 -0.0026401405 0.0067682955 -0.014973619 0.014278433
0.022931414 -0.06118993 0.011697954 0.012077015 -0.014013064 0.053985413 0.010730899 -0.057588123
-0.05495199 -0.032325666 -0.015863452 0.021367354 -0.07368242 -0.033429667 0.08202456 -0.067958295
-0.044567037 0.0032723786 -0.056842193 0.0046748654 -0.05068915 -0.086810395 -0.018002601 0.089344546
0.0521088 0.070358574 -0.02615678 -0.05832056 -0.01414728 -0.06269409 -0.05875819 -0.022598006
-0.021120502 0.030308062 -0.03257624 -0.04082063 0.009278023 -0.08578473 0.030603796 0.06440219
0.0027929458 0.066033676 -0.07555715 -0.08194852 0.06545634 -0.07871582 -0.06319918 0.061053615
0.035753112 0.06188733 0.01986139 0.004641407 0.059053283 0.033810735 0.020063711 0.013697183
-0.029353641 0.011902431 -0.035149895 0.023396255 0.076837346 0.013699235 -0.0071729133 -0.016876366
0.014832779 0.04341763 0.056855902 -0.07348382 0.11616539 0.05959137 -0.043314297 -0.072172835
-0.013753201 0.03980553 -0.025590558 -0.033967588 0.018029666 0.025870377 0.025985517 -0.04788283
0.07067122 0.08129153 0.03186515 0.0074573974 0.066717595 0.021815406 0.044900566 -0.08945748
-0.023878865 -0.023355968 0.05401191 0.015927128 -0.01158786 0.023743838 0.05804181 0.07810956
-0.055974893 -0.021095388 -0.04235307 -0.07343089 0.015734967 -0.05082625 0.033727665 -0.017719787
-0.073616005 -0.0658294 -0.026231285 0.085729755 -0.03852111 -0.039848447 -0.034270752 0.0639373
0.030833745 -0.055275932 -0.03184564 -0.036381163 -0.13534626 0.040704183 -0.027576346 -0.020968992
-0.000258197 -0.08921705 0.005516203 -0.05471748 -0.0654775 -0.058488637 0.043387365 -0.022906017
0.07668821 0.063316435 0.00060370495 -0.045291606 -0.07558911 -0.07887292 -0.046472423 0.043390438
0.029561084 -0.09688217 -0.0046832804 0.022889469 -0.053944133 -0.07543641 -0.046365637 0.04155873
0.084823705 0.045350734 -0.053466517 -0.07573057 -0.0696112 -0.0057436065 -0.057082187 0.07627724

lin4.bias f4 [64]
00000000: d503 3c3c c20e f6bd 7921 44bd 49aa c9bc
00000010: 3d01 2abe 6dd1 0d3c db44 923d 85da dcbc
00000020: 608e 993d f331 52bd 16d0 96bd 8cf6 58bc
00000030: 03d8 973d b35b a83d 2b0e 6bbc ad65 24bd
00000040: 4e7a adbd 8daf 8cbd f7a1 233d 8b9e 683d
00000050: 4ddd cdbd 1db3 623d 95f8 5dbd b7c6 f53c
00000060: 2314 093d f553 993d 017e 813d 7bff 453d
00000070: 1c51 23bd b462 633c e09e debb 09f2 633c
00000080: 23ca 71bd 33c7 273d 854c b63d 1b04 25bd
00000090: 309a a73c 3f86 073b 98c7 763c 8770 aebc
000000a0: 5d48 bdbd 25f0 603d 3f82 633d 683d 9d3d
000000b0: 3aa1 20bd 8cfe 87bd d69e 53bd 89ed 95bd
000000c0: 5db3 103d bef8 88bb 83bf 7b3d e67f 9bbd
000000d0: 5f3a 48bd ee3b babc 3332 35bd 2cee 81bd
000000e0: de9d ec3c e1a2 c13d 42e7 d63d 8313 8dbd
000000f0: 4518 033b 206a fbbc 5c26 b83c bb73 c83c
0.011475523 -0.120145336 -0.047883485 -0.024617331 -0.16602035 0.008655888 0.071420394 -0.026959667
0.07497859 -0.051317167 -0.07363908 -0.013242375 0.07414248 0.08220615 -0.01434664 -0.040136028
-0.084705934 -0.06869421 0.039949384 0.056791823 -0.100519754 0.055346597 -0.054192144 0.030001981
0.03346647 0.07486717 0.063228615 0.04833935 -0.039872274 0.013878513 -0.0067938417 0.013912686
-0.059030663 0.040961456 0.08901314 -0.04028712 0.020459265 0.0020679382 0.015062235 -0.021293892
-0.09242318 0.05491652 0.055544134 0.07677728 -0.039216258 -0.06640348 -0.05166515 -0.07320697
0.035327304 -0.004180043 0.061461937 -0.07592754 -0.048883792 -0.022733655 -0.044237327 -0.06344256
0.02888387 0.09454895 0.10493328 -0.06888487 0.002000348 -0.030690253 0.022479229 0.024469247

lin5.weight f4 [16, 64]
00000000: cbd6 a9bd c21e 083d 97ca b63d 425c f8bc
00000010: 9960 e93d ca65 873d 474e a6bd 80e5 33bd
00000020: d336 753d e34b a3bd ccad 9c3c c5ab db3d
00000030: 70ff 80bd 2521 d23c b518 e23b d90d 1b3d
00000040: fc2d 84bd 88e4 af3d dbb7 9bbd cd6f 9cbd
00000050: ce63 f03d fdf3 1ebb aebf be3d b054 babd
00000060: cb58 033d 08a1 aa3c 77f5 90bd 4cef 7dbd
00000070: d5cb 1a3d b601 473d da33 56bd a541 a73a
00000080: 15fd b83c 2864 d0bd 0ad7 36bd fb5d d83c
00000090: 890b d2bd 76e5 823d c109 f6bc beed 8e3b
000000a0: bfb2 9a3d ba50 0bbc 95e0 95bd 8a77 513d
000000b0: e676 89bd 7722 e93d 85a5 85bd 96fd c53d
000000c0: 2724 57bc 45a9 033c 4d96 73bb ba82 a73d
000000d0: bcd3 5fbd 364b 043e 1df2 d73c b971 533d
000000e0: 7acc bb3d 61d3 1abd 365f dd3d 1d8d af3d
000000f0: ec0f 38bd 1231 b3bd 9f91 76bd a2f4 063d
00000100: 037e fc3b 0b58 df3c f866 2f3d 8e42 ec3d
00000110: 8c7e dabd 90c8 a93d 65b6 a93d e372 0dbd
00000120: 4a44 333d f800 63bd 6067 4b3c 637f ed3d
00000130: 2ddd f7bd 8823 bc3d def6 b53d 5e6b a2bd
00000140: 90ff 853d 2c78 31bd cec1 8cbd cfbc 853d
00000150: 1972 37bd dee4 8dbd 11a6 883b caf5 17bd
00000160: f25d e1bd cb0d 9cbc b566 643d 03a6 803d
00000170: a3e5 c53b e320 d73d bc57 6a3d e655 73bc
00000180: acee 01bd 1fb1 723d ead9 27bd 80e0 0bbd
00000190: ad5d ec3d db86 273d e747 953d f543 c23d
000001a0: f9d2 b83d 7fd7 033c 4916 c7bd 5851 0cbd
000001b0: 8c1b b33d 8936 863d a34d 3e3c 70ec f83d
000001c0: 000f 3fbd 8dc1 dbbd 9ab1 8bbd 2cca 563c
000001d0: f68a df3c 98e0 38bd 885e f4bd b7cc dd3d
000001e0: ae60 a03c bf22 973d de9c 8f3d f9f0 c4bd
000001f0: 4ab3 d0bd 3b89 aebb d406 ccbd c50c 663d
00000200: 75b8 c23d ba13 d2bc f061 fb3c c305 843b
00000210: 0f55 483c 4b61 22bd dae2 963d 98ce be3d
00000220: 62f6 a73d 54a6 d6bd 1262 b0bc 164b c8bd
00000230: 4d49 b1bd 7cf7 f63d fe90 d63d efec 903c
00000240: ec6b e43d 4b7c dcbc a1ab b4bd 6fbf c7bd
00000250: 5407 d3bb bd8a d1bd c7c6 263c f950 0d3c
00000260: f987 e4bd ae20 2fbd 46e6 913d dfc4 ee3d
00000270: b39a b9bc 54a7 9a3c 5f05 85bc 7939 5cbd
00000280: 9e3f cd3d 9c8a 523d b096 abbd 829c 07bb
00000290: 4c7b 74bd 5ada 443d a976 953d 45c6 f73d
000002a0: a769 b7bd 31e2 843c 5f67 043e 8d11 cd3d
000002b0: b049 b6bd 7d38 92bd 79db 65bd e77c 043c
000002c0: 8bf5 363d 501d a6bd e6b3 98bd 2f25 c6bd
000002d0: 3724 da3c be04 96bd f987 95bc 4965 aabc
000002e0: 5371 a6bd 8d11 3d3d c0c4 c83d b8fb d53c
000002f0: 778e 863d f86e 773d 7a76 3f3d 87d5 d9bd
00000300: a6dc 9d3d 795a a33d 2980 2fbd 45be a63d
00000310: 06ac d33d 0f72 41bd cf83 4cbd 8ddf cd3d
00000320: e91b c8bd 02fb debb 81dd a5bd bfd6 b63d
00000330: b73b 8dbd 6678 59bc 79d9 cebd af07 a03d
00000340: f003 e9bc 883f d8bd 7eec a5bd 1776 143c
00000350: 19ef 583c 3653 d03d b92f 1dbd 0386 ffbd
00000360: 7b5b 06bd cd42 9ebc 0eb3 69bd 26c9 393d
00000370: 5450 923d a9cc 30bd 92f3 773d 89c0 e4bd
00000380: 58cd ebbc 3079 e6bd 2b13 213d 7040 e33d
00000390: 1668 f43c a467 4fbd 9c23 d43d 770e 26bc
000003a0: edc7 9b3d e54d 65bc ab7b c6bd 3c3f 593d
000003b0: 56e3 29bd 28c5 87bd 08f1 8e3d ecf7 50bd
000003c0: 47c5 a33d 51a2 6d3d ca7e bfbd d382 5b3d
000003d0: c413 92bd b8aa 1bbd 1588 bfbd ef4e abbd
000003e0: e728 f8ba 2420 dd3d ee1a 6abc e37f ecbd
000003f0: 0733 b8bc 2f25 f4bd 0ad0 c5bd 3aa2 b23c
-0.08292922 0.033232458 0.0892536 -0.03031743 0.11395378 0.066112116 -0.08120399 -0.04392004
0.059866738 -0.079734586 0.019125842 0.10726122 -0.06298721 0.02565057 0.006899918 0.037855003
-0.06454083 0.08588511 -0.07603427 -0.07638512 0.11737786 -0.0024254315 0.09313904 -0.09098184
0.0320671 0.020828739 -0.07078069 -0.06199579 0.037792046 0.048585616 -0.052295543 0.0012760652
0.022581616 -0.10175353 -0.04463867 0.026412 -0.102561064 0.063914225 -0.030033948 0.004361837
0.07553624 -0.008503133 -0.07318226 0.051139392 -0.06712131 0.11383527 -0.06525711 0.09667508
-0.013131178 0.0080359625 -0.0037168444 0.08179231 -0.054645285 0.12919316 0.026360566 0.051622126
0.0916986 -0.037799243 0.10809176 0.08571837 -0.04493706 -0.08749594 -0.06019747 0.032948144
0.0077054515 0.027263662 0.042822808 0.11536132 -0.10668668 0.082902074 0.08286742 -0.034533393
0.043766297 -0.055420846 0.012414783 0.11596563 -0.12102733 0.091864645 0.08884977 -0.07930635
0.06542885 -0.043327495 -0.06872903 0.06530153 -0.044786546 -0.069284186 0.0041701873 -0.037099637
-0.11004247 -0.019049546 0.05576201 0.06281664 0.0060393377 0.105043195 0.057212576 -0.014852023
-0.031721756 0.059250947 -0.040979303 -0.034149647 0.11541305 0.040900093 0.07289105 0.09485618
0.09024615 0.008046984 -0.097210474 -0.034257263 0.087454885 0.065533705 0.01161519 0.12154472
-0.046645164 -0.10730276 -0.06820984 0.013109725 0.027287941 -0.045136064 -0.11932093 0.10830062
0.01957735 0.07379674 0.07012342 -0.096162744 -0.10190447 -0.0053264177 -0.0996224 0.05616452
0.09507839 -0.025644172 0.030686349 0.004029007 0.012227311 -0.039643567 0.07367487 0.093167484
0.08201291 -0.10480943 -0.021531139 -0.097799465 -0.08656559 0.12058923 0.10476874 0.017691104
0.11153397 -0.026914736 -0.08821798 -0.0975331 -0.0064400826 -0.1023154 0.010179228 0.008625262
-0.11158747 -0.042755775 0.07123999 0.11658644 -0.022656774 0.018878616 -0.016237913 -0.053765748
0.100219 0.05140172 -0.08378351 -0.002069265 -0.059687898 0.0480598 0.07298023 0.12098364
-0.089556985 0.016221138 0.12930058 0.10013113 -0.089007735 -0.071396805 -0.05611751 0.00808642
0.04466776 -0.0811106 -0.07456188 -0.09675061 0.026628597 -0.07325123 -0.018253313 -0.02080025
-0.08127084 0.046159316 0.09803152 0.026121005 0.06570142 0.060408562 0.046743847 -0.1063643
0.07708101 0.07976241 -0.042846832 0.0814176 0.10335545 -0.047227915 -0.04993039 0.100524046
-0.097709484 -0.006804825 -0.08098889 0.08927678 -0.06896155 -0.013273334 -0.10100073 0.078139655
-0.02844426 -0.105589926 -0.08101748 0.009061358 0.013240599 0.10172121 -0.03837559 -0.124767326
-0.032802086 -0.019318962 -0.057055525 0.045357846 0.071442276 -0.04316393 0.06053502 -0.11169536
-0.028784439 -0.112535834 0.03932492 0.11096275 0.029834788 -0.05063595 0.103583544 -0.010135285
0.07606492 -0.013995622 -0.096915565 0.05303882 -0.04147657 -0.066294014 0.06979567 -0.051017687
0.07996612 0.058016125 -0.09350355 0.05359156 -0.07132676 -0.038004607 -0.093521275 -0.08364665
-0.0018933088 0.10797146 -0.014288647 -0.1154783 -0.02248527 -0.11921155 -0.09658821 0.021805871

lin5.bias f4 [16]
00000000: cd00 c93d 237e 52bb aabc c7bc 835f 653c
00000010: c4b1 333d 24e2 ef3c 63ce 2a3b f058 0bbd
00000020: 8c37 723d b9e6 53bc 380b a4bd 06d4 b23c
00000030: ba01 933d b791 c33c 02aa f8bb c8fe c73c
0.09814606 -0.003211864 -0.024381954 0.013999823 0.043870702 0.029282637 0.0026062957 -0.034020364
0.059135005 -0.012933427 -0.08009952 0.021829616 0.07178064 0.023873193 -0.007588626 0.024413481
