src/virtuose_teleoperation/network_controller/trained_policy_MLP/Grasp_norm_BC_shift_thumb_lifter_AHEE_epoch_55.pth (torch, 456199 bytes, 10 tensors)

lin1.weight f4 [256, 20]
000000 18 f7 1a be 20 b7 1d 3e 2d 0f a8 3e a4 bc 65 be
       -0.15133321 0.15401888 0.32824078 -0.22435242
000010 3f 2c 1e 3e 5d f2 31 3c 7a 95 1f 3e b7 79 86 be
       0.15446566 0.010861007 0.15584365 -0.26264736
000020 3d 0b 81 3e fc dc 32 3e 37 6f ba bd 1c 1f b8 3d
       0.25203887 0.17467111 -0.09103244 0.08990309
000030 fe 3a 77 bd a9 7c 17 be 21 da 89 3e b3 10 5b 3d
       -0.060358994 -0.14793648 0.26924232 0.053482722
000040 c2 46 ee bd 35 58 06 bd fd e7 fb bd 96 f4 03 be
       -0.1163459 -0.032798965 -0.12300108 -0.12886271
000050 ea a4 5e be 2a e7 45 3e 07 c8 6e 3d 55 80 07 be
       -0.21742597 0.19326463 0.05829623 -0.13232549
000060 13 45 1a 3e 3d a1 dc bc 09 9a f2 3d ce 35 fd 3d
       0.15065412 -0.026932353 0.11845786 0.12363778
000070 9f 0d af 3d c1 2c e6 3d 9b 94 81 bb 4f 80 f0 3d
       0.0854752 0.11239005 -0.0039544827 0.11743223
000080 23 f8 58 be 5c 4a 85 3d 53 bf 65 3e 1f 9c 9a bd
       -0.21188407 0.065083236 0.22436266 -0.07549309
000090 ba fa 53 be 26 2a ec bd c3 10 e2 bd f2 0e d3 3a
       -0.20701113 -0.11531477 -0.11038353 0.0016102477
0000a0 5d c9 7b be 90 6e 1d 3c ab 14 22 be 4e 12 a0 3b
       -0.24588533 0.00960888 -0.15828197 0.0048849946
0000b0 71 71 f9 bd 83 42 a8 3d 8f 7f 93 3d 88 75 6e 3d
       -0.1217984 0.08215811 0.07202064 0.058217555
0000c0 de f5 64 be c0 a0 9d bd 49 16 0a 3e 68 4a a4 bd
       -0.22359416 -0.07696676 0.13485064 -0.08022004
0000d0 07 4f 1c 3e 2e 86 66 3e a4 17 87 be 42 54 16 3e
       0.15264522 0.22512123 -0.26385224 0.1468058
0000e0 36 7b 55 be a1 84 3b 3e ed 81 27 3e f2 29 0e 3e
       -0.20847782 0.18312313 0.16358157 0.13883188
0000f0 f0 46 29 be 02 6f 9d bc 80 b5 85 be 90 fd a7 3e
       -0.16530967 -0.019217972 -0.26115036 0.3281064
000100 ce 90 47 be 67 f6 ae be a3 92 c2 bd 49 52 db 3e
       -0.19488832 -0.34172365 -0.09500625 0.42836216
000110 9a af 5e 3e 4e c0 5b 3e 9b 3e 83 bd 82 33 2d 3d
       0.21746674 0.21460077 -0.064084254 0.04228545
000120 06 95 26 3e 8c ca b0 be e7 15 e9 3e ec e5 ee bd
       0.16267785 -0.3452953 0.45524523 -0.11664948
000130 50 72 96 bd 7d 0d 7d bd b7 fd 05 3e 36 1a 56 be
       -0.07346022 -0.06178044 0.13085066 -0.20908436
000140 e6 52 05 3e 3e 1b 60 be 23 ed 47 be 06 58 1a 3b
       0.13019904 -0.21885392 -0.19524054 0.0023551001
000150 0e 1a 18 3e f1 f1 7b be d1 3c 88 3c e7 e5 e0 3d
       0.14853689 -0.24604012 0.016630562 0.109813504
000160 ff de 18 be 8b de fb bd f1 d6 15 be 5c 7c 4d 3e
       -0.14928816 -0.12298306 -0.14632775 0.2006697
000170 3b 89 61 3d 48 43 f6 3d 48 61 e8 3c 81 e1 28 be
       0.055062514 0.12024552 0.0283667 -0.16492273
000180 13 0d 99 b9 5e 9a 3e 3e e2 df 28 be 43 e1 36 bd
       -0.00029192175 0.18613574 -0.16491655 -0.04464842
000190 a8 28 bc 3c fe ea 54 3e ae 7d d1 bd e4 1c 34 bd
       0.022968605 0.20792767 -0.102290496 -0.043972865
0001a0 05 7e 37 be 22 ad 47 3d ea 9b 20 3e 6d a6 13 be
       -0.17919166 0.048749097 0.15684476 -0.14418955
0001b0 9f aa 7d bd 45 79 c8 bc fd 86 cf bd a9 90 fe 3c
       -0.061930295 -0.024471888 -0.10133169 0.031074839
0001c0 63 e9 bc 3d 0c 18 9f 3e 1a ec 61 bf 45 9d 99 bd
       0.092242025 0.31073034 -0.8825089 -0.075007
0001d0 f3 12 24 be a4 5c 0c 3d 16 ea 2e be 29 49 3f be
       -0.16022854 0.034268036 -0.17081484 -0.18680252
0001e0 ea 04 c5 3d 00 51 10 be 22 b8 4a 3e a9 1b f2 3d
       0.09620078 -0.14093399 0.19796804 0.11821682
0001f0 89 df ef 3d d9 f4 84 be 8a f7 68 3d 09 60 95 3e
       0.11712558 -0.25968054 0.056876697 0.29174832
000200 f5 94 51 3e 23 6a 12 be 41 8f 16 3d 1c cb 5d be
       0.20466979 -0.142983 0.03675771 -0.21659511
000210 85 f3 81 bd a0 73 03 be d8 11 29 be 7a 12 06 be
       -0.06345276 -0.12837076 -0.16510713 -0.13092986
000220 35 25 ae 3d 0d 3d 12 3e 89 26 e5 bd 77 22 5d bd
       0.085031904 0.14281102 -0.111889906 -0.053987946
000230 9f 07 61 38 98 20 52 be 60 c6 fd 3d 68 6d 1a 3c
       5.3651278e-05 -0.20520246 0.12391353 0.009425499
000240 dc c4 08 be 59 46 ce 3d 13 21 80 3e f3 e3 60 bc
       -0.13356346 0.100720115 0.25025234 -0.013726222
000250 23 1b b6 3e a9 6d 76 be 4c d8 33 be 51 bb 9f bc
       0.3556758 -0.2406527 -0.1756298 -0.0194985
000260 62 9f be bd cb f3 2e be a2 59 9b bd 5f cc 16 3e
       -0.093077436 -0.17085187 -0.075854555 0.14726399
000270 ca 47 dd 3d d7 50 17 3e 1d 03 3e 3d e2 20 ba bc
       0.10804708 0.14776932 0.046389688 -0.022720758
000280 d2 67 86 3d 1c 66 cf bd 29 5b 60 be 56 06 7b bd
       0.06562771 -0.10126898 -0.21909775 -0.06128534
000290 61 0d 5d bd 68 b1 d7 3d 46 55 1d bd 91 87 3b be
       -0.053967837 0.105318844 -0.0384114 -0.18313433
0002a0 4b a7 09 3e 7f 41 b9 3c 4a 96 73 be 55 dc 91 bc
       0.13442723 0.022614239 -0.237878 -0.017805258
0002b0 10 d6 88 3d 09 76 08 3e 86 1e 91 be c7 a3 93 be
       0.06681454 0.13326277 -0.283436 -0.2883589
0002c0 d6 6f 17 bc 71 2f 36 3e 56 d1 57 be fe 67 ea bd
       -0.009242972 0.17791535 -0.21075949 -0.11445616
0002d0 8b 95 84 be 80 f5 80 be 70 85 6f be a7 bc 75 3e
       -0.25895342 -0.25187302 -0.23390746 0.23997746
0002e0 29 aa a1 be 92 f0 8d be 56 7d 08 be a8 a6 71 bd
       -0.31575134 -0.27722603 -0.13329062 -0.058996826
0002f0 12 29 16 bf b4 6f cb 3c 78 ef 2e be 07 4e 66 3e
       -0.5865642 0.024833538 -0.17083538 0.22490703
000300 25 05 e8 bd 63 6b 3c bf 87 c4 ba bf 61 ea 8b 3e
       -0.11329106 -0.7360136 -1.4591225 0.27327254
000310 58 fe ff bd 26 6a 99 3c a1 a2 c5 bd 02 80 49 3d
       -0.12499684 0.018727373 -0.096501596 0.049194343
000320 b2 ce e7 bd 03 15 38 3e f4 7b 0d 3e 21 93 b2 be
       -0.11318721 0.17976765 0.13816816 -0.34877875
000330 e7 dd 3e be 96 e4 b5 3d 23 57 99 bd 5f a1 9f bd
       -0.18639337 0.0888149 -0.07487323 -0.07794451
000340 aa 02 92 3d 9e 7b 81 3e 01 6b 82 be 23 50 eb bd
       0.071294144 0.25289625 -0.25472263 -0.11489894
000350 01 67 1b bd 0d 32 09 3e 49 86 10 be 16 1f 2b 3d
       -0.03794003 0.13397999 -0.14113726 0.041777693
000360 5a f3 fa bc 45 c2 2f be df c2 be 3d e6 ce 09 be
       -0.030633617 -0.17163952 0.093145125 -0.13457832
000370 b5 ad 33 be 2d 7b d4 3d 13 29 1b be 15 30 4b bc
       -0.17546733 0.103750564 -0.15152387 -0.0124016
000380 72 d9 5d 3e dc a1 0f 3d 30 02 7a be ad 19 46 3d
       0.2166498 0.03506647 -0.24414897 0.04836433
000390 1d 78 c0 be df bb 1d 3e 2b 45 83 3c 5f 3b 30 3e
       -0.3759164 0.15403698 0.016024193 0.17210148
0003a0 e7 5b 2e be b0 1a 17 3d e4 66 7f 3d ea f7 3d be
       -0.17027245 0.036890686 0.062353984 -0.18551603
0003b0 65 5c 3e 3d 19 e9 19 3e 6c d6 dd 3b 23 f0 e6 bd
       0.046474833 0.15030326 0.006769946 -0.11276271
0003c0 98 7d 3c 3e 14 3a 03 bd f8 27 5b bd 75 62 18 bd
       0.18407285 -0.03203781 -0.053504914 -0.03720327
0003d0 cb 16 0a 3e a8 40 67 3e 1d c7 ca bd 6b bd bc 3d
       0.13485257 0.22583258 -0.09901259 0.09215816
0003e0 6f 13 d9 bd bd 10 33 be 3e 78 e5 bd 9f f0 59 3e
       -0.1059941 -0.17486854 -0.11204575 0.21283196
0003f0 3e 43 c2 3c cb f9 5f be 86 e9 0d 3e 64 37 d5 bd
       0.023713704 -0.21872632 0.13858613 -0.104109555

lin1.bias f4 [256]
000000 9b 7a 93 3b 99 47 f5 3d f5 1a 0c bd 8c 7d 28 be
       0.0045006997 0.11976547 -0.034205396 -0.16454142
000010 36 2b 97 bd 25 c4 29 be d0 b4 14 bd db c5 b1 3c
       -0.07381289 -0.1657873 -0.03630525 0.02170079
000020 1c 13 14 3d 5c 86 95 be 13 1c 8e bd b0 7d 9a bd
       0.036151037 -0.2920407 -0.069389485 -0.07543504
000030 65 d4 f1 3d 77 2d 15 3e 1b 3d 33 3e 60 9e 3f 3e
       0.11808089 0.14568125 0.17503779 0.18712759
000040 80 76 f7 3d 01 3d 07 3e 30 cb 9a bd da de 1f 3e
       0.12083149 0.13206865 -0.07558286 0.15612355
000050 cd c0 54 be 38 8f 9a 3d a2 33 a9 3d e9 47 1d 3e
       -0.20776673 0.07546848 0.08261801 0.15359463
000060 f5 a7 7f 3d dc 8a b3 bd e9 74 b7 3c 74 6a 77 bd
       0.062416036 -0.0876672 0.022394614 -0.060404256
000070 8d 75 bf bd a8 08 03 3e f2 0f 38 3e a8 f1 7c be
       -0.09348593 0.12796271 0.17974833 -0.2470156
000080 63 ed 91 3d 96 92 29 3e 69 00 5c 3e 56 a8 07 be
       0.07125356 0.16559824 0.21484531 -0.13247809
000090 68 5b 78 be 2a 15 44 be 50 ed bc bd b3 d1 fe bd
       -0.24253619 -0.19148698 -0.09224951 -0.12442341
0000a0 e8 78 19 bf f8 bc ed 3d 9b 1c 51 be 3f 10 c5 3d
       -0.59950113 0.116083086 -0.20421068 0.09622239
0000b0 77 5d 48 bc f4 a8 b3 bd af ae 31 bd 82 dc 32 3e
       -0.012229315 -0.087724596 -0.043379482 0.1746693
0000c0 70 94 1a 3d 59 f8 1c 3c 11 fd 3c be db 97 2e 3e
       0.037739217 0.009580695 -0.18455912 0.17050116
0000d0 2a 17 28 bd 6f b8 d9 bd 3f 70 03 be 93 ab 8d be
       -0.041037716 -0.10630881 -0.12835787 -0.27669963
0000e0 ff e3 81 3e 75 00 ae 3d a1 a9 8a bd 8c 12 45 be
       0.2536926 0.08496181 -0.067706354 -0.19245356
0000f0 af 85 1d be e1 9c 68 3d 80 dc f8 3d 7f ce 26 3d
       -0.15383027 0.056790236 0.12151432 0.040724274
000100 96 f4 b7 3d 9c 07 34 3e 0a b3 3c 3e 77 8b 0c be
       0.08982198 0.17581028 0.18427673 -0.13725077
000110 49 da 11 3e 82 91 0f 3e 19 38 1d be 54 b7 38 3e
       0.14243425 0.1402035 -0.15353431 0.18038684
000120 30 85 37 bd aa 28 85 be 46 b0 a8 bd e9 76 2a 3b
       -0.044804752 -0.26007587 -0.082367465 0.0026010817
000130 9a 81 e8 bd 0c 14 be be f4 b9 81 3d 23 85 fa bd
       -0.113528445 -0.3712467 0.06334296 -0.12232425
000140 7e 95 7c 3d f8 a4 e7 3d 97 4c fe bd f9 10 5b 3d
       0.061666004 0.11310762 -0.12416952 0.053482983
000150 8c fe 73 be d5 14 05 bd 89 ca 24 be a6 b4 40 3e
       -0.2382757 -0.03249057 -0.16092886 0.18818912
000160 68 71 c3 3c 4e ab 84 bd 18 88 99 be 0c ea f5 bd
       0.023857787 -0.06477986 -0.29986644 -0.120075315
000170 05 e2 7f bb 7c 1f 94 bb 12 06 0c be 2b 6f 62 3d
       -0.003904463 -0.004520355 -0.1367419 0.0552818
000180 30 5c 21 3e 2f d9 25 3e 45 51 36 be 8c a2 ff bd
       0.15757823 0.1619613 -0.1780444 -0.12482175
000190 23 1b 29 be 38 43 41 3e a1 1f ce bd 90 ef 52 be
       -0.16514258 0.18873298 -0.100646265 -0.20599198
0001a0 61 83 2e be a6 73 0d bf a8 33 58 be 0e 68 c1 bd
       -0.17042305 -0.5525459 -0.21113455 -0.09443675
0001b0 fd 74 48 bb 48 52 84 bb c3 f7 f2 3b 5d 59 9c 3d
       -0.0030587309 -0.004038129 0.0074147894 0.07634232
0001c0 d8 0c 4a be ac 22 27 be 8a d9 05 be a1 cc 92 3d
       -0.19731462 -0.1632182 -0.13071266 0.07167936
0001d0 c2 ed 82 3d 23 35 0a 3e c2 fe c7 be 42 56 17 be
       0.06393005 0.13496833 -0.39061552 -0.14778998
0001e0 32 20 d3 3d 45 ec 6f be df 52 bc bd 27 18 28 be
       0.10308875 -0.23429973 -0.09195494 -0.16415463
0001f0 db b9 db 3d 3c 5d 5d 3c 31 c6 f9 bc 5d b9 93 be
       0.107288085 0.013510998 -0.030490013 -0.28852358
000200 fa 1f 48 be 42 fb de bd f7 ed 49 bd e9 32 50 bd
       -0.19543448 -0.108877674 -0.049299207 -0.0508298
000210 dc b8 ce 3c 56 e3 12 be 70 c0 59 be 54 1f 45 be
       0.025234632 -0.14344534 -0.21264815 -0.19250232
000220 4b c2 5a be e6 7f af ba a1 66 65 3d ac d9 49 be
       -0.2136318 -0.0013389557 0.056006078 -0.19711941
000230 c3 5b 62 be 39 e2 64 be eb 7d 0b 3e 82 ef 22 bd
       -0.22105317 -0.22351922 0.13622253 -0.039779194
000240 6a 22 41 3e a3 de f9 bd 6a 43 3c be b5 5b 7c be
       0.18860784 -0.12200668 -0.18385091 -0.24644358
000250 18 5d fe 3c 22 9c 97 bd 55 70 15 bb 23 97 56 bd
       0.03105025 -0.07402827 -0.002280255 -0.05239023
000260 01 8a 4e be 55 c3 45 3e 68 64 5e 3e 9f f0 39 bd
       -0.20169832 0.19312795 0.2171799 -0.04539549
000270 51 0a 18 3e 29 b5 2b 3e 53 1d 86 bb 99 b7 f3 bd
       0.14847685 0.16768326 -0.004092851 -0.11900253
000280 4a d3 34 bd 93 c1 30 be 17 29 c5 bc 93 6a 8d bd
       -0.044146813 -0.17261343 -0.024067445 -0.06905093
000290 0e c2 d9 bd 61 e7 8c bd 97 84 38 3e 32 bf 9f bd
       -0.10632716 -0.068800695 0.18019329 -0.078001395
0002a0 d6 23 c7 bd ca ee 4f 3e 4a a3 29 bd 6a db 0d 3e
       -0.09723632 0.20305935 -0.04141549 0.13853231
0002b0 09 17 77 be 66 1f ef 3d 1d bc d5 bd 95 d5 ae bd
       -0.24129881 0.11675911 -0.104362704 -0.08536831
0002c0 7b 1c 24 3d e7 9c 50 be 10 85 a0 3d b9 9e f1 bc
       0.040066224 -0.20372353 0.0783788 -0.02949463
0002d0 e1 84 bf bd 85 22 a6 be 19 52 4a be a3 d7 7f bd
       -0.093515165 -0.3244821 -0.1975788 -0.062461507
0002e0 74 81 ce bd 4d 2c ae bd 47 15 20 be dc c5 16 3e
       -0.10083285 -0.085045435 -0.15633117 0.14723915
0002f0 5f 1a 14 be 70 1f 32 be e7 18 f4 bd 48 13 2b 3e
       -0.14463185 -0.17394805 -0.11918812 0.16706574
000300 fb b8 73 3d 5a f3 c2 3e eb 7b 57 be e3 b4 9b 3d
       0.059502583 0.38076288 -0.21043365 0.07602861
000310 54 7f 4b 3d 6d 13 b9 3d d3 e4 5a 3b 3f e6 2f be
       0.049681976 0.09036908 0.003340055 -0.17177676
000320 0e 68 89 3e 0f 24 fe 3d 38 36 8a be ff 06 05 bc
       0.268372 0.124092214 -0.2699449 -0.008119344
000330 4a ec 0b 3d 8c 76 d8 3d 17 5c f1 bc a7 64 ce bd
       0.03416089 0.10569486 -0.029462857 -0.10077792
000340 04 0d 10 3d 3e 37 af be ea d0 b5 bd 6b 8c 13 be
       0.035168663 -0.34221834 -0.08877738 -0.14409034
000350 0c 37 f7 bd 99 ed b2 3d c8 05 2b 3d f8 29 56 be
       -0.12071046 0.087367244 0.04175356 -0.20914447
000360 a7 8b 39 3e c6 ef 1f 3e a8 59 96 bd e7 7f 1d bc
       0.1811968 0.1561881 -0.07341319 -0.009613014
000370 76 61 46 be 19 5a c7 3d 2d 08 d8 bc 3e f6 2a be
       -0.19373116 0.09733982 -0.026371086 -0.16695496
000380 3e b6 08 bd 27 06 46 3e 4c 23 9f be ca f8 61 bd
       -0.033376925 0.19338284 -0.31081617 -0.055168904
000390 99 29 37 3e f6 85 b7 3d e2 e0 8d 3b f4 a3 21 3e
       0.17886962 0.08961098 0.0043297866 0.157852
0003a0 5a d1 92 3c 7c 76 db bc 0e 6a 8d bd 67 25 8b 3d
       0.017922092 -0.026789896 -0.06904994 0.06794243
0003b0 f1 e2 24 bd ef 71 b0 3d 1c 12 0f 3e b7 dd e5 bd
       -0.04025549 0.08615481 0.13971752 -0.112239294
0003c0 e0 15 6d 3d ad 59 4a be cd c1 1b be ec 71 ad 3b
       0.05788219 -0.19760771 -0.15210648 0.0052931216
0003d0 0d 9a 80 be d0 d7 a7 bd 94 7b 5b be e6 38 e8 3c
       -0.2511753 -0.0819546 -0.2143386 0.028347444
0003e0 ba 40 01 be 82 b2 65 3b 15 1d d0 3d 6c bb c8 bf
       -0.12622347 0.0035049026 0.10161797 -1.5682197
0003f0 0e 0a 71 be 7d 64 58 3e 06 7a b1 3d 13 19 62 bc
       -0.23538992 0.21132083 0.08665852 -0.0137999235

lin2.weight f4 [256, 256]
000000 cb db 42 3c df 4d da 3c 8e e5 83 bd 68 d0 98 bc
       0.011893223 0.02664846 -0.064402685 -0.018654063
000010 e4 f3 2a bd 45 92 7a 3c 80 48 98 ba 02 d3 23 3d
       -0.0417365 0.015293662 -0.0011618286 0.039996155
000020 fc 75 31 bd 0c c4 95 bc 35 c3 a7 3b 40 7e f6 3c
       -0.04332541 -0.018281959 0.005119706 0.030089498
000030 be f8 d0 3c 4d 81 6a bd 44 62 5d bd ae 25 4c 3d
       0.025509235 -0.057252217 -0.05404879 0.04984062
000040 8c d0 0b bc 69 12 22 bd c2 16 13 3d 1f 9c 6b bd
       -0.008533608 -0.03956834 0.035910375 -0.057521936
000050 6c 9e 8a 3c 7e 0d 64 bd c6 fe 14 3d d1 18 81 bd
       0.016921245 -0.05567693 0.036375783 -0.063035615
000060 f8 3a e2 3c 86 d5 50 bd 09 9c 3b bd cd a9 34 3c
       0.02761601 -0.05098488 -0.045803104 0.011026812
000070 a6 c4 40 bd fa c9 03 bd ec ee 13 bd 38 b0 65 3c
       -0.04706254 -0.03217504 -0.036116526 0.014019065
000080 4b b9 54 3d a0 3f 39 bd 55 2e 16 3d 38 53 b7 bc
       0.05193452 -0.045226693 0.03666528 -0.022378549
000090 e6 47 71 bd a8 8e 02 bc aa 35 61 3d 62 e9 57 bd
       -0.05890646 -0.007968582 0.05498282 -0.052712806
0000a0 d9 c7 4e 3d 34 b5 be 3a 73 eb dd 3c 64 65 f7 bc
       0.05048356 0.0014549852 0.02708981 -0.030199714
0000b0 30 91 88 bc 51 fa 55 bd 7c 95 37 3d 07 40 06 3d
       -0.016670793 -0.052240673 0.044820294 0.032775905
0000c0 90 00 4d bd 3c c2 41 bd 40 d6 1d bb 60 07 bf 3b
       -0.050049365 -0.047304377 -0.0024084002 0.0058297366
0000d0 16 12 26 bd ea 8a c1 bc 98 a7 24 3c 16 d5 02 bd
       -0.04054459 -0.02362581 0.010049723 -0.031941496
0000e0 14 77 1d bd 28 1d 33 bc 68 84 31 bc 98 ee 38 3c
       -0.03844364 -0.010932244 -0.010834791 0.011287354
0000f0 b6 8a 31 bd e2 75 2b 3d 11 05 4c bc 30 6f 31 3d
       -0.043345176 0.04186047 -0.01245238 0.043318927
000100 3b 11 d5 bc ba e9 6d 3d 70 ee f3 bc 80 75 19 bd
       -0.026009193 0.058084227 -0.029776782 -0.037465572
000110 5d a2 4e bd 5f ea 96 bb 32 5b 07 3d fb 24 2f bd
       -0.05044781 -0.004605576 0.033045955 -0.042759877
000120 f4 07 0e bd 60 8a 0b bb d0 a5 58 bd 34 56 66 bd
       -0.034675553 -0.0021292195 -0.052892506 -0.056234553
000130 b4 15 ae bc 00 26 5a 3c e8 b9 ef 3c 48 c4 8a bd
       -0.021250583 0.013314724 0.029263452 -0.06775719
000140 fe 20 72 3d 6a 00 8e bc c8 a5 5f bd df df 38 bd
       0.059113495 -0.017334182 -0.05460146 -0.045135375
000150 3c 03 fa bc 68 a7 48 bd 1f 27 7c bd 82 dd be 3b
       -0.03051912 -0.048987776 -0.061560746 0.0058247456
000160 52 7e 62 ba 70 65 e0 3c 84 0a f7 3c ac 38 a5 3c
       -0.0008640039 0.02739212 0.030156381 0.020168625
000170 e0 3c 99 bc 24 b4 ee bc 0c 17 85 bc ed 1d 2c 3d
       -0.018705785 -0.029138632 -0.016246341 0.042020727
000180 8f 19 89 3b 30 1a 05 3c dd 85 bb 3c e0 76 6f 3c
       0.004183955 0.008123919 0.02289098 0.014615744
000190 f0 09 64 3c 63 86 f5 bc 20 10 5f bc e0 bd c2 bb
       0.013918385 -0.029971307 -0.013614684 -0.005943045
0001a0 30 65 26 3d 54 f3 70 bd 18 a1 36 3c 90 b8 50 3c
       0.040623844 -0.058825806 0.011146806 0.012739316
0001b0 5c 61 4b 3c 88 3d 87 bd 3b d4 94 bc 62 8a 61 bd
       0.012413349 -0.06603533 -0.018167606 -0.055063613
0001c0 00 0a 78 bd a7 08 a7 bc 93 c2 e2 b7 40 f1 23 3d
       -0.06055641 -0.020389868 -2.7031905e-05 0.040024996
0001d0 2f 0d 2b 3c f7 ee 3f 3d 98 74 28 3c 7c cc 05 3d
       0.010440155 0.046858754 0.010281704 0.032665715
0001e0 1f f2 58 bd bc d7 ab bc c5 81 2f 3d 3c b5 3e bd
       -0.05296528 -0.020976894 0.042848367 -0.046559557
0001f0 d8 08 fb bc 80 30 61 bd 59 45 18 bd ec ac fa 3c
       -0.030643865 -0.054977894 -0.03717551 0.030600034
000200 b2 bf 5e 3d da 4b 21 3d c8 57 32 bd 28 b8 3d 3d
       0.054382034 0.03937898 -0.043540746 0.046318203
000210 f4 3a 84 bd 70 c9 95 3c 0d fa b0 bc 57 46 7e bd
       -0.06456557 0.01828453 -0.021603609 -0.0620788
000220 e8 08 90 bb 40 99 57 bd 9e 8b 45 3d 7d 5a d5 bc
       -0.004395593 -0.052636385 0.048228852 -0.026044125
000230 35 01 4c 3d 0c cc da bb 97 5f 02 3b c6 62 70 bd
       0.04980584 -0.0066771563 0.0019893402 -0.058687948
000240 b6 bb 3f 3c 34 b3 cb bc 30 5c 17 bd ec e4 ea 3c
       0.011702469 -0.024865724 -0.03695315 0.028673612
000250 68 8d 19 3d e0 1c a2 3c 7e 10 0b bd b0 a6 03 3c
       0.03748837 0.01978916 -0.033951275 0.008035347
000260 c0 86 b9 3b b0 96 1c bc 48 ee 53 3d ee c0 02 3d
       0.0056618154 -0.009557411 0.051740915 0.031922273
000270 1b 86 60 3b 68 cd 4c 3d d5 dd 2b bd 64 a4 6d bd
       0.003425962 0.05000058 -0.041959602 -0.058018103
000280 53 fd c4 bc 10 e9 51 3d bd d3 4e bd 3f 29 6d 3c
       -0.024046576 0.051247656 -0.050494898 0.014475166
000290 37 7f 31 3b 80 7c 75 bd 72 1b 29 bd 1c 35 b6 3c
       0.0027083883 -0.059933186 -0.04128594 0.022242121
0002a0 d6 85 f7 3b f6 1a 2d bd f4 99 2e 3d 62 a8 66 3d
       0.0075537963 -0.04226204 0.04262729 0.056312926
0002b0 60 64 0c bd fe c2 7f bd 44 6f 6f 3d 3f 42 33 bd
       -0.034275413 -0.06244182 0.05845572 -0.04376435
0002c0 80 6a b2 bc a0 e2 fe 3b c3 68 85 3c 68 4d da 3c
       -0.021779299 0.0077784806 0.016285306 0.026648238
0002d0 d8 a5 4b 3c a2 cf 3c bd a8 b3 86 3c 94 40 11 3d
       0.012429677 -0.04609645 0.016443089 0.035461977
0002e0 38 f7 d5 3c ec 38 72 bd e0 ca 06 3c c1 f1 96 bb
       0.02611886 -0.059136316 0.00822708 -0.004606456
0002f0 10 ed 9e bb 68 02 1f bc dc 32 da 3c e2 81 eb 3c
       -0.0048500374 -0.009705164 0.02663558 0.028748456
000300 8d 48 42 3d 9f 23 13 3d 18 d4 6a bc c6 1f 8d bc
       0.04743247 0.035922643 -0.014332794 -0.017227065
000310 1e 8c 2a 3d e4 91 22 bd 37 d9 69 bd e4 c9 94 3c
       0.041637532 -0.039689913 -0.057091918 0.018162675
000320 50 2d 41 bd ac a3 7c bd 38 a7 7e 3d a8 e4 32 bc
       -0.047162354 -0.061679527 0.06217119 -0.010918774
000330 7e 89 6e 3d e4 65 04 bd 84 f0 be bc 7c e9 0f 3d
       0.05823659 -0.032323733 -0.023308046 0.035134777
000340 c3 1d 5c bc 0e 60 3d 3d 02 60 74 3d 3c 73 8e bc
       -0.01343483 0.046234183 0.059661873 -0.017388932
000350 4e 60 12 3d 88 a8 57 3d 14 7b e5 bc 4a f9 4b 3d
       0.035736375 0.05265096 -0.02801279 0.049798287
000360 d8 c0 26 bd 85 c2 18 bd ec 84 ef 3c 44 4e 92 bc
       -0.040711254 -0.037294883 0.029238187 -0.017859586
000370 0f 86 28 3c 75 95 2b bd d8 fd 52 3c 64 b1 89 3c
       0.010285868 -0.04189058 0.012877904 0.01680822
000380 ed 26 a2 3c 63 d1 82 bd 0a 0d 03 bd 06 33 13 3d
       0.019793952 -0.063875936 -0.031994857 0.03593733
000390 63 9e 07 3d 62 73 29 3d 4d 52 eb 3b 80 2e e6 bc
       0.033110034 0.041369803 0.007181442 -0.028098345
0003a0 f3 94 f8 3b 43 71 35 bd 03 54 52 bd 90 88 93 3b
       0.0075861155 -0.044297468 -0.05134965 0.0045023635
0003b0 1a df e4 bc a0 89 ac bc 18 88 22 3d c2 1f 1c bd
       -0.027938414 -0.021061718 0.03968057 -0.038116224
0003c0 66 6b 2a 3d 9e 57 e2 bc 7d 42 0f 3d 60 9e f9 3b
       0.04160633 -0.02762967 0.034975518 0.0076177567
0003d0 b0 ba 36 bd 3c 33 c4 bc 44 4c 14 bd 98 12 de 3c
       -0.044611633 -0.023950212 -0.036205545 0.027108476
0003e0 10 f0 f4 bb 84 73 5e bd 62 58 94 3c 98 b5 73 bc
       -0.0074749067 -0.054309383 0.01810855 -0.014874838
0003f0 c1 f6 b2 3b c8 f0 b8 3c 28 fe 33 bd ee c6 0f bd
       0.0054615443 0.022575751 -0.043943554 -0.035101824

lin2.bias f4 [256]
000000 ca d0 b1 bb 44 07 36 bd e9 c3 58 3c fa eb 0e 3d
       -0.005426501 -0.044440523 0.013230302 0.034893014
000010 cb d8 b7 bc 51 e7 b7 bb e6 f4 91 3c 29 99 24 bd
       -0.022442242 -0.005612292 0.017816972 -0.040185127
000020 c1 18 98 3c 42 3e 0f 3d fd c2 b6 bb cd f4 4f 3c
       0.018566491 0.034971483 -0.0055774436 0.012692642
000030 11 50 ef bc 4d 22 8d bc d9 0f 5b bd 2a dd 0f 3d
       -0.029212983 -0.01722827 -0.05348191 0.035123028
000040 cd f6 aa bd ac 51 32 bd ea 18 8d bd b9 87 70 bc
       -0.08347855 -0.04353492 -0.068895176 -0.014680796
000050 54 fb 8a 3b 1e 53 4d bd 94 3b 89 bd 93 db f3 3b
       0.0042413864 -0.050128095 -0.06700817 0.007441947
000060 fd 5d 4a bd 8a 1d 28 bd c4 00 68 bd c0 22 bb 3b
       -0.04940604 -0.041043796 -0.056641355 0.0057109296
000070 40 ce b7 bc e7 6b d0 bc 4b 47 1b 3c 9f b4 60 3c
       -0.022437215 -0.025442077 0.009477447 0.013714938
000080 51 6d c7 3c 27 7b 8f 3b ed 58 1b 3d af 7c cd bc
       0.024344118 0.0043786946 0.037926603 -0.025083868
000090 b2 b8 11 3d a8 cf 23 bd 2f 74 65 bc 98 b1 bf bd
       0.03557653 -0.03999296 -0.014004751 -0.09360045
0000a0 db e5 99 3c a8 6d 56 bd c5 3c 24 3d b6 d4 30 bd
       0.018786361 -0.05235067 0.040097017 -0.043171607
0000b0 ce 1c 22 bc e0 c2 b7 bd 5c ab 46 bd f5 71 b6 bc
       -0.009894563 -0.08972716 -0.048503265 -0.022271136
0000c0 d6 de 5c 3c 9d 19 81 be a2 ec 5c 3d 30 85 32 bd
       0.013480863 -0.25214854 0.053936608 -0.04358405
0000d0 12 71 97 3c 95 48 b2 bc 15 22 82 3d a9 b4 1b 3d
       0.018486533 -0.021763125 0.06354157 0.038014088
0000e0 a5 37 a3 bc 9e 93 42 3c 8d c2 8b bd ea 3b 2f bb
       -0.019923994 0.011876015 -0.06824217 -0.0026738592
0000f0 ca cb 4a bd c0 32 e0 3d 19 46 ee bc 9c eb 4f 3c
       -0.049510755 0.1094718 -0.02908616 0.012690451
000100 36 9f 1e 3c 1f 0c 45 3d 9b f0 0f bd c4 49 80 bd
       0.0096815135 0.048107263 -0.03514157 -0.0626407
000110 3c 60 f7 3c f8 54 42 bd c3 3b 69 bd ae 11 f5 3d
       0.030197255 -0.047444314 -0.05694176 0.11966263
000120 07 d9 e4 bc ea 61 ca ba 74 bd 54 3c be f2 46 3c
       -0.027935518 -0.0015440558 0.012984622 0.012142835
000130 6e 40 8a 3b d3 4c 7f bd f3 92 bf bd 5e 56 a1 bc
       0.0042191064 -0.062329125 -0.093542 -0.019694503
000140 db c9 bb bd 03 1c 2c 3d e4 6b 88 3d 8e 44 1b bd
       -0.0916936 0.0420189 0.066612035 -0.037907176
000150 56 f8 f6 ba d7 01 76 bd 78 be 2d bd 32 e6 1d bd
       -0.001884232 -0.06006035 -0.042417973 -0.03854961
000160 33 52 1c 3d 4b 9e 1b bd d2 f9 59 bd 66 21 66 3d
       0.03816433 -0.037992757 -0.053216763 0.056184195
000170 e2 01 4c 3d 58 d6 92 3c df dd 3d 3d 41 2e 1e 3d
       0.049806483 0.017924473 0.04635417 0.03861833
000180 a3 c3 0e 3d f0 6a 8d bc 81 c6 da bc 5d 69 da 3d
       0.034854542 -0.017262906 -0.026705982 0.10664628
000190 11 33 0f bd 40 ad 54 3b ac f1 1c 3e cf 06 ec 3d
       -0.03496081 0.0032451898 0.15326566 0.11524736
0001a0 85 33 b6 3d 8d 50 22 ba 8f 30 da bc 3e 80 e1 bc
       0.08896545 -0.00061918126 -0.026634483 -0.027526971
0001b0 21 e1 99 3c 9c df c2 bc 92 8c 3d bd 8e b4 a9 bc
       0.018784108 -0.023788266 -0.046276636 -0.020715978
0001c0 b8 e9 95 3a df b5 85 bd cc 74 74 bd 0a b9 98 3d
       0.0011437451 -0.0652883 -0.0596817 0.074571684
0001d0 b3 b7 51 3d 91 5b be 3c 63 45 4e bd c4 49 6e 3c
       0.05120058 0.023237022 -0.05035914 0.014543954
0001e0 33 b0 1e bd 77 d3 a4 bc f5 80 4e 3d 6e c4 12 bd
       -0.038742255 -0.020120366 0.05041595 -0.03583186
0001f0 b7 c5 ec 3d 9f d5 7f bd 54 af 1d bd b1 1e ae bb
       0.115611486 -0.062459584 -0.038497284 -0.0053137173
000200 4c 8d 03 3d dc 9b bc bc 72 0d 3b 3d 74 c8 ea 3c
       0.032117173 -0.023023538 0.04566712 0.028660037
000210 29 e8 55 bd 34 af 7e 3c 0d 9a 3f 3d 15 c6 1f 3d
       -0.05222336 0.015544701 0.046777774 0.039007265
000220 62 cc c8 3c 5b 11 51 3a 10 5c 63 bc 70 d9 46 bd
       0.02451152 0.00079753035 -0.01387693 -0.04854721
000230 9f 96 a3 bc 60 83 51 bd 79 96 41 bc ea 9c 00 3d
       -0.019969283 -0.05115068 -0.011815661 0.031399645
000240 e5 a2 7c bc dd 89 29 bd 29 f0 ca 3c de 61 fd 3a
       -0.015419696 -0.041391242 0.02477272 0.0019331535
000250 87 88 2f bd 73 0a 02 3c 10 8d 4a 3d 47 6c 0d bd
       -0.042854812 0.007937062 0.049450934 -0.03452709
000260 fc f2 78 bd 87 93 43 bd 09 a0 c2 bd 45 0f 05 bd
       -0.060778603 -0.047748115 -0.095031805 -0.032485265
000270 7b 62 43 bd 84 2c 22 bd 18 20 49 3d 56 07 81 3c
       -0.04770134 -0.039593235 0.049102873 0.015750568
000280 46 31 5e bd a0 b1 98 3c 96 ff 0d 3d 8f 90 15 3f
       -0.05424621 0.018639386 0.034667574 0.58423704
000290 aa 5c 8c bc 6d cf f0 3b 6b f6 91 3c 90 81 6b bc
       -0.01713403 0.007348946 0.017817697 -0.014374152
0002a0 a2 ec b4 bc 68 b3 c7 bc e7 8e f4 bc 75 36 36 bd
       -0.022085492 -0.02437754 -0.029853297 -0.044485528
0002b0 7b c4 d8 3c eb 74 5f bb de 04 d8 3c 34 fa 49 bd
       0.026460877 -0.0034096788 0.026369508 -0.049310878
0002c0 be 54 29 bd cd 98 3b bd 79 8b 0c 3c 1a 34 a7 3c
       -0.041340582 -0.04580002 0.008578175 0.020410586
0002d0 e3 53 7d 3d 9a af f7 bc 62 87 7b bc 5d 49 88 3d
       0.06184758 -0.0302351 -0.015352102 0.06654618
0002e0 2e 05 25 3d 17 fb 6a 3c 53 3b f9 3c a8 ba a8 3d
       0.040288143 0.014342091 0.030423796 0.08238727
0002f0 4b 6c 0a bd 35 b4 33 3c f6 a7 b3 bc b6 46 86 bc
       -0.033794682 0.010968258 -0.021930676 -0.01639114
000300 1a c2 17 bc 78 af 3a bc f8 ee 19 bd 45 fe 08 bd
       -0.009262586 -0.011394374 -0.037581414 -0.033445615
000310 34 cd 96 3d 79 96 88 3b a3 f6 95 3c a8 73 97 3c
       0.07363358 0.0041683284 0.018306082 0.018487766
000320 94 a6 20 3d 41 8c f5 bb 44 79 43 bc f4 ce 08 3c
       0.03922136 -0.007493526 -0.011930767 0.008350123
000330 36 71 cd bc e9 1e 9f 3c 2e 1b 17 3d 0e b0 12 bc
       -0.025078397 0.019423919 0.036891155 -0.0089531075
000340 22 0d d0 bc f5 04 bc 3b 88 4f 36 bd 15 c2 04 3d
       -0.025396887 0.0057378956 -0.04450944 0.032411654
000350 68 c2 88 bc 63 b0 ab bc 0a 5d 83 bd b9 e0 79 3d
       -0.016694263 -0.020958131 -0.0641423 0.061005328
000360 b1 ee 25 bd 06 3a a5 3b d9 d5 86 3c c9 4f 64 bd
       -0.040510837 0.0050423173 0.016459392 -0.05574015
000370 a6 db ae bc 28 03 5c 3c d2 15 ec 3c 57 10 37 3d
       -0.02134497 0.013428487 0.028818998 0.044693317
000380 f4 f8 01 3d 5d e5 1f 3d 04 3d 45 3d ed db 2a bc
       0.03173156 0.039037097 0.048153892 -0.010428411
000390 fb aa 77 39 28 e4 75 3c bb 36 b9 3b a7 51 7f bd
       0.00023619451 0.01500801 0.0056522763 -0.06233373
0003a0 59 bb 14 bd 35 70 63 bd 22 ca 4e 3d cd 38 ca bc
       -0.03631148 -0.05552693 0.050485738 -0.024685288
0003b0 0b 2a 25 3d c4 72 7f 3d cb 28 df bc 08 d0 bc bd
       0.0403233 0.06236531 -0.027241131 -0.09219366
0003c0 29 65 e5 3d 21 f5 93 3e ed d5 53 3c fa 73 4f 3d
       0.112009354 0.28897956 0.012929422 0.050647713
0003d0 a9 5a 72 bd 8f c2 87 3b 4b d9 4f 3c 8b 8f 15 bd
       -0.05916849 0.0041430662 0.012686084 -0.036513846
0003e0 5e 49 32 bc a1 65 01 bd ba e7 55 3c e7 ba 93 bc
       -0.01088175 -0.03159106 0.013055736 -0.018033458
0003f0 0f b5 74 bd 42 76 1b 3c a1 89 65 3d 64 c5 b5 3c
       -0.059742983 0.009488644 0.056039456 0.02218885

lin3.weight f4 [128, 256]
000000 18 cf 3b 3c b8 8d 88 3d 94 83 b3 3c 67 be 13 bd
       0.011462949 0.06667656 0.021913327 -0.036070254
000010 15 83 12 3d 6e b6 48 3d 50 47 11 3d af 7d 2d bd
       0.03576954 0.049002104 0.0354684 -0.04235619
000020 da c3 84 bd b4 e8 13 bd 9b 58 87 bc 93 10 f0 ba
       -0.06482668 -0.036110595 -0.016521743 -0.0018315486
000030 6d ce 72 3d 72 db aa 3b 59 32 19 3d 04 aa 60 bd
       0.059278894 0.005214148 0.03740153 -0.05484964
000040 98 d5 24 bd 70 1b 82 bc a2 86 11 3d 6c 10 06 bd
       -0.04024276 -0.015882224 0.035528786 -0.032730505
000050 e9 e6 01 3d 75 73 8e 3c e6 ab d6 3c 6e 47 17 bd
       0.031714354 0.017389039 0.026205014 -0.036933355
000060 60 c7 a0 3b 5d 5d c6 bc 36 6e ae 3c fe 6e 96 bb
       0.00490658 -0.024214441 0.021292787 -0.004590868
000070 9e 69 5c 3d a1 a0 82 3d ad d1 4e 3d f3 77 14 bd
       0.053811662 0.06378294 0.05049293 -0.036247205
000080 fc cb 8a bd 06 c1 39 bd 39 31 29 bd bd aa e1 bc
       -0.06777188 -0.045350097 -0.041306708 -0.027547235
000090 13 0d c9 bc 26 77 40 3d fd 5e 64 3d 32 70 3e 3d
       -0.024542367 0.04698863 0.05575465 0.046493717
0000a0 9f 66 8c 3c 3c 1b 09 bd 8b 08 65 bd b8 1a b5 bc
       0.017138777 -0.03347324 -0.05591635 -0.022107467
0000b0 ec 33 9a 3c 25 88 ab bb 3b 44 fa bb af 00 26 3d
       0.018823586 -0.0052347356 -0.0076375282 0.040527996
0000c0 3b d8 27 3d 28 b3 55 bd f2 28 55 bb 49 5c 4e 3d
       0.040977698 -0.05217281 -0.0032525626 0.05038098
0000d0 b1 e8 10 3c 88 05 83 bc ed 84 d1 3c f7 66 c8 3b
       0.00884454 -0.015993848 0.02557608 0.00611579
0000e0 79 7e 97 bc e4 1f 74 bc 48 e6 80 3d e9 f1 87 3c
       -0.018492924 -0.014900181 0.06293923 0.016594844
0000f0 ac fb 44 3c 02 7c 38 bd 95 41 66 3d 56 d9 d5 bc
       0.012022894 -0.045040138 0.056214888 -0.02610461
000100 53 68 85 bd f4 6a 4a bd 5d 5e 50 bd 1d 46 81 3d
       -0.06514039 -0.049418405 -0.05087124 0.06312201
000110 4d fc d8 3a 8c 0b 64 3a 16 c3 85 bd 95 47 b9 3c
       0.0016554684 0.00086992304 -0.0653135 0.02261714
000120 ff 88 53 bd c4 62 fa bc 55 f2 4f bd b3 3f cf 3c
       -0.05164432 -0.030564673 -0.050768215 0.025298929
000130 25 28 4d 3d 1f a1 0b bd d8 c0 fa bc e2 a4 38 3d
       0.050087113 -0.034089204 -0.030609533 0.04507912
000140 9b 12 d7 bc c1 56 33 3d 25 59 de b8 69 ff 42 3d
       -0.026253989 0.043783907 -0.000106023894 0.04760686
000150 fd 50 a2 3c cf 60 b5 bd 6d 45 01 bc 95 61 20 bd
       0.019814009 -0.088563554 -0.007890088 -0.03915556
000160 7f 2a 16 3d a4 a3 4f 3d 55 90 ca 3c e5 17 98 bb
       0.03666162 0.05069317 0.024727026 -0.0046415203
000170 50 c0 5b 3d 68 fc 9d bd 20 04 27 bb f2 65 c7 bc
       0.0536502 -0.07714158 -0.0025484636 -0.024340604
000180 7e 07 1f 3c a0 48 ec bb 63 e7 0d bd 6d 17 ad bd
       0.009706376 -0.007210806 -0.034644496 -0.08451734
000190 d0 da 20 bd ff 15 6d 3d 05 33 c7 bc b9 50 27 3d
       -0.039271176 0.057882305 -0.02431632 0.040848467
0001a0 aa eb 3d bc 1a 3a 0e 3d b5 92 28 bd 9e 3f f2 3c
       -0.011591831 0.03472338 -0.041155536 0.02957135
0001b0 c8 4f c4 3b 60 49 a7 bb f4 75 2a 3b e1 0c 65 bc
       0.005990956 -0.0051051825 0.0026010247 -0.013980121
0001c0 69 fb fd 3c 86 00 8e bc 0f cb 3f 3d 6a 34 68 3c
       0.03100367 -0.017334234 0.04682451 0.014172653
0001d0 39 1e 4e bd e9 25 24 bc 6f ed 25 3d ee b2 6b 3d
       -0.05032179 -0.010018804 0.040509637 0.057543688
0001e0 dc 3b 8a 3c 90 2e ad bc 27 fe 3f bd d7 a7 d7 3c
       0.016874246 -0.021140367 -0.046873238 0.02632515
0001f0 81 b9 59 3d aa fb b9 3c cc cf 4e 3d fb ef 8d bb
       0.053155426 0.02270301 0.05049114 -0.0043315864
000200 a0 b9 36 bb 72 09 18 3c 41 f0 c3 3c 18 6a 25 bd
       -0.0027881637 0.009279596 0.023918273 -0.040384382
000210 ad e7 b3 bb 0d 5d 4e 3d ce 25 01 3b 80 37 8b 3b
       -0.0054902644 0.05038171 0.0019706371 0.0042485595
000220 32 b0 16 bc cb 12 99 bc 54 99 e2 3c ce 39 65 3b
       -0.009197282 -0.018685719 0.027661003 0.0034977081
000230 f0 c9 28 bc 3d 01 8e bd 63 e5 5f 3d e7 5a 76 3d
       -0.010302052 -0.0693383 0.05466212 0.060145285
000240 9e 9f 52 bd 10 0b 0f 3d 1c e4 34 bb 79 3b 31 bd
       -0.051421754 0.03492266 -0.0027601784 -0.04326961
000250 20 63 cb 3c 48 c0 46 3d 9d 76 21 3c ed 1c 91 bb
       0.02482754 0.048523217 0.00985494 -0.004428497
000260 00 f2 c1 bc 5c 6f eb bc 9b 42 cc bc d8 51 09 bc
       -0.023674965 -0.028739624 -0.024934104 -0.0083813295
000270 71 fe 42 bd 8f be 71 3c 73 ed 6c bd 9a 53 9d 3c
       -0.047605935 0.014754905 -0.057843637 0.019204903
000280 2c 5d 35 bd 16 69 b5 bb a7 f6 8a bc 62 64 76 bc
       -0.04427831 -0.005536209 -0.016963316 -0.015038582
000290 29 d7 9a bc cb 35 48 3c bb 79 0e bd a3 5a bd bc
       -0.018901424 0.0122198565 -0.03478406 -0.023114508
0002a0 0a c0 4f 3d 80 99 66 3b cd 37 7f bd ca d9 35 3d
       0.050720252 0.0035186708 -0.062309075 0.044397153
0002b0 8c 67 91 bd 97 9b 98 bc 80 83 26 3d 02 1f 04 bd
       -0.07099828 -0.018628879 0.040652752 -0.032256134
0002c0 4c 6d 58 3d a9 02 52 bd 95 5a b9 3b f3 c1 45 bd
       0.05283861 -0.05127207 0.00565655 -0.048280668
0002d0 23 ee 2f 3d 5e 41 fe bc 22 0d bd 3c 18 1b 21 bd
       0.042951714 -0.031037029 0.023077551 -0.03933248
0002e0 d9 ba 3e 3c 51 38 22 3d 07 9b ef bc 06 0f 16 bd
       0.011641228 0.03960449 -0.029248727 -0.03663542
0002f0 00 44 42 3b 00 90 f5 bc d8 a3 fc bb 63 78 37 bd
       0.0029642582 -0.029975891 -0.0077099614 -0.044792544
000300 70 ce ca bb 06 a1 6c 3d fc 7a 59 3d ff a3 29 bd
       -0.00618916 0.05777075 0.053095803 -0.041416164
000310 ec 47 ef bc cf cc 85 bb 3e cb de bc ff d1 a3 bc
       -0.0292091 -0.004083253 -0.027196523 -0.019997595
000320 65 6b 5e bd 6c 2d b5 3c 68 f8 66 3c 1e 4c 66 bd
       -0.05430164 0.022116385 0.014097311 -0.056224935
000330 56 39 92 bd 4b 84 63 bd b5 70 83 bc c9 71 9a 3c
       -0.07139842 -0.055546086 -0.016044954 0.018853085
000340 d8 b5 71 3d 31 42 67 bd b4 d6 c1 bc de 16 56 bd
       0.05901131 -0.05645961 -0.023661949 -0.0522679
000350 ad 08 84 bd cb 36 4d bd c6 83 05 3d 45 94 39 3c
       -0.06446967 -0.050101083 0.032596372 0.011326854
000360 c4 c0 15 bd 21 c2 2e 3a 64 1e 4a bc e1 77 13 3d
       -0.03656079 0.00066665007 -0.012336347 0.036002997
000370 25 78 80 bc 79 24 c8 bd 4d 42 aa bc 2c 72 88 bd
       -0.01568229 -0.097725816 -0.020783568 -0.066624016
000380 28 99 27 bb 58 cb c3 3c 6d 69 5f 3d 95 4e b2 bc
       -0.0025573466 0.023900673 0.0545439 -0.021765986
000390 6a a2 6a bd 27 17 12 bd ed 5f c8 bc c6 e2 51 3d
       -0.057283796 -0.03566661 -0.024459803 0.05124166
0003a0 66 af 04 bd ca 08 7a 3d 73 87 02 bd 3d e1 19 3d
       -0.032393835 0.06104354 -0.031867456 0.03756832
0003b0 4a 7b 7c bd f4 b2 25 bd 1a d8 52 3c 60 29 0c bd
       -0.061641015 -0.040453866 0.012868905 -0.034219146
0003c0 42 7a 34 3d c9 cc 52 bd f2 80 8b bc bc 80 38 bd
       0.044061907 -0.05146483 -0.01702926 -0.045044646
0003d0 17 9b 42 bd f1 6c 1e ba 83 6a 82 bd 1c 28 ae 3c
       -0.047511186 -0.0006043455 -0.06367972 0.02125936
0003e0 4e c1 ee bb e2 ec 8d bc 7d 9e 12 3d 74 8a 02 bd
       -0.0072862273 -0.017324869 0.035795677 -0.03187032
0003f0 a3 fb 12 bd 5a 09 89 3c 43 e3 81 bd cd 18 c1 b9
       -0.03588451 0.016728092 -0.06342175 -0.00036830307

lin3.bias f4 [128]
000000 ce 18 35 3d c2 5c 3e bd db 9d 75 bd dc 2f ae bc
       0.04421311 -0.04647518 -0.059964996 -0.021263056
000010 20 1f 1d bd fe 5e e8 bc 8d f8 0c bb f9 6f 7f 3c
       -0.03835976 -0.028365608 -0.0021510452 0.015590661
000020 fe 76 d7 bc e8 f8 8a 3c 3b 06 89 3c 64 c9 01 bd
       -0.026301857 0.01696439 0.016726604 -0.0316862
000030 97 d9 53 bd 1c af d3 bb 9b 39 ac bc 8f 99 a8 3c
       -0.05172118 -0.0064600836 -0.021023562 0.020581035
000040 a1 b8 1a 3d bd 53 af 3c 96 33 a1 ba 70 81 5e bc
       0.037773732 0.021402234 -0.0012298699 -0.013580665
000050 a6 2b d2 3c 1f ef a1 3c 64 81 b2 bc af d6 13 3c
       0.025655579 0.019767342 -0.021790214 0.0090233525
000060 59 1c 95 3c 3e 26 c3 3b ef 43 09 bd 6e 02 39 39
       0.018201994 0.0059554866 -0.033512052 0.0001764388
000070 5b 27 ef 3b 8b c0 7b bd 6d 97 f7 3b 43 51 cf 3c
       0.0072983927 -0.06146292 0.007555893 0.025307303
000080 9f 50 4f bc 9e 75 7c bc 97 40 35 bd 4c 3b a8 bd
       -0.012653499 -0.0154089015 -0.04425105 -0.08214435
000090 9b 5f a3 bd d6 3e 5a 3c 87 a5 06 bd 07 12 88 3a
       -0.0797722 0.013320645 -0.032872703 0.0010381349
0000a0 bb a5 d2 3c 3b ee 29 bd 1b 6f 79 3b aa 82 1c 3b
       0.025713792 -0.04148696 0.0038060609 0.0023881593
0000b0 97 0c aa 3d 00 03 41 3c 97 76 fe 3b ce 52 75 3d
       0.083031826 0.0117805 0.007765602 0.05989342
0000c0 53 6f 12 bd 09 58 0b bd 48 aa 88 bd 35 bb a5 bd
       -0.0357507 -0.034019504 -0.066731036 -0.080923475
0000d0 d7 f3 cc 3d aa 91 f0 3c bd c4 5d bc bd 81 f5 3d
       0.10007446 0.029366333 -0.013535676 0.11987636
0000e0 b6 f3 7a bc b4 db b7 3c 44 3d 17 bd 38 ab 84 bc
       -0.015316894 0.02244363 -0.03692366 -0.016194925
0000f0 bb 13 6a 3d 81 7e 7c bc 61 07 90 bd f2 6d 36 3c
       0.057147723 -0.01541102 -0.070326574 0.011134611
000100 12 6f 45 bd 72 da ab bc 77 d3 57 bd f5 a0 b8 3c
       -0.048201628 -0.020978186 -0.052691903 0.022537688
000110 11 0b 9d bc 00 38 7c 3c 8f b9 31 3d 4c 31 ac bc
       -0.019170316 0.015394211 0.043389853 -0.0210196
000120 83 a3 b8 3c 4d 89 b2 3c 5a fa 10 3c 89 7b e1 3c
       0.022538906 0.021793986 0.008848751 0.027524726
000130 8b 43 92 bd ed 68 42 bb 9c 1a 43 bb 7b f1 89 bd
       -0.07141789 -0.0029664591 -0.00297705 -0.06735512
000140 56 c7 15 bd 0f 2d 9d bc e3 de 39 3d 88 03 0a bc
       -0.036567055 -0.019186525 0.045378577 -0.0084236935
000150 61 ea 2b 3c 86 42 2e 3c 3a 87 e0 3c b4 bf 15 bc
       0.010492892 0.010635978 0.027408231 -0.009139944
000160 37 0f e7 3d 21 8c a9 bc e8 a5 80 bb bf 3b 0d 3d
       0.11282199 -0.020696701 -0.0039260276 0.034480806
000170 15 46 51 3d 5a a5 67 3b 0f e5 84 bc f6 71 b4 3c
       0.051092226 0.003534636 -0.016222505 0.022026997
000180 77 9c a1 3b c9 86 58 3c 16 c9 c9 bc 68 f1 30 3d
       0.004931982 0.013215729 -0.024632018 0.043198973
000190 2f cf 37 3d 24 c3 34 3d a1 ca 5e bc f7 0b fe 3c
       0.04487532 0.044131413 -0.013598115 0.031011565
0001a0 25 58 a9 bc 5a 51 0b 3c 48 59 ce ba 01 6b 94 bc
       -0.020671913 0.008503282 -0.0015743161 -0.01811743
0001b0 57 22 89 bd 48 3e 86 bd 04 77 73 bd 27 bc b2 3c
       -0.06696003 -0.06554848 -0.059439674 0.021818234
0001c0 4b da 98 3c d1 2f e4 bc b9 3e 2a 3d 8a e8 10 3d
       0.018658778 -0.027854832 0.041563723 0.035378017
0001d0 15 7c 6f 3c 7e 0e 11 bd b0 bd 99 3c 63 1a f1 3c
       0.014616986 -0.03541421 0.018767208 0.029431527
0001e0 04 de bf bd 20 ff 09 3d 9e f5 07 be 44 61 88 bd
       -0.09368518 0.03369057 -0.1327729 -0.06659177
0001f0 3b ec 17 3d 14 56 72 bc d3 21 f2 ba e4 1e be bc
       0.03709052 -0.01479103 -0.0018473215 -0.02320809

lin4.weight f4 [64, 128]
000000 bd f4 60 3d f4 46 e2 3d 15 1f 9f 3d 8d db 3a bd
       0.0549209 0.110486895 0.077696 -0.045619536
000010 a9 1b 85 3c 08 12 d0 bb cd 0f 3a bd c7 cc 3c 3d
       0.016248541 -0.0063498057 -0.045425225 0.04609373
000020 48 99 24 bd ae 6f 98 bd 20 c6 1d be f9 51 a7 ba
       -0.040185243 -0.07443176 -0.1540761 -0.0012765519
000030 68 ba 80 bc 03 53 76 bd 3f 8b 87 bd d9 c2 e2 bc
       -0.015713885 -0.06013776 -0.06618356 -0.027680801
000040 ca bc 22 3d c1 41 e0 b9 d8 d8 74 3d 0f 0f 8c 3c
       0.039730825 -0.000427736 0.05977711 0.017097024
000050 61 b1 4e 3d ac dd fd bb e5 df 59 3d 17 f5 9c 3d
       0.05046213 -0.0077473726 0.053192038 0.07663935
000060 68 8b a3 bd c0 28 3f 3d 6c 29 c0 3c d2 0c f3 3d
       -0.07985574 0.04666972 0.023457251 0.1186768
000070 1a ae 5a bd a2 e9 1e 3d fa 51 24 bd b0 d1 bc 3d
       -0.053388692 0.03879703 -0.04011724 0.09219682
000080 e9 e6 d9 bc 63 f7 3b bd a9 3b 91 3d 25 90 28 bd
       -0.026599364 -0.045890223 0.070914574 -0.041153092
000090 b2 7d 56 3d 70 c3 a8 3d 4f 69 8c bd 67 6b 46 3d
       0.052365966 0.08240402 -0.068560235 0.04844227
0000a0 5c 79 ed bb 21 64 8a bb f6 e6 cd 3d 76 84 92 3d
       -0.007247133 -0.004223362 0.10053818 0.07154171
0000b0 26 2c 29 bd 4a e8 87 bd 06 48 52 bd 16 78 b9 bd
       -0.04130187 -0.066361025 -0.05133822 -0.09056108
0000c0 14 b6 ea 3a 4f 83 20 bd 92 8b 3c bd 81 bf 98 bd
       0.0017907047 -0.039187726 -0.046031542 -0.074584015
0000d0 0b 26 35 bd a1 48 a9 3d 0c a6 dc 3b 1e d8 e6 bc
       -0.044225734 0.08265806 0.0067336615 -0.028179225
0000e0 eb fb b7 bc 3e a2 9f bd 95 6c 3a bd 83 99 49 3d
       -0.022458991 -0.07794617 -0.04551371 0.049218666
0000f0 cc c2 0f 3d 87 ab 9c bd 88 84 e1 bc 8c b1 9e bd
       0.035097882 -0.07649904 -0.027529016 -0.07748708
000100 52 58 98 3d 6e a8 0c 3d 54 c9 96 bd ac 0e 47 bd
       0.07438721 0.034340315 -0.07362619 -0.048597977
000110 39 a7 48 ba fa 03 22 3d d0 b0 74 3b a3 55 b1 bd
       -0.00076543126 0.039554574 0.0037336834 -0.08658912
000120 73 73 37 bd 99 45 2e bd a9 6d 88 3d c8 a8 2d bd
       -0.044787835 -0.042546842 0.06661541 -0.04239729
000130 a4 ec d9 3b 08 2c 89 3d d9 91 7e bc b4 fc a9 3d
       0.006650524 0.066978514 -0.0155377025 0.083001524
000140 94 20 5f 3d 6a 7a 67 bd f1 f7 98 bc a8 dd ce 3d
       0.05447443 -0.056513228 -0.018672915 0.10100871
000150 2c 93 41 bd b4 71 e6 3c ce 7f ce bd 0d af ba 3d
       -0.047259495 0.02813039 -0.100829706 0.091154195
000160 5a 9a b1 3c 8a 7a b6 bd 56 3a e8 3c 0b de 0e bd
       0.021680046 -0.08910091 0.02834813 -0.034879725
000170 fd 74 35 bc e7 0b b6 bb 29 75 22 3d ed c3 b9 3d
       -0.011075255 -0.005555618 0.039662514 0.09070573
000180 36 eb e6 bc 85 b3 7d 3d d7 de 95 bc ef ce 0b bc
       -0.02818833 0.06193878 -0.018294735 -0.0085332235
000190 08 59 db bd 7a 59 c3 3a 14 3f c5 3d 02 29 3a bd
       -0.10710341 0.0014903985 0.09631172 -0.045449264
0001a0 0d 4a 88 3d 80 42 03 be 74 ba 73 3d ad 2c 42 bd
       0.06654749 -0.12818336 0.059503987 -0.047405887
0001b0 51 9c 5c bb 8f 0f 9b bb f8 20 33 3d 06 47 96 3b
       -0.0033662508 -0.0047320793 0.043732613 0.0045861034
0001c0 31 78 51 bd c8 48 52 bb 4a b0 a0 bd 09 b6 ed bc
       -0.051140014 -0.0032086838 -0.078461245 -0.029017465
0001d0 2f 37 ac 3c 25 d5 72 bd ec 93 1f bd b5 62 36 bd
       0.021022407 -0.0592853 -0.03895943 -0.044527728
0001e0 eb 7b 8d 3d 4f 69 97 bc 64 55 5b bd 06 53 c2 3d
       0.06908401 -0.018482832 -0.05354823 0.09488492
0001f0 43 5d 8f bd e1 f5 03 3d 89 a3 15 3d e8 e5 47 3d
       -0.0700021 0.03221691 0.036532912 0.04880324
000200 38 ab 76 bc 0d 53 49 be cf 55 85 3d 3e 15 8e 3c
       -0.01505547 -0.19660588 0.06510507 0.017344113
000210 fe a8 c4 3c b3 9b b0 bd cc 68 ee bb 55 23 1b 3d
       0.024006363 -0.08623447 -0.0072756764 0.037875492
000220 5e 54 45 3d 73 3b 85 bd 53 57 80 bd fa 77 e8 bd
       0.048176162 -0.0650548 -0.06266656 -0.11351009
000230 8f cf 6d bd bd 38 92 bd 66 93 c4 bc 5c 61 3a bb
       -0.05805927 -0.07139728 -0.023996066 -0.0028439378
000240 c6 82 b5 bd a7 b9 a4 bc c2 fe a0 bb 0a 01 52 bc
       -0.08862834 -0.020108057 -0.004913182 -0.012817631
000250 fc ac 5c bd ec 9c 62 3d 18 0e 38 bc 22 ce 6e 3d
       -0.05387591 0.055325434 -0.011233829 0.058302052
000260 89 ea 3b 3d 31 4c fd bc 38 83 32 bd 32 be 03 bc
       0.045877967 -0.03092012 -0.04358217 -0.008040952
000270 0e 23 40 3d fb 71 b0 bd 10 e7 0a bd 12 23 52 3d
       0.04690843 -0.0861549 -0.033911765 0.051302977
000280 b3 59 7f bd 50 99 ae 3c 84 8e 3b 3d 18 3b bd bd
       -0.062341403 0.02131334 0.04579021 -0.09239787
000290 e1 f0 68 3d 2f 57 0f 3e 9b c5 1a bc 09 6b c1 3d
       0.056870345 0.13998102 -0.009446527 0.094442435
0002a0 82 a1 8e bd 0d 69 0f 3d 40 d7 05 be 10 46 09 3d
       -0.06964399 0.035012294 -0.13070393 0.033514082
0002b0 b6 36 04 3c bd 9d ce bc b8 f9 5e 3d 64 9b d2 bc
       0.008069685 -0.0252217 0.05443737 -0.025708862
0002c0 24 58 49 3d 07 6d 26 3d ce 0d 56 3c a2 29 19 bd
       0.049156323 0.04063132 0.013064815 -0.03739322
0002d0 8f 96 31 3d ae b9 10 3c ac 00 51 3d 26 67 2c 3b
       0.043356474 0.008833332 0.05102603 0.0026306598
0002e0 d2 50 5d 3a ad c0 c6 bb be 14 93 bc 18 6a b0 bc
       0.0008442524 -0.006065449 -0.017954227 -0.021534964
0002f0 1e c7 0b 3d cd f9 0e bd 28 be b9 bd 09 a5 a6 bd
       0.03412544 -0.034906197 -0.090694726 -0.08136947
000300 8a 6d ad 3d 89 08 9f 3d 84 c4 48 bd 5b 87 2b bd
       0.084681585 0.077653 -0.049015537 -0.041877132
000310 48 45 5f bd ed 65 af 3d c8 ce 84 3c cb c4 cd 3c
       -0.05450943 0.08564363 0.016211882 0.025118252
000320 97 4c 43 3d 9e 01 20 3e 9f 65 67 3d d2 4d 61 3d
       0.047680464 0.15625617 0.056493398 0.055005856
000330 d9 9e 13 3c 49 83 9e bd e4 e7 25 bd 17 0b ab 3d
       0.00901004 -0.077398844 -0.04050435 0.083517246
000340 3d 04 87 3d e7 79 4f 3d 92 ff 7f bc 5c 8c 07 3d
       0.06592605 0.050653365 -0.015624898 0.03309284
000350 60 3a e4 3c ef 23 0b 3d 20 b2 7d bd 11 07 38 bd
       0.027859867 0.033969816 -0.06193745 -0.044928614
000360 25 40 2d ba d0 0c a8 3d 58 46 9a 3c ae 95 bf 3c
       -0.00066089845 0.08205569 0.01883237 0.023386803
000370 ac bb 0e 3d 12 69 a6 3d b3 90 1f 3d ad 74 ad 3d
       0.034846947 0.08125509 0.038956355 0.0846952
000380 07 79 90 3b 07 78 c9 3c c7 bb 70 bd 58 a1 53 3d
       0.004408959 0.024593366 -0.05877283 0.05166754
000390 2f 75 28 3d 2e 16 78 bd 15 66 00 bb 9a db ba 3a
       0.04112738 -0.060568027 -0.0019592096 0.001425612
0003a0 a3 ae 35 3d 2c 7f da bc 52 a6 45 bd 08 2f 5a bc
       0.044356 -0.026671968 -0.04825432 -0.013316877
0003b0 f4 e0 81 ba d9 47 52 3d 0d ed 01 bd 86 b4 9f 3d
       -0.000990896 0.05133805 -0.03172021 0.07798104
0003c0 a1 ae 9f 3d 7b b2 75 bd 79 76 04 3c c6 c6 93 3d
       0.0779698 -0.059984665 0.008084887 0.072156474
0003d0 e0 99 ce 3d e0 fb 0a 3d ba 0e 64 bd d8 38 ad bd
       0.10087943 0.033931613 -0.055678107 -0.08458108
0003e0 ff 3f fa 3c b1 11 a2 bd 8e 4a 51 bd 60 0d 4e bd
       0.030548094 -0.079135306 -0.05109649 -0.050305724
0003f0 e6 d4 92 3c 70 04 5f bd ef 1a a7 3d ee f0 96 3c
       0.017923784 -0.05444759 0.08159434 0.018425431

lin4.bias f4 [64]
000000 92 5b 10 bd 9b 3b 8b bc aa 06 5b 3d 25 eb a9 bc
       -0.03524358 -0.016996196 0.053473152 -0.020742008
000010 65 8f 23 3d f6 20 d1 bd 8c 94 a1 bc 15 e9 89 bc
       0.039931674 -0.10211365 -0.019724153 -0.016834775
000020 11 7c 83 3c c0 1f f3 3c d9 3e 93 3c a6 63 9f bd
       0.01605037 0.029678226 0.017974304 -0.07782678
000030 3e c5 b0 3d 33 18 3a bd 11 09 be 3d d4 a4 a1 bd
       0.08631371 -0.045433234 0.09279073 -0.078927666
000040 93 6c 3c 3d 79 03 0f bd a8 8e 58 bb 1e 90 1f bc
       0.046001982 -0.03491542 -0.0033044014 -0.00973895
000050 91 f3 56 3d 1a 18 62 3b 60 39 00 3c 2d 12 fc bc
       0.052478377 0.003449923 0.007826179 -0.030770386
000060 58 e1 16 bd fd 0f ae 3d ff 8b 67 3d fd 00 89 bd
       -0.036836 0.08499143 0.056529995 -0.066896416
000070 1d 0d 5a bd 8b 6e 8c bd ce bd b6 3d 4c 5a 3b bc
       -0.053235162 -0.06857022 0.08922921 -0.011435103
000080 c6 ae e4 bc 62 a1 1c 3d 27 bf 5b bd 03 60 fe 3c
       -0.02791537 0.038239844 -0.053649094 0.031051641
000090 f7 66 08 bd 8c 33 a6 bd 84 dc 5a 3d 63 d6 1d 3d
       -0.03330132 -0.081153005 0.053432956 0.038534533
0000a0 8c e7 48 3d 50 a9 79 3d 25 61 6b bd b8 9e 40 3d
       0.049048945 0.060952485 -0.05746569 0.047026366
0000b0 58 a0 90 bc 95 25 00 3d 21 98 81 bc 98 cc cb 3b
       -0.017654583 0.03128584 -0.015819611 0.006219458
0000c0 b4 d8 f5 3b 1b bf f1 bd 45 19 60 3c c9 ed 39 bd
       0.0075026397 -0.118040286 0.0136779 -0.045392785
0000d0 b7 c4 0d 3c d3 91 68 bc b5 a0 c7 3b b7 c2 2b bd
       0.0086528575 -0.014194923 0.006092156 -0.04193374
0000e0 82 f0 9c bd 80 39 9e 3c 9d e2 98 3d 4d 96 9c 3d
       -0.07663061 0.019314528 0.07465098 0.07645855
0000f0 7e c8 ba bd 60 31 31 bd 2e 69 58 3d 9b bf e4 3c
       -0.09120272 -0.04325998 0.052834682 0.027923396
