src/virtuose_teleoperation/network_controller/trained_policy_MLP/Grasp_norm_BC_AHEE_less_data_epoch_19.pth (torch, 456199 bytes, 10 tensors)

lin1.weight f4 [256, 20]
0.16838853 0.1261466 -0.16188477 0.13088773 -0.21372825 -0.050721806 0.11053256 0.018281503
-0.085581034 0.14965215 -0.11715712 0.19621775 0.042896688 0.187422 0.06991431 0.14144503
0.1051031 -0.022661721 -0.17408043 -0.15182987 -0.14387465 -0.17809604 -0.20647459 -0.04020089
-0.09450742 0.040680975 0.02177426 0.13733271 0.10644092 -0.17870577 0.2024845 -0.048918042
0.20168282 0.08600153 0.008532961 -0.07880707 0.114733264 0.07096254 -0.012221383 0.03129681
0.17278777 0.020326238 0.091270804 0.1672537 0.045589473 0.023874065 0.09610963 -0.064318836
0.08679366 -0.09599816 0.09938727 0.086781226 -0.08623753 -0.1573408 -0.22065642 -0.048136536
0.15646674 0.03453206 0.12864508 0.10048373 -0.02620069 0.1233431 -0.021554073 0.19128653
0.07072491 -0.109788924 -0.020131862 -0.115996964 -0.12429408 0.07924312 0.1641858 -0.01893397
0.07991622 0.20332825 0.03804913 0.018489733 0.085080475 -0.020871822 0.06445489 -0.1655889
0.021376168 -0.020153394 0.1168346 0.18317772 -0.016108511 0.19349688 0.04565004 0.19871034
-0.16800593 -0.1487302 -0.18672588 0.0361545 -0.13354142 -0.11576507 -0.19032474 0.13010384
0.16259652 0.14291328 -0.05566906 0.04817426 -0.21742031 -0.22245611 0.21245182 -0.07535712
0.20467463 0.030093806 -0.014265096 -0.10733308 0.116182044 -0.056952745 0.18862651 -0.183941
-0.03793307 0.027928565 0.21011136 0.046826713 -0.014490339 -0.15408033 -0.2060196 -0.098475285
0.013323128 0.101705246 0.055595193 -0.010666956 -0.19090827 -0.1438162 -0.20650819 -0.09173386
0.20031698 -0.11260484 -0.14136395 -0.21260768 -0.100893244 0.13589403 -0.006599844 -0.16878597
-0.09185791 -0.0076480084 0.17610416 -0.09259871 -0.13437225 0.09744046 0.11650642 0.12977353
0.17037694 0.17381929 -0.005266324 0.19056517 -0.15922463 -0.1646784 0.015226622 -0.097864784
-0.20029905 -0.20138101 -0.061976872 0.012378737 0.09931711 0.15381339 0.15672803 0.1572502
0.006053821 0.08719054 0.015024375 0.17991772 0.17088534 0.07835408 -0.1760352 -0.093042634
0.12736472 0.017964393 0.025845252 0.021499382 -0.17632814 -0.1696705 -0.061537437 0.04177858
-0.09010907 0.1510879 0.16477539 0.029627576 0.16434065 0.14286351 -0.0048915693 0.16286168
0.153102 -0.02640372 0.1859771 -0.016437128 -0.17588492 0.0420702 0.118830435 -0.13556612
-0.15368748 0.30039144 0.19684885 -0.018356277 -0.123060785 0.17889097 -0.025694631 -0.42633787
-0.15828113 -0.16147186 -0.21581613 -0.18797413 0.052921847 0.14850467 0.025089892 -0.20282234
0.058929663 -0.012538452 0.2384839 -0.1772579 0.036475934 -0.17560285 -0.376433 0.03742936
-0.20636693 -0.17524154 0.17303093 0.15817703 0.19608204 0.105349 0.17979363 -0.24346009
-0.08267535 0.14593585 -0.023439636 -0.2199779 -0.116685174 0.1434718 0.19351599 0.12804553
0.11332423 -0.23847874 -0.13408831 -0.050567683 0.049236782 -0.16375953 -0.037253987 0.03962695
0.08006374 0.15461461 -0.17643173 0.16472368 0.028031455 -0.09049973 0.17985502 0.214145
0.21678433 0.02561421 -0.19749622 -0.0924715 0.013969062 -0.23181209 0.24314159 0.058713175
00000000: 0b6e 2c3e 932c 013e 1fc5 25be 6f07 063e
00000010: 94db 5abe abc1 4fbd e55e e23d 17c3 953c
00000020: 1c45 afbd 6a3e 193e 12f0 efbd 4eed 483e
00000030: 70b4 2f3d 8eeb 3f3e 3c2f 8f3d f7d6 103e
00000040: 4b40 d73d 13a5 b9bc 2442 32be 4a79 1bbe
00000050: e053 13be cf5e 36be 136e 53be b0a9 24bd
00000060: 1b8d c1bd 18a1 263d ef5f b23c f2a0 0c3e
00000070: b2fd d93d a5fe 36be 1958 4f3e 495e 48bd
00000080: f185 4e3e 9221 b03d d5cd 0b3c 9a65 a1bd
00000090: 46f9 ea3d cf54 913d 323c 48bc 1531 003d
000000a0: 47ef 303e 3683 a63c 30ec ba3d 8e44 2b3e
000000b0: 07bc 3a3d 8b93 c33c 20d5 c43d 98b9 83bd
000000c0: e0c0 b13d af9a c4bd 8e8b cb3d 5bba b13d
000000d0: 4d9d b0bd f21d 21be c2f3 61be d12a 45bd
000000e0: d138 203e 7d71 0d3d 89bb 033e 6aca cd3d
000000f0: d4a2 d6bc 4f9b fc3d 2b92 b0bc 9ee0 433e
00000100: 39d8 903d 04d9 e0bd 93eb a4bc d18f edbd
00000110: e58d febd 384a a23d 5320 283e 6a1b 9bbc
00000120: 1dab a33d 4835 503e 68d9 1b3d c877 973c
00000130: ac3e ae3d 62fb aabc ed00 843d 2390 29be
00000140: 131d af3c bb18 a5bc fb46 ef3d f192 3b3e
00000150: fff5 83bc 0c24 463e 89fb 3a3d b97a 4b3e
00000160: bf09 2cbe bb4c 18be 1235 3fbe be16 143d
00000170: 15bf 08be 3d16 edbd 7de4 42be f139 053e
00000180: b47f 263e dc57 123e 3e05 64bd 5f52 453d
00000190: 6ea3 5ebe 89cb 63be f88c 593e d554 9abd
000001a0: 3a96 513e 4987 f63c 26b8 69bc 72d1 dbbd
000001b0: daf0 ed3d 4847 69bd 4f27 413e 085b 3cbe
000001c0: b55f 1bbd 72ca e43c 6f27 573e 5ecd 3f3d
000001d0: e368 6dbc 3cc7 1dbe cdf6 52be 69ad c9bd
000001e0: 4049 5a3c d74a d03d c9b7 633d 75c4 2ebc
000001f0: 757d 43be 8e44 13be e276 53be f6de bbbd
00000200: e51f 4d3e 5e9d e6bd b6c1 10be d4b5 59be
00000210: 1ea1 cebd ce27 0b3e 8143 d8bb 3bd6 2cbe
00000220: 0020 bcbd 259c fabb a654 343e 64a4 bdbd
00000230: e198 09be dd8e c73d eb9a ee3d 5ae3 043e
00000240: 4b77 2e3e affd 313e 2191 acbb 8423 433e
00000250: c80b 23be 74a1 28be 1579 793c 556d c8bd
00000260: 321b 4dbe d336 4ebe 76db 7dbd 30d0 4a3c
00000270: c566 cb3d 4281 1d3e 507d 203e 3206 213e
00000280: 225f c63b f490 b23d cc28 763c 5a3c 383e
00000290: 91fc 2e3e 1b78 a03d 9242 34be 238d bebd
000002a0: e66b 023e 102a 933c 6cb9 d33c 791f b03c
000002b0: 5d8f 34be 1bbe 2dbe ae0e 7cbd 0420 2b3d
000002c0: 1b8b b8bd c9b6 1a3e e1ba 283e 88b5 f23c
000002d0: ea48 283e d04a 123e 7549 a0bb 36c5 263e
000002e0: c5c6 1c3e 9d4c d8bc c870 3e3e 28a7 86bc
000002f0: 2d1b 34be cd51 2c3d 5f5d f33d d8d1 0abe
00000300: 4060 1dbe e8cc 993e bf92 493e e75f 96bc
00000310: 4b07 fcbd 322f 373e 8c7d d2bc f548 dabe
00000320: 7314 22be e158 25be e7fe 5cbe 4a7c 40be
00000330: 94c4 583d 9c11 183e 5189 cd3c a9b0 4fbe
00000340: 3b60 713d 146e 4dbc 2035 743e 1883 35be
00000350: ca67 153d 3cd1 33be d4bb c0be 874f 193d
00000360: da51 53be 8572 33be 052f 313e 29f9 213e
00000370: bbc9 483e 37c1 d73d d21b 383e 9a4d 79be
00000380: b251 a9bd 3570 153e 7b04 c0bc e341 61be
00000390: a3f8 eebd 46ea 123e 0e29 463e 5e1e 033e
000003a0: 8916 e83d c533 74be 724e 09be 0f20 4fbd
000003b0: 82ac 493d 94b0 27be a397 18bd de4f 223d
000003c0: 75f8 a33d 4b53 1e3e 85aa 34be 53ad 283e
000003d0: 39a2 e53c ec57 b9bd ea2b 383e d448 5b3e
000003e0: b6fc 5d3e e4d4 d13c 733c 4abe b361 bdbd
000003f0: 7ede 643c 2660 6dbe 1cfa 783e 3a7d 703d

lin1.bias f4 [256]
0.027632484 -0.22953017 -0.10553254 0.021960218 -0.18957418 -0.21882002 0.19092737 0.12857145
-0.13677904 0.02686718 0.014146838 0.21483907 0.081983075 -0.12899931 0.14064942 0.08007628
0.17705154 0.022899082 0.08187699 -0.20225409 0.23131275 0.20389163 0.009103521 -0.14452787
0.08332464 0.09317218 0.18799171 -0.03652207 -0.029177016 0.12801611 0.13940924 -0.18354526
0.121376924 0.17386724 -0.1373031 -0.03312948 -0.11763271 0.124476194 0.15125379 0.087358885
0.16487052 -0.1380472 0.059052065 0.20699157 -0.05682053 0.01862969 0.12428501 0.20879944
-0.13522372 -0.2086733 0.056647614 -0.07909482 -0.1766911 -0.038778406 -0.19783758 0.1647133
-0.17169966 -0.18699153 -0.15323277 0.052225556 -0.06200097 -0.015367249 0.12749548 -0.107323326
0.13680895 0.17968711 0.1252548 0.03248522 -0.021239048 -0.17403981 0.2172438 0.26660946
0.41183162 -0.10869504 -0.01635638 0.16728675 0.094006635 -0.13276337 -0.09865764 0.15378305
-0.041731756 0.20511709 -0.17688353 0.016494429 0.10916368 -0.040513236 -0.06618124 -0.017172588
-0.17684774 0.061223544 -0.14563236 0.055519726 -0.11311818 -0.04519999 0.01234917 0.08350703
-0.20146622 -0.10570304 -0.031955805 0.11173069 -0.09277813 -0.058584176 0.08762373 0.1397225
-0.21824646 -0.2147191 0.115976036 -0.04417172 0.13925147 0.10460433 0.056541733 -0.10439593
0.14049433 0.20652047 0.1487758 0.017446341 -0.024660723 -0.107403025 -0.053945974 -0.20350051
-0.059154782 0.12473561 -0.04879303 -0.01586261 0.07249602 -0.058842793 0.069120914 0.06864107
0.21104544 0.04797911 -0.18181202 0.072946616 -0.19401012 0.11769928 -0.15058568 0.11233877
-0.13624142 0.022034507 -0.21873188 0.13293858 0.16729732 -0.19809997 0.17314655 -0.056759324
0.09939419 0.10437952 0.1824911 0.21540914 -0.13114671 -0.09288107 0.2153507 -0.12948276
0.076098576 -0.13142093 0.044075843 0.20817414 0.062394723 -0.16343704 0.035760116 0.09311808
-0.15358834 0.13398604 -0.143824 0.19240373 0.12317202 0.020532252 -0.06315663 -0.024540847
0.0938662 0.1806309 0.1195655 0.112470254 0.18161762 0.047548898 0.46222937 -0.00063681265
-0.1668405 0.054378975 0.11579052 -0.13509725 -0.124052405 0.093302555 -0.13565479 0.017836696
-0.14021903 -0.14209746 0.0020139015 -0.054492198 -0.03669133 0.17459258 -0.11647602 -0.18485019
-0.12810487 -0.14853333 0.1229 0.09543754 -0.13536142 0.019932544 -0.07377835 0.016941786
0.09336643 0.06579461 0.23153464 0.13508043 -0.0674087 0.16982746 0.094580576 -0.07539813
-0.17640358 0.087699525 0.016383938 0.1204659 0.18882889 0.011552382 0.13880007 0.040022798
-0.12893936 -0.17759463 0.24589731 -0.075165205 -0.07791954 0.29129985 -0.054140404 -0.00041319267
-0.020343538 0.15803306 0.03164389 -0.06849432 0.21216479 0.021984732 -0.13868448 0.15243511
0.33007538 0.17356196 -0.1812366 0.21998814 -0.0332893 -0.12941872 0.18511793 -0.09723485
-0.1982133 0.16968253 0.15701894 0.23504913 0.16356723 -0.19562396 -0.06248566 0.22428407
0.13807136 -0.049140774 -0.010710195 0.19724694 -0.17224328 0.22178704 0.08868918 -0.0580472
00000000: 855d e23c f509 6bbe 7221 d8bd eae5 b33c
00000010: bc1f 42be 5b12 60be 7782 433e 3ca8 033e
00000020: ce0f 0cbe 8f18 dc3c 24c8 673c c6fe 5b3e
00000030: bee6 a73d 6518 04be 6706 103e 08ff a33d
00000040: 004d 353e db96 bb3c 20af a73d b21b 4fbe
00000050: 40dd 6c3e f8c8 503e ef26 153c 1dff 13be
00000060: 1ca6 aa3d 0ed1 be3d e680 403e 2b98 15bd
00000070: a304 efbc a816 033e 4cc1 0e3e 4af3 3bbe
00000080: 7794 f83d 410a 323e 2f99 0cbe c7b2 07bd
00000090: 6be9 f0bd 60ed fe3d 46e2 1a3e 37e9 b23d
000000a0: d1d3 283e 3f5c 0dbe 94e0 713d 99f5 533e
000000b0: a5bc 68bd 4b9d 983c 2489 fe3d 85cf 553e
000000c0: 1678 0abe 74ae 55be 5407 683d 77fc a1bd
000000d0: 83ee 34be 1bd6 1ebd ef95 4abe 9aaa 283e
000000e0: 09d2 2fbe b57a 3fbe 0de9 1cbe 77ea 553d
000000f0: bbf4 7dbd eac6 7bbc 2d8e 023e 55cc dbbd
00000100: a517 0c3e e6ff 373e cb42 003e 390f 053d
00000110: 83fd adbc 7e37 32be 2975 5e3e 0981 883e
00000120: 98db d23e 819b debd d1fd 85bc 384d 2b3e
00000130: 8d86 c03d 1ff3 07be 040d cabd 4e79 1d3e
00000140: ebee 2abd 370a 523e f520 35be 531f 873c
00000150: 3591 df3d 35f1 25bd 088a 87bd 87ad 8cbc
00000160: 9317 35be 8ac5 7a3d a620 15be a768 633d
00000170: 81aa e7bd a023 39bd 2c54 4a3c bc05 ab3d
00000180: 294d 4ebe d67a d8bd 17e4 02bd 0fd3 e43d
00000190: 7602 bebd f6f5 6fbd 1274 b33d 6a13 0f3e
000001a0: 007c 5fbe 53df 5bbe d884 ed3d 68ed 34bd
000001b0: f097 0e3e cc3a d63d 4e98 673d 89cd d5bd
000001c0: bfdd 0f3e 1a7a 533e af58 183e a1eb 8e3c
000001d0: 4905 cabc 1ef6 dbbd 74f6 5cbd 7062 50be
000001e0: 494c 72bd 6275 ff3d 33db 47bd 4ef2 81bc
000001f0: cb78 943d 2405 71bd 448f 8d3d b093 8c3d
00000200: 4c1c 583e be85 443d ee2c 3abe 0965 953d
00000210: 97aa 46be 520c f13d 2233 1abe de11 e63d
00000220: df82 0bbe b681 b43c 40fb 5fbe 0d21 083e
00000230: fd4f 2b3e b8da 4abe 544d 313e 777c 68bd
00000240: 2e8f cb3d eec4 d53d f2de 3a3e 3794 5c3e
00000250: 534b 06be 6e38 bebd e584 5c3e 2197 04be
00000260: 92d9 9b3d 3593 06be df88 343d 9a2b 553e
00000270: 9c91 7f3d 0a5c 27be 3379 123d b1b4 be3d
00000280: 4346 1dbe a333 093e 9946 13be 7c05 453e
00000290: 9d41 fc3d 4133 a83c 4358 81bd e309 c9bc
000002a0: ec3c c03d 4ff7 383e c2de f43d ce56 e63d
000002b0: f8f9 393e a2c2 423d 54a9 ec3e c6ef 26ba
000002c0: 3cd8 2abe 7dbc 5e3d 9523 ed3d ef56 0abe
000002d0: 300f febd 6915 bf3d 17e9 0abe 431e 923c
000002e0: 9495 0fbe ff81 11be a9fb 033b 3633 5fbd
000002f0: a649 16bd 66c8 323e fb8a eebd 5e49 3dbe
00000300: ec2d 03be 1f19 18be ffb2 fb3d c274 c33d
00000310: 2f9c 0abe 9349 a33c 1b19 97bd 80c9 8a3c
00000320: e636 bf3d 53bf 863d 6b17 6d3e 8652 0a3e
00000330: 930d 8abd 40e7 2d3e 76b3 c13d 566a 9abd
00000340: 24a3 34be cf9b b33d 9c37 863c d3b6 f63d
00000350: 5c5c 413e 3446 3d3c 9b21 0e3e f2ee 233d
00000360: ae08 04be 5edb 35be 81cc 7b3e 37f0 99bd
00000370: 4894 9fbd 4125 953e 54c2 5dbd c8a1 d8b9
00000380: 7ea7 a6bc 6bd3 213e 069d 013d c046 8cbd
00000390: ba41 593e 5319 b43c 4e03 0ebe f317 1c3e
000003a0: a4ff a83e 3aba 313e 1696 39be 9244 613e
000003b0: 5c5a 08bd 5786 04be 8e8f 3d3e 1123 c7bd
000003c0: 6df8 4abe 42c1 2d3e 93c9 203e b8b0 703e
000003d0: 2b7e 273e a651 48be f7f0 7fbd b9aa 653e
000003e0: 9462 0d3e d647 49bd d079 2fbc 1afb 493e
000003f0: 8b60 30be 241c 633e aca2 b53d e7c2 6dbd

lin2.weight f4 [256, 256]
-0.0012210626 0.04796267 -0.02320819 0.0028109055 0.05986443 0.056555822 0.027974663 0.0119552
-0.038614623 -0.031836763 0.014255501 -0.0021628526 0.01944178 -0.035722885 -0.0035560138 -0.013680839
-0.007517882 -0.0063012587 -0.058276232 -0.043121424 0.070477165 -0.043686453 0.042004872 0.0013254791
-0.014995173 0.048768416 -0.0031837488 0.026543032 0.015518694 -0.10975163 0.048186563 0.05766713
-0.046670385 -0.0020907384 0.021136248 -0.013873316 -0.059292592 -0.036282316 0.03500993 0.050856736
0.043344747 0.003938064 0.0035343464 -0.00569213 -0.054119263 0.060067188 -0.0028816257 0.06868906
-0.02875038 -0.008043267 -0.05105096 -0.046271775 0.047657177 -0.024536943 -0.0018437654 0.052913707
-0.01597141 0.0064977207 -0.049703 -0.008187012 -0.023396064 0.045844726 0.030903855 -0.01288883
0.05508717 -0.021752596 -0.009807418 0.04533808 -0.022347754 -0.06507483 0.023095332 0.017351363
0.09903196 0.085845225 -0.0014118337 -0.034633163 -0.01484929 -0.040884186 -0.024316464 0.04932059
0.049162384 -0.0125128785 0.0033079258 -0.0127180135 0.10556444 -0.016026093 -0.0511587 -0.0056094383
-0.0277604 0.06108786 0.008582663 -0.027352018 0.026586555 0.113002755 0.038261887 0.033037852
-0.019384837 0.040356144 0.005677862 0.044182315 0.013813768 0.038605586 0.0104717845 0.08987004
-0.012848076 0.04465274 0.026996179 -0.038176276 0.018341862 -0.047345784 -0.007965721 -0.029017024
0.053310312 -0.001173124 0.051073533 0.004846095 -0.027791003 0.02719424 0.061120216 -0.02006187
-0.04000972 -0.034339607 -0.02618422 -0.056698624 0.0014432981 0.019361926 -0.051897757 0.0177336
-0.033145107 -0.037419386 -0.03672568 0.02363609 -0.04848685 -0.010250293 -0.0476057 0.04863762
0.0022030333 -0.021073498 0.0623027 -0.015117119 0.00035116824 0.0560327 0.02608141 0.054255694
-0.0005973547 -0.021949146 0.067182474 0.038095374 0.032338843 -0.018658064 0.016499827 -0.039036386
-0.0051867347 0.03319099 -0.026684053 -0.0019919316 -0.015100184 0.0098693445 0.022515606 0.055027947
0.017900437 0.0377199 -0.0071500503 0.009581088 -0.05280421 0.042893566 0.040267654 -0.055152107
0.036258176 -0.014667743 0.04968173 -0.020614026 0.008734069 0.021954281 0.26789004 -0.05490671
0.04772643 0.08590881 0.032547884 -0.008241206 -0.014030686 0.0060083573 0.032142013 0.019908972
0.0440381 0.04097164 -0.004501179 -0.008580882 0.05565686 0.037665643 0.024868201 0.027295835
0.03400984 -0.028889596 0.034647644 -0.035406783 0.025644427 -0.044370692 0.031728756 0.007769739
0.000565511 -0.034795985 0.026523689 -0.022864163 -0.01480343 -0.013120753 0.040939733 0.046367466
-0.0062732715 -0.038272146 -0.0502959 0.03139749 -0.05700753 -0.033015266 -0.030363074 -0.016793871
0.0020028818 0.060059264 0.051495075 0.039992787 -0.006752492 0.048051987 -0.052394155 0.0592444
0.013700233 0.05887976 0.03227056 -0.02370987 -0.014235209 0.013062068 -0.018213386 -0.056047007
0.050571952 0.07769303 -0.017863661 0.010798623 0.04917856 0.019732745 0.0346327 0.0039831474
-0.0010688212 0.027925236 0.0012853222 0.02455036 -0.029351534 -0.0523221 0.061987936 0.05496168
-0.00056945166 0.067922875 0.03231437 0.058708716 -0.041796107 -0.0057551935 -0.036047056 -0.0041752863
00000000: 100c a0ba 8174 443d 1a1f bebc 2b37 383b
00000010: 6834 753d 14a7 673d 1f2b e53c bedf 433c
00000020: 5e2a 1ebd 4467 02bd e88f 693c a5be 0dbb
00000030: 5e44 9f3c 2952 12bd 030c 69bb 9925 60bc
00000040: 9158 f6bb ca7a cebb 0fb3 6ebd 17a0 30bd
00000050: 5556 903d 91f0 32bd 4d0d 2c3d b3bb ad3a
00000060: 50ae 75bc 64c1 473d 71a6 50bb c670 d93c
00000070: 1f42 7e3c 76c5 e0bd 465f 453d 5e34 6c3d
00000080: 7229 3fbd c504 09bb ed25 ad3c e84c 63bc
00000090: cadc 72bd c49c 14bd 9366 0f3d 274f 503d
000000a0: 438a 313d e00a 813b 7ea0 673b 0c85 babb
000000b0: 29ac 5dbd 0309 763d a8d9 3cbb daac 8c3d
000000c0: eb85 ebbc e8c7 03bc d01a 51bd 7987 3dbd
000000d0: 2c34 433d b301 c9bc 80aa f1ba 0bbc 583d
000000e0: 79d6 82bc d5ea d43b 5f95 4bbd d122 06bc
000000f0: 1aa9 bfbc aec7 3b3d 152a fd3c ac2b 53bc
00000100: 16a3 613d 8032 b2bc 4baf 20bc 6cb4 393d
00000110: a312 b7bc f445 85bd 6c32 bd3c 7224 8e3c
00000120: 45d1 ca3d 9fcf af3d 470d b9ba 81db 0dbd
00000130: 704a 73bc 2d76 27bd 5233 c7bc 6304 4a3d
00000140: 7f5e 493d d102 4dbc c9c9 583b 375f 50bc
00000150: 2b32 d83d 2749 83bc c98b 51bd 61cf b7bb
00000160: c769 e3bc 4437 7a3d 4c9e 0c3c 5711 e0bc
00000170: 0ccc d93c fd6d e73d 7fb8 1c3d b352 073d
00000180: f3cc 9ebc 7c4c 253d 5c0d ba3b 84f8 343d
00000190: 2453 623c e420 1e3d d991 2b3c c90d b83d
000001a0: bd80 52bc cbe5 363d 1727 dd3c ba5e 1cbd
000001b0: ac41 963c a7ed 41bd a882 02bc 1cb5 edbc
000001c0: ea5b 5a3d 82c3 99ba 7b32 513d fecb 9e3b
000001d0: f5a9 e3bc 74c6 de3c 3159 7a3d ca58 a4bc
000001e0: 3be1 23bd b0a7 0cbd 4a80 d6bc d13c 68bd
000001f0: 0c2d bd3a e79c 9e3c be92 54bd 0e46 913c
00000200: 2ac3 07bd 1245 19bd ab6d 16bd 79a0 c13c
00000210: 269a 46bd d8f0 27bc 32fe 42bd 3e38 473d
00000220: c460 103b 54a2 acbc 1e31 7f3d cbad 77bc
00000230: 011d b839 8b82 653d aea8 d53c 383b 5e3d
00000240: cc97 1cba b2ce b3bc f796 893d e509 1c3d
00000250: bc75 043d ccd8 98bc a52a 873c 9ee4 1fbd
00000260: 7cf5 a9bb 47f3 073d 8498 dabc 118b 02bb
00000270: c366 77bc 08b3 213c a672 b83c fc64 613d
00000280: f0a3 923c 2f80 1a3d f84a eabb fff9 1c3c
00000290: 3a49 58bd 2ab1 2f3d b2ef 243d 2de7 61bd
000002a0: 7483 143d f950 70bc 127f 4b3d bfde a8bc
000002b0: 5719 0f3c 77d9 b33c e228 893e dce5 60bd
000002c0: ca7c 433d f5f0 af3d ee50 053d 2006 07bc
000002d0: f6e0 65bc c1e1 c43b 58a7 033d 2418 a33c
000002e0: 4b61 343d e1d1 273d a07e 93bb d496 0cbc
000002f0: 73f8 633d 4a47 1a3d 66b8 cb3c 849b df3c
00000300: e74d 0b3d e0a9 ecbc b0ea 0d3d b406 11bd
00000310: 4314 d23c 0bbe 35bd 03f6 013d 4b99 fe3b
00000320: cd3e 143a 3c86 0ebd 3548 d93c a04d bbbc
00000330: 168a 72bc 6df8 56bc 6cb0 273d d0eb 3d3d
00000340: 0490 cdbb 41c3 1cbd 1303 4ebd a89a 003d
00000350: ba80 69bd 043b 07bd fbbb f8bc 4d93 89bc
00000360: c842 033b b400 763d 80ec 523d 7acf 233d
00000370: 0244 ddbb 29d2 443d 419b 56bd 42aa 723d
00000380: f176 603c e72b 713d 222e 043d 343b c2bc
00000390: cb3a 69bc 4902 563c 3d34 95bc 8c91 65bd
000003a0: 8924 4f3d 861d 9f3d d056 92bc b5ec 303c
000003b0: 756f 493d 91a6 a13c 05db 0d3d 1085 823b
000003c0: b017 8cba 77c3 e43c 4278 a83a d61d c93c
000003d0: a172 f0bc b34f 56bd 10e7 7d3d 801f 613d
000003e0: 4147 15ba 261b 8b3d 135c 043d 8d78 703d
000003f0: 6532 2bbd 1096 bcbb 14a6 13bd d7d0 88bb

lin2.bias f4 [256]
-0.022331083 0.041832406 -0.027773956 -0.011774717 -0.026104324 -0.008972187 -0.055780258 0.06593516
-0.020803547 -0.018096935 0.010085325 -0.021122232 -0.0550546 -0.038036156 -0.04719396 -0.05992756
-0.04901088 0.0388243 0.0527019 0.011281177 -0.054538798 -0.0056037046 0.036948726 -0.020101875
0.020393733 -0.028554581 -0.062492236 0.041664846 -0.050099652 0.033318274 0.02238431 -0.0025093781
-0.0532969 0.0029822194 -0.06313248 -0.04975363 -0.014114856 -0.044149447 0.02234051 -0.031600796
-0.0063804034 -0.0598818 0.034170467 0.038016904 0.01452931 -0.0170414 -0.014836391 0.029459963
0.006861107 -0.015179879 0.02753714 -0.04289337 -0.062475882 -0.033512615 -0.04541651 -0.06281911
-0.053485688 -0.015019943 0.019529559 0.046265364 -0.004660468 -0.03500151 0.07011404 0.037892036
-0.054202933 -0.0006844754 -0.04873823 0.009069208 0.020195924 0.0072718784 -0.042761434 -0.00090626295
0.004883341 -0.022640664 -0.011973873 -0.060594633 0.054378144 0.012203631 0.026087305 -0.02970701
0.060483642 0.001960581 -0.045413993 0.03503543 0.026004223 -0.06188735 -0.03787132 -0.025477119
0.045408133 0.0021941054 -0.011984867 -0.010663086 0.024251254 -0.018799806 -0.040645096 0.0024770275
0.046295043 -0.022348532 -0.038819708 -0.04406018 0.012191321 0.065272085 0.018045539 -0.025561215
-0.0331579 0.054626472 0.008126065 -0.032955445 -0.0259653 0.033410802 0.05729192 -0.039150465
-0.03415453 -0.015476406 -0.005739535 -0.0013132591 -0.04263836 -0.01330242 0.028249059 -0.04907368
0.002516817 0.024463408 0.006636241 -0.046105705 -0.018498354 -0.040729605 0.021815069 -0.051292595
0.03171331 0.044270135 0.0486293 -0.028213186 0.020150699 0.06760913 0.002237465 -0.06016079
0.03172029 0.0673367 0.005203954 -0.020390304 0.048159987 -0.005477291 -0.055800848 -0.012750693
0.031925395 -0.009297332 -0.03582595 -0.013158811 0.049017716 0.041756604 -0.00695354 0.06810689
-0.050414275 -0.054516282 0.04979254 -0.033604957 0.032265734 -0.040338263 -0.057667866 -0.049502708
0.03902464 0.02594469 0.054498035 0.05373134 -0.00044727983 -0.023977054 -0.021064209 0.15469302
-0.022655139 -0.058423936 -0.04044214 0.005681207 0.012142088 -0.023206552 0.04645895 -0.020862063
0.018684441 -0.024700187 0.017572332 0.007743675 0.047959052 -0.013198851 0.00066161633 0.0020953286
-0.004718738 0.029406045 -0.047627542 -0.047656693 0.034686226 0.04084913 0.059516117 0.028114539
0.0008825895 0.033457752 -0.030245218 -0.05222238 -0.027578289 0.029503305 -0.009539809 0.0030138919
-0.06134124 -0.047745813 0.034992527 -0.06285931 0.059383854 0.030621782 0.036479827 -0.05396619
-0.037122536 -0.032865413 0.030239955 -0.012822691 0.032303825 -0.03860869 0.020684421 0.026241593
0.051064216 0.002221314 0.037121657 0.0116996085 -0.023167394 -0.029352458 0.013719585 -0.054179203
-0.0071574575 -0.0046982067 -0.007538157 0.05651436 -0.050602715 0.04295455 -0.06533155 0.03899476
-0.027816337 0.045848522 -0.030910723 0.0123388395 -0.061986234 -0.0016664632 0.033982404 0.0137776965
0.0011394514 -0.028783785 0.012919876 -0.0688909 0.05196444 -0.018982649 0.053053644 -0.033557303
-0.0052229716 -0.010868538 -0.034363337 -0.04539595 -0.030281248 -0.060477745 -0.05969888 -0.043185182
00000000: adef b6bc 7558 2b3d 3586 e3bc beea 40bc
00000010: bcd8 d5bc 1400 13bc d779 64bd 0309 873d
00000020: 336c aabc 0640 94bc eb3c 253c 8808 adbc
00000030: ef80 61bd cdcb 1bbd 744e 41bd 9a76 75bd
00000040: a2bf 48bd 3b06 1f3d f3dd 573d b0d4 383c
00000050: 1364 5fbd 489f b7bb 8c57 173d b0ac a4bc
00000060: c210 a73c 4ceb e9bc dcf7 7fbd c2a8 2a3d
00000070: 4b35 4dbd be78 083d 4d5f b73c 6174 24bb
00000080: da4d 5abd 5771 433b 9a4b 81bd 76ca 4bbd
00000090: ff41 67bc 0dd6 34bd 7203 b73c d66f 01bd
000000a0: b412 d1bb 9e46 75bd 55f6 0b3d 9db7 1b3d
000000b0: 580c 6e3c 689a 8bbc 5614 73bc 0556 f13c
000000c0: 23d3 e03b 07b5 78bc 9195 e13c f5b0 2fbd
000000d0: b6e6 7fbd 8644 09bd aa06 3abd 4ea7 80bd
000000e0: cf13 5bbd 3516 76bc 74fc 9f3c c080 3d3d
000000f0: d7b6 98bb be5d 0fbd f397 8f3d ae34 1b3d
00000100: e503 5ebd 5e6e 33ba bda1 47bd 0497 143c
00000110: ec71 a53c f048 ee3b 9d26 2fbd 4792 6dba
00000120: 6f04 a03b ea78 b9bc 102e 44bc 1432 78bd
00000130: 9ebb 5e3d bdf1 473c 0bb5 d53c 1e5c f3bc
00000140: b2bd 773d 177d 003b 0604 3abd 5081 0f3d
00000150: cf06 d53c 977d 7dbd f51e 1bbd 64b5 d0bc
00000160: e1fd 393d fbca 0f3b 2d5c 44bc 39b4 2ebc
00000170: 91aa c63c 0d02 9abc 797b 26bd a055 223b
00000180: df9f 3d3d 4514 b7bc 6a01 1fbd 7378 34bd
00000190: 1bbe 473c 5fad 853d 3dd4 933c c165 d1bc
000001a0: 94d0 07bd 02c0 5f3d 3023 053c 4afc 06bd
000001b0: 2eb5 d4bc c4d9 083d efaa 6a3d 3d5c 20bd
000001c0: 9fe5 0bbd c090 7dbc b612 bcbb aa21 acba
000001d0: 90a5 2ebd 65f2 59bc 926a e73c 7c01 49bd
000001e0: 2ff1 243b 7c67 c83c d374 d93b 56d9 3cbd
000001f0: dc89 97bc 16d4 26bd 84b5 b23c 2f18 52bd
00000200: d1e5 013d 9a54 353d 842f 473d 571f e7bc
00000210: 1413 a53c a876 8a3d 6fa2 123b 296b 76bd
00000220: 23ed 013d d3e7 893d ee85 aa3b 9109 a7bc
00000230: 6843 453d d97a b3bb 6e8f 64bd 48e8 50bc
00000240: 34c4 023d d653 18bc 3bbe 12bd 0e98 57bc
00000250: cdc6 483d f908 2b3d 85da e3bb a07b 8b3d
00000260: 337f 4ebd 774c 5fbd 43f3 4b3d 5aa5 09bd
00000270: 1329 043d bc39 25bd 2435 6cbd 5ac3 4abd
00000280: 4dd8 1f3d f589 d43c 5539 5f3d 6515 5c3d
00000290: e280 eab9 876b c4bc d98e acbc d967 1e3e
000002a0: 4597 b9bc f04d 6fbd a8a6 25bd 6b29 ba3b
000002b0: 9cef 463c ab1b bebc bd4b 3e3d ebe6 aabc
000002c0: 1d10 993c 0c58 cabc daf3 8f3c a7be fd3b
000002d0: b670 443d fe3f 58bc 5270 2d3a c851 093b
000002e0: a59f 9abb f2e4 f03c 1915 43bd aa33 43bd
000002f0: 2513 0e3d 6b51 273d 2cc7 733d 7650 e63c
00000300: 945d 673a ff0a 093d d2c4 f7bc 22e7 55bd
00000310: ddeb e1bc eab0 f13c dc4c 1cbc b784 453b
00000320: f440 7bbd 1d91 43bd 5354 0f3d 62bc 80bd
00000330: 7c3c 733d 88da fa3c df6b 153d a70b 5dbd
00000340: cd0d 18bd e29d 06bd c8b9 f73c 4416 52bc
00000350: 0451 043d 2524 1ebd 6072 a93c 9cf8 d63c
00000360: b628 513d 7793 113b e10c 183d b7af 3f3c
00000370: 8cc9 bdbc 9174 f0bc 1cc8 603c 03eb 5dbd
00000380: 1b89 eabb 6af3 99bb a502 f7bb 9a7b 673d
00000390: cb44 4fbd 1cf1 2f3d 8ccc 85bd f8b8 1f3d
000003a0: 16df e3bc a9cb 3b3d 7c38 fdbc d828 4a3c
000003b0: 47e5 7dbd 3a6d daba 2231 0b3d d9bb 613c
000003c0: a559 953a f9cb ebbc e3ad 533c ac16 8dbd
000003d0: aad8 543d 8081 9bbc c74e 593d 6273 09bd
000003e0: 7625 abbb f411 32bc 92c0 0cbd 1bf1 39bd
000003f0: 6110 f8bc 83b7 77bd d086 74bd f2e2 30bd

lin3.weight f4 [128, 256]
0.04418774 0.010125354 -0.060395032 0.027025416 0.05665975 -0.02465219 -0.04906562 -0.039075635
-0.0027468947 0.052209046 0.017729811 -0.01908385 0.030408349 0.04230123 -0.031204302 -0.023355309
0.060152348 0.047726408 -0.0069628134 -0.023486467 -0.052725457 0.016642824 -0.021036446 -0.0042719
-0.02804491 0.029184408 0.04945167 0.052588012 0.039549217 -0.0113398675 -0.057699062 0.003035175
-0.033766612 -0.030177623 -0.03776989 0.0017457753 0.0007266849 0.0072249174 0.00995504 -0.040249147
0.012646817 0.04330153 0.047247216 -0.048180334 0.016863681 0.016713709 0.0060765445 -0.052659288
-0.027454577 -0.027273314 -0.035170086 0.00045116578 0.025439858 0.010559684 0.020786636 0.0109905
0.03771663 0.04914069 -0.0041144937 -0.06361534 -0.042162877 0.03786724 -0.0027919486 0.002330323
0.043881126 0.053400137 0.06082744 0.009927889 0.050971914 -0.027355587 0.061281614 0.043232054
0.012247697 0.050385773 -0.004406169 -0.0051298565 -0.03347376 -0.036212493 -0.043959208 -0.043746673
-0.081318624 -9.7319484e-05 0.014094196 -0.017908238 0.036966022 -0.023566864 0.02637862 -0.05918763
-0.0378524 -0.058050856 0.013457827 0.035527475 -0.022894077 0.0053984895 -0.00037270453 -0.01736404
-0.036233872 0.011561104 0.020287849 0.027339999 0.0371629 -0.01806566 -0.06298652 -0.007731834
0.050276518 -0.02025078 -0.030258205 -0.039932862 -0.025490457 0.05269221 -0.06444372 0.02253849
0.01302151 0.036386594 -0.057670597 0.0607187 -0.0040516406 0.018590175 0.015601583 -0.0608792
-0.055239737 -0.011009643 0.05337622 -0.019483782 -0.046269853 -0.041323885 -0.04140161 0.024549231
0.035226073 -0.0074947253 0.008849111 0.04401976 0.04665637 -0.052500688 -0.054032266 0.0381129
0.026094556 -0.01026421 -0.020343205 0.025190432 -0.032357533 -0.018637128 -0.0509265 -0.03960997
-0.011923371 -0.053202372 -0.0055760355 0.028975584 -0.060800154 0.051997475 0.05509951 -0.0025454264
-0.018489122 0.01048281 0.025091335 0.014170156 -0.053826112 0.03147208 0.058070555 0.008694178
-0.061425418 -0.005911678 0.04078179 0.0018522782 -0.045774948 0.015520472 0.049952324 -0.039563082
0.030700192 -0.005808942 0.026284834 -0.06516443 0.045814205 -0.021534177 0.04836469 -0.06036684
0.0022480204 -0.009655774 0.03189124 -0.02984956 -0.020357192 -0.058865644 -0.04876813 -0.018305477
-0.04915102 -0.053843237 0.053826056 -0.056160137 -0.0057009384 0.03575021 -0.025336556 0.040134314
-0.0037462267 0.017681144 -0.008177979 -0.00045301765 0.030703321 -0.009269036 -0.042731132 -0.052296452
0.009402787 -0.011850171 -0.0480081 -0.042377092 0.02081206 0.047921352 0.00048355848 -0.03815429
-0.046826154 0.048293546 -0.051370237 -0.04379453 0.010193833 -0.056913264 0.01083073 -0.025884574
0.011449786 -0.033828646 -0.04552287 -0.046289172 -0.04876958 -0.024318432 0.044187315 -0.05279738
-0.011542799 0.032513134 -0.029947037 -0.032164272 0.018608294 -0.05094576 -0.022087991 -0.036904447
-0.01077906 -0.04290822 0.039575577 -0.028145723 -0.012393564 -0.005980119 -0.0328008 0.04810103
-0.02917322 0.04617107 -0.05586759 0.02362626 0.018825479 0.011393488 -0.0054831733 -0.047006495
0.029243633 -0.006642975 -0.0067404695 0.039296605 -0.04761448 0.025973208 -0.055678815 0.0033986494
00000000: 34fe 343d d0e4 253c c860 77bd 6864 dd3c
00000010: 0e14 683d 64f3 c9bc 08f9 48bd c60d 20bd
00000020: 3f05 34bb 27d9 553d 1c3e 913c bc55 9cbc
00000030: ee1a f93c 0e44 2d3d 2aa0 ffbc a253 bfbc
00000040: 4f62 763d c47c 433d 5028 e4bb b166 c0bc
00000050: a6f6 57bd 8856 883c a054 acbc 4bfb 8bbb
00000060: 70be e5bc 2414 ef3c d68d 4a3d 8766 573d
00000070: 5cfe 213d daca 39bc da55 6cbd c9e9 463b
00000080: dc4e 0abd 1037 f7bc 9ab4 1abd 80d2 e43a
00000090: 007f 3e3a 00bf ec3b 771a 233c 4adc 24bd
000000a0: 9834 4f3c f25c 313d 4c86 413d be58 45bd
000000b0: b425 8a3c 30eb 883c c01d c73b 44b1 57bd
000000c0: 6ce8 e0bc 496c dfbc 820e 10bd 728a ec39
000000d0: 4067 d03c 8602 2d3c bc48 aa3c 8011 343c
000000e0: c17c 1a3d c047 493d e0d2 86bb c248 82bd
000000f0: fbb2 2cbd ae1a 1b3d 20f9 36bb 55b8 183b
00000100: b2bc 333d 1aba 5a3d 3226 793d 96a8 223c
00000110: edc7 503d d318 e0bc 6e02 7b3d 1814 313d
00000120: 91aa 483c 5061 4e3d a061 90bb 5b18 a8bb
00000130: c81b 09bd 8d53 14bd 920e 34bd b62f 33bd
00000140: 618a a6bd 0018 ccb8 58eb 663c 4cb4 92bc
00000150: af69 173d 4c0f c1bc fa17 d83c ba6e 72bd
00000160: 1e0b 1bbd bcc6 6dbd 387e 5c3c 4285 113d
00000170: 5c8c bbbc d0e5 b03b 8e67 c3b9 083f 8ebc
00000180: f869 14bd c96a 3d3c b432 a63c 22f8 df3c
00000190: 2038 183d 6ffe 93bc 14ff 80bd 535b fdbb
000001a0: c0ee 4d3d f7e4 a5bc 0ee0 f7bc a490 23bd
000001b0: 5dd1 d0bc c9d3 573d 12fb 83bd a4a2 b83c
000001c0: 2c58 553c 1c0a 153d 0138 6cbd 2cb4 783d
000001d0: a0c3 84bb 6c4a 983c c89d 7f3c 785c 79bd
000001e0: 1043 62bd ca61 34bc 06a1 5a3d 749c 9fbc
000001f0: 7585 3dbd 3c43 29bd bc94 29bd 781b c93c
00000200: 3749 103d 5096 f5bb ddfb 103c 104e 343d
00000210: c01a 3f3d f60a 57bd f050 5dbd 461c 1c3d
00000220: 40c4 d53c 382b 28bc cba6 a6bc 2a5c ce3c
00000230: 5589 04bd e4ac 98bc 4e98 50bd 103e 22bd
00000240: 3e5a 43bc bbea 59bd 2db7 b6bb 345e ed3c
00000250: 9509 79bd 4efb 543d 06b0 613d 2bd1 26bb
00000260: 8076 97bc 18c0 2b3c 588c cd3c f129 683c
00000270: c578 5cbd dee8 003d 64db 6d3d 0772 0e3c
00000280: 3899 7bbd c0b6 c1bb ce0a 273d 25c8 f23a
00000290: 837e 3bbd 9449 7e3c cf9a 4c3d e60c 22bd
000002a0: f87e fb3c f058 bebb 4b53 d73c ee74 85bd
000002b0: ada7 3b3d 7168 b0bc 0e1a 463d 3843 77bd
000002c0: 8653 133b 4033 1ebc 64a0 023d 1087 f4bc
000002d0: 20c4 a6bc 1a1d 71bd 17c1 47bd 5ef5 95bc
000002e0: 9452 49bd ba8a 5cbd b678 5c3d 2c08 66bd
000002f0: f0ce babb d06e 123d 9c8e cfbc e163 243d
00000300: 4183 75bb 0cd8 903c eefc 05bc 0083 edb9
00000310: 8885 fb3c 28dd 17bc d706 2fbd ce34 56bd
00000320: 260e 1a3c 3827 42bc 24a4 44bd 9a93 2dbd
00000330: 0e7e aa3c 2e49 443d 1f86 fd39 ac47 1cbd
00000340: c8cc 3fbd 74cf 453d 9969 52bd e561 33bd
00000350: 0904 273c e21d 69bd 6073 313c e30b d4bc
00000360: e297 3b3c e88f 0abd 3076 3abd b799 3dbd
00000370: 9cc2 47bd 7337 c7bc c2fd 343d 1142 58bd
00000380: 021e 3dbc 7e2c 053d 7d53 f5bc afbe 03bd
00000390: 6c70 983c 80ac 50bd e0f1 b4bc 1e29 17bd
000003a0: a89a 30bc 88c0 2fbd 001a 223d dc91 e6bc
000003b0: 600e 4bbc e0f4 c3bb 225a 06bd 9605 453d
000003c0: adfc eebc e01d 3d3d 6ad5 64bd dc8b c13c
000003d0: e437 9a3c c1ab 3a3c 31ac b3bb e289 40bd
000003e0: 5890 ef3c 50ad d9bb 28df dcbb 7af5 203d
000003f0: 6707 43bd c4c5 d43c 780f 64bd e0bb 5e3b

lin3.bias f4 [128]
0.028205471 0.032901946 -0.031097934 -0.053962097 0.01379337 -0.05715856 -0.054197576 -0.006410226
0.027957503 -0.033325918 -0.039400578 -0.06577036 -0.0064173494 0.044439502 -0.021142237 -0.00035267332
-0.042774238 0.034325156 -0.03456854 -0.043924958 0.020037577 -0.0076108295 0.016961306 -0.010043844
0.037070345 0.044750452 -0.0056396527 -0.00832898 0.0334443 0.040373076 -0.044506002 0.05729492
0.008694977 -0.011600633 -0.035723902 0.050492603 -0.0015135563 -0.036915082 0.031004388 -0.02928868
-0.00342872 0.03649372 0.050962012 -0.0014537799 0.04351266 -0.013540122 0.034209307 0.038912747
-0.018105144 -0.033660226 -0.02923974 -0.04624877 0.0059268232 -0.049441356 -0.036411922 -0.06440954
0.02451725 0.04463364 -0.030313404 0.04027029 0.00041513663 0.0024977713 0.018664297 -0.06669994
0.04281167 0.028686712 -0.007879883 0.05850328 0.035673197 -0.030975783 -0.026645727 0.03992071
0.0390815 0.06514082 0.013406285 0.043973662 0.0478047 -0.019799931 0.025835516 0.05886653
0.011660374 0.07534146 -0.022158181 0.022411207 -0.014024074 -0.0129614035 -0.025068825 -0.010562274
-0.057993297 0.034717795 0.011949175 -0.009765367 -0.050977204 0.019495 -0.036368106 -0.033357896
0.06274955 0.055665795 0.03186174 0.03231206 -0.063058876 -0.03703819 -0.02163535 -0.057190377
0.021828968 -0.04697177 0.031683806 -0.035985984 0.026756348 -0.030372662 0.07799388 -0.025406487
0.032193437 -0.03520449 0.040829882 -0.0073396345 0.016968366 0.014907835 -0.039272636 -0.066413425
0.04187643 -0.025790658 -0.0633118 -0.0010959478 -0.00902111 -0.021758568 0.04529257 -0.0052596186
00000000: 290f e73c 31c4 063d 18c1 febc 5c07 5dbd
00000010: 96fd 613c 181f 6abd 47fe 5dbd e00c d2bb
00000020: 2207 e53c c280 08bd 8062 21bd 9cb2 86bd
00000030: a148 d2bb 3206 363d 7c32 adbc 03e7 b8b9
00000040: 0a34 2fbd 8998 0c3d be97 0dbd a8ea 33bd
00000050: d825 a43c 4464 f9bb 70f2 8a3c ef8e 24bc
00000060: 13d7 173d 404c 373d d6cc b8bb 4676 08bc
00000070: e4fc 083d 3d5e 253d ed4b 36bd 14ae 6a3d
00000080: 6075 0e3c 9510 3ebc 3a53 12bd 55d1 4e3d
00000090: 8662 c6ba 4534 17bd eafc fd3c d0ee efbc
000000a0: 60b4 60bb 707a 153d 8bbd 503d c28c beba
000000b0: 553a 323d 63d7 5dbc 0f1f 0c3d f962 1f3d
000000c0: 3d51 94bc 4edf 09bd 2e88 efbc 5a6f 3dbd
000000d0: cc35 c23b 0583 4abd ab24 15bd 26e9 83bd
000000e0: 66d8 c83c c4d1 363d d153 f8bc 76f2 243d
000000f0: b2a6 d939 a6b1 233b dee5 983c fa99 88bd
00000100: 4a5b 2f3d 6500 eb3c a01a 01bc 23a1 6f3d
00000110: 0f1e 123d edc0 fdbc 2448 dabc e683 233d
00000120: ec13 203d 8d68 853d 09a6 5b3c ba1d 343d
00000130: dcce 433d 7733 a2bc 01a5 d33c 081e 713d
00000140: 270b 3f3c a04c 9a3d 1385 b5bc b597 b73c
00000150: 3bc5 65bc 115c 54bc 235d cdbc 630d 2dbc
00000160: 618a 6dbd 3f34 0e3d 79c6 433c ebfe 1fbc
00000170: 79cd 50bd fab3 9f3c b9f6 14bd 4aa2 08bd
00000180: d682 803d d101 643d 7581 023d a759 043d
00000190: 0325 81bd 5bb5 17bd 9e3c b1bc 7540 6abd
000001a0: aad2 b23c 7865 40bd e1c6 013d 0a66 13bd
000001b0: 2130 db3c 17d0 f8bc 41bb 9f3d 4421 d0bc
000001c0: 44dd 033d 9532 10bd 3c3d 273d 5181 f0bb
000001d0: 3e01 8b3c fe3f 743c 58dc 20bd c303 88bd
000001e0: 9f86 2b3d ee46 d3bc 9ea9 81bd e8a5 8fba
000001f0: 47cd 13bc 063f b2bc b484 393d e158 acbb

lin4.weight f4 [64, 128]
0.054250866 -0.087988496 -0.07357514 0.015973551 0.031219117 -0.015153445 0.09909708 -0.028725332
0.003304818 -0.012341581 -0.007741309 -0.033801205 -0.050032184 0.062473938 0.08772959 0.049277164
-0.08037636 0.057507012 -0.0417313 0.035235815 0.03837327 -0.022743398 -0.012683307 0.04660506
0.031617753 0.02098178 0.029861383 0.068975285 -0.03477076 0.050544992 -0.050985035 -0.07775602
-0.003936143 -0.06369688 0.07717179 -0.032656297 0.06698684 0.063534275 -0.01897612 0.08062051
-0.01784742 -0.06360602 -0.06973188 -0.06962517 0.0031742572 -0.058805633 -0.06793138 0.027883144
-0.08164805 -0.03302338 0.011045586 -0.028323675 0.02010327 -0.013229404 -0.07495102 -0.040676422
0.03406519 0.04506794 -0.0488518 0.05489765 0.026117943 -0.029409012 -0.01610181 -0.046718653
0.027072653 -0.08583553 -0.05823749 -0.055531833 0.05415262 -0.014571381 -0.039579093 0.03547397
0.04733502 -0.095222436 0.024776325 -0.012761738 0.033781923 -0.07948134 -0.04198477 0.03318389
-0.050969034 0.07517442 0.020699643 0.046889897 0.08592528 0.06147379 0.08131332 -0.06798982
-0.0026602247 0.06796677 -0.0532046 0.078007355 -0.052596305 -0.038000196 -0.021529734 0.026849693
-0.07881961 0.0037503466 0.01964635 0.008608346 0.09017477 0.049815822 -0.021995561 -0.023197534
0.022736989 0.040878993 -0.049463414 -0.07191284 -0.059779044 -0.045464907 -0.012018283 0.07528057
-0.04225287 0.0647719 -0.031127851 0.057240367 -0.07124456 0.07412459 -0.066639096 -0.03621105
-0.046863146 0.08787625 -0.08006948 0.070394054 0.08932375 -0.07354664 0.044640988 -0.04464304
-0.01658551 0.043133695 -0.0033597446 0.012174936 0.031373367 0.0036227945 -0.028843444 0.07850621
0.03469606 -0.033085063 -0.03773474 -0.007615645 0.021479791 -0.083957985 -0.011339483 0.054093868
0.0033078124 -0.014456099 -0.034832515 0.0757492 -0.08256007 -0.03377077 0.018529054 -0.046521764
0.02253741 0.04179941 0.014038599 -0.001542335 -0.04822672 0.06872435 0.08551326 -0.069594026
-0.0801184 -0.055439163 0.038269415 -0.032542683 -0.020722745 -0.009528075 -0.050028574 -0.022012003
0.055280987 -0.039756693 0.0831324 -0.054677807 -0.052971434 0.009782345 0.084125586 -0.018327303
0.036528815 0.055726264 -0.030668462 -0.047874473 0.0806549 0.030970313 0.059100647 0.019823493
0.010853196 -0.044232674 0.045718703 -0.04014515 -0.06936753 -0.02172068 0.013953223 0.07466796
-0.051416762 -0.029955361 -0.0050267414 -0.015970211 -0.054933764 -0.032291573 -0.053524453 0.06520881
-0.0013458193 0.031092154 0.017739853 0.00046278856 -0.087326474 -0.026723722 -0.07109805 -0.0025341592
0.027367648 0.076665126 -0.0340843 0.02034094 0.024392694 -0.064149834 -0.027714975 0.073907755
-0.0056434395 -0.06234438 0.04957875 -0.0015164589 0.039196987 0.037600532 -0.08131834 -0.04020417
-0.049161524 0.012972757 -0.013740051 -0.0120899 -0.038029496 -0.03686616 -0.059168067 -0.07604302
-0.017754655 0.0029588044 -0.033885993 0.031144278 0.01899944 0.038754884 0.05175186 0.06573152
-0.03414416 0.07727273 0.013787697 0.0050648586 -0.059669826 0.062253263 -0.07834371 0.083948776
-0.04016915 0.021920796 -0.00977377 -0.037161455 -0.07812594 0.035917062 -0.07010997 0.03218525
00000000: 2836 5e3d 5033 b4bd 90ae 96bd f7da 823c
00000010: 3cbf ff3c 2846 78bc 69f3 ca3d 6351 ebbc
00000020: a595 583b 5834 4abc ceaa fdbb 2273 0abd
00000030: 8cee 4cbd ace4 7f3d 92ab b33d dad6 493d
00000040: 5c9c a4bd 798c 6b3d 71ee 2abd 6e53 103d
00000050: 4a2d 1d3d 5d50 babc a5cd 4fbc f3e4 3e3d
00000060: 9e81 013d fbe1 ab3c dc9f f43c ea42 8d3d
00000070: c96b 0ebd 4408 4f3d afd5 50bd 8c3e 9fbd
00000080: c3fa 80bb 8373 82bd 3e0c 9e3d 9cc2 05bd
00000090: 6530 893d 421e 823d cf73 9bbc 5e1c a53d
000000a0: c134 92bc df43 82bd 97cf 8ebd a497 8ebd
000000b0: 3307 503b 2dde 70bd 9b1f 8bbd 316b e43c
000000c0: 1837 a7bd 8643 07bd 8cf8 343c 0d07 e8bc
000000d0: 9daf a43c 24c0 58bc ec7f 99bd 529c 26bd
000000e0: f187 0b3d 2999 383d d318 48bd 5cdc 603d
000000f0: 4cf5 d53c 2beb f0bc f1e7 83bc 0f5c 3fbd
00000100: 78c7 dd3c 8aca afbd 6f8a 6ebd 5975 63bd
00000110: 23cf 5d3d cdbc 6ebc b01d 22bd 274d 113d
00000120: 5ee2 413d fb03 c3bd b8f7 ca3c 9c16 51bc
00000130: ea5e 0a3d 1dc7 a2bd 39f8 2bbd d5eb 073d
00000140: e8c4 50bd 0cf5 993d 4c92 a93c 9f0f 403d
00000150: 98f9 af3d f1cb 7b3d 9987 a63d 3f3e 8bbd
00000160: 2a57 2ebb 2932 8b3d 11ed 59bd 52c2 9f3d
00000170: 396f 57bd 18a6 1bbd 205f b0bc e3f3 db3c
00000180: 2d6c a1bd 60c8 753b 62f1 a03c 050a 0d3c
00000190: 8dad b83d ad0b 4c3d 0930 b4bc c108 bebc
000001a0: ec42 ba3c bb70 273d 269a 4abd 0a47 93bd
000001b0: dfda 74bd 6939 3abd 55e8 44bc b32c 9a3d
000001c0: 5811 2dbd 21a7 843d d6ff febc e074 6a3d
000001d0: abe8 91bd a2ce 973d 147a 88bd 0a52 14bd
000001e0: 92f3 3fbd 77f8 b33d 78fb a3bd c22a 903d
000001f0: 5fef b63d 9f9f 96bd 78d9 363d 9fdb 36bd
00000200: 56de 87bc f5ac 303d 292f 5cbb 6279 473c
00000210: 5c81 003d 686c 6d3b 1649 ecbc ddc7 a03d
00000220: 751d 0e3d 3484 07bd be8f 1abd a98c f9bb
00000230: 63f6 af3c 2af2 abbd 3dc9 39bc 8891 5d3d
00000240: e2c7 583b 46d9 6cbc 8aac 0ebd 6622 9b3d
00000250: 4115 a9bd 3853 0abd 3eca 973c 9b8d 3ebd
00000260: 60a0 b83c dc35 2b3d 2702 663c 2d28 caba
00000270: 6289 45bd 5abf 8c3d 9321 af3d 5087 8ebd
00000280: 1e15 a4bd 2d14 63bd 64c0 1c3d 7a4b 05bd
00000290: bfc2 a9bc a51b 1cbc c3ea 4cbd 8452 b4bc
000002a0: 516e 623d ead7 22bd 5241 aa3d d6f5 5fbd
000002b0: 93f8 58bd 2146 203c 094a ac3d 2423 96bc
000002c0: 3d9f 153d 3941 643d 6d3c fbbc 0618 44bd
000002d0: 652e a53d 74b5 fd3c 8513 723d e164 a23c
000002e0: 9ad1 313c 522d 35bd 8943 3b3d 3e6f 24bd
000002f0: 9010 8ebd 91ef b1bc 0f9c 643c 84eb 983d
00000300: 629a 52bd f264 f5bc 5db7 a4bb f6d3 82bc
00000310: 3a02 61bd 2b44 04bd 753c 5bbd 328c 853d
00000320: 3466 b0ba f9b4 fe3c 2b53 913c 6ea2 f239
00000330: 39d8 b2bd b5eb dabc db9b 91bd 2314 26bb
00000340: 1e32 e03c 9b02 9d3d fb9b 0bbd 0ba2 a63c
00000350: 30d3 c73c fd60 83bd 840a e3bc f35c 973d
00000360: 9aec b8bb d25c 7fbd 1613 4b3d ebc3 c6ba
00000370: 058d 203d 0403 1a3d 3b8a a6bd 21ad 24bd
00000380: 985d 49bd b08b 543c f31d 61bc b714 46bc
00000390: d1c4 1bbd f800 17bd 375a 72bd 71bc 9bbd
000003a0: 3672 91bc 80e8 413b 0acc 0abd 4922 ff3c
000003b0: b7a4 9b3c 71bd 1e3d c2f9 533d 3f9e 863d
000003c0: bfda 0bbd 2a41 9e3d cbe5 613c 1df7 a53b
000003d0: 5968 74bd 47fd 7e3d ab72 a0bd 56ed ab3d
000003e0: 6888 24bd 3e93 b33c 2a22 20bc 9c36 18bd
000003f0: 7e00 a0bd c51d 133d d195 8fbd aed4 033d

lin4.bias f4 [64]
0.087667465 0.07931002 -0.04877447 -0.029638615 0.053030156 0.031050194 0.07402718 -0.06728428
-0.07139009 -0.03332786 0.068225555 -0.077179305 0.006970677 -0.0036745917 -0.009155675 -0.061580066
0.07765018 0.052126788 0.047865395 -0.015470557 0.06589593 0.02307294 0.0029253575 -0.0611295
0.016211862 0.05632669 -0.070532136 0.079233274 0.07311074 -0.05604979 -0.08121965 0.07138178
0.06420112 -0.019376047 -0.006996129 0.078105226 0.021110704 -0.069529034 0.059577126 -0.09834187
-0.036295723 0.021907203 -0.06673159 -0.018334592 -0.07837143 -0.062503494 -0.0018369367 0.037686802
-0.035132103 -0.062181275 0.08529354 0.010733509 -0.0331091 -0.03944803 0.0224288 0.0416555
-0.08165027 -0.05186459 0.021419102 0.057726115 -0.031921502 0.02869321 0.042720623 0.028842587
00000000: 008b b33d 4b6d a23d bdc7 47bd aecc f2bc
00000010: 2636 593d fa5c fe3c 909b 973d 57cc 89bd
00000020: f834 92bd cb82 08bd d7b9 8b3d 2f10 9ebd
00000030: 476a e43b 6bd1 70bb af01 16bc 613b 7cbd
00000040: 0f07 9f3d e682 553d 810e 443d 3878 7dbc
00000050: 72f4 863d 7603 bd3c 5bb7 3f3b ed62 7abd
00000060: bdce 843c d1b6 663d 2773 90bd 0e45 a23d
00000070: 15bb 953d 7794 65bd 7d56 a6bd 9c30 923d
00000080: e07b 833d 84ba 9ebc c93f e5bb a2f5 9f3d
00000090: 5bf0 ac3c 3d65 8ebd 2507 743d 7667 c9bd
000000a0: d3aa 14bd bc76 b33c 92aa 88bd 6d32 96bc
000000b0: 3381 a0bd d501 80bd 5ec5 f0ba 7a5d 1a3d
000000c0: aee6 0fbd cbb1 7ebd 61ae ae3d 9adb 2f3c
000000d0: 689d 07bd 4294 21bd 9abc b73c f59e 2a3d
000000e0: 4238 a7bd f76f 54bd 1d77 af3c 3872 6c3d
000000f0: 1fc0 02bd 060e eb3c d2fb 2e3d 4a47 ec3c

lin5.weight f4 [16, 64]
-0.08790312 0.045860656 -0.056221638 -0.028786173 -0.0119629335 -0.048850086 0.06319008 0.1100143
0.0058068684 -0.002169292 -0.04307174 -0.04596906 -0.08100271 0.10913533 0.103957064 0.084926955
0.06865094 0.11528597 -0.057861473 0.014686465 0.04438562 -0.03774225 -0.0416698 0.09840838
-0.028687404 -0.036503058 -0.088721745 0.013395861 0.06953413 -0.0943077 0.04066575 0.043359388
-0.009839025 0.10903732 0.015233273 -0.0120557835 -0.0062843068 -0.020212669 -0.050283797 0.084874384
0.08324947 0.017231219 -0.09417079 0.02904603 -0.07432408 0.09760598 -0.11626428 0.022670576
-0.022295777 -0.04408461 -0.058008764 -0.078838795 -0.09903329 -0.055047095 0.11334408 -0.09957991
0.09904353 0.11601616 -0.0739754 0.08330335 -0.114730805 0.048181243 -0.009307492 0.08114303
0.012689911 0.09315982 0.063970596 -0.08672125 -0.07729574 0.022820408 0.13148327 -0.0062306575
-0.019573476 -0.014862656 0.13781127 0.05017106 -0.08945613 0.11784032 -0.11430874 0.053611197
0.043674417 0.09511998 -0.047818456 0.107413426 0.12272861 0.046614725 -0.0672513 -0.03347453
-0.106459856 0.10146693 0.0026251692 -0.05712237 -0.034860853 0.087102614 -0.02577229 0.07576894
-0.003016189 -0.108300954 -0.03411859 -0.040442493 0.048479892 -0.07957012 0.029233996 -0.03485735
0.046721593 -0.016708214 -0.046076406 0.06988215 0.044340108 0.009154835 -0.053169146 -0.024202572
0.08333799 0.026832212 0.020988096 -0.08986027 0.021887453 -0.08615691 0.015306518 0.0623253
-0.06535445 0.11234851 -0.054035556 0.051402785 -0.05681183 -0.06481356 -0.089245155 0.05841301
-0.0021521929 -0.030239867 -0.07723058 -0.012136255 -0.042975932 -0.12694888 -0.0016269895 0.05550945
-0.0015995194 -0.10176452 -0.044558972 -0.034906205 -0.039960284 0.07345877 -0.030329963 -0.0476499
-0.02105031 0.117682345 -0.010537009 -0.025416218 -0.113739416 -0.041670162 0.020487187 -0.057618026
0.056016844 -0.10192359 0.04632052 -0.07771488 0.0019193379 -0.0099802455 -0.017836863 -0.014537914
0.077141814 -0.1276599 0.088047765 0.079609975 0.07335829 0.02515049 0.11300043 0.039469182
0.0857673 -0.111146346 0.023066511 -0.0764958 0.1014946 -0.009694384 -0.08504164 0.050158106
0.033519804 0.038421955 -0.102324866 -0.016170273 0.07700628 0.031055328 -0.09258998 0.08223498
-0.10281659 0.044912517 0.059735425 0.08952164 -0.026989289 -0.019903414 -0.10357016 0.098608546
0.008692487 -0.029475266 0.044351555 0.04687612 -0.072628625 -0.12055749 -0.09259266 0.11211956
0.058809202 -0.100373425 -0.062446684 0.10683582 -0.09548751 0.08436608 0.09284706 0.11327617
-0.036074974 0.01277446 0.10963894 0.009441094 0.04110282 0.08681271 -0.032772586 0.03341057
0.10334465 -0.103201605 -0.08921883 -0.058604818 -0.093769245 0.070688 -0.12373401 0.094639614
0.015113336 -0.059052166 -0.05792379 0.072005 -0.05697872 -0.09638491 0.03060732 0.081547864
0.11727409 -0.06928653 -0.03913608 -0.11328526 0.02516767 -0.05991215 0.10320087 -0.024019273
-0.035035733 0.03221622 0.0964405 0.03534724 -0.08298594 0.0108075645 0.034690928 0.08827648
0.07680859 -0.12593935 0.05307616 0.0896198 0.050744377 -0.02527038 -0.053912573 -0.011788257
00000000: 8d06 b4bd 62d8 3b3d a948 66bd fbd0 ebbc
00000010: 2e00 44bc 0717 48bd cd69 813d 2d4f e13d
00000020: 8b47 be3b ae2a 0ebb fe6b 30bd 0e4a 3cbd
00000030: c0e4 a5bd 5882 df3d 71e7 d43d 2fee ad3d
00000040: dd98 8c3d 0d1b ec3d 2700 6dbd 809f 703c
00000050: b2cd 353d 9e97 1abd f4ad 2abd 558a c93d
00000060: d901 ebbc 3b84 15bd bfb3 b5bd 507a 5b3c
00000070: e967 8e3d 6524 c1bd 2191 263d 9d99 313d
00000080: dd33 21bc f54e df3d fa94 793c 9f85 45bc
00000090: 96ec cdbb 0a95 a5bc 62f6 4dbd 9fd2 ad3d
000000a0: b37e aa3d 7c28 8d3c 9ddc c0bd f1f1 ed3c
000000b0: 3937 98bd a5e5 c73d f81b eebd a5b7 b93c
000000c0: a2a5 b6bc 1092 34bd 999a 6dbd 3c76 a1bd
000000d0: f7d1 cabd 1079 61bd f120 e83d 8df0 cbbd
000000e0: 56d7 ca3d e199 ed3d 6a80 97bd f29a aa3d
000000f0: fcf7 eabd b259 453d 737e 18bc 512e a63d
00000100: 58e9 4f3c 93ca be3d 0403 833d e99a b1bd
00000110: 3b4d 9ebd ddf1 ba3c 8da3 063e 8b2a ccbb
00000120: 8e58 a0bc 7f82 73bc 661e 0d3e 2b80 4d3d
00000130: c734 b7bd 4456 f13d b31a eabd 6a97 5b3d
00000140: f2e3 323d 44ce c23d 49dd 43bd 92fb db3d
00000150: 2359 fb3d 15ef 3e3d 0dbb 89bd 971c 09bd
00000160: a007 dabd e5cd cf3d 080b 2c3b 25f9 69bd
00000170: 41ca 0ebd db62 b23d 6920 d3bc bf2c 9b3d
00000180: 41ab 45bb e4cc ddbd efbf 0bbd 07a7 25bd
00000190: da92 463d a9f5 a2bd 227c ef3c 95c6 0ebd
000001a0: 245f 3f3d aadf 88bc 9dba 3cbd 5f1e 8f3d
000001b0: f99d 353d 29fe 153c e4c7 59bd 7944 c6bc
000001c0: 1cad aa3d 3acf db3c 3aef ab3c a908 b8bd
000001d0: 514d b33c 0973 b0bd 31c8 7a3c d048 7f3d
000001e0: 8ed8 85bd fa16 e63d 6354 5dbd ba8b 523d
000001f0: 85b3 68bd f9bc 84bd 2ac6 b6bd 7b42 6f3d
00000200: ce0b 0dbb 99b9 f7bc 112b 9ebd 25d7 46bc
00000210: 8807 30bd e3fe 01be b540 d5ba e15d 633d
00000220: f7a6 d1ba eb69 d0bd 7883 36bd cff9 0ebd
00000230: 65ad 23bd 8d71 963d 8b76 f8bc 8b2c 43bd
00000240: b371 acbc 7103 f13d 6ba3 2cbc ac35 d0bc
00000250: 36f0 e8bd 55ae 2abd bfd4 a73c e100 6cbd
00000260: eb71 653d 51bd d0bd 96ba 3d3d fb28 9fbd
00000270: 4b92 fb3a 2f84 23bc 9d1e 92bc 6e30 6ebc
00000280: 87fc 9d3d 47b9 02be 6352 b43d 8e0a a33d
00000290: df3c 963d 6708 ce3c c56c e73d 70aa 213d
000002a0: c4a6 af3d b2a0 e3bd fbf5 bc3c d4a9 9cbd
000002b0: 67dc cf3d 32d5 1ebc 502a aebd 9672 4d3d
000002c0: 104c 093d 5760 1d3d b38f d1bd 8577 84bc
000002d0: 78b5 9d3d be67 fe3c d19f bdbd d06a a83d
000002e0: 8191 d2bd 30f6 373d 22ad 743d 1f57 b73d
000002f0: a418 ddbc 7c0c a3bc 981c d4bd 47f3 c93d
00000300: ef6a 0e3c 1d76 f1bc faa9 353d 2d01 403d
00000310: 51be 94bd d8e6 f6bd 38a1 bdbd f19e e53d
00000320: ebe1 703d 9590 cdbd 18c8 7fbd bdcc da3d
00000330: f58e c3bd 20c8 ac3d 9926 be3d 56fd e73d
00000340: 5ac3 13bd f84b 513c 618a e03d d1ae 1a3c
00000350: 6e5b 283d ddca b13d 8c3c 06bd 86d9 083d
00000360: 5ca6 d33d 5d5b d3bd 5db8 b6bd 9b0b 70bd
00000370: 170a c0bd dfc4 903d 4268 fdbd 6ad2 c13d
00000380: ed9d 773c afe0 71bd 7f41 6dbd 5c77 933d
00000390: 8562 69bd 7465 c5bd 34bc fa3c 9102 a73d
000003a0: 662d f03d 19e6 8dbd 274d 20bd 1a02 e8bd
000003b0: 6e2c ce3c 7166 75bd fa5a d33d 11c4 c4bc
000003c0: a181 0fbd 28f5 033d 9982 c53d 44c8 103d
000003d0: 88f4 a9bd 3612 313c 1318 0e3d 4dca b43d
000003e0: d24d 9d3d 3ff6 00be 6366 593d 968a b73d
000003f0: 56d9 4f3d d403 cfbc 6ed3 5cbd 8923 41bc

lin5.bias f4 [16]
-0.056762166 -0.056242414 0.058050998 -0.06728855 0.0297812 0.059792332 -0.024292624 0.024330396
0.084696814 0.05774578 0.037299346 0.015109553 0.058796644 -0.06231938 -0.080977604 0.0015836214
00000000: 727f 68bd 725e 66bd e2c6 6d3d 94ce 89bd
00000010: b4f7 f33c cee8 743d 5301 c7bc 8a50 c73c
00000020: 8675 ad3d d786 6c3d 33c7 183d 0f8e 773c
00000030: c0d4 703d 9b42 7fbd 96d7 a5bd 8491 cf3a
