src/virtuose_teleoperation/network_controller/trained_policy_MLP/Grasp_norm_BC_AHEE_10hz_epoch_41.pth (torch, 456199 bytes, 10 tensors)

lin1.weight f4 [256, 20]
0.15172777 0.07301271 0.091654375 -0.11322063 0.16860922 -0.15284382 0.07549645 0.123430535
-0.03222761 0.05708856 -0.140648 0.20379461 0.054695107 -0.06883215 -0.1654374 0.23260814
0.12376227 0.026126597 -0.17296356 -0.035881773 -0.21809374 0.023384899 -0.020358328 0.07669622
-0.12800704 -0.0823085 -0.023697793 -0.10874005 0.19254367 0.18877421 -0.06069691 0.035894208
-0.046407674 0.1288845 0.13106698 0.062372994 -0.07818546 0.108244345 -0.06672803 0.16151287
-0.20533231 0.08661065 -0.120270126 -0.11693395 -0.056194816 -0.16178842 -0.16385537 0.1006733
-0.1195611 0.11720409 0.13120435 0.05184726 -0.2837374 0.087184116 -0.12866898 0.10906174
0.12272751 0.17433867 0.16147871 -0.06761119 -0.03693807 -0.08349826 0.023000358 -0.04110047
0.093101084 -0.21849535 -0.14063269 0.17238034 -0.105216205 -0.1636489 -0.007335063 0.2475139
-0.18962418 -0.008172158 -0.23337856 0.023067435 0.21952909 -0.19185588 0.15122929 -0.16550173
0.25181693 0.20080441 0.09244056 0.14641623 -0.079428636 -0.009962574 -0.22121638 0.118199386
0.22821362 0.11273715 0.21415439 0.1393329 0.12702823 0.07863253 0.10991154 -0.23785487
-0.11333951 0.19251882 0.18394788 -0.14151315 0.02127422 -0.1609696 -0.15365551 -0.15505862
-0.18221918 -0.18576854 -0.16011171 0.047682445 -0.04229843 -0.1722582 -0.12310072 -0.0893594
-0.22517836 0.057546932 -0.07931918 -0.110093005 -0.022520088 0.031470962 -0.048769422 0.12741965
-0.14378263 0.14512156 -0.14237411 -0.18342921 0.013236838 -0.197253 -0.10685458 0.005674634
-0.34627414 -0.10910211 -0.269972 -0.06122687 -0.2882664 -0.12987313 0.029760184 0.26116297
0.03019909 0.05461994 -0.11417364 0.10800754 -0.16246411 -0.25435373 -0.2231268 0.078984596
-0.039444234 -0.2160302 0.040720474 -0.10258491 -0.10494575 0.20255455 -0.114223085 -0.23005307
0.062336005 0.24271505 -0.27453348 -0.103696465 -0.051790375 0.17914101 -0.13214369 0.06155608
-0.057218216 -0.041752633 -0.33392105 0.47401136 -0.116760895 -0.08864012 -0.31852415 -0.023135057
0.055875037 0.1543758 -0.18828715 0.12381992 0.09167442 -0.16205242 0.11378752 -0.06331623
0.068683565 -0.04272698 -0.08544825 -0.2725639 -0.13810243 -0.0868895 -0.09437937 -0.24278833
0.15127118 0.21346086 -0.08293941 0.03393948 -0.050303303 -0.24729788 0.07368841 0.19679302
0.040251818 0.29637575 -0.34696847 0.035676006 0.18467458 -0.12059749 0.15237606 0.014650146
0.0698004 0.221915 0.027174853 -0.23864266 0.21036714 0.004057443 0.2343285 -0.0141246645
-0.23456545 0.13845724 -0.08886374 0.008155117 0.21236491 -0.30067515 0.18424389 -0.15385969
-0.12644131 0.14076129 0.0027372607 -0.02072232 0.20697214 -0.25745538 -0.4923377 -0.29171556
0.52367175 0.19926666 -0.0066482183 0.11637494 -0.59116554 0.43088442 0.00239555 -0.43580958
0.28563398 -0.62227446 0.6458659 -0.24026108 -0.0038479147 -0.1583905 0.29988146 -0.12758772
0.15007831 0.07685045 0.09968485 -0.01040191 -0.1881976 0.12690987 0.048207134 0.06525261
-0.16451356 0.15225285 -0.11527274 -0.09719813 -0.1380851 -0.17350712 -0.123484045 0.11429867
00000000: 865e 1b3e b087 953d 4ab5 bb3d 38e0 e7bd
00000010: e5a7 2c3e 1783 1cbe e29d 9a3d 26c9 fc3d
00000020: 1901 04bd b2d5 693d 0806 10be 89af 503e
00000030: fa07 603d dff7 8cbd 6c68 29be d430 6e3e
00000040: 1377 fd3d 7207 d63c 5c1d 31be c4f8 12bd
00000050: f753 5fbe b091 bf3c 82c6 a6bc e812 9d3d
00000060: 4714 03be 5c91 a8bd e021 c2bc 1ab3 debd
00000070: 2b2a 453e 074e 413e 539d 78bd ce05 133d
00000080: f915 3ebd 4cfa 033e 6c36 063e d37a 7f3d
00000090: b31f a0bd 36af dd3d b5a8 88bd a163 253e
000000a0: a242 52be ed60 b13d 2f50 f6bd 117b efbd
000000b0: 892c 66bd ddab 25be b4c9 27be ce2d ce3d
000000c0: 73dc f4bd b308 f03d 6f5a 063e cb5d 543d
000000d0: 0746 91be 968d b23d cdc1 03be c35b df3d
000000e0: 9058 fb3d d685 323e ad5a 253e bc77 8abd
000000f0: 604c 17bd 2301 abbd 3f6b bc3c f758 28bd
00000100: c8ab be3d 3fbd 5fbe 0402 10be 7984 303e
00000110: 987b d7bd 9493 27be f85a f0bb 4974 7d3e
00000120: d72c 42be 84e4 05bc cafa 6ebe ebf7 bc3c
00000130: 3ccc 603e de75 44be dadb 1a3e 4979 29be
00000140: 26ee 803e ac9f 4d3e 7a51 bd3d 23ee 153e
00000150: 7bab a2bd 103a 23bc 8c86 62be 8512 f23d
00000160: d5b0 693e bce2 e63d 4a4b 5b3e 49ad 0e3e
00000170: b013 023e 180a a13d 4d19 e13d 3a90 73be
00000180: 8c1e e8bd a723 453e d55c 3c3e d3e8 10be
00000190: 4647 ae3c 37d5 24be df57 1dbe b0c7 1ebe
000001a0: aa97 3abe 1c3a 3ebe 53f4 23be ab4e 433d
000001b0: 1e41 2dbd 7464 30be 3b1c fcbd 1002 b7bd
000001c0: 2895 66be 55b6 6b3d 1872 a2bd 7178 e1bd
000001d0: 0c7c b8bc b2e7 003d 72c2 47bd 4c7a 023e
000001e0: c13b 13be bf9a 143e 85ca 11be ded4 3bbe
000001f0: 53df 583c b1fc 49be 93d6 dabd 48f2 b93b
00000200: d84a b1be ed70 dfbd c539 8abe 07c9 7abd
00000210: a797 93be 76fd 04be a1cb f33c 27b7 853e
00000220: 1564 f73c 29b9 5f3d dfd3 e9bd 0f33 dd3d
00000230: fe5c 26be a73a 82be 5a7b 64be adc2 a13d
00000240: 4790 21bd 0537 5dbe 83ca 263d 0a18 d2bd
00000250: cced d6bd 766a 4f3e cbed e9bd 0893 6bbe
00000260: 0a54 7f3d 4b8a 783e a78f 8cbe d05e d4bd
00000270: 2522 54bd be70 373e ad50 07be 3a22 7c3d
00000280: a65d 6abd cf04 2bbd b3f7 aabe 9eb1 f23e
00000290: 5620 efbd f488 b5bd 9915 a3be bb85 bdbc
000002a0: 39dd 643d b114 1e3e 59ce 40be 4c95 fd3d
000002b0: ccbf bb3d 12f1 25be 6e09 e93d f1ab 81bd
000002c0: f8a9 8c3d 7c02 2fbd 7eff aebd 7f8d 8bbe
000002d0: b96a 0dbe 1ff3 b1bd f949 c1bd 819d 78be
000002e0: d5e6 1a3e 7c95 5a3e 23dc a9bd 2004 0b3d
000002f0: d60a 4ebd a83b 7dbe f3e9 963d 1c84 493e
00000300: 17df 243d 90be 973e daa5 b1be 0121 123d
00000310: 551b 3d3e d1fb f6bd 7808 1c3e 2a07 703c
00000320: 83f3 8e3d b03d 633e cc9d de3c be5e 74be
00000330: 7c6a 573e 4cf4 843b cff3 6f3e 236b 67bc
00000340: ed31 70be bcc7 0d3e 31fe b5bd 0a9d 053c
00000350: 3076 593e 18f2 99be 6eaa 3c3e 658d 1dbe
00000360: d579 01be ba23 103e 9d63 333b dbc1 a9bc
00000370: 81f0 533e 31d1 83be b013 fcbe be5b 95be
00000380: 5a0f 063f 8f0c 4c3e 4cd9 d9bb fc55 ee3d
00000390: a056 17bf e29c dc3e a9fe 1c3b 6f22 dfbe
000003a0: 9e3e 923e 614d 1fbf 7857 253f 0007 76be
000003b0: 4c2d 7cbb 1f31 22be 108a 993e 5ba6 02be
000003c0: 21ae 193e c563 9d3d 9227 cc3d c66c 2abc
000003d0: dfb6 40be a9f4 013e d874 453d 29a3 853d
000003e0: 3e76 28be 2ce8 1b3e 1d14 ecbd d00f c7bd
000003f0: 2e66 0dbe daab 31be 34e5 fcbd 6c15 ea3d

lin1.bias f4 [256]
0.018579476 -0.12622319 -0.23180246 0.12603089 0.027036073 -0.07026003 -0.046004616 0.13348515
0.14444609 0.10556666 0.19767946 0.41813305 -0.04569896 -0.16482766 -0.045530893 0.22606222
-0.5757691 0.09844262 0.12533823 -0.07627926 -0.09735941 -0.04047836 0.015669424 0.24723884
-0.055910334 -0.05448988 -0.055361755 0.1894765 0.10921391 -0.29155204 -0.12528342 0.18224055
-0.29614922 0.26557744 0.13356425 -0.08386179 -0.07269987 -0.1841808 0.18691355 -0.5016313
0.11249918 -0.026603056 0.111734875 -0.024040682 -0.30919194 0.41972762 -0.033350263 -0.05794526
0.22662163 -0.07545041 -0.16047008 -0.20576341 0.07949844 -0.15694566 -0.08185324 -0.05509632
-0.03991926 -0.11079702 -0.16750346 -0.095678896 -0.1998117 0.10401124 -0.017310908 -0.34349895
-0.13826685 0.11201728 -0.18782209 -0.10143393 0.029975051 -0.059601773 0.02731269 0.18032868
0.041726287 -0.11211313 -0.62469107 0.13703306 0.11662814 -0.13804008 -0.025241774 0.118751034
-0.18348311 -0.17421967 -0.056182902 -0.53882915 -0.20260237 -0.34798723 0.16011532 -0.08391448
-0.072268754 -0.28471923 -0.16019833 0.22047843 0.03545645 0.1637204 -0.23542348 0.12516496
0.11519225 0.15072782 0.14807144 0.054045763 -0.030260721 -0.2791314 0.075704776 -0.084044814
-0.1824311 0.1514048 0.19521958 0.009229128 0.25262958 0.1634718 -0.054659355 -0.25264853
-0.06779752 -0.053172573 0.1103012 -0.18871364 -0.13771357 -0.60166913 -0.100242086 -0.24958453
-0.4497492 -0.080259345 0.03886939 -0.28184626 -0.019310907 -0.20895384 -0.0029015427 -0.30413294
0.17806548 0.067713484 0.12285277 -0.1635701 -0.04013917 -0.10691724 -1.0461414 0.19639
0.045196485 0.12289176 -0.12738787 -0.08937903 0.17900816 -0.16291955 0.18868788 0.03647291
0.24376121 0.16618727 -0.17890702 0.03337912 -0.17399308 -0.2572207 -0.032972068 -0.22505008
-0.08052304 -0.3402609 0.009399629 -0.029474745 0.07167276 -0.22809668 -0.11882767 -0.094072096
0.25453714 0.19698998 -0.008704316 0.2635199 0.083692044 0.2113826 -0.2515111 -0.4710052
-0.35641268 -0.037761856 0.36148864 -0.25524792 0.20127667 0.082795195 -0.0840314 0.008896282
0.20810387 -0.16933507 0.20580813 0.15754095 -0.17331973 -0.19189022 0.29614866 0.07365969
-0.14436062 -0.5960477 -0.062073536 -0.0069102803 -0.23832402 0.015885202 -0.22029029 -0.14114217
0.1391119 0.14917985 -0.20234944 -0.16646987 0.1508617 -0.10057759 0.14164926 -0.053967476
-0.24101222 -0.47444203 0.09891532 -0.080545284 -0.085619465 0.17952932 0.19231722 -0.194242
-0.18782066 -0.66820073 -0.013906328 0.062299915 -0.08248986 -0.34387773 -0.23998417 -0.21364367
-0.08412879 0.18491305 0.13176109 -0.34264117 -0.16435996 -0.11408894 0.30905727 0.08637163
0.11159808 0.0051163537 0.16071033 0.177389 0.0270087 0.11580981 -0.1640276 0.11589568
-0.13792926 -0.22904229 0.044617675 0.068642095 0.2111336 0.20777152 -0.19024822 0.19858791
0.090720125 0.13650241 0.07850088 -0.061803274 0.004353113 0.22658691 0.062089887 0.02720496
-0.0041937954 0.14202175 -0.044976834 -0.2834155 0.052276902 0.059785772 0.07788636 -0.13459276
00000000: fc33 983c a740 01be a05d 6dbe 3e0e 013e
00000010: c17a dd3c 7ee4 8fbd 566f 3cbd 55b0 083e
00000020: ade9 133e 5533 d83d 7c6c 4a3e 8915 d63e
00000030: d52e 3bbd 95c8 28be 9a7e 3abd db7c 673e
00000040: 9b65 13bf 499c c93d aa58 003e 4d38 9cbd
00000050: 5f64 c7bd a3cc 25bd 2a5d 803c 2e2c 7d3e
00000060: 3c02 65bd c830 5fbd 02c3 62bd 2106 423e
00000070: 8bab df3d 4f46 95be 4c4a 00be 449d 3a3e
00000080: dfa0 97be c4f9 873e 11c5 083e bbbf abbd
00000090: abe3 94bd e499 3cbe 4466 3f3e e96a 00bf
000000a0: f865 e63d a7ee d9bc 41d5 e43d f7f0 c4bc
000000b0: 684e 9ebe 8ae6 d63e 499a 08bd 0258 6dbd
000000c0: 800f 683e bf85 9abd 4552 24be a5b3 52be
000000d0: 14d0 a23d 5db6 20be aca2 a7bd aeac 61bd
000000e0: 6182 23bd 8ce9 e2bd 0786 2bbe 4cf3 c3bd
000000f0: 709b 4cbe d803 d53d 9bcf 8dbc 18df afbe
00000100: d395 0dbe 5169 e53d 6f54 40be 98bc cfbd
00000110: 3d8e f53c fd20 74bd ddbe df3c 15a8 383e
00000120: 2fe9 2a3d 929b e5bd c1eb 1fbf 6552 0c3e
00000130: bcda ee3d 615a 0dbe d6c7 cebc be33 f33d
00000140: ffe2 3bbe a466 32be 0b20 66bd b5f0 09bf
00000150: ff76 4fbe 622b b2be 45f5 233e 5bdb abbd
00000160: a401 94bd b8c6 91be 080b 24be 19c5 613e
00000170: c83a 113d 52a6 273e da12 71be 3e2b 003e
00000180: eae9 eb3d 6558 1a3e 0aa0 173e 175f 5d3d
00000190: 55e5 f7bc 50ea 8ebe 1b0b 9b3d b01f acbd
000001a0: 38cf 3abe dc09 1b3e a4e7 473e c535 173c
000001b0: aa58 813e 2765 273e 7de2 5fbd 265b 81be
000001c0: 6dd9 8abd 7ccb 59bd 98e5 e13d 263e 41be
000001d0: c904 0dbe fd06 1abf b94b cdbd 1693 7fbe
000001e0: 8745 e6be 035f a4bd 8235 1f3d 274e 90be
000001f0: e831 9ebc fff7 55be cf27 3ebb 50b7 9bbe
00000200: cc56 363e 5ead 8a3d 3c9a fb3d ec7e 27be
00000210: f868 24bd 6df7 dabd f6e7 85bf 761a 493e
00000220: f31f 393d adae fb3d f771 02be 5a0c b7bd
00000230: ea4d 373e 62d4 26be 6537 413e 9e64 153d
00000240: 8a9c 793e ff2c 2a3e 6733 37be 8bb8 083d
00000250: 3e2b 32be 6eb2 83be b80d 07bd 8773 66be
00000260: 43e9 a4bd ad36 aebe e700 1a3c 0575 f1bc
00000270: 2bc9 923d 2d92 69be ec5b f3bd dfa8 c0bd
00000280: b152 823e beb7 493e 8c9c 0ebc 15ec 863e
00000290: bc66 ab3d ae74 583e 10c6 80be 9827 f1be
000002a0: b97b b6be 2dac 1abd 0a15 b93e dbaf 82be
000002b0: 791b 4e3e 8790 a93d a818 acbd b6c1 113c
000002c0: 2e19 553e 2c66 2dbe 5ebf 523e 6a52 213e
000002d0: ba7a 31be df7e 44be cca0 973e e4da 963d
000002e0: 45d3 13be 9596 18bf d240 7ebd a26f e2bb
000002f0: 360b 74be af21 823c c793 61be 9387 10be
00000300: 5a73 0e3e 9ac2 183e b134 4fbe 1477 2abe
00000310: 7d7b 1a3e a0fb cdbd 810c 113e 000d 5dbd
00000320: e8cb 76be 11ea f2be 1e94 ca3d edf4 a4bd
00000330: 4259 afbd 89d6 373e ceee 443e 60e7 46be
00000340: 0f54 40be 340f 2bbf 5ed7 63bc 322e 7f3d
00000350: 72f0 a8bd be10 b0be 69be 75be 68c5 5abe
00000360: b74b acbd d959 3d3e 61ec 063e aa6e afbe
00000370: fa4d 28be 76a7 e9bd c13c 9e3e 9ce3 b03d
00000380: 898d e43d 16a7 a73b 4091 243e 76a5 353e
00000390: 5941 dd3c b22d ed3d daf6 27be b75a ed3d
000003a0: 543d 0dbe 108a 6abe 06c1 363d 3a94 8c3d
000003b0: 6833 583e 0fc2 543e 6ed0 42be a15a 4b3e
000003c0: 79cb b93d 4ac7 0b3e 12c5 a03d 6e25 7dbd
000003d0: 8fa4 8e3b 6606 683e f751 7e3d f0dc de3c
000003e0: 1b6c 89bb 266e 113e a139 38bd d61b 91be
000003f0: 4e20 563d ede1 743d e282 9f3d afd2 09be

lin2.weight f4 [256, 256]
-0.003749904 -0.053403925 -6.671943e-05 0.030006744 0.05893494 -0.012407055 -0.009695814 -0.046176586
-0.066560194 -0.001396577 -0.016003368 -0.035120048 -0.041217152 -0.0071714865 0.04535669 0.032940418
0.035864558 -0.04044908 0.006236602 -0.009377195 0.02129827 0.027382007 0.041479453 0.15764469
0.05329269 -0.023883741 0.0333169 0.10642434 0.053183053 -0.0014483305 0.008296985 0.014037539
0.055065177 -0.0041474607 -0.10115096 0.017200941 -0.3643474 0.057526924 0.034835663 -0.01639434
0.020584289 0.04661819 -0.052293018 0.03907237 0.08012677 -0.07577362 0.028134447 -0.122639336
-0.009330558 0.06735936 0.05621936 0.19474916 0.17622341 0.04544242 0.033428587 -0.23156384
0.024155177 0.0565299 -0.013166021 -0.012519175 -0.031308666 -0.0027540599 -0.21772815 0.030022211
-0.092233025 0.00748521 0.031803876 -0.053345222 0.040549483 0.005613803 0.050306424 0.056684285
0.02408014 -0.0012467785 0.15154296 0.03882999 -0.029430037 -0.17015772 -0.21324964 0.062076554
-0.059238367 -0.035034563 -0.0724182 -0.2531942 -0.008323338 0.06064663 0.05565183 0.021139638
-0.08166237 0.017157432 0.0398525 0.021815132 -0.056247886 -0.043466173 -0.07428382 0.00497922
-0.031542357 -0.0412702 -0.2718539 0.12628514 -0.36569843 0.010256014 -0.02311454 0.0018761777
0.00045664702 0.010471358 0.036299087 -0.060634505 0.011906082 -0.007170296 0.047037605 -0.024198016
0.03329065 -0.01708359 -0.041947428 -0.002400053 -0.10788904 0.11015706 0.044206545 -0.022731524
-0.27932665 -0.06329393 0.031881817 -0.015769063 0.044122636 0.06627079 -0.2920627 -0.14276832
-0.015551998 -0.07201947 0.00427801 0.021446906 0.039944727 0.02836286 -0.34599227 -0.0059577883
-0.016921185 -0.054412887 -0.014783076 0.025477268 -0.059026565 -0.03018356 0.043840095 0.030510776
0.3927267 0.070409626 0.047568724 0.04066222 0.032221094 -0.070820816 0.049073037 -0.026997186
-0.19106975 -0.04345028 0.050020956 -0.020632174 0.0071615567 0.06991661 -0.019770341 -0.02705783
0.12589388 0.042930216 0.076315366 -0.07175237 -0.051265657 -0.2087289 -0.024894712 -0.16323733
0.01021627 -0.004269509 -0.22209835 -0.025435321 0.032477267 0.037913352 -0.04466613 -0.025307635
-0.054664053 0.00016185222 -0.011955082 -0.018894758 0.032848842 -0.044550717 0.06285284 0.040837005
0.022354897 0.040723722 -0.015667856 0.06552723 -0.028647423 -0.030364431 0.00039492344 0.07499384
-0.11861303 -0.049236465 -0.016954696 -0.026978275 -0.085066654 -0.061270196 0.06379783 -0.042983185
0.037467867 -0.06526987 -0.011351513 -0.088624954 -0.07652548 0.046850447 -0.021390297 -0.01954533
-0.018579237 0.0966971 -0.79690295 -0.019546464 0.0014717855 0.03471015 0.08539241 0.0072824596
-0.018658997 0.0786094 0.017123979 -0.023133948 0.05070891 -0.03640085 0.026381588 0.022006745
-0.66173875 -0.056978088 -0.05103911 -0.013040934 -0.0598018 -0.030691331 -0.045762908 0.038983908
-0.041920498 -0.031289145 -0.026748654 -0.010032737 -0.016874583 -0.14029473 -0.036779784 -0.056595042
0.11584489 -0.008433111 0.043438457 0.015111336 -0.011290697 -0.03315664 0.037393734 -0.036521852
-0.0038371559 0.030503474 0.025583684 -0.013897403 0.039625563 -0.03268331 0.035795838 0.17842184
00000000: f3c0 75bb 13be 5abd b9eb 8bb8 b4d0 f53c
00000010: c365 713d f646 4bbc 31db 1ebc a923 3dbd
00000020: b650 88bd 590d b7ba 7f19 83bc 0ada 0fbd
00000030: 51d3 28bd cafe eabb f0c7 393d 88ec 063d
00000040: b7e6 123d efad 25bd 695c cc3b cea2 19bc
00000050: b679 ae3c 3b50 e03c 5ce6 293d 9c6d 213e
00000060: 7049 5a3d d6a7 c3bc 4d77 083d 01f5 d93d
00000070: 79d6 593d e8d5 bdba 14f0 073c b5fd 653c
00000080: 068c 613d 6ce7 87bb 3c28 cfbd fde8 8c3c
00000090: be8b babe 5aa1 6b3d d7af 0e3d 6c4d 86bc
000000a0: 62a0 a83c b7f2 3e3d 3431 56bd 590a 203d
000000b0: 8119 a43d 332f 9bbd 367a e63c 552a fbbd
000000c0: 32df 18bc b4f3 893d 4646 663d 536c 473e
000000d0: e973 343e d521 3a3d 6aec 083d 121f 6dbe
000000e0: 14e1 c53c e58b 673d 4bb6 57bc 3a1d 4dbc
000000f0: 843d 00bd 757d 34bb 21f4 5ebe 24f1 f53c
00000100: abe4 bcbd 7e46 f53b c844 023d 8580 5abd
00000110: 3717 263d fef3 b73b 1c0e 4e3d c82d 683d
00000120: b743 c53c f26a a3ba 142e 1b3e 320c 1f3d
00000130: 4317 f1bc d33d 2ebe 1d5e 5abe fc43 7e3d
00000140: eea3 72bd 6780 0fbd fe4f 94bd aca2 81be
00000150: 9c5e 08bc 9a68 783d 2cf3 633d 092d ad3c
00000160: 9a3e a7bd be8d 8c3c 603c 233d a6b5 b23c
00000170: 2f64 66bd 9609 32bd 1e22 98bd ba28 a33b
00000180: 8f32 01bd f10a 29bd 6f30 8bbe e450 013e
00000190: d33c bbbe d708 283c b45a bdbc 14ea f53a
000001a0: 206a ef39 0f90 2b3c 5aae 143d e35b 78bd
000001b0: ba11 433c cdf4 eabb 81aa 403d eb3a c6bc
000001c0: c75b 083d e3f2 8bbc 11d1 2bbd 354a 1dbb
000001d0: eef4 dcbd 069a e13d ec11 353d 7637 babc
000001e0: e703 8fbe 3fa0 81bd 8296 023d 1f2e 81bc
000001f0: f0b9 343d fbb8 873d 3e89 95be dc31 12be
00000200: cfcd 7ebc f27e 93bd 8d2e 8c3b 6cb1 af3c
00000210: 159d 233d 3b59 e83c e625 b1be 8d39 c3bb
00000220: 4c9e 8abc 0ce0 5ebd b734 72bc b4b5 d03c
00000230: d7c5 71bd 8343 f7bc ac91 333d bcf1 f93c
00000240: 7913 c93e ec32 903d 6cd7 423d 6e8d 263d
00000250: 44fa 033d 810a 91bd cf00 493d 3429 ddbc
00000260: caa7 43be ecf8 31bd c6e2 4c3d ce04 a9bc
00000270: 7eab ea3b 7130 8f3d 69f5 a1bc 62a8 ddbc
00000280: 53ea 003e 98d7 2f3d 3b4b 9c3d e8f2 92bd
00000290: f0fb 51bd 07bd 55be ffef cbbc b027 27be
000002a0: 2462 273c 3de7 8bbb c06d 63be bc5d d0bc
000002b0: e206 053d 084b 1b3d d5f3 36bd f551 cfbc
000002c0: 6ae7 5fbd e0b6 2939 40df 43bc 2ec9 9abc
000002d0: 828c 063d d07a 36bd fdb8 803d b444 273d
000002e0: 9e21 b73c ebcd 263d e059 80bc 2433 863d
000002f0: 00ae eabc d4be f8bc ba0d cf39 5f96 993d
00000300: 63eb f2bd 2dac 49bd 93e4 8abc 8b01 ddbc
00000310: 6d37 aebd 75f6 7abd 70a8 823d 230f 30bd
00000320: e877 193d 36ac 85bd b2fb 39bc 0081 b5bd
00000330: 64b9 9cbd 41e6 3f3d b43a afbc 871d a0bc
00000340: 7c33 98bc 2109 c63d d501 4cbf e81f a0bc
00000350: ede8 c03a 3b2c 0e3d 37e2 ae3d b3a1 ee3b
00000360: c1da 98bc f7fd a03d 9647 8c3c 6883 bdbc
00000370: 25b4 4f3d 0f19 15bd 331e d83c 7d47 b43c
00000380: b667 29bf db61 69bd 630e 51bd a4a9 55bc
00000390: bbf2 74bd 636c fbbc e371 3bbd 97ad 1f3d
000003a0: d4b4 2bbd 0c29 00bd fe1f dbbc 5960 24bc
000003b0: 913c 8abc 6ca9 0fbe 66a6 16bd 34d0 67bd
000003c0: 1640 ed3d 082b 0abc 86ec 313d 8995 773c
000003d0: 9efc 38bc 42cf 07bd 2c2a 193d f097 15bd
000003e0: cb78 7bbb 6ce2 f93c e094 d13c efb1 63bc
000003f0: 6a4e 223d efde 05bd a89e 123d 37b4 363e

lin2.bias f4 [256]
-0.020275671 -0.029987536 0.026618036 -0.02996138 0.054823305 -0.006115902 -0.006334871 0.41065028
0.00887154 -0.0041990974 -0.049658474 0.035979852 0.009467823 -0.041101485 0.06966109 0.017345166
-0.055651277 -0.05299774 -0.009994714 -0.0037969048 -0.042549834 0.00032106726 0.014816388 -0.021909188
0.17132778 0.027712408 -0.025289891 0.038398188 -0.039043136 -0.040267788 -0.021772325 0.044474006
-0.050459165 0.03553177 -0.0045715375 0.05857075 -0.110579 -0.018063312 0.022533104 0.04481505
-0.06383672 0.010981232 0.010117529 -0.020262627 -0.061442137 -0.015393606 -0.08539755 0.075355224
0.010622955 -0.106638044 -0.0022805165 -0.032272514 0.5288936 -0.0004750366 -0.02114001 0.016020108
-0.037335135 0.058508612 -0.06627101 -0.056142338 -0.049152043 -0.113560684 0.19420528 -0.058703914
-0.046204858 -0.03147621 -0.03321202 0.006255575 0.026368609 0.03757386 0.044648457 -0.0025398487
0.04042044 -0.03239239 -0.008092695 0.026106337 -0.01718799 0.037132576 0.021114498 -0.064220905
-0.1381802 -0.056430485 0.0015251642 0.019116884 0.014880513 -0.07074274 -0.045736205 -0.019596783
0.023929648 0.011800661 -0.009952251 -0.03302716 0.091003805 0.04333527 -0.029862097 0.0804617
0.006555332 0.04790365 -0.04998617 -0.047736146 0.05649512 -0.043720406 -0.010047451 0.02478092
-0.026316898 -0.099437036 0.042998385 0.0366089 -0.06365462 -0.22806618 0.0029893504 0.07918503
0.040974572 -0.07768784 0.041404035 0.013069329 -0.030814817 -0.00021007816 0.02702403 -0.0068939193
0.046400376 -0.02301909 0.022309812 0.030113606 -0.048783675 -0.027616413 -0.032788083 -0.03787772
0.04795602 -0.04258117 0.011471561 0.059452485 0.020067295 -0.0396219 0.016806446 -0.02876344
-0.034091264 -0.05534192 -0.038027674 -0.050437927 -0.021389216 -0.053701885 0.019452931 -0.059937872
0.04180128 -0.020144291 -0.01873997 -0.002271609 0.044436377 -0.04714826 -0.058459613 0.16698003
-0.08650671 0.007843433 0.032062553 -0.031217664 -0.0025749127 0.023094224 -0.019234778 0.017272856
-0.04858565 -0.04170253 -0.06605378 0.0055839 -0.0220344 -0.0115803825 0.010633444 -0.0342796
-0.02425699 -0.06660854 0.06875204 -0.039546862 -0.08604146 -0.0030510158 0.07455969 -0.06565312
0.0064149085 -0.011986509 0.103611305 -0.056262925 -0.050068367 -0.05205819 -0.049469776 0.05634175
0.007383986 -0.04071541 0.013385418 -0.0034180244 -0.044673603 0.112437055 0.11151735 -0.0175626
-0.032194544 0.03138648 -0.021496257 -0.0373103 -0.029199503 -0.025098244 0.06279596 0.0024450761
0.03134699 0.04591323 -0.0065296013 0.028295528 -0.0008446504 0.012015419 -0.046713516 -0.08617824
0.01331356 0.0321464 0.019684434 -0.029278839 0.043288723 -0.058831327 0.04439809 0.04185753
-0.041619748 -0.035180267 -0.028209861 -0.0009096177 -0.08440687 0.09587163 0.043392055 0.11985463
-0.0042546946 -0.019618122 0.0034841076 -0.074643664 -0.2830123 -0.0626944 0.10135505 -0.030641254
-0.06545957 -0.026513522 -0.15660492 0.01578371 0.08561005 -0.01283437 -0.008977114 0.043780454
0.029396577 0.020235553 0.017126488 0.029522358 0.015282112 -0.050490335 0.026642384 -0.021139078
0.054763563 -0.026709806 0.042204067 -0.021866612 0.026962522 0.044610776 0.030944847 -0.041813444
00000000: 2a19 a6bc 6ca8 f5bc 110e da3c 9171 f5bc
00000010: 678e 603d e867 c8bb c094 cfbb c140 d23e
00000020: f059 113c 9598 89bb af66 4bbd 9c5f 133d
00000030: ee1e 1b3c 085a 28bd 79aa 8e3d 7317 8e3c
00000040: 98f2 63bd 2914 59bd dec0 23bc 7ed5 78bb
00000050: bc48 2ebd eb54 a839 6fc0 723c e67a b3bc
00000060: 8d70 2f3e 2205 e33c bf2c cfbc 6b47 1d3d
00000070: b2eb 1fbd d6ef 24bd e05b b2bc 602a 363d
00000080: 45ae 4ebd c389 113d d6cc 95bb e2e7 6f3d
00000090: 3e77 e2bd 83f9 93bc 5897 b83c fc8f 373d
000000a0: d4bc 82bd a0ea 333c fec3 253c cffd a5bc
000000b0: c0aa 7bbd 7735 7cbc e9e4 aebd d753 9a3d
000000c0: e70b 2e3c 0c65 dabd b874 15bb 2f30 04bd
000000d0: 9265 073f 550e f9b9 d02d adbc 9a3c 833c
000000e0: baec 18bd baa6 6f3d 18b9 87bd 82f5 65bd
000000f0: a753 49bd 8192 e8bd c0dd 463e 8473 70bd
00000100: 4e41 3dbd 33ed 00bd 5409 08bd 91fb cc3b
00000110: fb02 d83c 0ce7 193d 4de1 363d 9773 26bb
00000120: e78f 253d e2ad 04bd 3997 04bc f5dc d53c
00000130: d4cd 8cbc 5418 183d 50f8 ac3c 4086 83bd
00000140: 1c7f 0dbe a723 67bd 05e8 c73a 039b 9c3c
00000150: 65cd 733c 92e1 90bd e355 3bbd 6f89 a0bc
00000160: 1c08 c43c 8f57 413c c40e 23bc 7d47 07bd
00000170: 3460 ba3d 5380 313d 5ba1 f4bc 1bc9 a43d
00000180: 1cce d63b 9e36 443d 4cbe 4cbd fa86 43bd
00000190: 6d67 673d 2b14 33bd 109e 24bc 5b01 cb3c
000001a0: 8996 d7bc a5a5 cbbd 131f 303d 37f3 153d
000001b0: 5a5d 82bd 2e8a 69be fae8 433b c32b a23d
000001c0: f4d4 273d cd1a 9fbd 4797 293d bd20 563c
000001d0: 5b6f fcbc 6d48 5cb9 8061 dd3c 63e6 e1bb
000001e0: 520e 3e3d 8892 bcbc 11c3 b63c cfb0 f63c
000001f0: 64d1 47bd d13b e2bc cc4c 06bd ab25 1bbd
00000200: 886d 443d 9869 2ebd 37f3 3b3c 7384 733d
00000210: 2b64 a43c 934a 22bd acad 893c 4ea1 ebbc
00000220: 48a3 0bbd 36ae 62bd e8c2 1bbd 0098 4ebd
00000230: 7038 afbc 82f6 5bbd c15b 9f3c 6a81 75bd
00000240: d237 2b3d a405 a5bc 9184 99bc 46df 14bb
00000250: eb02 363d 891e 41bd 5973 6fbd d0fc 2a3e
00000260: 6e2a b1bd be81 003c 0654 033d 30bc ffbc
00000270: debf 28bb 1930 bd3c 4192 9dbc ce7f 8d3c
00000280: bf01 47bd 46d0 2abd 3447 87bd 26f9 b63b
00000290: 7c81 b4bc a5bb 3dbc e637 2e3c c468 0cbd
000002a0: 98b6 c6bc 0f6a 88bd dfcd 8c3d e4fb 21bd
000002b0: 8136 b0bd 8df3 47bb c0b2 983d 2575 86bd
000002c0: 2734 d23b 1063 44bc 2a32 d43d f473 66bd
000002d0: 7d14 4dbd f83a 55bd d2a0 4abd 9bc6 663d
000002e0: 5df5 f13b 34c5 26bd 834e 5b3c ef00 60bb
000002f0: abfb 36bd 6645 e63d 3563 e43d 71df 8fbc
00000300: 6dde 03bd 1c8f 003d eb18 b0bc afd2 18bd
00000310: cc33 efbc d59a cdbc 2b9b 803d 923d 203b
00000320: b465 003d 830f 3c3d 44f6 d5bb 06cc e73c
00000330: 876b 5dba 52dc 443c ac56 3fbd 387e b0bd
00000340: 1e21 5a3c f2ab 033d 4041 a13c 2dda efbc
00000350: 844f 313d 1ef9 70bd c6da 353d cd72 2b3d
00000360: 7879 2abd 2f19 10bd 5e18 e7bc 6973 6eba
00000370: 82dd acbd 5858 c43d debb 313d 5876 f53d
00000380: f76a 8bbb 2fb6 a0bc a055 643b c7de 98bd
00000390: fde6 90be ec65 80bd 3d93 cf3d 5e03 fbbc
000003a0: ab0f 86bd e332 d9bc 0a5d 20be d74c 813c
000003b0: 5254 af3d 4047 52bc bf14 13bc 2253 333d
000003c0: 17d1 f03c 08c5 a53c d94c 8c3c dfd8 f13c
000003d0: d361 7a3c f4ce 4ebd 2141 da3c dc2b adbc
000003e0: c24f 603d 86ce dabc 2cde 2c3d 9c21 b3bc
000003f0: 82e0 dc3c cab9 363d 0c80 fd3c 9344 2bbd

lin3.weight f4 [128, 256]
-0.04100571 0.036254242 -0.05431535 0.052396312 -0.025952475 -0.046452668 -0.003980756 0.023535686
0.052535817 0.048932344 -0.01686075 -0.05202944 0.037257694 -0.034502044 -0.041321665 0.022513669
0.053454984 0.02349038 0.020775244 0.053362694 -0.03897257 0.0283307 0.082703575 0.036142174
-0.14223333 -0.014496621 -0.035022575 0.016433077 0.049780384 0.012551333 0.053373687 0.024688931
0.044179574 0.036268353 0.023903511 -0.06432648 0.110130064 -0.0027764568 0.001999455 -0.06981504
0.07393821 -0.011410706 0.020555483 0.036634825 0.021841282 0.04294778 -0.048601937 0.023971137
0.007303968 0.02161486 0.042081665 0.03091248 -0.019540068 -0.018414289 -0.0064255074 -0.024662495
-0.030991275 -0.004307531 -0.04822521 0.03445782 -0.021350536 0.02270435 -0.077271745 -0.02651297
-0.03292483 -0.011389978 -0.05931331 -0.049998004 -0.0035389692 -0.021881696 -0.063583 0.045762215
-0.07045779 0.024444986 -0.004018119 0.0375785 0.048808437 -0.04958274 0.019442908 0.027366271
0.18382047 -0.021226238 0.0372921 -0.036560364 0.01955017 0.030958705 0.033518918 -0.010390176
0.0047564222 0.0070878183 0.0019787392 0.005417617 -0.05013202 0.016860912 0.005246609 0.019511828
-0.038295817 -0.019817224 0.051394418 0.025983391 -0.12578842 0.06494145 -0.09734003 -0.05286568
-0.040315557 0.06200182 -0.06365439 -0.062193334 -0.032488417 0.077110074 0.027669974 0.050820127
0.026741052 0.008987612 0.054548025 -0.04768082 -0.018736724 -0.025455736 0.005676083 -0.05407747
-0.032645993 0.00887781 -0.021475177 -0.07931885 -0.04969823 -0.047696356 0.010218977 -0.046588965
0.021051196 0.006935425 -0.026237644 -0.06414424 -0.06412723 0.030434854 0.00086421863 -0.025945587
-0.040946364 -0.033229493 0.013948508 0.045535214 0.04120782 -0.008889861 0.042676046 -0.0392261
0.052096434 0.042891864 0.008722609 -0.0052865027 0.009880177 -0.05954397 -0.002206451 -0.08133937
-0.021245733 0.0027462628 -0.072653614 -0.040339217 0.038070213 -0.056814 -0.02360752 0.047851875
-0.037411034 0.050958347 -0.005809072 -0.004068533 -0.045354497 0.056394726 -0.023853626 -0.061768744
0.012011212 -0.048674174 -0.016654568 -0.01088356 -0.06563894 0.049864043 -0.019972336 -0.052224796
-0.026621945 -0.04672867 0.0093413275 -0.0041707233 -0.023434767 -0.021699242 -0.05587724 -0.0030245883
0.044888183 -0.07843447 0.007176009 -0.070998795 0.030202596 -0.050501138 -0.051769216 0.060617976
0.061177872 -0.03550885 -0.020649455 0.05013742 -0.04186954 0.01873067 -0.054041 -0.056743257
-0.063892946 0.037477158 0.015918793 0.0032708717 0.050940122 0.013155775 -0.036918666 0.040604625
-0.056332506 -0.077038914 0.041434728 0.0545672 0.0030396478 -0.048769712 -0.07839237 0.009682469
0.013091941 0.10446055 -0.04448835 -0.03858753 0.023969496 -0.04069292 0.034145158 0.06261795
-0.02212471 -0.030885644 -0.0417429 0.056538347 -0.039490476 0.051191825 0.024655992 -0.0379936
0.028657623 -0.022449309 -0.017928006 -0.054353695 0.049106546 0.015610203 0.03732837 0.00076234294
0.03381612 -0.021604631 0.016327245 0.0008806547 -0.029404052 0.041815523 0.019230222 0.0035660749
0.055000514 0.008776397 -0.031553563 -0.013215905 0.047681335 0.045171894 -0.018690323 -0.00043763212
00000000: 9af5 27bd 547f 143d c679 5ebd 849d 563d
00000010: 499a d4bc 2745 3ebd 0071 82bb e9cd c03c
00000020: cc2f 573d 486d 483d 8e1f 8abc d21c 55bd
00000030: 869b 183d 0452 0dbd e840 29bd 966e b83c
00000040: 9df3 5a3d e66e c03c d830 aa3c d792 5a3d
00000050: b4a1 1fbd c915 e83c 7e60 a93d d109 143d
00000060: 9da5 11be 3c83 6dbc d573 0fbd a99e 863c
00000070: 84e6 4b3d 1ba4 4d3c 5e9e 5a3d 7140 ca3c
00000080: a4f5 343d 208e 143d 4cd1 c33c 9abd 83bd
00000090: df8b e13d 37f5 35bb 4a09 033b 30fb 8ebd
000000a0: eb6c 973d f8f3 3abc f963 a83c 660e 163d
000000b0: 7dec b23c 03ea 2f3d d312 47bd 1e5f c43c
000000c0: 2056 ef3b a611 b13c d35d 2c3d 2b3c fd3c
000000d0: 7e12 a0bc 90d9 96bc 108d d2bb 0009 cabc
000000e0: 6ae1 fdbc 3026 8dbb cc87 45bd a523 0d3d
000000f0: 52e7 aebc 79fe b93c a640 9ebd ba31 d9bc
00000100: 30dc 06bd 089d 3abc 83f2 72bd b5ca 4cbd
00000110: 0dee 67bb 3e41 b3bc ce37 82bd 2971 3b3d
00000120: 2c4c 90bd da40 c83c 6daa 83bb eaeb 193d
00000130: 5beb 473d 4517 4bbd bc46 9f3c 3b2f e03c
00000140: 6f3b 3c3e a6e2 adbc 9abf 183d 52c0 15bd
00000150: ae27 a03c 1c9d fd3c 224b 093d 8f3b 2abc
00000160: c3db 9b3b ee40 e83b bcad 013b 4486 b13b
00000170: 3c57 4dbd e51f 8a3c bfeb ab3b 45d7 9f3c
00000180: 13dc 1cbd bb57 a2bc f482 523d 1fdb d43c
00000190: aece 00be 0600 853d 365a c7bd af89 58bd
000001a0: ed21 25bd 9ff5 7d3d 3c5d 82bd 70be 7ebd
000001b0: 9312 05bd e3eb 9d3d 24ac e23c c428 503d
000001c0: 0d10 db3c c740 133c c06d 5f3d f74c 43bd
000001d0: c27d 99bc 8c88 d0bc 6ffe b93b 5680 5dbd
000001e0: ceb7 05bd 3c74 113c b6ec afbc ec71 a2bd
000001f0: 5f90 4bbd 415d 43bd 7f6d 273c 12d4 3ebd
00000200: 8f73 ac3c 9042 e33b 54f0 d6bc 0e5e 83bd
00000210: 2355 83bd 8452 f93c bb8c 623a d78b d4bc
00000220: 60b7 27bd a61b 08bd 4888 643c 2283 3a3d
00000230: 88c9 283d c8a6 11bc 14cd 2e3d 8cab 20bd
00000240: 1263 553d 61af 2f3d 46e9 0e3c 663a adbb
00000250: 77e0 213c 61e4 73bd 1b9a 10bb 4195 a6bd
00000260: 880b aebc a5fa 333b 6bcb 94bd bc3a 25bd
00000270: 83ef 1b3d ccb5 68bd 8f64 c1bc 5400 443d
00000280: 503c 19bd b3b9 503d 075a bebb 5451 85bb
00000290: a3c5 39bd 28fe 663d ae68 c3bc 3901 7dbd
000002a0: adca 443c 925e 47bd 296f 88bc f650 32bc
000002b0: b56d 86bd 3d3e 4c3d 069d a3bc abe9 55bd
000002c0: 4416 dabc 9066 3fbd 5e0c 193c 90aa 88bb
000002d0: 45fa bfbc 9cc2 b1bc 88df 64bd 2c38 46bb
000002e0: acdc 373d 40a2 a0bd ba24 eb3b d167 91bd
000002f0: 6f6b f73c 48da 4ebd f50b 54bd 8e4a 783d
00000300: a695 7a3d ba71 11bd 0c29 a9bc e55c 4d3d
00000310: 657f 2bbd 1071 993c 185a 5dbd 9e6b 68bd
00000320: 4eda 82bd a681 193d 2168 823c 1f5c 563b
00000330: 97a6 503d 528b 573c 0738 17bd 0951 263d
00000340: eabc 66bd 94c6 9dbd 76b7 293d db81 5f3d
00000350: d434 473b c0c2 47bd 2e8c a0bd 38a3 1e3c
00000360: 957f 563c 6aef d53d 6b39 36bd f50d 1ebd
00000370: ad5b c43c 9fad 26bd cbdb 0b3d d73d 803d
00000380: e13e b5bc e403 fdbc 9afa 2abd c194 673d
00000390: c4c0 21bd 85ae 513d 5dfb c93c 2d9f 1bbd
000003a0: 64c3 ea3c 9de7 b7bc c1dd 92bc fba1 5ebd
000003b0: f223 493d f0c1 7f3c a2e5 183d f8d7 473a
000003c0: c682 0a3d 32fc b0bc b7c0 853c bddb 663a
000003d0: c4e0 f0bc c146 2b3d b388 9d3c cfb4 693b
000003e0: 3848 613d e1ca 0f3c 4f3e 01bd 8687 58bc
000003f0: 814d 433d 2a06 393d 731c 99bc fd71 e5b9

lin3.bias f4 [128]
-0.18379228 -0.048886813 0.0002779864 0.009521424 0.06909392 -0.05694395 -0.042986624 0.027542762
0.009151977 -0.048071094 0.015648812 -0.06963756 0.07070944 0.007202061 0.021647787 -0.055514976
-0.054452196 -0.04530315 -0.04896 -0.014090189 -0.0758104 0.14848058 -0.048609566 -0.03667862
0.06021645 -0.031169428 -0.09735963 -0.07552634 0.03681458 0.22941445 -0.06355405 -0.06524412
0.08873868 -0.057197697 -0.053025763 0.115185566 0.012961738 -0.061652686 0.055049036 -0.05574724
-0.012072486 0.008447188 -0.036026623 0.19415489 0.021673711 0.020148452 0.037348207 -0.0008498625
-0.05388353 -0.039111968 0.029713735 -0.014637973 9.2378636e-05 -0.014770575 0.02839612 0.059617266
-0.04935379 0.03717752 0.026912473 0.05695397 -0.024876662 0.020729223 -0.0704677 0.059374485
-0.028399954 -0.07653574 -0.017393636 -0.029461723 -0.05336406 -0.048341475 -0.010986495 0.02829009
0.14484003 -0.03175231 0.034083594 -0.0458645 -0.008424572 -0.0031081995 0.04646382 -0.055980913
-0.022500975 0.023724345 -0.053746756 -0.0666964 0.078805424 -0.027200736 0.025770467 0.1004518
-0.050324425 0.033748835 0.005523245 -0.015432892 -0.06179406 -0.020994851 -0.030486004 0.03079119
0.0034907397 -0.06482439 0.0179036 0.048605595 -0.061751053 0.010813738 -0.05530662 -0.03231873
1.00603775e-05 -0.03776524 0.05364244 -0.07434758 -0.0028795367 0.030952578 0.07427795 0.0312903
0.0029795826 0.076622434 -0.04826749 -0.012435311 -0.065353505 0.16613197 -0.0981935 -0.08145771
-0.039117847 -0.013335175 -0.06817568 -0.02817374 -0.040412348 -0.024486776 -0.060811996 0.06805886
00000000: 0b34 3cbe 8a3d 48bd b4be 9139 bfff 1b3c
00000010: 1d81 8d3d 0f3e 69bd be12 30bd 5ca1 e13c
00000020: 2cf2 153c 32e6 44bd f031 803c 239e 8ebd
00000030: 1cd0 903d 44ff eb3b b356 b13c ac63 63bd
00000040: 4409 5fbd cc8f 39bd 488a 48bd 89da 66bc
00000050: 7c42 9bbd 4b0b 183e d31a 47bd 523c 16bd
00000060: 86a5 763d 0757 ffbc 7c64 c7bd 8ead 9abd
00000070: e3ca 163d 9feb 6a3e a028 82bd b69e 85bd
00000080: a0bc b53d 2248 6abd 8b31 59bd 69e6 eb3d
00000090: 785d 543c 8787 7cbd 197b 613d 3857 64bd
000000a0: adcb 45bc 1366 0a3c a790 13bd 8ad0 463e
000000b0: 118d b13c 5e0e a53c 6ffa 183d 4fc9 5eba
000000c0: fab4 5cbd df33 20bd 386a f33c 1cd4 6fbc
000000d0: 67bb c138 4800 72bc fb9e e83c 3c31 743d
000000e0: 3327 4abd 7547 183d 8c77 dc3c 9148 693d
000000f0: 24ca cbbc 55d0 a93c 5f51 90bd a932 733d
00000100: 05a7 e8bc c5be 9cbd 197d 8ebc b659 f1bc
00000110: 4694 5abd b601 46bd b300 34bc 9ec0 e73c
00000120: f250 143e b60e 02bd 3d9b 0b3d 6adc 3bbd
00000130: 3707 0abc efb2 4bbb d950 3e3d 3e4c 65bd
00000140: f753 b8bc 8f59 c23c 8f25 5cbd 1f98 88bd
00000150: bd64 a13d 14d4 debc 961c d33c acb9 cd3d
00000160: fc20 4ebd 383c 0a3d 56fc b43b 3eda 7cbc
00000170: c51b 7dbd 65fd abbc c9bd f9bc ce3d fc3c
00000180: e5c4 643b a6c2 84bd 92aa 923c a916 473d
00000190: acee 7cbd 1b2c 313c 3289 62bd a560 04bd
000001a0: fec8 2837 b9af 1abd 2db8 5b3d 8b43 98bd
000001b0: 9cb6 3cbb 4390 fd3c 0a1f 983d 422a 003d
000001c0: 1a45 433b 39ec 9c3d 22b4 45bd 7abd 4bbc
000001d0: 0fd8 85bd 801e 2a3e ac19 c9bd 4dd3 a6bd
000001e0: 093a 20bd c77b 5abc b19f 8bbd 9dcc e6bc
000001f0: 6b87 25bd 7e98 c8bc 0016 79bd 7262 8b3d

lin4.weight f4 [64, 128]
0.018951515 0.04375262 0.08903514 0.014527727 0.043454945 -0.053543612 -0.05408648 0.04185293
0.009659202 -0.0819706 0.045940377 0.040374145 -0.03156472 0.045563582 -0.031513672 -0.03338885
0.017835487 0.090405144 -0.019672893 -0.01877577 0.025017511 0.036014453 -0.084482074 0.07161236
0.13568503 0.08885086 -0.06866021 -0.02188961 -0.00044549952 0.02273934 0.0059111095 -0.07589842
-0.0078080515 0.0052928748 0.04182728 -0.09118532 -0.03046634 0.023369698 0.0021573354 -0.027898703
0.03324301 0.04315642 0.08930411 0.045002267 0.005387988 -0.047991984 -0.042509317 -0.009890132
0.07484081 -0.07834653 -0.019604253 -0.04127628 0.052652452 -0.05821007 0.068007395 -0.084141515
-0.06334133 0.024557225 -0.093455784 -0.049589694 -0.010121692 0.07923202 0.041878227 -0.056089833
-0.039939757 0.0879892 0.065926395 0.0541281 -0.035665676 -0.01670596 0.009248906 0.05033099
0.044010796 -0.006200476 0.029657952 -0.07114452 0.04691022 -0.05002849 0.07461647 -0.030523954
-0.041699454 0.11601665 -0.0029055784 0.076679304 0.07482945 -0.0074423985 0.09384861 -0.08959267
0.060009744 -0.046216037 0.025194708 -0.049904652 0.06800665 0.020777332 0.063122965 -0.010710523
-0.042580646 0.040899493 0.03813435 0.0050224974 0.08657737 -0.069234796 -0.028379831 0.041544113
0.021356182 0.019399952 -0.08818691 -0.06435745 0.0495678 -0.031715862 -0.020840745 -0.02313587
0.048370473 -0.0047559463 0.030875035 0.056054406 0.035093814 0.011853998 0.03275329 0.08275266
0.08255106 -0.05476097 -0.0800222 0.016991964 0.04419115 0.034971215 -0.030398967 0.049562316
-0.039277673 -0.06028023 -0.18207844 0.08471965 -0.010591508 0.07010659 0.07173616 -0.050591033
-0.08824911 -0.010594395 -0.01873673 -0.08310028 -0.039737973 -0.054612324 0.04970631 -0.012818612
-0.07139832 0.03654511 -0.07512458 0.06179689 -0.077781275 0.00981131 -0.04040281 0.07067478
-0.11792805 0.037093714 0.025956342 -0.03273958 0.08157135 -0.18898936 -0.029025577 0.018627174
-0.038958866 0.051352687 -0.05249028 -0.03795741 0.06491207 0.08227197 0.08157943 -0.011161478
-0.006869597 -0.0118063735 -0.108826526 -0.0519361 -0.043807376 -0.089298144 -0.040574446 0.053574473
0.06071845 -0.07668424 -0.10823791 0.07643972 -0.097478114 -0.0387612 -0.0006816328 0.04461746
-0.054304376 -0.10774568 0.10353588 -0.058063656 -0.05754677 0.028510284 0.0049666665 0.0087206615
-0.06969208 -0.063489676 0.020460762 -0.012330744 0.042838868 0.013738695 0.020013869 -0.021748973
-0.031006955 0.015492848 0.05922419 0.0018918796 -0.11507004 0.084851325 -0.0688885 -0.077033184
-0.04191023 -0.021398725 0.06025043 0.024653567 0.012234927 0.0106570935 0.039025303 -0.03850376
0.035404418 -0.020358007 0.10391942 -0.0039646635 -0.018334284 0.041521043 -0.038510006 -0.01342118
-0.005113748 -0.037202496 -0.0056520808 0.035008684 -0.021764573 -0.042288773 0.019748317 -0.06918702
-0.07546028 -0.052231535 -0.05092512 -0.012646541 -0.020696256 0.06376356 0.049883008 0.03151808
-0.04376657 -0.125683 0.054636814 0.01548689 -0.072281934 -0.02720581 0.08390978 -0.0035390777
0.053556047 0.025348792 0.025497116 -0.124382116 -0.07268044 -0.054007966 -0.0544533 -0.014993024
00000000: 3540 9b3c f335 333d 0e58 b63d b405 6e3c
00000010: d0fd 313d 8c50 5bbd c989 5dbd fa6d 2b3d
00000020: a141 1e3c 34e0 a7bd fa2b 3c3d 5c5f 253d
00000030: 024a 01bd e1a0 3a3d 7b14 01bd bfc2 08bd
00000040: ba1b 923c 5526 b93d 0c29 a1bc a5cf 99bc
00000050: 86f1 cc3c e483 133d f004 adbd 80a9 923d
00000060: 04f1 0a3e 71f7 b53d b99d 8cbd d751 b3bc
00000070: ef91 e9b9 da47 ba3c fbb1 c13b a170 9bbd
00000080: afda ffbb da6f ad3b 1553 2b3d 5ebf babd
00000090: 8c94 f9bc cf71 bf3c 1562 0d3b d28b e4bc
000000a0: d329 083d c9c4 303d 13e5 b63d 4c54 383d
000000b0: b88d b03b 3e93 44bd 401e 2ebd 380a 22bc
000000c0: 2346 993d 2574 a0bd 1999 a0bc 5111 29bd
000000d0: 19aa 573d af6d 6ebd 7647 8b3d 6352 acbd
000000e0: 19b9 81bd 3c2c c93c bf65 bfbd 901e 4bbd
000000f0: 74d5 25bc 6644 a23d 8188 2b3d 74be 65bd
00000100: df97 23bd af33 b43d 6b04 873d 6db5 5d3d
00000110: 2c16 12bd f0da 88bc b988 173c de27 4e3d
00000120: aa44 343d 5d2d cbbb 3cf5 f23c 38b4 91bd
00000130: ee24 403d adea 4cbd 85d0 983d 5f0d fabc
00000140: 0ccd 2abd 239a ed3d 846b 3ebb 0a0a 9d3d
00000150: 2f40 993d 5ddf f3bb b333 c03d 5d7c b7bd
00000160: c7cc 753d 074d 3dbd 2265 ce3c d268 4cbd
00000170: 1247 8b3d 3935 aa3c 9d46 813d 317b 2fbc
00000180: 0b69 2ebd 3a86 273d c432 1c3d c393 a43b
00000190: 7a4f b13d f9ca 8dbd d27c e8bc 292a 2a3d
000001a0: 29f3 ae3c a6ec 9e3c 579b b4bd d7cd 83bd
000001b0: 9b07 4b3d 7ee8 01bd 36ba aabc 7087 bdbc
000001c0: 1e20 463d c5d7 9bbb a4ed fc3c 4e99 653d
000001d0: 88be 0f3d 4537 423c 5028 063d 3a7a a93d
000001e0: 8810 a93d 0a4d 60bd aee2 a3bd bb32 8b3c
000001f0: c801 353d fa3d 0f3d 4107 f9bc db01 4b3d
00000200: a0e1 20bd 67e8 76bd c572 3abe 7f81 ad3d
00000210: 0188 2dbc 0b94 8f3d 68ea 923d 8b38 4fbd
00000220: f3bb b4bd 1d94 2dbc c57d 99bc 7b30 aabd
00000230: 49c4 22bd 2cb1 5fbd d898 4b3d 2805 52bc
00000240: 4839 92bd 53b0 153d eada 99bd bc1e 7d3d
00000250: ca4b 9fbd 9ebf 203c 6b7d 25bd f0bd 903d
00000260: 4384 f1bd 94ef 173d 65a2 d43c f019 06bd
00000270: e10e a73d 6d86 41be 0cc7 edbc 0498 983c
00000280: 5593 1fbd 3257 523d 0c00 57bd 3b79 1bbd
00000290: 9ff0 843d 357e a83d 1e13 a73d a2de 36bc
000002a0: 5b1a e1bb 856f 41bc 71e0 debd f3ba 54bd
000002b0: 5d6f 33bd f2e1 b6bd 6431 26bd e870 5b3d
000002c0: e9b3 783d a00c 9dbd d6ab ddbd 6e8c 9c3d
000002d0: 9ba2 c7bd 10c4 1ebd 9aaf 32ba ccc0 363d
000002e0: 446e 5ebd c4a9 dcbd 9f0a d43d 28d4 6dbd
000002f0: 29b6 6bbd 668e e93c 6bbf a23b 1be1 0e3c
00000300: b9ba 8ebd e006 82bd 549d a73c e406 4abc
00000310: cf77 2f3d 4318 613c 20f4 a33c e72a b2bc
00000320: 4c02 febc b7d5 7d3c 1095 723d f2f8 f73a
00000330: d7a9 ebbd 88c6 ad3d 6a15 8dbd 93c3 9dbd
00000340: 10aa 2bbd 614c afbc 28c9 763d 47f6 c93c
00000350: 0175 483c 179b 2e3c ffd8 1f3d 1eb6 1dbd
00000360: 3904 113d d6c5 a6bc b4d3 d43d 02ea 81bb
00000370: c831 96bc f811 2a3d abbc 1dbd 82e4 5bbc
00000380: 3a91 a7bb a561 18bd 1735 b9bb 4465 0f3d
00000390: 9e4b b2bc fe36 2dbd 39c7 a13c edb1 8dbd
000003a0: eb8a 9abd bcf0 55bd dc96 50bd 7033 4fbc
000003b0: 328b a9bc 7896 823d 2052 4c3d 1a19 013d
000003c0: 9344 33bd 0bb3 00be daca 5f3d babc 7d3c
000003d0: 8d08 94bd b8de debc e4d8 ab3d dfef 67bb
000003e0: 965d 5b3d 45a8 cf3c 54df d03c 0dbc febd
000003f0: 7cd9 94bd 7537 5dbd 6c0a 5fbd 4da5 75bc

lin4.bias f4 [64]
0.042268895 -0.08005628 0.023902986 0.038409237 -0.064204596 0.124250926 -0.12602057 0.07183651
-0.017076656 -0.051406354 0.041972056 0.14379457 -0.017626064 -0.033777837 0.10877489 -0.01502113
0.08022342 0.0059650247 -0.019144153 0.04871802 -0.10422821 0.019981988 0.04903831 0.07422977
-0.118787825 -0.015525269 -0.115926355 -0.056308467 -0.0176564 0.013401151 0.03949445 0.08364077
-0.08574805 0.019431928 0.015776223 -0.008619835 0.012887028 0.07186516 0.10090874 0.0798845
0.006666208 0.07150778 -0.094718285 0.06977495 0.04393732 -0.013276339 0.036141887 0.006564865
0.02453211 -0.052532233 -0.027815 -0.04581567 0.042524565 -0.0942446 0.06568598 -0.049126312
0.08940382 -0.0059954408 0.0068777725 -0.012896137 0.018872863 0.020557338 0.030186076 0.024716886
00000000: 2622 2d3d 8cf4 a3bd 32d0 c33c 0153 1d3d
00000010: b37d 83bd 4577 fe3d 890b 01be 051f 933d
00000020: 58e4 8bbc 788f 52bd e4ea 2b3d e23e 133e
00000030: 8964 90bc a15a 0abd 5fc5 de3d 301b 76bc
00000040: 2d4c a43d 4176 c33b 33d4 9cbc 8c8c 473d
00000050: 9a75 d5bd 44b1 a33c 65dc 483d c705 983d
00000060: 0847 f3bd b35d 7ebc cc6a edbd b5a3 66bd
00000070: 28a4 90bc 8090 5b3c efc4 213d da4b ab3d
00000080: ac9c afbd b52f 9f3c 233d 813c 353a 0dbc
00000090: 1d24 533c 0a2e 933d 3ea9 ce3d 7c9a a33d
000000a0: 3570 da3b ac72 923d a9fb c1bd 2be6 8e3d
000000b0: 9ff7 333d 0085 59bc 8409 143d 141e d73b
000000c0: 90f7 c83c 0a2c 57bd 48dc e3bc 36a9 3bbd
000000d0: 3d2e 2e3d 5003 c1bd 5f86 863d ac38 49bd
000000e0: 5a19 b73d 6775 c4bb f05e e13b 524a 53bc
000000f0: 439b 9a3c dd67 a83c ca48 f73c 117b ca3c

lin5.weight f4 [16, 64]
0.04609517 0.0050656954 -0.049800705 -0.098195255 -0.06135798 -0.07062275 -0.05092276 0.11855939
0.09504252 -0.08965656 -0.046807814 -0.053209323 0.10800391 0.08119255 -0.06691916 -0.06991304
-0.05767346 -0.04685975 -0.012797145 -0.07858159 0.028043207 0.07645528 -0.07262757 0.08602962
-0.08566384 0.01244079 0.08500507 -0.07059453 -0.023647247 0.05727594 -0.009728091 0.09272018
-0.10890989 -0.01230797 -0.097792536 0.0989816 0.057556316 0.106085815 0.14314006 0.031526428
-0.030269414 -0.11146789 0.08280142 -0.008966847 -0.026864659 -0.09337205 0.0049107927 -0.04233204
0.046192445 0.042734418 -0.11869239 0.035996303 0.010365491 -0.08006597 0.07392051 0.0012807038
-0.08359722 0.108693 -0.063548975 0.06564699 0.093889095 -0.032315556 -0.03117227 0.0049114814
0.099292085 -0.051881976 -0.05428447 0.10103396 0.05574146 0.09674452 -0.027040755 0.032776065
0.03186627 0.06304198 0.0738603 0.07018818 -0.11155565 -0.026686497 0.08991465 0.041539703
0.062492166 -0.07053071 -0.10230245 -0.01290551 -0.11962101 -0.016063 0.013964578 0.070701465
-0.011263843 0.00335195 -0.115224585 0.06986588 -0.030528817 -0.019008085 -0.08451816 -0.020882756
-0.042189278 0.10850707 0.0514226 -0.010578704 0.11628321 0.08887975 0.07701506 0.08843172
-0.014954764 0.07049124 -0.07582912 -0.01538009 0.05883669 -0.068778366 -0.11602924 0.021457775
-0.03339618 0.017074658 0.0630711 -0.09134891 0.08433329 -0.04523753 0.10289901 0.058466718
0.064029895 0.00047086432 -0.04818172 0.048145175 0.008355922 0.07895942 -0.11488058 -0.11224898
-0.052465994 -0.005368409 0.06584521 -0.08901873 -0.003861325 0.0509341 0.09954383 -0.054786135
-0.036889832 -0.049670715 0.0796503 -0.02330244 0.10978244 0.07263248 0.033511534 0.079893984
-0.07653787 0.074651375 -0.10800578 -0.017773919 -0.1191167 -0.109483525 0.07930052 -0.0009543664
-0.070836976 -0.0222968 -0.05616513 0.046422616 0.093181394 -0.12023637 0.04050994 0.002927975
-0.012360597 0.057846982 -0.11810897 0.07863036 0.013873587 -0.096605666 0.018580524 0.096777536
-0.09344751 0.029389922 -0.050572906 -0.008327064 0.08621563 -0.051406845 -0.0025258602 -0.089866586
0.016853796 0.0009825433 0.044087492 -0.12056073 0.03663577 0.112332895 -0.06340487 0.10195017
0.06767118 -0.088496245 -0.07782907 -0.046603367 -0.07099027 -0.012296111 -0.073648 0.033745524
-0.087631635 0.07847509 0.002504727 0.04991625 -0.03488465 0.08673343 -0.07688039 0.10745977
-0.1172783 0.021992303 0.02945351 0.07725675 -0.08747937 0.05860093 0.09233317 -0.08086869
0.06848243 0.0121024465 0.07819217 0.07589735 0.00037271966 -0.048444692 -0.013887732 0.04052927
0.04863973 0.067303024 0.0129346205 0.07980315 -0.0061418405 0.009425859 -0.044227235 0.105391316
-0.043169525 -0.06500303 0.04857885 -0.032372713 -0.10564513 -0.03523279 -0.004007338 0.13076405
0.0006730574 0.07126217 0.021855878 0.0658405 0.030805256 -0.09884811 -0.05660484 0.018693842
-0.010045546 -0.033734202 0.10664939 -0.018508863 0.08381073 -0.029294979 -0.08769278 0.10704777
0.047731306 0.10398204 0.047538843 0.09584063 0.06974232 -0.08846625 0.0982916 0.123658895
00000000: 4ace 3c3d 22fe a53b d3fb 4bbd 981a c9bd
00000010: 8152 7bbd a9a2 90bd 6294 50bd 44cf f23d
00000020: a7a5 c23d dc9d b7bd 8db9 3fbd 05f2 59bd
00000030: 2731 dd3d 4848 a63d ea0c 89bd 912e 8fbd
00000040: 023b 6cbd 02f0 3fbd 1eab 51bc 62ef a0bd
00000050: deba e53c 9694 9c3d c3bd 94bd 4c30 b03d
00000060: 8670 afbd 75d4 4b3c 2317 ae3d dd93 90bd
00000070: dfb7 c1bc 2d9a 6a3d 9262 1fbc 14e4 bd3d
00000080: 260c dfbd 5ea7 49bc 7447 c8bd ddb6 ca3d
00000090: 2cc0 6b3d 8543 d93d 4f93 123e db21 013d
000000a0: 90f7 f7bc 4749 e4bd ca93 a93d afe9 12bc
000000b0: 4613 dcbc d839 bfbd b7ea a03b 5c64 2dbd
000000c0: 4a34 3d3d 490a 2f3d ff14 f3bd dc70 133d
000000d0: 05d4 293c a1f9 a3bd a363 973d 4add a73a
000000e0: 0535 abbd 709a de3d f725 82bd ee71 863d
000000f0: ed48 c03d 515d 04bd fd5c ffbc 7ef0 a03b
00000100: a659 cb3d 3282 54bd 6459 5ebd e5ea ce3d
00000110: 2851 643d fe21 c63d 9384 ddbc 3240 063d
00000120: 3586 023d 271c 813d 1244 973d d2be 8f3d
00000130: 4a77 e4bd a49d dabc 2c25 b83d 8925 2a3d
00000140: c9f7 7f3d 6872 90bd f283 d1bd a271 53bc
00000150: dcfb f4bd 8d96 83bc afcb 643c eecb 903d
00000160: fb8b 38bc 64ac 5b3b defa ebbd d815 8f3d
00000170: 9217 fabc d8b6 9bbc db17 adbd 5012 abbc
00000180: aace 2cbd f438 de3d 81a0 523d 4d52 2dbc
00000190: e425 ee3d 9606 b63d 12ba 9d3d b11b b53d
000001a0: d404 75bc b65d 903d 4c4c 9bbd c6fc 7bbc
000001b0: befe 703d acdb 8cbd bda0 edbd 37c8 af3c
000001c0: 6fca 08bd 27e0 8b3c 6c2b 813d 2315 bbbd
000001d0: efb6 ac3d fd4a 39bd b7bc d23d cc7a 6f3d
000001e0: 1b22 833d 57de f639 325a 45bd e033 453d
000001f0: 47e7 083c 7ab5 a13d 8246 ebbd cbe2 e5bd
00000200: 95e6 56bd 7be9 afbb dad9 863d 744f b6bd
00000210: 490e 7dbb 46a0 503d a3dd cb3d 6d67 60bd
00000220: cb19 17bd 8573 4bbd b21f a33d c2e4 bebc
00000230: 9ed5 e03d 56c0 943d 6443 093d 759f a33d
00000240: e3bf 9cbd d2e2 983d 2232 ddbd 9c9a 91bc
00000250: 75f3 f3bd e638 e0bd 5068 a23d 722e 7aba
00000260: fa12 91bd c7a7 b6bc 680d 66bd a425 3e3d
00000270: e3d5 be3d 7c3e f6bd c0ed 253d 45e3 3f3b
00000280: 1a84 4abc f5f0 6c3d 1ee3 f1bd f408 a13d
00000290: 0b4e 633c 31d9 c5bd 2f36 983c 4d33 c63d
000002a0: 6861 bfbd 22c3 f03c 8925 4fbd 3d6e 08bc
000002b0: d291 b03d fc8f 52bd e788 25bb f90b b8bd
000002c0: f910 8a3c afc8 803a 1695 343d 8be8 f6bd
000002d0: 640f 163d ca0e e63d 6ada 81bd 40cb d03d
000002e0: 3097 8a3d 853d b5bd d964 9fbd 2ce3 3ebd
000002f0: 5963 91bd a175 49bc c3d4 96bd bf38 0a3d
00000300: 3778 b3bd 8cb7 a03d 5926 243b fb74 4c3d
00000310: 35e3 0ebd 4ca1 b13d 7773 9dbd de13 dc3d
00000320: 9b2f f0bd 3429 b43c 7d48 f13c c938 9e3d
00000330: 6228 b3bd 8707 703d 2c19 bd3d 7c9e a5bd
00000340: 8440 8c3d 5749 463c 3723 a03d 1270 9b3d
00000350: 9669 c339 f16d 46bd 5f89 63bc 0502 263d
00000360: 743a 473d 2bd6 893d bbeb 533c d56f a33d
00000370: 7e41 c9bb eb6e 1a3c 9e27 35bd 67d7 d73d
00000380: 87d2 30bd 4f20 85bd 9efa 463d 4099 04bd
00000390: 795c d8bd 4250 10bd fd4f 83bb 03e7 053e
000003a0: 1e70 303a e7f1 913d 190b b33c 62d7 863d
000003b0: 4e5b fc3c e170 cabd 7ada 67bd d423 993c
000003c0: 1396 24bc e02c 0abd ff6a da3d e69f 97bc
000003d0: f6a4 ab3d 06fc efbc 4698 b3bd dc3b db3d
000003e0: e781 433d 89f4 d43d 17b8 423d 1848 c43d
000003f0: 10d5 8e3d cb2d b5bd 1b4d c93d e040 fd3d

lin5.bias f4 [16]
-0.014322493 -0.015286909 0.045387037 -0.07044979 0.01876648 0.07790447 0.09318325 0.061308265
-0.036105 -0.034202315 0.010603791 0.034969 -0.021775715 0.006180459 -0.0011934025 -0.055093866
00000000: e4a8 6abc f275 7abc c2e7 393d fb47 90bd
00000010: 29bc 993c 618c 9f3d dcd6 be3d 601e 7b3d
00000020: d6e2 13bd ba17 0cbd 86bb 2d3c a73b 0f3d
00000030: fc62 b2bc 7385 ca3b f16b 9cba 1baa 61bd
