src/virtuose_teleoperation/network_controller/trained_policy_MLP/Grasp_norm_BC_AHEE_epoch_39.pth (torch, 200527 bytes, 8 tensors)

lin1.weight f4 [256, 27]
0	0xbd5d7ae8	-0.05407229
1	0x3dd26248	0.10272652
2	0x3dbadd89	0.09124286
3	0x3dfcfb35	0.123526014
4	0xbe269357	-0.16267143
5	0xbe1f911d	-0.155827
6	0x3e35ca69	0.17752995
7	0x3e17b4e8	0.14815104
8	0x3e031b79	0.12803449
9	0x3eb02fe8	0.3441155
10	0xbe9f43ae	-0.31106323
11	0x39c1f4c2	0.00036994187
12	0x3eadea03	0.339676
13	0x3e5e8518	0.21730459
14	0xbf0e1915	-0.5550702
15	0x3eace731	0.33770135
16	0x3e386edb	0.18011038
17	0x3de8bcb4	0.11364117
18	0xbed8537a	-0.42251188
19	0xbb94f624	-0.004545944
20	0xbf1fe3c3	-0.6245691
21	0x3c9be711	0.01903108
22	0x3e048b01	0.12943651
23	0x3dcfde73	0.10149851
24	0xbc868231	-0.016419502
25	0x3d095738	0.033530444
26	0xbdac6916	-0.08418481
27	0x3e409637	0.18807302
28	0x3cc64998	0.024205014
29	0x3af421bb	0.0018625775
30	0x3db6cafe	0.089254364
31	0xbc2a8c26	-0.010409391
32	0x3e4844c2	0.19557479
33	0xbdb01915	-0.08598534
34	0xbe1da569	-0.1539513
35	0xbe76e800	-0.24111938
36	0xbea71503	-0.32633218
37	0x3f046ab3	0.5172531
38	0xbe74d236	-0.23908314
39	0xbd9ae1bf	-0.07562589
40	0xbde8eb44	-0.11372998
41	0x3eae9f1d	0.3410577
42	0xbea43e2a	-0.32078677
43	0x3c42b535	0.011884023
44	0xbe412556	-0.18861899
45	0x3eb22689	0.34795025
46	0x3dff6230	0.124699
47	0x40051884	2.0796213
48	0x3e641aec	0.22275895
49	0xbb408074	-0.002937344
50	0x3d8d4bfa	0.06899257
51	0x3d5419fa	0.051782586
52	0xbc2a5981	-0.010397316
53	0xbde3d302	-0.11124231
54	0x3cd89b8f	0.026441364
55	0xbcd425c1	-0.025896909
56	0x3c986edd	0.018607551
57	0xbc655ab2	-0.013998674
58	0x3df248a8	0.11830264
59	0x3e056457	0.13026558
60	0x3d2f46ad	0.04279201
61	0x3d8c7330	0.06857908
62	0xbde389a4	-0.11110237
63	0x3e014895	0.12625344
64	0x3d0e1ac5	0.0346935
65	0x3e0a1621	0.13485004
66	0xbce5f305	-0.028069982
67	0x3d2eb02e	0.042648487
68	0xbe05e81b	-0.13076822
69	0x3972768b	0.00023123079
70	0x3d6944db	0.05695043
71	0x3d1aaf5f	0.037764903
72	0x3df6bd02	0.12047769
73	0xbe3ef071	-0.18646409
74	0xbd810d0e	-0.06301318
75	0x3dca3459	0.09873266
76	0xbdb3a6b3	-0.0877203
77	0xbd8f9735	-0.07011262
78	0xbddd6f76	-0.10812275
79	0x3d42000e	0.047363333
80	0xbdecca69	-0.11562044
81	0xbcd3c42d	-0.02585038
82	0xbd976c35	-0.07393686
83	0xbc877836	-0.016536813
84	0xbe090843	-0.13382058
85	0x3e38bf7a	0.18041793
86	0x3df065e9	0.11738188
87	0x3d892b48	0.06697708
88	0xbe3593f0	-0.17732215
89	0x3e11cf9a	0.1423935
90	0xbcf2450c	-0.02957394
91	0x3e0c25a8	0.1368624
92	0x3d8ba207	0.06818014
93	0xbe0146a2	-0.126246
94	0xbd0a3775	-0.033744294
95	0xbe3a5e26	-0.18199977
96	0xbc644221	-0.013931782
97	0x3e321748	0.17391694
98	0xbd97ff0e	-0.07421695
99	0x3d9775d7	0.07395523
100	0x3e08f2c5	0.13373859
101	0x3ecc856d	0.39945546
102	0xbdd2f9be	-0.10301541
103	0x3d1f65c4	0.03891541
104	0xbcbebc0d	-0.023283029
105	0xbe3954ae	-0.18098709
106	0x3e20df3a	0.15710154
107	0xbe1e7aa0	-0.15476465
108	0xbe0b26c9	-0.13589014
109	0xbe0bad06	-0.13640222
110	0x3d553999	0.052056883
111	0x3a092f3a	0.00052331726
112	0x3deeda4d	0.11662731
113	0xbc331a45	-0.010931556
114	0x3d9dd5e8	0.07706815
115	0x3d9aaef4	0.07552901
116	0xbd6fb15b	-0.05851875
117	0x3d134fea	0.035964884
118	0x3fb53cbf	1.4159163
119	0xbe530f7a	-0.20611373
120	0xbe225655	-0.15853246
121	0xbe2f622c	-0.17127293
122	0x3fb5e7d3	1.4211372
123	0x3df9c7f9	0.12196345
124	0xbe7a6f7d	-0.24456592
125	0xbdd44d63	-0.10366323
126	0x3e979101	0.29602817
127	0xbe5da0b6	-0.21643338
128	0xc044822f	-3.0704458
129	0xbdb378f4	-0.08763304
130	0xbbe2ef82	-0.006925524
131	0xbcb92200	-0.02259922
132	0x3df63717	0.12022226
133	0x3e234b54	0.15946704
134	0xbe20ecb4	-0.15715295
135	0x3df5b3ad	0.11997161
136	0x3d1261fa	0.03573797
137	0xbc94e64d	-0.018176222
138	0xbd943d68	-0.07238275
139	0x3e58ac5b	0.21159498
140	0xbd1574ee	-0.036488466
141	0xbcc77402	-0.024347309
142	0xbd48e10d	-0.04904275
143	0x3cfccdb1	0.0308598
144	0x3e08f828	0.13375914
145	0xbf1cf2af	-0.61307806
146	0xbe2d34da	-0.16914693
147	0x3c77185c	0.015081491
148	0x3d17d545	0.037068624
149	0xbefec06d	-0.49756184
150	0xbcf15ca5	-0.029463122
151	0x3e01dda6	0.12682208
152	0x3df0a029	0.11749298
153	0xbd51cf55	-0.051223118
154	0x3d2c8ed5	0.042128403
155	0x3e569bbe	0.20957848
156	0xbe03e1d4	-0.12879115
157	0x3e534249	0.20630755
158	0xbe18e8a3	-0.14932494
159	0xbe078e65	-0.13237913
160	0x3bd24e1b	0.0064180023
161	0x3e09e5c5	0.13466556
162	0xbeb963d2	-0.3620897
163	0x3ee5f9f6	0.44917268
164	0x3e4cbde2	0.1999431
165	0xbee5ff84	-0.44921505
166	0xbe3bd8f5	-0.18344481
167	0xbef71fe4	-0.48266518
168	0x3ec4c836	0.38434
169	0x3e9041b7	0.28175136
170	0x3eb8ebdf	0.36117455
171	0x3f0852d2	0.53251374
172	0xbf789bee	-0.9711293
173	0x3efc2372	0.49245793
174	0x3ee75ab7	0.45186397
175	0x3f00ab38	0.5026126
176	0xbfa31d0c	-1.2743239
177	0x3e866dbd	0.262556
178	0x3ea93d76	0.33054703
179	0x3eaa49a0	0.33259296
180	0xbf24349f	-0.64142793
181	0x3e985949	0.2975562
182	0x3ef2227f	0.47291943
183	0x3d646f2b	0.05577008
184	0xbe9fb413	-0.31192073
185	0xbe1f5dc6	-0.15563115
186	0x3e043a54	0.12912875
187	0xbea20a12	-0.31648308
188	0x3e1b2552	0.15150955
189	0x3d3b590d	0.045739222
190	0xbdf3f3fd	-0.119117714
191	0xbdf5a987	-0.119952254
192	0x3e9e842c	0.30960214
193	0x3ea072aa	0.31337482
194	0x3e902d00	0.28159332
195	0xbe4e9638	-0.20174491
196	0xbeac1821	-0.3361216
197	0xbeaccb05	-0.33748642
198	0xbe81cda1	-0.25352195
199	0x3f19ffba	0.6015583
200	0xbe5a9327	-0.21345197
201	0xbe9fc419	-0.31204298
202	0xbc1d2821	-0.009592087
203	0x3f84b9f7	1.0369252
204	0xbe3fc68a	-0.1872808
205	0xbeab3561	-0.33439162
206	0xbe7457e6	-0.23861656
207	0x3c3fd43f	0.011708318
208	0xbe2069b2	-0.1566532
209	0xbf36718a	-0.71266997
210	0xbe505572	-0.20345095
211	0x3e3b3e3f	0.18285464
212	0x3e0ba06e	0.13635418
213	0xbbcbafa6	-0.0062160073
214	0xbe3a72e9	-0.18207897
215	0x3dec02d8	0.1152398
216	0x3e7e5068	0.2483536
217	0xbe2f10d9	-0.1709627
218	0xbe91182a	-0.28338748
219	0x3e4a9981	0.1978512
220	0xbdd383af	-0.10327851
221	0x3e7843cf	0.24244617
222	0xbe36391f	-0.17795227
223	0xbc0ffa37	-0.008787683
224	0x3e24de6f	0.16100477
225	0x3e4fe2a6	0.20301303
226	0xbfb01637	-1.375678
227	0xbd5392bc	-0.05165361
228	0x3e23eed4	0.16009074
229	0x3e014346	0.12623319
230	0xbfc28586	-1.5196998
231	0xbe00eba0	-0.12589884
232	0x3e5301b5	0.2060612
233	0x3e1b20bb	0.15149204
234	0xbeeca6b2	-0.46220928
235	0xbc9ae65e	-0.018908676
236	0xbf16127f	-0.5862197
237	0xbe0b77cd	-0.13619919
238	0xbcd40f44	-0.025886185
239	0x3da339c0	0.07969999
240	0x3d85a182	0.06524946
241	0xbe14c31a	-0.1452755
242	0x3de16193	0.11004939
243	0xbe8be5ab	-0.2732366
244	0x3e445cd8	0.19176042
245	0x3e93c290	0.28859377
246	0xbe689d7b	-0.22716324
247	0xbea1c938	-0.3159883
248	0xbcd6ef84	-0.026237257
249	0x3e6f2c3e	0.23356721
250	0x3e4d03b7	0.20020948
251	0x3cc0dcca	0.02354278
252	0x3e8f4b72	0.27987248
253	0xbf2f500f	-0.68481535
254	0x3e52239c	0.20521396
255	0x3e83b609	0.2572482

lin1.bias f4 [256]
0	0x3dcc7453	0.099831246
1	0x3d373283	0.044725906
2	0x3de4133b	0.111364804
3	0xbe54c99c	-0.20780033
4	0x3db560a6	0.08856325
5	0x3c32d253	0.010914403
6	0x3efbd920	0.4918909
7	0xbe1ad772	-0.15121248
8	0x3cd4795e	0.025936779
9	0x3e5fa167	0.21838914
10	0x3e1e4fae	0.15460083
11	0x3ddf7988	0.10911852
12	0xbe8c2e88	-0.2737925
13	0x3dc1bbbb	0.09459635
14	0xbeb3610f	-0.35034987
15	0xbe0fc37b	-0.14039414
16	0xbe196909	-0.14981474
17	0x3e381a9a	0.17978898
18	0x3e5d997f	0.21640585
19	0x3da12bd8	0.07869691
20	0xbe4c0a53	-0.19925813
21	0xbd3da007	-0.046295192
22	0xbd5203c2	-0.051273115
23	0x3e47b5e6	0.19502982
24	0x3cca85b8	0.024721965
25	0xbe24952c	-0.1607253
26	0xbdbb6106	-0.09149365
27	0xbed40efa	-0.41417676
28	0x3e0dd22e	0.13849708
29	0xbd8cced4	-0.06875387
30	0x3ce0ea3b	0.02745544
31	0x3d81d39c	0.063391894
32	0xbeb53db1	-0.3539863
33	0x3e1cb087	0.15301715
34	0xbd767845	-0.06017329
35	0x3e7ffe50	0.24999356
36	0xbc38076e	-0.01123224
37	0x3e8c1674	0.2736088
38	0xbd9bbd08	-0.07604414
39	0x3de227c4	0.11042741
40	0x3e29196d	0.16513605
41	0xbdc05af0	-0.09392345
42	0x3ebc0eec	0.36730134
43	0xbe2219b3	-0.15830116
44	0x3e200ce0	0.15629911
45	0xbea2a176	-0.3176381
46	0x3d857f32	0.06518401
47	0x3dc3db8e	0.09563361
48	0xbdae9676	-0.08524792
49	0xbe8b5906	-0.27216357
50	0x3e1b300c	0.15155047
51	0xbe0b6763	-0.13613658
52	0x3dc06aae	0.093953475
53	0x3d91cd91	0.07119287
54	0xbdd13d7c	-0.10216805
55	0xbe279c7b	-0.16368286
56	0x3d26cb47	0.040721204
57	0xbdeefd74	-0.11669436
58	0x3dbcc3c0	0.09217024
59	0x3dd4d524	0.10392216
60	0x3e28a0bf	0.1646757
61	0xbd814d1d	-0.06313536
62	0x3e8cade6	0.27476424
63	0xbc87ebcf	-0.016591934
64	0x3e2a1f62	0.16613534
65	0xbd322642	-0.043493517
66	0xbe5aed91	-0.21379687
67	0xbe4923a8	-0.19642508
68	0x3de8f584	0.113749534
69	0xbc65426f	-0.01399289
70	0x3ea5232d	0.322534
71	0xbe18dedc	-0.14928764
72	0x3dfa2a70	0.122151256
73	0x3d8e370d	0.06944094
74	0xbd162e0e	-0.036665015
75	0x3d8b460a	0.06800468
76	0xbe8d71b6	-0.27625817
77	0xbdf5026b	-0.11963352
78	0xbdc91e8a	-0.09820278
79	0x3e371204	0.17877966
80	0xbdd7137f	-0.105017655
81	0xbe981eb3	-0.29710922
82	0x3caebe8b	0.021331092
83	0x3d257503	0.040394794
84	0x3d3ac1e9	0.045595083
85	0xbe951287	-0.29115698
86	0x3c08dba7	0.00835315
87	0xbe0905b2	-0.13381079
88	0x3e864293	0.26222667
89	0xbd880f5b	-0.06643554
90	0x3c52cca4	0.012866173
91	0xbd88d054	-0.066803604
92	0xbeac2ecb	-0.3362945
93	0x3d1b05d5	0.03784736
94	0xbd6c943b	-0.05775855
95	0x3dd387d9	0.10328645
96	0x3c83b350	0.016076714
97	0x3d758126	0.05993762
98	0xbd91ee8e	-0.07125579
99	0x3d9db783	0.07701018
100	0x3e19ccde	0.15019557
101	0x3e7dd519	0.24788322
102	0x3c509332	0.012730407
103	0x3e24b89e	0.16086051
104	0x3d969f1f	0.07354569
105	0x3e4c6d79	0.19963636
106	0x3e4e8f3c	0.20171827
107	0xbe1b3e20	-0.15160418
108	0x3d937f21	0.07201982
109	0xbdd62b26	-0.10457449
110	0x3e578c79	0.2104968
111	0x3d762f4b	0.060103696
112	0x3dc3aa53	0.09553971
113	0xbe2e27b0	-0.17007327
114	0xbe299f84	-0.16564757
115	0x3dc07295	0.09396855
116	0x3dc40dcb	0.09572943
117	0xbe83aa74	-0.25715983
118	0x3e059c06	0.130478
119	0x3c3943a0	0.011307627
120	0xbdddcaa0	-0.10829663
121	0x3da82a51	0.08211196
122	0x3cd05271	0.025429936
123	0xbdb8d0f0	-0.09024227
124	0x3e741be5	0.23838766
125	0x3e6c04d3	0.23048715
126	0x3e6dd4d6	0.23225722
127	0xbd97a66f	-0.074047916
128	0x3ea665c0	0.32499504
129	0x3e4ae376	0.19813332
130	0x3db88d7f	0.09011363
131	0xbda1f593	-0.07908168
132	0x3e2f6d63	0.17131571
133	0x3d53cb46	0.05170753
134	0xbe4318f9	-0.19052495
135	0x3e4bf231	0.19916607
136	0xbe6f6a3d	-0.2338037
137	0xbb74bfee	-0.0037345844
138	0xbe0071c4	-0.12543398
139	0x3df984fe	0.12183569
140	0xbe4d07fc	-0.20022577
141	0x3e140bb9	0.14457597
142	0xbe14a293	-0.14515142
143	0xbd394891	-0.04523522
144	0xbe25ad43	-0.16179375
145	0xbd9f9b8a	-0.077933386
146	0xbcd05e67	-0.02543564
147	0x3e3a1b86	0.18174562
148	0x3ef20342	0.4726811
149	0xbcd0f45e	-0.025507148
150	0xbeb49dda	-0.3527668
151	0xbe42d416	-0.19026217
152	0xbc137fcc	-0.009002637
153	0xbd41377e	-0.047172062
154	0x3cb86133	0.022507286
155	0x3d99e124	0.07513645
156	0x3d02a9f9	0.03190038
157	0x3cda2be5	0.026632259
158	0x3e76dc90	0.24107575
159	0xbe07d7c2	-0.13265899
160	0xbe0c53ae	-0.13703796
161	0xbe0eca0b	-0.13944261
162	0x3e837c60	0.25680828
163	0x3d6d43c9	0.057925973
164	0x3de2078f	0.11036598
165	0xbd51b6a2	-0.051199563
166	0x3d2f9395	0.042865355
167	0xbe30731a	-0.17231408
168	0xbc04fef8	-0.00811743
169	0xbe924498	-0.28567958
170	0x3e3fc8ef	0.18728994
171	0xbc980c5f	-0.018560586
172	0xbd7bcec1	-0.061476473
173	0x3e13f86f	0.14450239
174	0x3e12a511	0.1432078
175	0xbd8d3b20	-0.06896043
176	0xbda118a9	-0.07866032
177	0x3e04fe2d	0.12987585
178	0xbe165a51	-0.1468289
179	0x3e4c6893	0.19961767
180	0x3d5cf4fa	0.053944565
181	0xbcfe9195	-0.031075278
182	0xbed75e72	-0.42064244
183	0x3caeb98c	0.02132871
184	0xbd887e70	-0.06664741
185	0xbe11b03a	-0.14227381
186	0x3de7b209	0.113132544
187	0x3dde6428	0.10858947
188	0x3e99c552	0.30033356
189	0x3d9e3deb	0.07726654
190	0xbe8c7d8d	-0.27439538
191	0x3df2ef45	0.11862043
192	0x3e299487	0.16560565
193	0xbe4ec853	-0.20193605
194	0xbe259d57	-0.16173302
195	0x3db280d5	0.08715979
196	0xbe19a690	-0.15004945
197	0x3c01e4fe	0.007928131
198	0xbe309cd7	-0.1724733
199	0xbe2bfe5a	-0.16796246
200	0x3e2a74d6	0.16646132
201	0xbda5e9ad	-0.08101211
202	0x3e082ed4	0.13299114
203	0xbdd88f88	-0.105742514
204	0x3db6379b	0.08897325
205	0x3d826857	0.063675575
206	0xbdc3abd4	-0.09554258
207	0xbda1c2d1	-0.078984864
208	0xbde5db61	-0.11223484
209	0xbdf1354f	-0.11777746
210	0xbdc8c378	-0.09802908
211	0x3e6c483c	0.2307443
212	0xbe15640f	-0.1458895
213	0xbe259d77	-0.1617335
214	0x3c4f542b	0.012654345
215	0xbe4edf67	-0.20202409
216	0x3e3b6142	0.1829882
217	0x3d466e12	0.048444815
218	0xbe0a3bbc	-0.1349935
219	0xbe3d88fb	-0.18509285
220	0xbd961263	-0.07327726
221	0xbba47b9d	-0.0050196187
222	0xbe6ba88e	-0.23013517
223	0xbdaea323	-0.085272096
224	0xbea962e5	-0.33083263
225	0x3d08acc8	0.033367902
226	0x3ea8f22b	0.3299726
227	0xbeac8bcc	-0.33700407
228	0xbe94cc63	-0.29062185
229	0xbe461b64	-0.19346386
230	0x38c1f841	9.249198e-05
231	0xbe1f71fb	-0.15570824
232	0x3dd0b09c	0.101899356
233	0xbdde7ec4	-0.108640224
234	0xbce87ac7	-0.028378857
235	0xbdf220c2	-0.11822654
236	0x3e106c9e	0.14103934
237	0xbd2c484f	-0.042061146
238	0x3cb16d64	0.021658607
239	0xbcd96d4b	-0.026541373
240	0xbe9f5df9	-0.31126383
241	0xbdce478b	-0.100722395
242	0xbcde8f8c	-0.027168058
243	0xbe400949	-0.18753542
244	0xbe524521	-0.20534183
245	0xbecaedbe	-0.39634508
246	0xbdaaad17	-0.083337955
247	0xbe6786db	-0.22610037
248	0xbe73c3ec	-0.23805207
249	0xbe03f329	-0.12885727
250	0x3e87fc0e	0.2655949
251	0xbe412495	-0.18861611
252	0xbe5a5bc8	-0.21324074
253	0xbe283003	-0.16424565
254	0x3d387f7c	0.045043454
255	0x3eb2127e	0.34779733

lin3.weight f4 [128, 256]
0	0xbcd8800a	-0.026428241
1	0xbd24d3eb	-0.040241163
2	0x3cf1dce8	0.029524282
3	0xbcf761fc	-0.03019809
4	0xbd46fc9e	-0.04858076
5	0x3caaedfc	0.020865433
6	0xbc6e6640	-0.0145507455
7	0xbd08e48f	-0.033421095
8	0xbd66a4ee	-0.056309633
9	0xbd538ff9	-0.051650975
10	0xbd6b24eb	-0.057408255
11	0xb8e4113a	-0.00010875096
12	0xbc53ab12	-0.012919204
13	0x3cac04e4	0.020998426
14	0xbb665e4b	-0.0035151418
15	0xbcdfe3e8	-0.027330354
16	0x3d319d1c	0.04336272
17	0x3ca42aac	0.020039879
18	0xbcde520f	-0.027138738
19	0xbd24536e	-0.040118627
20	0xbcfab743	-0.030604964
21	0xbd7ee8a3	-0.06223358
22	0xbd3546f6	-0.044257127
23	0xbd40f28c	-0.04710631
24	0x3b357560	0.002768837
25	0x3bf201d0	0.00738547
26	0x3d100067	0.035156634
27	0x3cf3c264	0.029755779
28	0xbc26e7a0	-0.01018706
29	0xbd3690ae	-0.04457157
30	0x3d63b3c9	0.05559138
31	0xbc8e0d75	-0.017340401
32	0x3d618505	0.055058498
33	0xbd6eaa22	-0.05826772
34	0x3d0055cb	0.03133182
35	0xbd2fde40	-0.042936563
36	0xbc7cf35f	-0.015438884
37	0xbc29ff95	-0.010375877
38	0xbd6df1fc	-0.058092102
39	0x3d6c07a4	0.057624474
40	0xbca52c8c	-0.020162843
41	0xbcac3554	-0.021021523
42	0x3ca5f028	0.020256117
43	0x3d3ad8c2	0.045616873
44	0x3d2fc7c5	0.042915124
45	0x3bf8c7a0	0.0075921565
46	0xbc69258f	-0.014230146
47	0xbcfeedd9	-0.031119274
48	0xb9a07fa8	-0.0003061269
49	0x3cb54b5b	0.022130659
50	0xbc36f187	-0.011165983
51	0x3d5982f0	0.053103387
52	0xbd011924	-0.031518117
53	0xbd115950	-0.035485566
54	0xbd41bcb2	-0.047299094
55	0xbcae291c	-0.021259837
56	0x3b52d640	0.003217116
57	0xbb17a2e0	-0.0023137853
58	0xbd1a52f4	-0.037676767
59	0xbc89b25c	-0.016808681
60	0xbd60855f	-0.054814693
61	0xbd7068a8	-0.058693558
62	0xbcf9483c	-0.030429952
63	0xbd2d22b6	-0.04226943
64	0x3d29426c	0.04132311
65	0xbd549eab	-0.05190913
66	0x3cd1d2e2	0.025613252
67	0xbd4c1bf3	-0.049831342
68	0x3caf3fe4	0.02139277
69	0x3d5f4858	0.05451235
70	0xbd1c6207	-0.038179424
71	0xbd568998	-0.052377313
72	0x3d19f35e	0.03758561
73	0x3c898548	0.016787186
74	0xbaf26e3d	-0.0018495988
75	0xbd4ecb75	-0.050487
76	0x3d04d79e	0.03243219
77	0xbd46b7b6	-0.048515044
78	0xbc8e22f2	-0.017350648
79	0x3cf9e7e0	0.030506074
80	0xbcfe3d60	-0.031035125
81	0x3d69dbd7	0.05709442
82	0xbd60bccc	-0.05486755
83	0xbd180b06	-0.037119888
84	0xbd762190	-0.0600906
85	0x3c34ef58	0.011043392
86	0x3d3ec29e	0.04657232
87	0xbcf61ab0	-0.030042022
88	0x3d59da1a	0.053186513
89	0x3cc4a72c	0.024005495
90	0xbd55f4bc	-0.05223535
91	0xbd4b2461	-0.04959524
92	0xbd2887ac	-0.04114501
93	0xbd5cbf6c	-0.05389349
94	0xbd1c3877	-0.038139787
95	0x3d1a81d8	0.037721485
96	0xbc9423c5	-0.018083462
97	0x3d12dba2	0.03585399
98	0xbd7f56d4	-0.062338665
99	0x3d181db0	0.037137687
100	0x3d63d847	0.05562618
101	0x3cc37c52	0.023862991
102	0xbc3d4028	-0.011550941
103	0xbd221262	-0.039568312
104	0xbbafb65c	-0.005362315
105	0xbc303898	-0.0107556805
106	0xbd6c81ae	-0.05774086
107	0xbc262e79	-0.010142916
108	0x3d2dea3b	0.042459708
109	0xbbb49188	-0.0055105127
110	0xbc177de1	-0.00924632
111	0x3d02dbf6	0.031948052
112	0xbc435f3e	-0.011924563
113	0x3d023aa2	0.031794198
114	0xbb5c42f9	-0.0033609255
115	0xbd10eec6	-0.035383962
116	0xbd0e58f3	-0.034752797
117	0x3d590ea8	0.052992493
118	0x3d7b8cbc	0.06141351
119	0xbcce67bb	-0.025195947
120	0xbd3f7271	-0.04674
121	0x3cc8c621	0.024508538
122	0x3be3c190	0.0069505647
123	0xbd1bd307	-0.03804305
124	0xbb3deb2f	-0.0028979292
125	0x3cbb4ee0	0.022864759
126	0xbd73ff0d	-0.059569407
127	0xbd339f2c	-0.04385297
128	0xbd15e8a8	-0.03659883
129	0xbcc2a350	-0.023759514
130	0x3d6e9b91	0.05825383
131	0x3d74e5d6	0.0597895
132	0xbd1ca268	-0.03824082
133	0xbcaacfa4	-0.020850964
134	0x3cfd101b	0.030891469
135	0x3c45f7d8	0.012083016
136	0x3cb536bd	0.022120828
137	0xbd73ea7f	-0.059549805
138	0xbd6631a1	-0.056199674
139	0xbc1b8d18	-0.009494089
140	0xbd8077ee	-0.06272875
141	0x3c174ca8	0.009234585
142	0xbd5824e0	-0.05276954
143	0x3d2e9953	0.04262669
144	0x3d7f92ea	0.062395968
145	0xbd4dfff1	-0.050292913
146	0x38975400	7.215887e-05
147	0x3c8eacae	0.017416324
148	0x3d2269ca	0.03965167
149	0xbd299edc	-0.041411266
150	0x3d078364	0.03308429
151	0x3bd6a053	0.006549874
152	0xbd1889e2	-0.03724087
153	0x3c9d03d6	0.019166868
154	0x3cfb3a03	0.03066731
155	0xbcf2bc91	-0.029630931
156	0x3c0a33f0	0.008435234
157	0x3d026168	0.031831175
158	0x3ce6fe50	0.028197438
159	0xbceb8fa8	-0.028755024
160	0x3d697b5a	0.057002403
161	0xbce70b50	-0.028203636
162	0xbd3aec53	-0.045635533
163	0x3d5c0336	0.053714
164	0xbcde1295	-0.02710847
165	0x3d568895	0.05237635
166	0x3ce65eec	0.028121434
167	0x3cb18918	0.021671817
168	0x3d293904	0.04131414
169	0xbc1c16c5	-0.009526913
170	0x3d548acb	0.051890176
171	0x3d2062a5	0.039156575
172	0xbd33f735	-0.043936927
173	0x3d5c4053	0.05377228
174	0xbcd4fee4	-0.026000448
175	0xbcdfea23	-0.027333325
176	0xbd148b11	-0.036265437
177	0xbd6edde7	-0.05831709
178	0x3b1c2680	0.0023826659
179	0xbd312836	-0.04325124
180	0x3d760666	0.060064696
181	0x3d235483	0.03987552
182	0xbc129408	-0.008946426
183	0xbd65fc7b	-0.056148987
184	0x3d1ced64	0.03831233
185	0x3d359287	0.044329192
186	0x3cf56c2e	0.02995881
187	0x3d0d64bf	0.034519907
188	0xbd07e9eb	-0.033182066
189	0xbd75cb1d	-0.060008157
190	0xbb0f3e16	-0.0021857074
191	0x3cf145f0	0.029452294
192	0x3d0daa32	0.03458614
193	0xbc4e58a9	-0.01259438
194	0x3d0bd2b2	0.03413648
195	0xbc389390	-0.01126565
196	0x3cc52288	0.024064317
197	0xbd32ae14	-0.043623045
198	0x3d19c37d	0.037539948
199	0xbd0e27f5	-0.034706075
200	0x3cd2bfc5	0.025726208
201	0x3d59e37c	0.05319546
202	0x3d619b61	0.05507982
203	0xbd37f79c	-0.044913873
204	0xbcd84124	-0.026398249
205	0xbbaf74a0	-0.005354479
206	0xbd03ceaf	-0.03217953
207	0xbd6b7963	-0.05748881
208	0xbd278693	-0.040899824
209	0xbd339783	-0.043845665
210	0x3d015a2c	0.031580135
211	0x3d4c68fd	0.049904812
212	0xbcb09fef	-0.021560637
213	0xbcb1bb0a	-0.021695632
214	0xbd267a38	-0.0406439
215	0x3d25ac14	0.04044731
216	0xbcf73d80	-0.030180693
217	0xbcd46978	-0.025929198
218	0xbd231b16	-0.039820753
219	0x3bf05eea	0.0073355334
220	0x3cba2b40	0.022725701
221	0x3b3c60c0	0.002874419
222	0x3c924ff7	0.017860396
223	0xbd7c0867	-0.06153145
224	0xbd85b358	-0.06528348
225	0xbc842098	-0.016128823
226	0x3c9f4c49	0.019445555
227	0x3ce10377	0.027467472
228	0x3d3bb1ea	0.04582397
229	0x3d1b072f	0.037848648
230	0x3d31b93a	0.043389536
231	0x3c597410	0.0132723
232	0x3c8b3658	0.016993687
233	0xbd4fde92	-0.05074937
234	0xbaabafa0	-0.0013098605
235	0x3d6a2d4c	0.057172105
236	0xbd15cfd4	-0.036575153
237	0xbca1ea14	-0.019764937
238	0x3d3854f3	0.04500289
239	0x3bface5c	0.0076539945
240	0x3c5b6fc4	0.013393346
241	0xbd61b6b2	-0.055105872
242	0x3d3738ce	0.044731908
243	0xbd55309a	-0.052048303
244	0x3c42c530	0.0118878335
245	0xbd34d9e2	-0.0441531
246	0xbd4419a1	-0.047876004
247	0x3d0e14f0	0.034687936
248	0xbb617399	-0.0034401177
249	0x3d3965ef	0.045263227
250	0x3d5a1aff	0.0532484
251	0x3d473c86	0.048641704
252	0x3d6b0a52	0.05738289
253	0xbcc60f7a	-0.024177302
254	0x3c378731	0.011201666
255	0xbc88df30	-0.016707987

lin3.bias f4 [128]
0	0xbd825b0a	-0.063650206
1	0xbd778873	-0.060432862
2	0x3eab3856	0.33441418
3	0xbd10c531	-0.035344306
4	0xbd03dd95	-0.03219374
5	0x3d0febf6	0.03513714
6	0xbbc98ce9	-0.006150831
7	0x3d5bf4c4	0.053700224
8	0x3d403aba	0.046931006
9	0x3d607112	0.054795332
10	0xbd56abb9	-0.05240986
11	0xbd3b3d69	-0.045712862
12	0xbd4bc4fd	-0.04974841
13	0x3bf3d988	0.007441703
14	0xbc9e0d54	-0.019293465
15	0xbbaf82f9	-0.0053561893
16	0x3c837e48	0.016051427
17	0x3a7bfeed	0.0009612877
18	0x39c4a29d	0.0003750519
19	0xbd5ef0ec	-0.05442898
20	0xbcca6fa0	-0.02471143
21	0xbcada31d	-0.021195943
22	0xbd6a608a	-0.057220973
23	0xbc3d4d18	-0.011554025
24	0xbd6df501	-0.058094982
25	0xbd75a43d	-0.059971083
26	0xbc91ae62	-0.017783348
27	0x3d3501ce	0.044191174
28	0x3d1728fa	0.036904313
29	0x3d237cea	0.03991405
30	0x3e5997fb	0.21249382
31	0xbd14bcf8	-0.036313027
32	0xbd32187e	-0.04348039
33	0xbd8d7e37	-0.06908839
34	0x3bc2cfac	0.0059451666
35	0xbc86866b	-0.016421517
36	0x3cd9e566	0.026598644
37	0xbd7f4cf4	-0.062329248
38	0xbd60a523	-0.054844987
39	0x3e07c5cc	0.13259047
40	0xbd8f51a5	-0.06997994
41	0x3b230429	0.0024874306
42	0x3c657008	0.014003761
43	0x3cd6e5c5	0.02623261
44	0xbd34260c	-0.043981597
45	0xbc484649	-0.012223789
46	0xbc1749db	-0.009233917
47	0xba7d2480	-0.0009656623
48	0x3a11deff	0.000556454
49	0xbc9fe618	-0.019518897
50	0x3d4be68a	0.049780406
51	0x3d9e9383	0.077429794
52	0x3d01782d	0.03160875
53	0x3d5cf54f	0.053944882
54	0x3ce9f968	0.028561309
55	0xbd9399bb	-0.07207056
56	0xbd035bc6	-0.032069944
57	0x3d33aa4d	0.043863583
58	0xbd804468	-0.062630475
59	0xba782700	-0.00094662607
60	0xbc2ed5a4	-0.010671053
61	0xbce3235a	-0.027726818
62	0xbbca2734	-0.006169224
63	0xbd10c850	-0.035347283
64	0x3d9c5341	0.07633067
65	0x3d2b6496	0.041843973
66	0xbd48e7be	-0.04904913
67	0xbcb05f0e	-0.0215297
68	0xbc4a3b98	-0.01234331
69	0xbd1e228a	-0.038607158
70	0xbcd75877	-0.0262873
71	0x3d4a7a06	0.049432777
72	0xbcc2cba9	-0.023778753
73	0x3dddd549	0.108316965
74	0xbd6564c4	-0.0560043
75	0x3e861b78	0.26192832
76	0xbc436090	-0.011924878
77	0xbd0d9018	-0.034561247
78	0x3cb4232a	0.021989424
79	0x3d62badf	0.055353995
80	0xbd9288de	-0.071550116
81	0xbd61137b	-0.05495022
82	0xbd6c1db5	-0.05764552
83	0x3d0abd37	0.033871856
84	0xbd40b957	-0.047051754
85	0x3e58ad9f	0.21159981
86	0xbd8da24e	-0.06915723
87	0xbd9ad705	-0.07560543
88	0xbd86de46	-0.06585364
89	0x3c9b2d56	0.018942516
90	0x3da9e856	0.08296268
91	0x3c1fa0f7	0.009742967
92	0x3e61cfdf	0.22051953
93	0xbda37e5f	-0.07983088
94	0x3c866824	0.01640708
95	0x3d29bea5	0.04144158
96	0x3d0a8fc5	0.033828516
97	0xbc275226	-0.010212457
98	0xbd8fabaf	-0.07015168
99	0xbd2fc376	-0.042911015
100	0x3e03b89e	0.12863395
101	0xbca49698	-0.02009134
102	0xbd59d40e	-0.053180747
103	0x3d8508fd	0.06495855
104	0x3d183716	0.03716191
105	0xba9e0637	-0.0012056296
106	0x3c9e603d	0.019333
107	0xbcaca41f	-0.021074353
108	0xbc9c383a	-0.01906978
109	0xbd7c7e70	-0.061644018
110	0xbde1e618	-0.11030215
111	0xbcb7009a	-0.022339154
112	0x3d54e4e2	0.051976092
113	0xbd0f9d71	-0.035062257
114	0xbd534756	-0.051581703
115	0x3a8482f6	0.001010983
116	0x3d21b2b0	0.03947705
117	0x3e8521bd	0.26002303
118	0xbd04029a	-0.032229044
119	0xbd626c39	-0.05527899
120	0xbd6e25a8	-0.05814138
121	0x3c0c9434	0.008580256
122	0xbd88be1c	-0.066768855
123	0xbd90f385	-0.07077698
124	0x3e0d60d2	0.13806465
125	0x3d267abf	0.040644404
126	0x3cbd09ca	0.023075957
127	0xbcc57b93	-0.024106776

lin4.weight f4 [64, 128]
0	0xbd9c3f42	-0.07629253
1	0x3d0697d4	0.03285964
2	0xbd58e077	-0.05294844
3	0xbd8bf622	-0.068340555
4	0x3d5691bd	0.05238508
5	0x3d7ce335	0.06174012
6	0xbc96c119	-0.018402623
7	0xbce98515	-0.028505841
8	0xbd11c516	-0.035588346
9	0x3c99d5ed	0.018778766
10	0xbcfe204c	-0.03102126
11	0x3d9926d2	0.074781075
12	0xbda4ed9d	-0.08053134
13	0x3d8416e3	0.06449678
14	0x3c9e1824	0.01929862
15	0x3c9c9634	0.019114591
16	0x3da9ae3b	0.08285185
17	0x3cba6fa1	0.022758307
18	0x3d8e0f23	0.06936481
19	0xbd6de78a	-0.05808214
20	0xbdba918f	-0.09109794
21	0xbcc44055	-0.023956457
22	0x3d21072d	0.039313484
23	0x3db0d3e3	0.08634164
24	0x3d2bbc2b	0.041927498
25	0x3d4c6df8	0.049909562
26	0x3d9d6527	0.07685309
27	0x3cff2218	0.031144187
28	0xbda63ef4	-0.08117476
29	0x3c3c2264	0.011482809
30	0x3d00488c	0.031319186
31	0x3d96ef6f	0.07369887
32	0xbb81fc9c	-0.003966881
33	0xbd51a818	-0.051185697
34	0xbd19f00c	-0.037582442
35	0xbd272af6	-0.040812455
36	0xbc358474	-0.011078943
37	0xbd3a109a	-0.04542599
38	0xbd8e295a	-0.06941481
39	0x3d94cde5	0.07265834
40	0x3d462eba	0.048384406
41	0x3cc05173	0.023476338
42	0x3c211080	0.009830594
43	0x3da10207	0.07861715
44	0x3da6e22b	0.08148607
45	0xbca3911f	-0.01996666
46	0x3d28f46c	0.041248724
47	0x3db2dce7	0.0873354
48	0x3d6eed37	0.058331694
49	0x3d72ff10	0.059325278
50	0x3ceb5c4f	0.02873054
51	0xbb2fa7ec	-0.002680297
52	0xbd760fbb	-0.060073595
53	0x3d8fc075	0.0701913
54	0xbd64c257	-0.0558494
55	0xbd45d1eb	-0.048295897
56	0x3d85c4ca	0.06531675
57	0x3d557867	0.052116778
58	0xbd0f2471	-0.034946863
59	0xbc076f36	-0.008266261
60	0x3c6bc5e1	0.01439044
61	0xbc2ae88f	-0.010431423
62	0x3d48e662	0.049047835
63	0xbd1695b1	-0.03676385
64	0x3d98c9ec	0.074603885
65	0xbd8350d6	-0.064119026
66	0xbce52ef3	-0.027976489
67	0xbd796c44	-0.060894266
68	0xbdaa9ba9	-0.08330471
69	0xbcbdae78	-0.023154482
70	0x3d5d1c73	0.05398221
71	0xbcaf37c4	-0.021388896
72	0xbd13bac6	-0.036066793
73	0xbd34a8e2	-0.04410637
74	0xbd04c864	-0.03241767
75	0x3dae4598	0.08509368
76	0x3d833975	0.064074434
77	0x3d468147	0.048463132
78	0xbd9fad6a	-0.07796748
79	0x3ca5f4d5	0.020258347
80	0xbc3d24fb	-0.011544461
81	0xbcef15c2	-0.02918518
82	0x3cdfde75	0.027327755
83	0xbda171de	-0.078830466
84	0xbd6f441c	-0.058414564
85	0x3d29d74e	0.041465096
86	0xbaed9f86	-0.0018129207
87	0xbd124757	-0.035712566
88	0x3d869071	0.06570519
89	0xbce99334	-0.028512575
90	0xbcd6144c	-0.026132725
91	0x3ca60b51	0.020269068
92	0x3d67983b	0.056541663
93	0x3df328c8	0.11873013
94	0xbdaf925b	-0.08572837
95	0x3ca413c6	0.02002896
96	0x3d72cfe7	0.059280302
97	0xbca48c20	-0.020086348
98	0xbcf52a91	-0.029927524
99	0xbd074b65	-0.033030886
100	0x3d3e24cd	0.046421815
101	0xbc7da5ee	-0.015481455
102	0xbbe431fe	-0.0069639673
103	0x3d546bc3	0.051860582
104	0xbd9d5e8c	-0.07684049
105	0xbd8aa920	-0.06770539
106	0x3c9ec5f8	0.019381508
107	0xbd3f8c7e	-0.046764843
108	0xbd8c9096	-0.06863515
109	0x3da5b348	0.08090836
110	0x3b007daf	0.0019606163
111	0xbc9cc6c0	-0.01913774
112	0xbcae141f	-0.021249829
113	0xbcc21903	-0.023693567
114	0x3ad05aca	0.0015896198
115	0x3d416e83	0.047224533
116	0xbd577cf6	-0.052609406
117	0x3cb9ce72	0.022681449
118	0xbca0d372	-0.019632075
119	0xbda6b44e	-0.08139859
120	0x3cff4bde	0.031164106
121	0x3da0be54	0.07848802
122	0x3d8154d3	0.06315007
123	0xbd61eeec	-0.055159494
124	0xbcf6414a	-0.03006043
125	0xbd11a24f	-0.03555518
126	0xbd68ad37	-0.056805816
127	0x3c9a3b51	0.018827112
128	0xbda7d8d5	-0.08195654
129	0xbd93456c	-0.071909755
130	0xbd0e1b27	-0.034693863
131	0xbbbe668c	-0.0058105644
132	0xbd844c06	-0.06459813
133	0x3d4b5b2e	0.049647503
134	0x3c265d9e	0.010154156
135	0xbd7879b3	-0.060662936
136	0xbd209fb5	-0.03921481
137	0xbde19fbc	-0.11016795
138	0xbcd41360	-0.025888145
139	0x3dac17cd	0.08402977
140	0xbcfe1606	-0.031016361
141	0xbc488589	-0.0122388685
142	0xbdab9f88	-0.083800375
143	0x3d340e39	0.043958876
144	0xbd9427e9	-0.07234175
145	0x3ae882a4	0.0017739129
146	0xbd3c52a3	-0.045977246
147	0xbba2a255	-0.004963199
148	0xbc1af723	-0.009458336
149	0xbc82cd3b	-0.015967002
150	0xbc3263c0	-0.01088804
151	0x3d8812d4	0.06644216
152	0xbd1043b0	-0.0352208
153	0x3dafe0d5	0.08587805
154	0xbcf0334a	-0.029321332
155	0x3d9710f9	0.07376284
156	0x3d513f00	0.051085472
157	0x3c8e9558	0.017405197
158	0xbd46b1df	-0.048509475
159	0x3d92a0da	0.07159586
160	0xbccd6aa8	-0.025075272
161	0xbc480328	-0.012207784
162	0xbc2e30b3	-0.010631728
163	0xbda54e9e	-0.08071636
164	0x3d8db019	0.069183536
165	0x3cd7f1b8	0.026360378
166	0xbc60fadb	-0.013731684
167	0x3d854ea2	0.06509139
168	0x3d42fbd6	0.04760345
169	0x3cb72de4	0.02236075
170	0xbda49e2f	-0.080379836
171	0x3d16dcf6	0.03683182
172	0xbd89427d	-0.06702135
173	0x3c1abbb3	0.009444165
174	0x3cc96f17	0.024589105
175	0x3d61ff7a	0.055175282
176	0x3c9a9b16	0.018872779
177	0xbd697dbc	-0.057004675
178	0xbd403bfe	-0.046932213
179	0x3d9a2eca	0.075284556
180	0x3d231659	0.039816234
181	0x3cfc002c	0.0307618
182	0xbd987a58	-0.0744521
183	0xbd879a20	-0.06621194
184	0x3db197bd	0.0867152
185	0x3da556f4	0.080732256
186	0x3cce0ff4	0.025154091
187	0x3ccdf1c5	0.025139699
188	0x3db3c942	0.08778621
189	0xbd27146f	-0.04079097
190	0xbc4b9ff8	-0.012428276
191	0x3d2a89ea	0.04163543
192	0x3b9bb3e0	0.0047516674
193	0x3d5309cd	0.05152302
194	0xbdcece39	-0.100979276
195	0xbcf5a403	-0.029985433
196	0xbb8e5ba1	-0.004344419
197	0xbce5be0b	-0.028044721
198	0x3dc73122	0.09726168
199	0x3d66f7d3	0.056388687
200	0xbdad6d62	-0.08468129
201	0xbd3cde38	-0.04611036
202	0xbc5b9049	-0.0134010995
203	0x3ce8a7e7	0.028400375
204	0x3cf33742	0.029689435
205	0xbdeeae88	-0.11654383
206	0x3d37a10d	0.044831324
207	0xbd4b9488	-0.049702197
208	0x3d9ce419	0.07660694
209	0x3cb44045	0.022003302
210	0x3d1478d1	0.036248032
211	0xbd285a9e	-0.041102044
212	0xbd1803b2	-0.0371129
213	0x3cd31fac	0.025771938
214	0x3c297536	0.010342887
215	0xbd48e7fc	-0.049049363
216	0x3d83b9e5	0.06431941
217	0x3d2995fb	0.0414028
218	0xbd26fa4f	-0.040766057
219	0xbd115150	-0.035477936
220	0xbb043c41	-0.0020177516
221	0xbd27004b	-0.040771764
222	0xbd983626	-0.07432203
223	0x3ca69b92	0.020337854
224	0xbd107abf	-0.03527331
225	0xbd74d40a	-0.05977253
226	0x3d9c3123	0.076265596
227	0xbd4f5c84	-0.05062534
228	0x3caffb92	0.021482263
229	0xbd2aa578	-0.04166171
230	0xbd251466	-0.040302657
231	0x3d4de375	0.050265748
232	0xbd82c78e	-0.06385718
233	0xbccd4be6	-0.025060605
234	0xbcd9ceb5	-0.026587823
235	0xbd6fc985	-0.058541793
236	0x3da85761	0.08219791
237	0xbd659631	-0.056051437
238	0xbcd4bc67	-0.025968743
239	0xbd8afc81	-0.067864425
240	0xba29c507	-0.0006476198
241	0x3ccc79b9	0.024960386
242	0x3d5f4d0a	0.05451683
243	0x3d7dcc90	0.061962664
244	0xbd2512e0	-0.040301204
245	0x3c9563ba	0.01823603
246	0xbca05f3b	-0.01957666
247	0x3b9a4a51	0.0047085662
248	0xbd8055ec	-0.06266388
249	0x3ca0ff52	0.019652996
250	0xba7c414b	-0.00096227665
251	0xbd64dccc	-0.05587463
252	0x3dcc8bb1	0.099875815
253	0xbd5c2493	-0.053745817
254	0xbcd9bc0c	-0.026578926
255	0x3db993e7	0.09061413

lin4.bias f4 [64]
0	0xbe876129	-0.26441315
1	0x3db0e746	0.08637862
2	0xbb99fe7f	-0.0046995278
3	0xbb93ea7f	-0.004514038
4	0x3d9fff3f	0.07812356
5	0x3e71344f	0.2355511
6	0xbe2e9eb0	-0.17052722
7	0x3c196778	0.009363048
8	0x3e8c5348	0.2740729
9	0x3e738c03	0.23783879
10	0xbe80e4e4	-0.2517463
11	0xbde2631c	-0.1105406
12	0x3ebfc526	0.374551
13	0xbe56e314	-0.20985061
14	0xbcfb91c2	-0.030709151
15	0x3e261a72	0.16221026
16	0xbd253cf7	-0.040341344
17	0xbe4b5d78	-0.19859874
18	0xbdbf8463	-0.09351423
19	0x3e14939a	0.1450943
20	0x3c47141c	0.012150791
21	0xbe3137c1	-0.17306425
22	0xbe53d5ab	-0.20686977
23	0x3e554ba7	0.2082964
24	0xbe6a25b0	-0.22865939
25	0xbe87e92b	-0.2654508
26	0x3d9d93e5	0.07694224
27	0x3e35c7d0	0.17752004
28	0x3e802728	0.25029874
29	0xbe9bbbb1	-0.30416635
30	0xbc55dd8c	-0.013053309
31	0x3e70f083	0.23529248
32	0x3e6f7938	0.23386085
33	0xbda9d46c	-0.082924694
34	0xbdb13b18	-0.08653849
35	0xbe26d8f1	-0.16293694
36	0xbe08a6b7	-0.13344847
37	0xbd909d0b	-0.070612036
38	0x3e84b053	0.25915775
39	0xbd1f7aab	-0.038935345
40	0xbe9d803b	-0.30761895
41	0xbe5c64a2	-0.21522763
42	0xbddd42ad	-0.10803733
43	0x3e84ca9f	0.25935838
44	0x3e0eb4af	0.13936113
45	0xbe1c8848	-0.15286362
46	0xbeba025f	-0.36329934
47	0xbd2438d9	-0.040093277
48	0x3e49cba7	0.19706593
49	0xbe8eb71c	-0.27874076
50	0x3e00ebc7	0.12589942
51	0x3eaf21bc	0.34205425
52	0xbcf44bb0	-0.029821247
53	0x3e423605	0.1896592
54	0x3e4514c7	0.19246207
55	0x3e2f3a06	0.17111978
56	0x3e90310d	0.28162423
57	0x3e45f7e3	0.19332843
58	0xbeb5d171	-0.35511354
59	0x3eb7094f	0.3574929
60	0x3e0488b9	0.1294278
61	0x3e1e7c7b	0.15477173
62	0xbdf6f72e	-0.120588645
63	0xbea8b833	-0.32953033

lin5.weight f4 [19, 64]
0	0x3e20f807	0.15719615
1	0x3da3620d	0.07977686
2	0x3bcc306c	0.0062313583
3	0xbcfa3d39	-0.030546771
4	0xbd9e1833	-0.077194594
5	0x3d9fc346	0.07800917
6	0xbc65fc4d	-0.014037204
7	0xbd61b2d5	-0.05510219
8	0x3db40c06	0.08791356
9	0x3c17b800	0.009260178
10	0xbdae0cd3	-0.0849854
11	0xbda6063f	-0.0810666
12	0xbe21368b	-0.15743463
13	0xbcbd1183	-0.02307964
14	0xbd1d3cc4	-0.03838803
15	0xbd9ae153	-0.075625084
16	0x3c1989e0	0.009371251
17	0x3d0f6b1b	0.035014253
18	0x3dd4d0b2	0.10391368
19	0x3ae41ac5	0.0017402997
20	0x3d9bfae2	0.076162115
21	0x3d01c859	0.031685207
22	0xbb53dfe2	-0.003232949
23	0xbd412455	-0.04715379
24	0x3d28806b	0.041138094
25	0x3da48f3e	0.08035134
26	0x3d98a3fc	0.074531525
27	0x3dc712ee	0.097204074
28	0x3c85d971	0.016339036
29	0x3d11d4c6	0.035603307
30	0xbdd33570	-0.10312927
31	0x3bfbfbd9	0.0076899347
32	0x3cf6e333	0.030137634
33	0xbd41d8d9	-0.047325943
34	0x3c96880b	0.018375417
35	0x3cddd56c	0.027079307
36	0xbbf7c720	-0.0075615793
37	0xbd891b87	-0.066947035
38	0xbe0c93a8	-0.13728201
39	0xbdabdac8	-0.083913386
40	0x3da9ccf8	0.08291048
41	0x3cd2db4f	0.02573934
42	0x3daae9fc	0.0834541
43	0x3d05fe9b	0.032713514
44	0xbdfc51d0	-0.12320292
45	0xbcc66e9d	-0.024222666
46	0x3d46d3e9	0.048541937
47	0x3dcfbe88	0.10143763
48	0xbc553d32	-0.013015078
49	0x3c9af37f	0.018914936
50	0xbd867d3b	-0.065668546
51	0x3d29fccb	0.041500848
52	0xbd871881	-0.065964706
53	0x3d3df698	0.04637775
54	0x3d0f8804	0.035041824
55	0xbd1738c5	-0.036919374
56	0xbdc4126c	-0.09573826
57	0x3ca25cf1	0.019819709
58	0x3d099d89	0.033597503
59	0xbe181598	-0.14851987
60	0x3d730fac	0.059341118
61	0xbd756710	-0.05991274
62	0xbc8437d2	-0.016139898
63	0xbce9c0c8	-0.028534308
64	0x3cac15d0	0.021006495
65	0xbcf0cd5e	-0.029394802
66	0x3d9afc7e	0.0756769
67	0x3dbd806e	0.09253012
68	0x3d8d1634	0.068890005
69	0x3d49d29e	0.049273126
70	0xbd65c37a	-0.056094624
71	0x3c083ddd	0.008315531
72	0x3c63f95f	0.013914435
73	0x3e05daeb	0.13071792
74	0x3de06e2f	0.10958516
75	0xbdbc8cd3	-0.092065476
76	0x3c08ab9f	0.008341699
77	0xbe094840	-0.13406467
78	0x3de06cd3	0.109582566
79	0x3cf2319c	0.029564671
80	0x3d9d4b02	0.07680322
81	0x3b143c80	0.0022619069
82	0xbd9bfc14	-0.076164395
83	0x3dcbbcb7	0.09948104
84	0x3d62975d	0.055320133
85	0xbd9c2535	-0.07624284
86	0xbc649b41	-0.013953031
87	0xbc8b95ca	-0.017039198
88	0xbda1225f	-0.07867884
89	0xbd858f36	-0.06521456
90	0xbd9c17a2	-0.07621695
91	0x3db7e19e	0.0897858
92	0x3dd51842	0.104050174
93	0xbddcc979	-0.10780615
94	0xbd2ba8f4	-0.041909173
95	0xbd8bae7e	-0.06820391
96	0x3b9b7450	0.00474409
97	0xbd811a8d	-0.06303892
98	0x3d92dda9	0.071711846
99	0x3c23873a	0.009980971
100	0x3dd1e231	0.10248221
101	0xbc09a884	-0.008401994
102	0x3e038981	0.12845422
103	0x3dbc0201	0.0918007
104	0x3dcfb806	0.101425216
105	0xbd917edb	-0.07104274
106	0xbd1b1e30	-0.037870586
107	0x3ddf232f	0.108953826
108	0xbdc7eb4f	-0.097616784
109	0x3c83a09c	0.016067795
110	0xbe1dcafb	-0.15409462
111	0x3cfee636	0.031115633
112	0xbc3afcee	-0.011412842
113	0xbc829e18	-0.015944526
114	0xbdb33192	-0.08749689
115	0x3d942e61	0.072354086
116	0x3d8f1d0f	0.06987964
117	0x3c00bcf8	0.007857554
118	0x3c4532d9	0.012036049
119	0x3d83f273	0.06442728
120	0x3d6794d4	0.056538418
121	0xbc76d860	-0.015066236
122	0x3d649b39	0.055812094
123	0xbd68bb69	-0.056819353
124	0x3d37c783	0.044868004
125	0xbda015c4	-0.078166515
126	0xbd05c16e	-0.032655172
127	0xbda98d5b	-0.082789145
128	0x3d2151b1	0.039384548
129	0xbce17592	-0.027521882
130	0x3dd33f1a	0.1031477
131	0xbdf235ff	-0.11826705
132	0x3d858d80	0.065211296
133	0xbde6a506	-0.112619445
134	0x3cbeee3b	0.023306957
135	0xbe0e1936	-0.13876805
136	0x3d87f022	0.066375986
137	0x3cb2663e	0.021777268
138	0x3e193039	0.14959802
139	0x3db0cc1e	0.08632682
140	0x3db5f681	0.088849075
141	0xbd7883ca	-0.06067256
142	0xbdc02ee3	-0.09383943
143	0x3dab48c7	0.083634906
144	0xbd17dc8b	-0.03707556
145	0x3d919a72	0.07109536
146	0x3d674634	0.056463435
147	0xbbbb9a92	-0.0057252133
148	0xbded6835	-0.115921415
149	0xbda769cc	-0.08174476
150	0xbdf287c7	-0.11842304
151	0x3dc9c7f6	0.09852593
152	0x3d17897b	0.036996346
153	0x3dc7b335	0.09750978
154	0x3d9979a4	0.07493904
155	0x3d546c8c	0.05186133
156	0x3dfaba77	0.122425966
157	0xbd9131b6	-0.0708956
158	0x3bfbef67	0.007688451
159	0x3dc63be3	0.09679391
160	0x3d90fdb6	0.070796415
161	0xbccfed3f	-0.025381682
162	0xbd80c97f	-0.06288432
163	0x3dd1fbd2	0.10253109
164	0xbd0df8ca	-0.034661092
165	0xbd450c55	-0.048107464
166	0x3da8c459	0.08240575
167	0xbb89069e	-0.004181697
168	0x3d6d98d6	0.058007084
169	0x3dfc351b	0.123148166
170	0xbc47dd69	-0.012198784
171	0xbba5e910	-0.0050631836
172	0x3d8115f5	0.06303016
173	0x3d56fd18	0.052487463
174	0x3d33e047	0.04391506
175	0x3dc7399a	0.097277835
176	0x3d897daf	0.06713425
177	0x3c7cae2e	0.015422387
178	0xb9d1a011	-0.00039982845
179	0x3d896afc	0.06709859
180	0x3decf131	0.11569441
181	0x3d058872	0.032600828
182	0xbcb02d8d	-0.021506095
183	0x3d7a523b	0.061113577
184	0x3c09ec75	0.008418192
185	0xbbcf5c97	-0.0063281762
186	0x3d2091fc	0.03920172
187	0x3d0906e7	0.03345385
188	0x3da6c0de	0.08142255
189	0xbdc2f8f4	-0.0952014
190	0x3dbe5ea8	0.09295398
191	0xbde01c21	-0.10942865
192	0xbd3aa354	-0.045565918
193	0x3d9f718d	0.0778533
194	0x3ca2da3b	0.019879451
195	0xbbea6b93	-0.007153937
196	0x3d64ee5f	0.05589139
197	0xbce08313	-0.027406251
198	0xbd077e93	-0.033079695
199	0xbd3be968	-0.04587689
200	0x3d9f4a87	0.07777887
201	0xbdd3bbee	-0.10338579
202	0x38e5074d	0.00010920931
203	0x3dc677f9	0.09690852
204	0x3caf0791	0.021365913
205	0xbd865454	-0.06559053
206	0x3dd3f18a	0.10348804
207	0xbd0cb539	-0.034352515
208	0x3d0e0f12	0.03468234
209	0x3d23c546	0.039983056
210	0xbd0c70db	-0.034287315
211	0x3d01b1af	0.031663593
212	0x3dbfa6b3	0.09357967
213	0xbc9426d5	-0.018084923
214	0xbd1247f0	-0.035713136
215	0xbcd4f24f	-0.025994448
216	0x3d802b4c	0.06258258
217	0xbdb08926	-0.08619909
218	0xbc53e6d7	-0.0129334545
219	0x3d8f1e82	0.06988241
220	0xbc21b70c	-0.009870302
221	0xbd9fb867	-0.07798844
222	0xbd938b35	-0.07204286
223	0xbdcf383a	-0.10118146
224	0xbd6507a1	-0.05591548
225	0x3df40443	0.11914875
226	0xbde1e60d	-0.11030207
227	0xbd353ada	-0.04424558
228	0x3ddad72c	0.10685572
229	0x3d6e1b42	0.058131464
230	0x3c8f95c3	0.017527467
231	0xbd96fc35	-0.073723234
232	0x3de4a737	0.11164706
233	0xbd196a1f	-0.03745472
234	0xbdaafb02	-0.08348657
235	0x3d990e17	0.074733905
236	0x3d8bdfae	0.06829773
237	0x3d96c182	0.073611274
238	0xbc7e06b5	-0.015504529
239	0x3dab0443	0.08350422
240	0x3d0d88c1	0.034554247
241	0x3e0ac872	0.13553026
242	0xbd55e6d1	-0.052222077
243	0xbcef12ad	-0.02918371
244	0x3c436be1	0.011927576
245	0xbd96e8ab	-0.07368597
246	0x3c77bd9a	0.015120888
247	0x3d8d0b5e	0.06886934
248	0x3d8a69ef	0.067584865
249	0xbc81c8e2	-0.015842859
250	0xbdcc53a7	-0.09976893
251	0x3d97d61a	0.074138835
252	0x3da640c7	0.08117824
253	0xbdec62ab	-0.11542257
254	0x3cdb528b	0.026772758
255	0xbd4ec1c7	-0.05047777

lin5.bias f4 [19]
0	0xbe3a90ae	-0.18219253
1	0x3e28ac0a	0.16471878
2	0x3cd498d5	0.025951782
3	0x3d4d1ea4	0.05007805
4	0x3ea113dd	0.31460467
5	0x3e898325	0.26857868
6	0xbc4d35d6	-0.0125250425
7	0x3cd63c66	0.026151847
8	0x3e94acad	0.2903799
9	0x3deaa6c7	0.114575915
10	0x3d826b2d	0.063680984
11	0xbc819d26	-0.015822005
12	0x3e3e4356	0.18580374
13	0x3deaee09	0.11471183
14	0xbd70db8a	-0.05880312
15	0x3ea67cc4	0.32517064
16	0xbd236a46	-0.039896272
17	0x3e069967	0.13144456
18	0x3d184dde	0.037183635
