src/virtuose_teleoperation/network_controller/trained_policy_MLP/Grasp_proper_dataset_AHFF_200_prediction_length_epoch_199.pth (torch, 470209 bytes, 12 tensors)

lin1.weight f4 [256, 32]
000000 85 e2 2c be d9 07 c7 3d 33 61 c7 bd 18 06 c9 3d
       -0.16883285 0.09718294 -0.09735336 0.098156154
000010 f9 88 ed 3c b1 72 40 3d 46 b6 32 3d ff 99 14 3e
       0.028995978 0.04698438 0.04363086 0.1451187
000020 a5 59 1d be e6 06 cd bc fb 0e 39 bd 1d 69 1e be
       -0.15366228 -0.025027703 -0.045180302 -0.15469785
000030 45 e8 2f be 59 40 f4 3d 10 ab 89 3d e3 c7 d7 3a
       -0.17178448 0.11926336 0.06722081 0.0016462769
000040 88 21 cc bc 69 27 59 bc 00 93 24 be f7 09 f4 bd
       -0.024918333 -0.013254025 -0.16071701 -0.11915963
000050 36 69 7b 3b 38 e1 ef 3d e4 58 9d 3d f2 61 a8 3d
       0.003836227 0.11712879 0.0768297 0.082218066
000060 16 b8 11 be e3 17 5f 3d 3b c0 d9 3b eb e2 9d bd
       -0.1423038 0.05446614 0.00664523 -0.07709297
000070 3f 30 55 bd ab 2a db 3d 00 8e cd bb af 39 1a 3e
       -0.052047964 0.10701498 -0.0062730312 0.15061067
000080 f1 72 07 3e 25 d0 cc 3b 85 02 bb bd 0f 3d ef 3d
       0.1322744 0.0062503987 -0.0913134 0.11681568
000090 93 26 2e 3e e2 fa f1 bc e6 a2 f0 bd d2 47 77 3d
       0.17006902 -0.029538576 -0.117498204 0.060371228
0000a0 7a 88 0e bd 75 e5 8f bd 7e a8 ce bd bd 6f 23 3e
       -0.034798123 -0.07026187 -0.10090731 0.15960594
0000b0 b1 b5 09 3d 0b 76 bd bd c3 6e 14 3e 4b 6d 0b bd
       0.03362054 -0.092510305 0.14495377 -0.034039777
0000c0 31 d2 20 3e 78 a1 73 bc 20 7d f2 3c e4 23 c9 3d
       0.15705182 -0.01487004 0.02960068 0.09821299
0000d0 b5 3d 0d 3d 2c 6e 12 be 15 ea d1 bc 60 40 0e 3d
       0.034482677 -0.1429984 -0.025624314 0.03472936
0000e0 0b 45 00 3d 75 3b c9 bd 97 a0 a0 3d 85 47 bb 3c
       0.031315845 -0.09825794 0.0784313 0.022861252
0000f0 da 61 7b bd a6 40 95 3c bf 11 b9 bc c8 ef 15 3e
       -0.061372615 0.018219303 -0.02259147 0.1464225
000100 65 00 0e 3d da 54 6e bd 43 1d b4 3d 9e 10 a5 bd
       0.034668345 -0.05818639 0.08794644 -0.0805981
000110 ff 68 ce 3c 27 b8 fc bc 58 34 86 bd 5f 09 4e bd
       0.02519655 -0.03084953 -0.065529525 -0.050301906
000120 3b 89 50 be a0 cd 84 3d 67 5d 09 be 10 82 ca bd
       -0.2036485 0.06484532 -0.13414536 -0.09888089
000130 2d 34 1f 3e 4d 35 12 3f 02 28 e0 3c c8 3e b3 bd
       0.15547247 0.5711258 0.027362827 -0.08752209
000140 52 55 7a be 99 4f 9a bc b7 f0 0d 3e a1 a6 85 3e
       -0.2444661 -0.018836783 0.13861357 0.2610369
000150 ee 9a cd bc 3a 5f 00 bd f0 6b 7f 3d c2 b6 34 be
       -0.02509829 -0.031340815 0.062358797 -0.17647842
000160 f8 3c 3f be 80 35 e4 bb 57 6a 92 be c2 73 80 bc
       -0.18675601 -0.0069643855 -0.28596756 -0.015680198
000170 33 fc b7 bd 57 12 8c 3d b4 c1 80 be 3a b4 be 3d
       -0.0898365 0.068394355 -0.25147784 0.09311719
000180 06 41 04 3d 48 9d 27 be 13 a8 23 bc 76 c1 23 3e
       0.032288574 -0.16368592 -0.0099888025 0.15991768
000190 3e 6f 66 bd a9 19 9f 3d 0f a1 2e bd 50 c8 e3 3d
       -0.056258433 0.07768566 -0.042634066 0.11122191
0001a0 6e 0d f7 bd a9 1b 25 3c 64 37 32 3e 3e d9 a1 bd
       -0.120631084 0.0100773955 0.17403942 -0.07902764
0001b0 59 5e 0b 3e 67 8e 09 3d bb 71 1c be 34 aa 33 bd
       0.1361021 0.03358307 -0.1527776 -0.04386349
0001c0 65 97 29 be 9a f7 b0 bd 8a 7c f2 bd c1 bb 2b be
       -0.16561659 -0.08640976 -0.1184016 -0.16770841
0001d0 2f 78 fd 3c 84 c3 a2 bd b3 63 0a 3e 31 cc 84 3c
       0.030941097 -0.07947448 0.13514595 0.016210647
0001e0 c8 f0 91 3d e3 f4 2e be 64 dc 1d 3e 83 08 f1 bd
       0.071260035 -0.17085604 0.15416104 -0.117692016
0001f0 ee ec 22 be 49 b4 e6 3d c4 23 02 be a8 04 19 bd
       -0.15910694 0.112648554 -0.12708956 -0.037357956
000200 90 78 17 bd af 6c ea bd 50 99 2b be 56 59 ad 3d
       -0.03698021 -0.11446511 -0.16757703 0.08464305
000210 a6 00 28 be 8c a9 de bd 2a 5f fe 3d 7b 36 0d bd
       -0.16406497 -0.10872182 0.12420495 -0.034475785
000220 8d 95 2f be cc 7c 9b 3d ef 24 1e be 65 f6 50 bc
       -0.17146893 0.075921625 -0.15443777 -0.0127540575
000230 a9 f8 86 bd bd cb 0a bd b2 32 8e 3d a8 e6 25 be
       -0.06590397 -0.033885706 0.06943263 -0.1620127
000240 c4 33 19 bc d1 1a 43 3d 56 44 26 bd 30 1c da bd
       -0.009350721 0.047632996 -0.040592514 -0.106499076
000250 7f 23 ff 3c 65 ba b4 bd 72 ca 80 bd 24 f7 27 be
       0.031144856 -0.088246144 -0.062886134 -0.1640287
000260 05 af 27 be 66 e7 ca bd 3c e9 f4 3d 47 c8 25 be
       -0.16375358 -0.09907417 0.119585484 -0.16189681
000270 0d a7 42 3c b9 a1 c9 bd 06 7c 04 3c d1 bd 1a 3e
       0.011880648 -0.09845299 0.00808621 0.15111472
000280 ae 90 6e 3d f2 f8 1e 3e ab 83 01 be ff 23 fa 3d
       0.058243446 0.15524653 -0.12647884 0.12213897
000290 85 ae 4f bd f7 a3 07 be f0 48 3e 3d 77 06 d4 bd
       -0.050703544 -0.13246141 0.046456277 -0.103527956
0002a0 4f 21 d9 bb 6e db 33 be fa c9 9e bb 49 b0 ba 3c
       -0.006626285 -0.17564175 -0.004845855 0.022789137
0002b0 fd b0 e9 3d 33 b5 02 3d 7c 6b c7 3d b3 b9 83 3c
       0.11410711 0.031911086 0.09737298 0.01607976
0002c0 8f ba 08 3e 4c 67 f5 3d 3d e2 77 bb 5a 85 2c be
       0.13352416 0.11982593 -0.0037824058 -0.16847745
0002d0 dc 4e f5 bc 31 16 f3 bd 6d fd d8 3d 33 58 c2 3d
       -0.02994483 -0.11869467 0.10595212 0.09489479
0002e0 14 94 c5 3d 7d 06 02 be 0b 8e c5 bd 96 49 19 3e
       0.09647384 -0.12697788 -0.09646233 0.14969477
0002f0 f3 cb 03 be 5b e4 d8 bd fc 4f 0d 3e 5f f6 1d 3e
       -0.12870769 -0.1059043 0.13800043 0.15426014
000300 91 1f aa 3d d0 19 e7 3d 46 fa 1b 3e e4 a2 80 bd
       0.08306802 0.1128422 0.1523219 -0.06281069
000310 33 36 0a be 35 71 6f bd 55 bd d4 bd 29 df 25 3e
       -0.13497238 -0.058457572 -0.10387675 0.1619841
000320 7d a3 d8 bd 08 70 18 be 49 ce ad bd 13 56 e0 bd
       -0.10578058 -0.14886487 -0.084866114 -0.10953917
000330 3e b2 04 be e8 72 f4 bc cd 7a 2b be bb 29 22 bd
       -0.12958619 -0.029839948 -0.16746064 -0.03959058
000340 3e 72 29 3e 16 7a 1f be 75 41 94 bd 0e 03 4d bc
       0.16547486 -0.15573916 -0.072390474 -0.012512935
000350 34 ea 28 be 91 31 aa bd 3a be 8e 3d bf e5 17 3d
       -0.16495591 -0.08310235 0.069698766 0.037084337
000360 f5 a7 f9 3d 84 07 52 3c 97 dd bf 3d 28 2b 52 bd
       0.121902384 0.012819175 0.09368437 -0.05131069
000370 82 f9 85 bc c0 58 13 be fd 35 27 3e 07 64 0b be
       -0.016354326 -0.14389324 0.16329189 -0.13612376
000380 be 89 20 be 55 45 0a be 3b 4f fe bd 34 b5 38 bc
       -0.15677544 -0.1350301 -0.12417456 -0.011273671
000390 c6 6e 82 3d c6 2b 1a be cd 4c 69 3c e9 bd a5 bd
       0.063687846 -0.1505576 0.014239502 -0.08092863
0003a0 ee b0 7d 3a 00 2a 1e 3e 08 71 c9 bc bf a9 11 3e
       0.00096775487 0.15445709 -0.02459003 0.14224909
0003b0 e5 7d 1a bd 58 4a af 3d 5c 98 e3 3d 99 4e c2 3d
       -0.03771772 0.08559102 0.111130446 0.094876476
0003c0 70 a9 af 3d 72 db 57 3d c0 7d d3 ba 2a 40 dc bc
       0.085772395 0.052699514 -0.0016135499 -0.026886065
0003d0 89 d6 5c 3d ea 0d 7e bd d1 3e f1 bd fb c5 10 3e
       0.053915534 -0.06202499 -0.117795594 0.14138024
0003e0 14 44 02 3e 19 91 12 3d d1 26 32 3d 87 b6 25 3e
       0.12721282 0.035782907 0.04349405 0.1618291
0003f0 76 d3 95 3c 88 d2 19 3d 09 1c ba bd b7 54 b2 bc
       0.018289309 0.037554294 -0.090873785 -0.02176891

lin1.bias f4 [256]
000000 e3 3e d3 bd a8 82 94 bc 2e a2 07 3e ee 67 2a be
       -0.10314729 -0.018128708 0.1324546 -0.16641209
000010 5b 63 fd 3d 0e 33 05 bd 4d 69 07 3e 99 4b ae bd
       0.12372466 -0.032519393 0.13223763 -0.08510513
000020 e9 fb fc bd 5a 82 f3 3d a6 bd 05 3e 0c 84 31 3e
       -0.123527355 0.11890097 0.13060626 0.17335528
000030 d2 e4 18 3e 9e 31 0d 3e aa 7e 3d bd 00 58 59 3c
       0.14931038 0.13788459 -0.046263374 0.01326561
000040 47 44 31 bd 82 45 00 3e 01 a3 55 3d 9d dd 62 be
       -0.043278005 0.12526515 0.052157406 -0.22154851
000050 8c 3c 92 bc 15 8a 0e 3e 18 29 5a bd c3 b8 2a 3d
       -0.017851137 0.13919862 -0.053261846 0.04168011
000060 95 af f4 bc ef ef ca bd f0 7c 0e be fb 1c cd bc
       -0.02986888 -0.09909045 -0.13914847 -0.025038233
000070 cd c7 a4 3d 58 65 e2 bd f2 2e c4 3d c6 d6 9e be
       0.080459215 -0.11054486 0.095792666 -0.31023234
000080 13 87 c9 3b 04 73 12 bd 6b b6 27 3d fb 25 b8 bd
       0.0061501353 -0.03575422 0.04094545 -0.08991619
000090 0f 0e 2d be 47 e6 eb bc 1b 9a b7 bd b4 85 8c bd
       -0.16899894 -0.028796328 -0.0896494 -0.06861439
0000a0 0b b7 61 be 89 62 0e be b7 93 db bd a0 4c f3 bd
       -0.22042482 -0.13904776 -0.10721534 -0.118798494
0000b0 65 2f 5a be 35 0b 2d bd 83 d7 d9 3d f9 4c 45 bc
       -0.21307142 -0.042247016 0.10636809 -0.0120422775
0000c0 a9 b7 19 bc 84 c2 f7 bd d1 cf 5e bc 63 8c 31 be
       -0.009382167 -0.12097648 -0.013599352 -0.1733871
0000d0 cd 93 84 bd 1e d6 0b 3e cd a8 e1 bd d6 7d d1 bd
       -0.06473503 0.13655898 -0.11018524 -0.102290794
0000e0 78 39 7f bd bf 7f 25 be ae ac 00 3e b5 91 40 be
       -0.062310666 -0.16162013 0.12565872 -0.18805583
0000f0 79 f0 98 3d 15 18 06 be 14 da 30 bd 93 7f db bd
       0.074677415 -0.13095124 -0.043176726 -0.10717692
000100 26 59 44 bd 87 0e 18 be f5 ea 8f bc ad 34 25 be
       -0.04793658 -0.14849292 -0.01756809 -0.16133375
000110 52 0b 26 be aa 0f db 3c 0d c4 b0 bc 13 66 66 bc
       -0.16215256 0.026740868 -0.02157786 -0.014062422
000120 8e 25 b9 bd 27 70 13 3d 06 5e 02 3e 31 08 b2 bd
       -0.09040366 0.03599563 0.1273118 -0.08692969
000130 67 9f bb 3d f0 7b 31 b9 8b 65 1a bd a1 de 45 3d
       0.09161263 -0.00016926206 -0.037694495 0.04830802
000140 a7 a5 91 bd 46 8d af bb fd 2b 1e be a9 f3 10 3e
       -0.07111674 -0.0053574173 -0.15446468 0.14155449
000150 1c dd 1e be 66 0f 19 3e f7 27 46 3d 95 3c 43 be
       -0.15514034 0.1494728 0.048377957 -0.19066079
000160 95 62 9c bd 68 c1 7f bd b4 6b 60 3d 02 22 34 be
       -0.076359905 -0.062440306 0.054790214 -0.17591098
000170 f8 3d 31 3e 10 76 0e be 10 ba da 3c 1b 3b 43 3d
       0.17308795 -0.13912225 0.02670005 0.04766379
000180 e3 6f 85 3d ba 2b ba 3d 6c 4d 3a bd 9b 75 08 be
       0.06515481 0.090903714 -0.04548399 -0.13326113
000190 1f b3 95 bd 27 b3 e0 3d 56 50 d8 3d 73 b1 42 3e
       -0.07309555 0.109716706 0.10562198 0.19013004
0001a0 39 af 85 bd 17 e1 23 3e ee b5 dc 3d 32 ae c1 3c
       -0.06527562 0.16003834 0.10776888 0.023642633
0001b0 c2 74 da bd 07 76 6b be f0 1b c2 3d 24 75 71 bc
       -0.10666801 -0.22994243 0.09477985 -0.014737401
0001c0 61 e8 de bd 37 96 f2 3b ff 6a f9 3d 95 7b 38 be
       -0.108841665 0.007403161 0.12178611 -0.18015893
0001d0 7f 28 65 3c e4 da 87 3d 82 10 80 3d 19 65 2f be
       0.013986706 0.06633547 0.062531486 -0.1712841
0001e0 f6 87 48 b9 06 d9 3a 3d a8 92 f8 3d 57 90 dc bd
       -0.00019124136 0.045617126 0.121373475 -0.10769718
0001f0 c2 9a e4 bc bd b2 8a bc d2 5b 92 3d db 28 1f 3e
       -0.027905826 -0.016930932 0.071464196 0.15542929
000200 1a 46 6b 3d 34 e3 95 bd 11 20 04 3e 1e f8 83 bd
       0.0574399 -0.07318726 0.12902857 -0.06443809
000210 fc 00 23 be 3c b8 31 be ce 3e 99 3d 7f 96 84 3d
       -0.15918344 -0.17355436 0.07482682 0.06474017
000220 af 62 32 3e 12 a1 33 be 3e c0 80 bd 77 7a 1b be
       0.17420457 -0.17541912 -0.06286667 -0.15183435
000230 2b 49 8a 3c 84 7c 28 ba 64 61 0d be 52 c9 ab 3d
       0.016880592 -0.00064272457 -0.13806683 0.08388008
000240 20 da 5e 3d e6 fa 29 3e 9b c5 b3 3d 32 df 02 3d
       0.05440724 0.16599616 0.087779246 0.031951137
000250 86 df 6e 3d a3 5b 1e be 1d 15 1c be 98 24 c8 bd
       0.058318637 -0.15464644 -0.15242429 -0.09772605
000260 33 b6 82 3c 14 5a 33 bd b8 d0 a0 3d b1 c4 db bd
       0.01595602 -0.043787077 0.0785231 -0.10730875
000270 49 58 cb 3d 4c 1d 0f be fd a4 09 be 27 13 32 be
       0.099289484 -0.1397602 -0.13441844 -0.17390119
000280 86 13 78 be 5b 84 e1 bd b6 b5 82 3d 72 e2 79 be
       -0.24226198 -0.11011573 0.06382315 -0.24402788
000290 ce 38 10 3d 8a 68 ba 3d fa c4 41 bd ca 78 c0 3b
       0.035210423 0.091019705 -0.047306992 0.005873774
0002a0 71 d9 23 3e c2 19 e0 3c 24 88 8e 3d b6 24 2b bd
       0.16000916 0.027356032 0.069595605 -0.041783057
0002b0 cf 76 7e bd c9 c7 40 be 69 63 7b bd fc da 93 bc
       -0.062125023 -0.18826212 -0.0613741 -0.018048756
0002c0 26 6b 35 bd d2 db 0f 3d 64 85 2b 3e 5c 60 13 3e
       -0.044291638 0.035121746 0.16750103 0.14392227
0002d0 4e 79 78 be 74 9d 8f 3d f8 9e c6 3d fa 7f 04 3e
       -0.24265024 0.07012454 0.0969829 0.12939444
0002e0 0b c2 3d be ce 54 95 bd a7 cd 02 3e d4 06 01 3e
       -0.18531053 -0.07291566 0.12773763 0.12600261
0002f0 0a b9 07 bd ed f9 19 be ac 9f 3e be 99 58 e2 3d
       -0.03313545 -0.15036745 -0.18615597 0.11052055
000300 8a 84 d8 bd 84 eb 4d 3c a8 5b c9 3d 64 21 18 bd
       -0.10572155 0.012568358 0.09831935 -0.03714122
000310 77 3b fe bd e9 a5 38 bc da 88 5d 3d 5b ec 10 be
       -0.12413686 -0.011270025 0.05408559 -0.14152662
000320 98 ae 1e be 81 0c 11 be 0b 81 f9 bb ee 21 96 3d
       -0.1549629 -0.14164926 -0.00761426 0.0733069
000330 bc e0 0c be a3 43 22 be ae 2f 8f bc e5 b4 22 be
       -0.13757604 -0.15846114 -0.01747879 -0.15889318
000340 51 42 05 be 5e e3 1a 3b 8b 6a f4 bd bd e3 5a bd
       -0.13013579 0.0023634057 -0.11934384 -0.053439844
000350 47 76 57 3c fb 4f 0f bd 9f 37 98 3d 53 fa ce 3d
       0.013150758 -0.034988385 0.07432484 0.10106339
000360 12 bd 26 3e 47 ce d2 bd 9e 17 6d bd f8 03 e3 bd
       0.16283062 -0.102932505 -0.05788385 -0.11084741
000370 64 bb eb bd ac ee 96 be 1f 8a 04 bd 72 30 ab 3c
       -0.11510351 -0.29478967 -0.032358285 0.020897124
000380 5e ea 10 bd 38 02 e0 3d 13 05 08 be f8 77 e7 bd
       -0.03537976 0.10937923 -0.13283186 -0.11302179
000390 54 ad c0 bd 3f 7a 0e 3c ea b8 5b be 58 22 31 bc
       -0.0940806 0.008696138 -0.21457258 -0.010811411
0003a0 8b 7c d4 3d 92 c3 46 be d0 89 05 3e 0e cc ed 3d
       0.10375317 -0.19410542 0.13040853 0.11611186
0003b0 51 73 a5 bd 3d 3d ad bd fa f4 98 3d 9c ec 94 be
       -0.080786355 -0.08458946 0.074686006 -0.2908677
0003c0 13 a5 18 be e0 52 ba 3d 3b f7 84 bc f0 f4 cd bc
       -0.14906721 0.090978384 -0.01623117 -0.02514121
0003d0 7b b8 be 3d e4 3b 12 3d 92 77 0b 3e 70 58 3c bd
       0.093125306 0.035701647 0.13619831 -0.045982778
0003e0 10 ef b8 bc 6e 62 16 bd 1e cb 0c 3e 1e 2c c6 3d
       -0.022574931 -0.036714964 0.13749358 0.096763834
0003f0 aa 34 49 3d 4e a3 d3 bd 21 64 67 be 1e ab ca b9
       0.04912249 -0.10333882 -0.2259679 -0.00038655935

lin2.weight f4 [256, 256]
000000 c8 62 07 bc a0 39 52 3b fa ad 17 3d 50 34 8d bc
       -0.008263297 0.0032077804 0.03703115 -0.017236859
000010 0c 82 36 3d d2 e1 6b bd 08 1a 53 bd 6e 46 46 bd
       0.044557616 -0.057588406 -0.051538497 -0.04840701
000020 d6 c4 53 3d 38 fe 74 bd 99 84 96 3d d0 1d 60 bc
       0.05170139 -0.059812754 0.0734951 -0.013678983
000030 84 9f 7d 3d 94 a1 d8 3c 60 f1 3b 3c b9 46 65 3d
       0.061919704 0.026444234 0.0114711225 0.05597565
000040 60 16 a3 bc 50 ef f4 3c 6c b1 15 3e 3a d7 8a be
       -0.01990813 0.02989927 0.14618462 -0.2711733
000050 56 dc af 3d 85 10 03 3e fd c7 8a bd 28 b7 e4 bc
       0.085869476 0.1279927 -0.06776426 -0.027919367
000060 ec e9 87 bc f4 5a 84 3e 01 6b f6 3b 76 9b 5a bd
       -0.016591035 0.25850642 0.00752008 -0.053370915
000070 00 d0 b6 bb 9d 6d 6a bd 6d f2 8f bd d2 68 39 3d
       -0.0055789948 -0.05723344 -0.07028661 0.04526598
000080 b1 df 10 3e 26 bd 8d 3c 88 60 2c 3d 40 70 a8 bc
       0.14147831 0.017302107 0.042084247 -0.020561337
000090 26 af b5 3d aa 34 70 3d 4e c9 34 bd d8 b8 f2 bc
       0.088712975 0.058643974 -0.04413729 -0.029629156
0000a0 76 13 95 bd 7f 0e 4a 3c bb c6 87 3d b4 8f 24 bd
       -0.072791025 0.012332558 0.06629702 -0.04017611
0000b0 20 02 94 3d bb 5a 87 bd 81 fd c6 3d 0e 67 37 3c
       0.07226968 -0.06609102 0.09716321 0.011194004
0000c0 d7 13 88 bd 2c b8 16 bd 0c 0d 48 bd 96 e2 3c bd
       -0.06644409 -0.036796734 -0.048840567 -0.046114527
0000d0 a2 d2 10 bd 8c 38 a5 3d 38 a6 d9 bc 52 3a 60 3e
       -0.035357125 0.08067426 -0.026568517 0.21897247
0000e0 30 f3 42 3d cc a8 59 bd 4f 39 b5 bd 10 08 84 3c
       0.047595203 -0.053139493 -0.08848821 0.016117126
0000f0 5f 99 aa bd 42 f2 06 bc 88 cd 5e 3d 34 c4 87 3d
       -0.083300345 -0.00823647 0.05439523 0.0662922
000100 20 fd 2e 3d 1c 97 b1 3c 7c 34 26 bd 98 8b e1 3c
       0.042721868 0.0216785 -0.040577397 0.027532384
000110 d8 75 3d bd 92 60 4e bd 36 a2 43 bd a0 56 1b bd
       -0.046254963 -0.050385065 -0.04776212 -0.03792441
000120 14 91 b1 3c 01 88 af bb fe 87 29 3e 20 06 1a bd
       0.021675624 -0.005356789 0.16555783 -0.037603498
000130 96 c6 0b be 40 5e 21 3e ac 78 5a bd cf 0d 14 3c
       -0.13649973 0.1575861 -0.053337738 0.009036495
000140 40 88 4f 3b bb 1e f5 3d 91 69 77 3d 36 4b f5 bc
       0.0031666905 0.11968752 0.06040341 -0.02994309
000150 94 e4 5d bb 70 61 4f 3c b5 4a 7a bc 46 2d 36 3e
       -0.0033858167 0.012657508 -0.015276601 0.17790708
000160 21 ae 7d 3d a4 d9 2c 3d 40 a5 63 be 70 fc 6e 3c
       0.06193364 0.042199746 -0.22231007 0.014586553
000170 5e 44 65 bd 95 dd d9 bd b8 35 4e 3d bd dd ec bd
       -0.055973403 -0.106379665 0.0503442 -0.11565731
000180 a0 23 12 bd 28 47 07 bd ae 43 91 3d b8 27 25 3d
       -0.035678506 -0.033026844 0.07092987 0.040321082
000190 9b 31 93 bd 0e 32 5b be a2 cd 66 3d 99 e4 89 bd
       -0.07187196 -0.21405813 0.05634845 -0.06733055
0001a0 1b 8b 9e bd 83 d9 8d bd 87 42 a5 bd 70 8f c6 bc
       -0.07741376 -0.06926253 -0.0806933 -0.024238318
0001b0 1d 8b 8d 3c 93 48 6d 3d f8 96 18 bd 21 c8 e5 3d
       0.017278248 0.05793054 -0.03725335 0.11219812
0001c0 cc e1 db bc 62 2d 46 be c7 84 a7 3c 16 b1 3e be
       -0.026841067 -0.1935325 0.020449055 -0.1862224
0001d0 50 1d 93 bb b2 2f 10 3d 89 4d 50 3c e8 80 f8 bc
       -0.0044895783 0.035201736 0.012713798 -0.030334905
0001e0 b0 7e 6d be 01 fe 55 bd 6c bd 82 3b b9 d2 06 be
       -0.23192859 -0.05224419 0.003989866 -0.13166322
0001f0 ea 8f a0 bd f0 b0 20 be cc 8e 85 3c 34 57 00 bd
       -0.078399494 -0.15692496 0.016303442 -0.031333163
000200 7e 53 67 3d 76 39 cf 3d 7a 4a 2a 3d f4 f5 66 3e
       0.05647611 0.10118382 0.041574933 0.22554761
000210 ec f6 3f bd a6 f4 7a bd c6 60 23 be 76 b7 61 3d
       -0.046866342 -0.06126847 -0.15954885 0.055106603
000220 13 d3 31 3c 34 94 32 3d a0 63 40 be 30 58 a1 3c
       0.010853547 0.04359837 -0.18788004 0.019695371
000230 40 92 49 bc 54 38 16 bd c5 71 17 3d b5 eb 9b bd
       -0.012302935 -0.036674812 0.036973733 -0.07613317
000240 1a be 1e bd 3d c3 2e be 7c 6c 70 be 59 21 68 3d
       -0.038755514 -0.17066665 -0.23478884 0.056672428
000250 86 8f 11 be e4 77 c1 bc 9c 06 ac bd ed de 84 3d
       -0.14214906 -0.023616739 -0.08399698 0.06487832
000260 43 fe eb 3d 28 cd 1f bd 16 56 1c 3d c8 8d a3 bd
       0.11523106 -0.03901401 0.038168035 -0.07986027
000270 28 24 12 bd a0 7d cc 3b 10 f5 a3 3b 30 9b 45 3c
       -0.035679013 0.0062405616 0.005003579 0.012060925
000280 86 60 af 3e a9 76 24 bb ab 28 4b 3c e3 da 32 3e
       0.3425333 -0.002509514 0.012399833 0.17466311
000290 bf 7a c9 3c 42 b7 5a be e8 44 64 bc aa 68 1b 3d
       0.024594663 -0.2135897 -0.013932444 0.037941612
0002a0 c0 c1 8c 3d f9 1c 82 bc 3f 53 8b 3d b0 58 cb 3b
       0.068728924 -0.015882956 0.06802987 0.0062056407
0002b0 21 37 22 be 73 68 73 3d 35 31 d9 3d 6e 19 31 3d
       -0.15841343 0.059425782 0.106050886 0.043237142
0002c0 70 89 95 3b e8 92 ce bc 24 ac 8e bd 2c bf 3b bd
       0.004563503 -0.025216535 -0.06966427 -0.045836613
0002d0 95 18 d2 3d 80 88 4b 3c cc 64 64 bb 68 50 9b bd
       0.10258595 0.012422681 -0.0034850119 -0.07583696
0002e0 a7 c7 93 3d fc b9 fc 3c cb cb 46 be 00 a5 80 bc
       0.07215815 0.030850403 -0.19413678 -0.015703678
0002f0 18 e4 f5 3c 74 58 c5 3d 89 8f 94 3c ea f1 ad bd
       0.03001599 0.09636012 0.01813485 -0.08493407
000300 6f a1 7d 3d 80 86 ad 3a 20 e6 b5 bc 45 9f 7a bd
       0.061921533 0.0013238937 -0.022204459 -0.061187048
000310 ae 5f 07 3e b4 f3 4d 3d c5 9a 64 bd c0 36 c5 3b
       0.13220093 0.05028124 -0.055811662 0.0060184896
000320 ba 67 61 bd f0 af 52 bd f9 b1 ff bb 3f 6f 01 bd
       -0.055030562 -0.05143732 -0.0078031984 -0.031600233
000330 aa 21 f5 bc cb 43 01 3d 26 6e 4b bd 0d c3 1c 3e
       -0.029923279 0.031558793 -0.049665593 0.15308781
000340 86 a8 15 bd 66 a4 48 3d a0 7e 78 3d 70 49 27 bd
       -0.03653767 0.048984908 0.060667634 -0.04084152
000350 70 f5 46 bd f9 95 88 bb 05 69 23 be 10 95 a9 bd
       -0.04857391 -0.0041682688 -0.1595803 -0.082803845
000360 cd 5e 4a bd 8a af 1e 3d e1 aa 2e 3c 76 c4 16 bd
       -0.049406815 0.038741626 0.010660858 -0.036808454
000370 56 73 c2 be f9 af 78 3c 1e d0 54 bd b4 0f ae 3c
       -0.3797862 0.015178674 -0.05195629 0.021247722
000380 47 01 ed bd c8 ef 73 bd fc 6c 4c bd 28 7b cd bc
       -0.11572509 -0.059554845 -0.049908623 -0.02508314
000390 60 1f 34 bb 72 0e 2b bd cb c9 f2 bd d5 91 f1 3d
       -0.0027484521 -0.041761823 -0.11854895 0.117953934
0003a0 f4 64 27 be aa db 54 be 73 10 14 bd 52 99 82 3c
       -0.16347104 -0.2078692 -0.0361485 0.01594225
0003b0 64 c3 1d bd 14 de 19 3d 34 d3 3e be 66 6d 01 3b
       -0.038516417 0.037565306 -0.18635255 0.0019749044
0003c0 de 67 21 bb 38 89 2d bc 6f ad 49 3d 62 32 0c 3e
       -0.002462856 -0.0105917975 0.049237665 0.13691095
0003d0 b5 51 a7 3a 68 b3 25 3d e5 0d ba bc d2 e9 35 bd
       0.001276544 0.0404543 -0.022711704 -0.04441244
0003e0 80 b6 4a be 0a 6d 2d bd 70 d2 c1 bb b8 33 56 3d
       -0.1979618 -0.042340316 -0.0059149787 0.052295417
0003f0 2c 2c e5 bc 9e ab 35 3d 5c 54 4a 3e a4 92 05 3e
       -0.027975164 0.04435312 0.19758743 0.1304422

lin2.bias f4 [256]
000000 b6 85 1b 3d f8 c7 4b 3d a4 b3 8e bc d2 4d 86 3d
       0.037969314 0.049751252 -0.017419644 0.06557812
000010 70 fc aa 3b a2 5a 78 bd 82 ab e4 bc fb 18 ac 3c
       0.005218081 -0.06063331 -0.027913813 0.021008005
000020 f7 12 9b 3d e2 c5 0e bd 9c 24 77 bd 27 bc 28 bc
       0.07571977 -0.034856685 -0.060337648 -0.010298765
000030 31 52 1f 3d 5b 18 8a bc 8f 65 8b 3d d2 60 06 3d
       0.038896743 -0.016857317 0.0680648 0.03280718
000040 d2 5b 6f bc 54 f5 85 bd 3b 96 a5 3a 0e cf bc 3a
       -0.014609294 -0.06540933 0.0012633273 0.0014404969
000050 12 87 19 bd d2 69 5f 3c 56 74 0e bd 81 30 9b 3c
       -0.03748233 0.013636069 -0.034778915 0.018944027
000060 48 54 c4 3c 6c 64 66 bd f8 86 a8 bc 45 94 e4 bc
       0.02396597 -0.056248114 -0.02057217 -0.027902732
000070 5a ee 26 3d d7 12 7a 3b 34 f7 d4 bc 1d 8e d5 bc
       0.040754654 0.0038158202 -0.025996782 -0.026068741
000080 33 4b 58 bd da 6c 59 bd 21 74 0d 3c 10 13 19 bd
       -0.05280609 -0.053082325 0.008633644 -0.037371695
000090 36 74 78 bd 41 66 10 3d 22 0a d6 3d 7b 73 53 bd
       -0.060657702 0.035253767 0.104511514 -0.051623803
0000a0 c0 0d eb 3b 55 b4 5a bd c0 1c 11 bd 7d 42 43 bd
       0.00717327 -0.053394634 -0.03542781 -0.04767083
0000b0 51 e9 12 bd 76 92 94 3c a9 ae 16 bd 28 80 d2 bc
       -0.03586704 0.018136244 -0.036787663 -0.025695875
0000c0 7e 14 f3 3c 0e 60 fa bb 77 ea 87 bc 50 89 69 bd
       0.029672857 -0.007640845 -0.016591294 -0.057015717
0000d0 a3 5e d5 bc 92 52 08 bd 39 6b c3 3b 19 13 30 3d
       -0.026046103 -0.03328187 0.0059637097 0.042986963
0000e0 e0 e2 7a bc 5a dd 90 bd c4 6b 06 bc 3d f4 e7 bb
       -0.01531288 -0.070734695 -0.008204404 -0.007078676
0000f0 da e2 d0 bc 98 a8 a6 bd af 12 0a 3c b7 04 24 bd
       -0.025498796 -0.081376255 0.008427306 -0.04004356
000100 3f 7e 86 3d cd 29 85 bd a5 63 9b 3c 48 ab ef 3c
       0.06567048 -0.065021135 0.018968413 0.029256478
000110 8b 8e 99 bd fc 2f b1 3c 31 f7 82 bc 45 4c da 3c
       -0.07497891 0.021629326 -0.01598701 0.026647696
000120 37 85 9e bb 56 d6 0e 3d 58 6d 63 bd 92 f6 8b bd
       -0.004837658 0.034872375 -0.0555242 -0.06834139
000130 01 68 da bc 78 00 04 bd b4 59 19 3d 53 63 4c 3b
       -0.026660921 -0.03222701 0.037439063 0.0031187132
000140 ea 5c ae bd 50 7b 19 bd bc 6d cb bc 43 3b ca bc
       -0.08513816 -0.037471116 -0.024832599 -0.024686461
000150 b8 0b 58 3c b2 98 dd bb 68 2b 02 bd 71 b6 28 3d
       0.013186388 -0.0067625875 -0.031779677 0.041189615
000160 b7 c9 ac 3a c9 f4 8c bd c1 1d 40 3c 56 f3 31 3d
       0.0013182674 -0.068826266 0.011725844 0.043444954
000170 04 79 0f 3d 0c b8 d2 bc c0 1c 58 bd 0a fb b8 bd
       0.03502752 -0.025722526 -0.052761793 -0.09032257
000180 5f 7b 0e be 6c 9a 19 3d 84 a5 de 3d 9f 6e ce bb
       -0.1391425 0.037500784 0.10871413 -0.006299808
000190 c2 ba ee bc d4 45 43 bc 67 62 8f 3d c1 bd 19 bd
       -0.029141787 -0.011918504 0.07001191 -0.03753448
0001a0 21 a9 af 3d d0 f8 0f bd ef c0 d7 3d 47 7c d3 bc
       0.08577181 -0.035149395 0.10534846 -0.025816096
0001b0 8c d0 11 bc 14 66 2e bd 51 b4 3c 3d 74 3f 1f bd
       -0.008899819 -0.042577818 0.0460704 -0.038878873
0001c0 8f 5d d8 bc df ce f2 3c bb e5 97 bd d8 b4 d5 3c
       -0.0264118 0.02963966 -0.074168645 0.02608721
0001d0 39 62 c2 bc 78 99 80 bd eb d4 fa bc 82 c9 38 3d
       -0.023728477 -0.06279272 -0.030619105 0.045114048
0001e0 03 da d2 bd a0 67 2a 3c bc a2 17 bd 23 da 96 3d
       -0.10295489 0.010400683 -0.03702043 0.07365825
0001f0 18 38 16 bd a6 05 d0 3c 83 09 f4 bd 57 33 b2 3c
       -0.03667459 0.025393318 -0.11915877 0.021752996
000200 69 50 0b 3d f9 73 90 3b 23 61 33 bd ff 15 2f bd
       0.034012232 0.0044083563 -0.04379381 -0.042745586
000210 5c 88 00 3d a5 4f 0c be 7f f2 46 bb 37 41 01 bd
       0.031380042 -0.13702257 -0.0030356941 -0.031556334
000220 b7 de f5 bd c0 32 d4 3c 0a 35 68 3c ad 23 a8 3c
       -0.1200537 0.025903106 0.014172802 0.020524824
000230 e0 43 f3 bd 0d c0 9e bc dc 56 b9 bb b7 27 5f 3d
       -0.118781805 -0.019378686 -0.0056561064 0.054481234
000240 77 82 37 bb cb ae 8b bb 9d 9c 22 3d 03 14 08 3c
       -0.0028001347 -0.0042627803 0.03970014 0.008305552
000250 0b da 6c bb b6 d6 5b bb a9 28 75 bd dd fc 90 b9
       -0.0036140706 -0.0033544726 -0.05985323 -0.00027654218
000260 88 e9 cd bc 4e 61 23 bd 44 cc d1 bc cc 77 41 bd
       -0.02513577 -0.03988772 -0.025610097 -0.047233388
000270 7c b2 80 bd 1a 1a ea 3d 74 b9 54 bd 45 62 a0 3d
       -0.06284043 0.1143076 -0.051934674 0.078312434
000280 5f b5 29 b9 f5 ca 08 be 31 d9 51 bd 89 59 41 bd
       -0.00016184662 -0.13358672 -0.05123252 -0.047204528
000290 2e 16 f3 3b 9c 4c 28 bd f7 45 0e bd ae 32 d7 bd
       0.0074184155 -0.041088685 -0.034734692 -0.10507713
0002a0 ae 44 93 3b 10 fe 02 3d ef 12 bd 3d e5 21 fd bc
       0.0044942712 0.031980574 0.09232127 -0.030899951
0002b0 6e e6 10 bd 22 e2 8b 3c 42 e4 08 bc 80 ee e0 bc
       -0.035376005 0.017075602 -0.008355202 -0.027457476
0002c0 01 16 c6 3a 3c 5e 9d bc 66 70 22 bd 71 14 93 bd
       0.0015112759 -0.019209974 -0.039657973 -0.07181633
0002d0 0e 80 ff 3c ec 74 a7 3c cb b7 13 bd 58 79 e0 3c
       0.03118899 0.020441495 -0.03606395 0.027401611
0002e0 b3 2f 39 3d 43 01 31 3d 9d eb 48 ba 7a ff ab 3d
       0.045211505 0.043214094 -0.00076645036 0.08398338
0002f0 32 6a f3 bc 4b 57 a1 3d 85 24 3c bd 46 c4 97 3b
       -0.029713724 0.07877978 -0.045933265 0.004631552
000300 22 a5 d4 bd e6 c5 8a 3b 3f 9c 29 3d ca 0d 1d bd
       -0.10383059 0.004235017 0.041408774 -0.03834323
000310 3b c6 19 bd 06 af 03 3d 9b c8 3c bd 35 90 56 bb
       -0.037542563 0.032149337 -0.04608975 -0.0032739763
000320 c7 29 07 be e7 27 8b bc 4f 89 62 3c 6c 03 64 bd
       -0.1319953 -0.0169868 0.013826682 -0.055667326
000330 51 de f3 bc 20 6c 9f bd 31 c5 3e 3d e9 3e 1c bd
       -0.029769095 -0.07784295 0.046574775 -0.038145933
000340 da d2 87 3c e1 28 91 bd d4 97 f4 bc 4b be 62 3b
       0.016580034 -0.07087875 -0.029857554 0.0034598287
000350 6c 21 28 3d 45 65 44 3b e5 79 30 bd c0 1d 2d bb
       0.0410475 0.0029967588 -0.043084998 -0.0026415437
000360 46 ed 2c bd 03 84 fb bc 50 76 cd bc d7 35 47 3d
       -0.04221847 -0.030702597 -0.02508083 0.04863533
000370 4e bc 41 bb c9 bd db bd 00 de 6f bc d8 dd 1a bd
       -0.0029561701 -0.10729558 -0.014640331 -0.037809223
000380 56 97 0a 3d 1c 64 21 be a1 eb 92 3d 02 2f 38 3d
       0.03383573 -0.15760845 0.07173849 0.044966705
000390 53 17 21 3c cc 64 a2 bb dd 5a 9d bc 26 18 12 be
       0.009832221 -0.0049558636 -0.019208366 -0.14267024
0003a0 84 19 84 3c 73 48 d2 bb 08 3d bc 3b 84 e7 43 bd
       0.016125448 -0.006417328 0.00574458 -0.047828212
0003b0 a0 16 fb 3b 66 ee ca bc 5b 74 cf bc 33 2e 2f 3c
       0.007662609 -0.02477188 -0.025324037 0.010692167
0003c0 0b 32 ec bc dc 2f d4 bc 59 4a 74 bd 2a 71 29 3d
       -0.028832456 -0.025901727 -0.059641216 0.041367687
0003d0 21 63 3f 3d 3a e2 fd bc 1d ea fd 3c b1 54 4d 3c
       0.046725396 -0.030991662 0.030995423 0.012532399
0003e0 96 76 f3 3c 5e cb 98 bc a8 22 60 bd 04 54 22 3d
       0.029719632 -0.01865166 -0.05472055 0.039630905
0003f0 7b 45 94 bd e6 81 7b 3c 20 05 83 bd ec 52 23 3d
       -0.07239815 0.015350794 -0.06397462 0.039874002

lin3.weight f4 [128, 256]
000000 f5 ef ee bc 54 32 60 bd cc 38 d3 bc 9a 08 90 bd
       -0.029167155 -0.054735497 -0.025783919 -0.070328906
000010 ec 7f d1 3c 80 f0 2b 3d 53 b1 93 bc 9b 63 4b bd
       0.025573693 0.041977406 -0.01802889 -0.049655538
000020 6b 09 51 bd 6c 8a f7 3c 8a 75 00 bd f0 7b 0a bc
       -0.051034372 0.030217372 -0.031362094 -0.008452401
000030 cf 04 e8 bc 06 27 26 3c 90 5f 99 bd d8 d9 50 3c
       -0.028322605 0.01014114 -0.0748893 0.0127472505
000040 8c 57 cd 3c d2 45 60 3d 9c d8 79 bd 09 a1 ac bd
       0.02506616 0.054754086 -0.06099759 -0.084291525
000050 26 1f 30 bd d6 a4 23 bd 68 46 83 bc 8c 71 e6 bc
       -0.042998455 -0.03995212 -0.016024783 -0.028130315
000060 4d 21 f9 bc 32 4c 30 3d 00 6e 4c bd d4 22 b1 3c
       -0.030411387 0.043041416 -0.04990959 0.021623053
000070 15 be 2b bd bc 7a 0a bd 6a 1f 7a 3d 44 44 8d bc
       -0.041929323 -0.033808455 0.061065115 -0.017244466
000080 20 c7 09 bd 6c cd f2 bc 18 03 9d 3c 8e 77 92 bc
       -0.033637166 -0.029638968 0.019166514 -0.017879274
000090 be 87 09 bd c1 45 bd bd 85 60 36 3b a8 cb 6f bc
       -0.03357672 -0.0924182 0.0027828526 -0.014635958
0000a0 ec d1 7a bd 48 d3 29 3c 01 80 0a bd 78 f1 a1 3c
       -0.061235353 0.010365315 -0.03381348 0.019768462
0000b0 cc ce d8 3c b0 ab 78 3c 3c 87 f6 bc 08 5d 68 bc
       0.026465796 0.015177652 -0.030093782 -0.014182337
0000c0 40 44 de 3b b0 07 be 3c 80 47 7e bb 70 77 e9 bc
       0.0067830384 0.023197025 -0.0038799942 -0.028499335
0000d0 03 0d 29 bd 30 61 08 3d e0 a1 a0 3c 89 e8 21 bc
       -0.041272175 0.03329581 0.019608438 -0.009882101
0000e0 50 47 12 bc 06 b7 1d bd 01 23 98 bd 16 20 2e bd
       -0.008928135 -0.038504623 -0.074285515 -0.04251107
0000f0 e4 0b 56 3d 54 03 81 bc 90 b8 49 3d 30 15 23 bd
       0.052257434 -0.015748657 0.04924828 -0.039815128
000100 8d d0 2a bb cc 56 b2 3b 60 e5 2b bc 40 3c 7a bc
       -0.0026064247 0.005442476 -0.010491699 -0.015273154
000110 f0 61 57 3d d4 90 39 3d 34 42 ac bc f0 28 0e bc
       0.052583635 0.045304134 -0.021027662 -0.008676752
000120 33 be 96 bd 20 41 80 bb 76 8c 4e bd 3c 28 4c 3d
       -0.07360496 -0.0039140135 -0.050426923 0.049843058
000130 48 1b e2 bc ab f0 47 bd 4f bc 43 bd 3e 20 2a 3d
       -0.0276009 -0.048813503 -0.047787007 0.041534655
000140 c4 77 8d bc 90 b7 50 bd 67 59 a6 bd 00 05 71 bd
       -0.017269023 -0.05095631 -0.08122521 -0.05884266
000150 f4 2d 33 bd a3 97 cb bb 54 c6 ab 3c b0 e7 80 bc
       -0.043744996 -0.006213145 0.020968594 -0.015735477
000160 87 68 87 bd 13 40 8e 3c 3f 7a 1d bc 1a 6a 33 bd
       -0.06611734 0.017364537 -0.009611665 -0.04380236
000170 44 ca a7 bd 9c d2 4e 3d d4 d8 20 bd 4c cf 32 bc
       -0.08192876 0.05049382 -0.039269283 -0.010913681
000180 bb af ae bc e5 c9 21 bd 6f 37 0f bd 60 25 24 bd
       -0.02132403 -0.039499182 -0.034964975 -0.040074706
000190 74 a1 f1 bc 76 69 59 bd 27 8a b5 bd eb 56 af 3c
       -0.029495932 -0.05307909 -0.08864241 0.02140375
0001a0 a4 42 0d 3c 70 44 34 3c 41 c6 b9 bc b2 b2 3c bd
       0.008621845 0.011002645 -0.022677543 -0.046068855
0001b0 cf 6b a4 bd 38 ab 53 bd 06 6b 46 bd 44 d0 6e 3d
       -0.08028375 -0.05167696 -0.04844191 0.058304086
0001c0 ae 30 59 bd 23 e7 7b bc 00 f1 52 3d 43 fa 17 bd
       -0.05302494 -0.0153749315 0.051499367 -0.037103903
0001d0 20 a7 56 3d 04 f3 5b 3d 90 5a 27 bd 3c 81 80 bd
       0.052405477 0.053698555 -0.04085785 -0.062746495
0001e0 0d db df 3b 00 95 4c 3b 2c e7 25 bd 2d 4e a3 3c
       0.006831533 0.003121674 -0.040503666 0.019934738
0001f0 16 10 3f 3d a1 d5 98 bd 24 36 fb bc 92 9f 8a bd
       0.0466462 -0.074626215 -0.030665465 -0.06768717
000200 6d 91 69 bd 02 f0 20 3d ec 9a d7 bc 7e 19 67 bd
       -0.057023454 0.03929139 -0.02631899 -0.056420796
000210 20 47 15 bd 0a da 01 3d 8b ff b2 bd 84 79 71 3d
       -0.036444783 0.03170208 -0.08740147 0.058953777
000220 98 e8 94 bd 10 e7 53 3c 2a 60 2f bd 0c 5c 1b bd
       -0.07270926 0.012933508 -0.04281632 -0.03792958
000230 db 2e 87 bc f0 a5 71 bd 56 6f 62 bd 1c 7a 1b bd
       -0.016501835 -0.05899614 -0.05528196 -0.03795825
000240 1f 79 be bd 82 16 9d bd 0a 31 0a bd 04 70 a5 bc
       -0.09300446 -0.07670309 -0.033738174 -0.020195015
000250 5e 85 3c 3d 5c d9 8c bc f0 13 6c 3c 78 9f 06 bc
       0.046025626 -0.017193489 0.01440905 -0.008216731
000260 e8 12 34 bc ac c8 69 bd c8 69 01 3d c0 53 17 bc
       -0.010990836 -0.05707614 0.03159502 -0.009236276
000270 34 85 44 3d 1c 45 40 bd 5d ea 0b 3d ae 7d c6 bd
       0.047978595 -0.046940908 0.034159053 -0.0969194
000280 b4 1a 82 3c ef 0b 66 bd 40 07 fc 3c 5c cf c2 bc
       0.015881874 -0.056163725 0.030765176 -0.023780517
000290 c1 4b 81 bd 9c 66 94 bc c0 77 93 ba 4e 38 ee 3c
       -0.06313277 -0.018115334 -0.0011250898 0.029079583
0002a0 ea b2 3d 3d e1 1d 8f bd bd 35 b1 bd f6 fe 7f 3d
       0.046313204 -0.06988121 -0.08652828 0.06249901
0002b0 a4 43 74 3d 20 2e 4b 3b 14 7b 85 bc ac 29 c4 bc
       0.05963482 0.0031002834 -0.01629404 -0.023945652
0002c0 a4 3f b0 bc bb c6 29 bd 36 2d 66 3d ca 51 07 3d
       -0.021514721 -0.04144929 0.05619546 0.033036985
0002d0 e3 71 00 bd c0 c5 b8 3a 78 44 0c 3c dc 7b fc bc
       -0.03135861 0.001409702 0.008561246 -0.03082078
0002e0 4c ca 95 bc 6e 4d 91 3c 80 3a 64 3b 7b b0 64 bb
       -0.01828494 0.017737117 0.0034824908 -0.003489523
0002f0 10 f3 6f bc 62 71 6c bc 18 a8 e5 bc 68 12 39 bd
       -0.014645353 -0.014431329 -0.028034255 -0.04518357
000300 a1 f9 a5 3b 44 4b 89 3c a0 c2 f2 3c 20 71 ae 3c
       0.0050651585 0.016759522 0.02963382 0.021294177
000310 48 77 06 3c 54 d4 ec 3c bc d1 ad 3c ee c6 02 bd
       0.00820715 0.02890984 0.021218173 -0.031927995
000320 b1 35 5c 3a a4 0d 41 bd 02 d6 50 bd 74 5b f5 3c
       0.00084003346 -0.04713215 -0.050985344 0.029950835
000330 46 cb f1 bc 41 36 d5 3c 5c af 94 bd 16 16 89 bd
       -0.029515874 0.026026847 -0.0726001 -0.06693666
000340 52 15 c3 bc 18 86 51 3d c0 ad 07 bd ae 2d 0b bd
       -0.023813877 0.051153272 -0.033124685 -0.03397911
000350 62 b5 23 bd a4 97 38 3d 76 46 7e bd a4 3b d7 3c
       -0.039967902 0.04506649 -0.062078916 0.026273556
000360 2c 41 3d 3c a0 cd 85 bc cc 37 62 3d 5f 68 c4 3c
       0.011551183 -0.016333401 0.055228993 0.02397555
000370 be f7 05 bd 0f 8f ed 3c 70 cc 6b 3c 39 b9 c9 bc
       -0.03270697 0.02899888 0.014392003 -0.024624454
000380 19 a8 b4 bd e8 50 41 bd bf 85 cf bc 48 02 df bc
       -0.088211246 -0.0471963 -0.02533233 -0.027222767
000390 ec a4 4e 3d 20 5a 63 3d 08 70 1d 3c ce 80 6b bd
       0.05045025 0.05550587 0.00960923 -0.057495885
0003a0 a8 86 cb bc ce 3b 6e bd e0 54 cb 3c 38 46 f5 bc
       -0.024844483 -0.058162503 0.024820745 -0.02994071
0003b0 02 68 0c bd 30 bd 47 bd 0c 93 43 3d 84 c3 1b bc
       -0.034278877 -0.048764408 0.047747657 -0.009507064
0003c0 d8 9d 3b 3d be ec 11 bd b4 06 20 3d 6a 18 c0 bd
       0.04580483 -0.035626166 0.039068893 -0.093796566
0003d0 b3 c2 b7 bd 22 b6 a0 bd 22 21 bb bd 74 e9 b8 bc
       -0.08972683 -0.07847239 -0.09137179 -0.022572257
0003e0 13 1e 77 bd 7e d1 30 bd 70 e2 c8 bc 70 3c 42 bd
       -0.060331415 -0.043168537 -0.024522036 -0.04742092
0003f0 13 56 2b 3d 80 1c 13 bc 78 18 0a bc 6f 75 7b bd
       0.041830134 -0.008978963 -0.008428685 -0.06139129

lin3.bias f4 [128]
000000 d4 7f 40 bd 76 87 00 3b f0 4a 3c 3b a7 32 2e bc
       -0.046996906 0.001961199 0.002873119 -0.010632194
000010 5d ee 21 bd 23 76 25 3d 12 0e ce 3c 31 84 d5 bc
       -0.03953396 0.040395867 0.025153194 -0.02606401
000020 15 84 e8 bd a6 7a 74 bd 42 85 90 bc aa 45 5e bd
       -0.11353318 -0.05968728 -0.017641667 -0.054265656
000030 a1 87 3a bd 7b 18 e1 bb 15 22 39 bd b7 8c a5 3b
       -0.045539502 -0.0068693734 -0.04519852 0.005052175
000040 77 74 d9 3d 69 1a 85 3d be 31 95 bb 86 03 4b bd
       0.10617917 0.06499178 -0.004553049 -0.049563907
000050 06 03 2a bd 79 83 9f 3c e8 6d 83 bd 65 92 0f 3c
       -0.04150679 0.01947187 -0.06417447 0.0087629305
000060 15 9e bf 3a a3 d4 17 3e 1f f6 11 bc d4 c8 4e bd
       0.0014619256 0.14827208 -0.0089087775 -0.050484493
000070 56 9e 6c 3c 12 a9 4e 3d 87 7a 06 be 9a 81 49 bc
       0.014442047 0.050454207 -0.13132678 -0.012298966
000080 ec 23 2a 3d 90 96 f7 3b 13 33 0c 3d da 67 5c 3c
       0.041538164 0.0075557902 0.034228396 0.0134524945
000090 b6 81 61 3d 95 dc 81 bd de 6e 62 3c 29 d4 3d 3c
       0.055055343 -0.06340901 0.013820378 0.011586227
0000a0 ce c7 9c 3d d0 8c d2 3c 13 e1 a9 bd 84 ce 7d bd
       0.07655297 0.02570191 -0.082948826 -0.061964527
0000b0 ee e4 3a bd 81 d3 28 3d 7f 49 88 bd 60 4e 48 bd
       -0.04562848 0.04121733 -0.06654643 -0.04890287
0000c0 71 d8 85 bd 3e f7 09 bb 25 0c 87 3d 6e f6 8e 3a
       -0.065354235 -0.002105191 0.06594113 0.0010907182
0000d0 c7 6b 35 bd bd 6e 09 be 36 60 3e bc 8d e8 01 3d
       -0.044292238 -0.1342115 -0.011619618 0.03171592
0000e0 98 d1 eb bd f6 6e a3 3d ca d7 78 3c c5 13 46 3d
       -0.11514586 0.079801485 0.015188167 0.048358697
0000f0 ac 01 c5 bc 7d 3d 00 be 10 7d 3d bd 72 2c d1 bb
       -0.024048649 -0.12523456 -0.046261847 -0.006383472
000100 98 70 4c bd 12 38 7c bd 50 6a 7e bd 79 d9 19 bd
       -0.049912065 -0.06157691 -0.062113106 -0.037560914
000110 b3 ed 69 bd ec 94 34 bd e4 a6 a8 bc 94 17 ca bc
       -0.057111453 -0.044087335 -0.020587392 -0.024669446
000120 d0 d5 14 bd 38 89 68 bd bd 14 20 bd 0a 96 c3 3d
       -0.03633672 -0.056771487 -0.039082278 0.09550102
000130 c8 a7 92 bd ba c6 09 3d 0d a6 a5 3c 9b e5 32 bc
       -0.07160908 0.033636786 0.02022078 -0.010919
000140 3f d1 a7 bb d4 22 49 3d e7 9f d7 bb 2b 05 d8 3c
       -0.0051213796 0.04910548 -0.006580341 0.026369652
000150 27 f1 bd bc b1 c3 ef bb 23 05 06 3c d8 1f 95 bd
       -0.02318628 -0.0073170294 0.008179936 -0.07281464
000160 db d7 6e bc 39 95 e9 3c b6 e8 23 be 0b b7 90 bd
       -0.014577831 0.028513538 -0.16006741 -0.07066163
000170 c6 cd 57 3c 40 e5 67 bd 78 cc c6 3d 8b e5 42 3d
       0.013171619 -0.056615114 0.09706968 0.04758219
000180 18 2a 97 bb 76 b4 4d bc 51 cd 83 bd 52 1c 02 be
       -0.0046131723 -0.012555232 -0.06435645 -0.12706116
000190 54 a7 2d 3c a3 0a 9e ba b1 cc 25 3b 71 c1 98 3d
       0.010598976 -0.0012057613 0.0025299008 0.07458771
0001a0 b3 1d 2e 3d 72 85 4b bd a9 aa 0d bb bc 26 09 be
       0.042508792 -0.04968781 -0.0021616614 -0.13393682
0001b0 73 06 98 bc e7 26 36 3c 95 3f 3a 3d 1a 37 22 3c
       -0.018557763 0.0111176735 0.045470793 0.009900833
0001c0 48 38 8e bd b8 a3 c8 3b d3 50 1b bd ae 84 60 3c
       -0.069443285 0.0061230324 -0.037918877 0.013703508
0001d0 8c 5f 23 bc 31 2b 8e bd 4c f3 a2 3d 70 5e ae 3b
       -0.009971511 -0.06941832 0.079565614 0.0053213164
0001e0 2c 76 1c bd 03 16 81 3a d4 ea 80 3b 01 f3 7f bd
       -0.038198635 0.0009848479 0.0039342437 -0.062487606
0001f0 a7 23 98 bd e5 62 a0 3c c1 c7 0f 3d c6 d6 22 3d
       -0.07428675 0.019578407 0.03510261 0.039755605

lin4.weight f4 [64, 128]
000000 0e e2 ce 3c 93 d0 78 bc 9b d2 41 3b 45 4e da 3d
       0.025254276 -0.015186447 0.0029574994 0.1065946
000010 c4 27 aa bc 3b ab 39 3d a1 b5 6d be e9 9e 04 bf
       -0.020770915 0.045329314 -0.23213817 -0.5180498
000020 df c6 ba 3d b5 d3 e8 bc d9 df 54 bd d9 6c c2 3c
       0.09119963 -0.028421262 -0.05197129 0.023733543
000030 09 3a 33 bb 58 d1 47 bd fd 83 20 bd f6 26 90 3d
       -0.0027347824 -0.04878363 -0.039188374 0.07038681
000040 08 38 d8 3d c4 00 37 3e ae 05 63 3d 51 8f 9d 3d
       0.10557562 0.17871386 0.05542534 0.07693351
000050 9f 82 8b bd 14 d5 85 3e ee ed 4c bc b3 57 90 3e
       -0.06812023 0.26139128 -0.012507899 0.2819191
000060 1f ab d1 3e 16 26 68 be bf a9 ba bb e6 fb c1 bd
       0.40950868 -0.22670779 -0.005696505 -0.09471874
000070 16 c2 14 3d ae 53 6a 3e 45 05 a3 be 9d 87 a7 bd
       0.036317907 0.22883484 -0.31839958 -0.08180163
000080 f9 cb 9e 3e 1a 1c 9b bd dd fa 1f bd f1 b4 f5 3d
       0.31014994 -0.07573719 -0.0390576 0.119974025
000090 1d 5a 19 3e 70 9a 74 bd 4a 4e be bc 1d f4 ae bc
       0.14975782 -0.059717596 -0.02323069 -0.021356637
0000a0 43 cb 91 bd 39 b5 1d 3e 17 95 31 ba 6e 5c ec bd
       -0.07118847 0.15401162 -0.000677423 -0.11541067
0000b0 98 da 0f bd 22 e8 58 3d d2 9a b3 bb fe 96 a8 bc
       -0.035120577 0.052955754 -0.0054811025 -0.020579811
0000c0 f5 95 90 3e c7 2a f3 bc ed b3 a9 3e 49 6a f4 bc
       0.28239408 -0.029683484 0.33145085 -0.029835837
0000d0 46 10 b1 3d 5c 59 db be 79 5d 1b bd f5 c2 97 bc
       0.08645682 -0.42841613 -0.03793094 -0.01852558
0000e0 6c 43 93 3d d3 58 b6 3d 3a 79 b9 3c 09 93 a7 3e
       0.07190594 0.089036606 0.022640813 0.32729366
0000f0 9a 73 69 3d 5a c5 0a bf ac a0 b8 bd e1 b8 56 3d
       0.056995012 -0.54207385 -0.09015021 0.052422408
000100 64 b2 a6 3d e6 8d fe 3b 40 2d 95 bd 50 de 4b 3b
       0.08139494 0.0077683805 -0.072840214 0.003110785
000110 04 d8 6d 3d 99 80 1e bd 95 a2 e3 bc 97 6f 46 bd
       0.058067337 -0.03869686 -0.027787486 -0.048446264
000120 d1 8b 5b 3d 7d 75 9c bc c8 a6 b9 3e da 8c 84 3e
       0.053600136 -0.019098992 0.36260056 0.2588871
000130 3b 59 3d bd aa 58 9e 3a 39 5f 49 be 9a ad 45 3d
       -0.046227675 0.0012080867 -0.19665231 0.048261262
000140 44 a0 14 bd ac d0 a9 3e 70 2d 8b 3d da 2b 2f 3c
       -0.036285654 0.33167017 0.06795776 0.010691607
000150 6a 3d 42 3e e0 77 5e 3d 74 f2 c5 3c a3 78 b4 3c
       0.1896874 0.05431354 0.024163462 0.02203018
000160 ec 28 2f 3d e1 b5 18 3d b1 be 0e bd 65 7c 36 bc
       0.042763636 0.03728283 -0.034849826 -0.011138056
000170 4f de 0c bd 27 a5 28 3e ac c7 05 3e d8 26 e5 bd
       -0.034391697 0.1646925 0.1306445 -0.111890495
000180 15 25 d6 3c 1d bb 98 be b2 73 49 3d 19 1f 1a bf
       0.026140729 -0.29830256 0.0491826 -0.602037
000190 23 8c 6e bd 85 a5 2f 3c 8a c1 9d 3b ba ed 72 3d
       -0.058239114 0.010720615 0.0048143314 0.059308745
0001a0 3d 99 b7 bc b3 9f f2 bc a7 9f 22 3d 03 af cf bd
       -0.022411937 -0.029617166 0.039703038 -0.10140803
0001b0 28 47 1a bd 26 40 ca bd b7 7c 18 3d da 45 dc 3d
       -0.037665516 -0.098755166 0.037228312 0.10755511
0001c0 32 60 82 bd 89 38 02 bc da 13 ba bc d4 0b 25 bd
       -0.06366004 -0.007948049 -0.022714544 -0.040294483
0001d0 c1 9f 44 bd ad 43 81 bd 88 f4 d4 bd a4 44 9a 3d
       -0.048003916 -0.06311736 -0.10398203 0.075326234
0001e0 04 ce b4 3d 76 82 28 3a 6f d7 1e be e6 bf b1 3d
       0.08828357 0.00064281316 -0.15511869 0.0867918
0001f0 4b 3a 96 bd 7b 50 19 3e 39 a6 19 be bb 83 6e 3d
       -0.07335337 0.14972107 -0.15004815 0.058231097
000200 9c 57 51 3d 11 6d 86 bc 81 15 e6 bb 89 3f 0e 3d
       0.05110894 -0.016409429 -0.0070216064 0.03472856
000210 b3 ab 90 bd 3c 28 26 bd 6a 7c 2f 3d 1f 62 31 bd
       -0.07063999 -0.040565714 0.04284326 -0.043306466
000220 dd b4 a5 bc d5 c2 26 3d fd 3c 38 3d 64 35 9d bd
       -0.020227844 0.04071315 0.044980038 -0.07676199
000230 63 21 5b bd b3 cf 6c bc 75 1e 53 bd 50 f3 3f 3d
       -0.053498637 -0.014453816 -0.051542718 0.0468629
000240 a3 92 d0 bb 9d 3d ba bd 81 cd 49 3d 41 f3 b5 bb
       -0.0063651367 -0.09093783 0.04926825 -0.0055526798
000250 b8 cc 48 bc 7c a8 20 bd 58 26 36 3d 16 b1 de bd
       -0.01225584 -0.03922318 0.04447016 -0.1087362
000260 82 9c c5 3c 90 99 90 bb 8d 3a 5e 3d 29 73 7b bd
       0.02412248 -0.0044128373 0.054255057 -0.061389122
000270 13 66 99 3d 90 fc 31 3d f9 e9 81 3c 35 d1 6b 3d
       0.07490172 0.043453753 0.015858637 0.057572562
000280 cb a8 a8 bc 3b 4a 4b 3d ba cd 48 3d d1 65 d6 3c
       -0.0205883 0.04963134 0.04902432 0.026171597
000290 c1 4e 32 bc c8 30 7e bc 04 2a 9f 3d e3 2d 15 3d
       -0.010883034 -0.01551456 0.07771686 0.036420714
0002a0 ad 07 af 3b b7 3f 8b bc 4d e0 2e 3d db 8f 31 bd
       0.005341491 -0.016998155 0.04269438 -0.043350082
0002b0 21 05 1d bd c5 da 8b 3c 25 b9 1f bd 50 c4 b1 3d
       -0.03833497 0.01707209 -0.038994927 0.08680022
0002c0 c3 1d 2e 3d d1 98 bc bd 02 d7 ae bd 47 d9 79 3d
       0.04250885 -0.09208835 -0.08537103 0.060998227
0002d0 72 80 76 bd bb 6c a7 bd f4 64 17 3d 1c e2 2b bd
       -0.06018109 -0.081750356 0.03696151 -0.04196368
0002e0 b0 ac 29 bc a9 d4 09 bd fd 05 5a bd 8a da 33 3d
       -0.010356113 -0.033650074 -0.053228367 0.043909587
0002f0 44 94 e1 bc 72 26 9d bd b6 06 31 bd 16 93 bd bc
       -0.027536519 -0.076733485 -0.04321929 -0.023141425
000300 ff b1 5b 3c 45 32 af bd 9c 3d d2 3a e1 d3 b4 3d
       0.013409137 -0.0855451 0.001604009 0.08829475
000310 11 8a 8b bd 8c e7 06 bd d8 52 04 bc 69 d2 c1 bc
       -0.068134435 -0.032935664 -0.008076392 -0.023659902
000320 53 3f 0c bd 17 b3 99 bd 70 e4 37 3d 03 f1 fb bc
       -0.03424008 -0.07504862 0.04489559 -0.030754572
000330 28 c0 11 3d 5d 23 a3 3d 1d 70 90 3c 6f 05 82 bc
       0.035583645 0.079657294 0.017631585 -0.015871732
000340 29 48 9e 3b 46 b1 08 bd bb 47 4a 3d 8a a3 29 bd
       0.0048303795 -0.033372186 0.049384814 -0.04141573
000350 d6 97 3b 3d 8c e0 82 bc 7c 49 16 b9 59 b7 d3 bc
       0.0457991 -0.015976213 -0.0001433249 -0.025844263
000360 ff 92 a7 bc fc 6d 91 3d 23 2b d0 bd 1a 6b 9b 3c
       -0.020455835 0.07101056 -0.10164478 0.018971968
000370 0f b2 a2 3d 2a d2 3e ba ae ab 0b bc c9 6e 9c 3b
       0.07944118 -0.00072792417 -0.008524818 0.004773949
000380 09 bc c5 bc d6 11 c8 bd 97 e2 81 3d 0a 87 b0 bd
       -0.024137514 -0.09769027 0.06342047 -0.08619507
000390 38 0b 04 bb 2f a3 50 3d 76 e6 a0 bd 9c ea 01 3d
       -0.0020148288 0.050936874 -0.07856457 0.03171788
0003a0 a7 38 b7 3c 93 85 e8 3b 19 15 f3 3c eb c3 51 3d
       0.022365881 0.0070960014 0.029673146 0.051212233
0003b0 0d 86 9c 3d fa 6b c6 bd 18 f4 37 bd 5d 4e af bd
       0.07642756 -0.09688564 -0.04491052 -0.085598685
0003c0 cf 7b b9 bc 52 d8 2e 3d cf 7d 1f 3d 39 bd 00 bc
       -0.022642044 0.042686768 0.03893834 -0.007857614
0003d0 9f 2c 3c 3c c4 8d f6 39 8e 61 52 bc e8 98 93 bd
       0.011485248 0.000470264 -0.012840642 -0.07206899
0003e0 c4 e4 9b bd 9c 8d 97 bd e8 85 cc bc e0 88 91 bd
       -0.07611993 -0.07400057 -0.024966195 -0.07106185
0003f0 f3 83 f7 bc ce a1 07 be 44 94 f6 bd 9e 42 8e bd
       -0.030214285 -0.13245317 -0.12039998 -0.069463

lin4.bias f4 [64]
000000 4b da 29 bd d4 51 56 bd 72 2c 9c 3b 80 aa 83 bd
       -0.041467946 -0.05232413 0.0047660405 -0.06429005
000010 bb 48 59 3d cf 9c 32 3e d0 ce 82 bc e9 bc 74 3d
       0.053047877 0.1744263 -0.015967757 0.05975047
000020 96 df ba 3c e3 ec 25 bb 1f 33 1e 3e 94 51 a7 3c
       0.022811692 -0.0025318197 0.15449189 0.020424642
000030 bf 5d 8e 3d b1 33 95 3c 43 1b ac 3d 4b 2a 1c 3e
       0.069514744 0.018213125 0.08403637 0.15250508
000040 d3 27 e4 bd 57 9b d9 3d f4 1e 55 3c 81 d5 6f bb
       -0.11140408 0.10625332 0.013007868 -0.0036595764
000050 c3 34 b2 bc 89 20 7b bc 4a 1a 86 3d b2 58 77 bd
       -0.021753674 -0.015327581 0.06547983 -0.06038732
000060 41 f4 30 bd b7 5d c2 bb a8 05 b3 3c 6a 24 f2 bc
       -0.04320169 -0.005931582 0.021853283 -0.02955838
000070 08 4c 91 bd f4 2a 65 bc 3e cd 3b bd c1 a2 0c bd
       -0.0709458 -0.013987292 -0.04585003 -0.0343349
000080 fd 16 86 3c e2 7c 16 bd 37 67 2a 3d a2 bf 07 3c
       0.016368384 -0.03674019 0.04160234 0.008285435
000090 30 fc 9c 3d 4d 3b dd 3d 9d f4 0f 3e e0 f4 c7 3d
       0.076652884 0.10802326 0.14058156 0.09763503
0000a0 40 d2 09 bd b3 0c b3 3d f2 e8 11 3d 6a ea 08 bd
       -0.033647776 0.087426566 0.035622545 -0.03342668
0000b0 d4 bb 05 bd c8 39 2e 3d 92 f7 d2 bc 7e 68 a6 bd
       -0.03264983 0.042535573 -0.025752816 -0.08125399
0000c0 7c 1d 05 bd 7b 4e b3 bd 39 78 8e bc 55 2e 62 3b
       -0.03249882 -0.08755203 -0.017391311 0.003451248
0000d0 5c 9d bf bd 6d 73 cf 3d 5d 53 ab bb ee 45 18 3c
       -0.09356186 0.101294376 -0.0052284435 0.009294016
0000e0 31 04 ac 3c 30 4c 5b bd f4 3c a3 bd 77 74 9d bd
       0.020998092 -0.053539455 -0.0797061 -0.076882295
0000f0 fa da ca 3d 45 c5 2c 3c b0 21 14 bd 9b dc ad 3c
       0.09905048 0.01054508 -0.03616494 0.021223357
