src/virtuose_teleoperation/network_controller/trained_policy_MLP/Grasp_proper_dataset_AHFF_epoch_12.pth (torch, 456199 bytes, 10 tensors)

lin1.weight f4 [256, 20]
-0.18071607 0.062223483 0.11600979 -0.55533916 -0.23383822 -0.14861931 0.06521877 -0.34155607
-0.3507015 -0.17243966 0.20484369 -0.063627884 0.21285744 0.21544957 0.27431035 -0.057254877
-0.11651218 -0.04638881 -0.01135394 -0.009795389 0.20427102 0.026362035 -0.194907 0.025884494
0.19642957 0.12502967 0.015824262 -0.055592224 0.15701695 -0.0859812 -0.14534459 -0.21998124
0.044049043 -0.14799486 -0.06367941 0.14265327 -0.07452387 0.035851553 -0.041770473 0.20717983
-0.033075582 0.012723399 0.13645384 -0.13722993 -0.1711432 -0.043197606 -0.2408533 0.09506212
-0.053338844 0.030558987 -0.028036218 -0.03136147 -0.08597797 -0.13876726 -0.12072306 -0.049619846
-0.16963172 0.1361936 0.02557034 -0.22206968 0.19673182 -0.073420994 -0.029443938 0.14761756
-0.20100997 -0.094851084 -0.1997392 -0.12619732 -0.118517034 0.08662614 -0.19514343 -0.18641792
-0.049780663 0.11552497 -0.06891968 -0.009783277 -0.036841106 0.08781699 0.0724122 0.121381395
-0.095308684 -0.11853294 -0.061284777 -0.016763864 -0.08728248 -0.10595926 0.14607438 -0.12078089
-0.13473298 0.14587723 -0.06323797 -0.08760087 -0.15563084 0.062923476 0.11787077 -0.0009884647
0.13643284 0.07236525 0.16395581 -0.17459992 0.10350367 -0.021088405 -0.07072365 0.14732432
-0.2814379 0.074549556 -0.12119887 -0.22187607 -0.07560105 0.045971636 0.08037495 -0.01411265
-0.09687546 0.045131896 0.13685752 0.22046731 0.018399382 0.08403213 -0.052395374 -0.08619645
0.07398004 -0.17202003 -0.078417465 0.45161507 -0.13926229 0.036321554 -0.21220872 0.25431222
0.19493231 0.052059785 0.25948524 0.25520262 0.06625985 0.40866205 0.28499278 0.30305055
-0.1394068 0.10392051 0.0651397 -0.17394537 -0.01740857 0.17081396 0.20333737 -0.18785566
-0.1258674 -0.15134048 -0.033820666 0.07652304 -0.036734678 -0.0866341 -0.1040432 0.06166759
-0.091755636 0.029082995 0.15187754 -0.06652202 0.015453625 0.09002885 -0.20311904 0.15777823
0.05427528 0.045580488 0.20053765 0.42433324 0.32304832 -0.07601336 0.17954646 0.18425481
0.2564439 0.02270699 -0.1971246 -0.025775079 0.096687615 -0.35750377 -0.2108084 -0.34966427
-0.20826472 -0.03576815 -0.09071612 -0.2057554 -0.023173459 -0.0726373 0.165573 -0.113836564
-0.11632766 0.19473723 -0.06830231 0.021963049 0.13305454 0.10495826 0.023090255 -0.052012257
-0.14182094 0.06105525 0.22058378 -0.18766412 0.17571212 -0.041776434 0.1697846 0.0024221307
-0.15483092 -0.033615492 0.07524843 0.07983095 -0.14304385 -0.034421805 -0.053150382 -0.09105255
0.17381671 -0.20108987 0.042251885 -0.0021750003 -0.004344163 0.022391887 0.09414097 0.061189566
-0.060447503 0.20863861 -0.019912714 0.009828171 0.53340524 0.20568354 0.20233282 0.049503658
0.2801631 -0.07349633 -0.08324984 -0.19351777 0.107099 0.043704312 -0.16586076 -0.11033125
0.0008973386 0.46907356 0.06582995 0.22473916 0.015642859 0.1186175 -0.008471563 -0.030444898
-0.19754513 -0.07828345 0.22946459 0.08278962 -0.08999473 -0.005143259 -0.090838104 0.0033077344
0.14319748 -0.10667126 -0.2085588 0.12981772 -0.15919425 -0.07404912 0.06656609 -0.12977512
00000000: a20d 39be 0dde 7e3d 8a96 ed3d b52a 0ebf
00000010: 4973 6fbe a92f 18be 6b91 853d 70e0 aebe
00000020: 268f b3be 0694 30be 8bc2 513e 564f 82bd
00000030: 4df7 593e d09e 5c3e 6872 8c3e 1784 6abd
00000040: f09d eebd 3102 3ebd e005 3abc d77c 20bc
00000050: 6c2c 513e 32f5 d73c b395 47be b80b d43c
00000060: d524 493e c707 003e e2a1 813c acb4 63bd
00000070: 0dc9 203e e916 b0bd 36d5 14be c342 61be
00000080: c56c 343d f78b 17be 5a6a 82bd b313 123e
00000090: f99f 98bd 14d9 123d 8417 2bbd f326 543e
000000a0: 437a 07bd ce75 503c 8eba 0b3e 0186 0cbe
000000b0: 2a40 2fbe f9ef 30bd 3fa2 76be eeaf c23d
000000c0: d579 5abd d756 fa3c 36ac e5bc e374 00bd
000000d0: 3815 b0bd 0119 0ebe a73d f7bd 2e3e 4bbd
000000e0: f0b3 2dbe 5676 0b3e e478 d13c 3c66 63be
000000f0: 1174 493e bf5d 96bd 6a34 f1bc 0f29 173e
00000100: 8fd5 4dbe 4941 c2bd 6f88 4cbe df39 01be
00000110: 0fb9 f2bd 0c69 b13d aed3 47be 57e4 3ebe
00000120: cfe6 4bbd 5b98 ec3d c325 8dbd 0a4a 20bc
00000130: b3e6 16bd 65d9 b33d d94c 943d cf96 f83d
00000140: 3331 c3bd 66c1 f2bd bf05 7bbd 5f54 89bc
00000150: 28c1 b2bd 2b01 d9bd 8694 153e f95b f7bd
00000160: 71f7 09be d760 153e e982 81bd 1668 b3bd
00000170: b15d 1fbe 06de 803d 3b66 f13d 5f8f 81ba
00000180: 0db5 0b3e 3b34 943d 08e4 273e 52ca 32be
00000190: bbf9 d33d 97c1 acbc 90d7 90bd 30dc 163e
000001a0: a118 90be 70ad 983d 1d37 f8bd 7b33 63be
000001b0: b9d4 9abd c14c 3c3d 9f9b a43d bf38 67bc
000001c0: a466 c6bd 39dc 383d 6124 0c3e 2fc2 613e
000001d0: 4dba 963c 0a19 ac3d 889c 56bd c487 b0bd
000001e0: d982 973d 0526 30be 5699 a0bd 173a e73e
000001f0: c69a 0ebe e9c5 143d 3e4d 59be 3635 823e
00000200: 569c 473e a43c 553d 40db 843e eba9 823e
00000210: 3fb3 873d 273c d13e 93ea 913e 7129 9b3e
00000220: a8c0 0ebe 47d4 d43d f767 853d bc1e 32be
00000230: 6b9c 8ebc dbe9 2e3e ac37 503e 3c5d 40be
00000240: 62e3 00be 00f9 1abe 8a87 0abd 1db8 9c3d
00000250: 1a77 16bd 386d b1bd 9a14 d5bd 2897 7c3d
00000260: 61ea bbbd 763f ee3c c985 1b3e b23c 88bd
00000270: 3331 7d3c 0c61 b83d 70fe 4fbe 9e90 213e
00000280: c24f 5e3d 9bb2 3a3d be59 4d3e 3542 d93e
00000290: 9766 a53e e4ac 9bbd 07db 373e 4bad 3c3e
000002a0: 9d4c 833e 0204 ba3c 08db 49be 4226 d3bc
000002b0: 2804 c63d bc0a b7be 28de 57be 3207 b3be
000002c0: 5943 55be a081 12bd 60c9 b9bd 8bb1 52be
000002d0: 44d6 bdbc ddc2 94bd f88b 293e 2523 e9bd
000002e0: 323d eebd 3269 473e 15e2 8bbd daeb b33c
000002f0: 733f 083e 5bf4 d63d c627 bd3c ce0a 55bd
00000300: 8239 11be 1215 7a3d b7e0 613e 062b 40be
00000310: e1ed 333e c41d 2bbd 04dc 2d3e 9cbc 1e3b
00000320: ff8b 1ebe 66b0 09bd d91b 9a3d 697e a33d
00000330: 167a 12be e1fd 0cbd 37b4 59bd c279 babd
00000340: 02fd 313e 81ea 4dbe 5010 2d3d 738a 0ebb
00000350: 7b59 8ebb 316f b73c fbcc c03d e9a1 7a3d
00000360: cd97 77bd 5ca5 553e fd1f a3bc 5606 213c
00000370: 3f8d 083f b59e 523e 5630 4f3e 59c4 4a3d
00000380: 8a71 8f3e 3e85 96bd e47e aabd 8629 46be
00000390: b856 db3d 4b03 333d 67d7 29be 5af5 e1bd
000003a0: 603b 6b3a 692a f03e dad1 863d 0622 663e
000003b0: 7425 803c bbed f23d 50cc 0abc 9467 f9bc
000003c0: 4549 4abe 1353 a0bd c4f8 6a3e 9b8d a93d
000003d0: 284f b8bd c988 a8bb 5409 babd 93c6 583b
000003e0: 5ca2 123e 7676 dabd 7090 55be f0ee 043e
000003f0: d103 23be 11a7 97bd cd53 883d c5e3 04be

lin1.bias f4 [256]
-0.11985372 -0.04381764 -0.09113603 0.038394637 -0.22483717 0.11889842 -0.106885076 -0.03967664
0.0007002697 0.022462465 0.08926745 -0.17593662 0.15615313 -0.16708599 0.21621561 0.15852904
-0.069880225 -0.110362776 0.37118167 -0.22156103 -0.19010799 -0.09733421 0.0456001 -0.12180712
-0.11842457 0.19699337 0.11792376 0.092897385 -0.12570228 0.08029461 0.11220227 -0.043503027
0.18539909 -0.14420019 -0.21026653 -0.11394086 0.09529118 -0.06966511 0.22194745 -0.10248933
0.038169738 -0.042104058 0.08994482 0.0077869794 0.13882163 -0.1543661 -0.16722703 0.05494891
0.05123243 -0.14561047 -0.03021649 -0.19505845 0.20914891 -0.041198753 -0.2463013 -0.1782532
0.09533751 -0.15864287 -0.2150157 0.23299827 0.11555318 -0.21384643 -0.027850557 0.1151894
0.16176824 -0.08758293 0.16455169 -0.012077972 -0.09526111 0.066680185 -0.13577887 -0.008328253
-0.07236954 -0.21879931 -0.10239539 -0.10083224 0.12289411 -0.14587642 0.06401291 0.124597244
0.22901969 0.14222138 0.14524241 0.16788286 0.1586479 0.048569005 0.1235799 0.2256924
0.088216804 0.03340009 0.073739655 0.16067678 0.02199573 0.05254478 -0.07230055 0.14251156
-0.23941076 -0.12515295 -0.074830264 -0.06958607 0.041843336 0.01083986 0.21351914 0.17713949
0.09273308 -0.20038563 -0.060448755 -0.06870118 -0.16539569 0.274752 -0.21879327 -0.22975872
-0.21601021 0.10237196 -0.19401108 -0.060631447 -0.023434022 0.04421326 0.022713207 -0.06531245
0.03769407 -0.16539271 0.052801922 0.049351525 0.103897475 0.05423016 -0.014827031 0.019435039
-0.12206875 -0.041374836 -0.15347333 -0.19300975 0.08187234 0.17573854 0.066026464 -0.19811323
-0.17345315 -0.00897963 0.1436067 -0.09476556 -0.14026462 -0.20034084 -0.20497134 0.032443397
0.17719772 0.097566426 0.006187456 -0.2032295 0.22203799 0.101562105 0.03571184 0.09638778
0.10597447 -0.058112886 0.0759647 -0.14811026 -0.12931266 -0.23302096 -0.1650301 -0.14182079
0.066702075 0.16020134 -0.15630005 0.20381981 0.05375012 -0.12102649 0.0838727 -0.01858627
0.1336209 -0.14708138 -0.14005794 0.044848528 -0.2338006 -0.21927798 0.12278281 0.017808156
0.1955694 0.09343133 0.04879771 0.1978401 0.015971227 0.17257158 0.19661541 0.0017972443
-0.13444981 -0.15302488 0.02678771 0.20431939 -0.20371309 0.19078681 -0.118528925 -0.009077898
-0.17463924 -0.16151126 0.04090588 0.1789688 -0.13698621 0.101677775 -0.22731368 0.110808626
-0.017118348 0.15695295 -0.09082647 0.19305556 -0.14709932 -0.059822943 0.11142088 -0.21756236
0.049452584 0.17432325 -0.11692044 -0.14785147 -0.11052923 -0.074775845 -0.17854336 0.0010898261
0.12043065 0.17298238 -0.12266253 0.03568414 -0.05946607 0.18133292 0.000890092 0.20126086
-0.10727972 0.12814714 -0.09973406 0.19040617 0.2429241 -0.025438664 0.12918088 -0.19487104
0.16905352 0.16176951 0.069418 0.050017007 0.05116346 -0.07500495 -0.15599185 -0.20574367
-0.0022440683 0.12884997 0.058661383 -0.12265392 -0.14353606 -0.06377699 0.046041828 0.067722075
-0.0009960423 -0.14110418 -0.118311964 -0.0321298 -0.044741012 -0.21429285 0.0049713524 -0.08608867
00000000: de75 f5bd 207a 33bd 87a5 babd b243 1d3d
00000010: b73b 66be 0481 f33d 90e6 dabd f983 22bd
00000020: 4e92 373a 3403 b83c dad1 b63d bb28 34be
00000030: 9be6 1f3e 9718 2bbe a067 5d3e 7055 223e
00000040: 5d1d 8fbd e105 e2bd 860b be3e e5e0 62be
00000050: abab 42be 2957 c7bd 2cc7 3a3d 0376 f9bd
00000060: 9588 f2bd a1b8 493e 0382 f13d fc40 be3d
00000070: 19b8 00be 8071 a43d 4eca e53d 3b30 32bd
00000080: 42d9 3d3e 37a9 13be 1c50 57be d359 e9bd
00000090: 0628 c33d 95ac 8ebd 3146 633e ede5 d1bd
000000a0: df57 1c3d 4e75 2cbd fd34 b83d eb29 ff3b
000000b0: 4227 0e3e 2612 1ebe 903d 2bbe 1c12 613d
000000c0: 19d9 513d e91a 15be 9388 f7bc 67bd 47be
000000d0: 222b 563e 06c0 28bd 6836 7cbe 0288 36be
000000e0: 5040 c33d 4773 22be 132d 5cbe 1997 6e3e
000000f0: 25a7 ec3d 8ffa 5abe da26 e4bc 6ce8 eb3d
00000100: 93a6 253e ae5e b3bd 3d80 283e b0e2 45bc
00000110: 4218 c3bd 9f8f 883d 9e09 0bbe 3a73 08bc
00000120: 7b36 94bd ed0c 60be adb4 d1bd 2281 cebd
00000130: e8af fb3d a160 15be 3319 833d d72c ff3d
00000140: 2384 6a3e 7ba2 113e 6dba 143e 7ce9 2b3e
00000150: 9874 223e 4bf0 463d 7517 fd3d e91b 673e
00000160: 03ab b43d 88ce 083d d104 973d 7488 243e
00000170: 6430 b43c 3239 573d 5012 94bd 8dee 113e
00000180: 1828 75be 1828 00be 9c40 99bd 2483 8ebd
00000190: eb63 2b3d ab99 313c c3a4 5a3e 0e64 353e
000001a0: d7ea bd3d e431 4dbe 1d99 77bd 34b3 8cbd
000001b0: 7d5d 29be 4bac 8c3e 580b 60be df45 6bbe
000001c0: c831 5dbe 64a8 d13d d7aa 46be ae58 78bd
000001d0: b5f8 bfbc f718 353d 0c11 ba3c 89c2 85bd
000001e0: 1965 1a3d b55c 29be d446 583d d324 4a3d
000001f0: 33c8 d43d 7220 5e3d 13ed 72bc 3b36 9f3c
00000200: 2eff f9bd a978 29bd 1d28 1dbe 59a4 45be
00000210: afac a73d cef4 333e e238 873d 32de 4abe
00000220: b49d 31be 4c1f 13bc a20d 133e 7214 c2bd
00000230: 87a1 0fbe 2626 4dbe 02e4 51be 5ee3 043d
00000240: 5273 353e e8d0 c73d 25c0 ca3b 651b 50be
00000250: ed5d 633e cbff cf3d 9446 123d f566 c53d
00000260: 2509 d93d c707 6ebd 6193 9b3d 37aa 17be
00000270: 8a6a 04be 0c9d 6ebe a7fd 28be 7839 11be
00000280: 199b 883d d20b 243e 1f0d 20be 24b6 503e
00000290: 1629 5c3d bddc f7bd 73c5 ab3d 3c42 98bc
000002a0: ebd3 083e 809c 16be 596b 0fbe 17b3 373d
000002b0: 6d69 6fbe 688a 60be 8e75 fb3d 69e2 913c
000002c0: 5843 483e ed58 bf3d 1ce0 473d 9896 4a3e
000002d0: 17d6 823c 9bb6 303e 8d55 493e 8391 eb3a
000002e0: 36ad 09be 8eb2 1cbe e671 db3c 1a39 513e
000002f0: 2a9a 50be 9e5d 433e 4bbf f2bd 77bb 14bc
00000300: a1d4 32be 3563 25be ed8c 273d 9943 373e
00000310: 1d46 0cbe 703c d03d ebc4 68be a2ef e23d
00000320: c73b 8cbc 46b8 203e 3a03 babd 5bb0 453e
00000330: 34a1 16be e708 75bd a130 e43d abc8 5ebe
00000340: cb8e 4a3d cb81 323e fc73 efbd 6066 17be
00000350: 265d e2bd 1424 99bd 12d4 36be 7fd8 8e3a
00000360: 58a4 f63d 4b22 313e 7e36 fbbd 8829 123d
00000370: b292 73bd 56af 393e 1055 693a 5417 4e3e
00000380: 78b5 dbbd 0139 033e 5f41 ccbd d6f9 423e
00000390: 18c1 783e bf64 d0bc fe47 043e 468c 47be
000003a0: 5e1c 2d3e e8a6 253e 062b 8e3d a2de 4c3d
000003b0: c790 513d 329c 99bd 54bc 1fbe 78ae 52be
000003c0: 3811 13bb 3ff1 033e eb46 703d fa31 fbbd
000003d0: 1efb 12be 839d 82bd 5b96 3c3d dfb1 8a3d
000003e0: a28d 82ba 9d7d 10be 8b4d f2bd 8a9a 03bd
000003f0: 5a42 37bd 966f 5bbe bae6 a23b 424f b0bd

lin2.weight f4 [256, 256]
-0.055323586 0.040364645 -0.040364332 -0.02210892 -0.01831092 0.04322985 0.034883693 0.05449404
0.060956217 0.05301249 -0.034325935 0.03365972 0.041105494 0.056292936 -0.014991716 0.05002258
-0.017669015 0.052559607 0.034831062 0.019330285 0.008353196 0.042651564 0.016307034 -0.018970855
-0.026090771 -0.03660752 -0.028636336 0.04839012 -0.020552978 -0.030695535 0.046383753 -0.060491838
0.037327692 -0.061776035 -0.032183222 -0.003582485 -0.027763046 -0.0043528005 -0.0139351785 -0.02082447
0.0427114 -0.02798234 -0.02523236 -0.016614005 0.046310097 -0.039800838 -0.04187181 0.03710217
-0.03969419 -0.035108536 0.010137923 -0.028413758 -0.030902542 0.0056690574 -0.012491114 0.0130169615
0.02273243 -0.003451839 0.005230248 -0.055196695 -0.02710829 -0.006098181 -0.06222888 -0.02467177
0.034964032 -0.057994813 -0.056132175 -0.046378784 -0.022588767 0.018792875 0.04398539 0.019492202
0.04575292 -0.020724341 -0.03416317 0.008140132 -0.044901192 -0.045677036 0.0069727674 -0.060163304
-0.054961443 0.0389295 0.038415104 -0.0053557158 0.018686049 -0.049898505 -0.031142473 0.06193588
-0.002446279 -0.051242284 0.04331319 -0.047741145 -0.042530693 -0.03761466 0.05740404 -0.017974347
-0.04521686 0.015185393 0.02643679 -0.0023859143 0.06171885 -0.002440296 -0.024025418 0.055841498
-0.013431013 0.031023413 -0.04176762 -0.0331638 -0.04779893 -0.018962257 -0.0371641 0.027387157
-0.041135423 -0.010349952 0.04933749 0.0074391887 -0.022349738 0.0026738644 -0.031267405 0.029555373
0.04523488 0.012143351 0.050272137 -0.03523901 -0.016430654 -0.039946057 0.009096727 0.0010818914
-0.047781564 0.05716466 0.029639035 0.011922896 0.044548012 -0.0040538833 -0.0028873682 0.05797448
-0.028484248 -0.046773285 -0.0013746843 0.014811046 -0.039211266 -0.022061944 0.022534415 -0.03300085
-0.05303072 -0.013384886 -0.058435597 -0.030109502 -0.02158659 -0.050809965 0.019803248 0.02545672
0.029285997 0.040380597 -0.03209378 -0.02761732 -0.061110146 0.04938443 -0.010433219 -0.049831815
-0.024373636 0.041221313 -0.014268436 0.046750605 0.047888942 -0.01963532 -0.031831942 0.059239432
-0.04458759 -0.0024599805 0.046255633 -0.056658924 0.061644092 -0.054630063 -0.050338097 0.046067074
0.055682845 -0.0230802 -0.058469012 0.045754552 -0.05077984 -0.055784672 -0.051616013 -0.013228498
0.049058132 -0.04420101 0.027398549 -0.048689477 -0.03603004 -0.058024965 -0.012745529 -0.03264475
0.016333327 -0.054603018 0.0012551025 0.003055267 0.016485043 -0.05984217 -0.0057219937 -0.0054027513
0.0497002 0.021331899 -0.0068737864 -0.05113028 -0.04915539 -0.009955265 -0.05846764 0.05044975
-0.025950514 -0.028973863 -0.040798463 0.058528073 -0.057849593 0.0096408725 -0.040187784 -0.045114435
-0.021338515 -0.06097161 0.059670545 0.06084965 -0.009041548 -0.005192995 0.004240155 -0.01866296
-0.013817921 -0.02699636 -0.026840106 0.014793843 0.04782649 0.029458955 0.03110186 -0.0155508295
0.026024982 -0.0025741458 -0.034684464 0.053122655 -0.005026117 -0.044844784 0.039012082 0.016979955
-0.005862236 0.05507686 0.008297645 -0.021020025 0.020518549 0.049995884 -0.028947696 -0.04206004
0.010480553 -0.05639644 0.028916016 0.05690276 -0.06193369 -0.025949694 0.0343974 0.0074557066
00000000: fc9a 62bd 6655 253d 1255 25bd c41d b5bc
00000010: c800 96bc c811 313d 34e2 0e3d 2435 5f3d
00000020: 3aad 793d a023 593d 5a99 0cbd c6de 093d
00000030: 3c5e 283d 6c93 663d d09f 75bc 7ae4 4c3d
00000040: 9cbe 90bc be48 573d 04ab 0e3d 8c5a 9e3c
00000050: d8db 083c 68b3 2e3d 5496 853c c468 9bbc
00000060: 50bc d5bc c4f1 15bd c096 eabc b834 463d
00000070: b85e a8bc 3475 fbbc e4fc 3d3d 4ac6 77bd
00000080: ece4 183d de08 7dbd 8ed2 03bd 20c8 6abb
00000090: 546f e3bc f0a1 8ebb 6050 64bc 1498 aabc
000000a0: 26f2 2e3d 383b e5bc 18b4 cebc 181a 88bc
000000b0: a8af 3d3d 3406 23bd c681 2bbd 72f8 173d
000000c0: 6096 22bd f8cd 0fbd 8819 263c f8c3 e8bc
000000d0: 5427 fdbc 80c3 b93b 88a7 4cbc 1845 553c
000000e0: 5c39 ba3c 4038 62bb 8062 ab3b ee15 62bd
000000f0: 3412 debc 40d3 c7bb b6e3 7ebd 741c cabc
00000100: 7236 0f3d f88b 6dbd daea 65bd aef7 3dbd
00000110: 140c b9bc 84f3 993c 062a 343d 1cae 9f3c
00000120: 6a67 3b3d 18c6 a9bc aeee 0bbd 305e 053c
00000130: 50ea 37bd d817 3bbd d07b e43b cc6d 76bd
00000140: 401f 61bd 8a74 1f3d 2859 1d3d 007f afbb
00000150: 7c13 993c 6062 4cbd 801e ffbc 7ab0 7d3d
00000160: c051 20bb 6ee3 51bd 2c69 313d 388c 43bd
00000170: aa34 2ebd d411 1abd 8020 6b3d f03e 93bc
00000180: 5035 39bd 28cc 783c f891 d83c 005d 1cbb
00000190: e8cc 7c3d 60ed 1fbb f4d0 c4bc 0eba 643d
000001a0: c00d 5cbc d024 fe3c 8614 2bbd c4d6 07bd
000001b0: d0c8 43bd bc56 9bbc 6239 18bd 085b e03c
000001c0: 9e7d 28bd d892 29bc 1c16 4a3d 70c4 f33b
000001d0: cc16 b7bc 003c 2f3b 4012 00bd 1c1e f23c
000001e0: 3648 393d e8f4 463c 28ea 4d3d c856 10bd
000001f0: 9499 86bc 7a9e 23bd 700a 153c 40ce 8d3a
00000200: 9ab6 43bd 7e25 6a3d 90cd f23c 4058 433c
00000210: fa77 363d 70d6 84bb 003a 3dbb a676 6d3d
00000220: cc57 e9bc 5895 3fbd c02e b4ba 08aa 723c
00000230: fe9b 20bd 40bb b4bc 189a b83c e62b 07bd
00000240: be36 59bd 484c 5bbc 2a5a 6fbd 34a8 f6bc
00000250: 5cd6 b0bc 1c1e 50bd 6c3a a23c 9c8a d03c
00000260: 30e9 ef3c 2066 253d c474 03bd b83d e2bc
00000270: a24e 7abd 5447 4a3d 18f0 2abc 721c 4cbd
00000280: 38ab c7bc aed7 283d 28c6 69bc 907d 3f3d
00000290: 3227 443d 40da a0bc 3662 02bd 0ca5 723d
000002a0: 7aa1 36bd a037 21bb 8c76 3d3d 3013 68bd
000002b0: 847e 7c3d c6c3 5fbd 522f 4ebd d4b0 3c3d
000002c0: b213 643d b012 bdbc 347d 6fbd 2069 3b3d
000002d0: 86fe 4fbd 787e 64bd 506b 53bd 58bc 58bc
000002e0: 2ef1 483d 1e0c 35bd ec72 e03c 9e6e 47bd
000002f0: 3c94 13bd 96ab 6dbd a0d2 50bc 80b6 05bd
00000300: 78cd 853c 6aa7 5fbd 4082 a43a e03a 483b
00000310: a40b 873c 101d 75bd 907f bbbb 9009 b1bb
00000320: 7092 4b3d 3cc0 ae3c 803d e1bb fc6d 51bd
00000330: 2a57 49bd 681b 23bc c47b 6fbd 66a4 4e3d
00000340: 2c96 d4bc 985a edbc 4a1c 27bd 22bb 6f3d
00000350: b2f3 6cbd c0f4 1d3c f29b 24bd eac9 38bd
00000360: 1cce aebc 5ebd 79bd 1a69 743d 7c3d 793d
00000370: 0023 14bc 002a aabb 00f1 8a3b 10e3 98bc
00000380: 9064 62bc 7827 ddbc c8df dbbc e061 723c
00000390: b6e5 433d e853 f13c 54c9 fe3c e8c8 7ebc
000003a0: 5832 d53c 00b3 28bb 4c11 0ebd 2497 593d
000003b0: 20b2 a4bb 2aaf 37bd 22cb 1f3d 8c19 8b3c
000003c0: 0018 c0bb 4698 613d d8f2 073c 3032 acbc
000003d0: 8416 a83c 7cc8 4c3d b823 edbc 2647 2cbd
000003e0: a0b6 2b3c f4ff 66bd 48e1 ec3c de12 693d
000003f0: 2eae 7dbd 7494 d4bc 4ae4 0c3d 004f f43b

lin2.bias f4 [256]
0.018346287 -0.033240553 -0.040786084 0.012126918 0.013688058 -0.035581417 0.057237994 -0.022721302
-0.026213028 -0.04106199 0.02847167 -0.022530818 -0.07663149 -0.058754742 -0.02737097 -0.015378669
0.024934735 0.04803216 0.04795269 -0.05605286 0.0038612166 0.049783587 0.0071672695 -0.060802832
0.00444338 0.02529436 0.029571174 -0.05958775 0.033588096 -0.06124398 -0.011163883 0.03424218
0.021307336 0.01272041 0.040464297 -0.01582467 0.056814514 0.04868243 -0.012216294 0.0203681
0.051056873 0.04879783 0.04664372 0.014694363 -0.05848463 -0.030417295 0.028275989 -0.02228853
-0.008859833 0.06025226 -0.008311734 0.016801473 -0.010945094 -0.05663093 -0.03933087 -0.019364404
-0.03790361 -0.034845654 0.003782145 0.037617873 -0.042918023 -0.0011335952 0.055597246 -0.041920204
0.056269575 0.05748855 -0.016917864 -0.028775252 0.010754801 0.03503378 -0.0047055087 0.002858149
0.04032725 -0.00011935867 -0.034642108 -0.025907964 -0.032728836 -0.055916417 0.031179551 0.038771242
0.055203367 0.021733597 -0.058730245 -0.06291301 0.085479215 -0.04356204 0.03578798 0.038137574
-0.04313545 0.103003375 0.020531222 0.000342633 -0.0020498496 0.007113334 0.039663207 -5.4902706e-05
-0.047628373 0.012495361 0.035692003 0.0098145 -0.03665416 0.020924877 0.035532594 0.046706993
0.025885437 -0.02973204 -0.013770615 0.046932388 0.009099926 -0.002103111 0.026165305 -0.047148608
-0.03827269 0.0076206946 0.026943507 -0.029093133 -0.0052852277 0.033606388 -0.0076917913 -0.0065157134
-0.074340925 -0.032668363 -0.013617078 0.05379369 -0.018265095 0.007833365 0.050378818 -0.06537332
0.030419543 0.040199272 -0.029353349 -0.012554434 -0.063435026 -0.016312236 -0.018700868 0.04945015
-0.05910238 -0.010620767 -0.05360783 0.002961337 -0.04400348 0.05020334 -0.039484944 0.050545603
-0.05852894 0.014821751 -0.06840326 -0.04053391 -0.008182785 0.0178662 -0.010975033 0.046527036
0.03648449 -0.034649596 0.06289254 0.015691591 -0.004323345 0.07509483 -0.004469457 -0.012989256
0.050959844 -0.020946976 0.037447438 0.034108106 0.022841716 0.053374603 0.04704209 -0.0056159883
-0.03308596 0.12521331 -0.0020719555 0.05470938 -0.047751628 0.04677423 -0.051284928 -0.06355017
-0.04063275 0.023367146 0.014431288 0.04596616 -0.03957666 0.056580257 0.036766883 0.026293082
-0.035873856 -0.00013064763 -0.012965644 0.027935252 0.018970668 -0.033158842 0.034839187 0.02557572
-0.008895126 -0.049086608 0.044147406 0.011256537 0.018012123 -0.037610833 -0.040176302 0.0628557
0.01943128 -0.0575885 -0.01498978 -0.049025767 0.029018054 0.04114468 0.028480925 -0.041825943
-0.010844989 -0.03953111 0.0013227832 -0.036735892 0.050839867 -0.049567133 0.017297802 0.019744828
-0.00905313 -0.039121598 0.03882301 -0.016334308 -0.0003455483 -0.0018949404 -0.053006645 -0.012862326
0.026775222 -0.01534482 0.03061865 0.013455826 0.004460004 -0.051619653 0.042247098 -0.008454509
0.032479975 0.04902581 -0.06261901 0.009044804 -0.046931934 0.008828328 -0.029922087 0.007958524
0.04891297 0.010146005 0.004354047 0.021290619 0.041193374 -0.0085388 -0.04372841 0.046139125
0.00019757346 -0.010453116 0.02153645 0.03679175 -0.05692073 0.0071139466 0.0053153425 0.01586543
00000000: f44a 963c 3f27 08bd 4f0f 27bd fbaf 463c
00000010: e043 603c d2bd 11bd 6372 6a3d 0622 babc
00000020: b4bc d6bc 9e30 28bd 6b3d e93c 8d92 b8bc
00000030: f8f0 9cbd d0a8 70bd 1639 e0bc d0f6 7bbc
00000040: ee43 cc3c 5fbd 443d 0a6a 443d af97 65bd
00000050: 770c 7d3b e0e9 4b3d 6adb ea3b 640c 79bd
00000060: c699 913b 1e36 cf3c 3f3f f23c 4912 74bd
00000070: ac93 093d f8da 7abd b8e8 36bc 8741 0c3d
00000080: b98c ae3c 4469 503c e4bd 253d bda2 81bc
00000090: 56b6 683d 3a67 473d da26 48bc 00db a63c
000000a0: 0321 513d 3ce0 473d 7c0d 3f3d a0c0 703c
000000b0: 948d 6fbd b12d f9bc 0ca3 e73c 6f96 b6bc
000000c0: d528 11bc 13cb 763d f02d 08bc 3ea3 893c
000000d0: 0d53 33bc d6f5 67bd 6819 21bd 19a2 9ebc
000000e0: d140 1bbd 51ba 0ebd dddd 773b 3315 1a3d
000000f0: cfca 2fbd 2595 94ba f0b9 633d 85b4 2bbd
00000100: ed7a 663d 1d79 6b3d 5597 8abc 14ba ebbc
00000110: e834 303c 957f 0f3d ab30 9abb c84f 3b3b
00000120: 302e 253d 3350 fab8 e2e4 0dbd f03c d4bc
00000130: ac0e 06bd 9d08 65bd 426c ff3c 98ce 1e3d
00000140: ed1c 623d a80a b23c 208f 70bd 89d8 80bd
00000150: ba0f af3d 1c6e 32bd 6b96 123d 2536 1c3d
00000160: ccae 30bd 6ff3 d23d 1831 a83c 6ca3 b339
00000170: c556 06bb f816 e93b e375 223d 5547 66b8
00000180: f815 43bd 58b9 4c3c c731 123d ffcc 203c
00000190: ac22 16bd a66a ab3c a08a 113d d54f 3f3d
000001a0: b20d d43c 9b90 f3bc 259e 61bc 2d3c 403d
000001b0: db17 153c 59d4 09bb 9f58 d63c e61e 41bd
000001c0: d3c3 1cbd 05b7 f93b a1b8 dc3c b954 eebc
000001d0: b42f adbb daa6 093d 6c0b fcbb c481 d5bb
000001e0: 0e40 98bd 43cf 05bd 2a1a 5fbc c656 5c3d
000001f0: aea0 95bc 8457 003c 055a 4e3d 72e2 85bd
00000200: 6832 f93c fea7 243d 6f76 f0bc 1db1 4dbc
00000210: 39ea 81bd 3da1 85bc 9032 99bc 3e8c 4a3d
00000220: 5615 72bd ba02 2ebc e293 5bbd fe12 423b
00000230: fe3c 34bd 04a2 4d3d f7ba 21bd e808 4f3d
00000240: 0bbc 6fbd eed6 723c 0217 8cbd e306 26bd
00000250: 1611 06bc 235c 923c a0d0 33bc 2293 3e3d
00000260: c370 153d bcec 0dbd cecd 803d a78b 803c
00000270: d9aa 8dbb 51cb 993d 8674 92bb e3d0 54bc
00000280: 45bb 503d fe98 abbc 7c62 193d f1b4 0b3d
00000290: 8d1e bb3c 549f 5a3d 35af 403d 5306 b8bb
000002a0: 2585 07bd eb37 003e a5c9 07bb f116 603d
000002b0: 3697 43bd 5696 3f3d 2510 52bd 9726 82bd
000002c0: 876e 26bd 756c bf3c 3571 6c3c 0347 3c3d
000002d0: 231b 22bd b3c0 673d df98 163d 9764 d73c
000002e0: 77f0 12bd 75fe 08b9 da6d 54bc 78d8 e43c
000002f0: 6068 9b3c 91d1 07bd 89b3 0e3d 2c84 d13c
00000300: ddbc 11bc 0a0f 49bd e9d3 343d 576d 383c
00000310: 298e 933c d10d 1abd e88f 24bd 7dba 803d
00000320: 592e 9f3c ebe1 6bbd b297 75bc 3ecf 48bd
00000330: 45b7 ed3c 5387 283d d450 e93c ae51 2bbd
00000340: 2eaf 31bc 60eb 21bd 3d61 ad3a 6078 16bd
00000350: 773d 503d e806 4bbd 1fb4 8d3c e8bf a13c
00000360: 9453 14bc f83d 20bd e004 1f3d 87cf 85bc
00000370: b52a b5b9 a65f f8ba 7f1d 59bd 81bc 52bc
00000380: b657 db3c d768 7bbc f7d3 fa3c d375 5c3c
00000390: 3a25 923b 216f 53bd 4b0b 2d3d c884 0abc
000003a0: b909 053d 4acf 483d 653e 80bd a830 143c
000003b0: b33b 40bd b1a4 103c 2a1f f5bc 7864 023c
000003c0: f758 483d 6e3b 263c 65ac 8e3b aa69 ae3c
000003d0: 62ba 283d 53e6 0bbc 901c 33bd 61fc 3c3d
000003e0: b92b 4f39 8c43 2bbc 366d b03c f2b2 163d
000003f0: b625 69bd 1c1c e93b 532c ae3b 38f8 813c

lin3.weight f4 [128, 256]
0.04192446 -0.053491835 -0.052185398 -0.03197859 -0.036839645 -0.06769297 -0.013819404 0.055278454
0.034906484 -0.0057641 -0.044665273 -0.032492854 0.12946819 0.05035238 -0.03818391 -0.045401096
-0.033295322 -0.058817178 0.031862043 -0.06494623 0.117625885 0.0691015 0.01890476 0.025387209
-0.05954494 -0.0041718166 -0.004818574 0.044841245 -0.054477345 -0.010109995 -0.017210312 0.047569033
0.04944418 0.0064835 0.009730521 -0.00010492342 0.020782806 -0.0066131055 0.05356428 0.021976467
0.026740763 -0.03385856 0.043360274 -0.0113369 0.03938438 0.007980574 -0.03498774 -0.012964219
0.05378132 -0.0012442932 0.049670666 0.030697215 0.10668083 0.04237804 -0.013974193 0.07889572
-0.028285585 0.033493984 0.015699787 -0.053215954 0.0055855587 -0.0396638 -0.015943611 0.03574234
-0.04773598 0.012553249 -0.05032187 0.05639628 -0.066430025 0.054736838 -0.016572107 0.039582834
0.17214234 0.027410919 0.01206921 -0.011515386 0.014892583 -0.0005466532 0.067523055 0.046457842
0.0013371404 -0.0029621348 0.008208461 0.02392314 0.19769663 0.050501116 0.14470881 -0.0074369013
-0.0284871 -0.015012202 -0.0536934 0.05017098 0.11194229 -0.12942721 -0.006767862 -0.02687942
0.065379374 -0.027127448 -0.054649383 -0.04138197 -0.028639046 0.022506032 -0.036179658 -0.04580859
-0.062084578 -0.011223566 0.00019956658 -0.0402514 0.009353931 0.040132258 -0.04551195 -0.06297472
0.059085704 0.028661944 -0.02144676 0.0028481951 0.06800419 0.009094102 0.05253555 0.00814575
0.009236648 0.06231971 0.044978824 -0.0059255967 -0.013210292 -0.03205716 0.037259612 -0.01337922
-0.058566485 0.046160318 0.038303446 0.01102199 0.032214846 -0.05639388 -0.022446988 -0.010034334
0.04141751 -0.057526007 -0.045138866 0.016551992 0.013543704 0.015075125 -0.049948473 0.0003979951
0.019728322 -0.028261688 -0.014562619 -0.000708843 -0.027960593 0.040183064 -0.015652396 0.010237839
0.06674811 -0.047889583 -0.05255711 0.031964846 -0.027536953 0.1904584 0.008213559 -0.018641645
0.005552826 0.0518096 0.006257388 0.005658405 0.0007553293 0.051487163 -0.048083246 0.023686515
-0.0055169393 -0.02102162 0.028036483 -0.05831055 0.01514563 0.0036470077 -0.03855761 -0.032174364
-0.012132286 -0.021016847 -0.04430441 -0.012768981 0.0049808538 -0.0338509 -0.011094821 0.035256553
-0.03368032 0.06240932 -0.028945282 0.048262633 -0.008753613 0.041059826 0.06041781 -0.00283755
0.021437993 0.053137247 0.030604247 0.015600885 0.038986936 0.056914933 0.033181883 0.057135392
0.004026679 -0.04894409 0.03277827 0.004790937 0.02827229 -0.06255105 0.20512867 0.02759817
-0.05963288 -0.05659744 -0.018900687 0.0068070283 0.009468036 0.0068195686 0.028297061 -0.04424462
0.003251642 0.05142717 0.025420487 0.022078011 0.044905756 0.016977804 0.042759914 0.012634111
0.013137672 0.00070668524 -0.008940696 -0.007669622 -0.03209495 0.036911093 -0.049679033 -0.027646117
0.050726116 0.07051545 0.024590697 0.020696605 -0.064105645 0.06427731 0.031668276 -0.038073707
-0.005692444 -0.034356013 0.032741405 -0.05030701 -0.063211516 0.011359282 -0.038494553 -0.045262497
0.06037265 -0.017769873 0.048328236 -0.0018580747 -0.01388906 0.011767667 0.029289108 0.027699903
00000000: fcb8 2b3d 411a 5bbd 5bc0 55bd fbfb 02bd
00000010: 2be5 16bd 9da2 8abd c86a 62bc a96b 623d
00000020: 1afa 0e3d c6e0 bcbb eff2 36bd 3a17 05bd
00000030: 4f93 043e 4c3e 4e3d bb66 1cbd 80f6 39bd
00000040: ad60 08bd 48ea 70bd c681 023d 8702 85bd
00000050: d7e5 f03d 1685 8d3d 28de 9a3c d6f8 cf3c
00000060: 65e5 73bd bcb3 88bb 21e5 9dbb 74ab 373d
00000070: a323 5fbd 64a4 25bc a4fc 8cbc bfd7 423d
00000080: fb85 4a3d 8a73 d43b c36c 1f3c 550a dcb8
00000090: b440 aa3c c0b2 d8bb 3866 5b3d fe07 b43c
000000a0: 720f db3c 46af 0abd 8b9a 313d 68be 39bc
000000b0: 8451 213d f4c0 023c 4e4f 0fbd e067 54bc
000000c0: cd49 5c3d 8d17 a3ba 7873 4b3d ba78 fb3c
000000d0: 7b7b da3d 9894 2d3d 03f4 64bc 1494 a13d
000000e0: 2cb7 e7bc fd30 093d d79c 803c f9f8 59bd
000000f0: 1007 b73b 8276 22bd 2d9c 82bc 8f66 123d
00000100: ce86 43bd 24ac 4d3c 4e1e 4ebd c9ff 663d
00000110: 770c 88bd bc33 603d 3ac2 87bc 9c21 223d
00000120: 1546 303e dd8c e03c f0bd 453c 08ab 3cbc
00000130: 0500 743c 464d 0fba 8749 8a3d 944a 3e3d
00000140: fd42 af3a 6020 42bb c87c 063c 76fa c33c
00000150: fc70 4a3e 42da 4e3d 8c2e 143e 40b1 f3bb
00000160: c75d e9bc bdf5 75bc 9ced 5bbd 1680 4d3d
00000170: 0042 e53d 9188 04be f1c4 ddbb 3b32 dcbc
00000180: 9fe5 853d 623a debc 08d8 5fbd 2480 29bd
00000190: 6f9c eabc 925e b83c 1f31 14bd caa1 3bbd
000001a0: 664c 7ebd 0ce3 37bc bf42 5139 a7de 24bd
000001b0: 3b41 193c b961 243d bd6a 3abd e4f8 80bd
000001c0: da03 723d 74cc ea3c 1eb1 afbc c9a8 3a3b
000001d0: c845 8b3d 6eff 143c 842f 573d c075 053c
000001e0: 4f55 173c f442 7f3d b73b 383d 822b c2bb
000001f0: fb6f 58bc 5e4e 03bd 899d 183d 8434 5bbc
00000200: 69e3 6fbd 9a12 3d3d 13e4 1c3d 9495 343c
00000210: b7f3 033d 45fd 66bd bfe2 b7bc 0c67 24bc
00000220: 68a5 293d 64a0 6bbd 88e3 38bd 0b98 873c
00000230: 69e6 5d3c a8fd 763c c596 4cbd 00aa d039
00000240: 4a9d a13c 0e85 e7bc 0d98 6ebc a6d1 39ba
00000250: 9d0d e5bc ff96 243d 7439 80bc 9cbc 273c
00000260: 3cb3 883d de27 44bd 2046 57bd 92ed 023d
00000270: 2d95 e1bc 8707 433e 2a92 063c 5db6 98bc
00000280: 7bf4 b53b 4e36 543d c60a cd3b 246a b93b
00000290: 4b01 463a 34e4 523d f0f2 44bd 390a c23c
000002a0: 71c7 b4bb 8835 acbc c4ac e53c 0bd7 6ebd
000002b0: 6025 783c a302 6f3b 96ee 1dbd 44c9 03bd
000002c0: 7fc6 46bc 862b acbc 8b78 35bd fd34 51bc
000002d0: 6e36 a33b 3ea7 0abd 0dc7 35bc 2d69 103d
000002e0: 60f4 09bd eaa0 7f3d a81e edbc 0aaf 453d
000002f0: 506b 0fbc 592e 283d aa78 773d 30f6 39bb
00000300: bb9e af3c 71a6 593d c2b5 fa3c db9a 7f3c
00000310: c4b0 1f3d a21f 693d bae9 073d cd06 6a3d
00000320: 3bf2 833b 9979 48bd 8242 063d 4bfd 9c3b
00000330: 4a9b e73c c41a 80bd 400d 523e 8f15 e23c
00000340: 9b41 74bd b8d2 67bd 9dd5 9abc 7e0d df3b
00000350: d21f 1b3c b076 df3b 3dcf e73c d939 35bd
00000360: 8019 553b 4ca5 523d a03e d03c f2dc b43c
00000370: 19ef 373d 0915 8b3c 0525 2f3d 4dff 4e3c
00000380: 643f 573c d840 393a ff7b 12bc 7451 fbbb
00000390: ff75 03bd 1630 173d 3e7c 4bbd 1c7a e2bc
000003a0: 30c6 4f3d 676a 903d 6e72 c93c ed8b a93c
000003b0: d249 83bd d3a3 833d 98b6 013d 2df3 1bbd
000003c0: ae87 babb e4b8 0cbd da1b 063d b90e 4ebd
000003d0: 0a75 81bd 481c 3a3c 77ac 1dbd 2b65 39bd
000003e0: 5049 773d 2092 91bc d4f3 453d a48a f3ba
000003f0: f18e 63bc 2ccd 403c b6ef ef3c e8ea e23c

lin3.bias f4 [128]
0.007612196 0.059480827 -0.03548958 -0.06730408 -0.008711945 0.05020664 -0.04333657 -0.053913366
0.015768053 0.039286282 -0.061459277 -0.019895965 -0.061245065 -0.040747125 0.0036464406 -0.05085732
-0.051003434 -0.007614849 -0.020490453 0.018622896 -0.050128832 -0.011444467 0.044133645 -0.05447588
-0.042446483 0.03437025 -0.0070852707 -0.02506784 0.003589795 -0.058868878 0.044015642 0.029718723
-0.07565228 0.027331978 -0.009985635 -0.034863226 -0.02739545 0.018007545 0.015013513 0.0004791254
0.02238828 -0.025247332 -0.06419232 -0.031168124 0.05612936 0.021970648 0.055207852 -0.058672648
0.020220637 0.014139338 -0.017099256 0.08198233 -0.019540537 -0.021598095 -0.021754034 0.012153557
-0.042586252 0.0025782294 -0.031304102 -0.042252187 0.052021742 -0.027103879 -0.036906328 0.05738822
0.050129984 0.058999456 -0.02281395 0.009140706 0.036686253 0.009441451 -0.033973966 -0.015493656
-0.029530339 -0.00970225 -0.06703277 0.002223697 -0.003913538 0.02974721 -0.062267914 0.03279696
0.028317928 0.034372773 -0.00092405325 -0.0038890257 -0.0058597825 0.0031776337 -0.028687298 -0.05101053
0.00018700847 0.032711342 0.03968068 -0.010441746 -0.03969579 0.0130314715 -0.05456668 0.043597974
0.030229518 -0.07252686 0.00542997 0.028019741 0.018978832 0.02211736 -0.06171994 -0.033669677
-0.0362633 0.061710782 -0.061944924 -0.0055048866 0.0368445 0.04262825 0.030494826 0.024156196
0.026905958 0.037964806 -0.030604143 -0.06104369 -0.028486066 -0.042164836 0.007927669 0.042309128
-0.026503514 0.04025236 0.054726873 0.019373087 0.013200138 0.001914151 0.02469979 0.06365276
00000000: ba6f f93b 2ba2 733d 865d 11bd b9d6 89bd
00000010: 8cbc 0ebc 7aa5 4d3d b081 31bd 43d4 5cbd
00000020: 012c 813c a7ea 203d b9bc 7bbd ddfc a2bc
00000030: 1bdc 7abd 75e6 26bd 1ff9 6e3b c44f 50bd
00000040: fae8 50bd fc85 f9bb 98db a7bc 0b8f 983c
00000050: e453 4dbd 9381 3bbc 7bc5 343d 1a22 5fbd
00000060: 5ddc 2dbd d2c7 0c3d 8f2b e8bb 125b cdbc
00000070: c442 6b3b 7e20 71bd bf49 343d ae74 f33c
00000080: 95ef 9abd 50e7 df3c ca9a 23bc becc 0ebd
00000090: 6c6c e0bc 8f84 933c 3dfb 753c 1f33 fb39
000000a0: a067 b73c 7ed3 cebc 4377 83bd 4b54 ffbc
000000b0: e6e7 653d cafb b33c a121 623d bb52 70bd
000000c0: c0a5 a53c afa8 673c bd13 8cbc 5ae6 a73d
000000d0: 7a13 a0bc 7dee b0bc 8435 b2bc b61f 473c
000000e0: ec6e 2ebd 83f7 283b bb38 00bd a110 2dbd
000000f0: c014 553d f408 debc 172b 17bd e90f 6b3d
00000100: 1955 4d3d 6aa9 713d 52e4 babc e6c2 153c
00000110: 5344 163d 51b0 1a3c 4928 0bbd 1ad9 7dbc
00000120: 9ce9 f1bc 30f6 1ebc 7a48 89bd 72bb 113b
00000130: 233d 80bb 6cb0 f33c a40c 7fbd 1b56 063d
00000140: 00fb e73c 77ca 0c3d 2a3c 72ba 06df 7ebb
00000150: 6b03 c0bb d93f 503b a001 ebbc 6bf0 50bd
00000160: b417 4439 54fc 053d 3588 223d db13 2bbc
00000170: 0d98 22bd f481 553c 5081 5fbd ca93 323d
00000180: e5a3 f73c f688 94bd e4ed b13b a889 e53c
00000190: 7f79 9b3c 772f b53c 0cce 7cbd 37e9 09bd
000001a0: d388 14bd 72c4 7c3d f6b9 7dbd 5662 b4bb
000001b0: 42ea 163d f69a 2e3d 49d0 f93c 37e3 c53c
000001c0: e269 dc3c fc80 1b3d 8ab5 fabc f308 7abd
000001d0: 9c5b e9bc 09b5 2cbd 0ee3 013c 564c 2d3d
000001e0: e61d d9bc a9df 243d 4929 603d 4fb4 9e3c
000001f0: 6445 583c 40e4 fa3a 3757 ca3c 615c 823d

lin4.weight f4 [64, 128]
-0.033784874 0.04061422 0.07572657 -0.028083779 -0.013669446 -0.07330639 0.05437075 0.06926436
0.05209088 -0.016781317 -0.007087328 0.047693886 0.009908831 0.036479518 -0.08820968 -0.057102155
-0.039718375 -0.0721881 0.039632805 -0.023354277 0.043823894 0.0027294033 0.08972313 0.0046708193
-0.030763889 -0.070580065 0.044859692 -0.015020878 -0.020012688 -0.0688877 0.0006630514 0.10993906
0.019592881 -0.08087586 -0.050861456 -0.07098493 0.0035797525 0.0815615 -0.005566422 -0.008738281
0.048156045 -0.060624074 0.015419913 -0.075993046 0.06104811 0.020355865 -0.017388443 -0.0061935605
0.0045339963 -0.058301155 -0.044468053 0.02847126 -0.0708995 -0.07369264 0.059867524 -0.036814164
-0.019338395 0.02867735 0.042854417 -0.055058077 0.054402366 0.06961475 0.09717313 0.052493516
-0.0007231124 0.072323985 0.04864959 0.044776537 0.00033027615 -0.078812405 -0.08789767 -0.040701505
-0.082096584 0.0023759047 -0.05236409 0.09000414 0.04869093 0.06344412 -0.006178651 0.0582115
-0.053009506 0.028924165 -0.065549195 -0.008773083 -0.021114282 0.0684399 -0.004056279 0.032918364
0.037601184 -0.08886487 -0.15378934 -0.08358143 0.08393849 -0.006239826 -0.071161695 0.05190362
-0.05391352 0.010174759 0.04062501 0.016121633 -0.09241213 0.10082019 -0.041060206 0.016034592
-0.07862257 -0.028555464 -0.0062269 -0.025944866 -0.026796827 0.0043239626 0.0145285325 0.06235495
0.059095334 -0.013510974 -0.035625663 0.07824056 0.013436069 0.020149285 -0.051663954 0.047677096
-0.009486592 -0.06050317 0.003106126 0.06264272 -0.060028087 0.0041030482 0.043185808 0.053666662
0.016600156 0.040657826 0.009617679 -0.010689011 -0.02156229 0.07963671 0.024607321 0.06746759
-0.04448383 0.02329063 0.01863266 0.036870845 0.0464411 0.08917766 0.092701964 0.0113390535
0.07992806 0.06707661 0.040427603 -0.04396592 0.031016877 0.03350781 0.07637245 -0.07669786
0.036632583 -0.02450638 0.033343133 0.0048254034 0.033684872 0.073656246 0.09653119 0.07762698
-0.04951014 -0.02740525 -0.057944022 -0.050093744 -0.0224639 -0.044090204 0.07299782 -0.08255741
-0.029157005 0.024714118 -0.0325902 0.060120508 -0.05775657 -0.051691577 -0.017988537 -0.04983696
-0.018663878 -0.012147633 0.0105105275 -0.124286085 -0.075588204 -0.048484012 -0.065289095 0.04333422
-0.055742614 -0.021385707 -0.043266594 -0.052496668 0.057565 0.08198053 0.038381416 0.010057716
0.050476015 0.048738215 -0.03541335 0.035321236 -0.025286322 -0.074519485 -0.07735163 0.052056283
-0.023284575 -0.078576185 0.0020448952 0.023938317 -0.07945795 -0.017899338 -0.04853135 -0.03129726
0.032132316 -0.024965286 0.066915594 -0.036201682 -0.006746696 -0.079158925 0.017722726 0.07180243
-0.0053174663 -0.07466643 -0.034689244 0.06928437 -0.05216415 0.05255425 0.05678836 -0.07623127
-0.0014115472 -0.019622289 -0.031178579 0.071794644 -0.07032291 -0.022145152 0.061802484 0.036923606
0.07300244 -0.045412187 0.0666987 -0.082614236 -0.11361182 0.06787788 -0.009928058 -0.035755627
-0.053879146 0.08188633 -0.054368272 -0.01584596 0.040680107 0.004166548 -0.05929124 0.043320026
-0.059351727 -0.067844875 0.028572993 0.032964155 0.02051699 0.06201283 0.029010167 -0.077937186
00000000: 0262 0abd 195b 263d 8816 9b3d f40f e6bc
00000010: d0f5 5fbc a921 96bd ddb3 5e3d 79da 8d3d
00000020: 3f5d 553d f978 89bc d13c e8bb aa5a 433d
00000030: a658 223c 8c6b 153d 47a7 b4bd f3e3 69bd
00000040: bcaf 22bd 5bd7 93bd 0256 223d 7851 bfbc
00000050: af80 333d cadf 323b c3c0 b73d ac0d 993b
00000060: 8d04 fcbc 488c 90bd ccbe 373d 211a 76bc
00000070: a6f1 a3bc ff14 8dbd a0d0 2d3a bb27 e13d
00000080: 4081 a03c 3ea2 a5bd 1a54 50bd 8c60 91bd
00000090: 489a 6a3b b709 a73d 8866 b6bb 022b 0fbc
000000a0: 463f 453d f350 78bd cea3 7c3c 3ea2 9bbd
000000b0: 950d 7a3d 58c1 a63c 3572 8ebc 5af3 cabb
000000c0: eb91 943b 31cd 6ebd 2224 36bd 8f3c e93c
000000d0: c233 91bd 2bec 96bd a637 753d 73ca 16bd
000000e0: 8e6b 9ebc c3ec ea3c 1d88 2f3d 9484 61bd
000000f0: 04d5 5e3d 2e92 8e3d b502 c73d 7103 573d
00000100: 408f 3dba 991e 943d cb44 473d 9a67 373d
00000110: ea28 ad39 6668 a1bd b203 b4bd 9fb6 26bd
00000120: 4122 a8bd 11b5 1b3b ba7b 56bd 1754 b83d
00000130: 2470 473d feee 813d 4876 cabb 2f6f 6e3d
00000140: 7f20 59bd 5ff2 ec3c a83e 86bd fabc 0fbc
00000150: dcf7 acbc 382a 8c3d 89ea 84bb 68d5 063d
00000160: b303 1a3d c9fe b5bd f47a 1dbe be2c abbd
00000170: f1e7 ab3d 7477 ccbb 39bd 91bd e498 543d
00000180: 6cd4 5cbd 08b4 263c 6966 263d 8411 843c
00000190: 9242 bdbd d17a ce3d bf2e 28bd fa5a 833c
000001a0: df04 a1bd 26ed e9bc 060b ccbb 548a d4bc
000001b0: 0585 dbbc 07b0 8d3b 1509 6e3c e767 7f3d
000001c0: f30d 723d 225d 5dbc 37ec 11bd 963c a03d
000001d0: f522 5c3c 1d10 a53c 959d 53bd 0f49 433d
000001e0: a76d 1bbc 2cd2 77bd 2690 4b3b d44a 803d
000001f0: 03e0 75bd dd72 863b 9ae3 303d 93d1 5b3d
00000200: 0dfd 873c d288 263d 7893 1d3c f620 2fbc
00000210: 66a3 b0bc 9218 a33d 4b95 c93c 732c 8a3d
00000220: ad34 36bd fecb be3c 85a3 983c e205 173d
00000230: 0639 3e3d c7a2 b63d 87da bd3d 70c7 393c
00000240: 53b1 a33d 765f 893d 6a97 253d 9c15 34bd
00000250: 1b17 fe3c 7c3f 093d 2969 9c3d c513 9dbd
00000260: 0c0c 163d 9bc1 c8bc cf92 083d 6b1e 9e3b
00000270: 26f9 093d 16d9 963d 25b2 c53d e5fa 9e3d
00000280: 25cb 4abd fa80 e0bc b656 6dbd 192f 4dbd
00000290: 3606 b8bc ee97 34bd e27f 953d dc13 a9bd
000002a0: acda eebc 4375 ca3c 4d7d 05bd ec40 763d
000002b0: 2792 6cbd 8cba 53bd b25c 93bc d721 4cbd
000002c0: fde4 98bc de06 47bc 5934 2c3c b489 febd
000002d0: fdcd 9abd 2c97 46bd 4ab6 85bd 397f 313d
000002e0: 5e52 64bd 1431 afbc 5038 31bd bf06 57bd
000002f0: 47c9 6b3d 68e5 a73d d535 1d3d 1ec9 243c
00000300: f0bf 4e3d b9a1 473d 970d 11bd 00ad 103d
00000310: 4325 cfbc ac9d 98bd 886a 9ebd f838 553d
00000320: 4bbf bebc 8dec a0bd a603 063b 4a1a c43c
00000330: daba a2bd a2a1 92bc cfc8 46bd 8e31 00bd
00000340: 2d9d 033d 0084 ccbc 0b0b 893d 3748 14bd
00000350: 6313 ddbb 131e a2bd 402f 913c 270d 933d
00000360: 243e aebb b7ea 98bd 4f16 0ebd f7e4 8d3d
00000370: 13aa 55bd 2043 573d e99a 683d 241f 9cbd
00000380: aa03 b9ba ecbe a0bc 386a ffbc 1209 933d
00000390: 7505 90bd c069 b5bc 9a24 7d3d 353d 173d
000003a0: 4e82 953d 2102 3abd 5499 883d a731 a9bd
000003b0: 50ad e8bd 8f03 8b3d 4ba9 22bc 7e74 12bd
000003c0: 61b0 5cbd 05b4 a73d 44b1 5ebd 63cf 81bc
000003d0: 2fa0 263d 8a87 883b 5fdb 72bd 5770 313d
000003e0: cc1a 73bd 41f2 8abd e911 ea3c 6c05 073d
000003f0: 3f13 a83c 2a01 7e3d bba6 ed3c 889d 9fbd

lin4.bias f4 [64]
0.06298729 0.0012048875 0.02359128 -0.105919965 0.059714258 0.0553832 -0.04308535 0.022612669
-0.00967434 0.06987053 0.033386562 0.053002045 -0.019278342 0.01719669 -0.06500028 -0.05796481
-0.049474817 -0.020347863 0.075668335 -0.050887916 -0.07843763 -0.051955417 -0.09132096 -0.034951862
-0.034265492 -0.087378845 0.065337375 0.08020153 -0.06132394 0.030716442 0.035233825 0.030316297
-0.02865952 -0.06788445 -0.053976733 -0.006697501 -0.009721476 -0.052735813 -0.07220529 0.021997053
0.0842376 0.017650023 -0.02461934 0.030455997 0.030568067 -0.07591688 -0.03768381 -0.0055462816
-0.03310158 0.056475054 -0.059223846 0.04312299 -0.039480764 0.017519759 0.016824696 0.040965773
-0.048376117 0.05826269 -0.00469665 0.08420448 -0.04095887 -0.065687746 -0.023025556 0.041799285
00000000: 7bff 803d 51ed 9d3a 8042 c13c 91ec d8bd
00000010: f096 743d 7fd9 623d 447a 30bd 343e b93c
00000020: 1f81 1ebc 4818 8f3d 59c0 083d ac18 593d
00000030: 9ded 9dbc 13e0 8c3c de1e 85bd 826c 6dbd
00000040: 1ba6 4abd 90b0 a6bc 00f8 9a3d d96f 50bd
00000050: e8a3 a0bd 34cf 54bd 7c06 bbbd af29 0fbd
00000060: f959 0cbd aef3 b2bd 9acf 853d b340 a43d
00000070: d02e 7bbd 0ca1 fb3c 5851 103d e259 f83c
00000080: 5fc7 eabc 0107 8bbd b516 5dbd b676 dbbb
00000090: d346 1fbc 8201 58bd 5ee0 93bd 2a33 b43c
000000a0: c384 ac3d c896 903c 80ae c9bc db7e f93c
000000b0: e269 fa3c 4f7a 9bbd 575a 1abd 95bd b5bb
000000c0: 8695 07bd 6352 673d b494 72bd bba1 303d
000000d0: 95b6 21bd 9985 8f3c f2d3 893c bacb 273d
000000e0: 0926 46bd dca4 6e3d 5be6 99bb 6673 ac3d
000000f0: 7dc4 27bd 4c87 86bd 17a0 bcbc ba35 2b3d

lin5.weight f4 [16, 64]
-0.07210441 -0.028468007 0.06563462 0.060948208 0.108387254 0.0823181 -0.048889697 0.09174394
0.010976329 -0.035169203 0.08471537 -0.063880704 -0.109279215 0.12118483 0.09364789 -0.05412906
0.10804736 0.028136648 0.029303117 -0.066212155 -0.045083255 0.019873805 0.047099777 0.11796103
-0.08507611 -0.1116321 -0.008082502 -0.08778778 -0.09294531 -0.07294669 0.10040992 0.11138998
0.04772629 -0.0949261 -0.11537676 -0.1146829 0.124447115 0.06197406 0.088071555 0.06577981
0.08587321 0.11482865 0.08282142 0.0482637 0.08317754 0.02808001 0.099200286 0.031266924
0.036109768 -0.113771774 0.089624085 0.0785371 0.07879595 -0.03521733 0.062442254 -0.058047667
-0.0060471036 0.059170637 -0.09678328 -0.09603501 -0.10664407 -0.07413236 -0.06568236 0.096032515
0.08710214 -0.061894353 -0.076494046 -0.063131094 -0.018969666 0.053430676 -0.083027 -0.10474326
-0.007710013 -0.074935995 -0.051890835 0.115052484 -0.12231252 -0.005083786 -0.102578975 -0.0048032505
-0.074961096 0.014415537 -0.044709273 0.01813853 -0.09423914 -0.030558532 0.12510403 0.07626667
0.073146224 0.07132342 0.0056584845 0.121816315 0.10824366 -0.016343486 -0.06651465 -0.024483671
0.0657698 0.0058000316 0.05671703 0.062217467 0.123537 0.07965647 -0.107524246 -0.095061846
-0.0796045 -0.11322782 -0.023256822 0.10269121 0.053195197 0.06768348 0.012554748 -0.015128606
0.11117371 0.085376516 -0.02150627 -0.003397385 -0.04274242 0.048275165 0.10496098 0.11098972
0.050330833 -0.03143511 -0.101430416 0.09598704 0.02450631 -0.034266964 -0.055774998 -0.006472272
-0.073629975 -0.08429223 -0.056218836 -0.063029245 -0.112110406 -0.09657124 -0.0748332 0.007596785
0.09285762 0.10722448 -0.054601047 0.050862115 0.10117512 0.12512887 0.067377895 -0.10638044
-0.030283889 0.055843037 -0.07011389 0.017518792 -0.0387842 0.055487562 0.032871842 0.008754088
-0.09977683 0.077553004 -0.1185918 -0.024708325 0.06836034 -0.07257602 -0.11245671 0.08916756
-0.02848643 -0.09989496 0.06878853 0.059316486 -0.056304235 -0.0525432 -0.07347552 -0.11008773
0.095295236 -0.117003106 0.077658646 0.112967975 -0.06067578 -0.042810686 -0.0014951151 -0.087096594
0.028096901 0.020518404 -0.03998 -0.03681551 -0.10159876 0.06968667 0.07173844 0.012031044
0.018278554 -0.0332761 -0.006552862 -0.023223933 -0.113691084 0.08446175 0.009520715 -0.084970556
-0.12375907 0.02215709 0.0059168674 0.082502946 -0.005082449 -0.06641579 0.056129515 0.056143403
0.04961455 0.07518057 -0.09076402 -0.015085944 -0.044966307 -0.09865967 0.057721034 0.0062969984
-0.082601994 -0.008222836 -0.096933976 0.11769179 -0.08474168 0.024916217 -0.081044175 -0.09415264
0.098727025 -0.033351 0.12517574 0.018950311 0.075689755 -0.042390592 -0.070999 -0.05179312
0.03839815 0.11415399 -0.08244197 0.08811164 -0.117049485 -0.107789226 -0.11605472 0.06984129
0.12497942 -0.12141886 0.08279226 -0.0067848824 -0.101214506 -0.080546275 -0.057769604 0.020341096
-0.03976962 -0.02259305 -0.07501949 0.034560703 -0.033409614 -0.057722744 -0.05939481 -0.034710165
0.075664975 0.020019028 -0.031106306 0.078325525 -0.08004004 0.07820741 0.11741488 0.102074
00000000: 7aab 93bd bd35 e9bc 726b 863d d4a4 793d
00000010: 23fa dd3d 6496 a83d 9040 48bd 3fe4 bb3d
00000020: 10d6 333c 950d 10bd 407f ad3d e3d3 82bd
00000030: c8cd dfbd c12f f83d 77ca bf3d 6fb6 5dbd
00000040: ef47 dd3d d47e e63c 170d f03c 3d9a 87bd
00000050: 38a9 38bd 64ce a23c b2eb 403d 8d95 f13d
00000060: 623c aebd 5f9f e4bd 786c 04bc 14ca b3bd
00000070: 1c5a bebd 1365 95bd b7a3 cd3d 6e20 e43d
00000080: a47c 433d 9d68 c2bd a74a ecbd dede eabd
00000090: 21de fe3d 83d8 7d3d dc5e b43d 91b7 863d
000000a0: 4bde af3d 492b eb3d 479e a93d 28b0 453d
000000b0: fc58 aa3d 0d08 e63c 8529 cb3d bf11 003d
000000c0: d6e7 133d 2d01 e9bd d58c b73d 0fd8 a03d
000000d0: c55f a13d 0c40 10bd 73c3 7f3d 64c3 6dbd
000000e0: c826 c6bb e95c 723d 5036 c6bd 01ae c4bd
000000f0: 3568 dabd b5d2 97bd 7984 86bd b2ac c43d
00000100: 9b62 b23d ef84 7dbd e9a8 9cbd e04a 81bd
00000110: 4666 9bbc 20da 5a3d 0f0a aabd a283 d6bd
00000120: 47a4 fcbb 0b78 99bd 7c8b 54bd a3a0 eb3d
00000130: fd7e fabd e395 a6bb ed14 d2bd 9664 9dbb
00000140: 3485 99bd 252f 6c3c 1221 37bd 4197 943c
00000150: 7300 c1bd e355 fabc 451b 003e b331 9c3d
00000160: b0cd 953d 0312 923d cf6a b93b d57a f93d
00000170: daae dd3d c6e2 85bc d538 88bd fb91 c8bc
00000180: 51b2 863d 310e be3b 1e50 683d bed7 7e3d
00000190: f700 fd3d ee22 a33d ac35 dcbd c9af c2bd
000001a0: af07 a3bd fde3 e7bd 1785 bebc c54f d23d
000001b0: 35e3 593d a39d 8a3d 6eb2 4d3c f9dd 77bc
000001c0: 0baf e33d e2d9 ae3d eb2d b0bc a9a6 5ebb
000001d0: ad12 2fbd 2ebc 453d c8f5 d63d 944e e33d
000001e0: b427 4e3d 1ac2 00bd c0ba cfbd da94 c43d
000001f0: 75c1 c83c 845b 0cbd 5374 64bd 5a15 d4bb
00000200: 50cb 96bd 68a1 acbd b945 66bd 7a15 81bd
00000210: 249a e5bd 24c7 c5bd 2642 99bd 74ee f83b
00000220: 232c be3d 8298 db3d 59a5 5fbd cb54 503d
00000230: e734 cf3d c821 003e 6cfd 893d fddd d9bd
00000240: eb15 f8bc abbb 643d df97 8fbd 9283 8f3c
00000250: 2edc 1ebd ed46 633d a0a4 063d 4e6d 0f3c
00000260: cb57 ccbd 1cd4 9e3d 42e0 f2bd 1d69 cabc
00000270: 8200 8c3d bda2 94bd b44f e6bd 7b9d b63d
00000280: 605c e9bc bb95 ccbd 00e1 8c3d d8f5 723d
00000290: 459f 66bd 8a37 57bd 557a 96bd ad75 e1bd
000002a0: 262a c33d 539f efbd 7f0b 9f3d c15b e73d
000002b0: 2b87 78bd 425a 2fbd bdf7 c3ba b35f b2bd
000002c0: 792b e63c 3616 a83c 12c2 23bd dccb 16bd
000002d0: 0313 d0bd e3b7 8e3d 9aeb 923d db1d 453c
000002e0: e8bc 953c 854c 08bd 64b9 d6bb 1e40 bebc
000002f0: dfd6 e8bd 48fa ac3d c6fc 1b3c 0b05 aebd
00000300: 6575 fdbd c982 b53c 48e2 c13b 4ef7 a83d
00000310: ac8a a6bb 0005 88bd 10e8 653d a0f6 653d
00000320: a038 4b3d 45f8 993d 7de2 b9bd 092b 77bc
00000330: 972e 38bd 150e cabd e46c 6c3d 0d57 ce3b
00000340: 3c2b a9bd 13b9 06bc 5285 c6bd 6508 f13d
00000350: 0c8d adbd 181d cc3c 7dfa a5bd 19d3 c0bd
00000360: 6531 ca3d 0f9b 08bd 122e 003e af3d 9b3c
00000370: 3b03 9b3d c2a1 2dbd ec67 91bd 0625 54bd
00000380: 6147 1d3d 91c9 e93d 56d7 a8bd e073 b43d
00000390: a4b7 efbd 99c0 dcbd 19ae edbd f308 8f3d
000003a0: 36f5 ff3d 74aa f8bd fd8e a93d b853 debb
000003b0: 8d49 cfbd 72f5 a4bd d29f 6cbd 5fa2 a63c
000003c0: 78e5 22bd 0f15 b9bc d2a3 99bd 868f 0d3d
000003d0: 85d8 08bd af6e 6cbd f947 73bd 3f2c 0ebd
000003e0: 3df6 9a3d f2fe a33c a7d2 febc 2269 a03d
000003f0: 08ec a3bd 352b a03d 3677 f03d 2c0c d13d

lin5.bias f4 [16]
0.015700327 0.11061037 0.059950396 -0.11477335 -0.10361794 0.017917508 0.061626226 -0.028722478
-0.073249064 0.08950365 0.0008962594 -0.05325679 -0.0055555594 0.061243434 0.028342946 0.08350065
00000000: f99d 803c b187 e23d 8c8e 753d 4a0e ebbd
00000010: a435 d4bd bdc7 923c c86b 7c3d 674b ebbc
00000020: 9b03 96bd b14d b73d f3f2 6a3a cb23 5abd
00000030: 690b b6bb 65da 7a3d 772f e83c 6402 ab3d
