src/virtuose_teleoperation/network_controller/trained_policy_MLP/Grasp_norm_BC_AHEE_epoch_121.pth (torch, 200527 bytes, 8 tensors)

lin1.weight f4 [256, 27]
000000 cd 9a 84 3c b1 c5 ab 3c b4 b8 9d 3c 22 03 4d 3e
       0.016187096 0.02096829 0.019253112 0.20020726
000010 79 4a b0 bd e6 b7 9c bd 7a 53 c9 3d 82 3b c1 3d
       -0.086079545 -0.07652263 0.09830375 0.09435178
000020 7f 84 8b bd f6 d5 1a 3e 4b 8e 4c 3a a4 f5 81 bd
       -0.06812381 0.15120682 0.0007803186 -0.0634568
000030 03 29 f5 3d a0 c5 90 3c cf 14 8a bd 14 cf 07 3e
       0.11970713 0.01767236 -0.0674225 0.13262588
000040 47 7d 0d bb 2a 70 bf 3c 8e 72 d9 bb a2 0f a6 bd
       -0.0021589564 0.023368914 -0.0066359704 -0.081084505
000050 10 a3 b4 bd 54 82 6c 3c 21 0a 32 3e b4 41 0f 3e
       -0.08820164 0.0144353695 0.17386676 0.13989908
000060 3e c9 b3 3c 5f c8 d3 3d 93 2c 10 bd 2b 73 1c 3e
       0.021946546 0.10340952 -0.03519876 0.15278308
000070 3d fc 8f 3d 88 ed 31 bc 63 bf 4a 3d 69 a0 4c bd
       0.070305325 -0.0108598545 0.049498927 -0.049957667
000080 72 68 1c 3e 30 fc 32 bd a0 3c a2 bd 18 19 b5 3b
       0.15274218 -0.043697536 -0.079217196 0.005526673
000090 a7 3f ee bd cd 21 34 3e fb 2a 40 be e8 00 48 3e
       -0.116332345 0.17591019 -0.18766396 0.19531596
0000a0 30 12 d9 3d 23 14 3f be 1b 33 33 be a2 bc f5 3d
       0.10599172 -0.18660025 -0.17499964 0.119988695
0000b0 bf 9d e2 bd 7e 48 c0 3d 35 2d 28 3e 2b cd f1 3c
       -0.11065244 0.09388827 0.16423495 0.029516777
0000c0 be 76 24 3e 2c d9 9e bd 2c f5 b7 3d 6f 50 83 3d
       0.16060922 -0.07756266 0.0898231 0.06411826
0000d0 2c f1 2c 3d 75 8c d5 bd 8f 9b d8 3c c1 25 d4 bc
       0.042222187 -0.10427181 0.026441364 -0.025896909
0000e0 dd 6e 98 3c b2 5a 65 bc a8 48 f2 3d 57 64 05 3e
       0.018607551 -0.013998674 0.11830264 0.13026558
0000f0 ad 46 2f 3d 30 73 8c 3d a4 89 e3 bd 95 48 01 3e
       0.04279201 0.06857908 -0.11110237 0.12625344
000100 c5 1a 0e 3d 21 16 0a 3e 05 f3 e5 bc 2e b0 2e 3d
       0.0346935 0.13485004 -0.028069982 0.042648487
000110 1b e8 05 be 8b 76 72 39 db 44 69 3d 5f af 1a 3d
       -0.13076822 0.00023123079 0.05695043 0.037764903
000120 02 bd f6 3d 71 f0 3e be 0e 0d 81 bd 59 34 ca 3d
       0.12047769 -0.18646409 -0.06301318 0.09873266
000130 b3 a6 b3 bd 35 97 8f bd 76 6f dd bd 0e 00 42 3d
       -0.0877203 -0.07011262 -0.10812275 0.047363333
000140 69 ca ec bd c6 c5 d2 bd 2d 73 09 3b 11 9f 25 3d
       -0.11562044 -0.102916285 0.002097319 0.0404349
000150 14 ca 56 be bd a1 d5 3d 30 35 3f 3d 78 1c 0d 3e
       -0.20975524 0.1043124 0.046681583 0.13780391
000160 74 48 3a bd 8c 6d 5e 3e a2 10 81 3d 40 3d 4a 3d
       -0.045479253 0.21721476 0.063020006 0.04937482
000170 88 52 28 3e f0 89 99 bc c0 4c 8a 3d 70 21 6c be
       0.16437733 -0.018742532 0.0675292 -0.2305963
000180 4d 6b 1e 3d 4d 5b 3e 3e e9 84 c5 bd 30 8d c6 3d
       0.03867655 0.18589516 -0.09644491 0.09694898
000190 84 05 57 3e 81 10 3a 3e 67 a7 cb bd 54 1a 84 bd
       0.20998198 0.18170358 -0.09944039 -0.06450334
0001a0 0d bc be bc ae 54 39 be 3a df 20 3e a0 7a 1e be
       -0.023283029 -0.18098709 0.15710154 -0.15476465
0001b0 00 f2 1b be b2 ec da bd bc 92 f9 3d 97 a5 0a bd
       -0.15229034 -0.10689677 0.121861905 -0.033849325
0001c0 bd b1 a8 3d 61 8a 37 bd 31 61 e5 3d 79 ab fc 3c
       0.08237026 -0.044809703 0.112001784 0.030843483
0001d0 75 b3 92 3d 54 bf 1d 3e 9c c7 2c 3e 0f 06 2c be
       0.07163135 0.15405017 0.1687302 -0.16799186
0001e0 3e 0c 87 bd c8 39 d3 bd b2 a0 d3 3d 72 b8 08 3e
       -0.06594132 -0.10313755 0.103333846 0.1335161
0001f0 8d 32 1c be 7d 27 16 bd 86 37 eb 3c e6 8e 3a be
       -0.15253659 -0.036658753 0.028713 -0.18218574
000200 e6 8d 2e 3d 25 11 4f 3d 49 52 76 bc 6b 8c 24 bd
       0.042615794 0.05055346 -0.015034267 -0.040172976
000210 e9 ce e5 3d 83 c7 19 3e 99 ac 1a be 3f f2 43 3d
       0.112211056 0.15017514 -0.15104903 0.047838446
000220 c3 5a d9 3d 5a c5 3a 3d 01 5f 12 be 68 4a 10 3e
       0.106130145 0.045598365 -0.14294054 0.14090884
000230 5e f9 d3 bd 17 bf 30 3d 79 68 2f 3d f7 e7 95 3d
       -0.103502974 0.043150987 0.042824242 0.073196344
000240 f0 8a 3a 3e d7 d0 89 be 0e f6 bf bd 3f fa b6 3d
       0.18217063 -0.26917145 -0.09373103 0.089344494
000250 bb 57 cc 3d 56 87 0c be 6d cf ca 3c f9 5d f2 3d
       0.09977671 -0.13723502 0.024757111 0.1183433
000260 1c 3b 07 3d 76 90 cd 3b ba 32 e7 3d c7 64 64 3d
       0.033015355 0.0062733246 0.11288972 0.05576017
000270 13 70 f9 bd ca 6d fa 3d a3 e8 18 be 65 8e 07 be
       -0.121795796 0.12227972 -0.14932494 -0.13237913
000280 1b 4e d2 3b c5 e5 09 3e a1 22 f0 bd 2a c1 47 3e
       0.0064180023 0.13466556 -0.11725355 0.1950728
000290 8a 1d 3c bd 8e f9 49 be 44 b3 8c 3d 08 20 70 be
       -0.04592661 -0.19724104 0.0687013 -0.23449719
0002a0 e3 bc 0b 3e 37 53 13 3b 76 a0 a1 3b b9 ed 46 3e
       0.13646273 0.002248002 0.0049324585 0.19426621
0002b0 28 0b 3c be fb 26 83 3e 25 ad db 3d 21 7b 30 3e
       -0.18363631 0.25615677 0.10726384 0.1723447
0002c0 23 b2 c0 bd a5 d3 88 b7 1e 99 b5 bb 4d ca b3 bc
       -0.09408977 -1.6311018e-05 -0.0055419346 -0.02194705
0002d0 de 5f 35 be 5b b1 39 3d 0f 26 25 3e 78 d2 f9 bd
       -0.17712352 0.045335155 0.161278 -0.12198347
0002e0 d5 84 b7 bd 2a 8b 34 be 24 5a 22 3e b8 71 17 be
       -0.089608826 -0.17631212 0.15854698 -0.14789474
0002f0 c3 e0 25 3d bc 2b e9 bd 71 06 33 3d 1d f4 4c 3d
       0.040497553 -0.11385295 0.043707315 0.050037492
000300 d8 49 14 3e 21 0e 18 3e cd 14 f5 3d b4 62 1f bd
       0.14481294 0.1484914 0.11966858 -0.03891249
000310 87 4b 4b be 79 6c 47 be e5 d4 ea bd 18 af 32 be
       -0.1985303 -0.19474973 -0.11466388 -0.17449605
000320 cd 0a b6 bd a1 e5 37 be d6 43 b9 3d 81 e2 06 3e
       -0.08888779 -0.1795869 0.09046142 0.13172342
000330 c4 38 05 be c5 ee 33 be 67 9a 15 bd 52 75 17 be
       -0.13009936 -0.17571552 -0.036524203 -0.14790848
000340 87 91 07 3c 13 f3 d3 bd d6 8b 37 be 40 6b a7 3d
       0.0082744425 -0.10349097 -0.17924437 0.08174753
000350 11 8c 15 3e ee c5 6d 3b 40 eb 29 be 13 7a f0 3d
       0.14604212 0.0036281305 -0.16593647 0.11742034
000360 0e 5b 1e 3e d7 fe ba bd ba 39 42 be 54 24 eb 3d
       0.15464422 -0.09130638 -0.18967333 0.114815384
000370 df 0c 3f be 5a 85 28 3e ba 3e cc bd 57 0b ed 3d
       -0.18657254 0.1645712 -0.09972902 0.115744285
000380 2f e6 1b bd d7 e7 3d 3d 39 d3 32 be 20 07 91 3d
       -0.038061317 0.046363678 -0.17463388 0.07081437
000390 85 1c b0 bd a0 e3 57 bc 3f c7 e0 3d a8 d1 09 be
       -0.0859919 -0.013176829 0.10975503 -0.13458884
0003a0 ef 6e 27 3e 13 21 36 3e 60 76 19 be b2 16 84 3d
       0.16350912 0.17786054 -0.14986563 0.06449641
0003b0 1c 64 a5 bd 0f b2 23 3e 06 ee 05 be 58 33 f1 3d
       -0.08075735 0.15985893 -0.1307908 0.11777371
0003c0 b9 b2 d6 3d 64 af a9 bd 76 1f 20 3e 7c 98 9e bd
       0.104833074 -0.08285406 0.15637001 -0.07743928
0003d0 59 86 37 bc 10 5b e1 3d e9 c6 d2 bc 2f 6d ea bd
       -0.011201465 0.11003697 -0.025729613 -0.11446606
0003e0 3a 54 30 3e 22 a0 0c 3d d2 93 3c bb 1d 6b 3d be
       0.1721963 0.034332402 -0.0028774631 -0.18497892
0003f0 49 16 cf 3d 03 4a 1d 3d 60 f6 c9 3c 85 ba a0 3d
       0.101116724 0.03840066 0.024653614 0.07848076

lin1.bias f4 [256]
000000 69 85 be 3c d4 a1 ac 3d 3b 13 e4 3d f0 cc 06 be
       0.023256974 0.08429304 0.111364804 -0.13164115
000010 86 8c fb 3d 03 2c a7 3d 7f 7a 75 3e 80 2f 60 3c
       0.12282662 0.081626914 0.2397251 0.0136832
000020 7d c3 df 3d 44 e6 89 3c be 15 30 3e 96 54 d2 3c
       0.10925958 0.016833432 0.17195794 0.0256751
000030 70 c8 e8 bd e5 1a 3f 3e e7 1b 30 be 93 41 4b bd
       -0.113663554 0.18662603 -0.17198144 -0.049623083
000040 98 13 e7 bd 9a 1a 38 3e 47 b2 d4 3d 44 c9 1c 3e
       -0.11283034 0.17978898 0.10385566 0.15311152
000050 85 fe 37 be ea f1 d8 3d d1 00 24 bd 17 60 03 3e
       -0.17968185 0.105930164 -0.04003984 0.12829624
000060 27 a6 5b bc 2c 95 24 be 85 7c c5 3c 82 ee 43 be
       -0.013406313 -0.1607253 0.024107227 -0.19133952
000070 2e d2 0d 3e c9 d9 a2 3d bd 4c 70 bc ec e5 20 3e
       0.13849708 0.079516955 -0.014666733 0.15712708
000080 ef 4c 00 be 85 77 36 3e d4 12 4e bd 81 30 f9 3d
       -0.12529348 0.1781903 -0.050310925 0.121674545
000090 4e 99 b9 bd 01 e7 2b 3e 08 bd 9b bd a1 98 97 bd
       -0.09062444 0.1678734 -0.07604414 -0.074021585
0000a0 e7 75 6c 3d 68 15 f4 bd d1 21 36 3e 9f 37 00 be
       0.057729628 -0.119181454 0.17786337 -0.12521218
0000b0 37 7b 54 3d 0e 43 09 be 49 2e e9 3c c4 28 65 3c
       0.05187532 -0.13404486 0.028464453 0.01398677
0000c0 fe fe 18 be 26 50 1a be 62 b5 33 3e 40 9a 09 be
       -0.14941022 -0.15069637 0.17549661 -0.13437748
0000d0 b0 72 58 3e 90 1a f4 3d 74 4f 86 bc fe 59 dc bd
       0.211375 0.11919129 -0.016395308 -0.10759352
0000e0 66 a0 e3 3c 67 2f 84 3d 3b ee 04 3e f0 aa 89 bd
       0.027786445 0.06454354 0.12981503 -0.06722057
0000f0 10 07 ca 3d 1d 4d 81 bd 1a 26 2c 3e d5 d6 31 bc
       0.09864628 -0.06313536 0.1681141 -0.010854443
000100 79 cc 10 3e 6d 70 fd bd 7c af 43 bd 08 d2 34 be
       0.141405 -0.12374959 -0.047774777 -0.17658246
000110 84 f5 e8 3d 66 d9 04 bd 7e 0e 01 3e dc de 18 be
       0.113749534 -0.03243389 0.12603185 -0.14928764
000120 0c 3e 72 3d a6 96 e3 3d 11 8a 7e bd d7 9b ca bc
       0.059141204 0.11112718 -0.06214339 -0.024732513
000130 74 ec 3b be 75 fa 91 3d 37 2f 4e bc 04 12 37 3e
       -0.18351918 0.07127849 -0.012584499 0.17877966
000140 ac e6 1e bd cd 26 32 be 8b be ae 3c 41 d4 e6 3d
       -0.038794205 -0.17397614 0.021331092 0.11270953
000150 0a 98 00 3e 05 46 aa bd e2 4b a5 3d 5e b9 29 be
       0.12557998 -0.083141364 0.08071114 -0.16574618
000160 3c ea 26 3e fc 51 cd b9 a4 cc 52 3c 21 22 11 3e
       0.16300291 -0.0003916173 0.012866173 0.14173175
000170 21 99 1f be d3 2c 97 bd bd b5 59 3c d9 87 d3 3d
       -0.15585758 -0.073815964 0.013287959 0.10328645
000180 3c 67 83 bd 18 a6 97 bd 8e ee 91 bd 01 bf 37 bd
       -0.06416175 -0.07404727 -0.07125579 -0.04485989
000190 56 e4 8d 3d 74 32 e3 3d b6 7d dd 3d bc 4b ca bc
       0.06928317 0.110936075 0.10814993 -0.024694316
0001a0 4e 47 d0 3d 9d a5 93 3e 62 7f d3 3d 29 78 17 3d
       0.1016985 0.2883729 0.10327031 0.036979828
0001b0 a5 49 a8 3d 03 5a fa bd 31 63 3f 3d 2d 9c 82 3d
       0.082171716 -0.122241996 0.046725456 0.063774444
0001c0 7f 18 88 3c b0 27 2e be af d2 de bd 22 63 92 3c
       0.016613243 -0.17007327 -0.108800285 0.017869536
0001d0 0d 37 42 3e bb 84 9f bd 06 9c 05 3e ae 4f 10 3e
       0.18966313 -0.07788988 0.130478 0.14092895
0001e0 81 c8 8c bc 52 c2 fa 3c 59 67 4b bd df fd cf 3d
       -0.017185451 0.030610237 -0.049659107 0.10155844
0001f0 06 4c d8 3c f0 27 2a 3e 83 18 2f bd 1e 78 a8 3d
       0.026403438 0.16616797 -0.042747986 0.082260355
000200 df 79 5d 3e cf 16 c7 3d 99 37 4a 3d dc bd 1b be
       0.21628521 0.09721147 0.04936943 -0.15209144
000210 a0 96 54 3d 8c a1 dc 3d ee 92 c2 3c 32 ca ad 3d
       0.05190146 0.10773 0.023751702 0.08485831
000220 30 80 13 be fb b5 6b 3d 2a 2d ee bd 3e 8b 02 3e
       -0.14404368 0.057546597 -0.11629708 0.12748429
000230 a6 2e 92 bb 5c 20 05 3d 32 f3 48 bd 10 16 20 3d
       -0.0044611273 0.032501563 -0.049060054 0.03908354
000240 b5 66 fe 3d f4 50 80 bd 67 5e d0 bc b0 f2 2f 3e
       0.124219336 -0.062654406 -0.02543564 0.17182422
000250 22 5c 0e 3e e2 97 46 3d cb f9 73 be 09 4c ab bd
       0.13902333 0.04848469 -0.23825757 -0.08364112
000260 09 91 16 be b1 79 c0 3d de 68 d9 bd b6 03 21 3e
       -0.14703764 0.09398211 -0.10615705 0.15724072
000270 6c 02 41 3d 33 c5 87 3d 46 a5 2d 3e c6 37 7f bd
       0.04712145 0.0662941 0.16957578 -0.06230905
000280 81 17 c9 bc 0b ca 0e be aa 20 28 3e ec 05 d4 3d
       -0.02454734 -0.13944261 0.1641871 0.10352692
000290 9d 18 95 bc b2 5a f2 bd 95 93 2f 3d 16 a0 33 be
       -0.018200213 -0.11833705 0.042865355 -0.17541537
0002a0 dc de 8b 3d 14 e0 d7 bd 47 10 91 3d 12 0f 00 3d
       0.068296164 -0.105407864 0.07083183 0.031264372
0002b0 c5 b1 60 bd c6 80 27 3d 70 eb 1a 3e f5 fc 06 be
       -0.054857034 0.040894292 0.15128875 -0.13182433
0002c0 4d 75 34 be 8c 9d 69 bb 2b 61 8c 3d d9 6e 2b 3e
       -0.17622872 -0.0035646884 0.06854471 0.16741504
0002d0 6e a4 b7 bc ce 64 eb 3d b5 5c 8e be 90 24 02 3e
       -0.022417273 0.11493836 -0.27805105 0.1270926
0002e0 ab b2 6e bb fc 17 cf bc 20 92 a6 bc 2a 3d 75 3c
       -0.0036422412 -0.025279991 -0.02033335 0.014968196
0002f0 f1 d7 35 3e 01 a4 eb 3c fd 95 2c be 1d 2e 49 3e
       0.17758156 0.028764727 -0.16854091 0.19646497
000300 16 92 61 3d 38 fc 40 bd 21 dc 0d 3d 80 a7 e1 3c
       0.05507096 -0.047115535 0.03463376 0.02754569
000310 df 3c a2 bd 34 df 11 3e f6 ee 44 be f9 f5 60 bd
       -0.079217665 0.14245301 -0.19231781 -0.054922078
000320 93 fb 15 3d c3 9d 08 bc 92 d8 0d 3c a5 10 3b bd
       0.036616873 -0.008338395 0.008657591 -0.04567017
000330 9b 37 b6 3d 5a cb 12 3e 39 9a 41 be b7 00 9c bc
       0.08897325 0.14335385 -0.18906488 -0.01904331
000340 6e a2 06 be eb 94 18 3d db a3 04 3d 54 95 fa 3d
       -0.131479 0.037251394 0.032382827 0.12235513
000350 63 ac 41 be 6a 34 11 be f2 c1 e1 bd 9f 63 3e be
       -0.18913417 -0.1418015 -0.1102332 -0.1859269
000360 b2 b2 e7 3c 19 b3 c5 3d bc 3b 0a be ba 5e 09 be
       0.02828345 0.09653301 -0.1349935 -0.13415042
000370 f1 8d 74 bc 95 35 03 3e 06 48 72 bd 05 f9 d3 bd
       -0.01492642 0.12813409 -0.05915072 -0.10350231
000380 28 51 22 be 51 33 1a 3d c7 75 fd 3d 71 dd 1d be
       -0.15851271 0.037646595 0.1237598 -0.15416504
000390 cc 59 e9 bd 6b b2 57 bc d0 08 d5 3d ae 9f 19 be
       -0.113940805 -0.013165097 0.104020715 -0.15002319
0003a0 88 03 ab 3c 39 d8 06 be e9 28 31 be 43 3f 03 bd
       0.020875707 -0.1316842 -0.17300762 -0.032042753
0003b0 9e 6c 10 3e bc 82 0a 3e b2 0b 69 bd 81 95 8a bd
       0.14103934 0.13526434 -0.05689592 -0.06766797
0003c0 c1 12 42 be 81 39 96 3d 49 3d 96 bd 47 80 f8 bd
       -0.18952467 0.07335187 -0.07335908 -0.12133842
0003d0 21 45 52 be d0 7f 19 be 6a 87 11 be 05 cc 1e be
       -0.20534183 -0.14990163 -0.14211813 -0.15507515
0003e0 02 94 91 bd f2 4b c0 bc e4 2f 25 3e a1 de 9d bd
       -0.071083084 -0.023473714 0.1613155 -0.07708479
0003f0 1c 34 60 bd 9e 01 34 be be bd e2 bd bd e5 85 3e
       -0.054737195 -0.17578742 -0.11071347 0.2615184

lin3.weight f4 [128, 256]
000000 c0 8e b3 bc d0 55 12 bd e8 dc f1 3c fc 61 f7 bc
       -0.021918654 -0.03572637 0.029524282 -0.03019809
000010 74 66 34 bd fc ed aa 3c 40 66 6e bc b4 cf ec bc
       -0.04404302 0.020865433 -0.0145507455 -0.028907634
000020 ce 21 54 bd 38 1b 41 bd 26 a7 58 bd a0 1a 90 3b
       -0.05179005 -0.0471451 -0.05289378 0.004397705
000030 e0 94 09 bc e4 04 ac 3c 00 f2 86 3a e8 e3 df bc
       -0.008397311 0.020998426 0.001029551 -0.027330354
000040 1c 9d 31 3d ac 2a a4 3c a4 52 b9 bc 34 bf 11 bd
       0.04336272 0.020039879 -0.022622414 -0.035582736
000050 18 cf d5 bc 10 7d 6c bd f6 46 35 bd 8c f2 40 bd
       -0.026099727 -0.057736456 -0.044257127 -0.04710631
000060 60 75 35 3b d0 01 f2 3b 12 c5 26 3d 64 c2 f3 3c
       0.002768837 0.00738547 0.040715285 0.029755779
000070 a0 e7 26 bc dc cb 1f bd 2c 76 7a 3d 78 dc 51 bc
       -0.01018706 -0.039012775 0.061147854 -0.0128089115
000080 5c 08 74 3d 50 e5 57 bd 20 38 12 3d d2 6f 1d bd
       0.059578285 -0.052708924 0.035698056 -0.03843672
000090 f8 f3 21 bc 10 0d ec bb fc f1 6d bd a4 07 6c 3d
       -0.009884827 -0.0072037056 -0.058092102 0.057624474
0000a0 8c 2c a5 bc 54 35 ac bc 64 cf ca 3c 5e 72 4d 3d
       -0.020162843 -0.021021523 0.024757095 0.050157897
0000b0 18 04 42 3d a0 c7 f8 3b 60 16 1f bc 90 13 da bc
       0.047367185 0.0075921565 -0.009709924 -0.026620656
0000c0 50 6e 8a 3b 38 35 da 3c 50 08 db bb 84 16 6c 3d
       0.004224576 0.026636705 -0.0066843405 0.05763866
0000d0 00 68 19 bd 8c d5 fe bc b2 bc 41 bd 1c 29 ae bc
       -0.037452698 -0.031107686 -0.047299094 -0.021259837
0000e0 40 d6 52 3b e0 a2 17 bb f4 52 1a bd 5c b2 89 bc
       0.003217116 -0.0023137853 -0.037676767 -0.016808681
0000f0 bc c9 4d bd a8 68 70 bd dc 42 d4 bc b6 22 2d bd
       -0.050241217 -0.058693558 -0.025910787 -0.04226943
000100 6c 42 29 3d 70 1b 42 bd 18 cd f6 3c e8 aa 39 bd
       0.04132311 -0.047389448 0.030127093 -0.045329005
000110 e4 3f af 3c 58 48 5f 3d 30 a2 05 bd 98 89 56 bd
       0.02139277 0.05451235 -0.032625377 -0.052377313
000120 b2 76 2c 3d 48 85 89 3c a0 ef 2b 3b bc 5c 3c bd
       0.042105384 0.016787186 0.0026235357 -0.045986876
000130 80 75 17 3d e0 34 34 bd 68 8a 57 bc e0 e7 f9 3c
       0.03697729 -0.043995738 -0.013155557 0.030506074
000140 60 3d fe bc 70 5e 7c 3d cc bc 60 bd 06 0b 18 bd
       -0.031035125 0.0616135 -0.05486755 -0.037119888
000150 90 21 76 bd 58 ef 34 3c 9e c2 3e 3d 18 1b d1 bc
       -0.0600906 0.011043392 0.04657232 -0.025525615
000160 80 51 6c 3d 2c a7 c4 3c bc f4 55 bd d2 5f 34 bd
       0.057694912 0.024005495 -0.05223535 -0.044036694
000170 da 3c 17 bd 6c bf 5c bd 9c b7 09 bd d8 81 1a 3d
       -0.036923267 -0.05389349 -0.03362237 0.037721485
000180 08 2b c5 bc e4 56 25 3d d4 56 7f bd c2 2c 2a 3d
       -0.02406837 0.04036607 -0.062338665 0.04154659
000190 f2 9c 7a 3d 78 39 e0 3c 28 40 3d bc 62 12 22 bd
       0.06118483 0.027371153 -0.011550941 -0.039568312
0001a0 80 7b 5a ba 98 38 30 bc e4 20 5b bd 90 1b b9 bb
       -0.0008334443 -0.0107556805 -0.053498164 -0.0056490377
0001b0 d8 80 40 3d 80 9b 83 ba c0 78 a0 bb f6 db 02 3d
       0.046997875 -0.001004085 -0.004897207 0.031948052
0001c0 e0 8d f2 bb a2 3a 02 3d 00 89 8e 3a c6 ee 10 bd
       -0.0074021667 0.031794198 0.0010874569 -0.035383962
0001d0 10 c0 f7 bc a8 0e 59 3d bc 8c 7b 3d 4c 86 a9 bc
       -0.03024295 0.052992493 0.06141351 -0.02069392
0001e0 a8 ae 28 bd 90 ce ed 3c 90 e0 3b 3c f0 62 09 bd
       -0.04118219 0.02902916 0.011467114 -0.03354162
0001f0 40 65 cd 3a e0 4e bb 3c f2 d0 61 bd 2c 9f 33 bd
       0.0015670434 0.022864759 -0.055130906 -0.04385297
000200 a8 e8 15 bd 50 a3 c2 bc 38 12 56 3d d6 e5 74 3d
       -0.03659883 -0.023759514 0.05226347 0.0597895
000210 68 a2 1c bd a4 cf aa bc e0 eb 10 3d d8 f7 45 3c
       -0.03824082 -0.020850964 0.035381198 0.012083016
000220 c8 e3 d9 3c c4 25 5d bd 8c 97 4f bd 18 8d 1b bc
       0.026597872 -0.053991094 -0.050681636 -0.009494089
000230 f8 7a 6e bd a8 4c 17 3c e0 24 58 bd 44 17 41 3d
       -0.05822274 0.009234585 -0.05276954 0.04714133
000240 ea 92 7f 3d 9c 30 63 bd 00 54 97 38 18 b3 b3 3c
       0.062395968 -0.05546628 7.215887e-05 0.021935984
000250 d4 3e 27 3d dc 9e 29 bd f4 47 1e 3d 20 a5 34 3c
       0.040831402 -0.041411266 0.03864284 0.011025697
000260 94 3f 06 bd e0 03 c2 3c 84 16 10 3d b8 ad cd bc
       -0.032775477 0.023683488 0.035177723 -0.02510725
000270 f0 33 0a 3c 68 61 02 3d 50 fe e6 3c a8 8f eb bc
       0.008435234 0.031831175 0.028197438 -0.028755024
000280 78 01 7c 3d 50 0b e7 bc 16 69 28 bd 36 03 5c 3d
       0.06152484 -0.028203636 -0.041115843 0.053714
000290 e4 88 b0 bc e6 05 69 3d ec 5e e6 3c 38 cc 80 3c
       -0.02154965 0.05689039 0.028121434 0.01572238
0002a0 04 39 29 3d 50 00 a4 bb 90 09 67 3d 90 ee 07 3d
       0.04131414 -0.00500492 0.056405604 0.033186495
0002b0 ec 6c 21 bd 42 bc 6e 3d e4 fe d4 bc d8 4b bb bc
       -0.039410517 0.058285005 -0.026000448 -0.022863314
0002c0 9a 00 02 bd 28 62 5c bd 60 2f e2 3b 36 28 31 bd
       -0.031738855 -0.053804547 0.00690262 -0.04325124
0002d0 66 06 76 3d 0a 8e 34 3d 08 94 12 bc c6 7b 7e bd
       0.060064696 0.04408077 -0.008946426 -0.06212976
0002e0 64 ed 1c 3d 54 57 4c 3d dc 88 0b 3d 1c c4 1f 3d
       0.03831233 0.04988797 0.034066066 0.039005384
0002f0 64 cc ea bc 94 46 63 bd 40 80 18 3b f0 45 f1 3c
       -0.028661914 -0.05548723 0.0023269802 0.029452294
000300 32 aa 0d 3d 90 6b 04 bc 8a 97 22 3d a0 1d dd bb
       0.03458614 -0.0080822855 0.0396953 -0.0067479163
000310 88 22 c5 3c 14 ae 32 bd 4c 3b 2c 3d a8 23 f7 bc
       0.024064317 -0.043623045 0.042048737 -0.03016837
000320 8c 99 f7 3c 7c e3 59 3d 74 21 74 3d 9c f7 37 bd
       0.030224584 0.05319546 0.059602216 -0.044913873
000330 24 41 d8 bc a0 74 af bb 54 b3 e2 bc 44 fa 58 bd
       -0.026398249 -0.005354479 -0.027673401 -0.052973047
000340 04 ad 18 bd 0c 22 22 bd 78 fb 13 3d c6 94 5b 3d
       -0.037274376 -0.03958325 0.03612849 0.05360868
000350 bc 7a 8b bc 9c bb 8c bc 38 7a 26 bd 14 ac 25 3d
       -0.017026298 -0.017179303 -0.0406439 0.04044731
000360 d0 ff d1 bc 78 69 d4 bc 16 1b 23 bd 78 3b 42 3c
       -0.025634676 -0.025929198 -0.039820753 0.011854999
000370 40 2b ba 3c c0 60 3c 3b 7c 2f b7 3c 98 7e 69 bd
       0.022725701 0.002874419 0.02236151 -0.057005495
000380 f2 a1 74 bd 98 20 84 bc bc 90 c0 3c ba 4b 01 3d
       -0.059724756 -0.016128823 0.023506515 0.03156636
000390 1c 22 4e 3d 52 85 2d 3d 3a b9 31 3d 10 74 59 3c
       0.050325498 0.042363472 0.043389536 0.0132723
0003a0 f0 a0 9a 3c b4 76 3d bd 40 8f 51 3b 84 a8 7c 3d
       0.01887557 -0.046255782 0.0031976253 0.061684147
0003b0 d4 cf 15 bd e0 cc 79 bc 24 b4 4a 3d 18 3f 47 3c
       -0.036575153 -0.0152466 0.0494882 0.012161039
0003c0 e8 13 8e 3c 92 3f 4f bd fa 87 49 3d 9a 30 55 bd
       0.017343476 -0.050597735 0.049201943 -0.052048303
0003d0 30 c5 42 3c 30 5b 22 bd d0 56 48 bd f0 14 0e 3d
       0.0118878335 -0.039637744 -0.048910916 0.034687936
0003e0 00 93 8d 3a 00 e5 4b 3d 84 9a 6c 3d 86 3c 47 3d
       0.0010801256 0.04977894 0.057764545 0.048641704
0003f0 fe 8d 7d 3d 50 2f a1 bc a0 2d 7c 3c 30 df 88 bc
       0.061902992 -0.01967588 0.015391737 -0.016707987

lin3.bias f4 [128]
000000 b8 3f 72 bd 73 88 77 bd 19 12 4f 3d 11 63 04 bd
       -0.0591428 -0.060432862 0.05055437 -0.03232104
000010 95 dd 03 bd f6 eb 0f 3d e9 8c c9 bb fe 15 04 3e
       -0.03219374 0.03513714 -0.006150831 0.12899014
000020 00 11 77 3d 3a a8 82 3d 16 f9 27 bd 69 3d 3b bd
       0.060318947 0.06379743 -0.04100903 -0.045712862
000030 fd c4 4b bd 7e b1 8b 3c 54 0d 9e bc dc d4 21 bd
       -0.04974841 0.017052408 -0.019293465 -0.03950964
000040 48 7e 83 3c 16 14 7f 3c 9d a2 c4 39 ec f0 5e bd
       0.016051427 0.015568754 0.0003750519 -0.05442898
000050 a0 6f ca bc 1e 27 4c bc ed 59 3f bd bc e4 d7 bb
       -0.02471143 -0.012460498 -0.04671662 -0.0065885466
000060 01 f5 6d bd 3d a4 75 bd 62 ae 91 bc 56 1c bf 3c
       -0.058094982 -0.059971083 -0.017783348 0.023328941
000070 6b e6 54 3d 57 79 44 3d 45 98 25 3b f8 bc 14 bd
       0.051977556 0.04796728 0.0025267762 -0.036313027
000080 7e 18 32 bd 38 59 73 bd ac cf c2 3b f2 a3 48 b9
       -0.04348039 -0.059411258 0.0059451666 -0.0001913456
000090 e9 b6 f8 3c f4 4c 7f bd 23 a5 60 bd eb 6f f2 3d
       0.030360656 -0.062329248 -0.054844987 0.11837753
0000a0 14 c6 71 bd 60 00 05 3d 08 70 65 3c 20 b3 81 3c
       -0.059026793 0.03247106 0.014003761 0.015832484
0000b0 0c 26 34 bd 80 e0 3b bb db 49 17 bc 80 24 7d ba
       -0.043981597 -0.0028667748 -0.009233917 -0.0009656623
0000c0 a3 71 38 3c 18 e6 9f bc 5e 94 0a 3d e0 38 18 3d
       0.011257562 -0.019518897 0.0338329 0.037163615
0000d0 89 84 25 3d 4f f5 5c 3d 68 f9 e9 3c f8 70 80 bd
       0.0404096 0.053944882 0.028561309 -0.06271547
0000e0 bc 9d d5 bc 4d aa 33 3d 2a e6 39 bd 00 27 78 ba
       -0.02607619 0.043863583 -0.045385517 -0.00094662607
0000f0 8c a0 25 bb c1 b1 8f bc 34 27 ca bb 50 c8 10 bd
       -0.0025272695 -0.017540814 -0.006169224 -0.035347283
000100 8e 09 e6 3c 01 a2 56 3d 93 f8 af bc da 79 58 bc
       0.028080728 0.052400593 -0.021480834 -0.013212645
000110 98 3b 4a bc 8a 22 1e bd 92 33 0c bb 06 7a 4a 3d
       -0.01234331 -0.038607158 -0.0021393043 0.049432777
000120 20 d1 7b bc 77 dc 11 bc d1 c0 18 bd 7c 95 67 3e
       -0.0153696835 -0.008902661 -0.03729326 0.22615618
000130 10 07 c2 bb 0c c7 75 bc 2a 23 b4 3c 95 d5 fe 3c
       -0.005921252 -0.01500107 0.021989424 0.031107703
000140 fd 82 1c bd 56 22 35 bd b5 1d 6c bd 86 61 47 3d
       -0.038210858 -0.0442222 -0.05764552 0.04867699
000150 f6 9c 35 bd a4 6f 60 3d bc 78 18 bd a8 98 6e bd
       -0.044339143 0.05479397 -0.037224516 -0.058251053
000160 46 de 86 bd 47 c4 c7 3c fb 0e 75 3d b6 84 86 3c
       -0.06585364 0.024385585 0.05982874 0.016420703
000170 eb 00 b6 3d 9a 0e 8f bc 4e 9b c1 3c 88 37 6e 3d
       0.08886894 -0.017463017 0.023633625 0.058158427
000180 c5 8f 0a 3d e6 51 28 3b 59 15 12 bd 5e ee b4 bb
       0.033828516 0.002568358 -0.03566489 -0.0055215796
000190 05 8f 89 3d 05 eb 52 bd 0e d4 59 bd 14 29 b0 3d
       0.06716732 -0.051493663 -0.053180747 0.08601585
0001a0 16 37 18 3d 3b d8 ba 3b 3d 60 9e 3c a0 e6 b0 bb
       0.03716191 0.005702046 0.019333 -0.0053985864
0001b0 45 c9 6c bc 70 7e 7c bd fe cf d2 bd 60 2b 8c bc
       -0.014452283 -0.061644018 -0.102935776 -0.017110527
0001c0 e2 e4 54 3d 20 b8 cf ba 92 20 32 bd 27 28 4f bd
       0.051976092 -0.001584772 -0.043488093 -0.0505754
0001d0 b0 b2 21 3d 37 eb c1 3d e1 4e ac bc 39 6c 62 bd
       0.03947705 0.09468692 -0.021033706 -0.05527899
0001e0 a8 25 6e bd c7 e5 c9 3c 8c 5e 79 bd ee 6f 86 bd
       -0.05814138 0.0246457 -0.060881183 -0.06564318
0001f0 17 45 6a 3d 78 29 2d 3d e1 08 3f 3d 93 7b c5 bc
       0.057194795 0.042275876 0.046639327 -0.024106776

lin4.weight f4 [64, 128]
000000 f5 a7 93 bd d4 97 06 3d 23 c9 b6 3c 07 4b 98 bd
       -0.0720977 0.03285964 0.022312706 -0.07436185
000010 bd 91 56 3d 35 e3 7c 3d 19 c1 96 bc 6b b5 0a be
       0.05238508 0.06174012 -0.018402623 -0.13545768
000020 94 06 f2 bc 06 bd b0 bc b7 18 37 bd d2 26 99 3d
       -0.029544152 -0.021574508 -0.044701304 0.074781075
000030 9d ed a4 bd 7a f4 9a 3d 24 18 9e 3c 8a f4 e8 ba
       -0.08053134 0.075661615 0.01929862 -0.0017773074
000040 3b ae a9 3d b3 6b ea 3c 23 0f 8e 3d 8a e7 6d bd
       0.08285185 0.028615808 0.06936481 -0.05808214
000050 8f 91 ba bd 49 e6 2b bd 2a 01 1a 3d de b9 a6 3d
       -0.09109794 -0.041967664 0.037598766 0.0814092
000060 2b bc 2b 3d f8 6d 4c 3d 27 65 9d 3d 59 ec e3 bc
       0.041927498 0.049909562 0.07685309 -0.02782266
000070 71 f7 b4 bd d3 ef 58 3b 4d 11 30 3d 6f ef 96 3d
       -0.08836258 0.003310193 0.04298525 0.07369887
000080 9c fc 81 bb 49 3f 4d bd 0c f0 19 bd 8c 0a 27 bd
       -0.003966881 -0.05010918 -0.037582442 -0.040781543
000090 b6 f8 64 bc 9a 10 3a bd 5a 29 8e bd 6d ca 96 3d
       -0.013975313 -0.04542599 -0.06941481 0.073628284
0000a0 81 05 3b 3d 96 09 e2 3c 80 10 21 3c 7e 94 a4 3d
       0.045659546 0.027592462 0.009830594 0.08036135
0000b0 2b e2 a6 3d fb 2d 14 bc 6c f4 28 3d e7 dc b2 3d
       0.08148607 -0.009044166 0.041248724 0.0873354
0000c0 eb c9 40 3d 10 ff 72 3d e2 4e 86 bd 2a db 30 bd
       0.047067564 0.059325278 -0.065580145 -0.04317776
0000d0 ea 0c 76 bd 75 c0 8f 3d 57 c2 64 bd 16 cb 7e bd
       -0.06007091 0.0701913 -0.0558494 -0.062205397
0000e0 de 2d 73 3d 67 78 55 3d 92 4c 5a bd 36 6f 07 bc
       0.059369914 0.052116778 -0.05329568 -0.008266261
0000f0 3f 26 80 3d de db 6f 3b 62 e6 48 3d b1 95 16 bd
       0.06257295 0.0036599557 0.049047835 -0.03676385
000100 10 b7 4a 3d 3e 46 a8 bd 25 4b 81 bd 86 57 82 bd
       0.04949099 -0.08216523 -0.06313161 -0.0636435
000110 a9 9b aa bd 78 ae bd bc 30 6b 9a 3d c4 37 af bc
       -0.08330471 -0.023154482 0.07539976 -0.021388896
000120 00 5b 0e bd d1 4b 25 bd e0 0a ff bc a5 8f 24 3d
       -0.034754753 -0.040355507 -0.031133115 0.040176053
000130 d3 85 8f 3d 34 05 4e 3d 6a ad 9f bd 4c 1e 6e 3d
       0.07007947 0.05029793 -0.07796748 0.058134362
000140 28 af 02 bc 43 b0 8a bc 75 de df 3c 0b 0c 94 bd
       -0.007976331 -0.016929751 0.027327755 -0.072288595
000150 f1 59 82 bd 2b 4a 12 3d c6 b0 bf 3c 16 69 e3 bc
       -0.06364811 0.035715263 0.023399722 -0.02776007
000160 71 90 86 3d 67 f9 07 bd b9 57 51 bc b0 40 c1 3c
       0.06570519 -0.033196833 -0.012777262 0.023590416
000170 cd 16 3b 3d a3 bb a8 3d 9b 9b b2 bd 83 94 9e 3c
       0.04567604 0.08238914 -0.08721086 0.019357925
000180 e7 cf 72 3d 3e ba fc bc 66 14 14 bd 72 9b 3b bd
       0.059280302 -0.030850526 -0.036152266 -0.04580254
000190 0d 50 bc 3d 1c 78 14 bd fe 31 e4 bb 63 30 f5 3c
       0.09194956 -0.036247358 -0.0069639673 0.0299303
0001a0 8c 5e 9d bd a6 3e 8a bd f8 c5 9e 3c a8 92 88 bd
       -0.07684049 -0.067502305 0.019381508 -0.066685975
0001b0 1f 80 87 bd 48 b3 a5 3d bf 93 be bb b4 90 c7 bc
       -0.06616234 0.08090836 -0.0058159526 -0.024360992
0001c0 1f 14 ae bc 45 fb a7 bd bc 75 55 3c 98 35 66 3d
       -0.021249829 -0.08202223 0.013028558 0.056203455
0001d0 f6 7c 57 bd 96 fa 0a 3c bd 9c 9e bc 4e b4 a6 bd
       -0.052609406 0.008482596 -0.019361848 -0.08139859
0001e0 de 4b ff 3c 43 c4 9c 3d 64 03 6b 3d c9 f7 76 bd
       0.031164106 0.076546215 0.05737628 -0.0602949
0001f0 3e f3 91 bd 70 56 2a bd a5 ad 62 bd 51 3b 9a 3c
       -0.07126473 -0.04158634 -0.05534138 0.018827112
000200 7b ee 99 bd 6c 45 93 bd 42 84 00 3d 2d 29 23 ba
       -0.0751619 -0.071909755 0.03137613 -0.0006224092
000210 06 4c 84 bd 2e 5b 4b 3d 9e 5d 26 3c d2 9b 4c bc
       -0.06459813 0.049647503 0.010154156 -0.012488322
000220 5a ee 43 bd 83 3c 91 bd 2e eb a8 bc cd 17 ac 3d
       -0.04783473 -0.0709162 -0.020619955 0.08402977
000230 06 16 fe bc 6a 33 e3 bb 88 9f ab bd e1 3b 4a 3d
       -0.031016361 -0.0069336193 -0.083800375 0.04937351
000240 e9 27 94 bd e9 0e 8e bb a3 52 3c bd 55 a2 a2 bb
       -0.07234175 -0.0043352735 -0.045977246 -0.004963199
000250 23 f7 1a bc 46 34 56 bc a8 c2 e0 bc 47 a8 91 3d
       -0.009458336 -0.013073986 -0.02743657 0.071121745
000260 b0 43 10 bd d5 e0 af 3d 4a 33 f0 bc 3e dd 55 3d
       -0.0352208 0.08587805 -0.029321332 0.052212946
000270 b0 a8 aa 3d e7 c8 c7 3c a8 00 14 bd da a0 92 3d
       0.08332956 0.02438779 -0.03613344 0.07159586
000280 a8 6a cd bc cf 98 3d bc b3 30 2e bc 30 0c a5 bd
       -0.025075272 -0.011572077 -0.010631728 -0.08058965
000290 f5 02 8c 3d b8 f1 d7 3c db fa 60 bc 1e 6f 9d 3d
       0.068365015 0.026360378 -0.013731684 0.076872095
0002a0 1c 97 35 3d 1b b3 ba 3c 2f 9e a4 bd d7 fc 75 bd
       0.044333562 0.022790482 -0.080379836 -0.06005558
0002b0 7d 42 89 bd 9c 20 a5 3a 17 6f c9 3c 7a ff 61 3d
       -0.06702135 0.0012598219 0.024589105 0.055175282
0002c0 56 63 10 3d bc 7d 69 bd d9 55 0a 3d 22 fc ae 3d
       0.035250984 -0.057004675 0.033773277 0.08544184
0002d0 99 0f 23 3d 2c 00 fc 3c 58 7a 98 bd 40 c3 a2 bd
       0.039809797 0.0307618 -0.0744521 -0.07947397
0002e0 60 63 a5 3d f4 56 a5 3d 3f 43 c5 3c c5 f1 cd 3c
       0.08075595 0.080732256 0.024079917 0.025139699
0002f0 56 31 a8 3d 71 6a 2c bd f8 9f 4b bc ea 89 2a 3d
       0.08212535 -0.042093698 -0.012428276 0.04163543
000300 f8 b5 b7 bd 15 ea 72 3d 9d 32 9a bd 3e 44 04 bd
       -0.08970255 0.05930527 -0.07529185 -0.032291643
000310 a1 5b 8e bb 0b be e5 bc 2c 4e ae 3d d3 f7 66 3d
       -0.004344419 -0.028044721 0.08511004 0.056388687
000320 66 79 ad bd b0 23 74 bd 47 54 30 bb 88 38 99 3c
       -0.084704205 -0.059604347 -0.0026905702 0.018703714
000330 2d 05 c2 3c 78 2c a3 bd 0d a1 37 3d c2 e1 dd bc
       0.023684109 -0.07967466 0.044831324 -0.027085189
000340 1b 46 82 3d 26 03 0c 3d d1 78 14 3d 22 71 25 bd
       0.06361028 0.03418269 0.036248032 -0.040391095
000350 79 27 05 bd 68 9a df bb 63 f2 7e bc 37 f9 60 bd
       -0.032508347 -0.0068238266 -0.015560719 -0.05492517
000360 e5 b9 83 3d 61 ba 35 3d 60 ba 57 bd 85 48 12 bd
       0.06431941 0.044367198 -0.052667975 -0.03571369
000370 09 78 1c 3d 43 3a 4c 3d a1 dd 86 bd e3 d1 3f 3d
       0.038200412 0.04986025 -0.06585241 0.046831023
000380 bf 7a 10 bd e4 56 5f bd a3 9e 12 bd 14 06 c7 bd
       -0.03527331 -0.054526225 -0.03579582 -0.09717956
000390 05 46 3e bc eb 12 62 bd 66 14 25 bd bf 2c c8 3d
       -0.011613374 -0.055193823 -0.040302657 0.0977416
0003a0 8e c7 82 bd 32 c3 ab bc b5 ce d9 bc a6 fe a7 bd
       -0.06385718 -0.0209671 -0.026587823 -0.08202867
0003b0 c2 04 99 3d 31 96 65 bd b8 f3 d9 bc 93 b1 95 bd
       0.074716106 -0.056051437 -0.026605472 -0.0730926
0003c0 07 c5 29 ba 57 5c 92 3d 40 43 2e 3d 42 50 1c 3d
       -0.0006476198 0.07146519 0.042544603 0.038162477
0003d0 e0 12 25 bd 0c f8 8d 3b ee 5a 9f bc 51 4a 9a 3b
       -0.040301204 0.004332548 -0.019452538 0.0047085662
0003e0 ec 55 80 bd 93 47 08 3d e6 29 a2 3b 95 02 7a bd
       -0.06266388 0.033271383 0.0049488423 -0.06103762
0003f0 b2 a1 a9 3d 87 4c 4a bd 8d 9a e8 bc e7 93 b9 3d
       0.08282794 -0.04938939 -0.028394008 0.09061413

lin4.bias f4 [64]
000000 25 c0 53 bd f2 b7 71 bd 22 f9 4d 3d e7 3c 58 3b
       -0.051696915 -0.059013315 0.05028642 0.0032995285
000010 48 3b 60 bc 02 97 51 3d 67 ac 50 bd 88 e3 cd bc
       -0.013686009 0.051169403 -0.050945666 -0.02513291
000020 21 35 a9 3d a2 a5 8f 3d eb ef cc bc 2c 43 57 bd
       0.08262087 0.07014014 -0.025016746 -0.052554294
000030 88 e8 b2 3d d5 5d 40 3d 10 fc d6 bc c9 b2 d2 bc
       0.08735758 0.046964485 -0.02624324 -0.025720017
000040 78 58 9e bb 54 02 06 3d 56 81 99 bd 93 c5 a2 bc
       -0.0048323236 0.032717064 -0.07495372 -0.019869601
000050 49 e4 54 3d bf 40 92 3d 68 d1 eb 3c c4 07 cd 3c
       0.051975522 0.071412556 0.028786376 0.025028117
000060 cf a1 03 39 1c ad 86 bd 0a b2 06 3d 5f d7 bd 3c
       0.00012553412 -0.06575987 0.032884635 0.023173986
000070 34 0d 00 3b 25 8c c0 bd 61 40 c9 3c 1e 01 b3 3c
       0.001953912 -0.094017304 0.024566831 0.021851119
000080 0e a8 02 bd c8 2a 8d 3c 58 e6 2b 3d 20 da f1 3c
       -0.03189855 0.017232314 0.04196772 0.029522955
000090 ec 1b 10 3d d5 aa 95 3c d0 67 30 bc fb 7f 47 bc
       0.03518288 0.018269936 -0.010766938 -0.012176509
0000a0 26 bf 84 bd cd d3 4e bd cf 41 92 3c 24 df 0b 3d
       -0.06481771 -0.050494958 0.017853646 0.03414835
0000b0 ec a8 e6 bb 5e e2 70 bd 47 95 af bd 5e 00 16 bd
       -0.00703918 -0.05880963 -0.08573394 -0.036621444
0000c0 9d 74 12 bd ec ae 2b bd 54 be 0e 3d 51 ba 85 3d
       -0.035755742 -0.041914865 0.03484948 0.06529678
0000d0 31 02 08 3d 1c 00 4d 3c 05 3e bd 3c fe e6 c3 bc
       0.033205215 0.012512233 0.023100862 -0.023913857
0000e0 cc d5 a2 3d 48 ca e9 ba b7 a8 7e bd e3 dc 87 3d
       0.07950935 -0.0017836774 -0.062172618 0.06633928
0000f0 a9 78 e1 3c b1 7a 80 bd f6 70 86 3c 87 8f 7f bd
       0.027523356 -0.062734015 0.016411286 -0.062392738

lin5.weight f4 [19, 64]
000000 ed 8c df 3d fd 47 80 3d f9 8c 62 bc 58 9f 6a bd
       0.10915551 0.06263731 -0.013827556 -0.05728087
000010 66 ed c1 bd 9c 3b f1 3d 34 2a 2f 3b 81 73 b7 bd
       -0.09469108 0.11778948 0.0026728036 -0.089575775
000020 34 a3 de 3d a2 c2 7a 3d d1 09 97 bd 00 e8 e3 bd
       0.10870972 0.061220773 -0.07374919 -0.11128235
000030 ee 32 e0 bd c5 c5 54 bc 6e 5f 32 bd 06 e2 be bd
       -0.10947214 -0.012986605 -0.04354804 -0.09320454
000040 e1 66 9c bc bf fe ae 3c 79 bf b5 3d 23 34 8b 3a
       -0.019092025 0.021361707 0.08874411 0.0010620396
000050 19 a0 9b 3d 4b 29 e6 3c 97 c6 5f 3b da 9a a1 bc
       0.075988956 0.028095862 0.0034145468 -0.01972716
000060 18 53 b8 3c 38 dc 6a 3d dc 57 e3 3d bb ca ad 3d
       0.02250056 0.057338923 0.11100742 0.084859334
000070 5d 3e 97 3c 17 68 6c 3d a5 e9 de bd e7 d3 f1 3c
       0.018462354 0.057716455 -0.10884408 0.029519988
000080 12 10 b2 3d 51 0d 00 bd a7 ed fb 3c 37 37 16 3d
       0.086944714 -0.0312627 0.03075297 0.03667375
000090 f4 7b d0 3c 79 26 be bd 11 28 e6 bd a8 0f 9b bd
       0.02544973 -0.09284682 -0.11238111 -0.075713456
0000a0 ab e8 59 3d c6 b8 bb 3b f0 9a ad 3d 2d 7a 8b 3d
       0.053200405 0.005728814 0.084768176 0.068104126
0000b0 71 99 fa bd 2f 5f 04 bd e9 d8 4b bd 77 ab f0 3d
       -0.12236298 -0.032317337 -0.04976741 0.11751454
0000c0 89 45 7b bc d4 04 47 3c 0c ad af bc 96 94 b8 3d
       -0.015336403 0.012147147 -0.02144482 0.090127155
0000d0 46 29 81 bd da e7 8e 3d b6 d4 f7 3c 68 92 99 bc
       -0.063067004 0.06977816 0.030252796 -0.01874657
0000e0 35 49 cf bd 5c 20 d7 3c 7e cb 28 bd 15 d2 ce bd
       -0.10121385 0.026260547 -0.04120969 -0.10098664
0000f0 1a 1d ac 3d d5 b6 aa bd 4b 74 99 bc 20 97 8c bd
       0.08403988 -0.08335654 -0.01873221 -0.06864762
000100 d9 e0 97 3d 21 a2 8b bc f8 54 85 3d 8b 28 c8 3d
       0.07415933 -0.017045083 0.06510347 0.09773358
000110 0f 32 cc 3d 7f 7b 0c 3d de 5b ef bd 28 44 ad bb
       0.099704854 0.034297463 -0.11687444 -0.005287666
000120 4b 58 b3 3b c3 6d ea 3d 2c ad e3 3d 88 a5 e3 bd
       0.005473172 0.11446717 0.11117014 -0.11115557
000130 26 84 af bc 96 a5 ea bd bc bb d7 3d cb 0b 91 3c
       -0.021425318 -0.11457364 0.10533854 0.017705819
000140 1d 1f ec 3d da ad 52 bc 14 5a ce bd 7d f3 b4 3d
       0.11529372 -0.012858832 -0.10075775 0.08835504
000150 23 a7 7c 3d 9b bf e9 bd 37 57 c0 bc cf c8 62 3c
       0.06168283 -0.11413499 -0.023479087 0.013841822
000160 e3 56 a9 bd ab ed a5 bd 87 8d d4 bd 24 59 cf 3d
       -0.082685255 -0.08101972 -0.10378557 0.10124424
000170 94 5f ab 3d 73 22 d4 bd 77 80 fb bc 62 03 ca bd
       0.083678395 -0.10358133 -0.030700905 -0.098639265
000180 b8 99 79 bb ba 4f 83 bd e6 cf b1 3d 0a 5f 22 bb
       -0.0038086008 -0.06411691 0.086822316 -0.0024775886
000190 f5 13 ab 3d b2 ea 07 3c 23 30 ff 3d d4 03 8b 3d
       0.08353416 0.008295702 0.12460353 0.067878395
0001a0 50 f4 e1 3d a5 52 41 bd 13 5e 08 bd 60 32 e7 3d
       0.11032927 -0.047197957 -0.03329284 0.11288905
0001b0 2a 42 d1 bd 58 6e f7 3c 7c 22 b9 bd 0f 37 95 3c
       -0.10217698 0.030203983 -0.090397805 0.01821473
0001c0 21 7a ac bc b5 f3 ae bc f0 6d f3 bd bb 4e 51 3d
       -0.02105433 -0.021356443 -0.11886203 0.051100474
0001d0 28 16 70 3d c2 8c 56 3b 92 81 09 bb b4 cc 8b 3d
       0.05861488 0.0032737707 -0.002098177 0.068261534
0001e0 6d f8 8a 3d 36 2f 05 bd 4d 93 dd 3d 1d b8 ce bd
       0.06785665 -0.032515727 0.10819111 -0.100937106
0001f0 88 a4 37 3d 19 9d 84 bd 4b 8d 0e bd 3e 64 c9 bd
       0.044834644 -0.064752765 -0.034802716 -0.09833573
000200 cc 29 59 3d 4f 8f d6 bb 3b ca fe 3d a1 54 eb bd
       0.053018376 -0.0065478454 0.12440916 -0.11490751
000210 2b 19 87 3d 44 5e ed bd 97 82 b5 3b 00 08 f5 bd
       0.06596597 -0.11590245 0.005539249 -0.119644165
000220 28 74 87 3d da 70 94 3c d7 de e9 3d 32 b1 c1 3d
       0.06613952 0.018120218 0.114194565 0.094576254
000230 21 07 82 3d 56 89 8d bd 72 29 ea bd 88 86 e9 3d
       0.06349016 -0.069109604 -0.11433686 0.11402613
000240 68 4d 6e bc d6 b9 54 3d a4 c8 c1 3d 37 88 4c 3c
       -0.014544822 0.05193504 0.09462097 0.012483648
000250 55 12 eb bd df c2 da bd 2c b2 f5 bd 0d b7 e9 3d
       -0.11478106 -0.106817 -0.11996874 0.11411867
000260 20 bc d4 3c 64 3d f0 3d 6c 43 ab 3d b7 b3 58 3d
       0.025968611 0.11730459 0.08362469 0.052905764
000270 60 72 c2 3d b9 8b 97 bd 75 72 d4 3c 3d 38 d3 3d
       0.094944715 -0.07399697 0.025933484 0.10313461
000280 42 53 9c 3d 08 c0 6c bd 48 5e 6d bd 8f 7d c3 3d
       0.07633068 -0.057800323 -0.05795124 0.09545433
000290 09 7c 7b bd 26 66 35 bd 9a bb b1 3d 39 6b bb bc
       -0.061397586 -0.04428687 0.0867836 -0.022878276
0002a0 78 74 71 3d 7e 7f 00 3e cc 4d 90 bc e5 f3 0e 38
       0.058948964 0.12548634 -0.017615221 3.4082583e-05
0002b0 66 b5 a2 3d 9d 87 4e 3d a3 99 c8 3d 04 77 eb 3d
       0.07944755 0.0504223 0.09794929 0.1149731
0002c0 46 c3 97 3d 4a 37 62 3c 83 f4 46 bc b8 da b2 3d
       0.07410292 0.013807127 -0.012143257 0.087331235
0002d0 52 51 e5 3d 16 c3 d4 3c bd 6b 56 bc 38 1f 47 3d
       0.11197151 0.02597193 -0.01308721 0.048613757
0002e0 c3 8a 3a 3c 84 70 a9 bb dc eb bb 3d c0 f5 e2 3c
       0.011385622 -0.0051708836 0.09175846 0.027705073
0002f0 a2 b4 af 3d b4 c8 d4 bd a4 53 c2 3d ae 7b a7 bd
       0.08579375 -0.103898436 0.094886094 -0.08177887
000300 90 b9 6d bd ff 26 ac 3d 37 c4 85 3a e6 f7 2b bd
       -0.058038294 0.084058754 0.0010205571 -0.04198446
000310 a5 95 d5 3d 37 5e ae bc d5 42 83 bd 09 18 80 bd
       0.10428933 -0.02128516 -0.064092316 -0.06254584
000320 3d 83 b7 3d ef ac dc bd b4 b6 e4 bc 1b 7f ac 3d
       0.089605786 -0.10775172 -0.02791915 0.08422681
000330 14 6d b7 3d fc c7 ca bd b5 dd c4 3d a3 f6 3d bb
       0.08956352 -0.09901425 0.096126 -0.0028986118
000340 9d ed 49 3d 5c 27 50 3c 02 d6 69 bd ce 9c 0c 3d
       0.04929887 0.0127046965 -0.05708886 0.034329228
000350 34 bc e3 3d a9 27 42 bd 03 bb 44 bd df ad 67 bd
       0.11119881 -0.047401104 -0.04802991 -0.0565623
000360 71 a6 43 3d b2 4d e7 bd d7 21 44 3b 95 08 ba 3d
       0.047766153 -0.11294116 0.0029927397 0.09083668
000370 2b 0e 44 bd b1 1c f3 bd 49 9b ab bd c2 f7 ed bd
       -0.047865074 -0.11870707 -0.08379228 -0.11619522
000380 1e 37 c1 bd 45 e5 ea 3d 77 e3 db bd aa 31 be bd
       -0.09434341 0.11469511 -0.10736745 -0.092868164
000390 e4 43 d9 3d 48 21 93 3d 76 4e 1c 3d f4 be dd bd
       0.10608652 0.07184082 0.038160764 -0.10827437
0003a0 f4 d6 b6 3d c3 f6 e8 bc d3 07 ce bd 10 a0 98 3d
       0.08927718 -0.028437978 -0.10060086 0.074524045
0003b0 5c d6 b9 3d 0a 8d 80 3d fa fe fa 3c 91 6d c6 3d
       0.09074089 0.06276901 0.03063916 0.09688867
0003c0 80 41 4b 3d 7e 7b f7 3d 55 ab 14 bd 08 f9 c6 bd
       0.049623013 0.12084101 -0.036296207 -0.09715468
0003d0 38 e8 40 3b 13 85 bc bd 1e b3 ab 3c 22 08 a1 3d
       0.0029435288 -0.092050694 0.020959433 0.07862879
0003e0 06 28 ab 3d a4 94 86 bc fa cf ea bd ac 58 3c 3d
       0.08357243 -0.0164283 -0.1146545 0.045983
0003f0 00 49 af 3d 1a 33 af bd e3 f7 ba 3c ec da 80 bd
       0.085588455 -0.08554669 0.02282328 -0.06291756

lin5.bias f4 [19]
000000 f4 f7 da bc 24 26 82 3d 1a 28 a7 bd 99 9e 97 3d
       -0.026729561 0.06354931 -0.08161946 0.07403297
000010 09 10 21 3d 40 d6 e6 3d ab c5 78 3a 00 04 d4 bc
       0.039321933 0.11271334 0.0009489904 -0.025880814
000020 cd 48 1f 3d 04 b4 28 bd a1 19 d5 3d ed 9f 83 bd
       0.038887788 -0.0411873 0.10405279 -0.06426988
000030 9c 1f 88 bd 4b 8a 82 bd 33 ba c4 3c a7 9b 0f 3d
       -0.06646654 -0.063740335 0.024014568 0.03506055
000040 1c f9 7b bd a4 02 3b 3c 37 71 f9 3d
       -0.061516866 0.011414204 0.12179797
