src/virtuose_teleoperation/network_controller/trained_policy_MLP/Grasp_norm_BC_AHEE_epoch_102_delta_q.pth (torch, 200527 bytes, 8 tensors)

lin1.weight f4 [256, 27]
00000000: 010c e3b6 a78f f336 222e 1436 409b 08b7
00000010: 6da5 69b7 6214 1bb5 786a 1935 fe6d c535
00000020: ce65 3337 e159 a436 36b0 47b4 c353 c035
00000030: 7d30 3637 8365 c136 eba2 02b4 8903 1336
00000040: 0f03 4e37 84ad 1c37 5151 05b5 531b bd37
00000050: dd54 9fb4 7f9b 0036 834c 72b6 91a1 4439
00000060: aa1f 33bc 5af3 463c fb09 0d3b c009 1d09
00000070: 53b0 b107 656f 2d08 614e 0509 979a a405
00000080: 80a3 5288 6382 7887 c4a8 d887 df12 138a
00000090: e80c 3588 0fe5 a508 6fe6 ba09 bc05 b289
000000a0: 5aea 2507 5d45 0287 0fb6 7e08 8baa af08
000000b0: 6ae3 3987 f05e cc89 d68c 4a89 e39c 1e09
000000c0: 3d11 a407 2a06 b608 2d4c 738b 9f3e f98b
000000d0: 277e a28c c41e f40b 971a 2638 007a 36b8
000000e0: 964b 69b7 0c8b 3c38 c34c a238 cc97 5536
000000f0: 2788 69b6 db87 53b7 4593 8ab8 514e f2b7
00000100: bd5d 23b6 de04 31b7 d0af 64b8 fbb3 deb7
00000110: 468d bd34 8d8c 82b7 783e 67b7 b646 4ab8
00000120: 7b72 9f35 2682 07b9 a0f4 8337 ce99 37b7
00000130: 4070 0838 bf29 1abd 76a7 343c 8bbf 8c3c
00000140: a4bd 3e3c 2427 8239 a81a 71b8 6c97 c835
00000150: 71af 15b9 b134 fe39 c430 09b5 fce3 1235
00000160: 4a43 ab34 ef63 fabb e037 ef3a f0d3 a736
00000170: 1d26 d735 031a 973c 0ec6 e7ba 1dba 0236
00000180: abbd 8e35 d8cd d6ba bb36 8fbb 9a25 28b6
00000190: f7a8 f4bc c518 72b6 9f62 02b8 2c28 12b6
000001a0: 1f97 a13d d54f 1dbe 2a3b d03d 59c7 f43d
000001b0: ed0f 4ab9 9b1d 5239 2999 8338 af7c 4bb9
000001c0: 98f7 adb9 4ce3 62b7 3ee8 8d37 88cf 1338
000001d0: 7df7 7739 7e51 1a39 470c 22b6 389a 4238
000001e0: 6132 8139 08c7 0639 ef95 d8b6 284e b738
000001f0: c7a4 9d39 a381 8239 9182 adb7 689d 033a
00000200: ca36 1c37 7c9c d238 c1a1 b8b8 86d9 23bb
00000210: 3811 bcba 6696 963b 90f7 233c 6e03 0000
00000220: f800 0080 a10e 0080 8c07 0080 1526 0080
00000230: 3130 0080 b112 0080 5836 0080 9d1e 0000
00000240: e505 0080 c136 0000 5436 0080 1e1b 0080
00000250: 5922 0080 1815 0000 5e0c 0000 6712 0080
00000260: 9409 0000 4210 0000 4614 0000 4330 0000
00000270: 5b16 0080 d117 0080 4188 20a2 f4c8 5998
00000280: 5814 0000 0006 0080 afc2 beba 82eb d73a
00000290: e0be d739 b078 0dbb b1fd babb f331 d0b8
000002a0: 2727 d538 966f 9539 71ad 163c 9a26 053b
000002b0: 1a66 b333 06ee 9939 cc6a ae3b 767d 8d3b
000002c0: 9b6f 4238 a388 de39 5cc9 343b c6ed 803b
000002d0: ba45 c5b8 e7ef d93b 7a79 2138 15fd 0a3a
000002e0: 2cef 12ba e444 053d 2c51 98bd 4924 2e3c
000002f0: 77c3 0f3e 9d71 5f8a 5fd1 dc0a d4d5 150a
00000300: 5f7a 640a a189 588a 8d6a 1289 6beb 1609
00000310: 9f81 8109 0c50 1c0a 056e ac09 6916 4587
00000320: bae5 df09 6098 430a 03f6 d409 226e 2187
00000330: 5f5a 5609 a1b6 518a 6d29 530a 8051 5d88
00000340: 3dda de0a cb4b 2508 da23 3b0a 8fff 268a
00000350: 7083 bb8b 3d35 fa0c 0a0b 250d ac14 e50c
00000360: 2dbb 56b9 c029 7039 6156 ac38 fd22 81b9
00000370: 6298 e3b9 49f2 c9b7 666a c137 cf1f 9638
00000380: 072b bc39 9b4b 4339 0613 1bb8 d6cc 8638
00000390: a493 bc39 f5d9 4639 2421 dfb7 4c72 b838
000003a0: 0249 e639 f8c6 ab39 d817 06b8 019a 443a
000003b0: 0fdd 8936 9553 c538 824e e9b8 1c88 703a
000003c0: d760 a53c a0ba 1a3b c41f d23b 0e8b b53b
000003d0: bc6a 6cbb 77f1 b637 a04b 253c d8f8 1abd
000003e0: 584c cdb6 db5e d036 b8f3 2638 4ed5 5d3c
000003f0: dd8e 42bc 90fb 2536 f28a 0d38 5409 63bc
-6.7665246e-06 7.2586877e-06 2.2080571e-06 -8.142379e-06 -1.3926398e-05 -5.777166e-07 5.7151874e-07 1.4709656e-06
1.0692935e-05 4.898044e-06 -1.8597424e-07 1.4329493e-06 1.0859335e-05 5.7636657e-06 -1.2166463e-07 2.1906765e-06
1.2279269e-05 9.338724e-06 -4.966469e-07 2.254328e-05 -2.9677804e-07 1.9163997e-06 -3.6105346e-06 0.00018752205
-0.010932842 0.0121429805 0.0021520841 1.8902772e-33 2.6735634e-34 5.2191237e-34 1.6046146e-33 1.5479273e-35
-6.338677e-34 -1.8695764e-34 -3.259926e-34 -7.081342e-33 -5.4482877e-34 9.984428e-34 4.499457e-33 -4.2857334e-33
1.248209e-34 -9.800497e-35 7.6649354e-34 1.0572524e-33 -1.3984684e-34 -4.9200492e-33 -2.4381086e-33 1.9092326e-33
2.468611e-34 1.0955176e-33 -4.6857406e-32 -9.6005533e-32 -2.5035977e-31 9.403167e-32 3.9602248e-05 -4.3505803e-05
-1.3905481e-05 4.495219e-05 7.73906e-05 3.182783e-06 -3.4798957e-06 -1.2608211e-05 -6.607784e-05 -2.8885117e-05
-2.4343456e-06 -1.0551155e-05 -5.4523174e-05 -2.6548272e-05 3.5306783e-07 -1.5562657e-05 -1.3783218e-05 -4.8226408e-05
1.1879741e-06 -0.00012923087 1.573033e-05 -1.094346e-05 3.2529468e-05 -0.03763747 0.011026254 0.017181179
0.011641894 0.00024824694 -5.7483703e-05 1.4945231e-06 -0.00014275104 0.00048485913 -5.110744e-07 5.4721e-07
3.190019e-07 -0.0076413075 0.0018250905 5.0016606e-06 1.6029841e-06 0.01844502 -0.0017682926 1.9479842e-06
1.0635025e-06 -0.001638825 -0.004370538 -2.5055838e-06 -0.029865725 -3.6075228e-06 -3.1086263e-05 -2.1779078e-06
0.07890152 -0.15362485 0.10167535 0.11952085 -0.00019270154 0.0002003819 6.275095e-05 -0.00019406037
-0.00033181603 -1.3523571e-05 1.6916656e-05 3.524081e-05 0.00023647952 0.00014716943 -2.4147027e-06 4.639683e-05
0.00024642333 0.00012853381 -6.454756e-06 8.740678e-05 0.00030068142 0.0002489212 -2.0684007e-05 0.0005020709
9.311081e-06 0.00010042728 -8.803933e-05 -0.002500148 -0.0014348393 0.0045955656 0.010007754 1.23e-42
-3.48e-43 -5.248e-42 -2.707e-42 -1.3661e-41 -1.7288e-41 -6.705e-42 -1.9495e-41 1.0982e-41
-2.115e-42 1.9642e-41 -1.9489e-41 -9.728e-42 -1.2322e-41 7.567e-42 4.437e-42 -6.602e-42
3.436e-42 5.832e-42 7.273e-42 1.7313e-41 -8.02e-42 -8.544e-42 -2.1756176e-18 -2.8148048e-24
7.298e-42 -2.152e-42 -0.001455387 0.0016473385 0.0004115021 -0.0021586828 -0.005706512 -9.927517e-05
0.00010163924 0.00028502633 0.009196625 0.0020317198 8.353909e-08 0.00029359775 0.00532279 0.0043179346
4.6357145e-05 0.00042444942 0.002758584 0.003934595 -9.4066796e-05 0.006650913 3.8498525e-05 0.00053019944
-0.00056050974 0.032536402 -0.07437357 0.010628768 0.14039408 -1.0758428e-32 2.1263986e-32 7.214306e-33
1.1000816e-32 -1.0425907e-32 -1.762421e-33 1.8166286e-33 3.1177515e-33 7.526182e-33 4.1510956e-33 -1.4827219e-34
5.390133e-33 9.417567e-33 5.126849e-33 -1.2144659e-34 2.5801805e-33 -1.0097333e-32 1.0167072e-32 -6.660057e-34
2.1459915e-32 4.9741976e-34 9.0104654e-33 -8.0406745e-33 -7.2227545e-32 3.855064e-31 5.085784e-31 3.5295478e-31
-0.00020478359 0.00022903737 8.2176884e-05 -0.00024630866 -0.00043410348 -2.407389e-05 2.3056939e-05 7.158482e-05
0.00035890212 0.00018624814 -3.6972597e-05 6.4277716e-05 0.00035968155 0.00018963947 -2.6599104e-05 8.795093e-05
0.00043923414 0.00032763905 -3.1970296e-05 0.0007499755 4.108653e-06 9.4092604e-05 -0.00011124929 0.00091755553
0.020187778 0.0023609772 0.006412478 0.0055402583 -0.003607436 2.1808532e-05 0.010088831 -0.037834972
-6.1183637e-06 6.2099257e-06 3.9804465e-05 0.013539625 -0.011874882 2.4733345e-06 3.3746423e-05 -0.0138572045

lin1.bias f4 [256]
00000000: 23b3 8537 070d b189 180e b9b8 157c 4dba
00000010: 0881 cc39 f526 0080 b790 483c b5da 3c0b
00000020: b2a4 023a fc21 37bd bb52 658d 6e5b 293d
00000030: 3e5e 1abc 3256 201f 612a 023a 2f15 0080
00000040: e6e1 053b e1fb b2b6 10ca 8cbb 2808 22bb
00000050: d067 48b9 bfcd cd3b f887 963c 6e17 0000
00000060: eaf7 c63b 033a 2c2a 3a72 bfbc df03 c4bc
00000070: 08ed 413d 97a6 773b 5af3 1e3c ffd0 b93c
00000080: b4aa 7cba 2202 0000 376e 813a 7be7 593a
00000090: 5bfd 063b bac4 ecba 1d1e 1d3b 1cf6 043a
000000a0: 141d 0000 f361 f63c 7179 583a 87e1 5296
000000b0: 8603 74bc 62b8 6d3a c0a1 30bc c895 5c39
000000c0: 7d87 8fb8 17d8 7fbb d9f0 93bb 45d3 3039
000000d0: eb5b d1bb cd38 433c c3fd abbb c0ca 13ba
000000e0: 3a9c edba e109 343b a911 8d0c a182 a93c
000000f0: 057d 8ebc 22ff 1535 d4dc cf3b 7c71 623d
00000100: d476 a839 da39 212b c846 fa38 390d 833c
00000110: 4030 92bc 5a40 5739 c343 85bc 4e7a c9bc
00000120: ee7a a33a 54f9 01b8 c713 e6b4 ac69 b63b
00000130: b107 0000 b964 08bb 6e62 7cbc fa56 0fb4
00000140: acbf 463b af96 303d a2ab 96ba c919 253c
00000150: 3fd7 d339 2ebb 0c3d d22d 1eba 8e36 da3c
00000160: 5480 c6a2 a676 e13b 913d 6e3d 42fb 633d
00000170: c7ad 2236 f945 0eb9 9b75 4e38 0f14 2d3d
00000180: 506f aebb de05 0080 ebde 3fad 4c18 a1b7
00000190: 23e0 ae39 cc17 bfba 4d72 f437 f201 0080
000001a0: e31e 0080 6a5b cb3a e7ee 2b3d e405 4c39
000001b0: 9a6f a738 cd66 043b a3f6 3987 9408 0080
000001c0: a81c 003a 8285 2f18 16ce 98bc 57d5 9732
000001d0: eacd 1239 0073 ad3a 2599 313d 146f 4eaa
000001e0: 5dac 183c 719f 2f3b e4db 9aad ced5 b330
000001f0: f043 c93c df08 0bbb 2a36 27bd b535 2d3b
00000200: 2729 233b a597 c8bc fa59 913a 6143 5f3a
00000210: 967f f833 02d9 402b 03e8 9639 7566 ad1f
00000220: 7b8e 503d 3057 7c3b 5b53 fe3a 560b 0000
00000230: a3d9 11bd 7eca bf3b ba8f 9d38 eebb d739
00000240: f011 0080 d5c7 0fbd aa05 9a39 e80d b3bc
00000250: 315b cf3b 2e8c 0520 b67d a828 b58f a22f
00000260: 2756 c5bb a925 25bc e53a 2b3c 6268 2539
00000270: 98bd b6a9 6e9b 8fbc d941 8736 5d52 b7bb
00000280: 6ff7 a038 2e93 13bc ae4b ec39 82f6 fcb4
00000290: 02ca 8d3c ef81 beba afce d13a 67b9 723c
000002a0: 67fe 023d 3201 edbc d376 7c39 0413 43bd
000002b0: ddcf bfba c19b d600 590f fbba a64b 66b2
000002c0: be35 51bc 7903 0000 5283 53b6 e00f b2bd
000002d0: 5774 bc3a c3c9 453d f6ae dc3c c32a cf3c
000002e0: 4598 4838 9d5b 943a 39c3 bbbd ba82 7e3b
000002f0: 7fb3 01bd 526a 503d aef4 0b32 0a63 96bc
00000300: 35e0 0abc 3404 0000 3e57 3bad 3798 33bd
00000310: ae89 ebb7 a389 be3c 4ef7 5189 614e 1bb4
00000320: 9c58 ab34 2b85 a93a a607 0000 0e8c c63a
00000330: d4a5 333c b253 bbbc b4c5 373a 2e04 0000
00000340: ca5b 88bc 84ea 613c 213c 8c39 d207 0000
00000350: 234c 6b3a 1bda 4cbd 0922 0080 cff7 0e3c
00000360: 3799 053b 606a 5519 1f4a 293a e371 103d
00000370: 2765 a539 f386 913a 6536 a5bd 1cda b4bb
00000380: 085f 8639 1e62 0936 b7c6 a3bd 1857 883d
00000390: e3b7 87bb aa87 6db9 6abc 02b7 3145 8c3a
000003a0: eadd dd36 dfb8 90bd e645 fab5 a677 24b7
000003b0: e3d3 5a39 39a8 3ebc 614c bb15 7589 ed38
000003c0: c519 0fb9 b3ff 14b1 79da d833 6f0d 693a
000003d0: f5d0 301b a263 8b3d 164f 48bc 0744 e83c
000003e0: d1cf 0c38 33ef 349a bff9 b13a ffab 2108
000003f0: d9d0 01bb 40d5 4a3d bed5 99b1 40ff 3a31
1.5938253e-05 -4.262345e-33 -8.8241126e-05 -0.0007838619 0.00039006048 -1.3975e-41 0.012241534 3.637202e-32
0.0004983648 -0.044710144 -7.0665656e-31 0.04134696 -0.009421883 3.3952617e-20 0.00049654214 -7.599e-42
0.0020428835 -5.334136e-06 -0.0042965487 -0.00247241 -0.0001911216 0.0062806304 0.018375382 8.405e-42
0.006072034 1.5296796e-13 -0.023369897 -0.023927627 0.04734519 0.0037788504 0.009701574 0.022682665
-0.0009638474 7.65e-43 0.0009874766 0.00083123863 0.002059779 -0.0018064 0.0023974248 0.00050720735
1.0431e-41 0.030076003 0.0008257842 -1.7034829e-25 -0.014893418 0.00090683077 -0.010780752 0.00021036633
-6.844008e-05 -0.0039038712 -0.0045147953 0.00016863372 -0.0063891313 0.011915398 -0.0052487566 -0.0005637817
-0.0018128224 0.0027471709 2.1735119e-31 0.020692172 -0.017393598 5.587809e-07 0.0063434634 0.05528401
0.0003213199 5.7278975e-13 0.00011934113 0.015997516 -0.017845273 0.0002052797 -0.016267663 -0.024594452
0.0012472549 -3.09882e-05 -4.2855228e-07 0.0055667963 2.759e-42 -0.0020811989 -0.015404327 -1.3349555e-07
0.0030326648 0.043112453 -0.0011495242 0.010076948 0.00040405427 0.034358196 -0.00060340494 0.026637342
-5.380388e-18 0.006880599 0.058164183 0.05565954 2.4241033e-06 -0.00013568242 4.9223756e-05 0.042255457
-0.005323328 -2.105e-42 -1.0906591e-11 -1.920401e-05 0.0003335486 -0.0014579236 2.9140292e-05 -6.98e-43
-1.108e-41 0.0015514914 0.041975882 0.0001945715 7.983968e-05 0.0020202876 -1.3990333e-34 -3.077e-42
0.00048870826 2.2685624e-24 -0.018652957 1.767573e-08 0.00014000354 0.0013233125 0.04335894 -1.8335013e-13
0.009318438 0.0026797915 -1.7605424e-11 1.3084731e-09 0.024568528 -0.0021215004 -0.04082314 0.0026429717
0.0024896355 -0.024486372 0.0011089437 0.0008516815 1.1571608e-07 6.851326e-13 0.00028783092 7.343785e-20
0.05091713 0.0038504116 0.0019403504 4.067e-42 -0.035607945 0.0058529964 7.5131145e-05 0.00041148014
-6.435e-42 -0.035102684 0.0002937739 -0.021857217 0.0063280095 1.131192e-19 1.8706265e-14 2.9569738e-10
-0.006022233 -0.01007978 0.010451053 0.00015774512 -8.115313e-14 -0.01753017 4.030979e-06 -0.0055945353
7.6754826e-05 -0.009007258 0.00045069813 -4.7118016e-07 0.017308239 -0.0014534573 0.0016007031 0.014814711
0.0319809 -0.028931234 0.00024076858 -0.047625557 -0.0014634092 1.970867e-38 -0.0019154354 -1.34049625e-08
-0.012769161 1.246e-42 -3.1517889e-06 -0.08694434 0.0014377934 0.048288118 0.026938897 0.025288945
4.7825528e-05 0.0011318807 -0.09168095 0.0038835243 -0.03166532 0.050882645 8.146499e-09 -0.018357772
-0.008476307 1.508e-42 -1.0649091e-11 -0.043846335 -2.8078295e-05 0.02325899 -2.5273742e-33 -1.4464014e-07
3.1915704e-07 0.0012933364 2.744e-42 0.0015147941 0.0109648295 -0.022867057 0.0007010356 1.5e-42
-0.016645331 0.013788823 0.0002674768 2.805e-42 0.0008975884 -0.05001269 -1.221e-41 0.008726074
0.0020385513 1.1033324e-23 0.0006457883 0.03526486 0.00031546617 0.001110284 -0.080670156 -0.0055191647
0.00025629275 2.0471703e-06 -0.07996886 0.06657237 -0.004141794 -0.0002265262 -7.792472e-06 0.0010701773
6.6121474e-06 -0.07066511 -1.8646795e-06 -9.80302e-06 0.00020869034 -0.011636787 7.5649203e-26 0.00011326644
-0.00013647143 -2.1682183e-09 1.0098024e-07 0.00088902464 1.4625896e-22 0.06806113 -0.012225887 0.02835275
3.3572145e-05 -3.741635e-23 0.0013578458 4.8651356e-34 -0.001980832 0.049519777 -4.4771857e-09 2.7211655e-09

lin3.weight f4 [128, 256]
00000000: 7906 0080 b81e 0000 8539 c8b3 dd21 0cbc
00000010: f57e 1032 dc01 0080 b910 0080 b31d 1e21
00000020: 95f8 fa2c fb02 363c a1e6 0000 af7a 2d3d
00000030: 1b1b b6bb b40f 0080 e834 ecb7 9e01 0080
00000040: 5b33 c7bb dd1e 0000 2610 8fb7 c529 49bc
00000050: 0afb 6736 ae43 9cbc dc01 563c 8e1b 0000
00000060: 04c8 33bd df39 0000 d082 c73c 777b c03c
00000070: 6d76 97bb 973c c3bc 9981 16bd 9d75 aebc
00000080: 0b5c 333a 3a16 0080 f743 a1bc 1a54 f634
00000090: 9042 7b3c a929 b93c 9613 803b 2930 db3c
000000a0: 3202 0000 5655 82bc 5444 ef33 b01a 0080
000000b0: 231e 9ebb b70c 0000 2521 e23a 0991 7616
000000c0: 3356 eeb2 05f5 b03a 80c6 43bc 2129 0130
000000d0: 33b9 c53c 46c7 8fbc 2743 58bc 4f6b b23c
000000e0: 679a 9b3c 0d65 03bb e110 0000 a7d9 1abd
000000f0: 8733 52bc 643d 482e 7f1e 0b3d 846f 67bd
00000100: dbc3 03b9 ee1c 0080 0649 75ab c796 19bd
00000110: 55a6 abbc 7409 0000 c586 10bc 3bc7 093d
00000120: 8e78 1b3c 4b74 5736 8bf0 5ab3 064a 84bc
00000130: 651d 0080 c907 543a 5c9d 23bd 1580 d306
00000140: e77f 4f3d db2f 80bc 431e 823a 754f f03c
00000150: 0a02 0080 7e3a 213d 10a1 403b 73d2 1bbd
00000160: ea10 0000 fba0 c33c dff3 1d3d fa92 0dbd
00000170: 2d13 0080 40a7 4fbb 4e2b d310 aef0 2abc
00000180: cb00 0bbd 8504 0080 1a5a 0000 030c 0080
00000190: 8c56 502d 48a2 7fbb c336 ddb6 6422 0000
000001a0: 580e 0080 3e5b b73c ab77 54bb 2b62 d623
000001b0: b3ea 21ae 2e4b 7f39 a619 0000 d81f 0000
000001c0: ba1a 9bbb 4f03 0080 8b41 bf3b 0a15 0080
000001d0: 9a40 6c00 5e74 53a8 0410 32bd 7a13 0000
000001e0: de74 57bc ce2a 0000 48da 3007 5021 0000
000001f0: 3fda 73bd 1037 c99a d75b fb3c fb48 50bd
00000200: 4a61 28bb 554a 053d 8ed9 413c 975d 80ab
00000210: c539 0000 070e 0000 7eb7 d0af 6caf 0000
00000220: ca5d 9dbc a0cc e0bc 1b7e e7bc 6132 0080
00000230: c777 b5bb d666 c5bb 6d7d 0abc e03f b6ba
00000240: 7a17 0000 89b0 87bc c3f4 67bb b74f 23bd
00000250: 5733 2d3b 4b1d 0080 5f13 0000 ac71 0080
00000260: c19b febb ef5d 5bbd e245 d43c bbaa aeb4
00000270: 7411 0000 e64c 83bc 3d03 0000 c19b 073d
00000280: 68aa 132d 6b72 16bd f4f5 9923 eae3 cb29
00000290: 681f 283d b306 cfbc 2c32 0080 c92a 163c
000002a0: b23d 483d e0ca d9bb 0143 0080 af6f 6d3c
000002b0: 4f4a c0bc cb01 0000 5f47 17bd 1c0b 0000
000002c0: 7058 2d3c 5e18 0000 b643 0080 ae71 6cbd
000002d0: 1c97 df3c 1ba5 79bd 14b8 22bc 978c 093c
000002e0: 8e07 0080 c24d 0d33 752e d03c 2eb2 8d3c
000002f0: f140 e73c 5725 72bd b71d 0000 410d 093d
00000300: 5753 513b 5200 0000 151c 0080 f8d2 f8bc
00000310: 9725 0000 3916 3cbb 0c20 0000 1884 0000
00000320: 7212 0080 5d69 aabb d203 0000 a351 25bb
00000330: ff03 e6bb 10a7 fc3c 0b8e 0a30 e103 0000
00000340: 1854 883c 2cc9 09bc e469 01b2 6b17 0000
00000350: cc1b a2b6 92a5 63bd b141 0000 b92a c9bc
00000360: 473d ac39 7307 0080 5288 36b8 4845 3d3d
00000370: 6327 0000 2220 123c a040 253c a9bf 9a3a
00000380: 63e5 9e3c 021c 0000 3150 20bc df99 083d
00000390: b9fd 7ebb ce6c c4ba 5613 0000 87df d239
000003a0: 120d 0000 9e9d 113d 1d14 0000 0a2c 2fb7
000003b0: 367d fbaa c43e 4ebd 7e13 0080 b213 0080
000003c0: a317 0000 0718 0000 c617 0000 195f dbbc
000003d0: 1b02 0000 b640 2fbd 3752 4fbd 727e 64bd
000003e0: 4a0d 0080 ea2b 0000 9dab c1b6 1711 0080
000003f0: 09d8 b83b 7870 5f3c 9050 0000 56fd 0000
-2.322e-42 1.102e-41 -9.3236885e-08 -0.0085529955 8.41077e-09 -6.67e-43 -5.999e-42 5.357179e-19
7.1330255e-12 0.011109109 8.2734e-41 0.04235333 -0.0055574304 -5.633e-42 -2.8158029e-05 -5.8e-43
-0.00607912 1.1072e-41 -1.7054448e-05 -0.012278025 3.4567806e-06 -0.019075241 0.013061967 9.885e-42
-0.04389192 2.076e-41 0.024354368 0.023496373 -0.0046222718 -0.023832602 -0.036744688 -0.021296317
0.00068420236 -7.973e-42 -0.019685728 4.5882263e-07 0.015335694 0.022602873 0.003908585 0.026756363
7.88e-43 -0.015909832 1.11417336e-07 -9.574e-42 -0.00482537 4.561e-42 0.001725231 1.9917487e-25
-2.7746045e-08 0.0013500756 -0.011949182 4.6988374e-10 0.024136161 -0.017551076 -0.013199604 0.021779684
0.018994523 -0.0020049245 6.055e-42 -0.037805226 -0.012829668 4.552926e-11 0.03396463 -0.056502834
-0.00012566095 -1.0378e-41 -8.7142826e-13 -0.037497308 -0.020953337 3.391e-42 -0.008821194 0.033637267
0.009489192 3.2105188e-06 -5.0975853e-08 -0.016148578 -1.0545e-41 0.0008088318 -0.03994499 7.955758e-35
0.050659087 -0.01564782 0.0009927232 0.029334763 -7.31e-43 0.039362423 0.0029392876 -0.038042497
6.068e-42 0.023880472 0.03856265 -0.034563996 -6.879e-42 -0.0031685382 8.3291547e-29 -0.010433359
-0.033936303 -1.621e-42 3.2322e-41 -4.309e-42 1.1842648e-11 -0.003900664 -6.5926884e-06 1.2337e-41
-5.146e-42 0.022382375 -0.003241996 2.3243502e-17 -3.6815617e-11 0.00024346702 9.201e-42 1.1423e-41
-0.0047334107 -1.187e-42 0.0058366708 -7.547e-42 9.941408e-39 -1.1738086e-14 -0.043472305 6.987e-42
-0.013150422 1.5355e-41 1.3304915e-34 1.195e-41 -0.059534308 -8.322061e-23 0.030683441 -0.05085085
-0.0025692754 0.03254159 0.011831654 -9.120923e-13 2.0724e-41 5.032e-42 -3.796536e-10 6.293e-41
-0.019209761 -0.027441323 -0.028258374 -1.8073e-41 -0.00553796 -0.006024222 -0.008452755 -0.0013904534
8.422e-42 -0.01656367 -0.0035393692 -0.039870944 0.0026428306 -1.0508e-41 6.949e-42 -4.0778e-41
-0.007770032 -0.05355638 0.025912229 -3.2534248e-07 6.261e-42 -0.016027879 1.162e-42 0.033107523
8.39382e-12 -0.03673021 1.6692458e-17 9.054548e-14 0.041045576 -0.02527175 -1.7998e-41 0.009165474
0.048886962 -0.006646499 -2.4036e-41 0.0144919595 -0.023472933 6.43e-43 -0.0369333 3.985e-42
0.010580167 8.741e-42 -2.429e-41 -0.0577256 0.027293734 -0.060948472 -0.009931583 0.008395336
-2.71e-42 3.289984e-08 0.025412777 0.017296877 0.028229209 -0.05911764 1.066e-41 0.033459906
0.0031940544 1.15e-43 -1.0074e-41 -0.030374035 1.3485e-41 -0.002869977 1.1496e-41 4.7386e-41
-6.617e-42 -0.0052005486 1.37e-42 -0.0025225661 -0.0070195193 0.03084138 5.040596e-10 1.391e-42
0.016641662 -0.0084097795 -7.532865e-09 8.401e-42 -4.831212e-06 -0.055577822 2.3566e-41 -0.024556505
0.00032852052 -2.672e-42 -4.351914e-05 0.04620865 1.4129e-41 0.008918794 0.010086209 0.0011806387
0.01939649 1.0047e-41 -0.009784744 0.033349868 -0.0038908555 -0.001498604 6.936e-42 0.00040220862
4.689e-42 0.035550706 7.215e-42 -1.04410665e-05 -4.467344e-13 -0.050352827 -6.992e-42 -7.065e-42
8.479e-42 8.62e-42 8.528e-42 -0.026778745 7.55e-43 -0.042786323 -0.050615516 -0.05578465
-4.767e-42 1.5753e-41 -5.7718266e-06 -6.13e-42 0.005640988 0.0136376545 2.89e-41 9.088e-41

lin3.bias f4 [128]
00000000: 38d0 b1b9 0da8 c50d 3a9c acbb 599e 0b38
00000010: f36e d6b9 5a14 0080 fd12 0080 cc0b 0000
00000020: 08e1 8abc 5224 f93a fa66 23bd 908d 1fbc
00000030: 716f 21bd 3af2 803c de54 cb30 9ce1 2c3d
00000040: 0f73 883c c30f 0000 da14 583c 8c62 aebc
00000050: 219a 87bc e400 0000 4a10 d03b ea42 e92e
00000060: 8a3d 1cbc 35ce 353c 6574 1ebc e206 0000
00000070: e168 253d 750d 3900 3426 c93c be4a 86b4
00000080: ed6c 8ab6 9c01 0000 42bc 81b4 be0b 0000
00000090: 5a02 ea3c 6c1d cabc 724c cfb7 bbfe 46bb
000000a0: e6a1 09a2 9d23 91b8 cf30 4bba d9da 863c
000000b0: da56 273c 42e2 c43c 0607 0000 0592 c4bc
000000c0: 8ac4 a8bc 4159 4a3a 186b d838 1fc7 d210
000000d0: aae9 f43c cb2f 2138 6372 5e3c 4017 0000
000000e0: 174e ae39 41aa b3bc d59b 393c 2a51 74ba
000000f0: 8e96 10bb a338 11bc 47d7 2722 77b9 0c06
00000100: 82a7 f03a 21dc 40b9 bdf9 89bb 1214 ecbb
00000110: e9b4 8d9b 9570 1fbb cfe2 648f 0da6 14bc
00000120: da94 7eb7 d09f 52bd c50b 0080 8779 7f25
00000130: 5a63 08bd 9ab2 d53c 98ee 3ebd 797a 090c
00000140: 4087 ab3b f9d7 2332 c713 0080 733f 0121
00000150: f4c6 d7ba 55f8 0dbc 2e3d aa3c dae6 b1a4
00000160: 686c 493d 9a90 8c3c 0b3a 11bd 207d d2bc
00000170: ff8e 44bc 65cf 062a f852 ffbc ba87 39bd
00000180: 5867 da3a 4bf1 543c 039b 833a d608 0000
00000190: 7f62 f238 b944 47bc 79b8 ab3b af89 753b
000001a0: 4181 27bc 0b19 993b af16 0080 8f5f 99bc
000001b0: 88b1 86bc 71e3 e930 e03e ac3c 7629 3d3c
000001c0: e141 76bc dae7 e9bc 0caf d9bc 0e11 0000
000001d0: 7115 0080 3532 32b9 6d3b 0f3b 4307 34b7
000001e0: bbd3 12b3 bf94 ea8b 11e2 58bd 1203 ab3b
000001f0: 773f 163b 4e59 edb1 f2e7 9dbc b217 bbbb
-0.00033915206 1.2181519e-30 -0.005267647 3.3287655e-05 -0.00040899924 -7.301e-42 -6.812e-42 4.232e-42
-0.016953006 0.0019008017 -0.039893128 -0.009738341 -0.03941292 0.015740503 1.4794315e-09 0.042207345
0.016656427 5.654e-42 0.013188565 -0.021287225 -0.016552987 3.2e-43 0.006349598 1.06074996e-10
-0.009536156 0.011096527 -0.009671305 2.469e-42 0.040383223 5.239451e-39 0.02455435 -2.5013827e-07
-4.125401e-06 5.77e-43 -2.4165098e-07 4.212e-42 0.028565574 -0.024672233 -2.471192e-05 -0.0030364234
-1.865267e-18 -6.920772e-05 -0.00077511085 0.016461777 0.010213578 0.02403367 2.52e-42 -0.023995409
-0.02060153 0.00077189883 0.000103196304 8.313719e-29 0.029896576 3.8429902e-05 0.013577077 8.34e-42
0.00033246048 -0.02193177 0.011328657 -0.0009319956 -0.0022062394 -0.008863601 2.2746687e-18 2.6467332e-35
0.0018360468 -0.00018392551 -0.0042106793 -0.007204541 -2.3443404e-22 -0.0024328579 -1.128495e-29 -0.009072793
-1.5174237e-05 -0.05142194 -4.222e-42 2.21589e-16 -0.033297874 0.02608614 -0.04661426 1.0590951e-31
0.005234629 9.536955e-09 -7.095e-42 4.3790874e-19 -0.0016462491 -0.008665164 0.020781126 -7.715259e-17
0.04917565 0.017158795 -0.035455745 -0.02569443 -0.011996984 1.1973545e-13 -0.031167492 -0.045295455
0.0016662879 0.012996982 0.0010040704 3.17e-42 0.000115578056 -0.012162381 0.0052404967 0.00374661
-0.010223688 0.004672175 -8.137e-42 -0.018722324 -0.016442075 1.7017624e-09 0.021026075 0.01154553
-0.015030355 -0.028552938 -0.026572727 6.118e-42 -7.692e-42 -0.00016994106 0.002185549 -1.0730527e-05
-3.418584e-08 -9.035733e-32 -0.05294997 0.005218872 0.0022926012 -6.9077606e-09 -0.01927564 -0.005709612

lin4.weight f4 [64, 128]
00000000: c198 b13c ce0c b3b5 b8f9 ebbc 8b80 88bc
00000010: 6f99 94bc cf00 0080 c883 b5b4 6f97 bbb4
00000020: ef59 003d 3f90 25ba 74d0 053d b0c0 d43c
00000030: b708 0cbd 2b71 74bd 568f e035 7e99 613d
00000040: 5592 d33c 025f a43b 693a 9dbd a257 a13d
00000050: 69a1 00bd 3ab0 02b7 141d a23d ada7 9eb8
00000060: bcbf 25bb 684d 33bd 3d7c c93c 9508 0080
00000070: 0514 73bd c139 1835 7592 87bd f70b 6f33
00000080: 1653 023b 3618 b832 db06 4639 0d04 9e3b
00000090: 8bd1 f8bc cbca 563c cdf6 7b3c 399f acbb
000000a0: fe08 1536 44ba ac38 19d7 64bc ef3d a43d
000000b0: fb6b 853d 57a4 8ebc c60e 0000 c048 10bb
000000c0: 009b 07bd a8c8 233d e905 1833 b867 79bc
000000d0: 736b 84bd cb16 42b6 51f9 4f3d 4b31 0080
000000e0: 6483 4c37 bf39 35bd 13a3 01bd c1cc 3cbc
000000f0: ff74 833d c8f2 933c 676d 813c 7271 55b9
00000100: b58d 543d 9880 4b3c ec65 49bd 8c36 923d
00000110: 023e ec9a 4be8 853d 660c 8e3c 5174 acbd
00000120: 80a4 ad3c 27a1 a53d 0983 edb5 2824 0e31
00000130: 019e 0dbd 6aa4 9bbd 231d 953d 4cf1 b2a9
00000140: 5c8e 763d 197c 1eb4 0c99 ee27 0e10 2037
00000150: 5fad ed3b b095 493d 58a8 3b3b 295f be25
00000160: 373a f93c 7190 1f3d 800b 96bd d57a 9c3d
00000170: 7b65 24bd b4a5 8a2f 78f3 74bd ab00 1d3c
00000180: c34f 7f3d a75b 063d 84a5 b0bc 2ca9 d9af
00000190: 7892 8dbd 1c87 a43b 9648 963d 9390 07bb
000001a0: 9863 70bd 0226 923c c651 4836 7002 853d
000001b0: 8ec9 a93b c4ba 23b5 d091 98bc e6cc 46bd
000001c0: 17e7 8d3c b961 523d 7b1d dfbc 772c 14b3
000001d0: 2701 0080 3e2e 2331 613f af38 4881 523c
000001e0: d1ea 2735 f3a6 0635 2074 42bd b6ef 0439
000001f0: d40d 87bc 5630 983c 8b10 0bbd 888b c8bc
00000200: 1d82 45bc 7ffb e93a ed47 70bc 326c 2cbb
00000210: 8278 de3c 8f6c 32b4 1b00 22b5 b026 80a6
00000220: 9d92 a6bc 8888 8f3b 6924 bcbc 855c c6bc
00000230: 469c d13c 332b ffbb b082 25b2 d87d cb3c
00000240: e377 9bbd 5729 ff3b 1b09 523d 17ff 4bbd
00000250: 8acd a5bd 5301 75b7 3f24 a53d fdc8 abb8
00000260: 3e2f c0bc 37f3 0cbd e350 273d 0814 0000
00000270: d377 4cbd 8607 20b3 2198 1bbc 0d51 be31
00000280: 3704 debb 7dc6 9eb3 c88b d5b7 424f bb3b
00000290: 6cf6 64bd 0b9e 1bbd 9563 853c 3836 d83c
000002a0: 73a5 9239 2dcf 58ba 0c48 c8bc a6ba 55bd
000002b0: 5781 c1bc 1052 2a3c 9d13 0000 d0c8 3bba
000002c0: 5ae7 a2bd fe18 5e3b 41b3 71b2 c886 33bb
000002d0: 8984 14bd 09c7 db35 b625 923d 7f2b 0080
000002e0: bbd8 db38 d73a 96bb 58f2 2fbd e9d3 cbbb
000002f0: ebd2 ed3b 7393 f83c f545 b13c 6501 80b7
00000300: a912 e33c b133 973d c4ea a63d c677 dbbc
00000310: 736b 579c 93e9 543d 113d 973c 9854 ea3c
00000320: f040 f1bc 24f3 fabc dd72 96aa dc14 6f37
00000330: 64fe c73c 8c51 e2bc 64da 4bbd 9e0b 3527
00000340: 9921 1f3d 9938 463a 5b75 0080 f8f7 e833
00000350: 6578 033c f79d 75bd 06f7 753c f049 152f
00000360: dbe8 d2ba df1f 32bd cdf5 19bd e343 b83c
00000370: cdb0 7bbb 2436 ebb0 5866 82bd 925b c13c
00000380: 2383 0b3b 5bfc 9a3d d7ac 83bc 0d92 b78f
00000390: 7778 9f3d 01bb 1abd 9811 d73c af4f 173d
000003a0: 35c5 353d afcb 893d fd03 a1b5 9223 693b
000003b0: 703c acbc 7e40 e9b4 0d8d 8cbc 5430 a93a
000003c0: 6d0e a3bd 4ea9 fabc 9195 12bd dde0 8b33
000003d0: d01c 0080 00e8 dcb3 47da eb39 fe75 0bbc
000003e0: 77e6 7835 5394 ac38 840f 33bd d641 853a
000003f0: c17e cabc 60ea aa3c 31a9 0e3d 9cff 2e3d
0.021679284 -1.3340266e-06 -0.028805599 -0.016662857 -0.01813957 -2.9e-43 -3.380976e-07 -3.4941647e-07
0.031335767 -0.0006315745 0.0326695 0.025970787 -0.034188 -0.059678238 1.6731017e-06 0.055078022
0.025826612 0.0050162086 -0.076771565 0.07878043 -0.031403933 -7.789635e-06 0.079157025 -7.565259e-05
-0.0025291285 -0.043774992 0.024595374 -3.079e-42 -0.059345264 5.6708456e-07 -0.06619731 5.5657406e-08
0.001988595 2.1431429e-08 0.00018885305 0.0048222602 -0.030373355 0.013109873 0.015378666 -0.0052680043
2.2207964e-06 8.236294e-05 -0.013967299 0.080196254 0.06514736 -0.017412348 5.3e-42 -0.0022016019
-0.033106804 0.039986283 3.5395633e-08 -0.015222482 -0.06465807 -2.892152e-06 0.050774876 -1.7683e-41
1.2189939e-05 -0.044244524 -0.03164966 -0.0115234265 0.064187996 0.018060103 0.015799237 -0.00020355525
0.051892955 0.012420796 -0.049169466 0.0713931 -9.770749e-23 0.06538447 0.017339896 -0.08420623
0.021196604 0.08087378 -1.7696012e-06 2.0684272e-09 -0.034574512 -0.07599719 0.07280948 -7.946646e-14
0.06019436 -1.4760043e-07 6.6224204e-15 9.540481e-06 0.0072533335 0.04921502 0.0028634276 3.302423e-16
0.030423267 0.03895611 -0.07326412 0.07640616 -0.04013584 2.5219793e-10 -0.059802502 0.009582679
0.062331926 0.03280225 -0.021563299 -3.9592274e-10 -0.06912702 0.005020989 0.073380634 -0.0020685538
-0.05868873 0.01784039 2.984992e-06 0.064946055 0.005181498 -6.099401e-07 -0.018624216 -0.04853525
0.017322106 0.051362727 -0.027235737 -3.4499376e-08 -4.13e-43 2.3745907e-09 8.3564555e-05 0.012848206
6.255405e-07 5.0161833e-07 -0.047474027 0.000126778 -0.016486086 0.018577736 -0.033951323 -0.024480596
-0.012054947 0.0017851441 -0.014665586 -0.0026309607 0.027157072 -1.6617035e-07 -6.0349856e-07 -8.89227e-16
-0.020333583 0.0043802895 -0.02296658 -0.024214039 0.025587212 -0.007787132 -9.633979e-09 0.02484028
-0.07591226 0.0077869105 0.051278215 -0.04980382 -0.08095844 -1.4603446e-05 0.08063554 -8.1913524e-05
-0.023460027 -0.034411635 0.040848624 7.186e-42 -0.04991896 -3.7259746e-08 -0.00949672 5.538942e-09
-0.006775405 -7.393553e-08 -2.545667e-05 0.0057162354 -0.05589907 -0.03799252 0.016282836 0.026393041
0.0002797056 -0.00082706177 -0.024448417 -0.052179955 -0.023621244 0.010395542 7.036e-42 -0.0007163407
-0.07954283 0.0033889408 -1.4068804e-08 -0.0027393568 -0.036259208 1.6374698e-06 0.07136099 -1.5603e-41
0.00010483103 -0.004584651 -0.042955726 -0.00622033 0.0072578094 0.030343747 0.021639803 -1.5259438e-05
0.027718859 0.07382906 0.08150247 -0.02679051 -7.127641e-22 0.051980566 0.018461736 0.02860479
-0.02944991 -0.030633517 -2.6725055e-13 1.4250367e-05 0.024413295 -0.027626775 -0.04976882 2.5125094e-15
0.0388504 0.00075615343 -4.2099e-41 1.0848447e-07 0.00802431 -0.0599651 0.015012508 1.3577739e-10
-0.0016091125 -0.043487426 -0.03758793 0.022493308 -0.0038404942 -1.7113888e-09 -0.06367177 0.023603234
0.002128788 0.07567664 -0.016073627 -1.810145e-29 0.07786649 -0.037775997 0.026253507 0.036941227
0.044377524 0.06728303 -1.1996596e-06 0.003557418 -0.021024913 -4.3446556e-07 -0.017157102 0.001290808
-0.07961736 -0.030598309 -0.03578717 6.513594e-08 -1.0336e-41 -1.0286749e-07 0.00044985322 -0.008512018
9.272257e-07 8.229227e-05 -0.04371597 0.0010166715 -0.024718644 0.020863712 0.034829322 0.042724237

lin4.bias f4 [64]
00000000: 5d7f 14bb a666 ad3c 7052 483d 3e28 cc39
00000010: f0ab f33b 8426 5c3c 8161 10bd 6db0 293d
00000020: 202b 9b3b 18b5 593d b3b8 87bd e065 2ebd
00000030: 917c 533d 26f1 c2bd bbe1 66bd 1c64 cd3d
00000040: 2750 023d 9ab1 e4bc e139 833d 45c1 803c
00000050: abf1 79bd 222d c5bc fc8f 053d 2580 70bd
00000060: 2fc1 9e3d c93f 493d 504a d53d 838a debc
00000070: beba 703d 016a c8bc fe67 e4bc b417 6a3d
00000080: 3781 933d 5d11 ecbd 6eba 1fbd 65a9 62bd
00000090: 12f7 20bd e401 3d3d 0069 9c3d 3b57 38bd
000000a0: 097b a23d 90ac 3c3d b0ae f8ba 1c29 0cbc
000000b0: 07ee 5fbc f676 603d bd05 a4bd 0ff7 26bd
000000c0: d40e 3d3d 3f26 8ebc b1f2 26bd 1057 15bd
000000d0: e767 bdbc cecf 2e3c 8099 563d fee2 413d
000000e0: bc69 a1bd 0e62 433d 88b9 04bc 2f1b c43d
000000f0: b1c9 34bd eb62 75bd 8c55 303d b7d3 9e3d
-0.0022658922 0.02116711 0.048906744 0.00038939895 0.007436268 0.013436917 -0.035249237 0.04142802
0.0047353655 0.05315122 -0.066270255 -0.042577624 0.051632468 -0.09518652 -0.056367617 0.1002886
0.03181472 -0.027916718 0.06407524 0.015717158 -0.06102149 -0.024069373 0.032608017 -0.05871596
0.077516906 0.049133096 0.104145646 -0.027165657 0.05877184 -0.02446461 -0.027881619 0.05715151
0.0720238 -0.11526749 -0.038996153 -0.05533733 -0.039298125 0.04614438 0.07637215 -0.045005064
0.07933623 0.046063006 -0.0018972959 -0.008554723 -0.01366759 0.05480095 -0.08008907 -0.040762957
0.04615672 -0.017352222 -0.040758792 -0.036459982 -0.023120834 0.010669662 0.052392483 0.047335617
-0.07881495 0.047700934 -0.008100875 0.09575497 -0.04413766 -0.05990879 0.043050334 0.07755225

lin5.weight f4 [19, 64]
00000000: 90e2 523b 8dd7 7ebd 6945 0f3c 53fe 283d
00000010: 4dec d4bd 6e6d 703c 4dda 9e3d 3c24 ae3d
00000020: 1887 573d aeda c33d 481b cebd 368c 8e3a
00000030: 28f9 8bbd ac42 ce3c 2e4d 4abd 9c30 af3d
00000040: d897 9d3d d8f0 3b3d 3b66 723c 774b 003d
00000050: 5938 003e 6a6c 943c 93e7 363d 12ef 813d
00000060: 9461 9bbd 6f2d 933d 1a38 913b 4b97 fcbd
00000070: 1757 74bd 8595 3fbc 5c37 8bbd 49d6 993d
00000080: 5dcd c5bd db7d c4bd e4ae a2bc e149 81bd
00000090: b807 87bd 6b83 563d 3968 94bd 2f2c 87bd
000000a0: c2f4 dc3d 8ae2 703b e310 433c 963f f2bc
000000b0: 0c75 9e3d a98c 823d 0581 853d 2645 b33b
000000c0: 6c1d 37bd 259c 87bc e1db f5bc 9a3a bd3d
000000d0: 247d ec3d b770 8f3d bd87 9b3d c586 643d
000000e0: 3321 3bbd 4d72 aa3d 74b2 883d aa57 bdbd
000000f0: 73ac 1b3d ff20 ee3c 8b02 46bc b8c9 14bd
00000100: d32c da3d 2db1 cf3d f062 50bc 3f94 5c3d
00000110: c35d 81bd 5f23 9dbc d2e3 d63b 61f3 e8bb
00000120: 496f f93b bb7e d3bd 177a 973d 0499 05bd
00000130: d5b8 503d b850 b7bc 0f32 d9bd 9249 cf3a
00000140: c078 e83c 8a11 b53d a795 72bd b1de 86bd
00000150: c332 b5bd 27c7 6abc e69f d7bc 2ab5 723c
00000160: 3047 b53d d48a e8bc eedd c13d 084f a4bd
00000170: 1b87 dbbd f664 c53c db07 983b 2fec 49bd
00000180: e86d 80bd 97dc b33d 3d1f 39bd 2217 a93d
00000190: 935f 65bc 1daf 97bd 3cbd bdbd 8d0b 60bc
000001a0: 7c3e 80bd af7d 753d 7921 983c 2db4 cb3d
000001b0: f17c 36bc a8ae fabc 5f08 913a 5f46 a33d
000001c0: 7e42 aa3d 7744 bb3d 3954 303c 2b6e 65bd
000001d0: da67 95bd d32e e33d d54d 213d 371a 5a3d
000001e0: f976 883d 9938 a63d 90e0 d33c 8043 93bd
000001f0: 6c0d 5b3c e035 31bd 5587 ccbd d5d8 adbc
00000200: 0c85 2ebd 098e b13d 5fc3 d33c 691e 34bd
00000210: 8bc5 a9bd ce97 49bd 10fd 29bd 67bc b03d
00000220: ec69 28bd 2a32 b63d 5c91 11bc 36aa a43d
00000230: 9367 a7bc adba 1f3d 2ba0 bfbd 94a7 3fbd
00000240: d288 dc3d efe1 a9bc b5e0 c6bd 423e 603d
00000250: 4d94 5c3b be18 9b3d 7ce2 533c c444 b5bc
00000260: 554b bcbd e265 bc3d f100 933c 18a4 8fbd
00000270: 9d0d c13c c8e4 b23d e5da 873d eb60 ae3d
00000280: f388 79bd 2a19 413b 0455 cd3c de40 66bd
00000290: e680 18bd 3cd0 6f3d 6ea0 97bd 8b33 0cbc
000002a0: 847f 223d e4e4 b93d 3cf8 14bc fbf5 4dbd
000002b0: c513 4cbd c7fb bc3c 7a02 dc3d 2184 b13a
000002c0: 20cc ec3c 27df 313d 0fc7 ccbd 8b21 9fbc
000002d0: da04 d8bc 03e0 56bd 2b6b 033d 6b20 8e3d
000002e0: 1b31 d8bd 32a2 d23c 15ac 9bbd 1351 17bd
000002f0: dda7 46bd 6573 133d a0a1 6ebd c5d2 813d
00000300: 91d5 c13d 65b7 9abd 832f 5dbc 158d c63d
00000310: eed3 e63d 411c b43c 447e 613d 0cbe cfba
00000320: 403e 8f3d c4d5 a1bd 0291 90bd 6ad1 f53c
00000330: 6f88 87bd bd48 103d d62a 753c 6a19 cdbc
00000340: b79a 29bd 2869 e4bd 6890 a2bd 56e4 a0bd
00000350: 89d0 31bd 0196 96bd 9f5a a9bc 311c 823d
00000360: e023 21bd 0e55 09bd 84ce b03d 07f0 593d
00000370: f277 ac3d 9dcc babd a951 5d3d fca9 4bbd
00000380: fc6d 873d 6486 b7bd d501 c23d b329 a7ba
00000390: f26c 773d 1718 90bd 84ae e5bc f437 0dbd
000003a0: b323 c3bc ec5c da3d 6754 96bd 5839 b73d
000003b0: 2665 bf3d d71a a2bd 2266 d6bc fca9 93bd
000003c0: b9e6 f3bb a7d0 d7bd c5b0 e93c 5d5b 7d3d
000003d0: 05b9 8abd 8192 d8bc 9016 793d d8e0 fdba
000003e0: 8776 d83c 3dcd 6c3d 08ab c0bc e3a2 01bd
000003f0: 44f8 0bbd abfe d0bc 3eb1 bb3d f5fd f53b
0.0032178499 -0.062217284 0.008744576 0.041258167 -0.10396633 0.014674528 0.07756481 0.08503005
0.05261907 0.09563194 -0.10063797 0.0010875526 -0.06834632 0.025178276 -0.04939001 0.085541934
0.076949775 0.045883983 0.014794881 0.03132197 0.12521495 0.018118102 0.04465444 0.06344427
-0.07586971 0.071864 0.0044317367 -0.12333544 -0.059653368 -0.011693363 -0.06797668 0.07511575
-0.096583106 -0.095943175 -0.019858785 -0.063129194 -0.06593269 0.052371424 -0.072464414 -0.06600224
0.10788871 0.0036756122 0.011905882 -0.029571336 0.07737169 0.06374485 0.06518749 0.0054708896
-0.044705793 -0.016553948 -0.030012073 0.09239693 0.11547306 0.070039205 0.075942494 0.05579259
-0.045685958 0.083225824 0.06674662 -0.09245236 0.038006257 0.029068468 -0.012085567 -0.036325186
0.10653081 0.101412155 -0.012718901 0.053852316 -0.06316712 -0.019181905 0.00655792 -0.007109091
0.007612143 -0.10326906 0.07396334 -0.03261663 0.05095752 -0.022377357 -0.10605251 0.0015814772
0.02837789 0.08841236 -0.05922475 -0.06585444 -0.08847573 -0.014329708 -0.026321363 0.014813701
0.088514686 -0.02838651 0.09466158 -0.080228865 -0.10719129 0.024095993 0.0046396083 -0.049297508
-0.06270963 0.087823085 -0.045195807 0.08256365 -0.013999837 -0.07406447 -0.09264609 -0.013674629
-0.06261918 0.059934314 0.018570649 0.09946475 -0.011138187 -0.03060086 0.0011065117 0.079724066
0.08313464 0.09143918 0.010762268 -0.056013267 -0.07295199 0.110929154 0.039380867 0.053247657
0.06663317 0.08116264 0.025863916 -0.07190609 0.013369899 -0.04326427 -0.0998675 -0.021221558
-0.042607352 0.08669669 0.025849996 -0.043974314 -0.082896315 -0.049217038 -0.041501105 0.08629685
-0.04111664 0.08896287 -0.008884754 0.08040278 -0.02043513 0.038996387 -0.093567215 -0.046790674
0.10768284 -0.020737616 -0.09710828 0.054746874 0.003365773 0.075730786 0.012932416 -0.022127517
-0.09194056 0.0919912 0.017944785 -0.0701372 0.023566062 0.08735043 0.06633548 0.085145794
-0.06092162 0.0029464462 0.025064953 -0.056214206 -0.037232302 0.058548197 -0.074036464 -0.008557211
0.03967239 0.090768605 -0.009092387 -0.050283413 -0.04982354 0.023069276 0.1074266 0.0013543406
0.028905928 0.043425705 -0.09998905 -0.019425174 -0.0263695 -0.052459728 0.032084625 0.06939777
-0.10556241 0.025712106 -0.076011814 -0.036942553 -0.04849993 0.03599872 -0.058259606 0.06339029
0.09464563 -0.07554511 -0.013500097 0.09694878 0.11270891 0.021986129 0.055052057 -0.0015849485
0.06994295 -0.07902101 -0.07058908 0.030007083 -0.066178195 0.03522562 0.014963826 -0.025036532
-0.041407313 -0.111528695 -0.079376996 -0.078560516 -0.043411765 -0.0735283 -0.020673094 0.06353033
-0.039340854 -0.03352838 0.0863314 0.053207424 0.08421315 -0.09121058 0.054032955 -0.049722657
0.06612775 -0.0896118 0.09473006 -0.0012753516 0.060406633 -0.07035845 -0.028037317 -0.03447719
-0.023820734 0.10662255 -0.07340317 0.08946484 0.093454644 -0.079152755 -0.026171748 -0.07210156
-0.007443276 -0.10537844 0.028526673 0.06185471 -0.06773571 -0.026437046 0.060812533 -0.0019369377
0.026423706 0.057812918 -0.023519054 -0.03164948 -0.03417231 -0.02551206 0.09164666 0.0075070807

lin5.bias f4 [19]
00000000: 7c6a b0bc 70bb e83c 1264 bcbc ca91 b9ba
00000010: 478d 60bc 3a2e c43c bb94 093c 87c0 1a3d
00000020: b0b0 4c3d 1c4d 9d3b 2c29 25bd 639b 5bbc
00000030: 2d90 133c 4f15 71bc d5f2 973c eb26 0080
00000040: 0891 953d b350 243c 4c2d 90bd
-0.02153515 0.02840969 -0.022996936 -0.0014157828 -0.013705558 0.023947824 0.0083972765 0.037781265
0.04997319 0.004800452 -0.040322468 -0.013403746 0.009006542 -0.014714553 0.018548409 -1.3961e-41
0.07303053 0.010029006 -0.0703989
