src/virtuose_teleoperation/network_controller/trained_policy_MLP/Grasp_proper_dataset_AHFF_epoch_3.pth (torch, 456199 bytes, 10 tensors)

lin1.weight f4 [256, 20]
00000000: a384 27bc 0927 3a3e 5e38 71be 7d8e 3a3e
00000010: 535e 11bd ccec b63d 4329 46be b162 bd3c
00000020: 3914 fc3d dd4d 293e c65b 893d e3a6 183e
00000030: 6c9b 433e f85a 3fbc 055f 403e e739 49be
00000040: 794b 1ebe 3ea0 0b3e a3e9 973d 81aa 8bbd
00000050: c5e6 4ebe 308c 9c3d 0f50 733d 7689 e83c
00000060: 17f4 313e 0b14 303e 07f9 453d 9d2f 0f3e
00000070: e040 bfbd 8301 143e f270 ce3d ae82 81bc
00000080: 7da2 51bd 0075 af3b e953 15bd 4b34 423e
00000090: 82e5 653e fae6 b6bb 1822 e6bd 80d8 b7bd
000000a0: 4814 cbbd 7712 d5bd 588f 10be cc01 4e3e
000000b0: 3422 02bc 6e6f 2bbe 8e25 27be 979e 4abe
000000c0: a68b 74bd cb55 2dbe 4633 183e 24e1 1a3d
000000d0: ef69 68bd 9801 a43c 379c 6dbd 2b41 0f3c
000000e0: f807 343e 453c 4f3e 8f6e 5dbe a132 543e
000000f0: 24ff cd3d 2655 44be 3103 433e 287f 44be
00000100: 6de9 c03d 11de eabc e512 e93c 812c 03be
00000110: dbd8 b03d 7ca2 073e bb76 c13d 6626 22be
00000120: 8dbe 4d3e 2831 29bd 7a15 e2bd 598f 093e
00000130: 0115 4f3e 7d7a 0d3e d4c4 59bc 67fa 093e
00000140: c35a f83d 2c95 98bd 9665 dbbc 4786 6c3d
00000150: cf94 fe3c b840 55be 4935 473c 5661 0ebe
00000160: e99a 283c 7b3c 3cbe 9afb 46be 0915 0f3e
00000170: 46dd 87bd edd4 27bc c9c7 a83d 6548 ff3c
00000180: 8f43 893d 6ae7 0abe 1263 9b3d a6f7 213e
00000190: 285d 81be 9947 e6bd d296 07be fc12 533e
000001a0: 0b96 d83d e3cb 40be f986 21be 514b 513e
000001b0: 0ee9 56be 2298 edbd 8f0c 363e 8718 de3b
000001c0: 33de ae3c 5395 4dbe 3563 f23d 9728 c3bd
000001d0: 143c 07bd 45a0 7b3d 33cc c93d 3971 11be
000001e0: c357 8f3d 5c21 59be e060 ba3b b022 673c
000001f0: 4c76 5fbe 2e1e 8d3d 9ec0 2b3c 73a4 4b3e
00000200: ce7e e1bd c73c 95bd 05d0 f1bd 3b01 2f3d
00000210: c39b 94bd 30ed d8bd f607 143e 3a8b 6cbd
00000220: 4569 2bbe 583f 49be d3ed e4bd a09e ac3d
00000230: 2ac0 1e3e e241 77bc 604b 2b3e 7d3f 053f
00000240: 4f3e 29bd eef3 6d3d 26d4 f1bd b87c 9f3e
00000250: d021 ba3e 44a7 033e ead2 6e3e bd9b 0fbe
00000260: afe9 3a3e 0d40 cabe 0445 6fbe 3b92 d7bd
00000270: 931b edbd 27ec 9f3d 4df8 81bd af30 e2bd
00000280: 6749 d7bd 30ac 79be 79b6 86be 9d76 f9bd
00000290: 5671 90be 6d09 debd d018 07be 8ef0 b53d
000002a0: 3aa9 0c3d 212a 143d 6ca5 85bd 6351 bbbd
000002b0: db6d f4bb fe62 72be 0256 ecbd 4b88 533d
000002c0: 72d2 bd3d 9ccf 713e a48c 5ebd 0081 60bd
000002d0: ade3 b73d b4d5 3d3e 2e1c eebd 07c7 b9bd
000002e0: e2b1 56be 5713 783d 2db2 383e b736 8ebd
000002f0: 6816 1ebe 3a10 c23d a2eb bdbc 36fb 18be
00000300: 2be3 483e d771 6bbc 9594 a93d 1719 e73d
00000310: 38e7 7d3d 89a1 923b 2746 413e 8bd3 d4bd
00000320: 2b51 d03d 7f95 47be 0cab 373e 3811 953d
00000330: 9117 8c3d f574 03be 7211 2a3e 544f b03d
00000340: 0d11 ddba 35d3 46be 7259 2cbe c9d7 1b3e
00000350: a1c0 66bd e878 58be 09ca a43d f71f 513e
00000360: 2ea1 f8bd 2ed4 fdbd fec2 10be a8ec 8c3d
00000370: f816 10bd dfd6 f1bd fd78 453e 9a47 cd3d
00000380: 3c95 03bd d9c3 d5bd 78ae a0bd e3dd 2cbe
00000390: 0291 cabc 622f 91bd 6744 b63d 4044 3fbd
000003a0: 711e fabd 16cf 4dbe a871 103e f679 bf3d
000003b0: e1ab f5bc 3f91 2c3e cd54 cfbc caf0 293d
000003c0: 816b 37be 758f c33c c912 ddbd 2ab5 8abd
000003d0: b8ab 99be 019d bc3a 0d32 533c 38f7 343d
000003e0: f45d 20be c76d 6d3c c088 9c3d feac 9c3e
000003f0: 81b8 003e 1fdc 283e ef70 003e 9219 493e
-0.010224494 0.18178953 -0.23556659 0.18218417 -0.035490345 0.08931884 -0.19351678 0.023118349
0.12308545 0.16533609 0.067069575 0.14907412 0.19102257 -0.0116794035 0.18786247 -0.19650994
-0.15458478 0.13635346 0.074176095 -0.068196304 -0.20205219 0.07643926 0.05940252 0.028385859
0.17378269 0.17195146 0.048333194 0.13983007 -0.09338546 0.14453702 0.10080136 -0.015809383
-0.05118035 0.0053545237 -0.036456976 0.1896526 0.22450832 -0.005581734 -0.112369716 -0.08976841
-0.09915978 -0.104039125 -0.14117181 0.20117873 -0.007942725 -0.16741726 -0.1632292 -0.1978706
-0.05970349 -0.16927259 0.1486331 0.037812367 -0.05674165 0.020020291 -0.058010306 0.008743565
0.17581165 0.20237835 -0.21624206 0.20722438 0.1005843 -0.19173107 0.19044186 -0.19189131
0.094195224 -0.028670343 0.028451392 -0.12809946 0.08635112 0.13245577 0.09446474 -0.1583496
0.2009222 -0.041306645 -0.110392526 0.13433589 0.20222856 0.13816257 -0.013291556 0.13474427
0.121266864 -0.07450327 -0.026781838 0.057745244 0.031076817 -0.2082547 0.0121587 -0.13904318
0.01029084 -0.18382446 -0.19431916 0.13972868 -0.066340014 -0.010243637 0.08241231 0.03116245
0.06702339 -0.1356484 0.075872555 0.15817127 -0.25266385 -0.11244125 -0.13241127 0.2061271
0.105754934 -0.18827777 -0.15774144 0.20438887 -0.20987341 -0.11601283 0.17778228 0.006777826
0.021346187 -0.20076494 0.118353285 -0.09529226 -0.03301628 0.06143214 0.09853401 -0.14203347
0.06999161 -0.21204132 0.005687818 0.014107391 -0.2182247 0.06890522 0.010482935 0.19886951
-0.11010514 -0.07286983 -0.11807255 0.042725783 -0.07256272 -0.10592115 0.14456162 -0.057749964
-0.16739376 -0.1965307 -0.11178174 0.08428693 0.15502992 -0.015091391 0.16727972 0.5205
-0.041319188 0.058093958 -0.11808042 0.3114984 0.36353922 0.12856776 0.23322645 -0.14024253
0.18253206 -0.39501992 -0.23366171 -0.10525938 -0.11577525 0.07808714 -0.06346188 -0.11044442
-0.10512047 -0.2438209 -0.2631109 -0.12180827 -0.28211468 -0.108416416 -0.13193059 0.08883773
0.034341075 0.03617299 -0.06525692 -0.09146383 -0.007459385 -0.23670575 -0.11539842 0.05164365
0.09268655 0.23614353 -0.054333344 -0.054810524 0.089789726 0.18538553 -0.116264686 -0.090711646
-0.20966294 0.06056532 0.18036719 -0.0694403 -0.15438235 0.09475751 -0.023183648 -0.1493958
0.19617908 -0.014370403 0.08280293 0.112840824 0.061988086 0.004474823 0.18874417 -0.10391911
0.101717316 -0.19490622 0.17936343 0.07278675 0.068404324 -0.12837584 0.16608217 0.08608881
-0.0016866043 -0.19416507 -0.16830996 0.15219034 -0.05633605 -0.21139872 0.08046348 0.2042235
-0.121401176 -0.12393986 -0.14136884 0.06881076 -0.035178155 -0.118085615 0.19284435 0.100234225
-0.032124743 -0.104377456 -0.07845777 -0.16881518 -0.024727348 -0.07089116 0.088997655 -0.046695948
-0.122128375 -0.20098528 0.14105856 0.09349434 -0.029989185 0.16852282 -0.02530899 0.0414894
-0.17912103 0.023872117 -0.107945986 -0.067728356 -0.30013824 0.0014390053 0.012890351 0.04418108
-0.1566084 0.014491505 0.076432705 0.30600733 0.12570383 0.1649022 0.12543081 0.1963866

lin1.bias f4 [256]
00000000: ee9c 243e 9c65 02be 32c8 a9bd 7eb7 ee3d
00000010: c530 0c3d 35d7 5c3e 6efe b8bd ffcb 77bc
00000020: 1dda 59be ebc3 f6bc 3b12 21be d63e 3bbd
00000030: db5e f6bd 32c6 fd3c a21d 583e ed0a 59be
00000040: cd9b 0f3e 6a9f 9c3d 1a58 0fbe 2a31 993d
00000050: 6503 c03d 1cc8 1ebe daed c83d 5ead 07be
00000060: 50b0 ddbd 7dd9 4b3e 1834 ccbd 211a 7f3d
00000070: 81ea db3c 180b 11bd 9a10 5fbe 7e7a ab3d
00000080: 6e5e 08be c5f5 b03d bb0e f13d e3a9 3fbe
00000090: 6dc6 80bc c963 09be 00fd 4ebe 9002 9dbd
000000a0: 4653 e23d 8023 453d 29aa 12be ed44 53bd
000000b0: 9f06 4b3d 52cf 683e 0cef 6b3e 7099 e4bd
000000c0: b257 43be 2652 eb3d 7eb4 dc3d ea9a 98bd
000000d0: 2fc2 09be 1596 09be 72bb c2bd e394 773d
000000e0: d7a1 283e 6dfe 093e b6d6 0a3d b853 12be
000000f0: 898e 103e 5876 053e c001 31be 6410 bd3d
00000100: 87ad 58be ff42 c13c c797 153d a454 203e
00000110: fba7 ccbd 5226 e33d ad9e 74bd 6bac 91bd
00000120: 0ce1 1d3e 9291 043e 00ee 303d 27e9 f3bd
00000130: ec39 3fbe acb7 0ebe 0112 e03d b556 943d
00000140: 74fb 003d 9ec6 d9bd 9bb6 0d39 da4c 493e
00000150: f69d 4dbd ed48 0abc ff57 683e 690a acbd
00000160: d265 493e df11 223e 5967 6a3c 7d32 43be
00000170: 0577 46be 39cd 8c3c e9f7 203b 9efa 173e
00000180: 8c82 a43d 1632 243e 5f8e 2bbe 7f6d 93bc
00000190: df62 66bc f903 bbbd 4c7a 013d 0eed 51be
000001a0: 223b 343e 86df 99bd f303 5bbc 8f4a 433e
000001b0: 9ad4 b3bd 0edd 66be 2cd6 cbbd f3bf d23d
000001c0: 5856 283e 7e7b 18be f52e 5fbe ed60 56be
000001d0: f065 20be f850 3dbb 1088 2fbe 139d 0cbe
000001e0: e066 ef3c 2c80 30be 60ee 043e 902e 313c
000001f0: 2c01 c2bd 99bf 5dbe b6bc b7bc 23e6 39be
00000200: f05c 52bd 2190 df3d 8bac b13d b7e9 a1bc
00000210: 4b07 283e c89b b3bd 4bf1 4fbe 614f b63d
00000220: 251e 163e da79 3c3e 5046 be3d cda6 5d3e
00000230: 42d7 6a3c 7764 47be 7e4c c93c 52f8 6bba
00000240: 8e2e 1e3c 4bc8 56be 62a2 da3c 9f1e acbd
00000250: d7f8 a3bd 3a10 5b3e 163d 91bc a8c2 e9bd
00000260: b895 863b f4ac 3b3e 709e 443e 3259 5b3d
00000270: 6ae9 193e cd96 3cbe 3a8f 993d 7891 6f3d
00000280: a22c e9bd a859 a5bc 9604 5d3e fbca 203e
00000290: d914 443e cf61 a3bd e5ec 433e 4313 babd
000002a0: 4e65 e7bd 2fea e13d 3397 713d 1af9 273e
000002b0: 5df0 b5bd c977 cebb 6808 d0bd ba2b 98bd
000002c0: a9a3 17bc a6e8 1c3e 0a7e 21be bfa9 eb3d
000002d0: fba7 d33d ef3e 333e 77c0 37be b990 3cbe
000002e0: 45bc 53bd b315 513d 93a2 a0bd fb03 333e
000002f0: 588b 1ebe 01ec cebc fdb6 9939 5de4 41be
00000300: 43ef f53d 5f62 623e 2d23 6b3e 5b85 bd3d
00000310: 9827 553d da47 d33c 9fcd be3d 5fb7 34be
00000320: e204 153e 2210 c83d 7831 c2bd ae2d fa3d
00000330: 78f4 04be b477 7c3d a2e1 a8bd 7d09 003e
00000340: f377 68bd 50fa 3ebe b808 1f3e c228 903d
00000350: 8e3e 26bd 583f 243d 5a47 c8bd ae89 07be
00000360: faeb 03be eaad adbd 7555 a33d ac77 0f3d
00000370: 52fa 41be bd72 9c3d bfeb afbd 14ae 4c3e
00000380: 6017 6fbd 12ca 043d cbb0 333e 00a7 50be
00000390: 529c c6bd dea9 96bc 48cd 25be 4175 d63d
000003a0: 2ce3 7dbd 608d b83d b89d f13d 7c9b 503e
000003b0: 2398 2e3e dd15 4b3d 178e 4e3e 6596 86bd
000003c0: 86df a53c 935d 543e 97d2 3c3e 8f02 853d
000003d0: f80a 29be 391d b8bd 1f00 3e3e e924 6d3d
000003e0: dfad 693a b73b b2bc 18fd 18be c612 e23d
000003f0: cee3 fb3d 3082 6abe 6bc8 d4bd ab73 dc3c
0.16075489 -0.12734073 -0.08290137 0.11656092 0.034226198 0.2156647 -0.090329036 -0.01512432
-0.2127461 -0.030122718 -0.1572961 -0.045714222 -0.12029811 0.030978296 0.21105054 -0.21195574
0.14024277 0.07647593 -0.13998452 0.074800804 0.093756475 -0.15506023 0.098109916 -0.13249728
-0.108246446 0.19907184 -0.099708736 0.062280778 0.026845219 -0.03541097 -0.21783677 0.08372973
-0.13317272 0.08640627 0.11770388 -0.1871715 -0.015719617 -0.13416971 -0.202137 -0.076665044
0.110510394 0.04812956 -0.14322723 -0.051579405 0.04956686 0.22735336 0.23040408 -0.111620784
-0.19076422 0.11490278 0.10776614 -0.074514225 -0.13452981 -0.13436158 -0.095084086 0.060444724
0.16467987 0.13475962 0.03389617 -0.14289749 0.14116873 0.13033426 -0.17285824 0.09231642
-0.21159945 0.023591517 0.0365217 0.15657288 -0.09992977 0.110912934 -0.059721638 -0.07112964
0.1541788 0.12946156 0.043195724 -0.11909705 -0.18674439 -0.13937253 0.10940934 0.072431006
0.031489804 -0.10633586 0.00013514834 0.19658223 -0.05019947 -0.008440238 0.22689818 -0.08400423
0.19667748 0.1582713 0.014306867 -0.19062229 -0.1938134 0.017187702 0.0024561828 0.14841697
0.08032712 0.16034731 -0.16753529 -0.017996548 -0.014061659 -0.09131617 0.031610772 -0.20500585
0.17600682 -0.07513337 -0.013367641 0.1907141 -0.08780785 -0.22545263 -0.099529594 0.10290518
0.16439188 -0.14890859 -0.21795256 -0.20935412 -0.15663886 -0.0028887372 -0.17141747 -0.13731794
0.02922386 -0.17236394 0.12981558 0.010814324 -0.0947288 -0.2165512 -0.022428852 -0.18154196
-0.051358163 0.10916162 0.08675488 -0.019764764 0.16409032 -0.08769947 -0.2030689 0.08901859
0.14659937 0.18405858 0.09290755 0.2164566 0.014333548 -0.19471918 0.024572607 -0.0009001541
0.009654654 -0.20974843 0.026688758 -0.08404278 -0.08006447 0.21392909 -0.017729323 -0.11414081
0.0041072033 0.18327695 0.19201064 0.05355186 0.15030447 -0.18416901 0.074980214 0.05848834
-0.11385466 -0.020184353 0.2158378 0.15702431 0.19148578 -0.0797764 0.19133337 -0.09085705
-0.11298619 0.11030995 0.058982085 0.16403618 -0.08883736 -0.0063009006 -0.10157853 -0.07430215
-0.009255328 0.15323123 -0.15770736 0.11506986 0.10334774 0.17504476 -0.17944513 -0.18414582
-0.05169322 0.051046085 -0.078435086 0.17481987 -0.15482843 -0.02525902 0.0002931877 -0.1893477
0.12008526 0.22107838 0.22962637 0.09253951 0.052039713 0.025791097 0.09316563 -0.17648076
0.14552644 0.09768702 -0.09482092 0.12215744 -0.12983882 0.061637595 -0.08246161 0.1250362
-0.056755017 -0.18650174 0.1553067 0.07039024 -0.040587 0.04009947 -0.09779234 -0.13236114
-0.12882987 -0.08480437 0.07975284 0.035026237 -0.18943146 0.07639072 -0.08589887 0.1998828
-0.0583719 0.03241927 0.1754791 -0.20376205 -0.096977845 -0.018391546 -0.1619159 0.10471583
-0.061984226 0.0901134 0.117976606 0.20371813 0.17050223 0.049581397 0.2017139 -0.06571654
0.020248186 0.2073882 0.18439709 0.06494629 -0.1650809 -0.08989949 0.18554734 0.05789653
0.00089141534 -0.02175699 -0.14940298 0.11038737 0.1229931 -0.22901225 -0.10389789 0.026910624

lin2.weight f4 [256, 256]
00000000: 2c77 11bd 56fe 18bd 7173 4bbd 74ff 4bbd
00000010: 7d09 0c3d 1122 1c3d 1f75 d8ba 792b 133d
00000020: d20e b33c c8c0 363c 6ebb 4d3d 1026 06bc
00000030: 0a4f 39bc 14e3 f73c 1023 52bd 4805 fd3c
00000040: c91a c3bc 5754 d3bc 9fbd 74bb 30f9 bf3c
00000050: 2c78 87bd aa80 e83c a7be 123d 4168 113d
00000060: cbd9 053c b67a 66bd 1b36 6f3d af63 3abd
00000070: d32e e63c 28e4 b1bc 4ceb ca3c 68db e5bb
00000080: e592 4d3d 5c55 c03b 6600 2d3c b953 813c
00000090: b304 9c3c 4869 94bc ead3 203d e242 0cbd
000000a0: 01c3 653d 9eeb 52bd 1682 43bd 7bb4 0b3d
000000b0: 9b63 d13b 20b6 60bb a440 b83c 2859 84bc
000000c0: f5a7 193d af8f 8ebd 5f2c 393d dd15 22bd
000000d0: 2bd7 c23c 6bff 3bbd 9be7 56bd 7517 eabb
000000e0: 7b98 3dbd 6c04 3bbd fdaf 983c 1e1a 143d
000000f0: 1b1e 243d 45f2 79bd a934 403c ff81 fa3c
00000100: 8da7 633d a37d c3bb 5e40 21bd 5a39 7c3c
00000110: 4b37 323d 82b7 72bd ca68 4c3d b7b2 59bd
00000120: b33b f83c f993 103d 7fc6 553d 5d65 7b3c
00000130: 9b4f 3dbd 0213 583d c11f cf3c d1ae a93c
00000140: 843e 163c 372b a9bd 90ea 4c3d 7d49 7cbc
00000150: 5e07 333d 32b0 143c 4f62 1ebd 6380 683c
00000160: 2b36 77bd 8cc2 f23c 9642 47bd 81d5 20bd
00000170: 2029 46bc e177 0bbd 9066 293d aaeb 6cbd
00000180: ad00 06bd 0e82 543d 6681 27bd db67 3abb
00000190: ef33 573d fc0d 4e3d 20c6 1ebd 28dc 2d3c
000001a0: 2a10 f13c 304e b93c cd30 303c c8c0 683d
000001b0: 771b 10bd edee d33c fef5 1d3d 8eaa 6fbd
000001c0: 5f42 15bd 29c3 253d a531 be3b 6cd3 6f3c
000001d0: 4079 6fbd ccdb c43c 9dc7 2e3d 92fd 9fbb
000001e0: 6ce2 5dbc 0597 c4bc 380e ebbc 08d3 6ebd
000001f0: eae7 4bbd 9f91 1d3d d43c b2b9 5836 533d
00000200: d8d4 803c 2096 543d 3fd0 2b3d 104c 08bd
00000210: bdea 253c eb9e ff3c aeed e6bc ca9f 15bd
00000220: 6d09 efbc fb70 143d 50d4 67bd 0470 0abc
00000230: c4d3 a3bc cf69 79bb d6da 4ebd b0fa aebc
00000240: f02f 3abd d1e2 413c 302f 45bc 9a40 20bd
00000250: 2154 823c 4f61 403d 2989 183c 4729 453d
00000260: 0404 de3c fa7d 253d 45cc f7bc aab5 bf3c
00000270: 7569 0cbd 5377 10bd ab40 873b c36e 71bb
00000280: 7d58 31bd 802a b83b ca74 5d3c f238 87bd
00000290: 42b7 68bb e067 afbc c0f1 21bc b6ee 023d
000002a0: 3ddb fb3c 37be f03c 541f 3abd 87d6 16bd
000002b0: da24 283d d2b2 c0bc c841 013d 3c8a 25bc
000002c0: 82be 91bd 65ba fdbc cc5f 283d f1c0 02bd
000002d0: 11a0 37bd 8123 e6bc 2ed1 963c cf8f 55bd
000002e0: 2777 3bbd a4c0 fabc 5fbe 81bd 926e 143c
000002f0: 06bc 6a3d 1d4f ff3c a010 cf3c c8da 66ba
00000300: ced1 0fbd 9438 89bd 4b1d 19bd 4506 c7bc
00000310: 4c82 43bd 05ec 72bd b8bc 92bc 536b 89bd
00000320: 42cb 653d ee30 20bd b1fb 25bb 5ff3 173d
00000330: b427 94bd 8691 54bd 6925 95bc b2a3 703d
00000340: 2260 7dbd 1cc6 093c 5ba9 59bc cc3b 27bc
00000350: e3f3 263c d320 95bc eb29 4dbd 468c 863c
00000360: e49c f73c 9701 f03c e806 96bc 5890 c3bc
00000370: 6ebe a73c 78a5 dcbc ec24 7c3d fd21 333d
00000380: 6d3f 1abd 820a 5c3c 91ad 463c f9dd 223d
00000390: d9b3 183d 2926 1cbd 4ed5 0e3d b4ed 8eb9
000003a0: 3a46 f53b 89a3 da3c ea8c b3bc 6972 3f3d
000003b0: c6be 83bb 20fd 2c3d 7c83 c2bb 3143 b4bc
000003c0: 9edf d73c f850 2c3d dad3 413d df8c 3cbd
000003d0: 3ff1 e93c 55a4 903b 6eb3 fe3c 8e3f 08bd
000003e0: 5d2d 2abd 3337 47bd eb89 cbbc 54b4 3d3d
000003f0: d2b9 26bd ad8b cdbc dcda 28bd 5dfa cebc
-0.03551404 -0.03735193 -0.04967064 -0.049804166 0.034188736 0.038118426 -0.0016514397 0.03593013
0.021857653 0.011154361 0.050227575 -0.008187786 -0.011310348 0.030259646 -0.05130297 0.030886307
-0.023816483 -0.025797052 -0.0037344468 0.023434252 -0.06614718 0.028381664 0.03582635 0.035499815
0.008169602 -0.05626937 0.05840121 -0.045505222 0.0280985 -0.021715239 0.024770401 -0.0070146807
0.050188918 0.0058695506 0.010559177 0.015786992 0.01904521 -0.018116608 0.039264597 -0.034243472
0.056094173 -0.051494233 -0.04773148 0.034107666 0.0063900477 -0.0034288242 0.02249176 -0.016155794
0.037513692 -0.06960999 0.04520833 -0.03957163 0.02378424 -0.045897882 -0.05246697 -0.0071439096
-0.046287995 -0.045658514 0.018638605 0.03615772 0.040067773 -0.06102206 0.011731305 0.030579565
0.05557971 -0.005965905 -0.039368026 0.015394533 0.043509763 -0.059257038 0.049904622 -0.05314895
0.030301904 0.035297368 0.052191254 0.015343991 -0.046218496 0.052752502 0.025283696 0.020713242
0.009170178 -0.08260196 0.050028384 -0.01539838 0.043708198 0.009075211 -0.038667973 0.014190766
-0.060354393 0.029633783 -0.048647486 -0.039266113 -0.012094766 -0.034049872 0.041357577 -0.057841934
-0.03271549 0.051881842 -0.04089489 -0.002844325 0.052539762 0.050306305 -0.038763165 0.010611571
0.029426653 0.02262029 0.0107538225 0.056824476 -0.035182443 0.025870765 0.038564675 -0.058512263
-0.03644025 0.040469322 0.005804258 0.014637809 -0.058465242 0.024030589 0.042670835 -0.004882523
-0.013542753 -0.023997793 -0.028693303 -0.058306724 -0.049781717 0.038468953 -0.00033996126 0.051565498
0.015726492 0.051900983 0.041946646 -0.033275664 0.010126767 0.031203708 -0.028189506 -0.03652934
-0.0291793 0.03624056 -0.05659896 -0.008449558 -0.019998439 -0.0038057452 -0.050501667 -0.021359771
-0.045455873 0.011833862 -0.012035176 -0.03912411 0.015909256 0.0469678 0.009310045 0.04813507
0.027101524 0.040403344 -0.03024877 0.023402054 -0.03428026 -0.035270046 0.004127582 -0.00368397
-0.04329728 0.005620301 0.013516614 -0.06602658 -0.003550962 -0.021411836 -0.009884298 0.031965934
0.03074419 0.029387577 -0.045440033 -0.036825683 0.04105077 -0.023522768 0.031556875 -0.010103758
-0.071164146 -0.030972669 0.041106984 -0.031922285 -0.044830386 -0.028093101 0.018410292 -0.0521391
-0.04576793 -0.030609436 -0.063351385 0.009059565 0.05730822 0.031165654 0.025276482 -0.00088064047
-0.035112195 -0.067002445 -0.03738145 -0.024294982 -0.047731683 -0.059307117 -0.017912254 -0.067099236
0.056102045 -0.039109163 -0.0025327022 0.03709733 -0.07234135 -0.051896594 -0.018206315 0.058749862
-0.061859258 0.008409049 -0.013285006 -0.010207128 0.010189983 -0.018204128 -0.050088804 0.01642431
0.030226178 0.029297633 -0.01831384 -0.02387254 0.020476546 -0.02693437 0.06155865 0.043733586
-0.037658144 0.01343024 0.012126342 0.03976247 0.03728089 -0.03812233 0.034871392 -0.00027261453
0.0074851783 0.026689308 -0.021917779 0.04673997 -0.0040205447 0.042233586 -0.0059360843 -0.022004696
0.026351746 0.042069405 0.047321178 -0.046032783 0.028557418 0.004414121 0.031091418 -0.033263735
-0.041547168 -0.048636626 -0.024846038 0.046314552 -0.040704556 -0.025091017 -0.041224346 -0.025265867

lin2.bias f4 [256]
00000000: 9612 693b a73e 533d 9ecc ec3c 9b51 3a3b
00000010: fbf6 3d3d 9468 143d e744 eb3c 8b37 ae3c
00000020: 8c63 81bc b069 bfbc 8c03 a0bc bae1 2cbd
00000030: 6e89 1cbd eab5 113d f4e6 05bc 304a 8b3b
00000040: f860 113c e2ae 0d3d 3576 593d 833f b0bc
00000050: b4e3 55bd fd1b 813b 31ef 2f3d b257 2ebd
00000060: 573a 133c 4cc9 87bd dc14 8f3c 954b 383c
00000070: d532 8abc 5a2b 323c 9c43 5ebc dc0b 80bc
00000080: 06a3 ea3c ea28 73bd c07c 5dbd 1ed3 d9bc
00000090: ff3d 4c3d 48df 1dbd ef43 4f3d 26c3 f43c
000000a0: 2cb8 683b 1f13 7ebd 1051 1d3d a045 30bd
000000b0: 7d14 53bd c036 c03c 881c e63c 1209 08bd
000000c0: bcf1 1dbd aad9 bfbc 45e5 1b3d 1a61 87bc
000000d0: f60e 09bd 3b80 783c 660c 9c3c b073 26bd
000000e0: b84c 403c 3ed6 67bc 65c6 293c 016c 483c
000000f0: d1e4 73bc dd2b 5f3c 7acf 2abd 9068 ddbb
00000100: 7931 893c 44d6 953c fe3a d3bc 20bd 383d
00000110: 2c26 d93d bef8 21bd e681 4cbd c4ba 96bb
00000120: 5878 3cbd 242c 013d 481d 29bd 8802 1cbd
00000130: 9744 83bd 4160 323d f7fd e53c 5d53 52bd
00000140: a0bc 103d 6b3b 763c 0858 203d 6efe 013d
00000150: 8cb6 5e3c 7695 74bd b945 273d c84c 72bd
00000160: 1c92 7bbd 2f0c 723d 6346 3fbd c7a5 b9bc
00000170: 6734 923c 8c14 7e3a 1fd4 8d3c 36d1 77bd
00000180: 958a 54bd d6f3 54bc 104a 5cbd 98e1 693c
00000190: 696a ffbc c9c1 78bd f8dd 13bd 271b 803b
000001a0: 18dc 2d3d d677 d7bb efaa 153d 5b45 093d
000001b0: 2071 963d 3b6b 05bd d7b7 033d b20a 183d
000001c0: c40b 093d 6bc6 813d c776 5ebd 32c7 1b3d
000001d0: 4bf2 933c c821 47bd a31a 1fbd 43aa 0dbb
000001e0: ce7a 1cbd 5d28 6fbd c198 bdbc 9536 123d
000001f0: 1d19 873b c00e 363a 88c1 debc f860 723d
00000200: e1de 79bd a4ad 24bc 7782 683d 1524 06ba
00000210: a08e 80bd bae9 eebb 8cc5 3b3d a534 91bd
00000220: 3901 b7bc 1257 973c 585a 063d 3ef4 2ebd
00000230: c9f6 0f3d 1d71 483c a496 513d 77eb 5cbd
00000240: 0ee0 93bc 0b44 323d 6dd6 3d3d ec75 863c
00000250: a9dc 2abd f4ab b1bc 7b8c 90bb b4cb dc3c
00000260: 66a0 3bbc f1a5 153d 4178 9cbc 77e5 453d
00000270: d48a 123d 0c93 20bd 377a ce3c 83ab 513d
00000280: 1d3f f8bc 023c 2dbd a45d 2dbd d4a9 9f3d
00000290: bd77 0a3d af02 353d 2e2c e83c ab91 1d3d
000002a0: 7ea3 41bd 92de ba3c 2dfc 07bd 579e 6ebd
000002b0: b7a0 933d 9a18 22bd e6c5 403c cacb 25bd
000002c0: ac54 603d aad5 6dbd 9370 703c beed fb3b
000002d0: 2364 923c d049 39bd 29eb 073c 412c 3ebd
000002e0: cfea f8bc a9f1 193d c9bb dbbc 6ac9 1cbb
000002f0: 41d4 eabc 0260 25bd 31b9 143d 05d0 67bd
00000300: 53f6 2f3c a24e 613b 91dd da3c 216e 11bb
00000310: f357 35bd 9d3a bebc b0db 7d3d 2391 e3bc
00000320: fa40 043d 8ad4 92bc 017d 78bd a50a 9bbc
00000330: 655e 5cbd 8eb0 483d ec88 1e3d bc92 f43c
00000340: 3e96 b138 458f 1b3d 73a9 333d 81e8 41bc
00000350: de7d 36bd c4be 733d b8f0 d53c 57f3 1abc
00000360: 3e4b 5ebd c7df 98ba 10e0 44bc 0274 63bd
00000370: 6460 2fbc 068c 9cbc 6a76 2a3d 74d3 0f3d
00000380: 960c 4dbb ff36 043d 8031 2cbd 38e1 8bbd
00000390: 1c54 b83c 62a7 3ebc ea44 57bd 8532 f13c
000003a0: ed16 dcba a954 2abd a34f 1dbd 91ed 6b3d
000003b0: 2cad 73bd af25 91bb 9552 6ebd d77d a73b
000003c0: 3c61 e9bc ef5b 96bb c198 4ebd a668 03bd
000003d0: 9724 353d dfae 6fbc d350 2f3c c004 beba
000003e0: 86e7 383d a290 d03c 441b 63bd f830 473d
000003f0: 2e76 e3bc 8be4 3abd f057 f1bc fc8e 1a3d
0.0035564057 0.05157342 0.028906163 0.0028429988 0.046378117 0.036232546 0.028719379 0.02126672
-0.015794538 -0.023365825 -0.019532941 -0.042207457 -0.038217 0.035573877 -0.008172739 0.004250787
0.008873217 0.03459061 0.053091247 -0.02151466 -0.052219108 0.003940104 0.04295272 -0.0425641
0.008986077 -0.06630191 0.017466001 0.011248489 -0.016869942 0.010874594 -0.013565924 -0.015630655
0.028642189 -0.05936519 -0.05407405 -0.026589926 0.04986381 -0.038543016 0.050601896 0.02987821
0.0035510166 -0.062029954 0.038407385 -0.04303515 -0.05153321 0.023463607 0.028089777 -0.033211775
-0.038560614 -0.02341922 0.038060445 -0.016525794 -0.033461533 0.015167291 0.01904888 -0.040637672
0.011737041 -0.0141502 0.010362242 0.012232781 -0.014886097 0.013621298 -0.04170177 -0.0067568496
0.016747223 0.018290646 -0.025784966 0.04510224 0.10602984 -0.03954386 -0.04992857 -0.004599901
-0.046013206 0.031536236 -0.04128769 -0.03808835 -0.06409567 0.043548826 0.028075201 -0.051349033
0.035336137 0.015028815 0.039146453 0.031736784 0.013593327 -0.05971285 0.040837977 -0.059155256
-0.061418638 0.05909365 -0.046697985 -0.022662057 0.017847253 0.0009692393 0.017313061 -0.060502253
-0.051889975 -0.012997588 -0.05378157 0.014274977 -0.03117867 -0.060731683 -0.036100358 0.003909487
0.042446226 -0.006575565 0.036539968 0.03351341 0.07345796 -0.032572966 0.032157745 0.037119575
0.033458486 0.06336673 -0.054312494 0.038031764 0.01805987 -0.0486162 -0.038843762 -0.0021616376
-0.038203053 -0.058388103 -0.023144128 0.035696585 0.004122867 0.0006944947 -0.027191892 0.059174508
-0.06100357 -0.010051165 0.056765046 -0.0005117071 -0.062772036 -0.007291046 0.045842692 -0.07090119
-0.02233945 0.018474136 0.032801002 -0.042713396 0.035147462 0.012234 0.051169053 -0.053935494
-0.018051174 0.043521922 0.04634707 0.016413651 -0.041714344 -0.021688439 -0.004411278 0.026952602
-0.011451816 0.036535207 -0.01910031 0.048314538 0.035776928 -0.039202735 0.025204761 0.051188957
-0.030303532 -0.042293556 -0.04232563 0.07796064 0.033805598 0.044192012 0.028341379 0.038468998
-0.04727506 0.022811208 -0.033199478 -0.058256473 0.07208388 -0.039574243 0.011765933 -0.04047755
0.05476825 -0.058065094 0.014675277 0.007688253 0.017870015 -0.04523641 0.008295813 -0.046428923
-0.030385403 0.03758398 -0.026822941 -0.0023923763 -0.028665664 -0.040374763 0.036309425 -0.056594867
0.010739881 0.0034379144 0.02671698 -0.0022190886 -0.044273328 -0.023221308 0.06197709 -0.027779168
0.03228853 -0.017923612 -0.060666088 -0.018925974 -0.05380096 0.0489965 0.038704798 0.029855125
8.4680025e-05 0.03797843 0.04386277 -0.011835218 -0.04455363 0.0595081 0.02611576 -0.009457431
-0.054270975 -0.001166337 -0.012016311 -0.055530556 -0.010704134 -0.019109737 0.041616835 0.035113767
-0.003128802 0.03227901 -0.042039394 -0.068300664 0.022501044 -0.011636587 -0.052555956 0.029443035
-0.00167915 -0.041584644 -0.038406026 0.057599608 -0.05949132 -0.004429541 -0.058184225 0.005111437
-0.028488748 -0.004588596 -0.050438646 -0.032082222 0.044224348 -0.014629095 0.010700422 -0.0014497265
0.045142673 0.025459591 -0.055445924 0.048630685 -0.027766313 -0.04562811 -0.029460877 0.037734017

lin3.weight f4 [128, 256]
00000000: e691 82bd c16b 91bc 5a97 d2bc 7bee 2fbc
00000010: 8512 26bd 6ab9 143d 1b9d ffbc 3943 99bb
00000020: 5e8b 6dbd 80e1 ef3a 300f 323c aeed 153c
00000030: fa0d b63b 9be2 2cbd 2c93 17bb 34b5 363d
00000040: e02a 4fbd b6bf 7bbd f047 acbc 3449 0a3d
00000050: d87e 5bbd bbec 2bbd ac4d 09bb 55a8 1e3d
00000060: c252 b5bc 57ec 2a3d 46d2 2bbd 937e 32bd
00000070: ccf8 363d b0b6 17bd 229c 91bc 9a12 2d3d
00000080: 3336 e93c a429 debc d0c0 28bc a71a 3a3d
00000090: 41a9 d23c 1312 87bd d057 9abc 41c6 e03b
000000a0: 48c0 21bd 60ca 59bc dba8 9dbb 04c8 a7bc
000000b0: 27ff 21bd b6e9 68bd 84a6 223d 6874 773d
000000c0: 13cb 13bd ca1c e9bc 3552 03bd 2e29 43bd
000000d0: fefe 70bd 6071 423b 02bc 73bd a19a 173d
000000e0: 5231 423d fa23 343d 02c3 493d 7a1d 933c
000000f0: b864 653c c3cc 84bc 1933 65bc 74d0 a73c
00000100: ea82 b9bc 628c 3c3d 5453 1abc fd2f 3c3d
00000110: 8378 3dbd 86c8 1f3d b0db edbb aa61 00bc
00000120: 0087 cebb a422 5abd 582d 353d 1244 38bd
00000130: 1a98 6ebd e8a3 f73c dc1d 6ebd d330 6ebb
00000140: 082c 733c 7c7b 85bd 2401 61bc 372e d73c
00000150: 3789 ce3c c48d 2bbd ea69 42bc a8f9 80bc
00000160: 71f5 1fbd fa12 bcbc cf3b 8f3c 74f9 8abd
00000170: 3cbf cabc 9b5d 3ebc a282 3abd 684d 2dbd
00000180: 4095 36bb fce4 16bc 637f ce3b afeb 3b3d
00000190: 06a6 f83c 9b17 e1bb ff66 89bc 800c 363a
000001a0: 0473 be39 8573 42bd 099e 0b3d e9e7 5fbc
000001b0: e45b 51bd c0aa 723c 0109 2d3d c428 b3bc
000001c0: 9a3f 02bd 3ed3 70bd 1c69 3e3d 1a69 c03b
000001d0: 9b5b cb3c d4bf c23c 103b 19bc 6008 3d3b
000001e0: a0fe fb3b 1c9e 153d ccf5 c0bc e0b8 0bbc
000001f0: dc97 163d cddd 7abd e690 10bd 12e7 0dbd
00000200: dea5 10bd 8987 24bd c94f 7b3c cfb0 ea3c
00000210: eccc a03b 9ae1 043d 8e88 383d b4cd 15bd
00000220: 5296 753c 00e7 10ba 349c 8cbd dd75 ca3a
00000230: cb97 523d 39ef 70bd 27c2 b13b 9184 9bbc
00000240: f758 e83c 3e75 c13b a55f 803b f4c2 b83c
00000250: e0d1 003c e434 953b 3f9c 22bd e821 773d
00000260: be33 333d 3321 8e3b 0017 a7b9 10ad 1cbc
00000270: c70c 333b 40b2 65bd d915 163d d29a 02bc
00000280: 3c45 2cbd 7477 093d 65c2 603d 0620 10bd
00000290: 5a6e 443d 1355 a83b 504e 273c a01c ea3c
000002a0: 31b0 55bc d9a8 08bd d631 843c 9c64 d43c
000002b0: f68d 02bd fb13 18bc c6f2 66bd 886f 663d
000002c0: 57e0 6fbd 576f 9a3c 5fae 2dbd 902e 30bd
000002d0: c0de 0c3c fad9 fb3c 8574 c5bc 159f adbb
000002e0: 4a93 65bd f63e 953c 6332 4f3d 2df6 df3c
000002f0: b205 4c3d 7f41 873a 80d8 603b f0b4 603c
00000300: f143 c63c ad5e 06bd 3a47 34bd 5429 e1bc
00000310: a6b0 7dbd 02b7 7cbd c2fe 88bd 2079 083c
00000320: 4117 2f3d 7832 5e3c 007a 2a3d c951 503d
00000330: 749a ef3c daa5 4a3d 314c 62bd 7903 8abd
00000340: 180e bcbc e5de 82bd 268b efbc cc8e eb3c
00000350: 56b6 3bbd 1cf5 1e3d c17d 5dbc 8036 663b
00000360: 9437 bfbc 5421 4fbd 4026 95bc efb7 95bc
00000370: 3426 61bd 5678 b93b c665 21bd 1723 36bd
00000380: 7834 e7bc 5099 8dbd c0ec 683c 1f83 b7bc
00000390: c070 bf3c 3616 b53b 6882 7abd 3cb8 10bd
000003a0: a957 04bd d9c5 6f3c c8ac 303c 3c83 843a
000003b0: cafc efbc 9acb 4bbd e602 c5bc 2f5b a33b
000003c0: ad94 a0bc 0643 fd3b f2b7 6fbd c3da 17bd
000003d0: 75e1 0d3d bcfd 863c 5c26 20ba 80e6 ebbc
000003e0: 0585 01bc a05f b2b9 d323 40bd 0a0f 203d
000003f0: 75fe 66bc 9fd5 b13c 94f4 6abd f4fb 70bc
-0.06375484 -0.017751576 -0.025706936 -0.0107380105 -0.040545005 0.036309637 -0.031202843 -0.004677203
-0.05799424 0.0018301457 0.010867879 0.009150906 0.0055558654 -0.042208295 -0.0023128493 0.044606403
-0.050578 -0.061462127 -0.021030396 0.03376122 -0.053587765 -0.04197381 -0.0020950837 0.038734753
-0.022134189 0.041729297 -0.04194858 -0.04357774 0.044670865 -0.03703946 -0.017774645 0.042254068
0.028468227 -0.027119465 -0.010299876 0.045435574 0.025715472 -0.06595244 -0.0188407 0.006859571
-0.039490014 -0.013292879 -0.004811389 -0.020481117 -0.039549973 -0.05686351 0.039709583 0.060413748
-0.03608234 -0.02845611 -0.03206082 -0.047646694 -0.05883693 0.0029669628 -0.05950547 0.0370127
0.047410317 0.043979622 0.04925824 0.017958391 0.014001064 -0.01621092 -0.013989233 0.02048514
-0.022645433 0.046032317 -0.009419281 0.045944203 -0.046257507 0.039009593 -0.007258855 -0.007835785
-0.0063027143 -0.053255692 0.044232696 -0.044986792 -0.058250524 0.030229524 -0.058133945 -0.003634502
0.014842041 -0.065176934 -0.013733182 0.026267154 0.025211914 -0.041883245 -0.011866072 -0.015744045
-0.03905243 -0.022958267 0.017484574 -0.06785861 -0.02474939 -0.011618997 -0.045534737 -0.04231015
-0.0027859956 -0.009209868 0.006301807 0.045879062 0.030352604 -0.006869269 -0.016772745 0.00069446117
0.00036325317 -0.04747345 0.03408626 -0.0136661315 -0.051113024 0.014811218 0.042244915 -0.021870025
-0.031798936 -0.058795206 0.04648696 0.005871904 0.024823954 0.023773111 -0.0093524605 0.0028844103
0.007690266 0.036527738 -0.023554705 -0.008527964 0.036765918 -0.061246682 -0.035294436 -0.034644194
-0.035314433 -0.04016832 0.0153388465 0.028648762 0.004907241 0.032441713 0.045052104 -0.036573127
0.014989452 -0.0005527586 -0.06865731 0.0015446503 0.051414292 -0.05882189 0.005424756 -0.018984111
0.028362734 0.005903869 0.0039176517 0.022553898 0.007862538 0.004553424 -0.03969979 0.06033507
0.043750517 0.0043374537 -0.00031869859 -0.009562746 0.0027320848 -0.056078196 0.03664193 -0.007971482
-0.042058215 0.033561185 0.05487289 -0.03518679 0.047956802 0.0051370948 0.010211542 0.028578103
-0.013042496 -0.03336415 0.016137045 0.02592688 -0.031873666 -0.009282107 -0.05638387 0.05625871
-0.058563557 0.01885192 -0.04240262 -0.043013155 0.00859803 0.030743588 -0.024103412 -0.005298505
-0.05604867 0.018218499 0.050585162 0.027339065 0.04981012 0.0010319202 0.0034308732 0.013715014
0.024202319 -0.032805134 -0.04401324 -0.027485527 -0.061936043 -0.061697967 -0.06689216 0.00832966
0.042746786 0.013561837 0.041620255 0.050859246 0.029248454 0.049474575 -0.055248443 -0.067389436
-0.02295594 -0.0639017 -0.029241156 0.028754614 -0.045828186 0.038807973 -0.013518752 0.00351277
-0.023341931 -0.050568894 -0.018206716 -0.018276183 -0.054968074 0.005660097 -0.0394037 -0.044467058
-0.028223261 -0.06914008 0.014216602 -0.02240139 0.023369193 0.0055263294 -0.06115952 -0.03533195
-0.03231016 0.014634573 0.010783382 0.0010109912 -0.029295344 -0.049754716 -0.024049234 0.004985235
-0.019602144 0.007728937 -0.058525033 -0.03707386 0.03463884 0.016478412 -0.00061092316 -0.028796434
-0.0079052495 -0.00034022052 -0.046909165 0.039076842 -0.014098753 0.021708308 -0.057362154 -0.014708508

lin3.bias f4 [128]
00000000: 2e5b 153d c89f 073b 8df9 5ebb 846d 5f3d
00000010: 7ae9 ff3c e471 01bd 5c3f 3bbd 02fe 33bd
00000020: 1fbe 2fbd 27df 53bd b6b7 673d 0b24 183d
00000030: eb60 1ebc f43b 223c 0d56 403d 2786 48bc
00000040: 03c9 53bd d178 88bd f227 d6bc c294 163d
00000050: f952 b63c d5b7 18bd e017 5abb fad9 21bd
00000060: 5f71 143d 0486 443d b0ad 653c 2446 163d
00000070: bdc6 e83c 8113 6ebd 3d94 6cbd 0b83 82bb
00000080: 2676 b7bb a515 3dbd 28f0 51bc cced 0c3d
00000090: 38ec 08ba dc33 46bd cd51 73bc cc65 013c
000000a0: 2550 c4bb d849 d3bc 7953 923d de7e 26bd
000000b0: 798b 5f3d 5f54 003d 4064 2abb 9eb0 663c
000000c0: c4e3 373d ac0c ddbc d4be a73d 66c8 05bd
000000d0: 6d07 003d 1224 2abc 96bd 3b3c 509a c2bc
000000e0: b63a 64bd c18e 2ebc 81ce 82bb 0f93 8c3c
000000f0: 7a37 16bd be7d d33d fa56 61bd 6995 aa3b
00000100: b0a4 6ebd 571e 433d 15ef 1c3d 7ee4 e5bc
00000110: 7874 d9ba 8df2 f6bc 2b89 043c ce60 373d
00000120: b1d7 e1bc a9bf a3bc 1855 adba 7059 3d3d
00000130: 48a4 2c3d 25b3 93bb 58f9 c1bc 2b69 d2bc
00000140: 23d1 eb3c a6ec a33c 7d3b 923a e5bc 5fbd
00000150: e1a3 e43c 8ad6 26bd 68ef e53b d422 d13c
00000160: 9ceb 813c cd84 cc3c 47b9 613d 9333 4dbd
00000170: 94d5 7abd 5b45 d2bc 2657 0f3d 9574 463d
00000180: d1e8 403c 224f 563d b921 443d 7940 f8bb
00000190: b18f 97bc 5b29 51bd 6282 84bc b377 183c
000001a0: d8a2 d8bb 6d76 d73b eae3 32bd 0111 27bd
000001b0: 34f7 51bd 814b 9fbc 6f7e 4cbd 3887 623c
000001c0: b000 28bd b6c5 4bbd 9d93 8ebc 1124 12bd
000001d0: abf0 52bd e5fd 64bd f078 af3d e9bd ac39
000001e0: 683e 61bd 0787 50bd 342b 953b 6c22 f1bc
000001f0: 21e5 50bd 0e86 e5bb 9740 16bc ac7f 8c3b
0.03646391 0.0020694602 -0.0034023256 0.0545478 0.03123926 -0.031602755 -0.04571472 -0.043943413
-0.042905923 -0.051726487 0.056571685 0.03714375 -0.009666662 0.009901989 0.046957064 -0.012239016
-0.05170537 -0.06663669 -0.026142094 0.03676296 0.022256361 -0.03728469 -0.003327839 -0.03951452
0.03624093 0.04797937 0.014018461 0.036687985 0.028415078 -0.05812407 -0.05775856 -0.0039829067
-0.005598801 -0.04616322 -0.012813605 0.03440647 -0.00052231876 -0.0483893 -0.014851046 0.007897805
-0.0059909993 -0.025792047 0.071448274 -0.040648334 0.05457637 0.031330463 -0.0025999695 0.014080195
0.04489495 -0.026983581 0.081906945 -0.032661818 0.03125708 -0.010384576 0.011458775 -0.023755223
-0.055720054 -0.010654152 -0.0039919023 0.017159967 -0.036674 0.10326718 -0.055014588 0.0052057994
-0.058262527 0.047636356 0.038313944 -0.028063055 -0.0016590497 -0.030144954 0.008089344 0.044770055
-0.02756867 -0.019988852 -0.0013224212 0.046227872 0.04214886 -0.0045074397 -0.023678467 -0.025684914
0.028786248 0.020010304 0.0011156645 -0.054623503 0.027910175 -0.040731944 0.007017065 0.025529303
0.015859418 0.024965668 0.055108335 -0.050098013 -0.06123884 -0.025667837 0.03499522 0.048451025
0.011774258 0.05232156 0.047883723 -0.007576045 -0.018501135 -0.05106483 -0.016175453 0.009305882
-0.0066112094 0.0065753968 -0.043674387 -0.0407877 -0.051261142 -0.019445183 -0.049925264 0.013826184
-0.04101628 -0.0497491 -0.017404372 -0.035678927 -0.05149905 -0.055906195 0.08567989 0.0003294789
-0.054991156 -0.050910022 0.0045522694 -0.029435359 -0.050999764 -0.007004506 -0.009170673 0.0042876806

lin4.weight f4 [64, 128]
00000000: d77b 20bd f134 2abd e9c4 ec3c c370 853b
00000010: a4a7 6d3d 9108 473c c196 b2bc 32fa 813d
00000020: b3db 0ebd 2982 90bd b469 383c 8621 b03c
00000030: 54a9 f5bc 25c1 efbc 553c 973c e0fe 643d
00000040: 73ff 90bd c33c 83bd 8d37 0f3d 3717 27bd
00000050: 1500 a23d dd55 9c3d c5a7 7d3d 6815 913d
00000060: 5323 893c ce36 963c 5ddd 79bd 230f b13b
00000070: b133 3abd 53e8 4d3d 9e1b 0cbd 6c43 c33d
00000080: 280a 04bd 2191 5dbd 47f5 e53c 0382 9f3b
00000090: a05d f03b 1547 97bd 7627 a63d eb68 84bd
000000a0: b1d3 923d 380b 48bc 81cb 03bb c330 7c3d
000000b0: 641b e6bb 7d42 34bd 31f2 b3bd 76be 8a3d
000000c0: c8f9 4abc a0a8 773d ac94 96bd 9f4c 2ebd
000000d0: d16f 4cbd f3c4 00bd 704c 963d caf2 023d
000000e0: c9ba 613d 1f8c 4e3d 76af 0fbd dd53 673d
000000f0: 40e3 adbc 3d7d 4d3d ff51 213c b98f 5abc
00000100: 98b6 af3b b3f5 1c3d 9e48 dc3b 7802 0abd
00000110: 1439 653d 3d5c 15bd 8e92 bdbd 6dbe b2bd
00000120: 7f83 493d 515a 96bd dc9e a63d 1629 09bd
00000130: 0d59 59bd cfa2 323d fbfe 45bd 5269 923d
00000140: 3a24 0a3d 9445 853d a8a3 1b3d 4091 69bd
00000150: ab3c 9ebd 2a7f 51bd a1d8 6e3d 9c28 73bd
00000160: 7b50 78bd 4337 b53c 18fa 4abd 8946 7abd
00000170: fda9 073d 7481 41bd cc00 aebd 6b12 5cbd
00000180: 456f 9ebd d351 893d e3b3 5dbd 7fc2 8c3d
00000190: 67ab 36bd 8f70 4c3d afe6 05bd 6e6e 853d
000001a0: ed60 96bd 408c 4f3d 93fc 883d 6e73 8b3d
000001b0: e916 323d c5bd 9f3d 2786 ba3c 000e a13c
000001c0: 1269 8abd 2712 39bc 349e 073d d1c4 7fbc
000001d0: a394 b23d 2056 04bd b725 27bd 6658 57bd
000001e0: fabc 883d 40d8 893c 2925 b33d 86bf 0abd
000001f0: 527e 1fbb 7576 99bd 9a48 96bd c5de 55bd
00000200: 036d 89bd fdbc 7f3c 32c6 4abc 1ceb b43c
00000210: 8761 09bd 5902 ad3d 7058 85bc 579d 41bb
00000220: a842 3c3d 2e1c 81bd 8ea7 e33c 9731 2d3d
00000230: 185a a2bd 1407 02bd a95c c83c 541c 1bbe
00000240: 6125 a33d 5384 29bb ce66 41bd 41c9 043d
00000250: b963 833c b61d 35bc c730 423d e3b4 943d
00000260: bc93 033d 6163 13bc 03f1 fd3c dbe2 533d
00000270: 741d d93c dde6 5b3d 4018 21bd 93f2 56bd
00000280: 7153 9dbd 0254 0bbb 21ba e6bc d9db 9a3d
00000290: 90eb f73b d140 bbbc d0f6 f2bb 7dca a63d
000002a0: 331f e3bc b99b 133d 557a 813d 7d98 1cbc
000002b0: b00e d33c 57a1 51bd d113 8b3d 59f1 0ebd
000002c0: 2152 81bd 660e 9bbb 5262 9cbc bcaa 79bd
000002d0: bea1 b53c 4b46 8a3d 74f9 90bc 62ae c0bd
000002e0: 351a 9fbd 56d0 2bbd b3b6 ac3d 84cc 9b3d
000002f0: cb10 a73d 5bdf 743d 3283 773d 5148 b7bd
00000300: 8ffd a33c dca3 10bd 5323 5f3c ec23 7bbd
00000310: 033f b0bb 21a3 433d b409 ee3a 977e 6bbd
00000320: 2b86 bdbc e05b 583d fa6b 83bc ee5a 0939
00000330: e1e9 983c 416e 9b3d 1266 573c 359e 6bbd
00000340: 731f 54bd bda4 a1bd 3883 873d c7b3 93bd
00000350: cb5a 8fbd 954a 6b3c 0c42 4dbb c6a7 89bd
00000360: 58d9 983d aed5 5fbd 994a 08bd 5850 b13d
00000370: b5af 393d fa1a 3bbd 2faa ad3b dbd0 c1bc
00000380: 2a42 06bd bc99 a9bb 03ad 6fbd b63a b7bc
00000390: a48d 71bd f164 873c 748d b4bc be3f 9ebd
000003a0: 2b64 673d 389f 703d 0b46 713c f1d3 78bc
000003b0: 0fd4 88bd 85d7 6dbd 8412 6bbd e708 4b3d
000003c0: caf2 663c d36c e73c 8347 6dbd 34e5 6fbd
000003d0: 688f 85bd 6bf0 39bd 5877 973d 1263 fdbc
000003e0: 22c2 1abc a62d 99bd ad80 a83d 4da9 1c3d
000003f0: 0ecf e33b 2168 783d 7e9e 8dbd fcf2 22bc
-0.039180603 -0.041554395 0.028902488 0.00407228 0.058021203 0.0121480385 -0.0218004 0.06346549
-0.03487749 -0.07056076 0.01125567 0.02150036 -0.029987969 -0.029266903 0.018461386 0.05590713
-0.07079973 -0.06408074 0.034965087 -0.040793624 0.07910172 0.076335646 0.061927576 0.07084161
0.016740477 0.01833668 -0.061002124 0.0054034158 -0.045459453 0.05027039 -0.034206025 0.09534344
-0.03223625 -0.054093484 0.028071059 0.0048677935 0.0073353797 -0.07386605 0.08112995 -0.06465324
0.07169283 -0.012209706 -0.0020110311 0.06156994 -0.007022308 -0.04400872 -0.08786429 0.06774609
-0.012388654 0.060463548 -0.07352576 -0.04255354 -0.049911324 -0.031437825 0.07338798 0.031969823
0.055109773 0.0504266 -0.035079442 0.056476463 -0.021226525 0.050168265 0.00984621 -0.01333993
0.005362343 0.038320255 0.006722524 -0.03369376 0.055962637 -0.03646492 -0.09256469 -0.08727727
0.04919767 -0.07341445 0.08135769 -0.03348645 -0.05306344 0.043612298 -0.04833887 0.071489945
0.033725955 0.065074116 0.03799787 -0.057023287 -0.07726415 -0.051146664 0.058312062 -0.0593649
-0.060623627 0.022121077 -0.049554914 -0.061102424 0.033121098 -0.047242597 -0.08496246 -0.053728502
-0.07736067 0.0670506 -0.05412663 0.06873035 -0.044597056 0.04991203 -0.0326907 0.065152034
-0.07342706 0.050670862 0.066888 0.06809126 0.04347888 0.077998675 0.022769047 0.019659996
-0.06758322 -0.011295832 0.03310986 -0.0156108895 0.087197565 -0.032308698 -0.040807452 -0.052574538
0.066766694 0.016826749 0.08747322 -0.033874057 -0.0024336767 -0.07493297 -0.073380664 -0.052214403
-0.067102455 0.015609023 -0.012376355 0.022084765 -0.033540275 0.084477134 -0.016277522 -0.0029543245
0.045962006 -0.06304203 0.027789857 0.04228362 -0.0792734 -0.03174503 0.024458246 -0.15147525
0.07966114 -0.0025866225 -0.047217183 0.032418493 0.016038762 -0.011054447 0.0474098 0.07261064
0.032123312 -0.008995862 0.030998712 0.051730018 0.026503302 0.053686965 -0.039329767 -0.05247743
-0.07681931 -0.002125979 -0.028164925 0.07561464 0.007565923 -0.022858055 -0.0074146762 0.0814409
-0.027724838 0.03603718 0.06322161 -0.00955784 0.02576384 -0.051179256 0.06790889 -0.034898136
-0.06314493 -0.004731941 -0.019089852 -0.06095384 0.022171851 0.067516886 -0.017697074 -0.09408261
-0.077686705 -0.04194673 0.084332846 0.07607368 0.081575 0.05978332 0.060427852 -0.0894934
0.020018367 -0.03531252 0.013619262 -0.061313555 -0.0053786053 0.047762994 0.0018160851 -0.057493772
-0.023135265 0.052821994 -0.016042698 0.00013099212 0.01866621 0.07589389 0.013146894 -0.057523925
-0.051787805 -0.078927495 0.06616825 -0.07212024 -0.06999739 0.014361043 -0.0031319885 -0.06721453
0.0746333 -0.05464714 -0.033274267 0.086579025 0.045333583 -0.045680024 0.0052998285 -0.02365916
-0.032777943 -0.0051757973 -0.058514606 -0.022366863 -0.05897297 0.016527625 -0.022040106 -0.077270016
0.056492012 0.058745593 0.014726172 -0.0151872495 -0.06681072 -0.058066864 -0.057390705 0.049569037
0.014095971 0.028250134 -0.057929527 -0.058568195 -0.06521493 -0.045395296 0.0739581 -0.03093103
-0.009445699 -0.0747941 0.08227668 0.038247395 0.006952173 0.06064618 -0.069149956 -0.009945627

lin4.bias f4 [64]
00000000: b200 673d 7879 863d 2590 d43c a81c 84bd
00000010: 3c0c 4abd 00ee 06bd 0031 7fbd 942d a8bb
00000020: b9e9 39bd 7d43 05bc f494 aa3d 391f afbd
00000030: 82ec 94bd 3010 acbd 7233 12bd ec57 523d
00000040: 1113 963c 046b 8dbd d732 303d 7a59 43bc
00000050: 4ce7 893d 2297 3bbd af1e 743d 15f6 bc3d
00000060: 7af1 803d ca79 bbbc 74f8 063d 6411 28bd
00000070: 9866 99bc 9b0e 83bd 7c3a b8bd 9740 8d3d
00000080: a140 febc fc8b 8a3d 6bbd a4bd 450d 50bd
00000090: c472 0dbd e76d 19bd 1fb2 453c 526a 9e3d
000000a0: 9315 9b3d b15a 94bd 2821 9e3d 99f0 f639
000000b0: 27bb 87bd aacb 0abc 79f4 b83c 90b8 51bd
000000c0: d75a 7b3c f9d4 39bc 416e 76bd 2347 653d
000000d0: ea4c 59bd 9986 e4bc c4f2 84bd 376b a53d
000000e0: 8282 613d 8717 303c 213d 6dbd 739e afbc
000000f0: 5eb4 57bd b3ff 853d d0b3 43bd 1390 353d
0.056397147 0.06566137 0.02594764 -0.06450778 -0.049328074 -0.03294182 -0.06230259 -0.0051323865
-0.04538891 -0.008133766 0.08329192 -0.08550877 -0.07271673 -0.08401525 -0.035693593 0.05135338
0.018319638 -0.06905177 0.043017235 -0.011923188 0.067335695 -0.04579843 0.059599575 0.09226624
0.06296058 -0.022885222 0.032951787 -0.04103221 -0.018725678 -0.0639927 -0.0899553 0.06897085
-0.031036677 0.06764981 -0.08043941 -0.050793905 -0.034533277 -0.037458327 0.012066393 0.07735123
0.07572474 -0.072438605 0.07721168 0.00047100036 -0.06627493 -0.008471409 0.022577511 -0.051201403
0.015341482 -0.011342281 -0.06016374 0.055976044 -0.053051867 -0.027896212 -0.06491616 0.0807709
0.055056103 0.010747797 -0.057919625 -0.02143786 -0.052662246 0.065429114 -0.047778904 0.044326853

lin5.weight f4 [16, 64]
00000000: 929a dc3d fdad dbbd 04bd 95bd d6a6 9b3b
00000010: b903 99bd eac9 6dbd de16 93bd dd29 843d
00000020: 5860 323c f21e 30bd 989c 283d 3a7e 42bd
00000030: 5245 993d 0cd2 433d 7b14 323d a572 fe3d
00000040: c977 f93d d3b2 823d 06ef 173d 7f01 b33c
00000050: f507 983c 2d9e ac3d 0e67 683d 8b78 f63d
00000060: ef32 003e deda d4bd 11c7 f6bc 7558 a53d
00000070: 84c8 a7bd e454 cabd c8a4 213d 29e7 88bd
00000080: 61e2 7ebc 3000 cebd 4139 e4bd dca6 083d
00000090: c2f6 283d 0664 863c cb9e 293d 1587 49bc
000000a0: c570 1b3c 6510 b1bb f560 d7bd d771 593c
000000b0: 3511 843d d509 613c 2dfa 7a3c ef11 8d3c
000000c0: e5f8 48bd 96e3 b6bd 07c8 aebd f70a aa3d
000000d0: 16ff 03bd bec3 d0bd 8a61 6e3d 71d2 7d3d
000000e0: 8196 f93d 4c4d ab3d 279b 473c 6040 203d
000000f0: fe3b b5bd fcf1 c63d 536d 693d bea3 d8bc
00000100: fde6 f2bd 56e7 8d3d 04b1 8b3d 8a6a 923d
00000110: 3f1f f33c c8ca 4ebb fa60 f23d ab8b b93c
00000120: 866b e23d 779f 91bd bf83 b2bd 3b9d a23d
00000130: db4f 0d3d 7014 813c e477 6a3d 52fa e43d
00000140: 1740 273d 5183 843d 85cc 813d 3dc7 b4ba
00000150: 06c8 8c3d b5fb 393c 4929 32bd f334 b8bd
00000160: 5b29 98bd 58d4 cdbd cb3e bebc 4393 f83d
00000170: fc89 9c3d 911e 563d 2e20 d2bd 3ba1 943d
00000180: b7cf 853d 4f1a 37bd 3359 fdbd 9f4f aa3d
00000190: 1de8 fcbc ebda 3ebc 4d6c bb3d 32b8 e2bd
000001a0: d642 4fbd 36fb 623c d453 4d3d 0149 d83c
000001b0: b39c a53b 6b4c 733d f942 e93d 04ae 21bd
000001c0: 2a52 793a 0b52 56bd 80e1 a63d b498 e6bd
000001d0: 4bd8 7a3c 411b 903d 2574 bc3d e7bf e73d
000001e0: 1fc3 e13d 2c32 2dbd 6924 16bd f2df be3d
000001f0: 39c5 e03d 4f52 a5bd e40a f5bc 3256 e43d
00000200: 4507 173d 4247 9abd bc91 8ebd 4cd0 0e3d
00000210: ee14 3cbc aa13 acbb 97c6 d6bc cf08 a1bd
00000220: cec9 953d 7f94 033c 6911 e3bd 35b7 a8bd
00000230: b2ed c93d 2a16 00bd e5fb 8bbc 0a63 f1bb
00000240: b1e5 43bd c6c4 ab3d 36ca eabd 6fa1 46bd
00000250: a307 bfbd 3ee6 4d3d f7d6 adbb 4279 2c3c
00000260: c341 5cbd 684c 68bd c213 0fbd aac3 c4bd
00000270: 3d6f e5bc ed0f 5a3d f320 be3d ef2a bdbd
00000280: c669 85bd ea39 cdbb 8f59 f13d 7e8c dfbc
00000290: c839 e23d e58d b43d 6623 e73b 4878 ca3c
000002a0: 79d7 6a3d 2f5d cd3b d558 14bd 71d9 2bbd
000002b0: 259d ec3d 0207 f0bc 571c 963d 47ae 9a3c
000002c0: afa2 b13d d0d7 b0bb 5fae 273a 40ff d4bc
000002d0: 3ad8 d23d 493b cc3d 96ea 6fbd 0a71 f9bd
000002e0: 6ab1 7cbd 6cfa cabc 8d51 c83d 4ad9 52bd
000002f0: bc19 c53d 055a f13d 6fe6 ac3d b7d4 cabd
00000300: 73ae ad3d 429f b63d 3c03 603c 7b1a e33d
00000310: 96d4 1c3d c7b2 923d 070b 19bd e825 adbd
00000320: dc3a 8bbd 2359 c83d 84e9 993d e3cd 8ebd
00000330: b18c cebd 236d 613d f607 31bd a6ef 88bd
00000340: 68e1 f1bc 20c7 46bd 9eca 413d df90 4dbd
00000350: adb8 dc3d 90d9 2c3d a15c cebd 1e5a d0bc
00000360: c9fb 363b 7e9a 5cbd 3915 c83c 2911 d0bc
00000370: 4424 e5bd cf68 d6bd a37c 8cbd ea89 b2bd
00000380: 9c21 c0bd 9286 2bbd a813 00bd 5a6c 2c3d
00000390: d08b a13d ed2c cbbc ebdd 863c 7494 2ebd
000003a0: ffd8 823d cfaf 103d 401a e3bd 31d7 ee3d
000003b0: 4c60 00be a883 213d f279 a63d 9e87 723d
000003c0: 446a 3b3d d8ba d83d 4d9b fb3b 5658 333c
000003d0: cd7e 9fbd 11ef 3cbd fd82 91bd 02bd 8c3d
000003e0: 3e3f a93d 261a f0bc 3392 99bd f55f 64bd
000003f0: fdca cdbd ec42 c9bd 858c a3bc 2869 a83d
0.107716694 -0.10726545 -0.073114425 0.004750113 -0.07471413 -0.05805389 -0.07182096 0.06453297
0.010887228 -0.04299826 0.041164964 -0.04748366 0.07483925 0.04780774 0.043476563 0.124242105
0.1218105 0.06381764 0.037093185 0.0218513 0.018558482 0.08428607 0.056738906 0.120347105
0.1251943 -0.10393308 -0.03012422 0.080735125 -0.08192542 -0.09879473 0.03946379 -0.06684715
-0.015556903 -0.100586295 -0.11143733 0.033362255 0.04125095 0.016405117 0.041411202 -0.0123002725
0.009487336 -0.0054035657 -0.1051654 0.01327177 0.064485945 0.013735254 0.015318436 0.017220465
-0.04906549 -0.08930127 -0.08534246 0.08302873 -0.03222569 -0.10193585 0.05819849 0.06196827
0.121869095 0.083643526 0.012182987 0.039123893 -0.08849333 0.097141236 0.056989025 -0.026445266
-0.11860464 0.069288895 0.068208724 0.07149227 0.029677985 -0.0031553973 0.11834903 0.022649607
0.11055665 -0.07110494 -0.08716535 0.079401456 0.034499984 0.015756816 0.057243243 0.11180557
0.040832605 0.06470359 0.06337837 -0.0013792288 0.06874089 0.011351516 -0.043496404 -0.08994474
-0.07429763 -0.10050267 -0.023223301 0.12137463 0.07643506 0.052275244 -0.10260044 0.07257315
0.06533759 -0.044702824 -0.12370529 0.08315968 -0.030872399 -0.011648874 0.09151516 -0.11070289
-0.05060085 0.013853839 0.050128773 0.026401998 0.0050540804 0.05939905 0.11389727 -0.039472595
0.00095108396 -0.052324336 0.081484795 -0.112595946 0.015310357 0.07036448 0.0920184 0.11315899
0.110235445 -0.042284176 -0.036655817 0.09320058 0.10975117 -0.0807234 -0.02991242 0.11149253
0.036872167 -0.075331226 -0.069613904 0.034866616 -0.011479599 -0.0052513676 -0.026217742 -0.07863008
0.07313882 0.00803101 -0.11087305 -0.08238069 0.0985979 -0.031271137 -0.017087886 -0.0073665427
-0.047826473 0.08387141 -0.1146435 -0.0484938 -0.093276285 0.050268404 -0.005305167 0.010526957
-0.053773653 -0.05671349 -0.034930952 -0.096076325 -0.028007144 0.053237844 0.09283628 -0.092367046
-0.06514315 -0.0062630074 0.1178466 -0.027288672 0.11046177 0.08816127 0.0070537804 0.024715558
0.057334397 0.006267212 -0.03621753 -0.041955415 0.115534104 -0.029300217 0.07329624 0.01888193
0.086736076 -0.0053968206 0.0006396528 -0.026000619 0.10295148 0.09972245 -0.058573328 -0.121797636
-0.061692633 -0.024777614 0.097811796 -0.051476754 0.09624049 0.11784748 0.08442389 -0.099038534
0.08480539 0.08917095 0.013672646 0.11089035 0.038288675 0.07163005 -0.037364032 -0.08454496
-0.06798336 0.097826265 0.07515243 -0.069728635 -0.100854285 0.05503572 -0.043220483 -0.06686334
-0.029526427 -0.048529744 0.04731237 -0.050186988 0.107774116 0.04219967 -0.10076261 -0.025433596
0.0027921072 -0.053858273 0.024424182 -0.025398808 -0.11188558 -0.104692094 -0.0685971 -0.08717711
-0.093814105 -0.041876383 -0.031268746 0.04209552 0.07887995 -0.024801696 0.01646324 -0.042622045
0.06389045 0.035323914 -0.11088991 0.11662138 -0.12536734 0.039432198 0.08128728 0.059211366
0.04575564 0.105825126 0.0076784254 0.010946354 -0.07787857 -0.04612643 -0.07105062 0.06871988
0.082640156 -0.029309344 -0.074985884 -0.055755574 -0.100484826 -0.098272175 -0.019964466 0.08223182

lin5.bias f4 [16]
00000000: ba59 d3bc 647b 3e3c 44f2 d73d 09c4 04bc
00000010: aa5e a63d 6264 093d 5753 843d f410 a3bd
00000020: 997e a63d a0e7 ed3c 030c 9b3d 59f1 1b3d
00000030: 8452 19bd 5571 e63c d2a7 813d 03e4 94bd
-0.02579962 0.011626098 0.105442554 -0.008103379 0.081235245 0.033542998 0.06461208 -0.07962218
0.08129615 0.029041111 0.075706504 0.038071964 -0.03743221 0.028130213 0.06330837 -0.07270052
