src/virtuose_teleoperation/network_controller/trained_policy_MLP/Grasp_norm_BC_10hz_sos_AHEE_epoch_20.pth (torch, 456199 bytes, 10 tensors)

lin1.weight f4 [256, 20]
00000000: 568e 07be 9146 573e 3339 5b3c 04ef 053e
00000010: 6b24 2fbe 6665 a2bd 2c31 563e 3b51 1d3e
00000020: 53c6 0a3e 5e60 46bd 0547 253e 8271 ed3c
00000030: 17c2 373e f845 1b3e f812 a13d 7053 923b
00000040: 5de6 893d d355 50be cef5 02be d107 803d
00000050: 1d20 343d 4108 5b3e 8fe3 24be 9ced d63d
00000060: 17fb d5bc 6db0 1abd a917 f4bd ff7d 9fbd
00000070: f04f 56bd e030 863d 9279 e63d 5ca6 4d3e
00000080: b02b 51be 8e58 1ebd ff8a f33d b884 b63c
00000090: 1b89 b53d e8a8 e0bc cdec 993d b585 083e
000000a0: 2a1d 7bbd 9e88 b43d a96d a9bd 0c8e 903d
000000b0: d0ab 33be b304 573e 2432 2dbe 20de 0b3d
000000c0: 2be7 3f3e 4c09 4ebe 31a3 8fbd e6e3 9d3d
000000d0: b571 08bd e764 103c fedb eb3d c4dc f0bd
000000e0: 9489 01be 9672 363e 9a29 f93b 035e 723d
000000f0: e4c1 f1bc 8e44 f9bd 7fd4 c2bd 2ff7 26be
00000100: e45e 8abd 487c 44be 1c94 443d fe3b 1a3e
00000110: 5a58 053c bb4a 57be cae4 fabc cb38 89be
00000120: fabd 4f3e a55b 4ebd cd42 93be 1044 9bbe
00000130: c7ca 54be cd1a 103e 56a0 20be 0314 b33d
00000140: 2d37 60be d560 91bd 5885 37bd e4e0 bc3d
00000150: b1f5 b53d 7ac1 60be 8770 a5bd cad5 2c3c
00000160: 5ab8 5dbe 9306 72bd 3c14 50bd 0c98 403e
00000170: 344a 9a3d efd4 603e 361a 4bbe 9c0b 11be
00000180: d86e 263d a7bc 353e 6bf4 b73c 4f14 64be
00000190: 4deb 2bbe b387 e3bd b5fa 40be 4050 9b3d
000001a0: b01d 0cbd 73b1 e0bd a237 903d 7fff 8fbd
000001b0: fe80 82bd 312f 29be 7171 123d a377 4a3e
000001c0: d723 79bd 6ac2 d63d f072 1abd ea47 5cbe
000001d0: 0fd9 55be a6ab 48bc 6e0a 48bb 05b5 0fbd
000001e0: 1389 c1bd 81a6 3abe e991 573e 734d 113f
000001f0: b47f a2be e4b2 3fbc 0710 06bd afbc 5c3d
00000200: 3c80 8bbf 1c0d bbbd bf96 6639 d768 d9bc
00000210: b849 22bd 00f5 c93e 62fe 76bf 813b 3e3e
00000220: c626 4abd 713d d9bd d534 3abe 2719 373d
00000230: a7d3 943d 5eb1 45be 460a 1abe 3b74 b4bd
00000240: d482 e93c 7af1 81be c5a9 d3bc 25b8 28be
00000250: 913a 693d 9709 d7bd 09c8 5dbe 2974 613d
00000260: 9644 2b3e 0091 25bd 98f7 2bbe 58c1 003e
00000270: bac7 633b 08ea 7ebc 9ee4 67be 3379 df3d
00000280: 5556 57bd 5446 223e e90a 753e 6fb0 8c3d
00000290: d202 283e 9df5 65be 1c22 613d ae5e 8dbd
000002a0: fcc1 91bd be3a 053e fd22 73bd b76d 3dbe
000002b0: 448e 233e a865 463d b758 b6bd 1896 883e
000002c0: 3c72 43be 564a a8bd 8eba 17be 6d2b 4dbe
000002d0: 7c5c 2abe 4edc 0dbd b3af 60be b978 ddbd
000002e0: 714e 603e 5f46 653e b57e 343e d0e8 4c3e
000002f0: 9952 613e bcfe c1bd 6613 673e 8d87 e6bd
00000300: edf8 89bd ff6e 233e 91a2 803d 7b81 98bd
00000310: 8008 9bbd 87da 223e 25cd b83d c0e9 00bd
00000320: b20b d3bb 96c9 023e 21f9 b73c d02d 043e
00000330: 8cf1 e73d b48d 113e 6cd6 d5bd 04a9 50be
00000340: 0475 043d 0aeb 05be f1a8 f7bd 0ba5 0ebe
00000350: 8063 55be fcb8 113e d746 4d3e c917 f2bd
00000360: ab09 203e 1b59 57bd 4882 bd3d 7714 913d
00000370: 6233 50bd 3bb2 5e3e 2cfc 45be 3534 cfbd
00000380: 50c3 47be 21bf 95bc 869e c73d 1d97 ecbb
00000390: 7591 b4bd 7ab8 a03c 8397 40bd 2320 f4bd
000003a0: 1ee0 d4bc 82a4 41be 8eff d63d aa8f bbbc
000003b0: b079 ab3d 7779 203e 658f f2bd 292c 11be
000003c0: 3532 b23d 0e9d fabd 4055 233e c13d 333d
000003d0: 4640 3fbe d897 bdbd 58e8 223e 3008 49be
000003e0: 122a 0f3d 3b5a 043d 5eca 78bc bcd9 163e
000003f0: 0b00 c13c d69e db3d c57e 26be 8a52 07be
-0.1323789 0.21023013 0.013380337 0.13079458 -0.17103736 -0.079294965 0.20917195 0.15363018
0.13552217 -0.048431747 0.16140373 0.028984789 0.17945133 0.1516341 0.07864946 0.004465513
0.067333914 -0.2034524 -0.1278908 0.06251491 0.043975938 0.21389867 -0.16102432 0.10494539
-0.026120706 -0.03776591 -0.11918575 -0.07787704 -0.052322328 0.06552291 0.112536564 0.20082992
-0.20426822 -0.03865867 0.11891746 0.022280082 0.088640414 -0.02742429 0.07515869 0.13332255
-0.06130711 0.0881512 -0.08272869 0.07058343 -0.1754601 0.20997886 -0.16913658 0.03414738
0.18740527 -0.20120734 -0.07013548 0.07709484 -0.033311564 0.0088131195 0.115165696 -0.11760858
-0.12650138 0.17817149 0.0076038362 0.059171688 -0.0295114 -0.12171279 -0.09513187 -0.1630523
-0.0675638 -0.19188035 0.04799281 0.15061948 0.00813874 -0.21024601 -0.030626673 -0.26801142
0.20287314 -0.050380368 -0.28761902 -0.30325365 -0.20780478 0.14072724 -0.15686163 0.08744051
-0.21896048 -0.07098547 -0.0448049 0.09222582 0.088847525 -0.21948805 -0.080781035 0.010549018
-0.21652356 -0.0590883 -0.050800547 0.18808001 0.075336844 0.21956228 -0.19834217 -0.14164585
0.040633053 0.17747746 0.022455415 -0.22273372 -0.16788979 -0.11109867 -0.18845637 0.07583666
-0.034208 -0.10971346 0.07041861 -0.07031154 -0.063722596 -0.16521908 0.035752717 0.197722
-0.060825195 0.104863 -0.03770727 -0.21511808 -0.20883583 -0.012247955 -0.0030523795 -0.035084743
-0.09449973 -0.18227579 0.21051754 0.56758803 -0.31738055 -0.011700366 -0.03273013 0.05389088
-1.0898509 -0.0913336 0.00021990667 -0.02653925 -0.039621085 0.39444733 -0.9648191 0.18577386
-0.049353383 -0.10607422 -0.18184216 0.04470172 0.07266932 -0.19305941 -0.15042982 -0.08811232
0.028504767 -0.25379544 -0.025837788 -0.16476496 0.05694062 -0.10499876 -0.21658339 0.05504242
0.16725382 -0.040421486 -0.16793668 0.12573755 0.0034756497 -0.015558727 -0.22645804 0.10911789
-0.052572567 0.1584714 0.23929943 0.068695895 0.16407326 -0.22456975 0.05496417 -0.06902824
-0.07117078 0.1301069 -0.05935954 -0.18498884 0.15972239 0.04843679 -0.0890364 0.26677012
-0.19086546 -0.082173035 -0.14817259 -0.20036097 -0.16636842 -0.034633927 -0.21942024 -0.10814042
0.21904923 0.22390126 0.1762646 0.20010686 0.22004165 -0.09472415 0.22565994 -0.11256323
-0.06736932 0.1596031 0.06281007 -0.074465714 -0.075699806 0.15903674 0.09023503 -0.03147292
-0.006440603 0.12772211 0.022457661 0.12908101 0.11325368 0.14214212 -0.10441288 -0.20376974
0.032338157 -0.13077942 -0.1209277 -0.13930146 -0.20838737 0.14230722 0.20046555 -0.11820943
0.15628688 -0.052575212 0.09253365 0.070839815 -0.050830252 0.21747677 -0.19334477 -0.101173796
-0.195081 -0.018279614 0.09747033 -0.0072201625 -0.08816806 0.019619215 -0.047019493 -0.11920192
-0.025985774 -0.18910411 0.10497962 -0.022895653 0.083728194 0.15671335 -0.118437566 -0.14177002
0.087009825 -0.12236987 0.15950489 0.043760065 -0.18676862 -0.092574775 0.15908945 -0.1963203
0.03495223 0.032312613 -0.015184967 0.14731497 0.02355959 0.10723655 -0.16259296 -0.1321508

lin1.bias f4 [256]
00000000: 2f50 9f3d 10b2 5dbc fc14 323e 252e d5bd
00000010: 4a1b 30be 1c02 cebc 128a 92be 0d69 573e
00000020: fbd7 bf3d 7ec1 24be 213f 0fbd ccc2 e2bc
00000030: 3ab8 0ebe 806d 363e 9bf8 773d d0ce cd3d
00000040: 8a45 3fbe 1983 523e 253b 93bd 2021 413d
00000050: a329 4c3d 48c8 08ba 1f5a e9bd 854e 923d
00000060: 164b 4e3e 69a0 0abd 9661 1fbe 1479 433e
00000070: b445 2b3e 0cf1 4c3e 4ed1 1cbe 153a 293e
00000080: b6c7 0c3d 9219 ac3d f10c 54be ef6f 59bb
00000090: a514 68be aa7c e33e 2afc 4f3e d35f 683c
000000a0: 6a47 863d e6c9 133e 37c0 5bbe 1acb e43d
000000b0: 0550 733d a7c0 5c3d 2e9d cd3d 3353 6d3e
000000c0: d148 263d 40be 063d 144c 823c 5ad7 3bbd
000000d0: a43c 80be 4e9e b33d 549f 4c3d e977 bdbe
000000e0: bf6f 0bbe 2ad9 d4bb 3e62 32bd 5ba4 12be
000000f0: 7886 4fbe 7285 12bd 15c1 50be 5fe0 99bc
00000100: 006c 453e d59f 6dbe 5c2e aebc 5d47 7ebd
00000110: 917f dabd 02b2 bfbb 60e4 d2bd d749 05be
00000120: 9b44 85be 0cc4 e43d 4dc2 19be 76dd afbd
00000130: 31b7 69be 5e27 d23c 67b0 193d cd03 cc3d
00000140: 5147 84bc bae1 34be c58f d13c 3801 21be
00000150: f497 6dbe 48d2 413c 0f7a af3c 79b6 043e
00000160: 53f9 5fbd ab83 67be f9e2 053e 417a ffbd
00000170: 959f 5bbe afd9 2abe de47 d9bd 956d 60be
00000180: 7b87 453e d04c 153c 374b 17be a5b4 64be
00000190: 4b54 1fbd 71f3 c5bc bdfb 103e 993f 5bbe
000001a0: ca8a 393e 1d18 343e a5f9 1d3e a7a6 523e
000001b0: 5b56 893d b91f 0cbe 5d2d 383e e1af 16be
000001c0: c0a5 893d cf44 253e 22fd f1bd 0cc9 bfbd
000001d0: c165 663e feef f53d 5364 d1bd e0b8 5dbc
000001e0: 1233 aabd 9dd9 3cbe 1d65 6f3d 45d9 19be
000001f0: b208 29be a5fc bdbd dbbb 82be 3afd 673c
00000200: 2f6c 0b3e d11d 50bc faec a23d 38ad c9bb
00000210: 2c3d 6c3e 6bb8 563c fb79 083e 52f1 40be
00000220: 6e7a 493e 8b59 be3d 912b a3bc d05a 0a3e
00000230: 1819 bbbd d794 d1bd 4215 923d a1f7 46be
00000240: 7588 773b f6d1 0d3e 3855 c9bd 29db da3c
00000250: 1b41 7abe ba95 42be d19e 0d3e d3d1 1c3e
00000260: 5afe 0f3e 5898 22bb 3d79 13be fc55 f63c
00000270: 8ef6 183e f28e febc a913 b83d 29ff 893e
00000280: e98b a4be 2493 0b3d d125 10bd 0b7c 79bd
00000290: b635 833e 5edd 30be f296 ef3d 5dad dcbb
000002a0: c8b7 d53c 8bc7 833d 2e0a 7f3e ccd6 f2bd
000002b0: 8ead 4cbe 0f7e 3abe efbd 9ebd 02ce a0bd
000002c0: bf58 3b3e df55 39be f439 fabd 533c 56bd
000002d0: bc79 333e 7762 cb3d 8fa4 403e 3e85 c1bd
000002e0: 8a16 993d 2a26 3c3e e8a7 0c3d b903 043e
000002f0: 60a3 43be 0b53 a13d 1302 433e 9cbb cfbb
00000300: 8ce8 94bd 1335 633e 1d44 d53d aab4 3c3e
00000310: 8fe4 28be e863 3f3e 7804 5c3e a394 383d
00000320: 45de 823c 6802 b3bd 3483 113c a5a0 3ebe
00000330: f554 4dbe 8b84 133e fa40 a4bd 42eb 3a3d
00000340: 4d45 e83d 64a4 adbd 351d ea3d 06f7 ff3d
00000350: cf8f 0d3e 7ea6 623a b9a4 593d 32d2 083d
00000360: 6ce6 a23d c0a5 14be a4c5 03be fc19 353e
00000370: 1131 e63d cad1 023e e932 41be 5408 3a3d
00000380: 2960 fdbc 852b 063d 4e0e f23d c486 56be
00000390: 690e 44bd db78 383e 34a8 01be 6aa8 06be
000003a0: 13b5 e5bd b51b eabd 9422 2abc 89d8 103e
000003b0: af77 4abe 293d cb3d 2e92 3c3e da84 fdbd
000003c0: 113b c73d b4c5 313e e752 313d 16de 563e
000003d0: 2616 58be c871 803d 67fd d0bd ba88 493d
000003e0: c4c3 24be 769d 453e 4c7a 20bc 28d0 41be
000003f0: cfa5 4abe 5167 663e 01b8 0fbe 1367 b83d
0.07778966 -0.013531223 0.17390817 -0.10409192 -0.1719791 -0.02514749 -0.28620964 0.21036167
0.09367367 -0.16089436 -0.034972314 -0.027680777 -0.13937464 0.17815208 0.060539823 0.10049212
-0.18678871 0.20557822 -0.07189015 0.04715073 0.049844395 -0.00052178325 -0.11394142 0.07143883
0.2014583 -0.033844385 -0.1556457 0.19089156 0.16725808 0.20013827 -0.15314218 0.16526063
0.034370147 0.08403315 -0.20708062 -0.003317829 -0.22664125 0.4443105 0.20311037 0.0141830025
0.0655659 0.14432487 -0.21460043 0.11171551 0.059402484 0.053894665 0.10039745 0.23176269
0.040596787 0.03289628 0.015905418 -0.045859672 -0.25046265 0.087704286 0.049956635 -0.37005547
-0.13616847 -0.0064956145 -0.043550722 -0.14320509 -0.2026614 -0.035771795 -0.20386155 -0.018783746
0.1927948 -0.23205502 -0.02126234 -0.062079776 -0.106688626 -0.0058500776 -0.10297465 -0.13016449
-0.26028904 0.111702055 -0.15015526 -0.08587162 -0.22823788 0.025653537 0.037521746 0.099616624
-0.016147288 -0.17664233 0.02558125 -0.15723121 -0.23202497 0.01182992 0.021420507 0.12960233
-0.054681133 -0.22608821 0.13074864 -0.1247449 -0.21447594 -0.16684602 -0.10609411 -0.21916802
0.19289963 0.009112552 -0.14774786 -0.22334535 -0.038898747 -0.024163933 0.1415853 -0.2141098
0.1811935 0.17587323 0.15427263 0.20571385 0.06705924 -0.13683976 0.17986055 -0.1471553
0.067210674 0.1613953 -0.118158594 -0.093645185 0.22499754 0.120086655 -0.102242135 -0.013532847
-0.08310522 -0.18442388 0.05844604 -0.15024288 -0.16507223 -0.09276704 -0.25533947 0.014159495
0.13615488 -0.012702421 0.07955356 -0.0061546825 0.2307021 0.013105492 0.13327782 -0.18842056
0.1967561 0.09294423 -0.019918235 0.13511205 -0.09135646 -0.10233467 0.07132961 -0.194304
0.0037770544 0.13849625 -0.09830707 0.026715832 -0.24438898 -0.19002429 0.13830115 0.15314417
0.14061871 -0.0024810042 -0.14401717 0.030070297 0.14937803 -0.031074021 0.08988125 0.26952484
-0.32137993 0.03407587 -0.035192315 -0.060909312 0.25626916 -0.17271945 0.116987124 -0.0067345337
0.02608861 0.06434544 0.24906227 -0.118573755 -0.19988081 -0.1821215 -0.07751071 -0.07851793
0.18295573 -0.18099163 -0.12218085 -0.052303623 0.17526907 0.0993089 0.18812774 -0.09449242
0.07475002 0.18373933 0.034339815 0.12892045 -0.19105291 0.07877167 0.1904376 -0.0063395035
-0.07270917 0.22188215 0.10413382 0.18428293 -0.16493438 0.18690455 0.2148608 0.045063626
0.015975127 -0.08740693 0.008881379 -0.18615969 -0.2005194 0.1440603 -0.08020206 0.045634516
0.11341343 -0.08478621 0.11431352 0.12498288 0.1382439 0.0008646025 0.053135607 0.033403583
0.07954106 -0.14516354 -0.12868363 0.17685694 0.112398274 0.1277534 -0.18867077 0.0454181
-0.030929642 0.032756347 0.11819135 -0.20949847 -0.047865305 0.18014853 -0.1266182 -0.13150182
-0.11216178 -0.11431066 -0.010384221 0.14145102 -0.19772218 0.09923775 0.18415138 -0.12378855
0.09728063 0.17360574 0.043291952 0.20983157 -0.21102199 0.06271702 -0.10204583 0.04920266
-0.16090304 0.19298348 -0.009794783 -0.18927062 -0.19789813 0.2250035 -0.14035036 0.09004035

lin2.weight f4 [256, 256]
00000000: f0ff c9bc 581d 963c b6ff 573d fb73 6bbd
00000010: 6bf4 b63b 2a97 3cbd c47b e5bc f038 64bd
00000020: c344 bebc 8d89 57bb 9e99 053d 76a4 5e3d
00000030: fdba b4bc 49d7 62bd cac9 87bc cb69 b2bb
00000040: bd08 403d a62f c5bc 5067 a5bc b84e 3b3d
00000050: 4e23 a63c 641c d23c 9f6e 26bd dcbc a9bb
00000060: d25c a63c 4771 7b3b 3ec6 413d 94d2 aa3c
00000070: b48f bab9 069c 673d 88f9 4cbd 8ea5 88bd
00000080: 855c f33c 6942 a33b ff92 b8bb a72c 873c
00000090: 5db5 6a3d ae89 bcbc 44e3 3dbd cfe2 fdbc
000000a0: 1a9d 343c 36c5 363c dc26 04bd 7957 25bd
000000b0: 0bc5 1a3d 5fea 81bd 5b76 45bb d00e bfbc
000000c0: f4e2 dcbc 6619 013d a3f5 113d 233a d3bc
000000d0: 71b6 103d 4cfe 8d3c ab27 1e3d a00d 4b3b
000000e0: 31ae 45bd 8ed1 943c af2d d2bc 6a8e 86bd
000000f0: c4b5 263d dead 1fbd f4ae be3c 68d5 013d
00000100: 2140 acbc 0c82 10bd ae24 14bd af48 453c
00000110: ad50 243c b43d 6fbd e0ca 51bd 5538 dcbc
00000120: f205 513d 28a1 4fbc 42b9 77bd a25a 80bd
00000130: 6e6b 37bd 488b c23d a7c1 67bd ae02 ffbc
00000140: d87d 653d fed9 c23c 819b 4f3d 00c1 13bc
00000150: 70a0 a33c c771 183c c806 46bd 89f9 5ebc
00000160: a6cd 17bc f77c 0dbd 12b5 893c a6a1 613d
00000170: 4c09 cabc 80dc bb3c f42d df3b 5ad3 0cbd
00000180: 636e 463d a370 56bd f57f 49bd 7d5c 05bd
00000190: b21e 2dba 2d5f 213d 1b3c 82bd fa09 80bd
000001a0: 5a02 42bd 4ead 92bd 5585 163d 1b0e 3e3c
000001b0: 6c68 2fbd 7019 e7bc dd3c ddbc b8ce 50bd
000001c0: ff63 cc3c 230d 38bd ba8a 483d 14fc 563d
000001d0: 0b5a 8d3c 7f83 b7bc 1b50 da3c d465 20bd
000001e0: f9cd 3fbd ae78 053d 743a 523c 5564 353d
000001f0: 9696 02bd 1572 a03c c8e8 41bc ff2f 85bd
00000200: e25f 57bd 6e58 75bd f5be f7bc c24b 29bd
00000210: 85ff 07bd b53b fdbc 53f7 853c ff32 6b3d
00000220: 0431 fb3c ce3a 913c 3033 413c fd30 29bd
00000230: 808f 58bd 3bf7 373d 404f 7c3d e974 d03c
00000240: 6c1c 60bd 086c 943c 0f3d d4bc f78e 153d
00000250: cb1f f7bc bf6e 5a3d 80af f9bc 1ecf ce3a
00000260: bb3e 063d d1cb d43c c75d 62bd fad1 d4bc
00000270: ab6b 8bbb cc00 76bd 1e86 253d 347c 2f3d
00000280: 6a3f 173d e29c 52bd a7b5 febc c021 b2bc
00000290: f275 b3bb efa3 723d 3f33 0f3d f465 4fbd
000002a0: c7dc 02bd 78d5 1bbc b0df dc3c 4901 b5bc
000002b0: 85dc dd3c 8829 6b3d d3e1 87bc 94f9 e1bc
000002c0: 0673 b03c c3d0 09bd e6d5 3cbd 38e0 59bd
000002d0: 9d00 d43c e83f 94bb 95c5 a63c eea0 273d
000002e0: 56ff 8fbd dec4 7bbd b497 3bbd f83b b13c
000002f0: 68a3 dabb 67d6 333c e40e 6bbd 6b36 8cbd
00000300: 6301 18bd 07a0 353c 3cb5 cdbb a533 6abd
00000310: 9b3a 7f3d bc04 583c 0ea8 0a3d 845b 7fbd
00000320: 3fcb b3bb fef1 d63d 7e2b 07bd 404d 6c3c
00000330: b072 353d ea5e 6ebd 50b1 e73b a31d 393d
00000340: dc26 413d b0a3 54bd cb8f 6dbd 2018 6fbd
00000350: bec2 f4bc afc3 8a3c a18e 75bc 2d2e 5ebd
00000360: 9809 44bd f7ff 303d 2e7d 3fbd c145 0cbd
00000370: b873 b53c ba2d 45bb 296e 6b3d 4c0c d33a
00000380: e0b0 86bc d6ed b43b 5057 c63c f058 06bd
00000390: 409b 63bd fbcf 093d c514 ac3b 5d33 26bc
000003a0: 888e 3fbd 7274 83bd f065 223c d35f 133d
000003b0: 5892 28bd c65e 0f3d 4c38 af3c b45b 4cbd
000003c0: 6318 4ebc 11db 47bd 5420 49bd 44c0 15bd
000003d0: e032 4c3d 31b4 163d 9f3f 87bd a9e2 de3c
000003e0: b6cf 8dbc fdfa 2c3d 20db f03c 7eca 27bd
000003f0: 3bfa 80bb f932 913c fbbb 443d d960 33ba
-0.024658173 0.018324539 0.0527341 -0.057483654 0.005583336 -0.0460426 -0.028013118 -0.055718362
-0.023226148 -0.0032888383 0.032617204 0.05435606 -0.02206182 -0.055381093 -0.016575713 -0.0054447404
0.046883333 -0.024070572 -0.020190865 0.04572937 0.020280506 0.025648303 -0.04063284 -0.0051799845
0.020307932 0.003836708 0.0473082 0.020852365 -0.00035583752 0.05654528 -0.05004266 -0.06672202
0.029707203 0.004982282 -0.0056327577 0.016500784 0.057301868 -0.02301487 -0.046359316 -0.03099194
0.011023784 0.011155417 -0.03226362 -0.040366624 0.03778557 -0.06343531 -0.003013036 -0.023322493
-0.026963688 0.031518362 0.035634648 -0.025784558 0.03533024 0.017333172 0.03861205 0.0030983463
-0.048261825 0.01816633 -0.02565655 -0.06570132 0.04070069 -0.038984172 0.023276784 0.03169766
-0.021026673 -0.035280272 -0.036167793 0.012041255 0.010029 -0.058408454 -0.051218867 -0.02688233
0.05103106 -0.0126727 -0.06047941 -0.06267287 -0.044780187 0.09499222 -0.056581166 -0.031129207
0.056028217 0.023785587 0.05068541 -0.009018183 0.019973963 0.00930447 -0.04834631 -0.0136092985
-0.009265339 -0.034543004 0.016809974 0.0550858 -0.024662636 0.022932291 0.006810898 -0.034381248
0.048445117 -0.052353512 -0.049194295 -0.032558907 -0.0006604 0.039397407 -0.063591205 -0.06251903
-0.047365524 -0.071619615 0.03674825 0.011600043 -0.042824194 -0.028210372 -0.027006561 -0.050978392
0.024950026 -0.044934403 0.048960425 0.052486494 0.01725485 -0.02240157 0.026649525 -0.03915961
-0.04682729 0.032585792 0.012831319 0.044285137 -0.03188189 0.019585649 -0.0118352845 -0.06503295
-0.052581675 -0.059898786 -0.030242423 -0.041332014 -0.033202667 -0.03091226 0.016353285 0.05742168
0.03066302 0.017728236 0.011791989 -0.041306484 -0.052871227 0.04491351 0.061599016 0.025446372
-0.054714605 0.01811792 -0.025908021 0.036513295 -0.030166527 0.053328272 -0.030479193 0.0015778278
0.03277467 0.025976093 -0.055265214 -0.02597903 -0.0042547784 -0.060059354 0.040411107 0.04284306
0.03692571 -0.051419146 -0.031092478 -0.021744609 -0.0054767067 0.05923837 0.03496098 -0.05063434
-0.03194883 -0.009511344 0.026962131 -0.02209534 0.027082691 0.057412654 -0.016587174 -0.027584828
0.021539222 -0.033646356 -0.046102427 -0.053192347 0.025879199 -0.00452422 0.020357886 0.04092496
-0.07031123 -0.061467044 -0.045798972 0.02163504 -0.0066723116 0.0109764105 -0.057387248 -0.06846317
-0.037110697 0.011085517 -0.0062777083 -0.05717816 0.06231175 0.0131847225 0.033851676 -0.062343135
-0.0054868753 0.10495375 -0.03300046 0.014422715 0.044298828 -0.058195986 0.007070698 0.04519428
0.0471562 -0.051913917 -0.05799846 -0.058372617 -0.029878017 0.016939012 -0.014987619 -0.054243255
-0.04786071 0.043212857 -0.04675024 -0.03424621 0.022149906 -0.003008707 0.057478104 0.0016101687
-0.016441762 0.0055215163 0.024211556 -0.03279966 -0.05556798 0.03364561 0.0052514994 -0.010144082
-0.046766788 -0.064186946 0.009911999 0.035980057 -0.04115519 0.035002492 0.02138915 -0.049892142
-0.012579056 -0.048792902 -0.049103096 -0.036560312 0.049853206 0.036792938 -0.06603932 0.02720769
-0.017310958 0.04223155 0.029401362 -0.040964596 -0.00393608 0.017724501 0.048030835 -0.00068427395

lin2.bias f4 [256]
00000000: b860 5cbd ef30 c3bc d567 79bd 1b8a bdb9
00000010: aede 443d 8124 c13d b594 213b 1188 4c3c
00000020: ef9f a4bc 44df 843d 9d32 283d a64e 0c3d
00000030: d07f b5ba 8f1b 48bd 3fb0 e33c b41b debc
00000040: 87d3 6bbd caea 453d 8c63 173d 8343 5d3d
00000050: 024f 4d3d 916a 99bc b43d d0bc 8c68 dcbc
00000060: 6702 883b 41d5 bebc 7701 a8bc 4631 fb3b
00000070: 8ff1 d33c 623b 1c3d aa01 193d 8211 393c
00000080: 7c3b 50bd 2234 b3bc 9bd5 7fbb 96b2 1e3d
00000090: 7552 953b 45e1 ad3b 2218 a43c 08b0 86bc
000000a0: ead7 953c 8825 a43c 44c9 87bb aa42 323d
000000b0: cd90 5b3d 9257 543d 8283 1ebb 3ddd 6cbd
000000c0: 993a 61bd 9795 29bd a69b 233d 6a9b 0bbd
000000d0: ef76 1c3d 4f0a 04bd 9779 c9bc 263f 6bbd
000000e0: f329 523e 5bd7 34bb dde6 60bb eab0 1d3c
000000f0: e900 4d3d b2c2 61bd 9132 173d 56b3 88bd
00000100: d584 dabb ef3b 2b3d 7694 f93c 50be 6ebd
00000110: f002 3cbb 747f 5cbb 2fa8 2a3d e16f 9f3c
00000120: dd01 c33a 5bd6 f8bc 93de 7dbd f597 8b3c
00000130: 2359 5bbc 7b41 413d bc80 063d 6404 343d
00000140: 62de 22bb a34d 363d 0927 bbba 0f43 78bd
00000150: 7b15 1c3d 738a 3f3d 94c0 733d 291c 9d3c
00000160: 22e6 76bd fcbf d73c 98f3 42bb 77af 0fbd
00000170: 24eb 4e3d eddc f2bc 4ce3 d63c 80fd fe3c
00000180: 2c77 683d 630c daba 40b7 83ba 7d4c 95bc
00000190: c4de c73c 93e2 99bc a024 aebc db89 55bd
000001a0: 5ed1 23bc 60a8 3dbd 78f2 25bd bb66 1a3d
000001b0: 92d8 17bc a0f0 443d b4d0 7a3c b0a1 30bd
000001c0: d229 ee3c 7764 a7bb 6436 98bc e212 213d
000001d0: 18b6 1d3c c940 d239 3df5 823c e854 c8bb
000001e0: ec4e 96bd 8213 003b 2f8a 1e3d b5fe 063c
000001f0: d02e 14bc 5945 86bc a468 483d ed4a 4fbc
00000200: fd2a 5b3d f306 553b a839 083d 6865 9d3d
00000210: bbd8 07bb d973 5c3d 9167 633d af3b 5ebd
00000220: bc10 503c 04f0 fabc 0147 8ebd 3e75 523d
00000230: 2081 1f3d dfa6 cfbc daa5 963c cc65 a7bc
00000240: c265 323d 89ef e43c aa79 12bd b292 79bd
00000250: 62ba 77bd ea7d a73b cab7 18bb 13c1 17bd
00000260: ef98 623d ca93 0b3d bbd2 e0bc a5b5 643d
00000270: fd46 943b aca3 e5bc 4864 a43c 76d3 68bc
00000280: 6297 21bd 43d9 9a3c 2d24 a6bc c9fc 94bc
00000290: 77f1 2dbd 7b44 d4bb 9ed5 6bbd 463e 333d
000002a0: 5e38 713d 1355 89bc 5d91 923c 3a49 923c
000002b0: 8cc0 d0bc fc17 08bd ffb1 b13d 526f 1c3c
000002c0: 38ef cabc abde a3bb 823e 2e3d 5ba0 493d
000002d0: c2a9 2d3d 0894 edbc 69df 923b 9118 2ebd
000002e0: fc14 133d 89e4 013d 6e13 18bd 57e6 583d
000002f0: e47b 793d 3f1c 453c f14e 873c 082b 6e3d
00000300: 7a8c 8c3c 3a4b 8a3d ab3e 023d fb85 c03c
00000310: ad04 f73c 6ac2 ce3c 272b 2b3b 3163 b6bc
00000320: c1f8 0fbc 8d43 943c a9b4 15bd 13fd 83bd
00000330: 2fd7 15bd 049d 61bd 92d8 32bd 1d9d 073c
00000340: 164a 0c3d 00a0 f43c 082d 4c3d 3715 363d
00000350: 7acc 463d 189a 5b3d 0431 5cbd dd3e c93b
00000360: cf5b 2ebd 47a4 533d b6cf 27bd bdc2 67bd
00000370: f33c a8bd 3e15 88bc afd7 ae3c 4abd 05bd
00000380: f22c 40bd 525b 75bd aaa0 56bb 59aa 2f3d
00000390: 6120 d3bc 55ca 733c fa5c 60bd 1971 ad3c
000003a0: dabb 2c3d 404a 383d ad30 88bd 0ae2 b33c
000003b0: bd5c 75bd 1bb6 e3bc 72b3 3a3d c630 e2bb
000003c0: 83f9 e6bc abd0 dcbc 33e8 2cbd 793b 0bbc
000003d0: bb0d 1d3d 7de1 58bd d30a 7f3d 9b63 2cbd
000003e0: 834d 1ebd d38e cebb 25e2 53bd 1495 91bc
000003f0: fae9 1ebb e0ad 223d e29a 1e3d 9a13 14bd
-0.053803176 -0.023827044 -0.060890038 -0.00036151786 0.048063926 0.09430791 0.0024655287 0.012483613
-0.020095794 0.06487897 0.041063894 0.034254692 -0.0013847295 -0.048854407 0.027794002 -0.02711282
-0.057574775 0.048319615 0.03696017 0.054019462 0.050124176 -0.018727573 -0.025420047 -0.02690532
0.004150677 -0.023295047 -0.020508511 0.007665786 0.02587202 0.03814257 0.037355103 0.011295678
-0.05083798 -0.021875445 -0.003903723 0.03874453 0.004556949 0.0053063952 0.020031039 -0.01644136
0.018291432 0.020037428 -0.004143866 0.043520607 0.05360489 0.051841326 -0.0024187271 -0.057828177
-0.054987524 -0.041402426 0.03994336 -0.03408376 0.03819936 -0.032236394 -0.024594111 -0.05743327
0.20523815 -0.0027594182 -0.0034317293 0.009624699 0.050049696 -0.055117317 0.03691346 -0.066748306
-0.006668667 0.041805204 0.0304663 -0.058286965 -0.0028688274 -0.0033645304 0.0416643 0.019462528
0.0014877875 -0.03037565 -0.06197984 0.017040232 -0.013387951 0.047181588 0.032837614 0.0439495
-0.0024851789 0.044507634 -0.0014278601 -0.060610827 0.038106423 0.046762895 0.05950983 0.019178467
-0.060278066 0.026336662 -0.0029747244 -0.035079446 0.050517216 -0.029646361 0.02623143 0.031126738
0.056754276 -0.0016635772 -0.001004912 -0.018224949 0.024398215 -0.018784797 -0.021257699 -0.052133422
-0.0099986475 -0.046303153 -0.04051444 0.037695628 -0.009267943 0.04808104 0.015308548 -0.043122947
0.029072676 -0.005108412 -0.018580623 0.03932465 0.009625934 0.0004010259 0.01598608 -0.0061136372
-0.07339272 0.0019542878 0.038706 0.008239438 -0.009044364 -0.01639049 0.048927918 -0.012652141
0.053507794 0.0032505363 0.03325811 0.07685357 -0.0020728547 0.05382142 0.05551869 -0.054256137
0.012699302 -0.030632026 -0.06947137 0.051381342 0.038941503 -0.025348125 0.018389631 -0.020434283
0.043554075 0.02794625 -0.03576056 -0.060930915 -0.060480483 0.0051114457 -0.0023302906 -0.037049364
0.05532163 0.03407649 -0.027444234 0.055837292 0.004525064 -0.028032146 0.02006735 -0.0142105725
-0.03945101 0.018902427 -0.020280922 -0.018186944 -0.042466607 -0.00647789 -0.057576768 0.04376056
0.058891647 -0.0167642 0.01789158 0.017857183 -0.025482439 -0.033226 0.08676528 0.009548025
-0.024772272 -0.0050009093 0.04254008 0.049225193 0.04239822 -0.02900125 0.004482199 -0.042503897
0.035908684 0.03171209 -0.037127905 0.052954044 0.060909167 0.01203066 0.016517134 0.058146507
0.017156828 0.067526296 0.031798046 0.023501387 0.030153597 0.025239188 0.002611825 -0.022264095
-0.008787335 0.018098617 -0.036549244 -0.064447545 -0.03658217 -0.055081382 -0.04366357 0.008277205
0.03425034 0.02986145 0.049847633 0.044453826 0.048534848 0.053613752 -0.053757682 0.006141527
-0.042568024 0.05167034 -0.040969573 -0.0565822 -0.0821475 -0.016611692 0.02134308 -0.032651223
-0.046917863 -0.059901543 -0.0032749572 0.042887066 -0.025772275 0.014879783 -0.05477617 0.021172093
0.042171337 0.044992685 -0.06649909 0.02195837 -0.059902895 -0.027796796 0.04558129 -0.006902787
-0.028195148 -0.02695497 -0.04221363 -0.008498066 0.038343173 -0.052949417 0.062266182 -0.04208718
-0.03864814 -0.006303647 -0.05172934 -0.017771281 -0.0024248348 0.0397166 0.038721927 -0.036151506

lin3.weight f4 [128, 256]
00000000: 3cc4 973b f503 b7bc 7424 44bd 2951 853c
00000010: b6d5 34bd 4099 51bd 0909 923c 9c29 e63c
00000020: 4e8d 903c 2e78 0bbd 6ad8 12bd 371c 38bb
00000030: 676d 79bd 1924 463d 5aed 6dbd a2c3 423d
00000040: 7af0 02bd 1914 43bd 48cb 62bd fbef 163c
00000050: 9b3d a73c 3260 86bd dc06 4b3d 0e82 a23b
00000060: 00cc 83bc 1a41 72bd 7aed 54bd 22b8 93bc
00000070: 1235 c63c 9f42 233c b514 563d 5ae6 f4bc
00000080: 9d07 10bd 24af 8abc a48e 7bbd 10a0 2e3c
00000090: 1244 1e3d 5af0 233d 17aa 4bbd c0e8 e8bc
000000a0: 2ead 47bd 682e 533c 96ff e73c cf21 f5bc
000000b0: 36b0 fe3c 3ca5 343c 173d 08bd b043 82bd
000000c0: a2a5 bb3c 5afd 9c3c fe1a b2bb 7dd3 59bd
000000d0: 8f1a 773c e8a8 483d 85e3 62bd 61d4 423c
000000e0: d9c3 3d3d 4076 7fbc e166 79bc 8c4b 593c
000000f0: 71ea 813b 202a 613d 4ecc 42bd 58ff 9bb9
00000100: 28d9 8cbd e6c1 24bb 1e8b 85bc aa9a 313d
00000110: 9ff0 5e3d f328 e7bc 63d6 e03c 3a61 ea3c
00000120: 415a 3e3d 255d 253d 7a3b 0bbc e304 3c3d
00000130: 8041 75bd f186 6abd 68ac 75bd c218 65bd
00000140: 7467 823c f937 df3c 341c a4bc 97cc 02bd
00000150: 0900 853c 0a20 a3bc 1c39 5abd f71b d43c
00000160: 88c3 13bc d665 febc aad4 533d 960a 7fbd
00000170: a35e 653d 9f05 a9bc 904c 083c 1a2e 643d
00000180: a3e8 093d 52e9 853b 9ec2 3fbd ddfc 963c
00000190: 1508 733d bbca 1cbc a926 ffbb e2d3 3fbd
000001a0: cd22 47bd 532d 523d a6df 7f3c 1d98 d73c
000001b0: 76cd 8abd 31aa 5f3d 2114 0e3d af52 8fbd
000001c0: 3a72 69bb f536 6e3d 17f7 493c 800d 313b
000001d0: b69b 783d f44b f93c 7031 98bc da9a 903d
000001e0: 6887 98b9 e75c 123d 9886 503d d09b 5ebc
000001f0: 8480 623d 9628 03bd f762 21bd 18be 6fbd
00000200: a0be fa3c 3c4d 07bc 98bf 30bc 18c5 8ebc
00000210: e201 febb f93a 77bd fb1e 81bb 9e78 7bbd
00000220: d0ea 87bd d925 233d c6ec 02bd d11a 3bbd
00000230: 1ec7 19bd 7f19 f9bc fb6c cfbc e05e bcbc
00000240: ae52 0dba a4a6 a0bc e11e 6abc 228a 76bd
00000250: 8030 5c3c b808 59bd 599a 0c3d 8dc4 72bd
00000260: cca6 4cbd 8c17 c0bc be5f f9bb 3c58 343d
00000270: 965c d63c bf19 61bd da89 01bd 075d 84bb
00000280: b6b3 b5bc 5b21 23bd 415d 383d d02e 543d
00000290: 848b 87bd 38da 683d 6c42 6c3c 84be 85bc
000002a0: dce4 433d 9a23 233c f538 4cbc ada5 4ebd
000002b0: fa18 52bd 20e8 56bd 5716 71bd 853a 73bc
000002c0: 7bd3 923a d059 9fbb 8cee 283d 6130 cc3c
000002d0: 7603 513d 3e7c 21bc 120b 623d c326 84bd
000002e0: 2a02 433d e76e 80bc eea5 f73c f313 5cbd
000002f0: d664 483c 9282 88bd 655c 183d 09df 88bc
00000300: 8c21 4cbd 8ffb 23bd acca 0a3d d0ce f73c
00000310: 2ea1 a4bc 7505 7abd 5569 0d3d ca5e 37bd
00000320: b14f 17bd 7dda 753c 35ee 243c 7a05 693d
00000330: 64ba ce3c fa23 45bd d025 a33c d6f2 bdba
00000340: a74c c4bc e13f 5b3d 0b02 663d bc4c 063c
00000350: 0db2 383c 9ee6 d1bc b6eb 4cbd fc13 d8bb
00000360: 8cc5 efbc 6ac9 47bd d98c 31bc 4613 3c3b
00000370: 453b 2fbd 7f25 fcbc b364 9b3c 7a96 45bd
00000380: 4308 73bd 0118 d03c 5fef 583d 36f2 3c3d
00000390: d5b9 68bb 0163 043d 38ed 5fbc a3fb 083d
000003a0: da29 9abc 0412 d23c 54b0 b03c bc1a 15bd
000003b0: e283 483d 97d7 7bbd 7d1a ffbc 52bd 4f3d
000003c0: 5e4d e6bc 9da8 5ebc a6de 8cbc 93ed 9abc
000003d0: 909d 25bd 0d7c 493d d43a 443c 2965 88bd
000003e0: 0206 1bbc ee08 7bbd 58fc 39bd bd13 433d
000003f0: a4df 683d cbb3 5abd 84e5 753d 5e6a 943c
0.0046315473 -0.022340754 -0.047886327 0.016274052 -0.044149123 -0.05117154 0.017826574 0.028096013
0.017645504 -0.03405016 -0.03585092 -0.002809299 -0.06089535 0.04837427 -0.058087684 0.04754985
-0.031967618 -0.04762659 -0.055369645 0.009212489 0.020415118 -0.065613165 0.04956709 0.0049593514
-0.016088486 -0.059144117 -0.051984288 -0.018032137 0.024195228 0.009964614 0.05226584 -0.029894996
-0.03516351 -0.016929217 -0.06141533 0.010658279 0.038639136 0.04002414 -0.049722757 -0.028431296
-0.04874914 0.012889482 0.028320115 -0.029923348 0.031089883 0.011025723 -0.033261385 -0.063605666
0.022906128 0.019163776 -0.0054353466 -0.053180207 0.015082016 0.048989207 -0.05539276 0.011891455
0.046329353 -0.015592158 -0.015222282 0.013262641 0.003964715 0.054971814 -0.04755812 -0.0002975415
-0.06877357 -0.0025139987 -0.016301688 0.04336039 0.054428693 -0.028217768 0.027445978 0.028610814
0.04647279 0.040372033 -0.008498067 0.045903098 -0.05987692 -0.057257596 -0.059978873 -0.055931814
0.01591847 0.02724837 -0.02003298 -0.031933393 0.016235368 -0.019912738 -0.05327712 0.02589224
-0.009018786 -0.031054419 0.051716484 -0.062265955 0.055998456 -0.020632563 0.008319035 0.05570803
0.033669125 0.004086652 -0.04681646 0.018431121 0.05933388 -0.009569819 -0.007786591 -0.046832927
-0.048617173 0.051312756 0.015617287 0.02631765 -0.0677747 0.054605667 0.034687165 -0.069981925
-0.0035621063 0.05815788 0.012326977 0.0027016103 0.060695373 0.030431725 -0.018578261 0.070607856
-0.00029092585 0.03573313 0.05090961 -0.013586953 0.055298343 -0.032021128 -0.03940102 -0.058530897
0.030608475 -0.00825816 -0.010787867 -0.017427966 -0.0077516893 -0.060358975 -0.0039404607 -0.061394326
-0.06636584 0.039831016 -0.031964086 -0.04567987 -0.03754341 -0.030407665 -0.02532052 -0.022994459
-0.00053910434 -0.01961071 -0.014289589 -0.060190327 0.013439298 -0.05298683 0.034326885 -0.059269477
-0.049963757 -0.023448728 -0.0076102903 0.04402946 0.026167195 -0.054956194 -0.031625606 -0.00403941
-0.02218042 -0.039826732 0.04501081 0.051802456 -0.06618407 0.056848735 0.014420133 -0.016326196
0.04782568 0.009957219 -0.0124647515 -0.05045097 -0.05129335 -0.052467465 -0.058859196 -0.014845495
0.0011201942 -0.0048630014 0.04124312 0.024925413 0.05102869 -0.009856282 0.05518634 -0.06452706
0.047609486 -0.015677882 0.030230489 -0.053729963 0.012231072 -0.06665529 0.03719749 -0.016707914
-0.04983668 -0.040034827 0.03388469 0.030249983 -0.020096388 -0.06104036 0.03452428 -0.044768132
-0.036941234 0.015005705 0.010066559 0.05688999 0.025235362 -0.048130013 0.019915491 -0.0014491926
-0.023962332 0.053527717 0.056154292 0.008197006 0.011272919 -0.025622662 -0.05002948 -0.006594179
-0.029269002 -0.048776068 -0.010836803 0.0028698011 -0.042781133 -0.030779598 0.018968916 -0.04823921
-0.05933405 0.025402071 0.052962657 0.046129428 -0.0035511155 0.03232098 -0.013667397 0.033443104
-0.018818785 0.025643356 0.021568455 -0.03640245 0.0489539 -0.0614849 -0.03114056 0.05071766
-0.028113063 -0.013590005 -0.01719601 -0.018912112 -0.040433466 0.04919057 0.011976916 -0.0665992
-0.009461882 -0.061287813 -0.04540667 0.047626246 0.056853905 -0.05339412 0.060033336 0.018117126

lin3.bias f4 [128]
00000000: 5c4e 393d c725 6e3c 21c5 08bc f646 fbbb
00000010: 1abf 953c 1aa1 2bba 4a1f 7cbd c7b5 813c
00000020: 8362 da3b ae9f 74bc e84d 553d e720 f23c
00000030: bd25 9d3c 6994 e5bc a162 f43c bbeb d1ba
00000040: 1ea2 9d3e 1a52 133d 6820 6a3d 11f1 b2bc
00000050: 8422 c6bc baf2 55bd f7a7 163c 0d70 da3c
00000060: 00b5 4ebd fcd6 103c ac4e d4bc 7051 74bc
00000070: 79aa 8abd a926 2a3c f794 9a3d 299a 42bd
00000080: 4818 aabc 07a3 09bd ba83 90bc b569 27bd
00000090: 858c c9bc 163c 923c a40e 7ebd 476c d63c
000000a0: f3f5 c7bb e9a5 e33c da48 a83a 8114 9abd
000000b0: 4b32 fb3c 01c5 c03b 445b 993c 108c febb
000000c0: 9809 183d 071c 25bd 37d5 9dbc 3990 6f3d
000000d0: 0570 6bbd 1fee abbc 5ac1 cabc 4371 21bd
000000e0: 2f51 553d da83 1e3d 7f13 dbbc 63f9 cf3b
000000f0: de7b 993c a365 3a3d d600 49bd 413b ab3c
00000100: 3349 dfbb 90cd e73b b7b9 5b3d 00e4 1cbc
00000110: 47e5 24bd 3358 56bd b258 113c e4ad 27bd
00000120: a99c 5dbc ed4b 6c3d 46ee 0fbd d094 93bc
00000130: 93c6 f33c 0933 2cbd 0ee0 1bbd 9e86 2c3a
00000140: cac3 e53c 64fa 4abd d7f6 76bd 216f 513c
00000150: 448a 973c e8c8 bcbb 18c4 143d 7ee6 5c3d
00000160: 27d1 73bd a429 d33b 68fc 9c3e 5d52 623d
00000170: c480 cb3b 55b1 083d 7a5f dabb c910 e4bc
00000180: 979b 18bd c266 16bd 0c86 5fbd 944a 6f3d
00000190: d289 19bd c4bf 853d 1561 533d 6c7f bd3b
000001a0: f8af af3b dee5 38bd 0b8a 8bbd 63fa a9bc
000001b0: 34a2 6d3d b8a2 7f3c 3728 0cbd f534 14bc
000001c0: 58c3 483d 61ed 56bc b8f8 c2bd 2a52 6ebd
000001d0: fd16 edbc 96be f23c bb5e 88bd d038 2ebd
000001e0: cb7e 65bc c55a 613b a6fb 4e3d b3a4 253d
000001f0: 71f5 753d 2af3 4ebd 12fe 48bd 75b8 d13c
0.045240745 0.014535374 -0.00834778 -0.0076683713 0.0182796 -0.00065471383 -0.061553277 0.015833749
0.0066645755 -0.014930649 0.05207625 0.029556705 0.019183034 -0.028024869 0.029832186 -0.0016015688
0.30787748 0.03596697 0.05715981 -0.021843465 -0.02418638 -0.052233435 0.009195319 0.026664758
-0.050465584 0.008840319 -0.02591642 -0.014911994 -0.06770796 0.010385194 0.07547944 -0.0475103
-0.020763531 -0.03360274 -0.017640937 -0.040872294 -0.024603138 0.017850917 -0.06202568 0.026174678
-0.0061023175 0.027789073 0.0012839094 -0.07523442 0.03066363 0.0058828597 0.018720277 -0.0077681616
0.037118524 -0.040309932 -0.019266708 0.05848715 -0.057479877 -0.020987568 -0.0247504 -0.039414655
0.052079376 0.038699962 -0.026742695 0.006346868 0.018735822 0.045507085 -0.049073063 0.020902278
-0.006814146 0.0070740655 0.05364391 -0.009575844 -0.04025772 -0.052330207 0.008871244 -0.04093732
-0.01352612 0.057689596 -0.035139345 -0.018015295 0.029757774 -0.04204086 -0.038055472 0.0006581339
0.028047461 -0.049555197 -0.060294 0.012782843 0.018498547 -0.0057612546 0.036319822 0.053930752
-0.059525635 0.006444173 0.3066132 0.05525433 0.0062104184 0.033372242 -0.0066642137 -0.027840035
-0.037257757 -0.03671909 -0.054571196 0.058420733 -0.03748495 0.06530717 0.051606257 0.005783012
0.0053615533 -0.045141093 -0.06813439 -0.020749277 0.058016017 0.01560276 -0.03421804 -0.009045829
0.04901442 -0.013118119 -0.095200956 -0.058183827 -0.028941626 0.029631894 -0.066586934 -0.04253465
-0.014007281 0.0034386378 0.05053296 0.040440273 0.060048524 -0.050524868 -0.049070425 0.025600651

lin4.weight f4 [64, 128]
00000000: 9f89 b83d 68af b0bc 83b0 8d3c f4bd fd3c
00000010: c376 9bbc 3e6b 833d 757e eabb 5041 023c
00000020: 2a0c bdbd af6a 873d 5ff1 70bd 03f2 223d
00000030: f67d 813d 4e01 0fbc 856f a63b 0e98 9f3c
00000040: 9f75 f53c dadb 09bd b82d 913b af6e 3fbd
00000050: 665d e43a 6ad3 b6bd d26a fa3c c4cd 9f3d
00000060: 6aef 8cbc dad0 30bc 27c0 a73d a293 503d
00000070: 45cd 68bd c98e 85bd 9e05 353d 5fe9 223b
00000080: b80f 1b3d 8673 8abc 350c e4bc f8d1 233c
00000090: 7196 783d 734e 67bd e023 a53d 9952 81bc
000000a0: 0be7 d13c 8d63 c0bb fc64 28bd 512a 2c3c
000000b0: 3a75 ad3c 60e9 5b3d 4ae0 c23d 5d2b b63b
000000c0: 9ad5 d03b 29fe 303d 19cc 90bc bf98 9cbc
000000d0: 770f 2b3d 0656 623d 1c22 07bc 99f4 343d
000000e0: d4f3 0fbb 4962 4ebd 113b 093d 3089 c53c
000000f0: 29f7 b13d 7bce 793d ef71 903a da1f a73d
00000100: 6c3e f6bc 79ee 3fbd 2db1 68bd 162c 6fbc
00000110: 979e 993d 7b76 9cbb 7efb 0b3d 5400 5f3d
00000120: 4ec7 553d 0af6 1abd 8d99 ac3c df09 8dbd
00000130: 4f2a 03bd 99e1 b2bd 2602 503d 93e0 0d3d
00000140: 4712 ae3b e07d c63c d011 9f3c 8d45 7a3d
00000150: 4e72 28bc 87dc 48bd 3c96 70bd 0318 ad3c
00000160: e0a0 943d 16dc 3abd dca3 08bd 4245 a4bd
00000170: 85fa b3bd 6fff 713d 4c53 7cbd 4f5c 9b3d
00000180: 0734 223c b972 f63c 52c8 cdbc 5706 64bd
00000190: 208c b1bc d52e 2b3d a197 8a3d f604 a5bd
000001a0: a18f 60bc 905c 9cbd 0c7b 57bb f7fa a93d
000001b0: 9d16 2f3d 061f 043d f147 62bd 8522 aa3d
000001c0: c376 663d 40a3 b1bd e5be 3f3d 11c6 9bbd
000001d0: 52c9 ba3d a581 ac3d 9cb2 af3d d6f5 933d
000001e0: 433c 01bd 5976 a73c b3f0 afbb ac59 adbd
000001f0: ca74 743d a045 cebd 848b 30be 117f 843d
00000200: f0d9 873d d48d acbd de89 363d 078e d8bc
00000210: 084d 5ebd 852d 843c 7523 64bd b529 803d
00000220: f3cb a3bc c24b 1e3d f437 85bd b4bd a43c
00000230: 51d2 b7bc d31b da3b 487d aabd fa99 a03d
00000240: 3aa4 13bb 7373 2ebd d654 eb3b 1881 a6bd
00000250: 373b 05bd c9e3 333d 48d6 b5bd 5236 57bd
00000260: c9d7 aabd a1e0 cfbc 7686 8b3d e1a8 6dbd
00000270: f18d 91bd 3548 25bd 3a61 aabc a4ad 36bd
00000280: e51d 983d 2c11 17bd 75a7 94bd d69e 233d
00000290: ee39 073d 6294 66bd ac14 38b9 f287 01bd
000002a0: 814c 95bd e870 1d3d c2fd 933d ceee 8e3c
000002b0: a7a5 c33c 1e7e a0bd 582c a23d 1ef0 a3bd
000002c0: c747 683d 309b 9cbd 1cb8 0d3e 04a1 243d
000002d0: 668a 9a3d f007 60bb 4799 a03d 8290 c13d
000002e0: 5e94 b03d df0b a3bd 6516 223d d977 a13d
000002f0: 5206 743d 94f1 ccbc 0e85 713d d3c2 3dbc
00000300: 4e9c 613d 8fc2 b83c f7eb 033d a405 cf3b
00000310: 325d 57bd 4594 24bd bd9a b8bc ff73 603d
00000320: 1040 5bbc 372d dd3c a828 683d 298b abbd
00000330: a22c 93bb 1a81 4cbd 608d e1bc d923 9a3d
00000340: 77c8 363c 248c 133d 411f 9d3d de71 873c
00000350: 5c09 3c3d 24ed 85bd 3417 8f3d a793 3c3d
00000360: 0dc7 7d3d 3747 f13d dd16 3cbd 71e3 ae3d
00000370: f02a acbd ff0f 7fbd abb6 9bbd 2d61 403d
00000380: 4238 16bd 8c11 663d c299 dc3c 0ec2 79ba
00000390: 34fd 02be ada0 43bc 1ad7 98bd 87b6 a8bd
000003a0: 653a b93d edd4 9ebd f963 193c 9974 5c3c
000003b0: b520 2abc 2744 e63c be9c 713b a9e8 3e3d
000003c0: 3ccc 8cbd 903c a3bd 8cdb 2fbd 148a 8a3d
000003d0: e586 7f3d e0f2 6d3d 0552 28bd d66f c7bc
000003e0: 3364 4abd 9cbb 663d fc90 eb3c 8920 1a3d
000003f0: 399b 86bd 0ef8 013c 6f3c eebc 55e6 f7bc
0.09010624 -0.021568015 0.017296081 0.030974366 -0.018977528 0.06416939 -0.007156188 0.007950142
-0.09230836 0.06612145 -0.05882394 0.03978158 0.06322853 -0.008728338 0.005079212 0.019481685
0.029963313 -0.033656932 0.004430499 -0.046736415 0.0017422854 -0.08927043 0.030568514 0.078029186
-0.017204005 -0.010791982 0.08190947 0.050922044 -0.056836385 -0.06521375 0.04419481 0.0024858338
0.037856787 -0.016900789 -0.027837852 0.009998791 0.060690347 -0.0564713 0.08063483 -0.015786456
0.025622865 -0.0058712424 -0.04111193 0.010508136 0.021174062 0.05368936 0.09515436 0.0055593685
0.0063731195 0.043211136 -0.017675446 -0.019115804 0.041762795 0.05525782 -0.008247878 0.04417858
-0.0021965401 -0.0503867 0.033503596 0.024113268 0.0868972 0.06098793 0.0011020283 0.08160372
-0.030059062 -0.046858285 -0.056809593 -0.014597913 0.07500952 -0.004774866 0.03417539 0.054443672
0.052192025 -0.037832297 0.021069312 -0.068866484 -0.03202277 -0.087344356 0.0507833 0.034638
0.0053122374 0.024229944 0.019417673 0.061101485 -0.010281159 -0.049038436 -0.058737025 0.021129614
0.07257247 -0.045620047 -0.033359393 -0.080210224 -0.08788017 0.05908149 -0.061602876 0.07585966
0.0099001 0.030084 -0.025119934 -0.05567011 -0.021673262 0.04179271 0.06767202 -0.08057587
-0.013706119 -0.076348424 -0.0032879738 0.08299821 0.042746175 0.03225615 -0.05524439 0.08307365
0.056265604 -0.086737156 0.04681291 -0.076061375 0.0912043 0.08423165 0.08578989 0.07224624
-0.03155161 0.020442175 -0.0053692698 -0.08464369 0.05968169 -0.10071874 -0.17240721 0.064695485
0.06633365 -0.08425489 0.044565074 -0.026434911 -0.05427268 0.016134987 -0.055697877 0.06257955
-0.019994712 0.038646467 -0.06504813 0.020109989 -0.022439154 0.006656149 -0.08324677 0.07841869
-0.0022528307 -0.04259057 0.007181744 -0.081300914 -0.032527175 0.043918405 -0.088787615 -0.05254204
-0.08341939 -0.025375666 0.06812756 -0.058022384 -0.07107151 -0.040352065 -0.020798314 -0.04459919
0.07427577 -0.03688161 -0.072585024 0.0399464 0.03301423 -0.056293853 -0.00017555308 -0.03162379
-0.072899826 0.038437754 0.07226135 0.017447855 0.0238827 -0.07836555 0.07918614 -0.08004783
0.056709077 -0.07646787 0.13839763 0.04019262 0.07545929 -0.0034184419 0.07841735 0.09451391
0.08622049 -0.079612486 0.03957214 0.07884187 0.05957634 -0.025017537 0.05896478 -0.011582094
0.055080704 0.02255371 0.032207455 0.006317811 -0.052579112 -0.040180463 -0.022534722 0.054798122
-0.013381973 0.0269991 0.056679398 -0.08376152 -0.0044914046 -0.04992781 -0.027533233 0.07526369
0.011156193 0.03602232 0.07671977 0.016533788 0.045907363 -0.065393716 0.069868475 0.04603925
0.061957408 0.11781161 -0.04592024 0.08539475 -0.08406627 -0.062271114 -0.076032005 0.046967674
-0.036674745 0.056169078 0.026928786 -0.00095275126 -0.12791902 -0.011940164 -0.07462902 -0.08237939
0.09044341 -0.07755456 0.009362214 0.013455533 -0.0103837745 0.02810867 0.0036867107 0.0466086
-0.06874892 -0.07970536 -0.042933986 0.067646176 0.062384505 0.05809295 -0.041093845 -0.02434532
-0.049411964 0.056331262 0.028755657 0.037628684 -0.06572575 0.007932676 -0.029081551 -0.030261198

lin4.bias f4 [64]
00000000: f231 acbd 0f72 94bd 6320 6ebd b9f8 b63d
00000010: 2a46 0d3a a829 babd df4a 083d 66ef 8cbd
00000020: 7c88 b9bd ae9e bc3d 9ecb c63c b112 bdbd
00000030: b14a 043c bcaa e2ba 006b 3c3d 088a a4bd
00000040: d0d5 0fbd 8e46 393c e9f9 073d 5c06 91bd
00000050: a455 a63d f8ca a43d 518e 343d ac0b 74bd
00000060: e9b2 7a3d 210d 8b3c 1212 d13c b458 febc
00000070: d20c 543d 9d73 85bc 958c b23c 88ef ba3c
00000080: a072 a3bd d75d 72bd 0862 663d ebab 88bc
00000090: 3a3f 553d c894 bd3a 3e07 b23d 6580 a7bd
000000a0: bd9c 543d cf42 44bc 9307 af3d cacf 7fbd
000000b0: 11ee f8bc 8867 803b 8383 f7bc e661 11bc
000000c0: df43 9cbd 55a8 833d f888 e7bc ebb2 c0bc
000000d0: f9da 1b3d 9207 003d 73df 2f3c 078e c13d
000000e0: 195f f9bb 4387 e5bc 1c14 1fbd bbb6 053d
000000f0: 81d2 6e3b 80a0 523c 7ff2 cf3c b56c 9b3c
-0.08407964 -0.072483175 -0.058136355 0.08934159 0.00053891784 -0.090899765 0.033274528 -0.06881599
-0.090592355 0.09209953 0.024267014 -0.09232081 0.008074448 -0.0017293314 0.04600048 -0.0803414
-0.035116017 0.011308325 0.033197317 -0.07081291 0.081218034 0.08046526 0.044081036 -0.059581444
0.06120578 0.016974034 0.025521312 -0.031048156 0.05177004 -0.01629048 0.02179555 0.022819296
-0.07980847 -0.059171524 0.056245834 -0.01668354 0.05206225 0.0014463896 0.086927876 -0.08178786
0.05190729 -0.011978819 0.085463665 -0.062454022 -0.030386956 0.003918592 -0.030214077 -0.008873438
-0.07630133 0.06428591 -0.028263554 -0.023522815 0.038050625 0.03125722 0.010734427 0.09450918
-0.0076102135 -0.0280186 -0.038837537 0.03264497 0.0036441388 0.012855649 0.025384186 0.018972734

lin5.weight f4 [16, 64]
00000000: a612 853c 0ed2 7e3d 0bc9 65bd 004e 023d
00000010: 1bc4 56bd 12b8 c63d e05f cb3c a3b1 c63d
00000020: d297 6d3d d4b3 16bd 9cfd dfbd bee2 1cbd
00000030: 72cb 5c3d 88ea 94bd 0fa6 acbd 3db4 093d
00000040: e209 e43d 0b01 bb3d 0b20 85bc a88c c53d
00000050: 770c bc3d 2436 a93d 451c b93d 00ed 5dbd
00000060: 0273 dabd 4f0a d33d 54e5 9ebd 830d c9bd
00000070: 9f79 a73d 5af5 b43b e79d 613b 1ef3 d9bc
00000080: d86a fc3d 037d 96bd 4544 173d 24f4 a7bd
00000090: 702a 923d b9fb 1c3d 721d d93d d557 71bd
000000a0: 68c7 eabc d95e 7f3b 5e4b 873d 6132 8f3c
000000b0: 92b0 2dbc da30 c0bd 84af 9a3d 8877 20bd
000000c0: 8ec0 c3bd ace5 debc 264b 2b3c 3e52 8b3c
000000d0: 66be 9fbd d245 a9bd ca22 cabb b460 a83c
000000e0: 9546 e43c 0a41 6e3c 6a82 203d b80c 3cbd
000000f0: ccf0 ee3d d404 813d 10ff f9bd 9be6 da3d
00000100: cd16 d83d 9514 b5bd 1e0c a13d d874 9a3d
00000110: 090c e43c 9cef e9bd 3263 c33d dbbd e03d
00000120: b8ad 8fbc 927b 71bd 1bcc 233d 2a8e e7bd
00000130: d429 fd3d d7ba 633d 830a 903d d206 c8bd
00000140: 8d27 073e 244c 30bc ed09 2e3d 04ae c5bd
00000150: c9f0 70bd cbe1 333c 362f 7f3d 8731 f43b
00000160: 296a 3b3d 0997 e23d db62 d7bd e969 dbbd
00000170: a5f1 043d f319 1ebc 94e5 e2bd c9d5 63bd
00000180: 4bf1 f93d 2a3f e03d 3650 96bd b5ed a4bc
00000190: 4204 813c 2ef0 d83d 681d d63d ab1e 0f3d
000001a0: beee 2bbd 91b9 073d 5ea1 71bd 69c2 ddbc
000001b0: d24d 433d 6db3 eb3d da9d 4b3d cd2b 37bd
000001c0: b0a1 d23d 6c7f e33c 7eed 433d d6ad 04bc
000001d0: 4a72 0ebd 07d1 8b3d 964f 4d3d 01d1 8a3d
000001e0: 2a44 363c 05f7 033d 7212 5f3d 48bd 883d
000001f0: 48d6 523d 444a f33c e803 0abc 58d9 89bd
00000200: d961 66bc da14 96bc a940 30bd 4a06 a73d
00000210: 1ac3 0c3d d5ab c0ba dcc8 f93a f083 abbd
00000220: a1ec abbd 0b4d 033d 016e 86bc fffe aebd
00000230: 254e cbbd c522 b1bd 4e6e b53d 549d 37bd
00000240: a650 183d f8e0 47bc 71b1 ffbd 9129 84bd
00000250: 19e8 a8bd 33e2 b8bd d1f1 bcbd 606b edbd
00000260: c5bf 97bc d09e aebc e03e 313d d3bb cdbd
00000270: 7eca ecbd c294 0d3d 59c8 9bbd c8b7 29bd
00000280: 2b54 26bd 3a62 b1bc a9b3 c23d 438f 0cbd
00000290: 4884 b83d 500a f6bc 5aa0 ee3b 1572 9ebd
000002a0: a79b a1bd 427a 493d c92e a83d ac44 87bd
000002b0: afd6 dcbd 5fb9 f7bd dabb fcbd 3ec6 cd3d
000002c0: c7ef 503c 595d 963d bc2d bb3d fc52 8abc
000002d0: 389f 04bd 8083 c9bd 476c b5bc 5501 19bc
000002e0: 8529 d53d 581a 5d3d e865 e73d e6e0 4c3d
000002f0: cf70 e83d 4594 e3bd 5127 89bd 7113 cd3d
00000300: 47d1 c73d df29 d23d 70e8 3a3d fe7e 5b3b
00000310: 0470 8d3d abbc aebd 8742 c83d c0f5 d4bc
00000320: 7c5b 6dbd aac5 9f3d 9cb0 1d3d f1a2 b73c
00000330: 97ea 57bc 9b10 893d b55f 68bd 042c 0b3d
00000340: 8df5 d7bc 4b36 803c 89dc 25bd 173b 8cbd
00000350: 5080 7c3d a065 01ba 401c eebc 581c 4abd
00000360: 419f b8bc 889f c0bd 1392 c9bc f705 423d
00000370: 7275 093c 7c32 acbc 4960 e93d 9234 af3d
00000380: 0c2f 91bd ab17 363d 674a 6a3c dc0a a63a
00000390: 26f0 173b 40c6 e7bd 61b5 a6bd fa28 06bd
000003a0: 6210 eb3d 8efa 553d 7d14 25bd a016 ffbc
000003b0: 63c9 cabd e35f bb3c d19c 9abd c946 4d3d
000003c0: 8029 96bd 7840 673d da8e 733d 570c b0bc
000003d0: f59a 9ebd df00 cf3d b389 823d 0c14 88bd
000003e0: 9869 423d 6839 8e3b 3686 033e c72b 13bd
000003f0: 8128 92bd b085 b9bc b411 85bd dc4a 8c3c
0.016244244 0.062212043 -0.056099933 0.031812668 -0.052433114 0.097030774 0.02482599 0.0970185
0.058006115 -0.03679259 -0.10937044 -0.038302176 0.053904958 -0.07271296 -0.08430111 0.033619154
0.111346975 0.09131058 -0.01625063 0.09645969 0.09182065 0.0826228 0.09038595 -0.0541811
-0.10666467 0.103047006 -0.077585846 -0.0981703 0.08177494 0.0055224122 0.0034426393 -0.026605185
0.12325066 -0.07348063 0.03693034 -0.08200863 0.071370006 0.038326 0.106013194 -0.058921654
-0.028659537 0.0038966446 0.06606172 0.017480077 -0.01060118 -0.09384318 0.07553008 -0.039176494
-0.09558211 -0.027209125 0.0104549285 0.01700699 -0.077999875 -0.0826527 -0.006168698 0.020553924
0.027865687 0.014541874 0.039186873 -0.045910567 0.11667022 0.06299749 -0.122068524 0.10688516
0.10551224 -0.08841816 0.07863639 0.075418174 0.02783777 -0.11422655 0.095404044 0.10973712
-0.01753889 -0.058955736 0.039989572 -0.113064125 0.12361494 0.055598106 0.07033255 -0.09766926
0.13198681 -0.010760341 0.042489935 -0.096523315 -0.05882338 0.010979126 0.062300883 0.007452193
0.04575554 0.11063964 -0.10516902 -0.1071356 0.032457013 -0.009649741 -0.11078945 -0.055623803
0.12204226 0.109495476 -0.07339518 -0.020132879 0.0157491 0.10592686 0.104548275 0.034941357
-0.04197573 0.033135954 -0.058991782 -0.027070241 0.047681637 0.11508832 0.049711086 -0.044719506
0.10284746 0.02777072 0.047833912 -0.008098086 -0.034776963 0.06826978 0.050124727 0.067781456
0.01112465 0.032217998 0.05446095 0.066767275 0.051473886 0.029698499 -0.008423783 -0.06730908
-0.014061415 -0.01832049 -0.043030415 0.081554964 0.03436575 -0.0014699647 0.0019057053 -0.083747745
-0.08394743 0.032055896 -0.016409876 -0.085447304 -0.09927014 -0.0864921 0.088589296 -0.044827774
0.037186287 -0.012199633 -0.12485016 -0.06453241 -0.08247394 -0.09027519 -0.0922581 -0.11592746
-0.01852406 -0.021315962 0.043272853 -0.1004559 -0.1156206 0.034565695 -0.07606573 -0.041435033
-0.040607613 -0.021653283 0.09506924 -0.034316313 0.09009606 -0.030034214 0.007282299 -0.07736603
-0.078910165 0.04918886 0.082120486 -0.06604895 -0.10783135 -0.120959036 -0.12340517 0.10047577
0.01275248 0.073420234 0.091395825 -0.016885273 -0.032378405 -0.09839535 -0.022146357 -0.0093386965
0.1040831 0.0539802 0.11298734 0.050019167 0.113496415 -0.111122645 -0.06696952 0.10013474
0.09756713 0.102618925 0.045631826 0.0033492441 0.06906131 -0.08532079 0.09778314 -0.025996089
-0.057948574 0.07801373 0.038498506 0.022416564 -0.013178489 0.0669262 -0.0567319 0.033977523
-0.026362205 0.015650889 -0.04049352 -0.06847208 0.061645806 -0.0004936103 -0.029066205 -0.049343437
-0.022536876 -0.09405428 -0.024605786 0.04736897 0.008389818 -0.021020167 0.11395318 0.08554949
-0.070890516 0.044456165 0.014299965 0.0012668031 0.002318391 -0.1131711 -0.08140064 -0.032753922
0.11477734 0.0522409 -0.040302742 -0.031138718 -0.09901693 0.02287287 -0.075494416 0.050116334
-0.07332134 0.056457967 0.059462406 -0.02149026 -0.077443995 0.10107588 0.0637392 -0.06644449
0.047463983 0.0043403395 0.12844166 -0.03593042 -0.07136632 -0.022646755 -0.06497517 0.01712554

lin5.bias f4 [16]
00000000: 47b0 83bd 562f 223d 07b4 3bbd 4442 adbc
00000010: 1a67 3fbd 3b08 7dbd bb5b 6cbd 7838 3e3c
00000020: 9525 5abd d76d 473d bea2 163d 96ba 0f3d
00000030: 987b ac3c a8d1 ac3a f2b0 cf3d 01e2 313d
-0.064301066 0.039595924 -0.045825984 -0.021149762 -0.046729185 -0.061775427 -0.05770467 0.011610143
-0.053258497 0.048688736 0.036776297 0.03509005 0.021055028 0.0013185041 0.101411715 0.043428425
