src/virtuose_teleoperation/network_controller/trained_policy_MLP/Grasp_norm_BC_AHEE_delta_q_epoch_42.pth (torch, 472583 bytes, 10 tensors)

lin1.weight f4 [256, 36]
-0.077155806 0.05828608 0.14476174 -0.27052194 -0.15135539 -0.063794754 -0.12036649 0.23416774
0.042041786 0.17006622 -0.15034515 -0.15839441 0.085510924 0.012111496 -0.013580738 0.022581259
0.061591465 0.083994806 0.10410789 -0.049362034 -0.14098188 0.006317917 0.09517839 0.053292226
0.08303852 0.2767586 0.1636932 0.06983618 -0.054260254 0.117246054 0.0021356991 -0.14401275
-0.021060377 -0.15661132 0.17006789 0.102363944 0.15627588 -0.0038859413 -0.033061374 -0.11494207
-0.056483388 0.009791146 0.058030415 0.008478711 -0.0029646119 -0.1571936 0.16822103 0.0038778398
0.08031388 -0.27309453 -0.04771932 -0.13871032 -0.002579163 0.123650685 -0.18559499 -0.06352277
-0.029255046 0.099733844 0.0737617 0.054267738 -0.09094074 0.035974998 0.11651406 -0.07276271
0.014505128 0.15926844 0.036785252 0.10572329 -0.1133408 0.11570865 -0.022187045 0.052268643
-0.09110982 -0.113525726 -0.14088531 -0.06050332 -0.1257346 0.028491722 -0.060398314 0.04041527
-0.23047641 -0.18077637 -0.048629038 -0.13145757 0.066879414 -0.1987969 0.07775373 -0.111047044
0.08968756 0.085360095 0.11647526 -0.09279968 -0.03218569 0.12283459 0.03919354 0.0064318613
0.037190568 0.04717906 -0.0010938686 0.12111434 -0.04731425 0.10965048 -0.04638743 0.08717251
-0.0029191105 0.12035103 -0.17394155 -0.0782329 -0.1042189 0.06799712 -0.11911815 0.08074465
-0.1195107 -0.17164217 0.09190692 0.25340998 -0.13572697 0.023699483 -0.25311363 -0.06293691
-0.1786794 0.03088867 -0.16390751 0.16195485 0.092244826 0.1740336 0.023918534 -0.14433967
-0.04557501 0.16657516 0.06801081 -0.01447164 0.08812365 0.07971432 0.024820969 -0.03057675
-0.064707324 -0.12726289 -0.16567042 -0.11813955 0.14804618 0.08281291 0.05537741 0.03657836
-0.006665192 -0.03884922 0.02417078 -0.0343278 0.11725478 -0.035188768 0.011555487 -0.37092534
-0.23020005 0.035133854 0.31288177 0.45657134 -0.10217909 0.095585495 0.11102104 -0.24201484
-0.029533219 0.1065932 -0.08885763 -0.102608815 -0.17414491 0.24483752 -0.09801434 0.12034468
0.079019986 -0.17001034 0.042953998 -0.1044616 0.12377789 0.019864338 -0.053662322 -0.11031004
-0.12109946 -0.08694284 0.006000658 0.013062438 0.03470285 0.048976727 -0.044694223 0.01118511
0.09190943 0.101987205 -0.04034173 0.507879 0.17888789 0.12636569 -0.30380252 -0.3031008
-0.06307764 -0.056888957 -0.0917997 0.16264386 -0.11642637 -0.024035733 0.0046500703 0.0028223002
0.031086124 -0.006388973 -0.09570763 0.15532897 -0.09765331 0.047162004 -0.048502326 0.13097215
-0.03471204 0.17037684 -0.08228202 0.024575332 -0.094369695 -0.16008303 0.07157783 -0.10157649
-0.028580427 -0.11817765 0.083854556 -0.057775553 -0.1069494 0.036786497 0.062549 -0.077143654
0.10218214 -0.0071453354 0.04360507 -0.030705614 -0.008600834 -0.1494776 0.0917002 0.084223494
-0.07655649 -0.093983255 -0.021703204 0.013878007 0.07556488 -0.13200982 -0.020793028 0.04029177
-0.087459624 0.057626534 -0.088864855 0.04169578 0.13417557 0.105740175 0.13718824 -0.14733934
0.0100162625 -0.11473467 -0.09012382 0.02171868 -0.015192961 -0.07659923 -0.09174335 0.3064604
00000000: dd03 9ebd 62bd 6e3d 6c3c 143e da81 8abe
00000010: e8fc 1abe d3a6 82bd b582 f6bd abc9 6f3e
00000020: 0234 2c3d d725 2e3e 14f4 19be 2532 22be
00000030: 5a20 af3d 4c6f 463c be81 5ebc 55fc b83c
00000040: 5547 7c3d 7805 ac3d 8436 d53d d82f 4abd
00000050: 8e5d 10be 8706 cf3b e3ec c23d f348 5a3d
00000060: 1910 aa3d 4eb3 8d3e 319f 273e 4506 8f3d
00000070: 0040 5ebd b31e f03d 16f7 0b3b 1478 13be
00000080: d086 acbc b85e 20be 4726 2e3e 30a4 d13d
00000090: c906 203e 47ab 7ebb 5d6b 07bd bf66 ebbd
000000a0: 205b 67bd 0b6b 203c 4db1 6d3d 4bea 0a3c
000000b0: ef49 42bb 5cf7 20be 2242 2c3e 5b23 7e3b
000000c0: 9b7b a43d 0cd3 8bbe 5575 43bd 140a 0ebe
000000d0: 2d07 29bb 923c fd3d 9d0c 3ebe 3a18 82bd
000000e0: 47a8 efbc 4241 cc3d 6010 973d d947 5e3d
000000f0: 243f babd 855a 133d ec9e ee3d 9e04 95bd
00000100: eba6 6d3c 4417 233e 22ac 163d 7485 d83d
00000110: 391f e8bd a8f8 ec3d 9bc1 b5bc a517 563d
00000120: c997 babd 2d80 e8bd 3d44 10be 54d2 77bd
00000130: 92c0 00be 7967 e93c 3964 77bd 7b8a 253d
00000140: 0202 6cbe 711d 39be 3e2f 47bd d09c 06be
00000150: 13f8 883d 6a91 4bbe 593d 9f3d a26c e3bd
00000160: 1dae b73d 46d1 ae3d 958a ee3d c20d bebd
00000170: 24d5 03bd b490 fb3d 6889 203d 5dc2 d23b
00000180: 2355 183d d43e 413d 2460 8fba cc0a f83d
00000190: 96cc 41bd 6e90 e03d bf00 3ebd 8087 b23d
000001a0: 8c4e 3fbb 9a7a f63d bc1d 32be 9238 a0bd
000001b0: b870 d5bd 1342 8b3d 37f4 f3bd 735d a53d
000001c0: 07c2 f4bd f7c2 2fbe b239 bc3d f4be 813e
000001d0: 03fc 0abe 6b25 c23c 1c98 81be 11e5 80bd
000001e0: bcf7 36be 3c0a fd3c 5fd7 27be 7ed7 253e
000001f0: dbea bc3d dd35 323e cdf0 c33c c7cd 13be
00000200: ddac 3abd ae92 2a3e 4049 8b3d 751a 6dbc
00000210: 2c7a b43d 4341 a33d 5855 cb3c 187c fabc
00000220: 4685 84bd 3451 02be 82a5 29be 26f3 f1bd
00000230: 6b99 173e d199 a93d 6cd3 623d 31d3 153d
00000240: af67 dabb 5c20 1fbd cd01 c63c 4f9b 0cbd
00000250: 4623 f03d 1922 10bd 3a53 3d3c ede9 bdbe
00000260: 90b9 6bbe 84e8 0f3d 0a32 a03e b8c3 e93e
00000270: 4543 d1bd 54c2 c33d 005f e33d bdd2 77be
00000280: a6ef f1bc 894d da3d fdfa b5bd 9224 d2bd
00000290: 0b53 32be b0b6 7a3e bebb c8bd 4677 f63d
000002a0: 3bd5 a13d 3117 2ebe 88f0 2f3d f7ef d5bd
000002b0: 437f fd3d 89ba a23c 06cd 5bbd 3bea e1bd
000002c0: fe02 f8bd 160f b2bd 2ba1 c43b d603 563c
000002d0: 9324 0e3d d29b 483d 4a11 37bd c041 373c
000002e0: 033b bc3d abde d03d 5f3d 25bd 5c04 023f
000002f0: 632e 373e 0266 013e 018c 9bbe 0730 9bbe
00000300: da2e 81bd 6504 69bd 7b01 bcbd 1d8c 263e
00000310: f370 eebd 96e6 c4bc 9e5f 983b 57f6 383b
00000320: 54a8 fe3c 975a d1bb 5d02 c4bd 8f0e 1f3e
00000330: 75fe c7bd f22c 413d 60aa 46bd 901d 063e
00000340: 362e 0ebd 4477 2e3e 7a83 a8bd 3552 c93c
00000350: e644 c1bd ceec 23be 6697 923d 5607 d0bd
00000360: 8021 eabc 2007 f2bd f0bb ab3d 0fa6 6cbd
00000370: 4908 dbbd 70ad 163d b119 803d 7efd 9dbd
00000380: df44 d13d 6b23 eabb 3b9b 323d 578a fbbc
00000390: 83ea 0cbc a810 19be 51cd bb3d 5e7d ac3d
000003a0: a6c9 9cbd 4b7a c0bd ebca b1bc 9560 633c
000003b0: c3c1 9a3d 952d 07be 2456 aabc fc08 253d
000003c0: 081e b3bd cd09 6c3d c7fe b5bd 32c9 2a3d
000003d0: 5265 093e 4e8e d83d 137b 0c3e 20e0 16be
000003e0: 401b 243c 03fa eabd d692 b8bd 60eb b13c
000003f0: e6eb 78bc 0fe0 9cbd f0e3 bbbd 61e8 9c3e

lin1.bias f4 [256]
-0.05706238 -0.10334743 -0.013446594 -0.16190757 0.044191528 0.10838445 -0.036905613 -0.00044869795
0.027687814 -0.07900843 0.08266667 0.004602851 -0.15045582 0.101931855 0.06383841 -0.06857181
-0.012087475 0.05568784 0.11925288 0.049613062 0.10622179 -0.033946633 0.033874035 -0.049518403
-0.08255576 -0.0014314442 -0.13800615 -0.061992407 -0.09612064 0.0028341261 -0.09527222 -0.04329838
-0.09013543 -0.33307737 0.092732914 -0.0102219535 0.0654815 -0.17010596 -0.11621939 -0.12662767
-0.26785386 -0.019410493 -0.055602644 0.25372374 -0.16226089 -0.17521045 -0.077761784 0.15663043
-0.15096287 -0.25926083 -0.07018234 -0.03603694 -0.02233424 -0.16651972 -0.062302627 -0.31194386
-0.024559423 -0.044366647 -0.0329984 -0.19535911 0.085769676 -0.06369939 0.15750682 -0.12117951
-0.03829386 -0.13663656 0.065235935 0.030179277 -0.11079508 0.095891915 -0.20845115 -0.064110115
-0.15565239 -0.1959909 0.026410377 -0.1203168 0.023256421 -0.1517011 -0.121203475 0.021650724
-0.0854215 -0.1686413 -0.055900574 -0.08994369 -0.3622944 -0.107207015 0.051758766 -0.25436136
-0.2225385 0.14453138 -0.0038352273 -0.13748074 -0.17101489 -0.23068029 -0.29497683 0.011760423
-0.031729393 -0.058869675 -0.13573751 0.038602423 -0.24391495 0.07711725 0.21731505 -0.055421215
-0.11034953 -0.06283468 -0.16347493 -0.15235278 -0.012442269 -0.15260805 0.002971656 -0.1676845
0.12255349 -0.12015402 -0.27002656 -0.13317882 -0.1472416 0.024801262 0.011098096 -0.07479805
-0.042117845 -0.10464236 -0.30456 0.060481682 -0.017715257 -0.012348466 -0.13685304 -0.094541796
-0.07023345 0.11740255 0.1699536 0.0833803 -0.04718055 0.05709843 -0.056637287 0.094489895
0.015935041 -0.040025596 -0.37959626 -0.12545364 0.0040640463 -0.11754116 -0.02667352 0.13940491
0.1391168 0.11319558 -0.062075324 0.121853486 -0.001021699 0.052198548 -0.15188536 -0.22191383
-0.088619515 0.088050775 0.27951053 0.17163584 -0.0972948 -0.14055985 -0.06950131 0.081222005
-0.16085337 0.10035733 -0.11882978 -0.05800341 -0.065686256 -0.092782445 0.15362562 -0.08838153
0.04598668 0.08080011 0.044763748 -0.06272725 0.051185466 -0.19175342 -0.07916965 0.07127923
0.10277692 0.15824491 0.16729538 0.054802213 0.114830524 -0.10520872 0.024825297 -0.042138033
-0.015505294 -0.2772479 0.15639347 -0.021914061 0.03893664 -0.06322356 -0.042928305 8.123708e-06
-0.02762015 0.070955 -0.11961334 -0.096944734 0.12249147 0.29723826 0.06334233 -0.10836803
-0.11702453 0.025336891 -0.17051996 0.17457132 -0.18784209 -0.087768026 0.10813144 -0.065864235
0.050211225 0.13950826 0.030823648 -0.120293684 -0.18295926 -0.05862669 0.11751342 -0.04883198
0.13118413 0.056499284 0.048461396 -0.14917798 0.08666617 -0.060161516 -0.11699252 -0.21064258
0.0590053 0.12043973 0.036689363 0.094308496 0.14848025 -0.10885121 0.3536916 0.060003947
0.09269609 0.15647879 -0.10908941 -0.048578218 0.007430598 -0.21216092 -0.04422475 -0.039007284
-0.14934637 -0.095117986 -0.3087979 -0.117664225 0.0032473197 -0.2633245 -0.13825911 0.052025184
-0.2094628 0.040677957 0.124965005 0.13828643 -0.16790602 -0.04631417 -0.10643683 0.088193916
00000000: 3eba 69bd d1a7 d3bd 1a4f 5cbc 19cb 25be
00000010: 2d02 353d abf8 dd3d 572a 17bd 383f ebb9
00000020: 8ed1 e23c 2ccf a1bd 254d a93d 83d3 963b
00000030: 1711 1abe a6c1 d03d b6bd 823d 616f 8cbd
00000040: 8b0a 46bc ef18 643d db3a f43d 1137 4b3d
00000050: cf8a d93d a00b 0bbd 80bf 0a3d cfd3 4abd
00000060: ff12 a9bd 4c9f bbba 7c51 0dbe c0eb 7dbd
00000070: e6da c4bd bfbc 393b 151e c3bd a459 31bd
00000080: ed98 b8bd 1e89 aabe c1ea bd3d fb79 27bc
00000090: 2a1b 863d 4230 2ebe 6e04 eebd afaa 01be
000000a0: 2424 89be c102 9fbc 99bf 63bd 14e8 813e
000000b0: b827 26be 5e6a 33be 9241 9fbd ba63 203e
000000c0: 0396 1abe d6bd 84be c2bb 8fbd 789b 13bd
000000d0: 4cf6 b6bc 2584 2abe 0a31 7fbd 1bb7 9fbe
000000e0: d830 c9bc cdb9 35bd 5529 07bd 380c 48be
000000f0: 03a8 af3d d374 82bd 7849 213e f72c f8bd
00000100: 06da 1cbd 74ea 0bbe 6b9a 853d 883a f73c
00000110: 88e8 e2bd fb62 c43d 3874 55be 2a4c 83bd
00000120: 5763 1fbe d7b1 48be 935a d83c a868 f6bd
00000130: 4084 be3c 8857 1bbe 8739 f8bd dc5c b13c
00000140: 78f1 aebd 4eb0 2cbe 00f8 64bd 6634 b8bd
00000150: a77e b9be 5a8f dbbd 0001 543d a73b 82be
00000160: 22e1 63be 0900 143e 7058 7bbb c0c7 0cbe
00000170: 871e 2fbe 7437 6cbe 3407 97be caae 403c
00000180: aef6 01bd 5421 71bd c6fe 0abe 931d 1e3d
00000190: d7c4 79be a6ef 9d3d d687 5e3e 5b01 63bd
000001a0: effe e1bd 78af 80bd f965 27be 5e02 1cbe
000001b0: a9da 4bbc 4945 1cbe 1dc0 423b 7cb5 2bbe
000001c0: 53fd fa3d 5013 f6bd ec40 8abe 0760 08be
000001d0: 81c6 16be 042c cb3c cad4 353c b82f 99bd
000001e0: c383 2cbd bc4e d6bd 4aef 9bbe a4bb 773d
000001f0: 961f 91bc 3851 4abc 3423 0cbe 219f c1bd
00000200: 8ed6 8fbd c070 f03d 5108 2e3e 4ac3 aa3d
00000210: 6440 41bd 0be0 693d 80fc 67bd eb83 c13d
00000220: 348a 823c e1f1 23bd 715a c2be eb76 00be
00000230: b12b 853b 6bb9 f0bd 6d82 dabc 29c0 0e3e
00000240: a274 0e3e 16d3 e73d b242 7ebd 528e f93d
00000250: 88ea 85ba 25ce 553d d687 1bbe 613d 63be
00000260: 267e b5bd f753 b43d 011c 8f3e 4ec1 2f3e
00000270: 7f42 c7bd ecee 0fbe b456 8ebd b957 a63d
00000280: bfb6 24be 2588 cd3d 075d f3bd fc94 6dbd
00000290: 8486 86bd b904 bebd 0950 1d3e 6001 b5bd
000002a0: 875c 3c3d 877a a53d 315a 373d 2577 80bd
000002b0: daa7 513d 025b 44be b323 a2bd d8fa 913d
000002c0: b57c d23d f40a 223e 7b4f 2b3e 4978 603d
000002d0: 442c eb3d ab77 d7bd 6c5e cb3c ee98 2cbd
000002e0: eb09 7ebc 70f3 8dbe 9c25 203e 1e85 b3bc
000002f0: 077c 1f3d 5b7b 81bd 97d5 2fbd 0f4b 0837
00000300: a743 e2bc db50 913d d7f7 f4bd f68a c6bd
00000310: cfdc fa3d 9d2f 983e a0b9 813d 0ff0 ddbd
00000320: 8faa efbd 508f cf3c c99c 2ebe d3c2 323e
00000330: ad59 40be b9bf b3bd 0474 dd3d d4e3 86bd
00000340: 49aa 4d3d 41db 0e3e e081 fc3c 895c f6bd
00000350: ac59 3bbe 8a22 70bd e0aa f03d 0b04 48bd
00000360: 2255 063e cb6b 673d 757f 463d 1dc2 18be
00000370: 087e b13d ec6b 76bd c699 efbd b0b2 57be
00000380: 8baf 713d 1ba9 f63d 9647 163d d024 c13d
00000390: 350b 183e 62ed debd 1117 b53e b3c6 753d
000003a0: 73d7 bd3d fa3b 203e 456a dfbd f4f9 46bd
000003b0: 607c f33b b640 59be 0325 35bd 1ac6 1fbd
000003c0: 41ee 18be 38cd c2bd c21a 9ebe f1f9 f0bd
000003d0: fcd0 543b 78d2 86be cc93 0dbe 5c18 553d
000003e0: 6b7d 56be ee9d 263d a7ed ff3d f59a 0d3e
000003f0: 8eef 2bbe edb3 3dbd 8dfb d9bd 039f b43d

lin2.weight f4 [256, 256]
-0.062197674 -0.048783123 -0.064331174 0.024876855 0.031111352 0.00014585999 0.02423945 0.018383296
-0.009773289 0.04063007 -0.053396266 -0.00018543041 -0.017319478 -0.017617254 -0.055942073 -0.055791304
-0.0068739876 0.039670236 -0.021524612 -0.028924236 -0.05610967 -0.0268724 0.004517334 0.016143324
-0.0003490448 -0.058605503 0.045469373 0.04697533 -0.005441433 0.004570481 -0.015839294 0.05816225
-0.0022268519 0.0042436942 0.009774812 0.004461421 -0.049550492 0.013770089 0.020502381 -0.028881146
0.0512634 -0.0661925 -0.062942445 -0.02899543 0.021542117 -0.004776448 -0.025587194 -0.012645292
-0.06152253 0.008736938 -0.0341401 0.049560387 -0.017603032 0.038404975 0.045318946 0.051342823
0.013026416 -0.048714884 -0.028544165 0.006756626 -0.058447853 0.05962208 -0.004110897 -0.003752529
0.008238569 -0.052055515 0.028667256 -0.038108725 0.00021196902 -0.013350453 -0.026700027 -0.003857769
-0.01960355 0.020615235 0.05124282 -0.0279565 -0.04452709 -0.012533374 0.0024968123 -0.04693088
-0.018281251 0.05874788 0.011558212 0.005081624 -0.032866076 0.05560878 0.039168477 0.038877554
0.0428337 0.032058388 -0.027787618 0.010432124 0.025129266 0.041447476 -0.0076750293 -0.015953839
-0.011476018 -0.046954513 -0.006437354 -0.06140258 0.034818955 -0.016156495 -0.04748539 -0.05815412
-0.0029668335 0.04583299 -0.043702334 -0.053437024 -0.0115971565 0.005482875 0.026303729 0.05060325
0.018044868 -0.02497629 0.012414783 0.035243392 -0.00048273057 -0.038806226 -0.004146531 0.04240565
-0.027533157 0.046827998 -0.06208854 -0.0080895685 -0.055230647 0.016466945 -0.055692732 0.040147394
-0.015248612 -0.029063947 -0.016470518 0.01597993 -0.016145706 -0.062424026 -0.049099233 -0.030595057
-0.036967006 -0.04141679 0.0027378649 -0.058670823 -0.03715417 -0.00031408668 0.022336045 -0.007790774
-0.016076513 0.0010400638 -0.043062568 0.048708834 -0.047392055 0.047337994 0.039930046 0.028904565
0.051656347 -0.027415073 0.012840111 -0.047098108 0.02357012 0.021081053 -0.008884199 0.048436873
0.039520018 -0.02010876 0.016015276 0.029672414 -0.0007857034 -0.032216333 -0.05784735 0.03177663
-0.010734636 -0.05316755 -0.023885114 -0.023530206 -0.053471446 0.031865306 -0.017939858 0.04446749
-0.042901494 -0.046408825 0.022553852 -0.06777481 -0.025702342 0.06232442 -0.041193735 -0.07247188
-0.0100704525 -0.009583697 0.0043504536 0.03910668 -0.0450897 0.028987698 -0.0173183 0.011849433
-0.023062915 0.020430565 0.0017188045 0.019220887 -0.010788704 -0.015061101 0.033380732 -0.025367731
-0.03210953 -0.013686387 -0.0067938045 -0.03995687 0.025533952 -0.047672853 0.028078802 -0.060611773
0.0006033297 -0.047447074 -0.048032 0.029545873 0.0025932947 -0.02271606 0.011728606 0.024287395
-0.018955454 -0.04001172 0.033344764 -0.002745355 0.043194726 0.022615002 0.005669214 0.031033464
0.0069431243 0.054338463 0.02689592 0.010324791 -0.037963357 -0.010635972 0.033343744 0.03155847
0.045009978 -0.07104361 -0.04508196 0.020912953 -0.036598057 0.046028167 -0.06165759 -0.022315077
0.019508738 0.054177016 -0.053459972 0.05577427 -0.04072494 0.026685908 0.03011223 -0.058851857
-0.03676667 -0.030886307 -0.060056042 0.015953954 -0.063501604 0.058331043 -0.010025053 -0.05477949
00000000: fdc2 7ebd d0d0 47bd 10c0 83bd 8cca cb3c
00000010: 3cdd fe3c fef1 1839 d091 c63c 9198 963c
00000020: 2520 20bc b76b 263d 0bb6 5abd 1970 42b9
00000030: 94e1 8dbc 0f52 90bc 8423 65bd 6c85 64bd
00000040: 303f e1bb 427d 223d 6254 b0bc 85f2 ecbc
00000050: 41d3 65bd 8223 dcbc 2506 943b 013f 843c
00000060: 0000 b7b9 530c 70bd 183e 3a3d 3469 403d
00000070: 0c4e b2bb f9c3 953b 68c1 81bc 8a3b 6e3d
00000080: 60f0 11bb b00e 8b3b 8826 203c 1d31 923b
00000090: 75f5 4abd f09b 613c 9cf4 a73c 2798 ecbc
000000a0: 92f9 513d ef8f 87bd f8e7 80bd d387 edbc
000000b0: 1879 b03c c083 9cbb 3c9c d1bc 332e 4fbc
000000c0: 0cff 7bbd 6025 0f3c 7dd6 0bbd d5ff 4a3d
000000d0: 3c34 90bc 894e 1d3d 5ca0 393d da4c 523d
000000e0: c06c 553c 4289 47bd 74d5 e9bc b066 dd3b
000000f0: 0467 6fbd 4836 743d b4b4 86bb fdec 75bb
00000100: 10fb 063c 2a38 55bd 98d7 ea3c e517 1cbd
00000110: 0044 5e39 dcbb 5abc 04ba dabc a0d2 7cbb
00000120: a097 a0bc 48e1 a83c fee3 513d 0805 e5bc
00000130: 0a62 36bd c858 4dbc 8fa1 233b 983a 40bd
00000140: 90c2 95bc 9ea1 703d a85e 3d3c c083 a63b
00000150: 949e 06bd 08c6 633d 206f 203d 123e 1f3d
00000160: 6472 2f3d a84f 033d dca2 e3bc 80eb 2a3c
00000170: e4db cd3c d4c4 293d d07e fbbb a0b1 82bc
00000180: e805 3cbc 6053 40bd 70f0 d2bb 4681 7bbd
00000190: 529e 0e3d a05a 84bc 0a80 42bd 0433 6ebd
000001a0: 356f 42bb 60bb 3b3d 3801 33bd c8e0 5abd
000001b0: 0002 3ebc b0a9 b33b eb7a d73c 5a45 4f3d
000001c0: d5d2 933c 149b ccbc 6067 4b3c 605b 103d
000001d0: 0017 fdb9 47f3 1ebd a0df 87bb 8cb1 2d3d
000001e0: 378d e1bc b7ce 3f3d 8e50 7ebd 1c8a 04bc
000001f0: 8839 62bd b0e5 863c 101e 64bd 9871 243d
00000200: 50d5 79bc 8417 eebc 2eed 86bc 58e8 823c
00000210: 0044 84bc 56b0 7fbd 471c 49bd 7ca2 fabc
00000220: b76a 17bd a7a4 29bd c06d 333b d150 70bd
00000230: f92e 18bd 00ac a4b9 15fa b63c c049 ffbb
00000240: e4b2 83bc c052 883a 6062 30bd ea82 473d
00000250: 2c1e 42bd 7ce5 413d b08d 233d 44c9 ec3c
00000260: 9b95 533d 9395 e0bc 545f 523c f2e9 40bd
00000270: 2016 c13c 2cb2 ac3c 088f 11bc be65 463d
00000280: bedf 213d 20bb a4bc 7832 833c 9013 f33c
00000290: aaf7 4dba 46f5 03bd 58f1 6cbd 3628 023d
000002a0: 54e0 2fbc 38c6 59bd b7aa c3bc 6bc2 c0bc
000002b0: e004 5bbd 3285 023d 9cf6 92bc 8b23 363d
000002c0: 7ab9 2fbd 2e17 3ebd dbc2 b83c 85cd 8abd
000002d0: b88d d2bc e447 7f3d c3ba 28bd 236c 94bd
000002e0: 8afe 24bc f004 1dbc 408e 8e3b 532e 203d
000002f0: faaf 38bd 9c77 ed3c 1cdf 8dbc 2024 423c
00000300: 70ee bcbc 005e a73c 8249 e13a 1f75 9d3c
00000310: 1bc3 30bc d6c2 76bc 3cba 083d fdcf cfbc
00000320: 4885 03bd de3c 60bc 909e debb d1a9 23bd
00000330: 942c d13c 9c44 43bd 8405 e63c 0d44 78bd
00000340: c528 1e3a dd57 42bd 34bd 44bd 300a f23c
00000350: 44f4 293b 0817 babc 5729 403c 5cf6 c63c
00000360: 7848 9bbc 54e3 23bd 8594 083d 6aeb 33bb
00000370: f4ec 303d 1943 b93c d0c4 b93b e439 fe3c
00000380: 2683 e33b 0292 5e3d d554 dc3c 5029 293c
00000390: 777f 1bbd 8042 2ebc 7393 083d 7443 013d
000003a0: 625c 383d 507f 91bd dca7 38bd a451 ab3c
000003b0: d8e7 15bd 0888 3c3d ab8c 7cbd 1cce b6bc
000003c0: cad0 9f3c b8e8 5d3d d8f8 5abd 9073 643d
000003d0: 32cf 26bd 689c da3c ecad f63c a50e 71bd
000003e0: a698 16bd 4805 fdbc 53fd 75bd deb1 823c
000003f0: 210d 82bd 88ec 6e3d 1f40 24bc 7560 60bd

lin2.bias f4 [256]
-0.044152267 0.037409224 0.13798548 -0.066962525 0.00986205 0.016985932 0.015740238 0.0435664
-0.057911932 -0.048033457 0.050988447 0.053300943 0.07052687 -0.052601654 0.0032284283 0.10452784
0.041821748 0.040557362 0.011929366 -0.048708096 -0.008804313 -0.03755463 -0.038003203 0.015693199
0.07335251 -0.06015321 0.041522186 0.030404553 -0.041981418 0.02272758 0.041777328 -0.05466531
0.01480891 0.04050654 -0.026441734 0.028017676 0.005151073 -0.021003308 -0.016030608 -0.03529809
-0.06737339 0.041542154 -0.01316812 -0.018028392 -0.058556147 -0.07292575 -0.02706874 -0.07350004
0.045905225 -0.050760265 -0.04862395 0.051827915 0.005662894 -0.07035473 0.026341502 -0.049081005
-0.042211372 0.03967898 -0.023809152 -0.036533207 0.034341376 0.06033989 -0.05125443 0.035713423
0.054548904 -0.11226834 0.019127969 0.09395322 -0.035376485 -0.09622169 -0.054176167 0.05411328
0.01403824 -0.022778135 0.024971677 0.0141069265 0.035308618 0.08244635 -0.055207685 -0.007707119
-0.069968045 -0.042678833 -0.06800534 -0.011977972 0.010125214 0.0035794184 -0.019895516 -0.007105725
-0.00042391106 0.034395095 -0.034779474 0.04647424 -0.073875174 -0.04988384 0.0061922804 -0.03710842
-0.03259419 0.03400063 -0.011289581 -0.031678688 -0.046341214 -0.04118289 0.023543123 0.025244119
-0.002975431 0.034825247 0.0021672728 -0.047780912 0.0042744027 -0.021162212 0.07320493 -0.03382025
-0.06991029 -0.047391403 -0.063317426 0.053312607 0.05514437 -0.037319325 -0.20327875 -0.0015671471
0.040495675 0.11865495 -0.014950544 -0.05016018 -0.03840415 0.021850277 -0.004477624 -0.020533962
0.013983078 0.053380672 0.047045007 0.07461814 0.09971682 0.011239621 -0.027239986 0.045141544
0.016522447 0.05730911 -0.051568747 0.020211756 0.047503155 0.11461021 -0.048507966 0.07634777
-0.055959057 0.0039842054 0.0024654344 -0.003480966 -0.02619759 -0.09564781 0.0036316612 -0.023261013
0.015412015 0.0654001 0.016283799 -0.020307578 -0.03806212 0.01673624 -0.12490022 -0.0314738
-0.012862101 -0.018026125 0.031415973 -0.033578053 -0.053691756 0.04508947 -0.037966087 -0.0730621
-0.008512452 0.02244485 -0.0010578327 -0.062475987 0.008709139 -0.0033219815 -0.08825681 -0.0017924681
-0.027149001 -0.0700178 -0.04467017 -0.019597597 -0.02933098 0.024792835 0.10408569 -0.06449468
0.045058705 -0.015238882 -0.043910693 -0.0046845926 0.0018672629 -0.030901765 0.0011504905 -0.04550174
-0.020351533 -0.035670243 -0.0358548 0.027278718 -0.035436362 -0.09060038 0.07268283 -0.001800521
-0.0636754 0.06874112 0.056716517 -0.05521322 -0.022686286 -0.036367 -0.035907008 -0.05366279
0.03699567 -0.06409405 0.033213697 -0.0161333 -0.052378446 0.048519112 -0.041513626 -0.067620985
0.037573922 -0.06225462 -0.038070135 0.030620115 -0.014164634 -0.04670697 -0.05691675 -0.0011330814
-0.022269288 0.0011446669 -0.059496343 0.07131606 -0.07152381 0.01790898 -0.08103967 -0.05340493
0.027031343 0.062241834 0.04294324 0.01008788 -0.056543004 -0.005353618 -0.03875573 -0.0026014235
-0.09374458 -0.020679913 0.050558057 0.02281592 -0.032186657 0.029570408 -0.035148475 -0.0477717
-0.041583266 0.03205483 -0.047770415 -0.01423303 -0.20659669 0.017944964 0.022948062 0.023928892
00000000: 02d9 34bd 6a3a 193d 114c 0d3e a623 89bd
00000010: 7094 213c 1526 8b3c acf1 803c ae72 323d
00000020: 1035 6dbd bbbe 44bd 43d9 503d 1752 5a3d
00000030: 6470 903d d574 57bd 0a94 533b b112 d63d
00000040: 484d 2b3d 7a1f 263d 6373 433c 2482 47bd
00000050: f73f 10bc e2d2 19bd 3fa9 1bbd 068f 803c
00000060: d739 963d 3663 76bd 2b13 2a3d f812 f93c
00000070: b5f4 2bbd 312f ba3c b41e 2b3d bbe8 5fbd
00000080: 12a1 723c 30ea 253d 569c d8bc 5385 e53c
00000090: 55ca a83b 210f acbc 9f52 83bc bb94 10bd
000000a0: 0ffb 89bd 1b28 2a3d 19bf 57bc 47b0 93bc
000000b0: 92d8 6fbd 185a 95bd 43bf ddbc 3087 96bd
000000c0: 1e07 3c3d ffe9 4fbd e829 47bd 8249 543d
000000d0: cc8f b93b 2416 90bd 22ca d73c 2a09 49bd
000000e0: d5e5 2cbd 6d86 223d 690b c3bc d8a3 15bd
000000f0: 8ba9 0c3d f626 773d 2af0 51bd 3d48 123d
00000100: ac6e 5f3d f2ec e5bd 42b2 9c3c 8c6a c03d
00000110: efe6 10bd e10f c5bd d4e7 5dbd e3a5 5d3d
00000120: a500 663c 3699 babc 6791 cc3c bd20 673c
00000130: c59f 103d a2d9 a83d 7421 62bd 008c fcbb
00000140: 684b 8fbd 00d0 2ebd 6246 8bbd 423f 44bc
00000150: 3ae4 253c ad94 6a3b ecfb a2bc 24d7 e8bb
00000160: 6140 deb9 dfe1 0c3d ec74 0ebd c65b 3e3d
00000170: de4b 97bd ff52 4cbd 9de8 ca3b 00ff 17bd
00000180: 7c81 05bd 3f44 0b3d eff7 38bc 83c1 01bd
00000190: 49d0 3dbd 64af 28bd 82dd c03c c1cc ce3c
000001a0: 73ff 42bb eba4 0e3d ce08 0e3b ebb5 43bd
000001b0: 4a10 8c3b 605c adbc 77ec 953d 1a87 0abd
000001c0: 202d 8fbd 7d1d 42bd 91ac 81bd 525e 5a3d
000001d0: 10df 613d 26dc 18bd 4e28 50be bb68 cdba
000001e0: cbde 253d 5e01 f33d 20f3 74bc c374 4dbd
000001f0: ac4d 1dbd 5aff b23c 08b9 92bb d736 a8bc
00000200: 4819 653c b1a5 5a3d 44b2 403d 65d1 983d
00000210: 5538 cc3d 6326 383c 6426 dfbc 57e6 383d
00000220: 155a 873c f5bc 6a3d c039 53bd 2093 a53c
00000230: ab92 423d c2b8 ea3d 4ab0 46bd 385c 9c3d
00000240: 5335 65bd f08d 823b 2093 213b eb20 64bb
00000250: 549c d6bc 00e3 c3bd 2a01 6e3b e18d bebc
00000260: ad82 7c3c 7df0 853d 9a65 853c 145c a6bc
00000270: 07e7 1bbd 701a 893c b0cb ffbd acea 00bd
00000280: 90bb 52bc 86ab 93bc 09ae 003d 2489 09bd
00000290: e3eb 5bbd bcaf 383d 5482 1bbd 95a1 95bd
000002a0: d077 0bbc 43de b73c faa6 8aba d2e6 7fbd
000002b0: c7b0 0e3c 9ab5 59bb fdbf b4bd 40f1 eaba
000002c0: 9567 debc 7e65 8fbd 11f8 36bd 248b a0bc
000002d0: 8647 f0bc 581a cb3c e12a d53d c915 84bd
000002e0: 7a8f 383d 81ac 79bc b3db 33bd 3681 99bb
000002f0: f2be f43a b325 fdbc 0ecc 963a 0860 3abd
00000300: 42b8 a6bc f61a 12bd 7cdc 12bd 9e77 df3c
00000310: b825 11bd b18c b9bd bcda 943d 76ff ebba
00000320: 4068 82bd 25c8 8c3d 944f 683d 4227 62bd
00000330: 97d8 b9bc 90f5 14bd 3a13 13bd 84cd 5bbd
00000340: c688 173d be43 83bd 160b 083d fb29 84bc
00000350: c88a 56bd fabb 463d 310a 2abd df7c 8abd
00000360: 1de7 193d b3fe 7ebd 6eef 1bbd 09d7 fa3c
00000370: c812 68bc cf4f 3fbd 8a21 69bd e783 94ba
00000380: 156e b6bc a608 963a 70b2 73bd 280e 923d
00000390: 137b 92bd dab5 923c 20f8 a5bd 21bf 5abd
000003a0: d670 dd3c 4bf1 7e3d 40e5 2f3d a347 253c
000003b0: a399 67bd 676d afbb 54be 1ebd a57c 2abb
000003c0: 29fd bfbd ec68 a9bc f715 4f3d 74e8 ba3c
000003d0: 28d6 03bd a43d f23c d9f7 0fbd 42ac 43bd
000003e0: 3753 2abd ed4b 033d e9aa 43bd a831 69bc
000003f0: 158e 53be 5101 933c 93fd bb3c 8606 c43c

lin3.weight f4 [128, 256]
0.028011113 0.05221451 0.02211608 0.019854307 0.02185063 0.041198812 -0.023018487 -0.009385668
0.048983827 0.014696993 -0.01029662 -0.053780794 -0.035234362 0.018185884 -0.03833487 -0.05889982
-0.00267037 0.0059173554 0.027720876 0.0539599 -0.04564134 0.037104636 -0.04988484 0.053758644
0.031020842 0.024259403 -0.0019516572 0.03503134 0.01708465 -0.059513666 0.016243406 0.0133334845
-0.031934448 0.04686483 -0.0018236116 -0.04408788 -0.05638758 -0.057024606 -0.0477003 0.060653456
-0.008863702 -0.03504415 0.047969975 -0.048765972 -0.05591929 0.042362005 -0.046540275 -0.013781622
-0.038726367 0.03053552 0.023273103 -0.009508193 -0.036323763 0.00801339 -0.0050480515 -0.013214596
0.05272025 -0.006700851 -0.042269573 0.032796644 0.03780882 -0.0250815 -0.006697558 0.011681348
0.00034686178 -0.017957255 0.013628662 0.052101456 -0.03460887 -0.026870571 -0.044902034 0.04109659
-0.03250423 0.03580559 -0.03553757 0.045157015 -0.013324797 -0.007862724 -0.016096242 -0.0599474
-0.062227286 -0.038525395 -0.04350833 -0.021892227 -0.014514811 -0.033674695 0.041764982 -0.03409388
-0.055303708 -0.045336857 0.013574429 -0.014432967 0.05852168 0.014079809 0.034812294 -0.01783263
-0.020647421 -0.034092143 -0.048134938 0.052179992 -0.0020855218 0.0002624765 0.014313288 0.007008113
-0.031514496 0.05039026 0.0412208 0.01920189 -0.009127796 -0.048559114 -0.048918813 -0.033851728
0.05817814 -0.03464693 0.036429062 0.0052746013 -0.036413245 -0.019869417 0.001937516 -0.057835437
-0.02494046 -0.036500312 -0.0062784255 -0.01199241 0.003887035 0.0019444972 0.058399245 0.029272094
0.056125052 0.021514252 0.007360615 0.03334678 -0.023017712 -0.030402094 0.02689626 -0.032385357
0.034116365 -0.013553202 -0.033741146 0.032707736 -0.050138496 -0.057636835 -0.053440504 -0.024532065
-0.022410668 -0.032111257 -0.009140931 -0.009388819 -0.028047808 0.05773072 0.04057476 -0.048907176
0.056131385 0.019368984 -0.06196501 -0.049254008 -0.059154198 0.05060797 0.020184658 -0.02762048
-0.04350519 -0.01213301 -0.028181262 -0.0321951 0.061547607 0.04379908 -0.039161734 -0.057242855
-0.014447503 0.015092388 0.049668305 -0.039853163 -0.03659968 0.027453765 -0.024244979 0.02404394
0.0031474829 -0.006714307 0.044585466 -0.038436048 -0.03606104 -0.029397242 0.054822594 -0.045915492
-0.031446338 -0.01973939 0.01876133 -0.0077998936 0.00570827 -0.026407786 0.0009005368 0.043840192
-0.013098694 -0.014077544 0.016638108 -0.059518494 -0.052725755 -0.044987015 -0.03464994 -0.04608812
0.032591477 0.05071406 -0.0061696246 0.047840692 -0.058088966 0.019878745 -0.055374004 -0.019388966
0.045906737 -0.0022364557 0.03162533 0.059944652 -0.026512764 -0.025949277 0.053640842 0.013971902
-0.03908734 -0.051758915 -0.05195427 -0.032193266 -0.037703834 0.03762459 -0.04573594 -0.0034714416
-0.024946451 0.007734105 -0.009770222 0.027354442 0.0044461563 0.0349468 -0.041270122 0.017191067
0.022861645 -0.025595397 -0.010318801 0.051129043 -0.0045151412 -0.029847227 0.05407285 -0.032964356
0.052923337 -0.034454837 0.04161813 -0.057988778 -0.010985136 -0.04910797 -0.055801913 -0.0073371083
-0.013905637 0.030103803 0.025034279 -0.057081178 0.0021560788 -0.05680877 0.028659165 0.037505627
00000000: 9077 e53c e2de 553d c82c b53c 80a5 a23c
00000010: 1800 b33c 16c0 283d 4491 bcbc 58c6 19bc
00000020: 44a3 483d a8cb 703c 28b3 28bc 4049 5cbd
00000030: e851 10bd 90fa 943c 0605 1dbd f040 71bd
00000040: 6001 2fbb 60e6 c13b e416 e33c 0e05 5d3d
00000050: 6af2 3abd 08fb 173d 0c54 4cbd 0632 5c3d
00000060: 6c1f fe3c a8bb c63c c0ce ffba 067d 0f3d
00000070: 1cf5 8b3c 9ac4 73bd e410 853c b074 5a3c
00000080: b2cd 02bd 56f5 3f3d 4006 efba 7e95 34bd
00000090: aaf6 66bd a292 69bd 6461 43bd c26f 783d
000000a0: 1039 11bc 748a 0fbd 2a7c 443d d4be 47bd
000000b0: a00b 65bd c883 2d3d 04a1 3ebd 50cc 61bc
000000c0: 8a9f 1ebd a025 fa3c 3ca7 be3c 40c8 1bbc
000000d0: 3ac8 14bd 984a 033c 206a a5bb 0882 58bc
000000e0: 30f1 573d d092 dbbb dc22 2dbd c655 063d
000000f0: 6cdd 1a3d b877 cdbc 3077 dbbb 2063 3f3c
00000100: 00db b539 181b 93bc c04a 5f3c 5668 553d
00000110: 08c2 0dbd ac1f dcbc 32eb 37bd e654 283d
00000120: 2823 05bd e2a8 123d d88f 11bd 90f6 383d
00000130: 4050 5abc a8d2 00bc 44dc 83bc 688b 75bd
00000140: 0ae2 7ebd cecc 1dbd ca35 32bd 5457 b3bc
00000150: 88cf 6dbc 7aee 09bd c211 2b3d 06a6 0bbd
00000160: 2486 62bd 24b3 39bd 4867 5e3c 4078 6cbc
00000170: 6eb4 6f3d 00af 663c 5697 0e3d bc15 92bc
00000180: c824 a9bc 34a4 0bbd 2429 45bd b0ba 553d
00000190: 40ad 08bb 009d 8939 4882 6a3c 50a4 e53b
000001a0: 5815 01bd 0466 4e3d 24d7 283d 484d 9d3c
000001b0: c08c 15bc ece5 46bd 185f 48bd 1ca8 0abd
000001c0: 344c 6e3d f0e9 0dbd a436 153d 90d6 ac3b
000001d0: 0e26 15bd 30c5 a2bc 40f4 fd3a dae4 6cbd
000001e0: f04f ccbc 5a81 15bd 40bb cdbb d07b 44bc
000001f0: a0bd 7e3b 80de fe3a 0c34 6f3d 08cc ef3c
00000200: 62e3 653d a83e b03c 5031 f13b a296 083d
00000210: a48f bcbc d00d f9bc 8c55 dc3c 82a6 04bd
00000220: 9abd 0b3d 400e 5ebc 2834 0abd 8cf8 053d
00000230: 065e 4dbd 9a14 6cbd 6ee4 5abd 78f7 c8bc
00000240: 9496 b7bc 1887 03bd d8c3 15bc 90d3 19bc
00000250: 84c4 e5bc 0c77 6c3d b831 263d e452 48bd
00000260: 06ea 653d b4ab 9e3c 06cf 7dbd 92be 49bd
00000270: ac4b 72bd 4e4a 4f3d 4c5a a53c 5844 e2bc
00000280: 8032 32bd 88c9 46bc 64dc e6bc 02df 03bd
00000290: 5819 7c3d aa66 333d 0e68 20bd 7c77 6abd
000002a0: 38b5 6cbc 1046 773c fe70 4b3d 123d 23bd
000002b0: 8ce9 15bd b8e6 e03c 689d c6bc ccf7 c43c
000002c0: 0046 4e3b b003 dcbb 409f 363d 1e6f 1dbd
000002d0: beb4 13bd 7cd2 f0bc a88d 603d e211 3cbd
000002e0: e0cd 00bd 80b4 a1bc 5cb1 993c 4096 ffbb
000002f0: 700c bb3b 2455 d8bc 0012 6c3a c691 333d
00000300: e89b 56bc 80a5 66bc a44c 883c aac9 73bd
00000310: f6f6 57bd 4e44 38bd 18ed 0dbd e6c6 3cbd
00000320: a47e 053d 8cb9 4f3d 902a cabb 9af4 433d
00000330: b2ee 6dbd c0d8 a23c dacf 62bd 9cd5 9ebc
00000340: b408 3c3d 8091 12bb 9089 013d 8688 753d
00000350: 4c31 d9bc 9493 d4bc 80b6 5b3d 68ea 643c
00000360: 0c1a 20bd 2801 54bd 00ce 54bd 16dd 03bd
00000370: 566f 1abd 3e1c 1a3d 9c55 3bbd 2081 63bb
00000380: 805c ccbc 606e fd3b 4813 20bc 6c16 e03c
00000390: 10b1 913b 6024 0f3d dc0a 29bd 48d4 8c3c
000003a0: 5848 bb3c 70ad d1bc 3010 29bc b06c 513d
000003b0: c0f3 93bb 2c82 f4bc 7e7b 5d3d a205 07bd
000003c0: 24c6 583d 8420 0dbd c677 2a3d a485 6dbd
000003d0: 00fb 33bc 7025 49bd 8c90 64bd 206c f0bb
000003e0: 78d4 63bc 409c f63c b014 cd3c f4cd 69bd
000003f0: 004d 0d3b 50b0 68bd a0c6 ea3c 809f 193d

lin3.bias f4 [128]
0.034397468 -0.06205312 0.0063304254 -0.0656733 -0.07702666 -0.00020587113 0.016767584 -0.061317038
0.03578242 0.034716986 -0.032505885 -0.033227716 0.025721397 -0.050298814 0.009897982 -0.031062085
-0.03497444 -0.053139646 0.098205514 -0.010780419 -0.03287817 0.0010209497 -0.05165672 0.0044287457
-0.03791473 0.031143323 0.020110289 -0.019588433 0.0040328754 0.022494487 -0.0050446824 0.010651719
0.030833624 0.031743903 0.042095132 0.024492135 0.023431445 0.075997 0.049670696 0.03982258
0.017688822 -0.019325616 0.027790038 -0.028688686 0.11341574 0.04452759 -0.007712682 -0.052327134
-0.014331126 -0.044392005 0.046993352 0.25136665 0.006040479 -0.027921781 -0.024987036 0.0122488225
-0.089128405 -0.030672178 0.04188631 0.010815553 -0.025276812 -0.039805654 0.021392586 0.04827715
0.042154778 -0.016795613 6.482894e-05 -0.08139965 -0.03629504 -0.031202015 -0.0394321 0.0004830081
-0.05954441 0.0458066 0.0042654853 -0.045434207 -0.019415848 -0.042960417 0.033842377 -0.049992293
0.013280101 -0.028744916 -0.05226166 -0.059897915 -0.07517025 0.024632301 -0.020230774 -0.018111957
-0.033390522 -0.007312086 0.1567733 -0.037970785 -0.01659738 -0.051692985 -0.06228488 0.043974806
-0.008599244 -0.016129212 -0.02291684 -0.026261758 -0.081413716 -0.047530048 -0.029076738 -0.04997731
0.0018149667 0.027096167 -0.06489682 0.028540483 0.012914034 -0.05210499 -0.03304295 0.0017903654
0.018917989 -0.00021938361 -0.064984344 -0.020519013 0.04935572 -0.059106488 -0.008207531 0.03730068
0.026431257 0.0072813286 -0.03228807 0.053012338 -0.07039971 0.078965575 -0.06716619 -0.039103966
00000000: 5ce4 0c3d 6a2b 7ebd 756f cf3b b97f 86bd
00000010: 27c0 9dbd 1cdf 57b9 2c5c 893c 9327 7bbd
00000020: 9690 123d 6633 0e3d e424 05bd c919 08bd
00000030: aeb5 d23c 2106 4ebd 252b 223c ea75 febc
00000040: 5c41 0fbd f5a8 59bd f91f c93d 5ba0 30bc
00000050: 43ab 06bd 63d1 853a ff95 53bd 031f 913b
00000060: 7a4c 1bbd 4820 ff3c 55be a43c ec77 a0bc
00000070: 3626 843b 5c46 b83c dd4d a5bb 8c84 2e3c
00000080: cc96 fc3c e505 023d f26b 2c3d bba3 c83c
00000090: 4df3 bf3c 51a4 9b3d 8073 4b3d 001d 233d
000000a0: 26e8 903c c150 9ebc efa7 e33c 8904 ebbc
000000b0: 8346 e83d 9062 363d aaba fcbb fa54 56bd
000000c0: 19cd 6abc 64d4 35bd 1a7c 403d 21b3 803e
000000d0: 36ef c53b 38bc e4bc 9db1 ccbc 49af 483c
000000e0: f488 b6bd 3844 fbbc fb90 2b3d b833 313c
000000f0: 5111 cfbc 410b 23bd 813f af3c 43be 453d
00000100: 7daa 2c3d f496 89bc c6f4 8738 dcb4 a6bd
00000110: 1caa 14bd 5e9b ffbc 8e83 21bd 403c fd39
00000120: d7e4 73bd b49f 3b3d 7cc5 8b3b 3819 3abd
00000130: fc0d 9fbc 43f7 2fbd 4e9e 0a3d b8c4 4cbd
00000140: c894 593c 757a ebbc 5310 56bd 8457 75bd
00000150: dcf2 99bd aec9 c93c 02bb a5bc 875f 94bc
00000160: 80c4 08bd 399a efbb 2e89 203e 4187 1bbd
00000170: 3bf7 87bc 06bc 53bd 6e1e 7fbd ed1e 343d
00000180: d8e3 0cbc 6921 84bc 19bc bbbc e622 d7bc
00000190: 3cbc a6bd deae 42bd 5732 eebc 02b5 4cbd
000001a0: 2de4 ed3a c8f8 dd3c a0e8 84bd bbcd e93c
000001b0: 6295 533c 0b6c 55bd 0b58 07bd b2aa ea3a
000001c0: e6f9 9a3c 570a 66b9 8316 85bd 7d17 a8bc
000001d0: 3929 4a3d a519 72bd e178 06bc 99c8 183d
000001e0: 5d86 d83c 3698 ee3b 7f40 04bd 7723 593d
000001f0: b92d 90bd b4b8 a13d 6d8e 89bd 7b2b 20bd

lin4.weight f4 [64, 128]
-0.039737597 0.2229496 -0.027418397 -0.05644591 -0.05975604 -0.00026475606 -0.0763702 -0.07086907
-0.061667487 -0.074977614 -0.060173575 0.044036664 0.024951454 -0.02721657 -0.053858448 0.021058945
-0.04150658 -0.01952864 0.031450424 0.059916243 0.016564516 0.012943279 0.0059037856 0.1053124
0.029217184 -0.07398826 -0.051752772 -0.06542953 -0.010097983 0.026236575 0.018345488 0.09001381
0.0030920436 -0.058133464 0.069254205 0.031384446 0.04628488 0.022647284 -0.06751764 -0.05041579
0.04537007 0.057353277 0.061766494 0.055713914 -0.054394834 0.018869285 -0.06409953 0.021189742
0.024524061 0.045326576 -0.052765794 -0.022973616 -0.04298185 -0.061752312 -0.028822936 0.020081721
0.013621013 -0.10478282 -0.04379538 0.026967337 0.045749422 0.0068718297 0.07676854 -0.032334622
-0.028862026 0.068097614 -0.050297335 0.05253916 -0.0063992348 0.025872415 -0.062331416 0.027479
-0.036041584 -0.041976903 0.018381765 0.020213533 0.096170746 0.007949544 0.01944381 -0.03765936
-0.0653594 -0.08140606 0.00667905 -0.0024573675 -0.025562873 -0.024111226 -0.027628075 0.061223686
0.03293259 0.0089561725 0.12541313 -0.060973752 -0.043735918 0.06291743 0.023278536 0.04318571
-0.004364633 -0.02337029 0.017593523 0.052899837 -0.026042862 0.0014367498 0.0141626885 0.03455263
-0.06980603 -0.05811795 0.071323454 -0.0026163661 -0.017275685 0.056687392 -0.061343815 0.03803701
-0.07208436 0.06666931 -0.047787085 -0.078758515 -0.052159842 -0.08150889 -0.049811643 -0.0056638257
0.020461947 0.034764636 -0.056915738 -0.08532703 0.004695963 -0.003427178 -0.07019355 -0.074116424
0.029502656 0.10686694 0.021274079 0.03887017 -0.051951237 -0.032386396 -0.030789468 -0.068791084
-0.06840421 -0.033827465 0.008251938 0.1510563 0.01005164 -0.018808322 -0.06921721 0.05129985
-0.06366169 0.03847491 0.022765784 0.04994986 0.051443737 0.00029790608 0.05836039 -0.011556286
0.01702535 0.08478622 0.049290035 0.030766806 0.05782341 0.07224558 -0.018411336 -0.018383075
-0.07148903 0.059437457 -0.023300948 0.07574951 -0.03354758 0.006309342 -0.048359998 0.05743444
0.05417572 -0.09057972 -0.047592722 -0.037906166 -0.026396342 -0.062340878 0.03638408 0.040859617
-0.040273037 -0.02623898 0.06394672 -0.06514914 -0.048506107 -0.073339894 -0.014251922 0.011181208
-0.03980978 0.016636858 -0.026068993 0.08881545 -0.077714995 0.056353904 -0.05579965 -0.053794432
-0.0328962 0.037208263 -0.09181738 0.039163947 -0.03771522 0.00837705 -0.100881845 -0.048483066
-0.02552065 -0.021570463 0.045725692 0.036118645 -0.009709243 -0.05250827 0.062900506 -0.0491259
0.068107724 0.048054386 0.0060278852 -0.09139169 -0.03130887 -0.028082704 -0.03731553 0.070174485
0.080738656 0.06944162 -0.01299038 0.07207398 -0.028593322 -0.006401548 0.06970826 -0.06963348
-0.07101297 0.03984618 0.072290204 0.06912678 -0.02420952 0.0757201 -0.012233683 -0.035101965
0.07043115 -0.046192326 -0.07748929 -0.086064234 -0.030769743 0.028638491 -0.012390958 0.080670804
0.11654837 0.099197015 -0.080383606 -0.09228574 -0.008781156 0.051992863 0.05236521 -0.07746725
0.056856137 -0.08342735 0.024951171 -0.054498386 0.07581357 -0.063601635 0.065758675 0.07954658
00000000: e4c3 22bd e64c 643e 8c9c e0bc d433 67bd
00000010: c0c2 74bd f5ce 8ab9 fb67 9cbd ce23 91bd
00000020: 0c97 7cbd dd8d 99bd 9178 76bd ca5f 343d
00000030: fe66 cc3c 49f5 debc ad9a 5cbd cf83 ac3c
00000040: ce02 2abd 87fa 9fbc 29d2 003d bc6a 753d
00000050: 4fb2 873c 0c10 543c 8b74 c13b 07ae d73d
00000060: e058 ef3c 2887 97bd b7fa 53bd ebff 85bd
00000070: 0372 25bc 16ee d63c 4749 963c 2959 b83d
00000080: e2a3 4a3b 5b1d 6ebd 26d5 8d3d fa8c 003d
00000090: 3795 3d3d cc86 b93c b046 8abd ca80 4ebd
000000a0: f7d5 393d 45eb 6a3d ddfe 7c3d 4634 643d
000000b0: 1ecd 5ebd c293 9a3c 9d46 83bd 1c96 ad3c
000000c0: afe6 c83c 5ca8 393d f220 58bd 2a33 bcbc
000000d0: bd0d 30bd feef 7cbd 141e ecbc 6c82 a43c
000000e0: ab2a 5f3c 6098 d6bd c962 33bd 9bea dc3c
000000f0: bf63 3b3d 162d e13b d338 9d3d 4f71 04bd
00000100: 0e70 ecbc c376 8b3d 9404 4ebd 4d33 573d
00000110: acb0 d1bb 63f2 d33c 3a4f 7fbd a41b e13c
00000120: 57a0 13bd f9ef 2bbd 5b95 963c da96 a53c
00000130: 2bf5 c43d ce3e 023c a048 9f3c b340 1abd
00000140: 26db 85bd 38b8 a6bd efdb da3b c90b 21bb
00000150: 3b69 d1bc e884 c5bc 4654 e2bc b0c5 7a3d
00000160: 53e4 063d e9bc 123c 4d6c 003e 9dbf 79bd
00000170: 6f24 33bd dbda 803d a1b2 be3c 80e3 303d
00000180: 3205 8fbb 0d73 bfbc 4b20 903c 80ad 583d
00000190: d757 d5bc 5351 bc3a 9f0a 683c 0f87 0d3d
000001a0: 77f6 8ebd 160d 6ebd 0812 923d 5777 2bbb
000001b0: bd85 8dbc 0a31 683d a743 7bbd b2cc 1b3d
000001c0: f7a0 93bd eb89 883d 64bc 43bd 254c a1bd
000001d0: 8fa5 55bd 22ee a6bd 4b07 4cbd 9d97 b9bb
000001e0: d09f a73c 5d65 0e3d 7a20 69bd f0bf aebd
000001f0: 98e0 993b 819a 60bb a3c1 8fbd 5aca 97bd
00000200: 8eaf f13c 0edd da3d fa46 ae3c 5436 1f3d
00000210: d2ca 54bd 99a7 04bd 323a fcbc 57e2 8cbd
00000220: 8217 8cbd ab8e 0abd 2333 073c 81ae 1a3e
00000230: a2af 243c e913 9abc c1c1 8dbd cb1f 523d
00000240: 0f61 82bd de97 1d3d 4f7f ba3c 3998 4c3d
00000250: abb6 523d 4730 9c39 4e0b 6f3d 9456 3dbc
00000260: bf78 8b3c 66a4 ad3d 59e4 493d ab0a fc3c
00000270: 3dd8 6c3d 7ef5 933d 5fd3 96bc 1a98 96bc
00000280: d768 92bd b174 733d a1e1 bebc 8f22 9b3d
00000290: 3069 09bd 99be ce3b 2215 46bd 6040 6b3d
000002a0: 5ce7 5d3d dc81 b9bd 96f0 42bd 7f43 1bbd
000002b0: 243d d8bc 2659 7fbd 7907 153d 6a5c 273d
000002c0: 57f5 24bd 21f3 d6bc 7ff6 823d ea6c 85bd
000002d0: 57ae 46bd 3a33 96bd e580 69bc 6331 373c
000002e0: 940f 23bd 054a 883c a48e d5bc e0e4 b53d
000002f0: 0a29 9fbd 5ad3 663d 2c8e 64bd 8d57 5cbd
00000300: 2abe 06bd b167 183d c00a bcbd 606a 203d
00000310: 467b 1abd e53f 093c 249b cebd 2e96 46bd
00000320: af10 d1bc 8ab4 b0bc dd4a 3b3d 25f1 133d
00000330: 8413 1fbc e912 57bd fbd1 803d 3d38 49bd
00000340: 107c 8b3d add4 443d 9185 c53b 912b bbbd
00000350: bb3d 00bd b30d e6bc 2bd8 18bd a4b7 8f3d
00000360: 4f5a a53d 6837 8e3d 9ad5 54bc 869b 933d
00000370: 8b3c eabc 14c4 d1bb 34c3 8e3d ff9b 8ebd
00000380: 3f6f 91bd bf35 233d e30c 943d 5792 8d3d
00000390: 0b53 c6bc 2413 9b3d c96f 48bc 14c7 0fbd
000003a0: 353e 903d 2a34 3dbd b4b2 9ebd 7242 b0bd
000003b0: d410 fcbc 459b ea3c 7203 4bbc bc36 a53d
000003c0: e9b0 ee3d ce27 cb3d 29a0 a4bd 4e00 bdbd
000003d0: d6de 0fbc 78f6 543d e77c 563d 26a7 9ebd
000003e0: fbe1 683d f5db aabd 6666 cc3c b339 5fbd
000003f0: 2544 9b3d 9341 82bd 7cac 863d 51e9 a23d

lin4.bias f4 [64]
0.029822683 -0.052874513 -0.03740394 0.016693735 0.003228214 0.021104803 -0.0007630042 -0.032010105
-0.01890953 -0.04761148 0.014621928 0.03771724 -0.07401294 -0.0074553457 -0.07890085 0.036146868
-0.10414338 -0.0026699034 0.10683472 -0.028863603 0.013577074 0.030600313 -0.023093587 -0.04473662
0.07977148 -0.10006084 0.062808976 -0.024544071 0.061865047 0.02966275 0.0022679518 -0.054556027
-0.08897834 0.003431195 -0.06675757 0.026381282 -0.040374752 -0.030733682 0.061229 -0.01830259
0.008271471 0.0075066085 0.023239024 0.004881667 0.06422541 0.027361698 0.07960249 0.04291252
0.04977437 0.13323814 -0.028582813 0.029051438 -0.07437855 -0.01830767 -0.00215925 -0.047692653
0.11936014 0.004252077 0.007085929 0.026308903 0.04566828 -0.011109418 -0.028027589 -0.04171544
00000000: b34e f43c f292 58bd e034 19bd 4dc1 883c
00000010: 7290 533b fbe3 ac3c 5804 48ba 071d 03bd
00000020: 29e8 9abc 4104 43bd d090 6f3c 657d 1a3d
00000030: 1994 97bd f94b f4bb c596 a1bd bd0e 143d
00000040: 2049 d5bd 8cf9 2ebb 29cc da3d 5d73 ecbc
00000050: 6072 5e3c 82ad fa3c c32e bdbc bf3d 37bd
00000060: 3b5f a33d b3ec ccbd fea1 803d a610 c9bc
00000070: 3466 7d3d 4cff f23c eba1 143b 2476 5fbd
00000080: 473a b6bd e6dd 603b 31b8 88bd 8f1d d83c
00000090: ff5f 25bd 34c5 fbbc 43cb 7a3d 50ef 95bc
000000a0: 1085 073c fff9 f53b c45f be3c 64f6 9f3b
000000b0: 9d88 833d a425 e03c a106 a33d 0ac5 2f3d
000000c0: 36e0 4b3d 946f 083e 8126 eabc 48fd ed3c
000000d0: c853 98bd f7f9 95bc 3482 0dbb 5f59 43bd
000000e0: 1773 f43d 0255 8b3b 1531 e83b c585 d73c
000000f0: aa0e 3b3d 4704 36bc 1d9a e5bc cfdd 2abd

lin5.weight f4 [16, 64]
-0.002335365 0.10687814 -0.05117741 0.050271664 -0.03919506 -0.105697565 -0.026469331 0.014113715
0.06397213 -0.04706942 -0.008202276 -0.032119457 -0.019022476 0.03371124 0.014716524 0.071890466
-0.10085236 0.023866365 -0.022443395 0.086967446 -0.12521727 -0.095465556 -0.009469871 -0.011707592
-0.0019926208 -0.042100336 0.02153758 -0.0855201 0.017528165 0.043308526 -0.1239946 -0.03283009
-0.10213695 -0.088833466 -0.0060410183 -0.061146606 -0.005031772 0.015762292 -0.08336456 -0.0524076
-0.00044556888 -0.038863875 0.07045194 0.11644385 0.035567474 -0.06375031 0.0694352 -0.055313945
-0.011610538 0.10705998 0.060292475 0.08080833 0.10235626 0.110434055 0.10380596 0.04306381
0.10009647 0.01956356 -0.0045537283 0.02021056 0.10760024 0.023363674 0.015837833 0.04402348
0.057046518 -0.08992429 -0.058100425 0.054120656 -0.06893979 -0.06442419 -0.060727987 0.08109297
-0.014717947 -0.020812152 0.0678169 0.010394161 0.06742001 -0.025689982 0.08931155 0.03844031
0.06487046 -0.039549313 0.09200046 0.052270263 0.028287241 0.011864854 -0.07871369 -0.029095195
-0.10609374 -0.022562936 0.04222384 0.019777428 -0.05137079 -0.011106791 -0.04917492 -0.01398661
-0.09823167 -0.084091716 0.040664934 -0.06623156 -0.08821025 -0.10609462 -0.093936786 -0.03983337
0.085313626 0.05766222 0.025082463 0.04710469 0.10002435 0.016978318 0.049923252 0.12531935
0.06320427 0.067334846 -0.05463451 -0.017049478 -0.09310528 -0.12008898 -0.00924121 -0.08680225
-0.019734135 0.050503753 -0.06604715 0.053182658 -0.06805087 -0.09286149 0.009330712 0.0940753
-0.0943728 -0.071255036 -0.06530136 -0.101383194 0.07345623 -0.011588523 0.045967642 -0.08237012
0.023528667 0.06922356 -0.07461899 -0.02350706 0.10480896 0.047974966 0.050206892 0.09411621
-0.061037034 0.062098097 -0.028713388 -0.03648877 -0.10292067 0.020218944 -0.039896373 0.0042134486
-0.019587224 0.02428496 0.099615656 -0.0073176306 -0.05815205 -0.10970226 -0.10008582 -0.07394721
-0.007988217 -0.012818997 0.019262122 -0.048142318 0.08076906 0.10824337 0.044646107 0.108186014
-0.01805018 0.07666331 -0.020468153 0.005490522 -0.10877071 -0.015822325 -0.09371806 -0.112608954
-0.10069854 0.017864136 -0.034375153 0.09390336 0.06938974 0.03736296 -0.06062224 -0.08892738
0.03482702 -0.099018775 0.066760436 -0.0618553 -0.093930244 0.09036528 -0.011017015 -0.0077448166
0.05367846 0.03974095 0.040138427 0.05071258 0.130028 -0.03087924 -0.05562294 -0.07208818
0.03707394 -0.07128312 0.10839765 0.01877185 0.000662067 -0.0018418293 0.068152204 -0.051929355
0.07198258 -0.05020225 -0.07772055 -0.051699057 0.071451694 -0.08306924 -0.06789592 0.023241678
-0.0043263854 -0.022789609 -0.098173864 -0.0038610038 0.018326366 0.013886064 0.058080595 0.022707675
0.08576633 0.030098898 -0.024849186 0.06146909 0.05121701 0.020216228 0.0058114007 -0.015294556
0.02004327 0.013195726 -0.063062236 0.042473465 0.048906334 -0.106398925 -0.0059058615 -0.10463018
-0.065025665 0.003196685 0.032237977 0.06232824 -0.085081644 -0.11841395 0.00936171 0.02576329
0.104839094 -0.08729185 -0.0057284734 0.037269235 -0.00039365393 0.08756826 0.0383731 0.04244179
00000000: ec0c 19bb ede2 da3d 679f 51bd a9e9 4d3d
00000010: 008b 20bd f777 d8bd 36d6 d8bc 363d 673c
00000020: d203 833d ddcb 40bd d762 06bc b18f 03bd
00000030: 06d5 9bbc cc14 0a3d 931d 713c 4f3b 933d
00000040: af8b cebd 6583 c33c 36db b7bc fd1b b23d
00000050: f538 00be 7283 c3bd 8527 1bbc 33d1 3fbc
00000060: a196 02bb 6771 2cbd 946f b03c 2a25 afbd
00000070: 3a97 8f3c 4864 313d e1f0 fdbd d878 06bd
00000080: 2d2d d1bd 52ee b5bd bcf3 c5bb dd74 7abd
00000090: 90e1 a4bb ec1f 813c 0abb aabd 5aa9 56bd
000000a0: 3e9b e9b9 ba2f 1fbd 1b49 903d 1d7a ee3d
000000b0: 33af 113d 868f 82bd 0b34 8e3d e090 62bd
000000c0: 203a 3ebc 4342 db3d 3ef5 763d d67e a53d
000000d0: 29a0 d13d 402b e23d 3898 d43d ad63 303d
000000e0: 61ff cc3d c243 a03c 7137 95bb 9e90 a53c
000000f0: 845d dc3d 2d65 bf3c 58be 813c f751 343d
00000100: 9ca9 693d 3a2a b8bd b6fa 6dbd 9fad 5d3d
00000110: 4e30 8dbd d4f0 83bd e9bd 78bd 1214 a63d
00000120: 8b23 71bc 3f7e aabc 96e3 8a3d 454c 2a3c
00000130: 8113 8a3d cc73 d2bc f9e8 b63d 9673 1d3d
00000140: ceda 843d 76fe 21bd bd6a bc3d 5819 563d
00000150: a5ba e73c ce64 423c a534 a1bd 0c59 eebc
00000160: ad47 d9bd e8d5 b8bc e8f2 2c3d 4604 a23c
00000170: 2d6a 52bd 42f9 35bc a46b 49bd 1828 65bc
00000180: b02d c9bd 4738 acbd 4690 263d 6aa4 87bd
00000190: 93a7 b4bd 2348 d9bd ee61 c0bd 5128 23bd
000001a0: e9b8 ae3d 382f 6c3d bd79 cd3c d9f0 403d
000001b0: 91d9 cc3d 1d16 8b3c 537c 4c3d b753 003e
000001c0: 3e71 813d dae6 893d 70c8 5fbd 59ab 8bbc
000001d0: fbad bebd 36f1 f5bd 7268 17bc 61c5 b1bd
000001e0: 7ba9 a1bc 06dd 4e3d ba43 87bd 0fd6 593d
000001f0: 415e 8bbd 2a2e bebd d8df 183c 8daa c03d
00000200: 8746 c1bd 29ee 91bd b8bc 85bd fea1 cfbd
00000210: 3870 963d cadd 3dbc 9148 3c3d aab1 a8bd
00000220: 31bf c03c 15c5 8d3d d7d1 98bd e191 c0bc
00000230: 14a6 d63d 6681 443d bea5 4d3d 00c0 c03d
00000240: f801 7abd 935a 7e3d 5738 ebbc 4075 15bd
00000250: 12c8 d2bd 33a2 a53c 616a 23bd f810 8a3b
00000260: 6375 a0bc 41f1 c63c 4b03 cc3d bcc8 efbb
00000270: d830 6ebd 94ab e0bd cbf9 ccbd a371 97bd
00000280: 03e1 02bc c506 52bc 99cb 9d3c e130 45bd
00000290: 406a a53d b3ae dd3d d6de 363d a190 dd3d
000002a0: f9dd 93bc a701 9d3d d4ac a7bc d6e9 b33b
000002b0: 2ec3 debd d29d 81bc 41ef bfbd 869f e6bd
000002c0: 093b cebd cf57 923c f6cc 0cbd 6850 c03d
000002d0: 351c 8e3d e709 193d 074f 78bd 8f1f b6bd
000002e0: c7a6 0e3d 5bca cabd b2b9 883d fc5b 7dbd
000002f0: 805e c0bd 6f11 b93d b680 34bc 3bc8 fdbb
00000300: f2dd 5b3d 68c7 223d 3168 243d ffb7 4f3d
00000310: 0f26 053e 76f6 fcbc e1d4 63bd f8a2 93bd
00000320: d8da 173d e2fc 91bd 96ff dd3d 6cc7 993c
00000330: 908e 2d3a 8969 f1ba 6293 8b3d e0b3 54bd
00000340: 9a6b 933d e0a0 4dbd f42b 9fbd 64c2 53bd
00000350: 4455 923d 3520 aabd 040d 8bbd 5565 be3c
00000360: 5ac4 8dbb 46b1 babc 610f c9bd e508 7dbb
00000370: 2d21 963c 6082 633c ebe5 6d3d 7205 ba3c
00000380: 42a6 af3d f791 f63c 8590 cbbc 03c7 7b3d
00000390: edc8 513d 819c a53c 906d be3b 0496 7abc
000003a0: c931 a43c e332 583c c626 81bd a8f8 2d3d
000003b0: 0252 483d aee7 d9bd f585 c1bb 5948 d6bd
000003c0: 2d2c 85bd 7a7f 513b f80b 043d e64b 7f3d
000003d0: 493f aebd 0383 f2bd dc61 193c 890d d33c
000003e0: e1b5 d63d 12c6 b2bd ebb5 bbbb a0a7 183d
000003f0: 5663 ceb9 fd56 b33d 1d2d 1d3d 71d7 2d3d

lin5.bias f4 [16]
-0.035089 -0.040915217 0.036591236 0.017150942 -0.029915182 0.059166998 0.047709607 -0.0018497917
0.012604623 -0.013394312 -0.005991304 0.06281664 0.034604996 -0.045926694 -0.05573635 -0.06523279
00000000: 7cb9 0fbd b796 27bd b1e0 153d 2280 8c3c
00000010: af10 f5bc 1859 723d 266b 433d b674 f2ba
00000020: 9f83 4e3c d173 5bbc b352 c4bb 03a6 803d
00000030: f8bd 0d3d a11d 3cbd cd4b 64bd c598 85bd
