src/virtuose_teleoperation/network_controller/trained_policy_MLP/Grasp_norm_BC_AHEE_epoch_8.pth (torch, 472583 bytes, 10 tensors)

lin1.weight f4 [256, 36]
0	0x3c57b6d5	0.013166149
1	0xbd873731	-0.06602324
2	0xbdc4975c	-0.09599182
3	0xbde2ebcb	-0.1108013
4	0x3d84df3d	0.06487892
5	0xbe2346b3	-0.15944938
6	0xbdc010fe	-0.09378241
7	0x3e26c66b	0.16286628
8	0xbd3f0fc7	-0.046645906
9	0x3e216f33	0.15765075
10	0x3e1d6d5d	0.1537375
11	0xbdaa2a2a	-0.083088234
12	0x3dd14359	0.10217924
13	0x3ddbf3cd	0.10739861
14	0xbdb2f188	-0.08737475
15	0xbd181d26	-0.037137173
16	0xbdcccdf7	-0.10000222
17	0x3dc19d0b	0.09453782
18	0xbda63023	-0.0811465
19	0x3e0b51a0	0.13605356
20	0x3c3e14df	0.011601656
21	0x3e126a69	0.14298405
22	0xbdb8f932	-0.09031905
23	0x3e0e0f35	0.13872989
24	0xbda1a7d3	-0.07893338
25	0xbc71ed44	-0.014766041
26	0xbd1203b7	-0.035648074
27	0xbdcbb91a	-0.09947415
28	0xbdc0a78b	-0.09406956
29	0xbe22187f	-0.15829657
30	0x3d095f45	0.03353812
31	0x3e00398c	0.12521952
32	0x3df72893	0.12068286
33	0xbdfac779	-0.12245078
34	0x3c8c7f11	0.017150434
35	0xbe0e924d	-0.13922997
36	0xbe0f5fe0	-0.14001417
37	0xbe22d9dd	-0.15903421
38	0x3df6d1e4	0.12051752
39	0x3e0f1463	0.1397262
40	0x3e2e9d93	0.17052297
41	0xbd85f454	-0.065407425
42	0xbde1d8a4	-0.11027649
43	0xbd042889	-0.03226522
44	0x3e34c016	0.176514
45	0x3e270c88	0.16313374
46	0xbe1e00d1	-0.15429999
47	0x3d91c7dd	0.07118199
48	0xbcb52f9c	-0.022117428
49	0xbe57f59b	-0.21089785
50	0x3da0a27a	0.0784349
51	0x3c1ac9ab	0.009447495
52	0xbd0f7a8f	-0.03502899
53	0xbe3b70ed	-0.18304797
54	0xbdad6d4f	-0.084681146
55	0xbdbe276a	-0.092848614
56	0xbe00e339	-0.12586679
57	0xbcb38c5d	-0.021917516
58	0x3d3baf11	0.045821253
59	0xbdb3427e	-0.08752917
60	0xbe2c962b	-0.1685416
61	0xbe489f89	-0.19592108
62	0x3ccb965c	0.02485197
63	0x3db5af1b	0.08871289
64	0xbdb39728	-0.08769065
65	0xbdc64535	-0.09681169
66	0xbdaea5ee	-0.08527742
67	0x3cb79d69	0.022413926
68	0xbc3efd45	-0.011657064
69	0x3b9384b3	0.004501903
70	0x3e0e9560	0.1392417
71	0xbe12f73e	-0.14352128
72	0xbd8200ec	-0.06347832
73	0x3e058391	0.1303847
74	0x3dbea09b	0.09307977
75	0xbd2beb22	-0.041972287
76	0x3c2de8f0	0.010614619
77	0x3dc08ee3	0.094022535
78	0xbdb31ae2	-0.08745362
79	0x3d715e41	0.05892778
80	0x3d8107bd	0.06300304
81	0xbe0b994a	-0.13632694
82	0xbd061451	-0.03273422
83	0x3dd53e0b	0.104122244
84	0x3dce6081	0.100770004
85	0xbc997f40	-0.018737435
86	0x3e03b074	0.1286028
87	0x3db2c330	0.08728635
88	0x3c0dacb1	0.00864713
89	0xbc0eb7d1	-0.008710817
90	0x3e26a809	0.16275038
91	0xbc00ea75	-0.007868399
92	0x3d5444ab	0.0518233
93	0x3d999813	0.07499709
94	0x3da96831	0.08271826
95	0xbe4078f7	-0.18796144
96	0x3d3af05a	0.045639373
97	0x3dc2be07	0.09508901
98	0xbd1cc8ba	-0.038277365
99	0x3e24ded0	0.16100621
100	0x3e27e187	0.16394626
101	0x3c8db818	0.017299697
102	0x3d1b6041	0.03793359
103	0x3ddffdc7	0.10937076
104	0xbdbc266f	-0.09187018
105	0x3dbc6efa	0.092008546
106	0x3c97fe29	0.01855381
107	0x3cbf38c2	0.023342494
108	0xbdd9bf3e	-0.1063218
109	0xbda78290	-0.081792
110	0x3c3455ce	0.011006786
111	0xbbd50c86	-0.006501737
112	0x3e03e986	0.12882051
113	0xbc87761f	-0.016535817
114	0xbd5f17b5	-0.05446597
115	0xbc247a91	-0.010038988
116	0xbe25eaed	-0.16202898
117	0x3e1b66d2	0.15175942
118	0x3d0466b2	0.0323245
119	0x3e1f039e	0.15528724
120	0xbc344276	-0.011002174
121	0x3e153ad5	0.14573224
122	0xbd87ec76	-0.06636898
123	0xbdb7d439	-0.08976025
124	0x3bb44970	0.0055019185
125	0xbdfb8bd0	-0.122825265
126	0xbe0ba535	-0.1363724
127	0x3e15abce	0.1461632
128	0xbe1cb9d2	-0.1530526
129	0x3e16423c	0.14673704
130	0xbd95d863	-0.07316663
131	0x3df7a842	0.120926395
132	0xbdd4ec42	-0.10396625
133	0xbdcf2c71	-0.101158984
134	0xbe096ade	-0.13419673
135	0x3d115670	0.035482824
136	0xbd75deb6	-0.060026847
137	0xbdae27b3	-0.08503666
138	0x3e06ef9c	0.13177341
139	0x3dc8f492	0.09812273
140	0x3e1e2e60	0.15447378
141	0x3daf728a	0.085667685
142	0xbc84c966	-0.016209316
143	0xbde3f4ba	-0.11130662
144	0x3d3e57c6	0.046470426
145	0x3daaf913	0.083482884
146	0x3e3a2294	0.18177253
147	0x3def6b09	0.11690337
148	0x3ccb9562	0.024851505
149	0xbe03a7b3	-0.12856941
150	0xbdaebac8	-0.085317194
151	0xbda7c0a2	-0.08191039
152	0x3e2add2f	0.16685937
153	0x3d921867	0.07133561
154	0xbdb23f78	-0.08703512
155	0x3d337f52	0.043822594
156	0xbc9a213f	-0.018814681
157	0xbc5922e9	-0.013252952
158	0xbce5e66b	-0.028063973
159	0x3d409475	0.04701658
160	0x3d944f45	0.07241682
161	0x3c3ccc86	0.011523372
162	0x3b6c3602	0.0036042933
163	0xbdc9517b	-0.09829994
164	0xbe25caa9	-0.1619059
165	0xbe31739f	-0.17329262
166	0xbe42b8ff	-0.19015883
167	0xbdabb624	-0.0838435
168	0xbe5385a9	-0.20656456
169	0xbd589769	-0.05287877
170	0x3d90e0df	0.07074141
171	0x3e09a35d	0.13441224
172	0xbda85da3	-0.08220985
173	0xbe04f027	-0.12982236
174	0x3ca7b6b8	0.02047287
175	0x3de4f339	0.111792035
176	0xbd1c63e3	-0.038181197
177	0xbde38114	-0.11108604
178	0x3d8c59eb	0.06853088
179	0x3def0448	0.116707385
180	0x3e177dc5	0.14794071
181	0xbbc8a965	-0.006123709
182	0xbc1a0919	-0.009401583
183	0x3d970201	0.07373429
184	0x3df9c803	0.12196352
185	0x3d83ab47	0.06429153
186	0xbe1416aa	-0.1446177
187	0xbdd91e88	-0.106015265
188	0xbc8fe2f7	-0.01756428
189	0xbaae7e10	-0.0013312716
190	0xbdb15f46	-0.0866075
191	0xbdb0d858	-0.08635014
192	0xbdbfb09f	-0.0935986
193	0xbd51396d	-0.051080156
194	0xbda99a6e	-0.08281408
195	0xbdf7140c	-0.120643705
196	0x3d09aa5f	0.033609744
197	0xbdbe32a8	-0.09287006
198	0xbd8ff061	-0.070282705
199	0xbe109a0c	-0.14121264
200	0xbdd59e16	-0.10430543
201	0xbd7703ca	-0.060306348
202	0x3c8f289d	0.01747542
203	0x3e1efd4c	0.15526313
204	0x3d0f766e	0.035025053
205	0xbe03a1b2	-0.1285465
206	0x3c13913b	0.009006794
207	0x3def5349	0.11685807
208	0xbd76ef90	-0.06028706
209	0xbe1d88d5	-0.15384229
210	0xbdf3cb26	-0.11903982
211	0x3d55509f	0.05207884
212	0x3e21585b	0.15756361
213	0xbd3f3269	-0.046678934
214	0x3dd3e420	0.10346246
215	0xbdf0abf4	-0.117515475
216	0xbda17afe	-0.07884787
217	0xbda0d276	-0.07852642
218	0xbd605136	-0.05476495
219	0xbce710cb	-0.02820625
220	0xbd6b9eab	-0.057524364
221	0x3cffe78b	0.031238338
222	0x3cd3cdf6	0.025855046
223	0x3d076f00	0.033064842
224	0xbe21e91b	-0.15811579
225	0xbde165c8	-0.11005741
226	0x3dc15d06	0.09441571
227	0xbe22425f	-0.15845631
228	0xbdfd1d5b	-0.12359115
229	0x3e295830	0.16537547
230	0x3da7e39b	0.08197709
231	0x3ded2e48	0.11581093
232	0x3e07d744	0.13265711
233	0xbe0cbb64	-0.13743359
234	0xbd85620b	-0.06512841
235	0xbd24cc10	-0.04023367
236	0xbd8845a6	-0.066539094
237	0xbcd4eb2b	-0.025991043
238	0xbbd77a80	-0.0065758824
239	0xbdba5320	-0.09097886
240	0xbe1f1b2e	-0.15537712
241	0xbd8b6010	-0.06805432
242	0x3df6a92b	0.12043985
243	0x3d0bc056	0.034118973
244	0xbe121e77	-0.14269434
245	0x3a629aab	0.0008644263
246	0x3d46e786	0.04856064
247	0x3d62aeb6	0.0553424
248	0xbd843d66	-0.06457023
249	0xbe18c658	-0.14919412
250	0x3c778016	0.015106222
251	0xbe092098	-0.1339134
252	0x3dc5f4fe	0.09665869
253	0xbd363154	-0.044480637
254	0x3dcbd23f	0.09952211
255	0x3d86f499	0.06589622

lin1.bias f4 [256]
0	0x3bffed1c	0.007810248
1	0x3d7f08ff	0.06226444
2	0xbd641bab	-0.05569045
3	0x3da9ee31	0.082973845
4	0x3e2c782d	0.16842718
5	0xbda3415d	-0.079714514
6	0xbdf4f1e0	-0.119601965
7	0x3ce62a42	0.028096322
8	0x3e2fa56d	0.17152949
9	0x3d22af86	0.039718173
10	0xbcd271dd	-0.02568906
11	0xbd03fe8a	-0.03222517
12	0x3d83df2e	0.064390525
13	0x3d9bd8e6	0.076097295
14	0x3b9c2a69	0.004765798
15	0x3e26e86b	0.16299598
16	0x3d997966	0.07493858
17	0x3d93aa81	0.072102554
18	0x3d27bcde	0.040951602
19	0xbd958b9e	-0.073020205
20	0x3e24c954	0.16092426
21	0x3d634ad5	0.055491287
22	0xbdabe3ba	-0.08393045
23	0xbe2babfc	-0.16764826
24	0x3b732cbb	0.003710552
25	0x3cae2ca9	0.02126153
26	0xbd6e1089	-0.058121238
27	0x3e1d7f09	0.15380491
28	0xbd7ed7db	-0.062217575
29	0x3caee06b	0.021347245
30	0xbd9d7393	-0.0768806
31	0x3e12c90b	0.14334504
32	0xbde07b13	-0.109609745
33	0x3a70b25e	0.0009181852
34	0xbe161471	-0.14656235
35	0x3d3d1f32	0.04617233
36	0x3e0bf804	0.13668829
37	0x3d59a753	0.05313809
38	0x3e0c5987	0.13706027
39	0xbdfb72ab	-0.122777306
40	0xbcea38fa	-0.028591622
41	0xbde651dc	-0.11246082
42	0x3da55ba9	0.080741234
43	0xbdfdd518	-0.1239416
44	0xbdd96bce	-0.10616265
45	0xbdb2a359	-0.08722562
46	0xbde6e972	-0.11274995
47	0xbda1e447	-0.079048686
48	0xbd74ee20	-0.059797406
49	0x3dc2e83e	0.09516953
50	0x3da5defe	0.08099173
51	0x3e1bfc69	0.15233006
52	0xbe19fbf0	-0.15037513
53	0xbc31c1de	-0.010849444
54	0x3c85228d	0.016251827
55	0x3c2c5555	0.010518392
56	0xbdaed64a	-0.08536966
57	0x3de0533b	0.10953375
58	0xbd6c9d19	-0.057767007
59	0xbd430f4e	-0.047622018
60	0x3d2fa63a	0.042883135
61	0xbdd7fad8	-0.105458915
62	0xbd4f70cf	-0.050644692
63	0xbd077139	-0.033066962
64	0x3cf3506c	0.029701434
65	0x3dc68028	0.096924126
66	0x3ce880a2	0.02838165
67	0xbe060aee	-0.13090107
68	0x3be2952c	0.0069147553
69	0x3d9db141	0.07699824
70	0x3e111380	0.14167595
71	0x3c534981	0.012895943
72	0x3e2a2a6f	0.1661775
73	0x3d8a0911	0.067400105
74	0xbdda340f	-0.10654461
75	0xbe047102	-0.12933734
76	0x3e2ce731	0.16885068
77	0xbd835fbd	-0.06414745
78	0x3c9f8516	0.01947264
79	0x3e1720f9	0.14758672
80	0x3d9593e7	0.07303601
81	0x3d316e9b	0.043318372
82	0xbe108b5d	-0.14115663
83	0xbdddccf9	-0.10830111
84	0x3c9f6bc7	0.019460572
85	0x3d2ca177	0.042146172
86	0xbdde6ad6	-0.10860221
87	0x3dec9f4d	0.11553822
88	0xbe0b88d8	-0.1362642
89	0x3dd0eb67	0.102011494
90	0x3dc32c16	0.09529893
91	0xbdb42213	-0.08795562
92	0xbdcae9f1	-0.09907902
93	0x3cc54961	0.024082841
94	0x3dd20bc0	0.102561474
95	0xbd9fe79c	-0.07807848
96	0xbdce1ca9	-0.1006406
97	0xbdbf1740	-0.093306065
98	0xbc875ac8	-0.01652278
99	0x3debeb8b	0.11519536
100	0xbd3f7830	-0.04674548
101	0x3e06f1b1	0.13178135
102	0x3c55ebac	0.013056677
103	0x3e0081b1	0.12549473
104	0x3b6afc59	0.0035855977
105	0xbd80ee4f	-0.06295454
106	0xbe01b16f	-0.12665342
107	0xbdd47993	-0.10374751
108	0x3e1a6fb0	0.15081668
109	0x3d5bc2d1	0.05365259
110	0x3d89dfd8	0.06732148
111	0xbda249aa	-0.079242066
112	0xbdc3b72a	-0.0955642
113	0xbe00acef	-0.12565969
114	0xbe17b526	-0.14815196
115	0xbc280361	-0.010254712
116	0xbd9e468b	-0.07728299
117	0xbd06f32e	-0.032946758
118	0x3e1b7af8	0.15183628
119	0xbe29b0bd	-0.16571327
120	0xbc01cd3f	-0.00792247
121	0xbe428f52	-0.18999985
122	0xbe09b3b9	-0.13447465
123	0x3de945a0	0.11390233
124	0xbde18696	-0.11011998
125	0xbe095bce	-0.13413927
126	0x3de0f1d7	0.10983627
127	0x3c42eecc	0.011897754
128	0x3e9a8a92	0.30183846
129	0x3e0b464d	0.13601036
130	0xbe69d11b	-0.22833674
131	0xbe14f623	-0.14547019
132	0x3dab59ee	0.08366762
133	0xbcd3dfb9	-0.025863515
134	0xbdbb6c8a	-0.091515616
135	0xbdc422a6	-0.09576921
136	0xbd4a77eb	-0.04943077
137	0x3d9e2710	0.07722294
138	0x3ddc499d	0.10756228
139	0x3d02a33c	0.031893954
140	0xbdc9c57f	-0.098521225
141	0xbdc33ac1	-0.09532691
142	0x3da7bc3f	0.08190202
143	0xbdd76e0c	-0.10519037
144	0xbdf30a24	-0.118671685
145	0x3d095c2c	0.033535168
146	0x3d9667d3	0.07344022
147	0xbd47937d	-0.04872464
148	0x3dd39b02	0.103323
149	0xbdd18e1b	-0.102321826
150	0x3d40f451	0.047108
151	0x3d860d88	0.0654555
152	0x3ccb24ff	0.024797915
153	0xbe3fd5cf	-0.18733905
154	0xbd9d73d3	-0.07688107
155	0xbdcdf957	-0.100573234
156	0x3c5fede7	0.01366756
157	0x3e17427f	0.1477146
158	0xbdc0276f	-0.09382521
159	0xbdbe9f56	-0.09307735
160	0x3e2ee509	0.17079557
161	0xbc25bc62	-0.010115715
162	0x3bad6f25	0.0052927905
163	0x3d9da94b	0.07698306
164	0x3d20592f	0.039147552
165	0xbd91921c	-0.07107946
166	0xbd69042f	-0.056888755
167	0x3db21eb9	0.08697266
168	0x3b0b04c9	0.002121257
169	0xbdd58348	-0.104254305
170	0x3d168606	0.03674891
171	0x3cb77771	0.022395821
172	0xbe2fae73	-0.17156391
173	0xbe114b29	-0.14188828
174	0x3d997345	0.07492689
175	0x3e0cf37d	0.13764758
176	0x3df5ae3a	0.11996122
177	0xbe18dcf5	-0.14928038
178	0xbdb4631c	-0.08807966
179	0x3d86e239	0.06586117
180	0xbd0b2a16	-0.033975683
181	0xbdb1aff6	-0.0867614
182	0xbd2a31d0	-0.04155141
183	0xbca86710	-0.020556957
184	0x3e0447c7	0.12918006
185	0x3d9180ee	0.071046695
186	0x3e00707b	0.12542908
187	0xbe1636c2	-0.14669326
188	0x3d9a7bd4	0.075431496
189	0xbc32382a	-0.010877648
190	0xbd7f0e79	-0.06226966
191	0x3b7030d7	0.0036650205
192	0xbd97d23c	-0.07413146
193	0x3cd6a27a	0.026200522
194	0x3b0d6037	0.002157224
195	0xbd6e9380	-0.058246136
196	0x3d675d9c	0.056485757
197	0xbdf92402	-0.12165071
198	0x3dd1b040	0.10238695
199	0x3dc89757	0.09794491
200	0xbde580e5	-0.11206225
201	0x3db7d45c	0.08976051
202	0xbdb5ca4f	-0.08876478
203	0x3e202fdc	0.15643257
204	0x3cb031f2	0.02150819
205	0x3e169bfb	0.1470794
206	0x3db66e9b	0.08907815
207	0xbe87bf31	-0.26513055
208	0xbdfe69ee	-0.12422548
209	0x3dfcaab0	0.123372436
210	0x3b1d5919	0.0024009405
211	0x3be2a5d0	0.006916739
212	0xbdea4956	-0.11439769
213	0x3cc76f42	0.024345044
214	0x3e16c1f9	0.14722432
215	0x3dfb8d1c	0.12282774
216	0xbda285bb	-0.07935663
217	0x3d119086	0.03553822
218	0xbde4dcea	-0.111749485
219	0xbd99d161	-0.07510639
220	0x3e0b70c8	0.13617241
221	0xbcfb220b	-0.030655881
222	0x3dd87da1	0.10570837
223	0xbd8450ed	-0.06460748
224	0x3dc68d7b	0.09694954
225	0x3d54b230	0.051927745
226	0xbd2e8fc4	-0.042617574
227	0x3e2287bd	0.15872093
228	0xbdd459f1	-0.103687175
229	0x3d56ebff	0.052471157
230	0xbdb7a80e	-0.08967601
231	0xbd925b46	-0.07146315
232	0x3e24b4e4	0.1608463
233	0xbcc3ceda	-0.023902345
234	0x3e247999	0.16062011
235	0xbe433758	-0.1906408
236	0x3db39d05	0.087701835
237	0x3e136ccc	0.14396971
238	0xbc66f835	-0.014097263
239	0x3d86680a	0.065628126
240	0x3e02dec6	0.12780294
241	0xbe018688	-0.12648976
242	0xbc53c1b9	-0.012924605
243	0x3c838c6d	0.016058171
244	0x3de3f834	0.11131325
245	0xbe1a85a5	-0.15090044
246	0x3c753758	0.014966808
247	0xbab4b1f9	-0.001378595
248	0x3dbbe90e	0.09175311
249	0x3d907a95	0.07054631
250	0x3e1900d5	0.14941724
251	0xbdec3290	-0.115330815
252	0xbdeaa886	-0.114579245
253	0xbdf5bfec	-0.11999497
254	0x3ddac18b	0.10681447
255	0x3c106455	0.0088129835

lin2.weight f4 [256, 256]
0	0x3cd5bd9c	0.02609139
1	0xbd3afc56	-0.045650803
2	0xbd4b2e40	-0.049604654
3	0x3d6e9816	0.05825051
4	0xbbe9f7f3	-0.0071401536
5	0xbc59906c	-0.013279062
6	0xbb9bb810	-0.0047521666
7	0x3d7c9fe7	0.061675932
8	0xbc6f8fe6	-0.01462171
9	0xbc5328dc	-0.01288816
10	0xbc1faa4e	-0.009745194
11	0x3c2b94c2	0.010472478
12	0x3d27dd7a	0.0409827
13	0x3d2553bd	0.040363062
14	0xbc18cc1c	-0.009326007
15	0xbd38c789	-0.045112167
16	0xbd29b1d6	-0.041429363
17	0x3d6ad016	0.057327352
18	0xbc1a67c8	-0.009424157
19	0xbd117bfd	-0.035518635
20	0x3d401383	0.046893608
21	0x3d7e249d	0.062046636
22	0x3d1b50b9	0.03791878
23	0x3c37d6e4	0.0112206675
24	0x3dda17b3	0.106490515
25	0x3bbe4803	0.0058069243
26	0x3d4fba8e	0.05071502
27	0xbcabe5d3	-0.020983612
28	0x3e58a4f8	0.2115668
29	0x3c8ba866	0.017048072
30	0x3c1ac619	0.009446644
31	0xbb102629	-0.0021995401
32	0xbe67e7bd	-0.22646995
33	0x3cd5b635	0.02608786
34	0x3d5b200c	0.05349736
35	0xbd687ec8	-0.056761533
36	0x3d65456d	0.055974413
37	0x3cc562f5	0.024095038
38	0x3c244c3e	0.010027943
39	0xbd749fa5	-0.05972256
40	0xbc923c21	-0.017850937
41	0x3d54e4b7	0.051975932
42	0x3d1f8cbe	0.03895258
43	0xbcc746b4	-0.024325706
44	0xbd6ac6b3	-0.0573184
45	0x3d6478f3	0.05577941
46	0xbd37055d	-0.04468285
47	0xbd699ad2	-0.057032414
48	0xbc4ce1b8	-0.012504987
49	0x3d064a49	0.032785688
50	0xbd19a0bb	-0.0375068
51	0x3dc94326	0.09827261
52	0x3af21622	0.0018469731
53	0xbcdd8615	-0.027041474
54	0x3ca57615	0.020197907
55	0xbcb24772	-0.021762583
56	0xbb616d83	-0.003439755
57	0xbd6a6927	-0.057229187
58	0x3d583e3d	0.05279373
59	0x3c9f2d41	0.019430758
60	0x3d4b261b	0.049596887
61	0xbc044640	-0.0080733895
62	0x3c154e22	0.009112867
63	0xbd19a306	-0.037508987
64	0xbb3b69e8	-0.002859706
65	0xbd48137d	-0.04884671
66	0x3d0b01e8	0.033937365
67	0x3b1e34f3	0.0024140447
68	0x3d293055	0.04130586
69	0x3ce1bdfa	0.027556408
70	0x3bb199ac	0.0054199304
71	0x3d5029c4	0.05082108
72	0xbd066a9a	-0.032816507
73	0x3d72530c	0.05916123
74	0xbb4959e9	-0.0030723757
75	0x3d544984	0.051827922
76	0xbc0e0a4f	-0.00866945
77	0xbbcb52f5	-0.0062049576
78	0xbc8bd57c	-0.01706957
79	0xbba768e7	-0.005108941
80	0xbc04ab78	-0.008097522
81	0x3b335400	0.00273633
82	0xbd0fb6a9	-0.035086308
83	0x3d79944b	0.06093244
84	0x3cde6378	0.02714704
85	0x3c82ba2c	0.015957914
86	0x3bd3daa0	0.006465271
87	0xba8affae	-0.0010604763
88	0x3d0400a6	0.03222718
89	0xbd106cae	-0.035259895
90	0x3d27fd2c	0.041012928
91	0x3d3d646c	0.046238348
92	0x3c7f0b96	0.015566727
93	0x3c7343f7	0.014847747
94	0x3d257413	0.0403939
95	0xbca04ed4	-0.019568838
96	0xbd0db8d3	-0.03460009
97	0x3d461cd2	0.04836733
98	0x3b11c5da	0.0022243173
99	0xbbe016f1	-0.0068386723
100	0x3d5b0c28	0.05347839
101	0xbbd9b2fd	-0.0066436515
102	0xbc037c83	-0.008025291
103	0x3ca05b6a	0.01957484
104	0x3c9db4e2	0.01925129
105	0x3cdc03f2	0.02685735
106	0x3d6df0d4	0.058091
107	0xbd4e809c	-0.05041562
108	0xbc6393a1	-0.013890178
109	0xbce7a52c	-0.028277002
110	0x3d33690a	0.043801345
111	0xbd6a48af	-0.057198223
112	0x3c2780c1	0.010223568
113	0xbd591f08	-0.05300811
114	0x3bb3334d	0.005468762
115	0x3b61a0d6	0.003442814
116	0xbd4a9f32	-0.049468227
117	0xbd107aa2	-0.0352732
118	0x3cd28e9d	0.025702769
119	0xbc937907	-0.018002046
120	0xbd137431	-0.03599948
121	0xbca32260	-0.019913852
122	0xbc9e02b5	-0.0192884
123	0xbd45873d	-0.048224676
124	0xbd5eac24	-0.054363385
125	0xbc3456ad	-0.011006993
126	0x3cb53a01	0.022122385
127	0xbce00be7	-0.027349425
128	0x3d32a5bd	0.04361509
129	0xbd628252	-0.055300064
130	0xbd3ce712	-0.046118803
131	0x3d3c7e6a	0.046018995
132	0xbcfb900a	-0.030708332
133	0xbd7cbc1c	-0.061702833
134	0x3cad7d5a	0.021177936
135	0x3d345954	0.044030502
136	0xbce43b91	-0.027860435
137	0xbcbd7061	-0.023124876
138	0xbb97bffe	-0.0046310415
139	0x3d0ce27b	0.034395676
140	0x3d741d4f	0.059598263
141	0xbd54557b	-0.051839333
142	0xbd2a83bf	-0.04162955
143	0x3c481f13	0.01221444
144	0xbd5904b4	-0.052983
145	0xbc9ad567	-0.018900586
146	0x3cba2220	0.02272135
147	0x3d0023be	0.031284086
148	0x3d240c08	0.040050536
149	0xbd052cb6	-0.032513343
150	0xbd2bb6c2	-0.04192234
151	0x3d03ca26	0.032175206
152	0x3afea2bf	0.0019427164
153	0xbc71f342	-0.01476747
154	0xbc12d898	-0.008962773
155	0xbe8d8ea6	-0.27647895
156	0xbd7db5e8	-0.061941057
157	0x3ce709be	0.028202888
158	0x3ca67851	0.020321043
159	0x3d58e31e	0.05295097
160	0x3c85c791	0.016330512
161	0x3d470590	0.04858929
162	0x3c638103	0.013885739
163	0x3b30eb80	0.0026995838
164	0xbc1539f3	-0.009108054
165	0xbd321cd4	-0.043484524
166	0x3a6f0623	0.0009118041
167	0xbd357fee	-0.044311456
168	0xbd4f71c6	-0.050645612
169	0x3d5d855a	0.054082252
170	0x3d0bf0ae	0.034165077
171	0xbd2cfa41	-0.04223085
172	0xbd17e55f	-0.03708398
173	0xbd13e93f	-0.036111113
174	0x3d5a04cb	0.053227227
175	0xbd7a89c8	-0.061166555
176	0xbae7bb6c	-0.0017679757
177	0xbc95b8e7	-0.018276645
178	0x3cd53fc0	0.026031375
179	0xbc5d944a	-0.013524124
180	0xbb168852	-0.0022969437
181	0xbacf9966	-0.0015838563
182	0xbb859590	-0.004076667
183	0xbd4fa295	-0.05069216
184	0xbd39e300	-0.0453825
185	0x3d583259	0.05278239
186	0xbc548ec7	-0.012973494
187	0xbb8be210	-0.004268892
188	0x3d778900	0.060433388
189	0x3d598af4	0.05311103
190	0x3d1fbd54	0.038998917
191	0x3cdd5c0b	0.027021429
192	0x3cd630a5	0.026146242
193	0x3d0384ce	0.032109074
194	0xbc86b0cf	-0.01644173
195	0xbc83c96b	-0.016087255
196	0x3cb80f11	0.022468122
197	0xbbf15d07	-0.007365826
198	0xbcbcca32	-0.023045633
199	0x3d35f1d7	0.04442009
200	0xbca98de8	-0.020697549
201	0x3afbc1f8	0.0019207587
202	0x3d7d4ec2	0.061842687
203	0x3d73af18	0.059493154
204	0x3d7a6d6d	0.061139513
205	0x3d3055fb	0.043050747
206	0xbb7f6b55	-0.0038973887
207	0xbda9aacd	-0.08284531
208	0xbd75c6f9	-0.06000421
209	0xbc8fd3a9	-0.017556982
210	0xbd55e99a	-0.052224733
211	0x3ede18c5	0.43378273
212	0x3d14fed9	0.036375854
213	0xbc999348	-0.018746987
214	0x3d48e66f	0.049047884
215	0x3cc5c3ff	0.02414131
216	0xbd74b89a	-0.059746362
217	0xbd12152d	-0.035664726
218	0xbd361eff	-0.044463154
219	0xbd1642b0	-0.036684692
220	0x3b495092	0.003071819
221	0x3d73a66b	0.05948488
222	0x3d2d4395	0.04230078
223	0xbd1d0d4f	-0.03834277
224	0x3c06b313	0.008221406
225	0x3d3bcb26	0.045848034
226	0xbcb15b6a	-0.021650035
227	0xbb8d12be	-0.0043052128
228	0x3d140aef	0.03614324
229	0xbd07c9e0	-0.033151507
230	0x3d340484	0.04394962
231	0x3c100f20	0.008792669
232	0x3cacbc2d	0.021085823
233	0xbd277f72	-0.040893026
234	0x3d959c61	0.073052175
235	0x3cea110e	0.028572585
236	0xbcd9868a	-0.026553411
237	0xbcf12db9	-0.029440748
238	0x3ce5bf93	0.028045451
239	0xbd69af3c	-0.057051882
240	0x3d9a92ca	0.07547529
241	0x3d368e8c	0.044569537
242	0x3d0696d4	0.032858685
243	0xbd493e44	-0.049131647
244	0x3c9f87b4	0.019473888
245	0xbc47484a	-0.012163231
246	0x3cd41b7f	0.025892017
247	0xbd202a7b	-0.039103013
248	0xbd6777f5	-0.056510884
249	0x3c8c1b36	0.017102819
250	0xbd416883	-0.04721881
251	0xbd76f5f4	-0.060293153
252	0x3c29ad00	0.010356188
253	0xbc449e2d	-0.012000603
254	0xbd6ff944	-0.058587328
255	0x3d2680f5	0.040650327

lin2.bias f4 [256]
0	0x3cc6c03d	0.024261588
1	0xbc1a7d65	-0.00942931
2	0xbca167f0	-0.019702882
3	0x3a16ea88	0.0005756994
4	0x3d736b07	0.05942824
5	0x3c2b80a3	0.010467681
6	0xbd49e0f8	-0.049286813
7	0xbd235f16	-0.039885603
8	0xbc84a375	-0.016191224
9	0xbd79008e	-0.060791545
10	0xbd867bf4	-0.06566611
11	0xbc025a0b	-0.007956038
12	0x3cb70d6b	0.022345265
13	0xbd1186d0	-0.035528958
14	0x3d590892	0.05298669
15	0xbca14fcb	-0.019691369
16	0x3d13a424	0.03604521
17	0xbd198116	-0.03747662
18	0xbd815dd2	-0.06316723
19	0xbb424a9f	-0.0029646528
20	0xbd1af96e	-0.03783553
21	0xbb50bfe4	-0.0031852657
22	0xbcd8d2a8	-0.026467636
23	0x3d5c3477	0.053760972
24	0x3d3ed3f3	0.04658885
25	0xbc3f0037	-0.011657766
26	0xbd36521b	-0.044511896
27	0x3d5b579b	0.053550344
28	0xbd689cda	-0.05679021
29	0xbb857b17	-0.0040735113
30	0xbd128aa7	-0.03577676
31	0x3cd4ef08	0.025992885
32	0x3d77ae2e	0.060468845
33	0xbc92e3e9	-0.017930942
34	0x3c8d7f84	0.017272718
35	0x3d28be63	0.041197192
36	0x3d4d42c9	0.05011252
37	0xbd037ba5	-0.03210034
38	0x3dafd936	0.085863516
39	0x3d2ef927	0.04271808
40	0x3d055d15	0.032559473
41	0xbc029bc7	-0.0079717105
42	0xbcccb4c9	-0.024988549
43	0x3d57eb33	0.052714538
44	0xbc516772	-0.012781011
45	0xbc3fcc89	-0.01170648
46	0xbda62172	-0.08111848
47	0x3d424b60	0.047435164
48	0x3c516f5f	0.012782901
49	0xbcd33901	-0.025784018
50	0xbca1b206	-0.019738209
51	0x3b9d4bae	0.0048002815
52	0xbcc724f9	-0.024309622
53	0xbca57f99	-0.020202445
54	0xbd157c84	-0.0364957
55	0xbcab8cb2	-0.020941112
56	0x3d787b4f	0.06066447
57	0x3d58dc78	0.05294463
58	0x3d37d26d	0.044878412
59	0xbd63a831	-0.05558032
60	0x3d584db1	0.052808467
61	0xbd735e0c	-0.059415862
62	0xbc3678b3	-0.011137175
63	0x3d577035	0.052597243
64	0xbd693aca	-0.05694083
65	0xbd181405	-0.037128467
66	0xbd877715	-0.0661451
67	0xbd63c31d	-0.055605996
68	0x3c34f743	0.01104528
69	0xbc851b51	-0.016248377
70	0x3cf2486e	0.029575553
71	0xbd0fbb91	-0.035090987
72	0x3d9262f8	0.07147783
73	0x3ce3b780	0.02779746
74	0x3ccd27f5	0.025043467
75	0xbd0d0117	-0.034424867
76	0x3c983db0	0.018584102
77	0x3d26ba4f	0.04070502
78	0xbd3b6a48	-0.045755655
79	0xbccc0d6f	-0.02490875
80	0xbd055d69	-0.032559786
81	0xbcba91c7	-0.02277459
82	0x3d2be84d	0.041969586
83	0xbcf0ec8e	-0.029409673
84	0x3d3edff8	0.046600312
85	0xbcf69bd6	-0.030103605
86	0x3c87b1e9	0.016564326
87	0xbb9e90d8	-0.004839044
88	0xbd0587f5	-0.03260036
89	0xbc21562e	-0.009847207
90	0x3ccaa14c	0.024735115
91	0xbd2b64e6	-0.04184427
92	0xbb1d0a2a	-0.0023962357
93	0x3cb9c61c	0.022677474
94	0x3d0c2b9e	0.034221284
95	0xba9903db	-0.0011674123
96	0xbd815370	-0.063147426
97	0xbd540972	-0.05176682
98	0x3ceb65ad	0.028735006
99	0xbcf591cb	-0.029976746
100	0xbd7dce7a	-0.06196449
101	0xbd60fdbb	-0.054929476
102	0xbd423e07	-0.047422435
103	0x3cf58b15	0.029973546
104	0x3da1fba3	0.07909324
105	0x3ba6dd0e	0.0050922697
106	0x3c58f8e0	0.01324293
107	0x3cb4bc57	0.022062464
108	0x3d61b144	0.055100694
109	0xbd1ad174	-0.037797406
110	0x3c25f6d3	0.010129648
111	0x3d0abb37	0.03386995
112	0x3d3f1e5b	0.04665981
113	0x3d45c876	0.048286878
114	0xbd33091b	-0.043709856
115	0xbd19aa99	-0.03751621
116	0x3d1b3706	0.03789427
117	0xbc9a388a	-0.018825788
118	0xbd077ee8	-0.03308001
119	0xbd1ae76f	-0.03781837
120	0xbce496be	-0.02790391
121	0x3d371e51	0.044706646
122	0x3da347c3	0.07972672
123	0xbd74d5a6	-0.059774064
124	0xbcec47cc	-0.02884283
125	0x3c0fd46c	0.008778673
126	0xbd645c41	-0.055752043
127	0x3a7a5834	0.00095498865
128	0xbd5bf758	-0.053702682
129	0x3ca07f47	0.01959194
130	0x3d1d6b40	0.03843236
131	0xbd05a008	-0.03262332
132	0xbca6cd8c	-0.020361684
133	0xbd7120b3	-0.058869075
134	0x3bb90ac0	0.0056470335
135	0x3c148c4d	0.009066653
136	0xbcc100eb	-0.023560008
137	0x3cbe2a85	0.023213634
138	0xbc730c5a	-0.014834488
139	0xbd5368a5	-0.05161347
140	0x3e4679ec	0.19382447
141	0x3bcbdb4d	0.006221211
142	0xbd3368bb	-0.04380105
143	0x3dbf886d	0.09352193
144	0xbbb49eb2	-0.005512082
145	0x3bfba554	0.0076796208
146	0xbba6fca8	-0.005096037
147	0xbcc738d6	-0.024319094
148	0x3cd2a3da	0.025712896
149	0x3d2435df	0.040090438
150	0x3c77d1e9	0.01512573
151	0x3d27b24f	0.040941533
152	0x38828160	6.222981e-05
153	0xbc169e6a	-0.009193042
154	0x3bec3525	0.0072084838
155	0x3d4766d2	0.04868204
156	0xbcfe78bc	-0.03106343
157	0x3d710a32	0.058847614
158	0x3d5b264b	0.053503316
159	0xbd9a442b	-0.07532533
160	0x3c28c5af	0.010301038
161	0x3ca4f4b3	0.020136213
162	0x3d071a6f	0.032984193
163	0x3c1f2064	0.009712312
164	0x3d0661ec	0.03280823
165	0xba293d0a	-0.0006455934
166	0xbd1c664f	-0.038183507
167	0xbd049d36	-0.03237649
168	0xbb358a51	-0.0027700851
169	0xbcdc4558	-0.026888534
170	0xbc6c835c	-0.014435615
171	0xbd4d52de	-0.050127856
172	0xbd5da1ca	-0.054109372
173	0xbd35b497	-0.044361677
174	0x3db70778	0.089369714
175	0x3c68cda4	0.014209185
176	0xbcd04fa3	-0.025428599
177	0x3ccc0f93	0.02490977
178	0x3d0b78ba	0.03405068
179	0xbbb90554	-0.005646387
180	0xbd38c2c4	-0.045107618
181	0x3c6e87e6	0.014558768
182	0xbd476996	-0.04868468
183	0x37cb5006	2.423675e-05
184	0x3ccfe204	0.025376327
185	0x3d5aba68	0.053400427
186	0x3d489706	0.048972152
187	0xbc194c25	-0.009356533
188	0xbcf24f3e	-0.029578801
189	0xb6e105e0	-6.7062065e-06
190	0xbd2b4cc6	-0.041821264
191	0x3c9f0746	0.019412648
192	0xbd37a04a	-0.044830598
193	0x3d125599	0.035726164
194	0x3da117cf	0.07865869
195	0x3c245f80	0.010032535
196	0xbd8f28cf	-0.069902055
197	0xbd6f622a	-0.058443226
198	0xbc93043b	-0.017946353
199	0x3c526254	0.012840826
200	0xbd7d7142	-0.06187559
201	0xbb91b145	-0.004446181
202	0xbb19d482	-0.0023472612
203	0xb97b369b	-0.00023957567
204	0xbd8d4f8a	-0.068999365
205	0x3c71d4dc	0.014760222
206	0x3c333f4e	0.010940386
207	0x3d821ede	0.06353544
208	0x3d20337a	0.039111592
209	0x3d4c7caf	0.049923595
210	0xbc9589c0	-0.01825416
211	0xbbbc1f9e	-0.0057410737
212	0x3cfe4cf7	0.03104256
213	0xbb9d7642	-0.004805357
214	0x3c525b83	0.012839201
215	0x3d53a7dc	0.051673755
216	0x399de381	0.00030114877
217	0x3a0c5973	0.0005353905
218	0x3c9210d7	0.017830295
219	0x3bd1fd81	0.006408394
220	0x3c31da71	0.010855303
221	0xbd3a639b	-0.045505147
222	0xbcd004d2	-0.025392924
223	0xbcb8b0ec	-0.0225453
224	0xbd73e300	-0.059542656
225	0xbd75935c	-0.059954986
226	0x3d2a19b0	0.041528404
227	0xbcf351c0	-0.029702067
228	0x3c064040	0.008194029
229	0xbd563448	-0.052295953
230	0xbd7e2583	-0.062047493
231	0xbd3506b4	-0.044195846
232	0xbb3448e6	-0.0027509271
233	0xbc8f9bba	-0.01753031
234	0xbdc77d17	-0.09740656
235	0x3d2f492e	0.0427944
236	0x3c87916a	0.016548831
237	0x3c7a4e36	0.015277436
238	0xbca2aaea	-0.019856889
239	0xbc1d5e2b	-0.009604971
240	0xbd77814c	-0.06042604
241	0xbd836518	-0.064157665
242	0xbd8193bd	-0.06327007
243	0x39b53726	0.000345641
244	0xbd5926bf	-0.053015467
245	0x3d213ec4	0.0393665
246	0xbc9bd51b	-0.019022515
247	0x3d2aa72b	0.04166333
248	0xbc4535cd	-0.012036753
249	0x3d394a47	0.045236852
250	0x3b269dd9	0.0025423674
251	0xbd0c0e7d	-0.034193505
252	0xbd3bf0b1	-0.045883838
253	0x3bdad4d5	0.0066782036
254	0xbcd123b7	-0.025529725
255	0x3cdf0db9	0.027228223

lin3.weight f4 [128, 256]
0	0x3c2601eb	0.010132293
1	0xbd54c664	-0.051947013
2	0xbd0ba1f7	-0.03409001
3	0x3c991ae9	0.01868959
4	0xbd745ef4	-0.059660867
5	0xbd625f2e	-0.05526655
6	0x3ceedb52	0.029157314
7	0xbd01f7b7	-0.03173038
8	0xbcc38008	-0.023864761
9	0xbd01040e	-0.031498007
10	0x3cba499e	0.022740182
11	0xbd7aa100	-0.061188698
12	0x3d28a6ed	0.041174818
13	0xbce65ac8	-0.02811946
14	0x3d7b0ca8	0.061291367
15	0xbd6ead9f	-0.058271047
16	0xbd69cd2f	-0.057080444
17	0xbd4e102b	-0.050308388
18	0x3d2c8019	0.04211435
19	0xbd01b9d9	-0.03167138
20	0x3cf42be5	0.029806087
21	0x3d1cf1f8	0.038316697
22	0x3d548b4a	0.05189065
23	0x3d522c2e	0.051311664
24	0xbd539645	-0.05165698
25	0x3c1248fc	0.008928534
26	0xbd156e18	-0.036481947
27	0x3c768223	0.015045675
28	0x3d03850a	0.032109298
29	0x3d7d8bd7	0.06190094
30	0xbd621d31	-0.05520362
31	0x3d70ff84	0.05883743
32	0x3d631fdc	0.055450305
33	0x3c82e959	0.01598041
34	0xbbcec0c6	-0.0063096015
35	0xbcb1ad9a	-0.021689225
36	0x3c2bd13a	0.010486895
37	0x3cb34147	0.021881713
38	0x3d429638	0.04750654
39	0x3bd2cebd	0.0064333365
40	0x3d4e433f	0.0503571
41	0xbd47a5d2	-0.048742123
42	0x3cf80088	0.03027369
43	0x3c51cf4f	0.012805774
44	0xbc534593	-0.012895006
45	0x3d6481bf	0.055787798
46	0x3d86bf75	0.06579486
47	0xbd03b747	-0.03215721
48	0xbd0b4126	-0.033997677
49	0xbc41de5d	-0.011832801
50	0xbcb997dc	-0.02265542
51	0x3ce5a61e	0.028033312
52	0x3c93a3e1	0.01802248
53	0xbca9db85	-0.020734558
54	0xbd74ee06	-0.05979731
55	0xbd4ac18a	-0.04950098
56	0xbd67c48f	-0.056583937
57	0x3b681ce3	0.0035417608
58	0xbc233dc1	-0.009963454
59	0xbd24222a	-0.040071644
60	0xbd71a556	-0.058995567
61	0xbb03acd2	-0.0020092023
62	0xbd6eebc3	-0.05833031
63	0x3b7ff0a8	0.0039053354
64	0x3cdbc715	0.026828328
65	0x3d447786	0.04796555
66	0x3d64fe2d	0.055906463
67	0x3d43ac02	0.04777146
68	0xbcbce998	-0.023060605
69	0xbd04cd80	-0.032422543
70	0xbc847cb9	-0.016172754
71	0x3ccb3515	0.024805585
72	0x3c91f9e0	0.017819345
73	0x3ca1f97b	0.019772282
74	0x3d70fbb8	0.058833808
75	0xbd72d873	-0.059288453
76	0xbd6b6837	-0.057472434
77	0x3bed4f55	0.007242123
78	0x3c895c64	0.016767688
79	0xbcfb46a5	-0.030673334
80	0x3c21fb2d	0.009886545
81	0x3ca09dc9	0.019606488
82	0x3cfad0ef	0.030617205
83	0x3cb09408	0.021554962
84	0x3d3848bb	0.044991236
85	0x3d10aa19	0.035318468
86	0x3ca69491	0.020334514
87	0xba091194	-0.00052287546
88	0x3ca749bd	0.020420903
89	0xbc2dc14f	-0.01060517
90	0xbbf69f37	-0.007526304
91	0xbd432520	-0.047642827
92	0xbc9409ac	-0.018071018
93	0xbc6bc52a	-0.014390269
94	0xbd2dd014	-0.042434767
95	0xbd2d592e	-0.042321377
96	0xbd6c7db4	-0.057737067
97	0xbb1aa172	-0.0023594764
98	0xbcd3b76d	-0.0258443
99	0xbcda7d05	-0.026670942
100	0x3ce347d1	0.027744206
101	0x3d3e58a7	0.046471264
102	0x3cd01406	0.025400173
103	0x3c95367e	0.01821446
104	0xbd11d54b	-0.035603803
105	0x3cb54702	0.022128586
106	0xbd1c9ec8	-0.038237363
107	0x3c57bcb0	0.013167545
108	0x3d102969	0.03519574
109	0x3d1bb345	0.03801276
110	0xbd35433f	-0.044253584
111	0xbc39dec5	-0.011344616
112	0x3d301afa	0.042994477
113	0xbaa74782	-0.00127624
114	0x3d5d4bc8	0.05402735
115	0x3d2a56ba	0.041586615
116	0x3cab2238	0.02089034
117	0xbc58a446	-0.01322276
118	0x3d66506c	0.05622904
119	0x3be7d76a	0.00707524
120	0xbd671e60	-0.056425452
121	0x39d4361f	0.00040476114
122	0xbc6fc603	-0.014634612
123	0x3be26653	0.0069091707
124	0xbd07c750	-0.033149064
125	0x3d75a21a	0.059969045
126	0x3c102d3d	0.008799848
127	0xbc6047a9	-0.01368896
128	0xbd56658c	-0.052342936
129	0xbd6382dc	-0.05554472
130	0xba9ac155	-0.0011806885
131	0xbd41de08	-0.047330886
132	0x3d6455fc	0.055746064
133	0x3d53cbe4	0.051708117
134	0xbd411e30	-0.04714793
135	0x3c7b34c8	0.015332408
136	0x3cb20cb4	0.021734573
137	0xbb399abc	-0.0028320989
138	0x3d332287	0.0437341
139	0x3c9407b8	0.018070087
140	0x3d6906b4	0.05689116
141	0xbd446ddb	-0.04795633
142	0x3d7aca84	0.06122829
143	0x3b351a4e	0.0027634087
144	0x3c7ca730	0.01542072
145	0xbd4ec153	-0.050477337
146	0xbc5c2187	-0.013435728
147	0xbcfb7df4	-0.030699708
148	0xbd000530	-0.031254947
149	0x3d77e385	0.060519714
150	0xbd1f1402	-0.03883744
151	0xbbf802ee	-0.0075687086
152	0x3c638c53	0.013888436
153	0x3d43b954	0.047784165
154	0xbd4d7bed	-0.050167013
155	0xbbe7c3cf	-0.0070729028
156	0xbcdbf1f6	-0.026848774
157	0xbc8eba94	-0.017422952
158	0xbbc40a02	-0.0059826383
159	0x3d757c27	0.059932854
160	0x3bf3dd05	0.007442119
161	0x3d82a753	0.06379571
162	0xbc8f60ff	-0.017502306
163	0x3d08cd64	0.033399
164	0xbd284916	-0.041085325
165	0x3d75b56d	0.059987474
166	0xbd4fe167	-0.05075207
167	0x3d75b646	0.059988283
168	0x3d0f9631	0.035055343
169	0x3cbb3b15	0.022855321
170	0xbb4a8a00	-0.0030905008
171	0xbbcd520c	-0.0062658843
172	0xbd3e30c2	-0.046433218
173	0x3d186005	0.037200946
174	0x38f6ec67	0.000117742275
175	0xbca29a1d	-0.019848878
176	0x3cd034ff	0.025415896
177	0x3cf0cb32	0.029393766
178	0x3d394049	0.045227323
179	0x3d75b76a	0.05998937
180	0x3c1822d3	0.0092856465
181	0x3d5cd583	0.05391456
182	0xbd461b7b	-0.04836605
183	0x3d587dc2	0.052854307
184	0x3d7f6bb7	0.062358584
185	0x3d7054f9	0.058674786
186	0x3c7e7c86	0.015532618
187	0x3d103ac7	0.035212304
188	0x3d3224d5	0.043492157
189	0x3d31cd6d	0.0434088
190	0x3ceac1a6	0.028656792
191	0x3ca45475	0.020059804
192	0xbd6bf6ce	-0.05760842
193	0x3bffa4e3	0.0078016385
194	0xbd76d163	-0.06025828
195	0x3d27a170	0.040925443
196	0xbd4d1efe	-0.050078385
197	0xbd1bd2ee	-0.038042955
198	0x3d0ccfb9	0.034377787
199	0xbc0c5ea8	-0.00856749
200	0xbc29d0f9	-0.010364764
201	0x3cb78714	0.022403277
202	0xbb89e9dd	-0.004208787
203	0x3c35e27d	0.011101362
204	0xbbb6025f	-0.005554482
205	0xbc973b2c	-0.018460833
206	0xbd23bc53	-0.03997452
207	0x3d79306e	0.0608372
208	0xbc941df2	-0.018080685
209	0x3d7dc310	0.061953604
210	0x3c0919d9	0.008367979
211	0xbd2f8785	-0.04285385
212	0x3c924718	0.017856166
213	0x3d56e097	0.05246028
214	0x3d5d558e	0.05403667
215	0xbcf0a8d0	-0.029377371
216	0x3cfcc3d0	0.03085509
217	0xbd42d0cd	-0.04756241
218	0x3d42f703	0.04759885
219	0x3cf661a3	0.030075854
220	0x3bab4894	0.005227158
221	0x3d53552a	0.05159489
222	0xbc05dc90	-0.008170262
223	0x3bb79210	0.005602129
224	0x3cb99470	0.022653788
225	0x3bf6611d	0.007518901
226	0xbc9f3222	-0.019433085
227	0x3d2eb662	0.042654403
228	0xbd335c63	-0.04378928
229	0xbd88491f	-0.06654572
230	0x3d2fdf3c	0.042937502
231	0x3c044f3e	0.008075533
232	0xbc8d6026	-0.017257761
233	0xbd4ed283	-0.05049373
234	0xbc72e29a	-0.014824534
235	0x3cd619c6	0.026135337
236	0xbc5d95b3	-0.013524461
237	0xbd0fb4c2	-0.035084493
238	0xbc30efe1	-0.010799379
239	0x3ca4a6a9	0.020099001
240	0x3d0211c4	0.031755224
241	0xbc8142e0	-0.015778959
242	0x3cfd1802	0.030895237
243	0x3d42b4a5	0.047535557
244	0x3c50e4d2	0.0127498675
245	0x3d28d4a4	0.041218415
246	0xbc78b4f5	-0.015179862
247	0x3d49e505	0.049290676
248	0x3d0ddd71	0.03463501
249	0xbd585ede	-0.052824847
250	0x3d520fe7	0.051284697
251	0xbcbe0cbe	-0.023199435
252	0x3d8031e4	0.06259516
253	0xbd1ea889	-0.038734946
254	0xbd0eea4d	-0.034891415
255	0xbd500b4a	-0.050792016

lin3.bias f4 [128]
0	0xbcfede34	-0.031111814
1	0x3e213283	0.15741925
2	0xbd1da9d1	-0.038492028
3	0xbd82fac8	-0.06395489
4	0x3c821129	0.015877323
5	0xbc362710	-0.011117712
6	0xbb8cd520	-0.0042978674
7	0xbd5bdd13	-0.05367763
8	0x3e67675f	0.22598027
9	0x3d2c388c	0.042046115
10	0x3d002982	0.031289585
11	0x3e9031e4	0.28163064
12	0xbd35037c	-0.044192776
13	0xbd26dfd9	-0.04074082
14	0x3c22c573	0.009934771
15	0xbd096bf4	-0.033550218
16	0x3c230433	0.009949732
17	0xbd3bcf50	-0.045852005
18	0x3d13bc05	0.03606798
19	0xbd537b49	-0.051631246
20	0x3d3fcbeb	0.04682533
21	0x3cdeeb41	0.027211787
22	0xbc29d401	-0.010365487
23	0xbce7bdb0	-0.028288692
24	0x3b9bb45f	0.0047517265
25	0x3d09959d	0.033589948
26	0xbd81e559	-0.06342573
27	0xbcec60cf	-0.028854756
28	0x3b5fdebc	0.003415986
29	0xbdd253c8	-0.10269886
30	0xbcce955d	-0.025217706
31	0x3d2709e2	0.04078091
32	0xbb1d66c4	-0.0024017552
33	0x3d663272	0.056200452
34	0x3bcc43de	0.0062336763
35	0x3d92276f	0.071364276
36	0xbcb3a26a	-0.021928031
37	0xbc05758c	-0.008145701
38	0xbc8829c0	-0.01662147
39	0x3be92a35	0.007115627
40	0x3ac32897	0.0014889416
41	0x3db9e794	0.09077373
42	0x3cd77d36	0.026304822
43	0xbd1443fd	-0.03619765
44	0xbcbe23d5	-0.023210445
45	0xbd42ec24	-0.047588482
46	0xbcbdeff9	-0.023185717
47	0x3b82e630	0.0039947256
48	0xbd67f127	-0.056626465
49	0xbb1ab037	-0.0023603567
50	0x3c45e559	0.0120786065
51	0x3af0c959	0.0018370553
52	0xbd50d76c	-0.050986692
53	0xbc39cb47	-0.011339969
54	0xbd4fd8c6	-0.05074384
55	0xbd753c57	-0.059871998
56	0xbd646f5c	-0.055770263
57	0x3b5d209d	0.0033741363
58	0xba092b17	-0.0005232556
59	0x3c076ebe	0.008266149
60	0xbdca2069	-0.09869463
61	0x3b3bba2b	0.00286449
62	0x3d0d4563	0.03449
63	0xbce5e079	-0.028061138
64	0x3cf507d7	0.029910965
65	0x3cd13ea5	0.025542567
66	0x3c80328b	0.0156491
67	0xbc2a7162	-0.010403009
68	0xbc83a61c	-0.016070418
69	0xbccd0629	-0.025027351
70	0xbb9e2328	-0.0048259683
71	0xbd620629	-0.055181656
72	0x3ce947df	0.028476654
73	0xbd4a1869	-0.049339686
74	0xbd4bba96	-0.04973849
75	0xbd5bdc23	-0.053676736
76	0xbcc75ba0	-0.024335682
77	0xbd2d33ac	-0.042285606
78	0xbc65bd8f	-0.014022245
79	0xbca5a567	-0.020220472
80	0xbc4b7ecc	-0.012420367
81	0xbd80e1bb	-0.06293055
82	0xbd2fa4b2	-0.042881675
83	0xbd0502dc	-0.03247343
84	0xbd4b5124	-0.04963793
85	0xbca8bda4	-0.02059824
86	0x3cb37beb	0.021909675
87	0xbd070478	-0.032963246
88	0xbd71b934	-0.059014514
89	0xbd5a2a6d	-0.053263117
90	0x3d418dbc	0.04725431
91	0x3d2e8845	0.042610426
92	0xbd2ccbfb	-0.04218672
93	0xbc8b1723	-0.016978806
94	0x3da2a5dc	0.079417914
95	0x3d414f9d	0.047195066
96	0x3d21fa7d	0.039545525
97	0x3c8770ec	0.016533338
98	0x3c41b336	0.011822512
99	0xbd3c342a	-0.045948185
100	0xbceb6b68	-0.028737739
101	0x3d385c76	0.045010053
102	0xbd113712	-0.03545291
103	0xbd67df22	-0.05660928
104	0xbc59f599	-0.013303184
105	0x3d624854	0.05524476
106	0xbc5435d9	-0.012952291
107	0xbd3a3b2c	-0.045466587
108	0x3d63a97d	0.05558156
109	0x3d13d9bb	0.036096316
110	0xbcfd7dd3	-0.030943787
111	0xbd883dba	-0.066523984
112	0xbd84d1bf	-0.064853184
113	0xbdc539c7	-0.09630161
114	0x3cef0f87	0.029182209
115	0xbc850f39	-0.01624261
116	0x3d1000a0	0.035156846
117	0xbd4e4d02	-0.05036641
118	0xbb51cb2e	-0.0032011974
119	0x3c3a8cab	0.011386077
120	0x3d25187c	0.040306553
121	0xbc68bae7	-0.014204717
122	0xbd415c9d	-0.047207464
123	0x3c6ca7a0	0.014444262
124	0xbd85fd29	-0.06542427
125	0xbc5ed88c	-0.0136014335
126	0xbb0c5d38	-0.0021417867
127	0x3bf0bf73	0.0073470413

lin4.weight f4 [64, 128]
0	0xbb31c399	-0.0027124642
1	0xbc125683	-0.008931759
2	0x3d872806	0.06599431
3	0xbd26b726	-0.040702008
4	0x3cdfbe12	0.027312312
5	0x3d884931	0.06654585
6	0x3da36006	0.079772994
7	0x3c44a444	0.012002055
8	0xbde46092	-0.11151232
9	0xbc5966ea	-0.0132691655
10	0x3d5a31b3	0.053270053
11	0xbb7d82c2	-0.0038682674
12	0x3c88b45d	0.016687566
13	0x3d92f40b	0.07175454
14	0x3d86a990	0.0657531
15	0xbd2acdc4	-0.04170014
16	0x3cb69a88	0.022290483
17	0xbd23fe16	-0.040037237
18	0x3c39be76	0.011336913
19	0xbd24d6ab	-0.040243786
20	0x3bafcfdb	0.0053653545
21	0xbdaa4f49	-0.08315904
22	0x3d37cc1c	0.04487239
23	0x3c9c081e	0.01904684
24	0x3d0d7bf8	0.034542054
25	0x3c7bfb5f	0.015379756
26	0xbd4751e4	-0.04866208
27	0xbd86c3ce	-0.065803155
28	0xbd20d37e	-0.039264195
29	0x3d86da76	0.06584637
30	0xbaeab4f6	-0.0017906714
31	0x3cf295ec	0.029612504
32	0xbda6ca1e	-0.081440195
33	0xbc9d1349	-0.019174235
34	0x3d29a9c8	0.04142168
35	0x3d9d249f	0.076730005
36	0x399412ee	0.00028242863
37	0xbcd29d4a	-0.025709767
38	0x3c54e1d6	0.012993297
39	0xbdb040d4	-0.08606115
40	0x3d992edf	0.07479643
41	0xbd8acc1b	-0.06777211
42	0x3c81cd97	0.015845103
43	0x3aab917a	0.001308962
44	0xbd35193c	-0.04421352
45	0xbc9a41bf	-0.018830178
46	0xbd444f84	-0.047927395
47	0xbd8e8c13	-0.06960311
48	0x3d5f7fc8	0.05456522
49	0xbd751b61	-0.059840564
50	0x3d21ff31	0.03955001
51	0xbcb96ad0	-0.02263394
52	0xbd6ca244	-0.057771936
53	0x3cc74bad	0.024328077
54	0x3db12eba	0.086514905
55	0x3d9432b8	0.07236236
56	0x3da5f134	0.081026465
57	0x3cbc6b14	0.023000278
58	0xbd0d4bc7	-0.034496095
59	0xbc0c585d	-0.008565989
60	0xbb87024e	-0.004120148
61	0x3c28267c	0.010263082
62	0x3d743259	0.059618328
63	0xbd41d06e	-0.047317915
64	0x3d63a6d2	0.055579014
65	0xbc9b0d24	-0.018927164
66	0x3d901070	0.07034385
67	0x3cbc4fba	0.022987235
68	0x3d95a7fb	0.0730743
69	0x3d96e193	0.073672436
70	0x3cb367d0	0.021900088
71	0x3cc45b2f	0.023969261
72	0x3d12a3d7	0.03580078
73	0x3b94482b	0.0045252047
74	0x3d1d6341	0.038424734
75	0xbdc48dcc	-0.09597358
76	0x3d738341	0.059451345
77	0xbd851ed7	-0.06500023
78	0xbbb9c119	-0.005668771
79	0x3d870ea7	0.065945916
80	0x3c93a42a	0.018022615
81	0x3da51932	0.08061446
82	0xbd004e61	-0.031324748
83	0x3c3f016e	0.011658056
84	0x3b5ddbdd	0.0033852973
85	0x3d972a4a	0.07381113
86	0xbcba2a97	-0.022725387
87	0xbd2401d0	-0.04004079
88	0xbdb2718a	-0.08713062
89	0x3cf33cef	0.029692141
90	0x3d348f3b	0.044081908
91	0xbd47c745	-0.048774023
92	0x3db5a53b	0.08869406
93	0x3c242e8d	0.010020864
94	0x3b878b9e	0.0041365167
95	0xbc7ae413	-0.015313166
96	0x3b455840	0.0030112416
97	0x3d8483f7	0.06470483
98	0xbc9925a1	-0.0186947
99	0xbd7163b8	-0.05893299
100	0xbc811404	-0.015756615
101	0x3d8a00de	0.06738447
102	0xbd280aa9	-0.04102579
103	0xbb95890f	-0.004563458
104	0x3c54900a	0.012973795
105	0xbd0c82ac	-0.034304306
106	0x3d7747db	0.06037126
107	0xbd16061b	-0.036626916
108	0xbdb318b9	-0.0874495
109	0xbd9269ea	-0.07149108
110	0x3c139d62	0.009009691
111	0xbcc94742	-0.024570111
112	0xbd8b5467	-0.06803208
113	0xbcdf5f21	-0.02726704
114	0x3c334f0b	0.010944138
115	0xbc5d87f1	-0.0135211805
116	0x3d5b85c5	0.05359437
117	0xbc00c5e7	-0.007859684
118	0xbd953eed	-0.07287393
119	0x3c66398b	0.014051805
120	0x3d5f547a	0.054523923
121	0xbd473397	-0.048633184
122	0xbd957668	-0.07297975
123	0x3d8e20f3	0.06939878
124	0xbd720c18	-0.059093565
125	0xbd4a5f01	-0.04940701
126	0xbd53cf88	-0.05171159
127	0xbd9e0bdf	-0.07717108
128	0x3da57dfd	0.08080671
129	0xbd3d450d	-0.04620843
130	0xbd347bbf	-0.044063326
131	0x3d6010aa	0.054703392
132	0x3aba1e63	0.001419973
133	0x3be6f654	0.0070484076
134	0x3d10e11d	0.035370935
135	0x3c4ef920	0.012632638
136	0xbdc1741d	-0.09445975
137	0xbbdcad91	-0.006734558
138	0x3c28bcc8	0.010298915
139	0xbe0fd43d	-0.14045806
140	0xbc84720b	-0.016167661
141	0x3d07f819	0.03319559
142	0x3d6ce722	0.057837613
143	0x3bac1b6f	0.005252294
144	0x3daacd00	0.08339882
145	0x3d87531c	0.06607649
146	0xbd421d6c	-0.04739134
147	0xbcd69522	-0.026194159
148	0x3da0b2f3	0.07846632
149	0x3d8fe1a4	0.070254594
150	0x3cf63966	0.030056667
151	0xbd458b11	-0.048228327
152	0x3d039f94	0.032134607
153	0xbcfb2f1f	-0.030662118
154	0x3cda4f39	0.026649104
155	0x3db300d4	0.08740392
156	0x3dae5fb9	0.085143514
157	0x3d8a8458	0.06763524
158	0x3d4fca02	0.05072976
159	0xbd9366b2	-0.07197322
160	0xbc2afd12	-0.010436313
161	0xbd96ec92	-0.07369341
162	0xbd357838	-0.044304103
163	0x3d629f40	0.055327654
164	0x3d1cd938	0.038293093
165	0xbce4556d	-0.027872765
166	0x3cdd8838	0.027042493
167	0x3d934434	0.07190743
168	0xbda33855	-0.07969729
169	0x3bb1dd17	0.0054279673
170	0xbbb0b998	-0.0053932182
171	0xbd7dff55	-0.06201108
172	0x39b21c6c	0.00033971982
173	0x3b053cf4	0.002033052
174	0xbd151adf	-0.03640258
175	0x3bc93d84	0.0061413664
176	0xbd5c80fb	-0.053833943
177	0xbd89b9c8	-0.06724888
178	0x3c80cc02	0.015722279
179	0x3bb670f1	0.005567663
180	0xbdc01147	-0.093782954
181	0xbd9e36e1	-0.07725311
182	0x3d86195f	0.06547808
183	0xbd8c3a3a	-0.06847043
184	0xbd96c49c	-0.07361719
185	0x3d10017e	0.035157673
186	0x3d90e35e	0.07074617
187	0xbdb923ac	-0.09040007
188	0xbd877721	-0.06614519
189	0xbd050916	-0.03247937
190	0x3ccc74ca	0.024958033
191	0x3d9e404b	0.07727107
192	0xbd936ab9	-0.0719809
193	0x3cdd700b	0.027030965
194	0x3c85d19c	0.016335301
195	0xbda5ac5b	-0.08089515
196	0x3d4ea0ab	0.050446194
197	0xbd07a6eb	-0.03311817
198	0x3d1e5e5f	0.038664218
199	0xbd4518d0	-0.048119366
200	0x3d4dc1c2	0.05023361
201	0x3c25dd74	0.010123599
202	0xbd0b244b	-0.03397016
203	0xbdb1ff98	-0.08691329
204	0x3d06d26f	0.03291553
205	0x3d812cba	0.06307359
206	0xb829a0b6	-4.0442414e-05
207	0x3d8c4929	0.06849892
208	0xbd2fc741	-0.042914633
209	0xbc7a9dd3	-0.015296417
210	0xbd3cbd8f	-0.046079215
211	0xbcb531b6	-0.02211843
212	0xbd32c877	-0.04364821
213	0x3d3b39c6	0.045709394
214	0x3d908f9d	0.07058642
215	0x3c877b38	0.016538247
216	0xbc87e321	-0.016587796
217	0xbcbc3748	-0.022975579
218	0xbc9d8b56	-0.01923148
219	0xbdc92ed4	-0.09823385
220	0xbd84dad4	-0.06487051
221	0x3d90e292	0.07074465
222	0xbd6312ba	-0.05543778
223	0xbd40fbd9	-0.04711518
224	0x3d2d9110	0.04237467
225	0x3da51bf4	0.08061972
226	0xbd892207	-0.06695943
227	0xbdad03ed	-0.084480144
228	0xbd81390f	-0.06309711
229	0x3d1303c6	0.03589227
230	0x3d839dea	0.06426604
231	0x3d8db157	0.069185905
232	0xbd656efd	-0.05601405
233	0xbc6527b0	-0.013986513
234	0xbdc76ed0	-0.09737933
235	0xbb7c8e91	-0.0038537125
236	0xbdc0d311	-0.09415258
237	0x3d9e6ca7	0.077355675
238	0xbd11423c	-0.035463557
239	0xbdba9b67	-0.09111672
240	0x3da747bf	0.08167981
241	0x3d1264fe	0.035740845
242	0xbd1e4473	-0.038639497
243	0x3d368640	0.044561625
244	0xbd74b62d	-0.05974405
245	0xbb694af8	-0.0035597663
246	0xbdb2451a	-0.08704586
247	0x3cf27286	0.029595625
248	0x3d8e229a	0.069401935
249	0x3c9886b1	0.018618913
250	0xbd1b7ba5	-0.037959713
251	0x3d19f1c1	0.03758407
252	0xbcc9c884	-0.024631746
253	0x3d05d265	0.03267135
254	0xbbead714	-0.0071667526
255	0xba935842	-0.0011241513

lin4.bias f4 [64]
0	0x3bfed12f	0.0077764015
1	0xbd4ebcd8	-0.050473064
2	0xbc69f6a8	-0.014279999
3	0xbd375e4c	-0.044767663
4	0x3bc3addc	0.0059716534
5	0x3d58b8ae	0.0529105
6	0x3cabf1c0	0.020989299
7	0x3d99eae6	0.075155064
8	0x3d6bcce6	0.057568453
9	0x3cb4ad47	0.022055281
10	0x3d8ae578	0.06782049
11	0xbcef1b40	-0.029187799
12	0xbb7c3c52	-0.0038488102
13	0xbd016bb9	-0.031596873
14	0x3df258aa	0.118333176
15	0xbd1fd267	-0.039019015
16	0x3d88ee27	0.06686049
17	0x3d172b06	0.036906265
18	0x3d8b0483	0.0678797
19	0x3d745919	0.059655283
20	0xbd09b01e	-0.033615224
21	0x3d827192	0.06369318
22	0xbda0263d	-0.078197934
23	0x3cfdea88	0.030995622
24	0x3cecb1a0	0.028893292
25	0xbc2e2ac0	-0.01063031
26	0xbd392abf	-0.04520678
27	0xbd6f7851	-0.058464352
28	0x3bcb3372	0.006201201
29	0xbc8b9392	-0.01703814
30	0xbd4de405	-0.050266284
31	0x3cbc5919	0.022991704
32	0x3d991747	0.07475143
33	0xbc7be652	-0.015374737
34	0x3d31824e	0.04333716
35	0xbda3b2a0	-0.079930544
36	0x3cdf9c1f	0.027296124
37	0x3d25aaba	0.04044602
38	0x3d97ee35	0.07418481
39	0xbc945da5	-0.01811106
40	0xbd742ce5	-0.059613127
41	0x3d38c1b3	0.0451066
42	0x3d415842	0.04720331
43	0x3d388a4f	0.045053776
44	0xbd9ddbde	-0.07707952
45	0x3d5e0a60	0.054209113
46	0x3d3e758f	0.04649883
47	0xbdd1cc95	-0.10244099
48	0xbd520bdb	-0.051280838
49	0x3df70085	0.12060646
50	0x3d2f42b2	0.042788215
51	0xbd0047e6	-0.031318568
52	0x3caddd3d	0.021223659
53	0xbbf4b8ce	-0.0074683195
54	0x3d8bab38	0.06819767
55	0xbd938a95	-0.07204167
56	0x3c833b54	0.0160195
57	0x3d689b55	0.05678876
58	0xbd7c55c3	-0.061605226
59	0xbd6e3644	-0.05815722
60	0xbd87e8fb	-0.066362344
61	0xbcdd1727	-0.026988579
62	0xbccbfccb	-0.024900815
63	0x3d3d68b8	0.046242446
