src/virtuose_teleoperation/network_controller/trained_policy_MLP/Grasp_proper_dataset_AHFF_200_epoch_67.pth (torch, 457921 bytes, 12 tensors)

lin1.weight f4 [256, 20]
000000 58 f9 c9 be b2 2c 9f 3d 59 73 08 3e b4 f3 55 3f
       -0.39448047 0.07772197 0.13325252 0.83574986
000010 eb 93 66 be 1a 67 ff bd 98 5d 5b 3e f4 91 00 3e
       -0.22517364 -0.12470837 0.21422422 0.12555677
000020 2a 20 ed 3d 8c 30 95 3b 04 bd 9e 3d 20 63 23 3e
       0.115784004 0.0045529064 0.077508956 0.15955782
000030 ed c7 a4 3d 82 1e 44 bf 28 fe 30 be 9d 15 af bd
       0.08045945 -0.7660905 -0.17284453 -0.08549044
000040 ee 3c 35 3e cc d2 a6 be 84 83 b8 3b 42 74 93 be
       0.17699024 -0.325827 0.0056309123 -0.28799635
000050 fb b2 7b bd a6 c7 94 bd 06 75 49 3e 3c 0b 71 3e
       -0.061449986 -0.072646424 0.19673547 0.23539442
000060 5f 34 e9 bc 88 70 6a bd 0d a6 d1 3d 3f 92 5f 3e
       -0.028467355 -0.057236224 0.1023675 0.21833132
000070 49 c5 73 be 37 63 a1 3d 6b 16 51 be 7f ce bf bc
       -0.23805727 0.07880252 -0.20418708 -0.023413895
000080 b7 74 de 3c 59 83 a3 be ca d8 15 bf f7 82 91 be
       0.027155263 -0.31936148 -0.5853392 -0.2842023
000090 8f 8d 09 3e 73 28 4c be bf 0a 47 3d fe 1a e4 3d
       0.13432907 -0.19937305 0.048594233 0.11137961
0000a0 eb 4d d8 3e 16 d4 15 be 39 f2 42 be 65 9f 7b be
       0.42246947 -0.14631686 -0.19037713 -0.24572523
0000b0 0a c6 aa 3e d2 6e 68 3d 51 9a 2f 3e ae 81 fe bd
       0.33354217 0.05674631 0.17148711 -0.12427078
0000c0 1a 16 5e 3d 79 63 5a bd f5 59 79 bd 0e e9 a8 bd
       0.054220296 -0.05331752 -0.060876805 -0.08247577
0000d0 f1 09 e9 3d fd bf 9f 3f 04 bc 34 3f 97 37 c4 3e
       0.11378849 1.2480465 0.7059939 0.38323662
0000e0 f4 9a 08 3e cb 7d df 3c 34 c9 2e be 3f da 95 3d
       0.1334036 0.027281662 -0.1706894 0.07317018
0000f0 e1 81 4d 3d b4 f5 20 3e f7 15 33 3e 5b 34 29 3e
       0.05017269 0.15718728 0.17488848 0.16523878
000100 b9 ae ab 3e 2a 33 6b 3c 58 61 b9 3a f9 89 28 bc
       0.3353174 0.01435546 0.001414339 -0.0102868015
000110 73 b5 75 be e5 e0 36 3e 67 8a 80 be b5 fd 01 3e
       -0.23994999 0.17859228 -0.25105593 0.12694438
000120 76 19 34 be c6 de e6 3c 79 ab 0c be 0d d2 e2 bd
       -0.17587838 0.028182399 -0.13737287 -0.1107522
000130 93 de 19 3d 05 86 81 be 38 ca 89 3d 65 e7 8d bd
       0.03756578 -0.2529756 0.06728023 -0.06928901
000140 e9 e7 9a 3d a4 a3 cf bd cb 08 8a 3c 62 cd 17 bf
       0.075637646 -0.10138634 0.016849896 -0.59297764
000150 11 ce 45 bf 0a 26 98 bd d7 56 c1 bd 67 80 3b be
       -0.7726756 -0.074291304 -0.094403915 -0.183107
000160 cb bc 99 be c4 18 08 be 4b 6e 02 bd c4 67 12 3f
       -0.3002685 -0.13290697 -0.031843465 0.57189584
000170 8e 16 3f 3e 84 58 7b be 72 a4 a4 3e 55 e8 97 3e
       0.18660948 -0.24545485 0.32156712 0.29669443
000180 db ee 11 3e 88 35 9a 3e 6f 5e 02 be 7e c7 91 bd
       0.14251272 0.30118966 -0.12731336 -0.07118128
000190 c7 93 a1 3e 07 0b 95 3e ba d9 ad 3d 07 b1 af be
       0.31558058 0.29109976 0.08488794 -0.3431475
0001a0 e4 01 7a 3e 22 08 0a 3e 9a 42 23 be ff 10 62 3e
       0.24414784 0.13479665 -0.15943375 0.22076796
0001b0 7f a1 fb be 44 f2 37 be 46 e8 5a be c5 e7 e5 3e
       -0.4914665 -0.17963511 -0.21377668 0.4490339
0001c0 5d 2e ec 3d 47 0e 05 bf 5d 50 94 3a 90 66 5b 3d
       0.115322806 -0.5197491 0.0011315454 0.053564608
0001d0 38 c1 90 bd b1 e9 be be d2 35 49 3e b9 62 ff bd
       -0.070681036 -0.37287667 0.19649437 -0.12470002
0001e0 45 f9 f6 3e cd ee 2f 3e 07 a2 97 bd 47 62 52 be
       0.48237053 0.17180939 -0.07403951 -0.20545302
0001f0 f0 26 f1 3e a2 fa e8 3d bc 7f c4 bb f3 76 8f 3d
       0.4710002 0.113759294 -0.0059966724 0.0700511
000200 72 dc 34 be 27 56 69 be b0 aa d9 be eb c6 8e bd
       -0.17662218 -0.22786771 -0.42513037 -0.06971534
000210 2e c2 02 3e 4f 02 18 bf ed 3b 3c bf 0c f0 af be
       0.12769386 -0.5937852 -0.7352894 -0.3436283
000220 6c 14 1c be 1d ed 72 be 68 c3 8a 3d f0 f5 97 3a
       -0.15242165 -0.23723264 0.06775552 0.0011593681
000230 64 f4 c8 3e e5 82 0d be 97 3b b4 3e c0 c9 cf 3e
       0.39248955 -0.13819464 0.35201713 0.4058361
000240 3f 56 96 3f 9c 15 ea 3d 18 21 83 3e a6 c4 fb be
       1.174507 0.11429903 0.25611186 -0.49173468
000250 9c 52 08 3f 1f f1 33 be 2c c6 9a 3e cc 4a fd be
       0.5325105 -0.17572449 0.30229318 -0.49471128
000260 c0 23 90 3d c3 38 81 3f aa 7c a4 be 5f 67 cc bc
       0.07038069 1.0095447 -0.3212636 -0.024951635
000270 3e 5f d3 bd 63 4d 13 3e fe 46 c4 bd 44 fa 37 be
       -0.103209004 0.1438499 -0.09583853 -0.17966563
000280 10 21 2c 3f 1a 66 21 bd 66 6b 4f be d5 ce 19 bf
       0.6723795 -0.039404012 -0.20255813 -0.60081226
000290 bf be 28 3c b5 34 13 3e 61 7a 10 3e 76 d0 8c be
       0.010299384 0.14375575 0.14109184 -0.27502793
0002a0 8a d2 4c be 1a 09 6a 3e 32 0a 5d 3d 48 63 00 3d
       -0.2000219 0.22855034 0.0539648 0.031344682
0002b0 84 9e 5e 3e 27 e9 87 3f a5 58 7b 3f 2c 99 a7 3e
       0.21740156 1.0618027 0.98182136 0.32734048
0002c0 3d 9c b1 3c 55 ff 10 be ad 97 fb bd 0d 5d 43 3d
       0.021680946 -0.14159901 -0.12284789 0.047696162
0002d0 ee c0 9d be 4f 41 27 bd da da 2c bd e8 3a 06 be
       -0.30811256 -0.040833768 -0.0422009 -0.13108408
0002e0 75 0b 08 3e 1d bd 0e 3e 65 0f 35 bd 74 11 b2 be
       0.1328562 0.13939328 -0.044204134 -0.3477894
0002f0 f0 0f a2 bd 68 25 0a be 0a fe 35 be 83 c9 9a bd
       -0.07913196 -0.13490832 -0.1777269 -0.075579666
000300 79 79 b2 3d f5 94 94 bd 8b 64 bc 3e 1b 88 c7 3d
       0.08714575 -0.07254974 0.36795458 0.09742757
000310 08 e5 98 bc f5 27 de 3d e4 24 73 bd b7 b9 38 be
       -0.018663898 0.10847465 -0.059361354 -0.18039595
000320 4c ca 31 3e 74 80 13 3e 71 d8 7a 3e bf 1f 57 bd
       0.17362326 0.1440447 0.24496628 -0.05252051
000330 03 24 c9 3e a0 01 02 3e b0 c0 6c 3e 84 af 9d be
       0.39285287 0.12695932 0.2312038 -0.3079797
000340 ce 27 bc 3d fa 42 1a 3e 58 7e 7d 3e 45 00 4d bf
       0.0918728 0.15064612 0.24755228 -0.80078536
000350 a9 52 94 be 30 eb 8a 3f 72 21 29 3e 6c 15 5f 3e
       -0.28969315 1.0853024 0.16516665 0.21785516
000360 d7 15 17 be 35 63 95 bc 61 d6 9e bd 2b d9 5b be
       -0.14754425 -0.018235782 -0.07755733 -0.21469562
000370 9d 83 d8 be 94 1f de bd 11 41 09 3e 0b 26 f9 bc
       -0.42287913 -0.10845867 0.13403727 -0.030413648
000380 e1 3e e6 bd fc 7b d2 bd 3b 9c 85 be 80 35 8c 3e
       -0.11242462 -0.102775544 -0.26095757 0.27384567
000390 5a fe 16 3e 9f 0f 95 3d a3 14 19 bd 48 51 89 be
       0.14745465 0.0727837 -0.037373196 -0.26819825
0003a0 c9 5a 4e 3c fa 78 fc 3e 84 b3 cd bc 81 47 15 be
       0.012594887 0.49311048 -0.025110014 -0.14578058
0003b0 cd 52 ed 3d 85 60 1f be d7 6f 80 3d 02 30 ac bd
       0.115880586 -0.15564163 0.06271332 -0.08407594
0003c0 1c 9e d4 bf 59 38 05 bf 8f 77 c0 be 5a 4c ad 3f
       -1.6610751 -0.52039105 -0.37591216 1.3538926
0003d0 32 1f 1f c0 c1 d3 e1 be a9 d2 16 bf 51 f5 24 40
       -2.486279 -0.44106868 -0.5891519 2.577473
0003e0 ec 75 19 be 40 29 ad be 10 28 53 3d 3e 29 eb 3e
       -0.1498639 -0.33820534 0.05155188 0.45929903
0003f0 2c 67 c0 bd 11 6e 76 3e 45 97 ff 3e 1e 4a 30 3f
       -0.093946785 0.24065425 0.49920097 0.68863094

lin1.bias f4 [256]
000000 6a c3 04 be 66 2a eb 3d b1 fa 38 be 64 29 d4 3d
       -0.1296517 0.11482696 -0.18064381 0.10359457
000010 b6 84 3d 3e 66 4a a0 bd 37 ab 25 3e 29 d0 86 be
       0.18507656 -0.078266904 0.16178595 -0.2633069
000020 c4 98 18 3e 69 46 db bd 2e 98 2a bd c9 c7 91 bd
       0.14902025 -0.10706789 -0.041649036 -0.07118184
000030 0c 36 75 be 86 63 89 bf a0 c8 a6 3d 51 1c 32 3e
       -0.23946398 -1.0733497 0.08143735 0.17393614
000040 31 c8 c2 3d 33 27 04 bb c9 fe 31 bc d3 5e cf be
       0.0951084 -0.0020164966 -0.010863968 -0.40502033
000050 31 c1 f6 3d f7 4a ed bd 1e 31 2c bf 16 0e f3 bd
       0.12048567 -0.11586564 -0.67262447 -0.11867921
000060 37 8a d5 bc 25 a0 c4 3d c5 8b 09 3e 64 55 86 3e
       -0.026066883 0.09600858 0.13432224 0.26237023
000070 3c 96 f6 3d 97 fb f0 bd df cc 95 be d3 61 3f be
       0.12040374 -0.11766737 -0.29257867 -0.1868966
000080 8f 0c 4f be df d4 2a 3e ff 9c 41 bd 0c d1 a8 be
       -0.20219634 0.16682766 -0.047268864 -0.3297199
000090 c8 05 d8 3d 78 32 0d 3e 54 99 9e be 18 13 fb bd
       0.10547978 0.13788784 -0.30976355 -0.12259501
0000a0 5f 5c c3 be 8e a9 40 3e fb 4d 43 be 89 71 3d be
       -0.3815641 0.1881468 -0.19072716 -0.18500341
0000b0 48 3f 6f 3b 1e da 02 3e 0a a7 2d be e4 d2 c7 bf
       0.0036506224 0.12778518 -0.16958252 -1.5611234
0000c0 5f f4 9d be d3 c4 2f be fa 77 0f bd 51 15 79 bd
       -0.30850503 -0.17164926 -0.035026528 -0.060811345
0000d0 9e b5 90 3d 1f f3 1d be 68 54 cd be 7b f4 ce 3a
       0.07065891 -0.15424775 -0.4010346 0.0015789414
0000e0 39 16 85 bd 2f 75 08 bf 96 5d de 3d 55 7e f2 be
       -0.06498379 -0.5330381 0.10857694 -0.4736201
0000f0 5b 4e 4b 3e f2 a0 11 3e 1f d3 73 3d 46 a3 b7 3d
       0.19854109 0.14221552 0.059527513 0.08966689
000100 04 55 59 be 11 70 8b be da e3 95 be 5e 10 7e bd
       -0.21223837 -0.27233937 -0.292754 -0.062027328
000110 93 cc 9b be ab 1d d5 bd 9e f6 c7 3d b4 0a 09 be
       -0.30429515 -0.10406049 0.09763835 -0.13382989
000120 7b cc 0c bf fe ff b7 3d 0b 0b b6 bc 9c cc e4 3d
       -0.5499951 0.089843735 -0.022222063 0.11171839
000130 63 76 2e be 73 5d 33 be 44 19 0d be 04 6a 1f bd
       -0.17037348 -0.17516117 -0.1377917 -0.038919464
000140 07 6a 15 be 11 fc 81 3e 89 eb 20 be 5b b7 ac bd
       -0.14591227 0.25387624 -0.1571485 -0.0843341
000150 40 8a 1e 3d 06 a6 f0 3b 1b 8e 80 3e fc dd 18 3e
       0.038706064 0.0073440103 0.25108418 0.1492843
000160 38 ff a4 bc 0c 3f 1c be 75 da 50 be 1c 3b 0b 3e
       -0.020141229 -0.15258425 -0.20395835 0.13596767
000170 39 27 bd bd 17 9a e4 bd 8d 63 84 be 84 e4 27 be
       -0.09235997 -0.11162203 -0.258572 -0.16395766
000180 55 70 54 be 11 92 f7 be 3b 99 21 3e 6c 42 98 bd
       -0.20745976 -0.48353627 0.15781109 -0.07434544
000190 da 1f 16 be 66 33 ee 3d 9a ad 20 3e f9 bd c8 bd
       -0.14660588 0.11630897 0.15691224 -0.098018594
0001a0 f3 31 b0 bd 14 d7 eb 3d ac a5 d2 3d 12 67 06 bd
       -0.08603277 0.11515632 0.10285506 -0.03281314
0001b0 62 73 38 be 16 3a f3 bd ea 99 5a 3e 93 48 5e bd
       -0.18012765 -0.118763134 0.21347776 -0.05426843
0001c0 87 2a ca bd 3d 4b 48 be b3 b6 c3 be 97 2e 78 be
       -0.09871393 -0.19559951 -0.38225326 -0.24236523
0001d0 18 d6 bf be 1e 7c b7 be 4b 65 d7 3d 52 54 88 bf
       -0.37468028 -0.3583688 0.10517367 -1.0650733
0001e0 97 8d 2e 3e 8b 91 63 bf b3 dd 12 bf db 0c ca bc
       0.170462 -0.88893956 -0.57369536 -0.024664333
0001f0 9e 01 52 ba 65 04 f7 3d 8f 0e 3b 3e d5 2c 31 3e
       -0.0008011105 0.12061385 0.18267272 0.17302258
000200 22 70 86 3c 6a 35 fe bc 66 7b f7 be 27 ed b7 be
       0.016410891 -0.03103133 -0.48336333 -0.3592312
000210 c1 ce 1d 3e 5c fa 93 3d 44 c5 db 3d db 5a 3a be
       0.15410902 0.07225487 0.10730985 -0.18198721
000220 fb 6b ff be be dd 32 bf 30 3d 3a be c0 c0 bb 3c
       -0.4988707 -0.698696 -0.18187404 0.022919059
000230 39 83 82 be fd e1 c8 bd a0 d4 ab bd 7a 90 90 be
       -0.2549074 -0.09808729 -0.083901644 -0.28235227
000240 2a 44 9a bf 1f eb a0 bd 36 65 df bd 8b 2f 3b 3e
       -1.2052052 -0.07857346 -0.10907976 0.18279855
000250 8a 1a f5 3c 90 c0 ae 3d 63 14 13 3e 38 10 44 3d
       0.029919881 0.08532822 0.14363246 0.04786703
000260 c8 fb 12 3e f0 57 02 3e c5 f1 22 3c de e9 10 3e
       0.1435386 0.12728858 0.009945338 0.14151713
000270 91 8e 58 3e 28 33 eb be 63 43 38 bc 42 0d c5 3d
       0.21148135 -0.45937467 -0.011246535 0.09621669
000280 e9 c2 76 be 82 97 35 3e 2b 13 eb 3d 0d d8 42 3e
       -0.2409779 0.17733577 0.114782654 0.1902773
000290 c8 6d 29 3e 2c a3 1e be 7d 9a 8c bd 3b 9c 1f be
       0.16545784 -0.15491933 -0.06865404 -0.15586941
0002a0 ff bd 52 3d e4 14 ae 3c c0 58 ac bd e7 2e e1 be
       0.051450726 0.021250196 -0.08415365 -0.43981096
0002b0 1d 5f c1 bc 45 e8 f4 bd 92 39 91 bd 8c ea 98 be
       -0.023604924 -0.119583644 -0.07091059 -0.29866445
0002c0 9a a3 2c be 81 d1 29 bd c2 6f 67 3c 6d 25 d3 3d
       -0.16859284 -0.041459564 0.014125766 0.10309873
0002d0 cd dc f7 3c 5c dc a9 be 2d 6e fa 3b 55 74 97 be
       0.030256653 -0.33175933 0.0076425285 -0.29580942
0002e0 a9 cc ce bd 85 5f 54 3e 0b 1e 2f be 76 03 c7 be
       -0.100976296 0.20739563 -0.17101304 -0.38869828
0002f0 4d de a9 3d 38 a0 9d be 99 0b 6b be d5 d3 94 bc
       0.08294354 -0.307863 -0.22953643 -0.018167416
000300 34 df 32 be 3c 7e c0 3d b5 9b d8 bc 51 70 aa 3d
       -0.17467958 0.09399077 -0.026441434 0.08322204
000310 f3 b4 15 bd 66 78 89 be d9 55 d4 3d 94 67 11 bf
       -0.03654952 -0.2684967 0.10367937 -0.5679867
000320 09 40 96 3d 09 0d 46 3c 57 d9 c4 3d 70 12 2c bf
       0.073364325 0.012088069 0.09611767 -0.67215633
000330 66 3a d3 3d 9c 36 47 bf cd e2 0d 3e 7a 3c 16 3e
       0.10313873 -0.778177 0.13856049 0.14671507
000340 09 ce 20 be 82 5a 19 3e 74 9e 9d 3d 4d c1 00 3c
       -0.15703596 0.14975932 0.07696238 0.0078585865
000350 3b d1 ca 3d 94 f8 cd 3d 0d 3a 9f 3d d5 5b 6f 3d
       0.09903189 0.10057178 0.07774744 0.058437187
000360 a1 80 af bd b6 21 ba 3d 22 1f f7 3d 92 69 08 3e
       -0.08569456 0.09088461 0.12066485 0.13321522
000370 9a 14 03 be 87 5b 0b 3e 88 cd 1b bd 0b 1a 5d 3d
       -0.12800828 0.13609134 -0.038037807 0.053979915
000380 5a d2 cf 3d 05 d6 3e 3b 21 8b 0b be bc e0 f6 bd
       0.10147543 0.0029119265 -0.13627292 -0.120545834
000390 31 82 26 bf f8 14 29 bd bb 61 14 be 04 a9 41 3c
       -0.65042406 -0.041279763 -0.14490406 0.011820082
0003a0 c3 cb 21 bf b0 d6 3b be f1 cb cc bc a4 d1 9a be
       -0.6320154 -0.18343616 -0.02499959 -0.30238068
0003b0 13 dd 2b be 73 e6 94 3e 51 bf 04 be 04 49 0b 3e
       -0.16783552 0.2908207 -0.12963606 0.13602072
0003c0 30 77 1e bd 37 1d 66 be 9b c3 fd bd a1 b8 1e be
       -0.038687885 -0.22472082 -0.123908244 -0.15500118
0003d0 1d 5b 95 bd 28 e0 5d 3e e0 37 0b 3d 16 44 78 be
       -0.07292769 0.2166754 0.033988833 -0.24244723
0003e0 43 d4 49 bd 74 3e 3a be 31 b2 8e bd ba d2 fd 3d
       -0.049274694 -0.18187886 -0.06967581 0.123937085
0003f0 d0 84 13 be 01 40 3f 3e f0 f2 2d 3e fe bc 30 3e
       -0.14406133 0.1867676 0.16987205 0.17259595

lin2.weight f4 [256, 256]
000000 95 80 63 bb 87 71 80 bd cf 80 64 3d f7 f4 24 3d
       -0.0034714092 -0.062716536 0.055786904 0.04027268
000010 b3 b5 31 3d 99 bd 41 bd 19 19 66 bd 0d d6 8d bd
       0.043386173 -0.047299955 -0.05617628 -0.069255926
000020 29 38 6e bc bc 02 83 bd 2b 37 e6 3c ba 3b 04 bd
       -0.014539757 -0.06397006 0.028102478 -0.032283522
000030 e4 f9 01 3d 7d 2e da ba 53 95 f3 bc 4e 8c a2 bb
       0.031732455 -0.0016645935 -0.02973429 -0.0049605733
000040 ec ee 10 3d 7e be 35 bd 24 15 ef 3c 25 db 02 3d
       0.035384104 -0.04437112 0.029184885 0.031947274
000050 a1 0f ad bc d8 3f ce 3c 47 bd 4e 3c 25 24 24 3d
       -0.021125617 0.025176927 0.012618369 0.040073533
000060 90 54 11 3d f9 63 e0 bc be 6d cc 3c 50 08 dd 3c
       0.035481036 -0.02739142 0.024954673 0.026981503
000070 ee f9 a0 bc 5e 5f 87 3c a4 f3 ed bc 81 24 55 bd
       -0.019650426 0.016524967 -0.029046841 -0.052036766
000080 ae 58 1e bc 48 e4 d7 3b dd 2b 62 bc fa 69 1b 3c
       -0.009664698 0.0065884925 -0.013804403 0.009485716
000090 aa 71 e7 bc 47 b8 b0 bc cd 71 c1 bb 04 2a 8d 3b
       -0.028252441 -0.021572245 -0.0059034587 0.004307987
0000a0 ff 00 5b bc c3 ce 72 bd 34 83 75 bd ed 24 53 3a
       -0.013366937 -0.059279215 -0.05993958 0.00080545136
0000b0 e1 d6 ee bc 0c a7 25 3d d0 4e 11 3d 22 2f 0e 3c
       -0.029155197 0.04044251 0.035475552 0.0086782295
0000c0 32 95 18 bb 21 60 34 3d c8 6e 8a bc e1 1f 82 bd
       -0.0023282287 0.04403699 -0.016898528 -0.06353737
0000d0 df 3b 85 bc 80 ff 22 3d 6b 07 27 3d 28 65 19 3c
       -0.0162639 0.039794445 0.04077856 0.009362496
0000e0 b7 48 06 bd 40 9f 59 3d 7c 58 95 bc 69 54 b5 3c
       -0.03278419 0.05313039 -0.01823067 0.022134976
0000f0 d0 d8 eb 3b d7 36 54 3d 75 68 e5 bc 28 5c 5a bd
       0.007197477 0.05181011 -0.02800391 -0.053310543
000100 0b 71 28 3d e4 17 93 bd 03 c3 3c 3a 3f 5c 86 3c
       0.04112343 -0.07182291 0.000720069 0.016401408
000110 35 23 57 3d 8c aa 7d bd 60 eb db 3c 04 2f d9 bc
       0.05252381 -0.061930224 0.026845634 -0.026511677
000120 82 64 d8 3c 34 2d c5 bc 02 43 81 bd f1 2b e7 3c
       0.026415113 -0.024069406 -0.06311609 0.028219195
000130 ef 6c 1c 3d 07 e9 04 bd d3 4a 0b 3d 60 c8 2c bd
       0.038189825 -0.032448795 0.034006905 -0.04218328
000140 bf ba 4b bd 80 36 df 3b 36 af 73 bb 0d a0 77 bb
       -0.04973864 0.006811917 -0.0037183291 -0.0037784607
000150 c8 f2 2b 3d ad 13 6b bd cc 20 c2 bc 59 f2 94 bc
       0.04197958 -0.05739181 -0.02369728 -0.018181967
000160 02 c0 c7 3c 71 ae 1b 3d 85 58 5b 3d 70 b9 3d 3d
       0.024383549 0.038008157 0.053551216 0.046319425
000170 61 08 7b bd b4 74 4c ba ef 36 10 3d 6e b7 5f 3c
       -0.061287288 -0.00077993725 0.03520864 0.013654573
000180 ef 08 1b 3d 59 e9 79 bd ee bd 7f 3c d7 13 3a 3c
       0.037850317 -0.061013553 0.015609248 0.011357269
000190 42 0a 86 bd 61 98 14 3d 0a dd 17 bd 75 8a 1e 3d
       -0.06544925 0.036278132 -0.037076034 0.03870626
0001a0 2e fd 71 bd 19 6c 43 bd 4e 74 49 bd ba e0 5b 3d
       -0.05907934 -0.04771051 -0.049183182 0.053681113
0001b0 0a 16 95 bc a0 5a 6a bd a8 ed 4e 3d d2 bf 89 3c
       -0.018198986 -0.057215333 0.050519615 0.0168151
0001c0 bb 8f db bc dc 3b 33 3d 3a 87 5f 3d eb 8d bd 3c
       -0.026801934 0.04375826 0.05457232 0.02313896
0001d0 03 49 5d 3d eb d9 9c bc 45 76 83 bd ba 88 2b 3d
       0.054024708 -0.01914688 -0.064190425 0.04187844
0001e0 13 3d 2e bd d6 f6 36 3d 8e a7 72 3c 98 f3 18 bd
       -0.042538714 0.044668995 0.014810456 -0.037341684
0001f0 5b 66 dc 3c b7 ae 19 bd 50 10 b3 bb a4 96 3c 3d
       0.026904276 -0.037520137 -0.005464591 0.0460421
000200 ab 72 01 bd 0c 57 6d bb f3 4a 53 3d 65 e4 0e 3d
       -0.031603497 -0.0036215214 0.05158515 0.034885783
000210 ba 9c 44 3d 0f b1 0c 3d 99 e2 22 bd 57 88 27 bd
       0.04800103 0.034348544 -0.03976688 -0.04090151
000220 99 2c 2d 3d 41 5f 50 bc 7d cf 38 3d 44 51 c0 3c
       0.04227886 -0.012718023 0.04511975 0.02347625
000230 18 c8 3c 3d 8d a6 a4 ba c7 b4 c4 bc 92 3e 47 bd
       0.04608926 -0.0012561843 -0.024011983 -0.048643656
000240 ab 1a 1e 3d a7 a9 86 3c 76 7f 23 bd b6 de ef bb
       0.03859965 0.016438318 -0.039916478 -0.0073202504
000250 4f 44 31 bd 10 6c 19 3d bf cc 95 bb 7d ff 96 bc
       -0.043278035 0.037456572 -0.004571527 -0.018432373
000260 c6 a6 67 bd ac 32 08 3c a9 84 21 39 97 87 00 3c
       -0.056555532 0.008312862 0.00015403576 0.007844827
000270 aa 8c 06 3c 16 2d 84 3b 0e 3c 4f 3d a8 f2 22 bc
       0.008212248 0.004033695 0.050594382 -0.009945549
000280 75 88 2f bb 46 8d 8a bc 2d 82 17 bd da 29 2e 3c
       -0.0026784216 -0.016913068 -0.03698938 0.010630095
000290 ed ad 6a bc db 13 17 3d 71 ae 32 bc 8a 65 94 bc
       -0.014323694 0.03688417 -0.010905848 -0.018114824
0002a0 f2 db 4e 3d 51 f9 78 3c be 7d 71 bd 40 0d 98 bc
       0.050502725 0.01519616 -0.058957808 -0.018561006
0002b0 28 c0 26 3d db ae 03 3d 84 1a df bc 2d 05 0f 3d
       0.0407106 0.032149177 -0.027234323 0.034917045
0002c0 e9 13 76 3b 6e 97 4a 3d 60 89 37 3d 4a 3e 58 3d
       0.0037548488 0.04946082 0.044808745 0.05279378
0002d0 9f e4 15 bc 02 27 03 bd 13 68 ed 3b 97 10 0c bc
       -0.009148746 -0.032019623 0.0072450726 -0.008548877
0002e0 d8 10 51 bd 3c 7e 9c 3c aa 64 62 bb c9 a7 10 3d
       -0.051041454 0.019103162 -0.0034544864 0.035316262
0002f0 a3 dc 42 bd 3f 77 55 bc 99 5b 83 3b 06 c6 ef 3c
       -0.047573697 -0.013028919 0.004008722 0.02926923
000300 48 26 1f 3d 27 d5 b5 b8 e0 13 76 3c e1 03 3b bd
       0.038854867 -8.670455e-05 0.015019387 -0.045657996
000310 08 83 65 bc 12 91 a8 bb f6 b1 50 3d 3c 34 56 3d
       -0.014008291 -0.005144247 0.050950967 0.05229591
000320 0f 2a 3e bd 9e 97 2a 3d 6e 5b d0 bc 4c e9 89 3a
       -0.04642683 0.0416485 -0.025434222 0.0010521798
000330 00 14 84 bb 4f fc a7 3c df 05 8b 3c d4 51 32 bd
       -0.0040307045 0.020506052 0.016970573 -0.04353507
000340 ec bd 0d bd d4 44 b9 bc 33 a2 3a 3d 3e 45 25 bd
       -0.03460495 -0.022615828 0.04556484 -0.040349238
000350 8c 72 79 bd 00 c6 67 3d e3 4e b6 3c 63 2f 88 bd
       -0.060900256 0.056585312 0.022254413 -0.06649663
000360 1c 76 63 bd c6 0a 05 3c c2 d5 bd 3c 64 3a 6b 3d
       -0.05553256 0.008120244 0.023173217 0.057428733
000370 23 9c 5a bd 24 86 fa ba ad d4 0c 37 af 3f f3 3c
       -0.05337156 -0.0019113463 8.394168e-06 0.029693453
000380 0e be 41 bd f7 89 1e 3d 01 20 28 3d cf e1 cc 3c
       -0.04730039 0.038705792 0.041046146 0.025010018
000390 97 7e 60 bd 1b e7 66 3d a4 17 1c 3d 68 d9 b1 bc
       -0.054808225 0.056372743 0.038108483 -0.021710113
0003a0 10 72 19 3d 75 4a 46 bd b5 9d 4f 3d 89 d6 3f bd
       0.037462294 -0.04841085 0.05068751 -0.046835456
0003b0 18 c0 2e bd e9 e5 1e bc 54 90 e2 bc d0 48 76 bd
       -0.042663664 -0.00969837 -0.027656712 -0.060128033
0003c0 d7 04 09 3d d2 98 12 bd 65 c3 3e bd 94 84 8a bc
       0.03345188 -0.035790272 -0.04657306 -0.016908921
0003d0 1f ab c9 bb 4a 09 a6 bc aa f0 1a 3d af 2f 10 bd
       -0.0061544324 -0.020268101 0.03782717 -0.035201725
0003e0 10 4e 74 bd 7f 6e 1c 3d f2 fe 03 3d b3 9d b2 3c
       -0.05964476 0.038191315 0.032225557 0.021803712
0003f0 cf 31 1b bc 0c 23 c4 3c 94 f1 7d bd 78 fb 1e 3c
       -0.0094723245 0.023942493 -0.061997965 0.0097035095

lin2.bias f4 [256]
000000 d3 96 fb bc c8 6e 15 bd af 6c 2a bd 26 5f 33 bd
       -0.030711567 -0.036482602 -0.041607555 -0.043791912
000010 01 9d 82 3d 7c b2 89 3c 8b 86 54 bd 7d f3 84 be
       0.06377602 0.01680874 -0.051886123 -0.25967017
000020 cb 18 b2 3d 7e 13 83 bc 8e c3 89 3d 77 83 2b bd
       0.08696135 -0.016000506 0.06726752 -0.04187342
000030 42 e4 99 3d b2 67 ec 3a f8 e8 36 bd d2 b5 80 3c
       0.0751424 0.0018036275 -0.04465577 0.015711699
000040 39 2e e5 3b d0 28 d0 3c 42 9c 4a bd ce f0 9c 3b
       0.0069940356 0.025410086 -0.049465425 0.0047894483
000050 f4 66 8d bd 9c f8 e3 be f4 73 60 3d 33 30 3e bd
       -0.069044024 -0.4452561 0.05479808 -0.046432685
000060 30 31 d5 be 67 f2 3f bd 65 3c 07 be 67 f4 09 3d
       -0.4163909 -0.046862032 -0.13206632 0.033680346
000070 00 28 ca 3d 90 c2 59 bd 3f 25 e4 bc 55 ed 3f 3d
       0.09870911 -0.053164065 -0.027849792 0.046857197
000080 e6 09 a8 ba 05 1b 38 3d 37 f9 f8 bc de ba 9c bd
       -0.0012820333 0.044947643 -0.030392272 -0.076528296
000090 27 c1 60 3c 67 c6 bf 3c 50 04 83 3c 53 d4 ed bd
       0.013717926 0.023410035 0.015993267 -0.11612763
0000a0 27 9b ed 3c 10 87 0b 3d c3 f8 78 bd 19 60 1f 3d
       0.029004646 0.034064353 -0.060784113 0.038910005
0000b0 5b 1b 0e bc be d5 81 3d 39 9a 5e bd ed a0 df bd
       -0.008673514 0.06339596 -0.054346297 -0.10919366
0000c0 07 d2 ef 3c c2 bd aa be 01 9d d9 bc 01 60 a4 bd
       0.029274954 -0.333479 -0.026564123 -0.08026124
0000d0 18 65 74 bd 8a 82 2c bd 6b ba 1b bd ac 6c 6c bd
       -0.059666723 -0.04211668 -0.03801958 -0.057720825
0000e0 2e d8 69 3c db 8b 26 bd 24 4a e0 bd c1 69 01 3d
       0.014272733 -0.04066072 -0.10951641 0.031594995
0000f0 9c 81 15 3c f1 5a aa 3d 28 c0 87 3c f4 d6 fc bd
       0.00912514 0.08318127 0.01657112 -0.123456866
000100 af 9e c4 3c b0 cf 9c be a3 41 71 3a b4 0e c8 3d
       0.024001447 -0.30627203 0.0009203201 0.097684294
000110 70 cf 58 3d cb 44 61 3b 37 d4 54 bc 0a ae 05 bd
       0.052932203 0.003437328 -0.012990049 -0.03263668
000120 74 2d 29 bc 7d 38 d0 bc c4 8c b6 3e 1c 57 36 bb
       -0.010325778 -0.02541756 0.3565427 -0.0027822917
000130 01 aa 42 bd b2 cf 2a 3d ee 75 0f bc e6 c9 82 bc
       -0.04752541 0.04170198 -0.008756144 -0.015965413
000140 66 65 c2 3c 79 56 e4 3d e5 6e d5 bc 14 43 50 3d
       0.023729991 0.11149306 -0.026053855 0.05084522
000150 b6 c4 33 bc 5a de d6 bc 39 f2 16 3d 77 ff 5a bc
       -0.0109721925 -0.026229072 0.036852095 -0.013366572
000160 18 f3 2c bd a4 bf cd 3c f6 d5 95 bd 11 2d 82 bd
       -0.04222402 0.025115795 -0.073162004 -0.06356252
000170 18 27 9f 37 67 17 0e bd a7 4c c1 3c 6c 74 c7 bb
       1.8972481e-05 -0.034690287 0.023596121 -0.0060868766
000180 a7 4b 92 bc 7e b1 09 3d 64 60 56 3e 3c 0b c7 bc
       -0.01785834 0.033616535 0.20935208 -0.02429735
000190 be 9d 03 3d 09 dd 6e bd 60 5b 23 bd d9 32 a0 3c
       0.032132857 -0.058316264 -0.039882064 0.019555496
0001a0 08 69 9d bd 5e 01 fd 3c 06 74 95 bd 4a 93 5e 3d
       -0.07686049 0.030884441 -0.0729752 0.054339685
0001b0 56 64 9f 3c 26 1b 06 3c d7 37 b3 3d ac 32 9b bd
       0.019457024 0.008185184 0.08750885 -0.07578024
0001c0 0a 64 37 bc 20 83 a8 be 49 df ca 3b ce e8 97 bc
       -0.011193285 -0.3291254 0.0061911684 -0.018543627
0001d0 5d ac 40 bd 68 20 a0 3d 54 20 37 bd 6e 40 85 bd
       -0.04703938 0.07818681 -0.044708565 -0.065064296
0001e0 b7 e9 f3 bb e3 36 b2 bb ca 8d 7b 3c 33 e3 62 3d
       -0.0074436325 -0.005438672 0.015353629 0.055392455
0001f0 c9 5a 12 3d ae b5 80 3c 6f 11 c4 bb c2 8b b0 be
       0.03573111 0.015711632 -0.0059835236 -0.34481627
000200 90 c1 cd 3c 46 cc 87 3c 67 2d a9 be a9 c0 05 3d
       0.025116712 0.016576897 -0.33042452 0.03265444
000210 d5 b4 03 bd 49 65 77 3d aa 64 86 bd a5 ed 2b bd
       -0.032154877 0.060399327 -0.06562169 -0.041974682
000220 83 03 f7 bc d2 88 91 3c 3b c9 7e 3e e4 4a 24 bd
       -0.030153042 0.017765436 0.24881451 -0.040110484
000230 0f 60 75 bd 83 f2 c5 3c ae b2 1d 3d 3f 4d a0 bd
       -0.05990606 0.02416349 0.03850048 -0.078272335
000240 be 85 c1 bc 90 89 cb 3c 84 a5 a5 bd 6a 83 c3 3c
       -0.023623344 0.024845868 -0.0808821 0.023866374
000250 71 d3 2f 3d 29 69 cf bc 1b 90 67 3c 54 84 29 bf
       0.042926256 -0.025318699 0.0141334785 -0.6621754
000260 6c 87 20 bd df 6b 8b 3e 47 04 80 bd 07 a9 ac bc
       -0.03919165 0.27230737 -0.06250816 -0.021076692
000270 77 f6 bb 3c e7 b3 b9 3b b8 ca 50 bd 52 e2 87 3c
       0.022944672 0.005667198 -0.050974578 0.01658741
000280 f8 03 9c 3c 67 b3 cd 3c 85 8d ca 3d 57 0b 33 bd
       0.019044861 0.02510996 0.09890274 -0.043711986
000290 20 73 a1 3c 10 ba bf bd 22 65 27 bd e3 89 7a bd
       0.019708216 -0.093616605 -0.040867932 -0.061166655
0002a0 07 32 49 3e fc 2f de 3b 8d c2 c4 bd 05 f1 63 3e
       0.1964799 0.0067806225 -0.0960742 0.2225991
0002b0 23 fc af bd d8 a9 d7 bc e7 a6 80 be f1 9c b9 bd
       -0.08593013 -0.026326105 -0.25127336 -0.09063137
0002c0 e7 9f 80 bc ba 41 4a bc 13 2b 80 bd 6a 0d e0 3c
       -0.015701247 -0.012344772 -0.06258216 0.027350146
0002d0 4f e4 72 3d 7a 87 81 3c 92 51 11 bd 3b 0f 83 bd
       0.059299763 0.01581167 -0.035478182 -0.06399389
0002e0 0b 87 9f bc 06 1b 4e bd 00 10 e9 3d 1b 7f 82 bd
       -0.019473573 -0.05031874 0.11380005 -0.063719
0002f0 b2 5a 7a bd be e4 3d bd ab 45 2a 3c b9 e3 0f bd
       -0.06112165 -0.046360724 0.010392587 -0.035129283
000300 23 8d d1 3c c2 19 22 3d e9 e0 d6 bb 67 4d f3 3c
       0.025579995 0.039575346 -0.006557573 0.029699994
000310 35 17 f8 bd 89 13 81 bd 0b 06 96 3d 6e 02 7c 3d
       -0.121138014 -0.06302554 0.07325371 0.061525755
000320 b5 28 91 bb 67 34 07 3d 6b 54 b1 3d 69 7f 1f 3e
       -0.0044299015 0.03300896 0.086586796 0.15575947
000330 eb 93 fe 3d 43 81 9a bc 3b 96 ba bd bf 42 f3 3d
       0.12430557 -0.018860465 -0.091106854 0.11877965
000340 af 44 be bc 26 96 df 3c 35 65 3f 3d 4b 71 23 3d
       -0.02322611 0.027293276 0.046727378 0.039902966
000350 69 bf ab bd 5d 02 7c 3d b1 23 ef bd f3 38 7a bd
       -0.08386118 0.06152569 -0.116767295 -0.061089467
000360 68 44 9b 3c 1b 33 a0 3c ef 93 0b be 65 44 74 bd
       0.018953517 0.019555619 -0.13630651 -0.05963554
000370 30 03 30 3d f2 ee 0d 3d 51 15 3c bd 7e 1a 32 3c
       0.04297179 0.034651704 -0.045918766 0.010870574
000380 68 b3 52 3d 9d 70 a7 bc 7f 00 a6 3d 0b 1c 9b 3d
       0.051440626 -0.02043944 0.08105563 0.07573708
000390 0f f0 7c bc 63 38 6d be da 68 22 bd 96 23 8a bd
       -0.015438094 -0.23166041 -0.039650775 -0.06745069
0003a0 0c 88 89 3d f6 36 31 bd 50 94 6d bd 84 fd f5 bb
       0.06715402 -0.043265305 -0.05800277 -0.007507028
0003b0 22 b2 cb 3b 3d d1 90 3d 05 3d 80 3c 12 8f 8f 3c
       0.0062163034 0.07071159 0.015654096 0.017524276
0003c0 77 e3 ac ba 47 81 05 3d 1e 1e 1b bc d2 4f 87 bd
       -0.0013190348 0.03259399 -0.00946763 -0.066070214
0003d0 f3 0a fc b8 17 8c 22 3d 25 b7 a2 3a 3a a4 59 bd
       -0.00012018336 0.03968438 0.00124142 -0.053135134
0003e0 dc e9 c2 3c e6 e6 5f be 05 22 13 3c 7c bb e7 3c
       0.023793153 -0.21865425 0.008980279 0.028287642
0003f0 ba ef 32 3c 5e e0 96 bc df 92 fb bd a1 71 e0 3c
       0.010921413 -0.018417533 -0.12283873 0.027397932

lin3.weight f4 [128, 256]
000000 1f f5 8c bc cc 39 47 bd 22 f6 35 3d 0b 33 76 bc
       -0.017206727 -0.048639104 0.044424184 -0.015026818
000010 ae 5a 5e bc 74 80 1b 3d 88 cc 9a 3c 34 c5 96 3c
       -0.013571424 0.0379643 0.018896356 0.01840458
000020 4b ba 11 3d 3b 0e 2e bd f5 37 0c bd 74 09 4e bd
       0.035578053 -0.04249404 -0.034233052 -0.050301984
000030 c7 6b 21 bc 26 c1 37 3d b0 92 41 3c d2 c0 82 bd
       -0.009852356 0.044861935 0.011814758 -0.06384434
000040 cb ee 7d bd 4d 7b e7 3c 38 9a 7c bd 04 cf 1a 3d
       -0.06199531 0.028257037 -0.061670512 0.03779508
000050 9c a4 fe 3c 36 a3 ba bc b6 a1 1d bc 6e e9 1e 3d
       0.031084351 -0.022782903 -0.009621074 0.038796835
000060 a9 b1 09 bd 6a 82 23 3d 40 a4 09 3d 70 7c c5 3c
       -0.033616696 0.039919294 0.033603907 0.024107188
000070 78 f5 24 bc 05 91 12 bd c9 b5 28 3d 39 51 45 3d
       -0.01006829 -0.035782833 0.04118899 0.048173163
000080 b0 ea 23 bd 46 ce 6a 3c aa 5f 39 3c a0 bf 95 b9
       -0.040018737 0.014331406 0.011314312 -0.00028562266
000090 97 5c 35 bd fd 43 6f bc 13 c0 2e 3d bb 23 c9 3c
       -0.044277754 -0.014603612 0.042663645 0.02455317
0000a0 d8 d5 4d bd 0c 0d b0 bc 0a 64 22 3b 2e 89 3a bc
       -0.050252765 -0.021490596 0.0024778866 -0.011385245
0000b0 62 7c 10 3c 79 32 d9 3b 8c 25 1a 3d ea 85 91 bd
       0.008818718 0.0066283313 0.037633464 -0.0710562
0000c0 46 60 a2 bc fb f6 78 bd ea b1 11 bd c8 95 26 3c
       -0.019821297 -0.060782414 -0.035570063 0.010167547
0000d0 03 30 17 3d b8 15 80 3c 87 05 3b 3d b7 58 1d 3d
       0.036911022 0.015635356 0.04565957 0.038414683
0000e0 23 f2 11 3c 14 0e df bc d6 ee a8 bb 23 27 38 bd
       0.008907828 -0.027228393 -0.0051554246 -0.0449592
0000f0 81 bf 3b bd ca 08 91 bd 50 c1 d6 bc a9 00 53 3d
       -0.04583693 -0.070817545 -0.026215225 0.0515143
000100 9b 7f 67 bd 62 46 74 bc 25 66 3c bd a6 75 67 3d
       -0.05651818 -0.014909359 -0.04599585 0.056508683
000110 f0 57 7f bc 71 60 56 bd 76 50 f6 bc 65 27 17 3d
       -0.015584931 -0.052338067 -0.030067664 0.036902804
000120 db ba 37 3d dd b1 59 bd 6a c9 6f bd 40 80 9e bb
       0.044855934 -0.05314814 -0.058541693 -0.004837066
000130 9b 51 28 3d 68 cf 07 3d c8 4f 43 3c a7 3f 96 3c
       0.04109345 0.033156782 0.011920877 0.018340899
000140 22 32 34 bd c5 59 87 3d 70 e3 5a 3d 74 ea 4b bd
       -0.043993123 0.06608919 0.053439558 -0.04978414
000150 c7 85 33 bd 1f a1 d7 bc 0a df 7f 3c 99 57 0a bc
       -0.043828752 -0.026321946 0.0156171415 -0.0084437365
000160 84 8d 8a bc 55 21 62 bd f8 ea 12 3d d4 a4 66 bc
       -0.016913183 -0.05520757 0.035868615 -0.014077384
000170 6e 30 cf 3b a6 c9 61 bc 63 fd 11 bd 62 1b 38 3d
       0.006322912 -0.013780987 -0.03564204 0.04494799
000180 6e 5d 09 3d da 65 5f 3d a1 59 00 bd bf ec 2c bc
       0.033536367 0.054540493 -0.031335477 -0.010554492
000190 1d 19 53 bd ca da ed bc ec af 08 3a fc f8 57 3d
       -0.05153762 -0.02903499 0.00052142027 0.052727684
0001a0 f8 75 28 3d 2c 65 8b bc 7b 80 6d bd 39 58 ed 3b
       0.04112813 -0.017016016 -0.057983857 0.007243183
0001b0 e4 f6 54 bd c1 47 49 3c 9c 91 32 bd cc 5b 6e bd
       -0.051993266 0.012285174 -0.043595895 -0.058193013
0001c0 63 30 ba ba 69 65 8d bd b4 ee 4d 3d b2 6b cc 3b
       -0.0014205094 -0.06904108 0.050276473 0.006238424
0001d0 e4 9f 93 bc 8b 0c 2a 3d 14 23 80 bb 0f f3 44 bd
       -0.018020578 0.04151587 -0.0039104316 -0.04808336
0001e0 33 b0 5c bd 46 eb 30 bc 3d 78 ca 3c 20 a2 4f 3b
       -0.053878974 -0.010798281 0.024715537 0.0031682327
0001f0 ec 8e 10 3d 24 da 7b 3d c0 24 1e bb 0b 8a 19 bd
       0.03529255 0.061487332 -0.0024130791 -0.037485164
000200 08 00 35 bd e2 6b 31 bd dc 86 ae bc ca ba 84 3c
       -0.044189483 -0.043315776 -0.02130454 0.01620235
000210 b4 87 26 bd f7 b9 80 bd 4b 09 74 bc 11 93 8d 3c
       -0.04065676 -0.0628547 -0.014894794 0.01728204
000220 4c 90 77 3d 13 4e 44 bd 38 67 8b bc 0f 3c 55 3b
       0.060440347 -0.04792602 -0.017016992 0.0032537018
000230 aa f7 71 3d b3 5a 20 bd 9f f1 1d bd b7 b4 bd 3c
       0.05907408 -0.039148998 -0.038560506 0.02315746
000240 c2 ae 46 bd 18 24 a9 bc 02 72 64 bb 85 51 0f bc
       -0.048506506 -0.020647094 -0.0034857993 -0.008747463
000250 82 0b 08 bc 6a 75 65 bd dd 9a 62 bd 98 94 bb bc
       -0.008303525 -0.056020178 -0.05532347 -0.022898003
000260 f0 6f f9 3b 88 31 d6 3c aa 49 18 3d 49 65 63 bd
       0.007612221 0.026146665 0.037179627 -0.055516515
000270 87 61 9d 3c a0 bf 11 bc 74 25 df bc bc 60 7d bd
       0.019211544 -0.008895785 -0.027239539 -0.06185983
000280 d0 92 23 bd 77 e5 66 bc 2c c9 0d bd 76 79 b8 3c
       -0.039934933 -0.014092795 -0.03461568 0.022518855
000290 89 bb 02 3b 54 62 ac bc 48 e9 ed bc 29 51 86 bc
       0.0019948205 -0.02104298 -0.029041901 -0.016396122
0002a0 44 e7 97 3b d0 0b a7 bb c4 99 52 bb 24 d4 da bb
       0.0046357233 -0.0050978437 -0.0032135108 -0.006678121
0002b0 a3 e3 3a bd 85 c5 86 bc 3f 8c c3 bd cf b3 5f bd
       -0.045627248 -0.016451607 -0.09548234 -0.05461484
0002c0 c9 6b 03 3d 96 7f 87 bd ba 10 2c 3d 3d e3 3d bb
       0.032085214 -0.06616132 0.04200814 -0.0028974556
0002d0 c1 4c a8 bc 0b a1 fb 3c 3b 8c bb bc 55 48 9b bc
       -0.020544412 0.03071644 -0.022894016 -0.018955389
0002e0 89 f7 3d bd 10 4d 65 bc 80 93 e6 bc 04 e0 14 3d
       -0.046378646 -0.013995424 -0.028146505 0.03634645
0002f0 53 e9 94 bb ac 9d 5f 3d 0c df 00 bc a5 f0 a6 bc
       -0.004544416 0.054593727 -0.0078656785 -0.02037842
000300 9f 8d 12 bd be eb 46 3d 8f ed 5b bd 28 c0 5f bd
       -0.03577959 0.048564665 -0.05369335 -0.054626614
000310 41 68 89 bd 71 cd d9 bb 59 bf ac bc 5b 40 5f 3c
       -0.06709338 -0.006646805 -0.021087335 0.013626183
000320 f9 f9 5e 3d 52 c7 33 3d ae 5e 91 3c 33 56 1b bd
       0.05443761 0.04389126 0.017745342 -0.037924003
000330 64 7c c5 3c 54 65 4d bd 44 ce 07 3d eb 21 c3 bc
       0.024107166 -0.050145462 0.033155695 -0.023819884
000340 ca 65 4b 3c 58 ea 6e 3d ee b4 6b bd 5c d2 ed bc
       0.012414405 0.058328956 -0.057545595 -0.029030971
000350 35 05 d2 bc c2 68 fa 3c 91 05 dd 3c ca b2 85 bd
       -0.025637249 0.03056753 0.026980193 -0.06528242
000360 2a 02 c4 3c 72 fb 48 3d 62 26 06 bd b3 66 60 bd
       0.023926813 0.049067922 -0.03275145 -0.05478544
000370 6e 19 8c bd 88 84 b2 bc b5 85 b6 3c f8 0c 76 3c
       -0.06840788 -0.021791711 0.022280553 0.01501774
000380 15 25 28 3b 42 ef 0a bd d8 c0 f0 bc 99 53 62 3b
       0.0025656868 -0.03391958 -0.02938883 0.0034534691
000390 f1 8e 58 3d ee 3e 40 3c f6 d8 8e bd 72 40 87 b8
       0.052870695 0.011733754 -0.06974976 -6.4493055e-05
0003a0 50 e1 2a bd 5e fe 13 3d 54 14 33 bd 8b 72 1e bd
       -0.04171878 0.036131255 -0.04372056 -0.038683455
0003b0 73 c5 08 3d 43 ab 3d bd 60 36 31 3b 27 c9 18 bd
       0.033391427 -0.046305906 0.0027040467 -0.03730121
0003c0 90 21 ed bb f1 59 cc bc 46 5e 38 bd 8e 1f 46 bc
       -0.007236667 -0.024945231 -0.04501178 -0.012092484
0003d0 54 43 49 bd d3 0e a1 3c 0e 80 e9 3c 25 cb 7e 3c
       -0.049136475 0.019660389 0.028503444 0.015551363
0003e0 1d 28 33 bd 8d 55 08 3d 0b 1a a6 3b e0 d3 05 3d
       -0.043739427 0.033284713 0.0050690225 0.032672763
0003f0 ac 4b 8a bd 40 3b b2 bc 70 a3 bb 3c b8 8e 2c bc
       -0.067527145 -0.021756768 0.022905082 -0.010532074

lin3.bias f4 [128]
000000 e1 88 9c bd 80 1d c4 3d f3 a9 90 3a f0 b4 25 bb
       -0.07643295 0.09575939 0.0011036977 -0.002528485
000010 6f 5f 74 3b d9 44 e1 bb 40 43 cd 3d 12 50 ba bb
       0.0037288328 -0.0068746624 0.100225925 -0.0056858147
000020 13 bd 84 bb 6e 8c 9e bc 65 44 12 3d d6 b5 80 bc
       -0.0040508597 -0.019354071 0.035709757 -0.015711706
000030 f0 dd a0 bc 09 29 c2 bd 58 45 93 3d fc 8a a7 bb
       -0.019637078 -0.09480483 0.07190961 -0.005113004
000040 77 c6 65 be 6c d6 f9 3c 71 0b 27 3c 73 6e ba 3d
       -0.2243899 0.030497752 0.010195599 0.09103098
000050 35 82 ac bc 36 6c 44 bd 34 34 a1 bd a8 cc 39 bd
       -0.021058181 -0.04795476 -0.07871285 -0.04536119
000060 a2 f2 d4 bd aa 32 a0 bd 7e a0 41 bd cb cb 15 3d
       -0.10397841 -0.078221634 -0.047272198 0.036571305
000070 7d 5f c1 3c 4a 18 d8 3d a2 49 0d bd 36 78 28 bd
       0.023605103 0.10551508 -0.03449405 -0.041130267
000080 86 87 00 3c a0 a2 66 3e 32 a3 0b 3d 2e 1a b8 bc
       0.007844811 0.22522974 0.034091182 -0.022473421
000090 a4 1d 04 be bb 95 d5 3d 29 97 93 be 17 17 61 bc
       -0.12901932 0.104289494 -0.28826264 -0.013738415
0000a0 1b fd 3c bd d3 2b af bc 97 a6 88 bd 30 eb fb 3e
       -0.046139818 -0.021383202 -0.066723995 0.4920287
0000b0 3a 9e cf bd dc 98 9f be 71 41 b7 3e ce e5 51 be
       -0.10137601 -0.3117131 0.35792115 -0.2049782
0000c0 60 82 8b bd 6b 49 9b be 50 2e 6f 3b 81 82 4b 3d
       -0.068119764 -0.3032945 0.003649611 0.049685005
0000d0 af 54 99 bd ef cf bd bd 63 d6 87 bc 41 c3 8b 3d
       -0.07486855 -0.09268176 -0.01658172 0.06824351
0000e0 80 f1 5c 3d 83 42 55 bd 7a ca 18 3f a9 62 61 bd
       0.05394125 -0.052065384 0.59683955 -0.05502573
0000f0 4d 25 0b be 01 0e dd 3d e7 01 41 3d 9e 96 da 3b
       -0.13588448 0.10793687 0.047120955 0.006670787
000100 8f ba c6 bd 10 31 78 be f7 44 36 bd a5 d9 1c bd
       -0.09703552 -0.24237466 -0.044499364 -0.0382935
000110 ce a7 ed 3c 5f 82 d8 3d 4b 4c 2e bc d3 e3 a1 bd
       0.02901068 0.10571741 -0.010638307 -0.07904782
000120 74 bc dc be db c0 e5 3d c4 1f 06 3e d1 63 8b bd
       -0.43112528 0.11218425 0.13098055 -0.06806148
000130 c3 0f b9 3b f5 0b a6 bc d4 95 84 bd 5e 66 c1 bd
       0.005647631 -0.020269373 -0.0647389 -0.09443353
000140 2a e2 7a be 9b 73 be bc e3 c2 cd bd 10 2a 5d bd
       -0.24500337 -0.023248484 -0.10046937 -0.053995192
000150 5c 60 8b 3e 74 d9 59 3e 47 51 11 be e1 ca d6 bc
       0.27221954 0.21274358 -0.14191161 -0.026219787
000160 57 3a e0 bc 2e 28 f9 bc 06 79 84 3c 9e 11 ce bd
       -0.027371569 -0.030414667 0.01617099 -0.10061954
000170 31 3c b9 bd cb 7b 5e 3e 62 a2 4c bd d9 e3 b0 bc
       -0.09044684 0.21726911 -0.049959548 -0.021593021
000180 ae 48 3f 3a fa ee 2d 3b 39 7b 03 3c 4f 87 fa 3b
       0.0007296902 0.0026540146 0.008024984 0.0076455246
000190 ae a5 3f be 78 76 40 be 68 39 c6 be f3 11 ef bd
       -0.18715546 -0.18795192 -0.38715672 -0.116733454
0001a0 ca 25 58 bb 78 ab 54 be e2 7d 32 bc 61 0c a9 3e
       -0.0032981508 -0.20768535 -0.010894271 0.33017257
0001b0 97 4d 87 bd 0f 60 cf 39 d2 30 05 3c 57 8b c8 bd
       -0.06606596 0.00039553686 0.008129315 -0.09792202
0001c0 58 19 67 3d 88 e5 2f bc d9 e3 23 bd 65 99 45 3d
       0.056420654 -0.010735877 -0.040012214 0.04824199
0001d0 95 4f 15 3c fc ee 87 3e 5b 45 33 bd 1e c0 86 bd
       0.009113212 0.26549518 -0.043767314 -0.06579612
0001e0 f3 63 22 bd cc 7f f1 bc 8a ea 68 3b 61 8f 03 3d
       -0.0396461 -0.029479884 0.0035540187 0.03211916
0001f0 5d 99 37 bc 79 6e a7 bc 44 0f 27 3b 25 53 df bd
       -0.011205998 -0.02043842 0.0025491277 -0.109045304

lin4.weight f4 [64, 128]
000000 5f a6 9a 3d 8e 3a 03 bd 89 7c 78 bb a9 cf 56 3d
       0.07551264 -0.032038264 -0.0037916026 0.052444134
000010 08 1f 7a 3d bb b9 35 bd 28 34 69 bd 1f 60 92 3d
       0.06106475 -0.04436658 -0.056934506 0.0714724
000020 eb c1 08 3d 24 e8 2d bd 42 5b 61 3d ec c3 f3 bc
       0.03338806 -0.042457715 0.05501867 -0.029756509
000030 31 16 9b 3d 49 f6 39 bd 77 f4 d0 bc 19 55 b0 bd
       0.07572592 -0.04540089 -0.025507195 -0.08609981
000040 01 52 01 3d 2f c8 c1 bc 92 fc 94 3d a0 12 fb 39
       0.031572346 -0.023655025 0.072747365 0.00047888327
000050 25 a6 2f bc 6b 38 18 bb d7 6f 9f 3d 17 f0 32 3d
       -0.010720764 -0.0023226987 0.07785004 0.043686
000060 2d 54 48 3d 7d 33 7c 3d f8 2c da bb 2b 9d 61 bd
       0.0489084 0.06157254 -0.0066581927 -0.055081528
000070 c2 0f 80 3d 6e 38 67 bd 65 f0 bf bd f4 a4 82 3d
       0.062530056 -0.0564503 -0.093720235 0.063791186
000080 99 09 57 3d f5 85 b6 bd 0a c8 76 bd 4b 7d b8 bd
       0.052499387 -0.08912269 -0.060249366 -0.09008273
000090 4e a5 56 bd d5 26 51 3c a5 ce 1b bd 07 3c 8c 3d
       -0.05240374 0.012765606 -0.03803887 0.06847387
0000a0 08 80 85 3c 00 11 02 bc 25 da 2c 3b 1c bd 9a bd
       0.016296402 -0.007938623 0.0026375141 -0.07555601
0000b0 2e a1 f0 3b 56 b9 96 bc fd 9a df 3c 92 ed 80 bc
       0.007343433 -0.018398922 0.027295584 -0.015738282
0000c0 f1 7e 14 3c 15 3b a9 bd b7 6d 5e 3d d8 5a 3b bd
       0.009063468 -0.08263222 0.05430385 -0.045740932
0000d0 28 6a 3f bd f0 7c 91 bd 8a 82 b5 bd 2b f1 80 3d
       -0.046732098 -0.07103908 -0.08862789 0.06295999
0000e0 31 d4 5c bd 44 e3 91 3d ca 17 69 3d 89 fb 9c bc
       -0.0539133 0.071234256 0.056907453 -0.01916291
0000f0 eb 5c b7 bc 4b 80 92 bd 9e d3 73 bc 50 6c 2c 3d
       -0.022383174 -0.07153376 -0.014881996 0.042095482
000100 79 80 b6 bd 55 78 9c bd 3d 59 72 3c e4 d2 b0 bd
       -0.08911223 -0.07640139 0.014791784 -0.08633974
000110 f1 81 a5 bd 0f aa ba bd ff 80 9d bc f2 1b 9e 3a
       -0.08081425 -0.09114467 -0.01922655 0.0012062772
000120 df 16 5e bd d1 23 53 bd 67 3b 20 3d 05 f2 95 bc
       -0.05422103 -0.05154783 0.03911915 -0.01830388
000130 81 1e 90 bd 54 5a 4f bd bc d9 dd bc 21 99 63 bd
       -0.07037068 -0.050623253 -0.027081363 -0.055565957
000140 8e 76 90 bd 2d 86 28 3b 3b 89 9e bd 4a b6 b1 bc
       -0.070538625 0.002571474 -0.077410184 -0.021693368
000150 43 15 f0 3c e9 42 5b 3d d6 95 a0 bd be 86 a5 3c
       0.029307013 0.053530607 -0.07841079 0.020205852
000160 2c 0c 64 bd 9d 65 0f 3d 63 82 a2 3d ed 91 9c 3d
       -0.05567567 0.035009015 0.079350255 0.07645021
000170 d1 93 8a bd eb 47 a0 3b a9 b1 52 3d 98 ab ba bd
       -0.06766475 0.004891386 0.05143896 -0.0911476
000180 92 86 5f 3d 7e 86 0d 3d cf b6 5d 3d bb 79 ab bd
       0.054571696 0.03455209 0.054129418 -0.083728276
000190 bc fe cb bd aa c4 4a 3d 19 66 6e bd 2d 65 b6 bd
       -0.09960696 0.04950396 -0.058202837 -0.089060165
0001a0 8b a3 b9 bd b9 05 5e bc 81 ce 92 bc 17 26 7b 3d
       -0.090643965 -0.013551169 -0.017920734 0.061315622
0001b0 ff da 71 bd 1c b1 15 3d ed 03 04 bd 27 e5 40 3d
       -0.05904674 0.036545858 -0.032230306 0.047093537
0001c0 47 ac b4 bd 9b 8d bc bd 87 ef 94 3a 14 42 7d 3d
       -0.08821922 -0.092066966 0.0011362889 0.061830595
0001d0 ea dd 31 bd f1 20 3c bd e5 d0 2d bd fb af 7c bc
       -0.043424524 -0.045929853 -0.042435545 -0.015422816
0001e0 92 92 37 bd 90 37 37 3d 88 19 17 bd 07 fd a3 3d
       -0.044817515 0.044730723 -0.036889583 0.080072455
0001f0 b9 5c 65 bd 87 40 5c 3d 3a 56 df bd 48 88 18 bd
       -0.05599663 0.053772476 -0.10905118 -0.037239343
000200 0c dc 96 bd 44 b5 2c bd 78 b8 35 3d 85 b1 ce 3a
       -0.07366189 -0.042165056 0.044365376 0.0015769458
000210 08 f6 67 bd 42 87 56 bd 38 92 06 3c 93 a7 df 3b
       -0.056631118 -0.052375086 0.008213572 0.0068253963
000220 e6 9b b4 bd e0 f6 02 bd e0 32 c9 bd 94 1f 8f bc
       -0.08818798 -0.03197372 -0.09824157 -0.017471112
000230 20 ab 69 bd df 01 2c 3d 76 aa 84 bd 4a cf 92 3d
       -0.057047963 0.041993972 -0.06477825 0.071684435
000240 eb 97 e9 bd e8 23 aa ba 56 a8 5f 3c a1 22 ad 3c
       -0.11405929 -0.0012980672 0.013650974 0.021134676
000250 51 46 b5 3c 00 4b 4b 3d cd cb 45 bd 78 75 8c 3d
       0.022128256 0.049632072 -0.048290063 0.06858343
000260 33 f7 b0 bb f1 26 b3 3c 70 58 55 3c 7f e7 c6 3c
       -0.005400562 0.021869155 0.013021573 0.024280308
000270 0a 5c 95 3b ae 7f 37 bd 81 18 8f bd 30 dd 3c 3d
       0.004558091 -0.0447995 -0.069870956 0.04610938
000280 8f a9 3a bb 92 87 28 3c e9 3b ee 3b fc 78 11 bd
       -0.0028482412 0.010286229 0.0072703254 -0.03551577
000290 ea 8f 59 bd 0f 77 e8 3c 1b 08 8a 3c 4e 50 a3 bd
       -0.053115763 0.028377084 0.016849568 -0.07974301
0002a0 bd 89 bf bd 84 c8 33 bd d3 1e 77 3d 84 58 6d bc
       -0.09352443 -0.0438924 0.06033213 -0.014486436
0002b0 2b ff f3 3c e8 a6 c4 3c 7b 4f 6d 3d d7 10 94 bd
       0.02978476 0.024005368 0.057937127 -0.072297744
0002c0 3c de 25 bd 78 cd ab bc 18 37 4b bd 36 f0 31 bd
       -0.040495142 -0.020971999 -0.04961309 -0.043441974
0002d0 bc 13 76 bd 87 63 b0 3d 98 6a 00 bc 09 68 8e bc
       -0.060077414 0.08612733 -0.007837914 -0.017383592
0002e0 74 50 b2 bd f3 0f 8b bd c5 34 84 3c 7d 4e 9a bd
       -0.087067515 -0.067901514 0.016138444 -0.07534502
0002f0 07 e3 6f bd 2f 42 d2 3b 5c 9c 03 b9 01 3c c5 bd
       -0.05856612 0.006416581 -0.00012551382 -0.096305855
000300 42 00 97 bd 6c b4 c3 bd 80 e5 62 bd ad 29 63 3d
       -0.07373096 -0.09555897 -0.05539465 0.055459667
000310 14 b1 a4 bc 52 48 94 bc 24 59 84 bd 98 21 37 3c
       -0.020103969 -0.018100891 -0.06462315 0.011177443
000320 23 bd 11 bd a3 1c ad bc e4 8d 8c bd a8 85 6b bd
       -0.035580765 -0.02113182 -0.06863001 -0.05750051
000330 8f 9d 7f 3d 5b ef 28 3d a4 ab 45 3d 3c 3b 02 bd
       0.06240612 0.041243892 0.048259392 -0.03179477
000340 19 e9 e6 bb cc 13 0d 3d 56 b0 54 bd fd 77 e7 ba
       -0.0070468304 0.034442708 -0.05192598 -0.0017659661
000350 1c 15 e7 bd f5 68 7a bd 2a 6a 8f bd 74 83 37 3d
       -0.11283323 -0.06113525 -0.07002671 0.044803098
000360 5a 30 82 bd f5 84 5b bd 7f eb a1 bc 21 5e 9b 3d
       -0.063568786 -0.053593595 -0.019765614 0.07586313
000370 dd 84 15 bd 07 13 5c bd 39 2d 88 3d 91 cf 6d 3d
       -0.03650366 -0.053729083 0.066492505 0.05805928
000380 ee a4 ff bb 97 77 20 3c b1 ca b5 bc e0 74 86 bd
       -0.0078016436 0.009794137 -0.022191377 -0.06565261
000390 db 66 32 bd 7c ef b0 bc 3f 53 98 bd 7b 07 73 3c
       -0.043555122 -0.02159857 -0.07437753 0.014833326
0003a0 c4 1e 88 3d 81 e2 ed 3c 61 3b 9e bd 03 25 f7 bc
       0.06646493 0.02903867 -0.077261694 -0.030169016
0003b0 be 18 3a bd 6c 15 a4 bb ee 6c ee 3b 9b 5b e7 3b
       -0.045433752 -0.0050074365 0.007276169 0.007060481
0003c0 be 8e 83 3c a5 67 25 bd c0 61 6f 3d 2a ea 86 bd
       0.016059276 -0.040382046 0.05844283 -0.06587632
0003d0 1e c8 24 bd b4 81 c2 bd ff b6 83 bc 48 6e 71 3d
       -0.04022991 -0.09497395 -0.01607847 0.058943063
0003e0 68 44 4c 3c 5e a7 61 3d d5 a2 36 bd 16 4c a5 3d
       0.012467481 0.055091254 -0.044588882 0.08071153
0003f0 22 27 f9 3c 10 46 7a bd 52 7b ea bd d9 2f 16 bd
       0.030414168 -0.061101973 -0.11449303 -0.036666725

lin4.bias f4 [64]
000000 35 5b cb bb df 6a a3 bd fd 52 be 3d 6f 9b 1c 3d
       -0.006205941 -0.079793684 0.092931725 0.03823417
000010 7f ec fe bc d5 98 de bc 86 9a 92 bc cb 12 0c 3f
       -0.03111863 -0.027172485 -0.017895948 0.54716176
000020 bd fb 4a bd cc c5 16 3d 56 9d 8a 3d 80 25 18 3d
       -0.049556483 0.036809728 0.06768291 0.037145138
000030 af 2b 00 3d 91 29 8e bd e8 d7 39 bc 68 7b e4 bc
       0.03129166 -0.06941522 -0.01134298 -0.027890876
000040 f3 1c d5 3c f5 be 3d bd 0d 3b b6 bd 1a e8 58 3e
       0.02601478 -0.04632469 -0.08897982 0.2118229
000050 58 48 a7 bc ac a5 41 bd 82 be c9 bd 1a ce 7a bd
       -0.020420238 -0.047277138 -0.098507896 -0.06123171
000060 e8 d3 cd bd 3e 72 38 3e 2d 5a 84 3c 66 32 54 bd
       -0.100501835 0.1801233 0.01615628 -0.051805876
000070 bc e1 85 bc 4e d1 b5 3c c6 1f c4 bd 50 e4 ee 3d
       -0.01634299 0.02219453 -0.09576373 0.11664641
000080 59 2b 90 3e 05 92 47 ba 9e 82 2b 3d be 8e 52 3e
       0.28158072 -0.0007613006 0.041872613 0.20562264
000090 e4 90 83 3c 1d 66 46 bc 6d 08 bc 3d 12 2d 9d bc
       0.0160603 -0.012109307 0.091812946 -0.01918653
0000a0 95 af 8d 3d 61 30 b0 bd 93 fa 7b bd d7 bb d9 3b
       0.06918255 -0.086029775 -0.061518263 0.0066447067
0000b0 d4 0a 30 be 81 e3 aa 3e 94 fc e6 bc b4 eb fa 3d
       -0.1719163 0.33376697 -0.02819661 0.12251988
0000c0 45 1f cb bd da 7b c5 bd e5 63 98 bd dc 0f ea 3b
       -0.099180736 -0.096427634 -0.07440928 0.007143004
0000d0 fb 16 44 3b 51 eb 65 bd bf 22 84 bd d1 2d 5f 3c
       0.0029920924 -0.05613262 -0.0645194 0.013621763
0000e0 ac 68 b8 3c 61 51 84 3f 1c 49 77 bd e7 6f ec 3e
       0.022510849 1.0337335 -0.060372457 0.46179125
0000f0 18 12 3a be 30 de 3d 3d c1 4f 57 bd 11 e9 e5 bd
       -0.18170965 0.046354473 -0.052566294 -0.112260945
