src/virtuose_teleoperation/network_controller/trained_policy_MLP/Grasp_norm_BC_10hz_lifter_AHEE_epoch_65.pth (torch, 456199 bytes, 10 tensors)

lin1.weight f4 [256, 20]
00000000: 7473 3a3e 9b7a 1fbe d27a 533e 7c90 773d
00000010: 58ee aa3d 582e 683e 01b4 133e b626 1fbe
00000020: c274 3a3e 590b 90bd 059f dcbb 2646 353e
00000030: 119b 3f3b 862f 4ebe 1f1d 72be fdff 3ebe
00000040: 095b 023e 0180 eabd ef0f 28be 2ec1 bb3d
00000050: d7ab 233e ce2d f7bd 3efb 443e 5934 6a3e
00000060: 1c25 68be 8eeb 1c3e 2a98 f8ba 3daf 2abe
00000070: 9a31 923b 8234 16bc c1f5 353e c71f 05be
00000080: e7f1 38be e614 17bd 8bd9 34be b5a8 593c
00000090: df8d 1d3e 7f89 49bd 77c4 3f3e e58a af3d
000000a0: 335d 503d 5c9d 88bd 93aa db3d 2f50 7a3e
000000b0: 4a04 e23d 987e 3fbc e57f 3ebe f1fd 4abd
000000c0: f1c9 993d 270c 393e be18 dcbd 38ef 983e
000000d0: 068f 81be 5dde 613e e10c 8fbe 3277 883e
000000e0: 969d 80bc 0a41 403e a410 00be e52f f03d
000000f0: e51c fc3d 0211 263d 1fb2 6e3e 2bba 19be
00000100: cc89 373c e486 12bd e87e 2b3e 98d6 423d
00000110: 395d fabd 7d1a 50bd ddb2 c4bc c2d3 493e
00000120: 4c24 013d ac95 b43e 7bd6 2d3e 1dd0 7d3d
00000130: 7bcc 64bb a36e 443e fbf5 503c 450e 19be
00000140: c839 923d 44c3 fc3d 402d 31be e869 42be
00000150: e1e0 4cbd 59cd ab3d b972 a5bd 35b7 f63d
00000160: b212 f3bd 1710 4e3d dd0e 9f3d e176 033e
00000170: 4f7b 3bbe fafc 4f3e 4813 443e ccf0 1e3d
00000180: a473 b43d 9033 1a3e 8987 55be c3b4 3fbe
00000190: 5952 85be e90a c43e 4189 e1bd c02f ea3e
000001a0: b03f e2be d2ac bf3e 106d 3e3e b122 d83d
000001b0: a120 d5be f4e3 75bd d50a c6bd 4131 983d
000001c0: 805f c8be cf63 3b3e 3dfc adbf aac0 803e
000001d0: 233c 53be d8f1 4ebc 2252 603d d1bf 123d
000001e0: 48fc bfbe 1ad4 97be d8eb c73d 3276 9a3e
000001f0: 0fdb a5be 792f 4fbe ca0e f5bd b453 723d
00000200: 8fd2 94bf 26d4 b1be 29cd 34be 4803 5b3e
00000210: 74f5 afbe 0c62 b53e db41 a23d a590 b13e
00000220: ff22 2dbd ae57 c3bd 919a 5f3d c7e8 243e
00000230: 662a 3f3e 51eb 68be b393 13be 6066 2d3e
00000240: ec5a b3bd 0991 d3bd 5d84 1bbe 6cf4 00be
00000250: d8f6 31be ef2a 1bbe ddfa 6ebe 8a86 bdbd
00000260: 2526 3dbe 6cc3 51be 14dd 71bd c352 163e
00000270: 7ed6 ea3d 3493 4f3e e9e7 21be 8c73 f63d
00000280: 9772 ba3d 7e29 a53d d0e7 1fbd 44f3 c23e
00000290: d937 5cbe 06c2 3e3e 4a3d 233e 11f3 073e
000002a0: e527 07bf 2269 23be 159a c83d 9015 633e
000002b0: dcd4 21be 9ea7 23bd 7921 72bf d0fb 66bd
000002c0: b4c4 1bbe dc64 913d 25ac 4c3e 4657 103e
000002d0: 459b 0b3e 344d f13d 3d96 25be 33ed adbd
000002e0: e2ea 49bc 211e d6bd 290e 3f3e 5d67 cdbd
000002f0: 40c9 50bd 0d3c 073d 1d02 0dbd 6c03 94bd
00000300: 7b21 7fbe 701c 36be 6835 c33c 9c77 e03d
00000310: 6966 cdbc caee 7d3c 4b3a fb3d 44a6 953d
00000320: 45b3 8dbc a3bc b33d 8625 04bd e159 65bd
00000330: d682 253e 73a7 3b3d 9428 f23d 3e30 583d
00000340: 492a 50bd 1924 593d 31ac 80be bd6e 873d
00000350: 4e0e d6bd 8ded 82be 9f30 623d a3cc 1cbd
00000360: 72e5 523e 81ba 0f3e fe95 e03c 5400 05be
00000370: 7dcc 86bd 8b86 a1be 9015 a3be 9685 54bd
00000380: d5a8 1fbe 714f 65be d240 f3be 51d4 063e
00000390: b941 903e 6b53 7f3d 4728 eab9 a0b7 60be
000003a0: 312d 563e d436 a93e 4932 573f 09ff 073e
000003b0: d123 a0bb 7ee0 8ebd 02f2 52be 2b86 3a3e
000003c0: 25c7 a3bd c2bf 7abe 7b0c b8bd d178 933d
000003d0: c2d2 e7bd 6d12 12be 73d2 22be d509 26be
000003e0: d615 4f3c 20a4 4a3e fa9c 4a3e 92d1 233e
000003f0: b8d7 303e 3bf3 4abe 4893 053e b8e6 c73c
0.18208104 -0.15574114 0.20652321 0.060440525 0.08346242 0.22673929 0.14424135 -0.15542111
0.18208602 -0.070334144 -0.006732824 0.17702541 0.0029236714 -0.20135316 -0.23643921 -0.1865234
0.1273004 -0.11450196 -0.16412328 0.091677055 0.1598352 -0.120692834 0.19236466 0.22871532
-0.22670406 0.15324232 -0.0018966247 -0.1666841 0.0044614794 -0.009167792 0.17769529 -0.13000403
-0.18061028 -0.036885165 -0.17661111 0.013284852 0.15386151 -0.049203392 0.18727289 0.08571414
0.05087013 -0.06670639 0.10725894 0.2444465 0.11035974 -0.011687897 -0.18603475 -0.049558584
0.075092204 0.18071042 -0.10746907 0.2987001 -0.2530443 0.22057481 -0.27939513 0.2665344
-0.015700143 0.1877481 -0.12506348 0.11727885 0.12310199 0.040543564 0.23310135 -0.15012424
0.011202287 -0.035773173 0.1674763 0.047567934 -0.12224812 -0.05080651 -0.02401107 0.19709685
0.031528756 0.3527044 0.16976349 0.06196605 -0.003491192 0.1918283 0.012753959 -0.1494685
0.07139927 0.123419315 -0.17302418 -0.18985713 -0.05001915 0.08388776 -0.08078522 0.12046663
-0.118688 0.050308313 0.07766507 0.12838317 -0.18308757 0.20311347 0.1914798 0.03880386
0.08811119 0.15058732 -0.20852484 -0.18721299 -0.2603939 0.38289574 -0.11012507 0.45739555
-0.44189215 0.3743654 0.18596292 0.10553492 -0.41626456 -0.060031846 -0.09670035 0.074312694
-0.3913536 0.18299793 -1.3592602 0.2514699 -0.20628409 -0.012630902 0.054765828 0.03582746
-0.37497163 -0.29654008 0.097617805 0.301683 -0.3239369 -0.20232953 -0.119657114 0.059161857
-1.1626757 -0.3473217 -0.17656387 0.2138797 -0.34366953 0.35426366 0.07922717 0.34680668
-0.042269703 -0.09538208 0.054590765 0.16104423 0.18668517 -0.22746016 -0.14411812 0.16933584
-0.08757576 -0.10330398 -0.15187211 -0.1259324 -0.1737932 -0.15153097 -0.23337884 -0.09254177
-0.18471582 -0.20484704 -0.059048727 0.14680009 0.114666924 0.20270997 -0.15811123 0.120337576
0.091038875 0.08064555 -0.039039433 0.38076222 -0.21505679 0.18628702 0.15941349 0.13276316
-0.5279525 -0.15958074 0.09795014 0.22176194 -0.15803856 -0.039954774 -0.94582325 -0.05639249
-0.15211755 0.070993155 0.19987543 0.14095792 0.1363345 0.117823035 -0.16170593 -0.08492508
-0.012324067 -0.104549654 0.18657745 -0.100294806 -0.050973177 0.033016253 -0.034425844 -0.07227215
-0.24915116 -0.17784286 0.023829177 0.10960314 -0.025073247 0.015498826 0.12266978 0.07307103
-0.017297396 0.08776214 -0.032262348 -0.05599392 0.16163191 0.04581399 0.11824146 0.052780382
-0.050821576 0.05301294 -0.25131372 0.066129185 -0.10451947 -0.25571862 0.05522215 -0.038281094
0.20595339 0.1403599 0.027415272 -0.12988406 -0.06581972 -0.3154796 -0.31852388 -0.05188521
-0.15591748 -0.22393586 -0.4751039 0.1316693 0.28175142 0.062335413 -0.00044661967 -0.21945047
0.20915677 0.33049643 0.84061104 0.13280882 -0.004887082 -0.06976412 -0.20600131 0.18215244
-0.07996968 -0.24487212 -0.089867555 0.07200778 -0.11319496 -0.14264841 -0.15900593 -0.16214688
0.012639483 0.19789171 0.19786444 0.15997913 0.1726979 -0.19819348 0.13044465 0.024402007

lin1.bias f4 [256]
00000000: 871c babd 2be8 4bbe 2396 80be 33d0 b1bd
00000010: 053c 96bd 7354 81be af82 26be 6d3f 253e
00000020: fc4d a5be dca6 35be 3574 0abe ca4c ddbc
00000030: ae37 a03d c9aa 3a3e 7f5e 62be 0409 09bd
00000040: 4365 33bd 0921 c63e 7482 ff3d 0f4d 033e
00000050: 6c65 c73d 2867 d73d a06a d2bd aea1 553d
00000060: f6d9 283e f58e 4ebe edbc acbc a8a3 28be
00000070: 0b60 143d 2aa2 1a3c adab 3f3e 48dc debd
00000080: b615 933d fa24 98bd 6ddf 96bd 2018 973d
00000090: 5b21 8a3e 10b6 44be ea1d 30be f0a6 c63d
000000a0: d416 33bd 054a f13d 98a4 08bd 33da 2b3e
000000b0: c5c1 073e 72c7 45be 0f30 22be fb04 553e
000000c0: 8fe1 033d 1e71 9f3d f75d c0bd 8573 2c3e
000000d0: 7b95 d7bd 011b 163e 5780 85bd 28c7 253d
000000e0: 8ba3 15be 4da5 52be 4dc5 90be 6c21 383e
000000f0: f632 ec3d da29 023e cf86 39be 5d47 013e
00000100: 3ba3 acbd 701e bb3d b6c4 d23d 1e00 d5bd
00000110: 637e 50bc 549a 313c 59a9 2dbe b0fe 4a3e
00000120: f844 42be 0bc7 05be 8af0 413e 3f37 bd3d
00000130: b574 08bc 4e2a 0bbe d19c 58be cb33 b03d
00000140: 2e45 53be 4641 b6bd 5560 a73c fdea c73d
00000150: 6c0a 473e c1d5 3cbc b3b5 37be 1db2 353e
00000160: da94 aa3d 69a0 c23d c894 78be 601b 163e
00000170: f979 24be b45f 82be d48e a9bd 8d60 1b3e
00000180: c8fe b9bd 2d96 243c 3c14 c93d 8070 9cbd
00000190: 56e0 8abe 9090 59be a152 4abd 099a e03d
000001a0: 0a20 1dbe 3e61 0cbe 7783 b8bd 7327 383c
000001b0: 3081 313e d7b2 debd 88cc 2bbe b239 94bd
000001c0: 2b44 143e a263 e4bd be06 213b 84f6 9a3d
000001d0: 363c 763d 65da 29be a42d 863e 8830 04be
000001e0: 8ce7 923d 62ca cdbe d0b0 00be 7586 523e
000001f0: 3b22 c63d 391c 0cbd c07c 93bd 0594 82be
00000200: 6fae b73d dba9 57bd 2a6d 27be 9b5b d03d
00000210: 888c 273e e956 56be bc70 62bd d209 57be
00000220: de21 1bbe d228 dbbd ecdd 10be 5edd 823d
00000230: 28c0 89be e4ce 84be b084 cb3c 3514 973d
00000240: a611 d2bc b679 61be 5832 0f3e f777 f8bd
00000250: f794 1abe 8661 193c 6b3c 5a3d 4726 2c3e
00000260: b20d 34bc 51d2 603d 4acc a5bd d34d 853d
00000270: 9a70 243e 29a5 d63d f280 29be f5f0 30be
00000280: 8496 72be 1d5f 92bd 0ac6 c3bd 81ad 603e
00000290: a721 6fbe ab0e 533d d97d 003e 7358 04bd
000002a0: 1dd1 cdbd 9622 19be ba4d 1dbc 7649 74bd
000002b0: 0024 a2bd 00c2 4e3e 2c6f 5bbd 1b07 a23d
000002c0: 810b fb3d 3a06 1a3e bf30 a33c f962 78ba
000002d0: 4546 983d b940 3e3e 210e 6bbe 7e39 f4bd
000002e0: ee7f 0d3c 9312 273e 035e 1e3e d145 31be
000002f0: a7bb 07be 7dcf 403d 7cb0 2dbe 9268 143d
00000300: 63c6 9f3e 2e44 103e e0dd c1bc 9645 273e
00000310: 57df 463e e0a0 2dbe ecdc b53d 458b 0d3e
00000320: acf0 4b3e 5a41 1cbe 8f01 713d 12a8 3c3e
00000330: 8dfc b83d 82a0 93be a6e4 e8bc 2e0b b03d
00000340: c60a 6bbd baec eb3d e5ba d5bd 6069 a5bc
00000350: 03ef 623d 64be 943d b021 18be 3f53 98bd
00000360: d0e5 f33b cc81 a8be da34 6cbd 468b 443e
00000370: b046 0f3e f2c5 1d3e 30ea 74bd a156 b03c
00000380: 58c7 d1bd 4355 00be e317 69bd c350 7c3c
00000390: dc0d 62bd 68a9 4b3e 2291 0b3e 1805 1c3e
000003a0: f8ce d23d 5a37 943c 80d2 2b3e 039f 3cbe
000003b0: 549b e73c 2911 eb3d 2add 1b3e f9ef 96be
000003c0: c5e4 0f3e 185f 04be accb 5ebe b1a5 ccbd
000003d0: bfaa 3cbe cbab ea3d 644d 173e 01bb 143e
000003e0: 4b24 59be e98b 9dbe 5b15 d93c 1549 253e
000003f0: 78d4 cf3b 6a10 23be 2393 68bd b872 5fbe
-0.090874724 -0.19912784 -0.25114545 -0.08682289 -0.073356666 -0.25259742 -0.1626079 0.16137476
-0.3228606 -0.17739433 -0.13520892 -0.027014155 0.0782312 0.18229212 -0.2210636 -0.033455864
-0.043797743 0.3869708 0.12476054 0.12822364 0.097361416 0.10517722 -0.10274243 0.052156143
0.16489395 -0.20171721 -0.02108618 -0.1646868 0.036224406 0.009438077 0.18717833 -0.10881859
0.071818754 -0.07428928 -0.07366834 0.07377648 0.26978573 -0.19210076 -0.17198911 0.096998096
-0.043722942 0.11781696 -0.033360094 0.16782455 0.13257511 -0.19314364 -0.15838645 0.20802681
0.03219753 0.07785247 -0.09392922 0.16840942 -0.10526558 0.14658739 -0.065186195 0.040473133
-0.14613168 -0.2057087 -0.2827553 0.179815 0.115331575 0.12711278 -0.18117832 0.12624879
-0.08429571 0.09136665 0.10291426 -0.10400413 -0.012725445 0.010840017 -0.16959132 0.19823718
-0.18971622 -0.1306421 0.18939415 0.09239053 -0.008328606 -0.13590357 -0.2115357 0.08603629
-0.20631859 -0.08899169 0.020431677 0.09761617 0.1943757 -0.011525572 -0.17940407 0.17743726
0.083291724 0.09503252 -0.24275506 0.1465888 -0.16062154 -0.2546364 -0.082791954 0.1517355
-0.09081799 0.01004557 0.098183125 -0.07638645 -0.2712428 -0.21246552 -0.049395207 0.1096688
-0.15344253 -0.1370897 -0.0900945 0.011239874 0.17334437 -0.10873955 -0.16777241 -0.07237567
0.14479129 -0.11151816 0.002457067 0.075665504 0.060116015 -0.16587217 0.26206696 -0.12909138
0.0717307 -0.40193468 -0.12567449 0.20559104 0.09674498 -0.034206603 -0.072015285 -0.25503555
0.089688174 -0.05265222 -0.16350237 0.10173722 0.16362202 -0.20931591 -0.055283293 -0.2099984
-0.15149638 -0.10701145 -0.14147156 0.06389879 -0.26904416 -0.25939095 0.024843544 0.07376901
-0.025643181 -0.22019085 0.13984048 -0.121322565 -0.15095888 0.00936163 0.053280275 0.16811477
-0.010989593 0.054888073 -0.08095606 0.065089844 0.16058579 0.104807205 -0.16553095 -0.17279418
-0.2369023 -0.07147048 -0.09559257 0.21941186 -0.23352681 0.05152766 0.12548007 -0.032310914
-0.10049651 -0.149546 -0.009601051 -0.05964037 -0.07917023 0.20191193 -0.05357282 0.079115115
0.122580536 0.15041438 0.019920705 -0.00094751973 0.07435278 0.18579377 -0.22954609 -0.11925028
0.008636458 0.16315679 0.1546555 -0.17311789 -0.13255177 0.047072876 -0.16961855 0.03623254
0.31206045 0.14088508 -0.023665369 0.16335139 0.19421135 -0.169559 0.08880028 0.13822658
0.19916028 -0.15259305 0.058839377 0.18423489 0.09032545 -0.28833395 -0.02842934 0.08595882
-0.05738332 0.115197614 -0.10436038 -0.020191848 0.05540372 0.07262877 -0.14856601 -0.07437753
0.0074431673 -0.32911527 -0.05766759 0.19193754 0.13991809 0.15407541 -0.05979365 0.021525683
-0.102431 -0.12532525 -0.056907546 0.0154001145 -0.055189 0.19888842 0.13629583 0.15236318
0.102933824 0.0180928 0.16779518 -0.18420033 0.028272308 0.114778824 0.15221086 -0.2947996
0.14052112 -0.129269 -0.21757382 -0.09992541 -0.1842451 0.11458548 0.14775616 0.14524461
-0.21205251 -0.30770805 0.02649944 0.1614116 0.006342467 -0.1592423 -0.056780946 -0.21821105

lin2.weight f4 [256, 256]
00000000: 24c8 2bbc 7cfb a33c 7258 193c eda5 f93c
00000010: 7335 983c b5f0 61bd 7670 a43b a378 183c
00000020: c31d 1abc 0b32 70bc adfe eebc 506e 6dbc
00000030: 2a06 513d dd18 60bd a447 4e3d 0df6 8abd
00000040: 2ab9 173d 43a6 6ebc c2f3 9fbc 7c59 4b3c
00000050: a388 773d 7b61 843c 1427 7f3c 0c84 bf3c
00000060: c495 4ebd fd9a 8b3c 5cf6 26bc 50cf 90bd
00000070: fe55 a2bc fc5d 463d adfe 323d 9af8 66bd
00000080: b98f b23c d05a 91bb 4f94 f2bc 8dff d8bc
00000090: 9178 0b3d c223 ee3c 8c41 d23c 4755 2fbd
000000a0: a8fc 453b dda6 8cb9 a198 853d bf28 2ebd
000000b0: af4e e9bb 1842 393d a02e e93c acac 4cbd
000000c0: 46cc 3c3c bf7b 443d aa24 0dbd 04e7 373c
000000d0: 7e59 f53c e07c 97bd a17f b13c 755e 59bd
000000e0: 7e19 483d 2965 bfbc c3be a4bc da18 c93b
000000f0: 7ed5 73bd 48b1 243d 21cb d43c 98c7 5f3c
00000100: bf90 4abd bec5 bbbc da61 963c 1ff1 c8ba
00000110: 0fa7 75bd 32fd 21bd bf52 1fbb fbfd 1e3d
00000120: 605a 1abb 9f0d 1e3d bad2 463d 611f 2b3d
00000130: 885d 3c3c c21e 7fbd e979 0d3d 52ca 26bd
00000140: a3cd 423a baad e3bc 7174 f0bb 976a 8e3a
00000150: 3aff 8cbd 9061 253c 1bdf ff3c d0b0 87bd
00000160: 736d 29bd b04f 35bd da91 05bd 0a25 95bd
00000170: 2f2b 3bbd 016e c23c e77c cabc a3c3 a0bc
00000180: 910b 4bbc fa29 273d 53be ba3b 3c6b e8bc
00000190: db43 8cbc 246f 183d dfa4 f83c 277b d93c
000001a0: 240f 663c 08fa 91bc 4acf 003d 46f7 89bd
000001b0: 59ef 2abd 143f 9f3c de47 363d 4e12 41bd
000001c0: 03b1 e83c 26bd 2fbd 73f2 6fbd b8ba f7bc
000001d0: d14e 96bb 3290 183c d553 8bbc 580e 4e3d
000001e0: 30dd 14bd 1057 59bd 4594 833b 1b5d 59bd
000001f0: 9cd8 34bd 5222 723d 835a 95bc a2f8 8cbd
00000200: c000 f43b fcae 1abd 61d6 13bd 1698 4e3d
00000210: 1ccb 38bd 694d 33bd 53aa 2e3c 7e1f 0dbd
00000220: a6a2 4d3d b2bf 89bd 80e8 80bc d752 06bd
00000230: 1212 adbc ee9a 313d 49a4 13bb 344c 0cbc
00000240: a293 86bd ebd0 5dbd 441f 60bd 0d2e c73a
00000250: 0c6c aebc 36ba a2bd c60e 85bd 8f3b 7ebd
00000260: 2ab1 833c 663f 6f3c d8eb ee3c 2a70 133d
00000270: 336f 24bd 2d8b 5b3c 2ea3 57bd bee7 eebc
00000280: 4a4a f2bb ac05 debc c36c f2bc 77a0 91bd
00000290: cb28 33bd 0338 023d 459f 82bb a4bd 043d
000002a0: e160 4b3b c6b5 7d3d dd0d d23c 84bd 2f3c
000002b0: a05d 6cbd 3553 4dbc b69f 073d 333a 37bd
000002c0: 62bf 813c 8ecc 0a3c fc32 0cbd 1cd2 3d3d
000002d0: a42a 773a d385 643c a9e9 b8ba efc0 84bd
000002e0: 4368 22bd 1966 9ebd a0c2 f73c 5833 b43c
000002f0: 9175 7ebc a54a 5bbd d0ef 41bc 7aff 6e3b
00000300: 9253 e43c b28d 30bc 55ca 79bd c50e 92bc
00000310: 42ca 933c 35af dd3c b40f 0cbd 290a 3bbc
00000320: f891 43bd 23fb c5bc 4832 47bd 4ab7 793d
00000330: d2da 10bd ea22 a83d b609 8c3b 1b98 083d
00000340: 108d e4bb 85e4 013d e4f8 89bd 91a0 3b3d
00000350: 138a ebbc de86 0f3d aafa 523d d6a7 e03a
00000360: eaeb 02bd bd89 f23c bca7 33bc b62e 74bd
00000370: 9f1c ad3c 47cf 18bb 6196 613d 9960 003d
00000380: 03bf a8bd 56ec 88bd 5688 70bd 17f3 47bd
00000390: 2928 fabc 13aa f6bc 1b24 6bbd 4808 093c
000003a0: 4bed 183d 2248 03bd c14f 06bd 5ca0 2fbd
000003b0: 00ae 1b3d c100 323d fdd3 4c3d a019 b43c
000003c0: e26d 9cba f48f 90bd 8d50 41bb 4a0c 06bd
000003d0: 12b2 3f3d ae83 073c 2908 ae3c f623 31bd
000003e0: 8f40 bf3b df64 6e3c c68d 6a3c fd95 5dbd
000003f0: a3ea 54bd 3c8d 05bc c668 c7bb 5676 563c
-0.010484729 0.020017378 0.009359466 0.030474627 0.018580174 -0.055161197 0.005018289 0.009306106
-0.00940651 -0.014660369 -0.029174173 -0.014491633 0.05103127 -0.05471121 0.05036129 -0.06785212
0.03704182 -0.014566007 -0.019525412 0.012411471 0.06043304 0.016159764 0.015573282 0.023378395
-0.050435796 0.017041678 -0.010190573 -0.07070792 -0.019816395 0.048429474 0.04369991 -0.05638943
0.021797048 -0.0044358745 -0.029611735 -0.026489044 0.034050528 0.029069785 0.02566602 -0.042805936
0.003021041 -0.00026827204 0.06523252 -0.042519327 -0.0071199755 0.045229048 0.028464615 -0.04996936
0.011523312 0.047969576 -0.034458794 0.011224512 0.0299499 -0.07396865 0.021667304 -0.053068597
0.048852436 -0.023363667 -0.020110494 0.0061369957 -0.059529774 0.04020813 0.025975766 0.013658427
-0.049454447 -0.02292144 0.018357206 -0.0015330649 -0.059973773 -0.039548106 -0.0024310795 0.038816433
-0.0023552403 0.03858721 0.04854081 0.041777972 0.011496909 -0.062285192 0.03454009 -0.04072029
0.0007431155 -0.0277928 -0.0073380996 0.0010865506 -0.06884618 0.0100940615 0.031234315 -0.06625521
-0.041364145 -0.04426545 -0.032609798 -0.07282455 -0.04569548 0.023734095 -0.024717761 -0.019624537
-0.012392894 0.040811516 0.005698958 -0.028371446 -0.0171222 0.037215367 0.030352054 0.026547981
0.014041696 -0.01781942 0.031447686 -0.06736617 -0.041732166 0.019439258 0.04450213 -0.047136597
0.028404718 -0.042904995 -0.058580827 -0.030240402 -0.0045870324 0.009311723 -0.017007748 0.050306648
-0.036343753 -0.053061545 0.004015478 -0.053067308 -0.044151887 0.05911476 -0.018231636 -0.068833604
0.0074463785 -0.037764534 -0.03609312 0.05043801 -0.045115575 -0.043774996 0.010660726 -0.03445386
0.05020394 -0.06726016 -0.015735865 -0.032793846 -0.02112678 0.043360643 -0.0022528342 -0.00856309
-0.065711275 -0.054154318 -0.054717317 0.0015196219 -0.021291755 -0.07945673 -0.064969584 -0.06206852
0.01607569 0.014602518 0.029165193 0.03599564 -0.04014511 0.013399881 -0.052645855 -0.029163238
-0.00739411 -0.027102314 -0.029592877 -0.07110684 -0.043740075 0.0317917 -0.0039862716 0.032407418
0.0031033086 0.06194093 0.025641376 0.010726336 -0.057706475 -0.012532045 0.033111297 -0.044733237
0.015838329 0.008471621 -0.03422831 0.046342954 0.0009428656 0.013947922 -0.0014107722 -0.06482112
-0.039650213 -0.07734317 0.030244172 0.021997139 -0.01553096 -0.053537983 -0.011836961 0.0036468194
0.02787188 -0.01077597 -0.060983974 -0.017829308 0.01804078 0.027061084 -0.034194663 -0.011415997
-0.04774663 -0.024167603 -0.048631936 0.060965814 -0.035364933 0.08209784 0.0042736186 0.033348184
-0.006974824 0.031712074 -0.06736925 0.045807425 -0.028752362 0.03504073 0.051508583 0.0017139863
-0.031963266 0.029606694 -0.010965284 -0.05961486 0.021131812 -0.0023316906 0.055075053 0.031342123
-0.082395576 -0.066857025 -0.05872377 -0.048815813 -0.030536728 -0.030110395 -0.05740748 0.008363791
0.037335675 -0.032051213 -0.032790903 -0.04287754 0.038007736 0.04345775 0.050006855 0.021984875
-0.0011934603 -0.07058707 -0.0029497475 -0.032726564 0.04680068 0.008271141 0.021244125 -0.043247186
0.0058365534 0.014550417 0.014316028 -0.054098118 -0.05198158 -0.008151349 -0.006085488 0.013089737

lin2.bias f4 [256]
00000000: 300d 1b3d bbf3 dd3c 062f 41bd c96e 003c
00000010: a963 613d 00ae e938 67cf 3b3d 6085 c23b
00000020: 503b 8ab7 8a17 e83d b192 acbd 0218 6c3d
00000030: 5ab1 003d 963a 213d cca6 36bd a087 0bba
00000040: 9da9 c13d d56b c43c 1b35 5abd f495 3b3c
00000050: ddab 61bd 20df 453d 308c b23d 5c44 c03d
00000060: 38b2 0dbd ba0e 103d 5003 26bd 237c 84bc
00000070: 4a0e 44bd c3f3 c93c 4ed9 91bc 9a3f 0fbd
00000080: 00b7 87bd 426f 323d 0368 883c 422d 6cbd
00000090: 4573 403d 3933 5c3b 0b15 783d 0f05 093e
000000a0: f915 353d e9fe 603c 797f 10bc b003 7ebd
000000b0: e454 04bd 95b9 86bd edc8 d6bb 77df 89bc
000000c0: 6d43 163e 66e2 2f3d b1d5 80bd b51a 013d
000000d0: 7f19 a23c b18b c3ba f17d 1d3d 11d4 ad3d
000000e0: 73c9 edbb 8c73 87bc 00b8 88bc a679 2dbd
000000f0: 880a 493d f21b 193d 8c8c 883d 6e1a a53c
00000100: 10c4 443d 76c4 4a3c e209 9fbc bac8 fabc
00000110: 4044 8e3d d8df d23c a519 9cbd e0d2 e0bc
00000120: fe9b 42bd 81ac 0e3d 5c01 333d f952 28bd
00000130: c6ad 64bd 574e 22bd 3bc7 c9bc aa8f 473d
00000140: cd49 033d d550 123b e877 c1bd e665 47bd
00000150: 91a4 69bd ffab 203d e371 163d b4e1 e139
00000160: c114 a0bd d28f a9bc c93d 263d a9f2 863c
00000170: 9a0b c1bc 7c0e 88bc 2220 0bbd 08e1 1d3c
00000180: 1414 763c 8189 153d 4aed 433d 5bd4 70bd
00000190: 950d ebbc 1b7e 9ebc aa7d 2dbc 2320 f03b
000001a0: f064 6ebd f6e3 89bd 2949 46bd 9d25 56bd
000001b0: ce38 30bd 3bed 553d 1c58 b03c abde aa3c
000001c0: ff3e 883c 11a3 92bc 1bc1 293d 728c 4dbd
000001d0: af92 04bc 371e ae3d a640 88bd f4f5 5cbd
000001e0: 82ec 2c3d ba2e 6bbd 391a 8a3c 1765 6abd
000001f0: b194 c73c e1a3 b2bc 94ac 33bd 893b 43bd
00000200: 2a12 d839 fd19 203c c1f3 c43d 5212 2e3d
00000210: 5f2b 343c 2108 003d 5ba4 fd3c 1b1b 583e
00000220: f84f 273c 7344 6e3c 14e5 27bd f740 9bbd
00000230: 003b fcbc 22b0 30bc 0c78 bb3c 4f07 36bd
00000240: 70ed e7bb 832d 443d 8fc8 c23b 6ede dabc
00000250: 94d4 55bd 7ac1 0a3d 4938 473c ce62 88bd
00000260: 2d43 28bc a670 503d e6d6 7dbd b2ab 823c
00000270: bd6e 5b3d de22 f63b b785 233c 6a64 153d
00000280: 4b26 d43c 7f7b 713d 6a4c 65bd 1dfa 0abe
00000290: 98ea 03be 2d99 d3ba 0ffb 81bd 616a 9e3c
000002a0: 79b2 9e3d 0683 0dbd 242d fabc 688e b93b
000002b0: c17c 873b 5490 1c3d ecd4 3bbc 92fc 313d
000002c0: 788f 14bd 79b3 6ebd c82b 6fbc e28a 80bd
000002d0: 0ad7 4bbd ad3f cdbc 89c5 963c 4ac9 75bd
000002e0: 5fae fc3b caaa 19bc 16af cfbc 0914 9dbd
000002f0: 9517 333d 2dbb a6bc 7c68 323d 8628 313d
00000300: c206 143d 4073 3fbd 3504 d0bc ef7f 27bd
00000310: b9a3 99bc ed20 9e3c 64cf 383d 80bf 97bc
00000320: 394b ee3c 6923 dfbc bc69 72bd d0bb c63c
00000330: 0164 cfbc c855 57bc 8b3b 21bd c55b 683d
00000340: a19f cfbc 88e0 87bd b9fd b13c 8d4e 283d
00000350: 6207 81bd 8821 4dbc 7d96 cb3c 7df5 66bd
00000360: 567b b7bc 8454 f83c a0cf 893c b442 b4bc
00000370: bfc7 493c c9a7 6dbd 1e55 eeba 78f0 11bd
00000380: 8e0d 2a3c a0d3 81bd 6b57 223d 6875 213d
00000390: 6b6c 2f3d fc60 7ebc 715d 1cbd 1e46 03bd
000003a0: 7115 9a3c 40f5 283d 3f3f dd3c 9373 f3bb
000003b0: 74f4 523d 4f32 813d 70ed 7cbc 153e 2f3c
000003c0: db14 62bd 00ed 843c ae16 133b f706 ebbc
000003d0: e72f 78bd 4406 013b c024 223d 99bb 4d3d
000003e0: 3075 07bd 0f32 42bd 4884 213d cbd6 26bd
000003f0: 4fe9 20bc 28c3 38bc 76f4 543d 2ef7 ffbc
0.037854373 0.027093759 -0.047163986 0.007838913 0.055026684 0.00011142716 0.04585209 0.0059363097
-1.6478501e-05 0.11332615 -0.08426417 0.057640083 0.031419136 0.039362513 -0.044592664 -0.0005322639
0.09456179 0.0239772 -0.0532733 0.011449326 -0.055095542 0.04830849 0.08718145 0.093880385
-0.03459379 0.035170294 -0.040530503 -0.016172474 -0.04786519 0.024652367 -0.017803814 -0.034972765
-0.06626701 0.043563135 0.01665116 -0.05766035 0.04698493 0.0033599867 0.060566943 0.13380836
0.044210408 0.01373265 -0.008819454 -0.062015235 -0.03230752 -0.06578366 -0.006554714 -0.01683019
0.14674158 0.04294052 -0.062907584 0.03151961 0.019787548 -0.0014918951 0.038450185 0.08487714
-0.0072566806 -0.01653459 -0.0166893 -0.04235234 0.04908231 0.037380166 0.06667432 0.020154204
0.048038542 0.0123759415 -0.019413892 -0.030613292 0.069466114 0.025741503 -0.07622079 -0.027444303
-0.047512047 0.03483248 0.04370247 -0.041094754 -0.055829786 -0.039625492 -0.024631133 0.048720993
0.032052804 0.0022326012 -0.094466984 -0.048681162 -0.05704171 0.03922653 0.036729705 0.00043083506
-0.078164585 -0.020698462 0.040586267 0.016473131 -0.023565102 -0.01660847 -0.03396619 0.009636171
0.015019435 0.036508087 0.04783372 -0.058796268 -0.028693 -0.019347241 -0.010589043 0.0073280497
-0.05820173 -0.06732933 -0.048409615 -0.052281965 -0.043022923 0.052228194 0.021526389 0.02085813
0.016631601 -0.017900022 0.041443925 -0.050182767 -0.008091613 0.08501857 -0.06652956 -0.053945497
0.04221774 -0.05741761 0.016858207 -0.057225313 0.024362894 -0.02180666 -0.043865755 -0.0476642
0.00041212264 0.009771821 0.09616805 0.04249794 0.010996669 0.031257752 0.03096216 0.2110409
0.010211937 0.014542687 -0.04098995 -0.075807504 -0.030789852 -0.010784181 0.022884391 -0.044440564
-0.0070778653 0.047894966 0.0059443186 -0.02671739 -0.052204683 0.03387592 0.0121594155 -0.066594705
-0.010269922 0.05088868 -0.06197252 0.015951011 0.053572405 0.0075114807 0.009980611 0.036472715
0.025897166 0.058955666 -0.055981077 -0.13571973 -0.12882459 -0.0016143672 -0.06346714 0.019337835
0.07748885 -0.03454878 -0.030539103 0.005662728 0.004134745 0.03822358 -0.011464339 0.04345376
-0.036269635 -0.058276627 -0.014597841 -0.0627649 -0.049765624 -0.025054777 0.018404739 -0.060006417
0.0077112163 -0.009379098 -0.025352042 -0.07669837 0.04372366 -0.020352924 0.043556675 0.043251537
0.036139257 -0.04674077 -0.025392631 -0.04089349 -0.018754827 0.01930281 0.045119658 -0.018523932
0.029088603 -0.027238565 -0.059182867 0.024259478 -0.02531624 -0.01314301 -0.039363425 0.056728143
-0.025344672 -0.06634623 0.02172743 0.041090537 -0.06300236 -0.0125202015 0.024852032 -0.05638646
-0.022397678 0.030313738 0.016822636 -0.022004463 0.01231569 -0.05802134 -0.0018183326 -0.03562972
0.010379208 -0.063391924 0.03963415 0.039418608 0.042828005 -0.015526053 -0.03817505 -0.03204929
0.018809052 0.041249514 0.027007697 -0.007429549 0.05150266 0.06308424 -0.015437469 0.010695954
-0.05519567 0.016226292 0.0022443938 -0.028689845 -0.06059256 0.0019687572 0.03958583 0.050227735
-0.033070743 -0.04741102 0.039432794 -0.040732186 -0.00982125 -0.011276998 0.05199095 -0.031245794

lin3.weight f4 [128, 256]
00000000: 2c5a 313d a84f 2b3d 78a3 113d ba49 853b
00000010: a3c4 72bd 6aba 3f3d 0443 0a3d 2e2a 62bd
00000020: 8f3c 8cbd bdc0 34bd 5041 333c 54c2 65bd
00000030: 26bd fa3c ebd3 313c 2a28 4c3d 2e40 383d
00000040: 71e4 24bd 6087 74bd 5a7c 92bc 02bb 11bd
00000050: 1580 f43c 934c c7bc ec3b 5a3d a8f8 3bbc
00000060: 78ce 12bc 685d 5d3d cdd0 45bd 20fd a7bb
00000070: 403f f9bc fbac a63c 3d0a 24bc 6295 afbc
00000080: e753 9f3c ccf4 fb3c 60c9 e93b 3fea 33bd
00000090: fa79 543c 4f22 5b3d baa9 69bd 84e5 343d
000000a0: ec2a 4a3d b422 9ebd 8a3e cb3c cc79 3e3d
000000b0: 6146 383d faa8 ee3c efa3 043d d6d3 57bd
000000c0: a3d4 4abd 7071 91bc a81e 83bd 03dc adba
000000d0: 72e6 59bd b437 9f3c e497 28bd d572 17bc
000000e0: 06e5 473c a049 453d 04e7 593d 9d59 523d
000000f0: 2a71 243d fde4 83bd be5f 4bbc 1e68 203d
00000100: 00e7 7dba a8af 6ebd 7a6a 6fbd ba89 f93c
00000110: 605e 65bd 8b30 9a3c fcda ccbc bac1 043d
00000120: dc87 123d 38f9 b53b e6b4 72bd 5147 d9bc
00000130: 362e 213d 281c debc 3810 23bd 81f9 433c
00000140: bda4 4bbd 86a0 14bd aabc b3bc f8f4 ddbc
00000150: c811 59bd 3b7e 193d 8563 313d 6b03 26bd
00000160: 7217 7cbd 4ad5 073d 50da 033d 7812 aa3c
00000170: e075 ff3c f1b0 0dbd 30cc 973b 428d fabc
00000180: 04dc 223d 95df cd3b 80c2 62ba 9f85 6ebc
00000190: edca 3d3d 85e3 fe3c bce1 f2bc 57a3 bc3c
000001a0: dae6 3f3d 71a0 8bbd cad0 34bd 1289 373d
000001b0: 0fa5 7dbc ee85 0fbd 771d d1bb ce91 89bd
000001c0: b901 d9bc cf5d 53bd 92a9 27bd f365 3cbb
000001d0: aa57 eabc 21c1 f33c e761 d23c df0d afbd
000001e0: 8952 293b cfe4 b93c f030 97bb 8f45 81bc
000001f0: 4b25 7dbc 48a0 a4bc 5228 013d 43a8 31bd
00000200: 486b 9bbc f17b 9dbc f458 79bd fc3b 2abd
00000210: ba72 0bbd 2bd1 c3bc 130e ee3c b123 e23b
00000220: 4c6f d5bc d4e1 6abd 4c47 cf3c fa06 5e3d
00000230: 6acc 423d d8d7 31bc 5918 5abd fef1 cb3a
00000240: 5caa 8cbc 0dbe 23bd 20dc f13b 580e 7c3c
00000250: 8058 75ba 3e70 0fbd 7aa9 fa3c 20a2 ae3c
00000260: 48d7 5bbd 3715 113d 7ada f7bc 4e38 b63c
00000270: b8a7 e4bc 0a98 4d3d 685c 6fbd 206a 643c
00000280: 911b 90bc 035a 103c 1874 fdbc f947 143d
00000290: c638 79bd ea6c 493a 2793 67bd 2a4f 20bd
000002a0: aeb8 a6bb 40e9 dd3a 1fea 5abd 1a38 ba3b
000002b0: f6fb 783d 2b89 8cbd 6620 26bd d94a bcbb
000002c0: b1af 2ebd b855 093c 39b4 ae3b f9da d43c
000002d0: 1ba2 28bd a6c4 78bd a0da 2a3d 0c37 d2ba
000002e0: 344d 26bd be32 39bc 3a9e 353c 2971 81bd
000002f0: 72c4 32bd b139 983c d6f4 b9bc 7c90 c2bc
00000300: b70c 5a3c 8c1f aa3c 5c37 35bd ebc7 ee3c
00000310: b19c 5e3d a015 503d 82a4 d3bc b47d 373d
00000320: 1046 a93c fadc a13b 71e8 04bd a0ab 6c3d
00000330: bdfa 53bc e9bc c9bc d723 7e39 cb0d d6bb
00000340: b984 ce3c fcf9 3cbd cc59 923c 40df 203b
00000350: 407f 203d 9785 d33c 539e 5f3d 1239 193d
00000360: d015 4b3d f76b 0b3b 07cd 34bd 184d ba3c
00000370: fb47 86bc bee3 123d 73ee 07bd 00fa 523b
00000380: 3d0a 12bd 9878 48bc 6be6 9a3c 55f5 6fbc
00000390: 6038 eebc 6b7b ec3b d091 5fbc bef2 1dbc
000003a0: d44e 623d 70a5 60bd 907d 44bd 9e5c 07ba
000003b0: b8d6 05bc 28ed f9bb e4b5 223d 2078 a03b
000003c0: 5033 bdbb 6030 343d 3f40 82bd efa7 89bd
000003d0: ef89 aabb 35cc d4bc a006 263d 5b79 f33c
000003e0: 00a3 dbbc a2a9 043d 4026 053d 4328 403d
000003f0: 6406 113d ca8c 08bd 7427 5abc 970c 27bb
0.043298885 0.041824013 0.035556287 0.004067627 -0.05926956 0.046808638 0.033755317 -0.055216007
-0.06847488 -0.044129122 0.010940865 -0.05609353 0.030607771 0.010853748 0.04984299 0.04498308
-0.04025692 -0.059699416 -0.017881561 -0.035578735 0.02984623 -0.024328506 0.053279802 -0.0114728585
-0.008960359 0.054044157 -0.04829483 -0.0051266104 -0.030425668 0.020346155 -0.010012207 -0.021433536
0.019449187 0.030756377 0.0071346015 -0.043924566 0.012968535 0.053499516 -0.05704663 0.044164196
0.04935734 -0.07721463 0.024810094 0.046502873 0.044988994 0.029133309 0.0323829 -0.052692257
-0.049519192 -0.017754287 -0.064023316 -0.0013264421 -0.053198285 0.019435741 -0.04116048 -0.009243687
0.0122006 0.048165917 0.05319883 0.051354993 0.040146984 -0.064401604 -0.012412963 0.039161794
-0.0009685606 -0.058272988 -0.058451153 0.030461181 -0.055998206 0.018821975 -0.025006764 0.032411315
0.035774097 0.005553391 -0.05925455 -0.026523264 0.03935071 -0.027113035 -0.03981039 0.011961342
-0.049717654 -0.0362859 -0.021940548 -0.02709435 -0.052995473 0.0374739 0.0433078 -0.040530603
-0.061545797 0.033162393 0.03219062 0.02076076 0.031184137 -0.034592573 0.0046324953 -0.030584935
0.039760605 0.0062827566 -0.00086501986 -0.014558225 0.046336103 0.03111435 -0.029648654 0.023027105
0.046851017 -0.06817711 -0.04414443 0.044808455 -0.015481248 -0.035039835 -0.0063816863 -0.06717263
-0.02649008 -0.051603135 -0.0409332 -0.002874729 -0.028606255 0.029755177 0.02568145 -0.085475676
0.0025836548 0.022692112 -0.004613988 -0.015780238 -0.015450786 -0.02009596 0.031532593 -0.043373358
-0.018972054 -0.019224139 -0.060875848 -0.04156111 -0.03404496 -0.02390345 0.029059445 0.0069012274
-0.026054047 -0.057344273 0.025302552 0.054205872 0.047558226 -0.010854684 -0.053245876 0.001555979
-0.017171077 -0.03997617 0.0073809773 0.015384279 -0.0009359196 -0.035019152 0.03059839 0.021317542
-0.053672105 0.035420623 -0.030255545 0.022243645 -0.027912006 0.050193824 -0.058437735 0.013941318
-0.01759127 0.008810523 -0.030939147 0.03620145 -0.06084516 0.0007683771 -0.05653682 -0.039137997
-0.0050879335 0.0016930476 -0.05344593 0.0056829574 0.060787164 -0.068621 -0.04055824 -0.005746227
-0.04264802 0.008382253 0.005331543 0.02598332 -0.04117022 -0.060734414 0.041712403 -0.0016038134
-0.04060097 -0.011303602 0.011085087 -0.06320412 -0.043644376 0.018582197 -0.022699755 -0.023750536
0.0133086955 0.020766996 -0.044242248 0.029148063 0.05434865 0.050801873 -0.02583528 0.044797614
0.020663291 0.0049396725 -0.032448236 0.05778086 -0.012938199 -0.024626212 0.00024236679 -0.006532406
0.025209771 -0.04613684 0.017865084 0.002454713 0.039183855 0.025820537 0.05459435 0.037407942
0.04958135 0.002127407 -0.04414084 0.02274184 -0.016391745 0.035861723 -0.033186387 0.0032192469
-0.035654295 -0.012235783 0.0189087 -0.014645894 -0.029079616 0.007216861 -0.013645604 -0.009640394
0.055250958 -0.054845273 -0.04797131 -0.00051636423 -0.008168869 -0.007627148 0.039724246 0.0048971325
-0.005773939 0.043991446 -0.0635991 -0.06721484 -0.0052044312 -0.02597628 0.04053366 0.029720953
-0.026811123 0.032388337 0.03250718 0.046913397 0.035406485 -0.033337392 -0.01331507 -0.0025489682

lin3.bias f4 [128]
00000000: fa7f a9bd e2c3 173c 8836 71bd 1e36 d7bc
00000010: b6af 89bc d3fa 24bd 98e9 633d ca70 263d
00000020: 0f43 323c 6511 b3bd 857c 82bd 6f51 5cbd
00000030: 988d d7bc ae0b 0c3c 4555 b2bb c219 a1bd
00000040: 7928 8b3c 0753 93bc 5c22 a7bd 9741 4cbc
00000050: 2178 943a 5b27 7fbd c7bf 69bd 3417 db3d
00000060: b6ce 93bc c68a fe3d d31d 033e 0fe8 80bd
00000070: 6ed6 543d 2eea 4abd 3496 a6bd 74b4 3fbd
00000080: 3eae 013d 4257 133d e091 46bd c832 b4bd
00000090: a569 ab3e e40a c23d b740 003d 9acc 2d3e
000000a0: 9e7f 83bd ea34 dd3c c256 533d 06f0 033c
000000b0: d7a3 86bd 0f58 96bd c752 523e 95cb 9fbd
000000c0: 9b00 d8bc eea0 f1bc 13d4 4abd 161e 0a3d
000000d0: 04fe 08bc 1c9e 80bd 3d67 033d ce85 c93c
000000e0: 6cf6 53bd a737 7dbd c288 f2bc 67da 1dbd
000000f0: befc 14bd c85c 9dbc 5c20 413d 3b07 43bd
00000100: d74a 4f3c f5c5 de3a a521 a53d e782 37bc
00000110: 4cf9 be3d 1198 aa3d 0da0 203d 61b2 363c
00000120: 5692 9f3a bc8e 45bd ceca 663c a44c 77bd
00000130: 922f 8f3c b0f8 5fbd d038 19bc f791 a53a
00000140: 92f2 1fbd 0f40 c43c 4f28 6fbd 03a8 313d
00000150: f5bb c13c de9e 10bc 0780 20bd c2e6 de3c
00000160: 95db df3c 55ec 43bd 4c63 3ebd 45ae d0bc
00000170: d696 303d 266f d4bc c674 833c 1b4f e1bc
00000180: f7dc 263d 501e 0a3d c7e8 42bc cf2f fe3c
00000190: 66bc 8cbd 7180 10bd f9ea 343c 3dd1 08bd
000001a0: 9b58 94bd cb44 8ebc 9c76 4ebd 8a5c 733c
000001b0: e15c c7bd 53ae e5bb f32e 23bd a6e2 61bd
000001c0: 99fb e13c 5240 46bc 09e7 6c3d 8acb 2cbd
000001d0: 66c2 45bd 9738 363d aee6 36bd ba77 85bc
000001e0: 5d8a 0c3c bda4 82bd 333d c43c 3829 ff3c
000001f0: 89ef 10bd 65a6 3c3d 7d1a 3f3d a072 623c
-0.08276363 0.009263011 -0.058889896 -0.026270922 -0.016807418 -0.040278267 0.055642694 0.040634908
0.010880246 -0.08743552 -0.063714065 -0.0537886 -0.026312634 0.0085477065 -0.005442294 -0.07866241
0.016987072 -0.017983926 -0.081608504 -0.01246681 0.0011327305 -0.06229339 -0.05706766 0.10697785
-0.018042903 0.12428813 0.12804346 -0.06294262 0.05196231 -0.049539737 -0.08134118 -0.046802953
0.03166031 0.035971887 -0.04847896 -0.08798748 0.33479038 0.094747335 0.031311717 0.1697258
-0.064208254 0.02700277 0.05159641 0.0080528315 -0.06574219 -0.073410146 0.2053939 -0.07802502
-0.026367476 -0.029495683 -0.049518656 0.0337201 -0.008361343 -0.06280157 0.032080878 0.024599936
-0.051748678 -0.061820652 -0.029606227 -0.038538363 -0.036373846 -0.01920928 0.04715 -0.047614317
0.012652121 0.0016996252 0.08063058 -0.011200643 0.09324893 0.083297856 0.039215136 0.011150927
0.0012174349 -0.048231825 0.014086438 -0.060375825 0.017478738 -0.054680526 -0.009351924 0.0012632002
-0.039049692 0.023956327 -0.05838805 0.04337312 0.023649195 -0.008826939 -0.039184596 0.027209643
0.027326385 -0.047832806 -0.046481416 -0.025473723 0.0431126 -0.025931906 0.016046893 -0.02750354
0.040738072 0.033720315 -0.011896319 0.031028656 -0.06871872 -0.03527874 0.01104235 -0.03340267
-0.07243463 -0.017366787 -0.050406083 0.014853606 -0.09734512 -0.0070093065 -0.039839696 -0.05514779
0.027585791 -0.012100296 0.05783752 -0.042186297 -0.048281096 0.044487562 -0.044653587 -0.016292442
0.00857791 -0.063790776 0.023954963 0.031147584 -0.03538469 0.046057124 0.04665612 0.013821274

lin4.weight f4 [64, 128]
00000000: 4701 993d 3cb7 36bd 9c47 f53c 945f 463d
00000010: cc68 6d3d e795 853d 580d 833d 8771 a93d
00000020: d8cb 223c e18f c8bd 3efc 5c3d 0e54 9d3d
00000030: b4ca 91bd 189a b03d 8ce2 4ebd a518 063d
00000040: ef1f 763d 25d1 cb3c e8c9 dd3c e26a 7a3d
00000050: 916c babd ca73 983d 6f07 4dbd 4ae8 29bd
00000060: 2bb7 693c 2ade bfbd e481 2bbe 822d 15bc
00000070: b8c7 543d 263b 6d3d a1d2 0f3d e98f a7bc
00000080: e8bb 8e3d 807d a43d 2acf ab3d ebc0 adbd
00000090: c7fb 2e3c 35e2 03be 3cb5 8bbd 65da 17bb
000000a0: 5e30 96bd 1fa9 82bd 6654 d13d e4bd 6e3d
000000b0: 4442 2b3d 2373 733d a0d7 bb3d 6013 243d
000000c0: 590e 3dbd db77 743c 86db 9e3d ad91 97bd
000000d0: 7ff6 14bc 7aa9 86bb 555a 83bd 4a69 2d3d
000000e0: b07a 9cbd 50f2 dc3c aaa7 60bd 5d46 9f3c
000000f0: afce 1c3c b5b0 553d 3c2d be3c 1b80 59bc
00000100: 9d82 5ebd 4b3b 753d ce2f 4bbd ad66 03bd
00000110: 07a9 1cbd 72c4 ea3c a2b2 3e3c b648 c03c
00000120: 50be 50bd a554 1cbd 09da 97bc a52d a5bd
00000130: 35d3 f03c 8cf6 8f3d 5d37 62bc 33b1 7c3d
00000140: c1c8 c1bd dfda 903b 68fe 153d 4231 363c
00000150: 20c5 3fbd 82e3 79bd 07e9 0a3d 1973 67bd
00000160: 22ea af3d 6fb4 91bd 4deb 8cbd 4c76 febd
00000170: 02e0 903d 04bb 3cbe b5c4 78bd 0a98 5abd
00000180: 78c3 b0bd ac0e 70bc 2aaa 74bd 1ba8 9fbd
00000190: 5696 003d 14ae 89bd 30cc 0abd fedd 5c3c
000001a0: b155 7abd eeb2 8bbc dc18 14bc 0364 c03c
000001b0: 84d3 8c3c 7b6e f33c d342 11b9 0829 3a3d
000001c0: 43b0 953c a834 9c3d 3f3f 503d 3167 babc
000001d0: 0d2c e53c 7cb9 84bd 55d9 553d 8b90 b5b9
000001e0: 3c9f bcbc 7983 633d c933 aabd 2077 a53d
000001f0: 538d 353d f098 a1bc 24dd d9bc ef6b 953d
00000200: fcd6 323d 18c3 6bbd e72e 90bc 4146 6cbd
00000210: 7370 033b 178e 33bd f368 9fbd d2c4 923d
00000220: 42c9 aa3b 259b f13c fbda 2b3c f822 c63c
00000230: 30c8 e2bc 8c79 183e 571e f63b cd12 293d
00000240: 5254 3d3b d571 cabd 84e7 eb3c 7131 283c
00000250: 45e1 23bd 3764 7dbb 7470 c43c 2796 2cbd
00000260: bd3f c13c cbe1 963d eaab c1bd c908 8c3d
00000270: 4711 41bd 507e e73c 764b b43d 8c15 e13d
00000280: 95f1 d83d 3137 95bb 1346 843c 1591 c2bd
00000290: cec6 853d 48b0 7c3d aa5f 3c3d 9b16 95bd
000002a0: fd51 463d fc30 febc 11d9 4fbd 4047 47bd
000002b0: 01f9 68bd 1a75 78bd 2ddb 213d ad47 9bbc
000002c0: 5fa0 7ebc 3db9 b53c 0fa8 5bbc 5913 a5bd
000002d0: 34ae b8bd 9f03 85bd 1e8e b63c 2211 653d
000002e0: ac18 0d3d 90f5 bbbc 1057 8c3d 2f06 1e3d
000002f0: d1d2 97bc d2f2 323c 8405 dc3c ce54 793d
00000300: c31e 7bbb 6862 91bd 0a8e 873d d301 3f3c
00000310: d497 4dbd 983d 3abb 5f47 4f3d 5153 50bd
00000320: 17eb 88bd 1b17 443c 3ce9 32bd e7a5 363d
00000330: 3147 023b 3dab 1bbd 7c1c 8abd 40dc 7cbc
00000340: 1f26 41bd 57ba fe3c 8e93 a4bd 2285 013d
00000350: a18f 78bd f7c9 693d e5fa acbd c967 db3c
00000360: e959 41bd 527a 833d df45 4a3d 562e 553d
00000370: 0ec2 833d f332 e239 11c7 69bd 05a4 f93c
00000380: f24b 9ebc 8325 f83c 728c 94ba c07e 39bd
00000390: 0bee 89bd e0ab 86bc e95d d83b d6ac f73c
000003a0: 445b 9abd 0d79 76bc 6e54 8a3d 129f 9d3d
000003b0: 6fc8 9e3d 7441 7c3b 7262 823d 24e6 863d
000003c0: 9799 37be c783 733d d0b1 793d 624d 7f3d
000003d0: 7162 86bd 00e0 03bc bfea 2bbd 48ef 253d
000003e0: 5f00 53bd e3a1 c8bc 9f15 3d3d 520c e2bc
000003f0: 92fd 0b3d c9b2 07be 034e 843d 5b1d 60bc
0.07470947 -0.04460834 0.029941373 0.048430994 0.05796127 0.06522732 0.063990295 0.08273607
0.009936295 -0.09793068 0.053951494 0.07682048 -0.07118741 0.08623141 -0.05050902 0.032738347
0.060089048 0.024880001 0.027073815 0.061137088 -0.09102739 0.0744396 -0.050055917 -0.041481294
0.014264862 -0.09368546 -0.16748768 -0.009105088 0.05194828 0.057917736 0.03511298 -0.020454364
0.06969434 0.0803175 0.08389123 -0.08484062 0.010680146 -0.1287926 -0.06821677 -0.0023170945
-0.07333444 -0.063799135 0.10221176 0.058286563 0.041811243 0.059435975 0.091719866 0.04005754
-0.04615626 0.014921154 0.077567145 -0.07400832 -0.009091972 -0.0041095586 -0.06413714 0.04233674
-0.07640588 0.026971012 -0.054847397 0.019442732 0.009570762 0.052170474 0.023214929 -0.013275172
-0.05432378 0.059871 -0.049606137 -0.03208034 -0.038247135 0.028658126 0.011639269 0.023472171
-0.050962746 -0.03816666 -0.018536584 -0.08065347 0.029397586 0.07029447 -0.013807145 0.061692428
-0.09462119 0.0044206227 0.036619574 0.011120142 -0.046818852 -0.061007984 0.03391364 -0.05650625
0.08589579 -0.07114493 -0.068808176 -0.12424907 0.07073976 -0.18430716 -0.06073447 -0.053367652
-0.08631033 -0.014651936 -0.059732594 -0.077957354 0.03139337 -0.06722656 -0.033886135 0.013480661
-0.061116878 -0.017053094 -0.00903913 0.02348519 0.017190702 0.029715767 -0.00013853172 0.045449287
0.018272525 0.07627231 0.050841566 -0.022754284 0.027975107 -0.06480691 0.052209217 -0.00034630703
-0.023025148 0.055545304 -0.083106585 0.08079362 0.04432423 -0.019726247 -0.026594706 0.07295977
0.043662056 -0.057559103 -0.01760049 -0.057684187 0.0020056039 -0.04383668 -0.07783689 0.07166447
0.00521198 0.029492924 0.010489221 0.024186596 -0.027683347 0.14890116 0.007510941 0.041277695
0.002888937 -0.09884993 0.028796919 0.010265694 -0.040009756 -0.003866447 0.023979403 -0.042135384
0.023589963 0.07367285 -0.09456618 0.06837613 -0.047135618 0.028258473 0.088034555 0.10990438
0.10592953 -0.0045536985 0.016146695 -0.095003285 0.065320596 0.061691552 0.04598967 -0.07279702
0.048418034 -0.031029217 -0.05074412 -0.048651934 -0.056878094 -0.06065855 0.039515663 -0.018955076
-0.015541165 0.022183055 -0.0134067675 -0.08060331 -0.090176016 -0.06494831 0.022284564 0.055924542
0.034447357 -0.022944242 0.06852543 0.038580116 -0.018533142 0.010922151 0.026858099 0.06087189
-0.0038317896 -0.07098848 0.06618889 0.01165815 -0.050193623 -0.002841806 0.050605174 -0.050860707
-0.06685465 0.011968399 -0.04367946 0.04459181 0.001987886 -0.038005102 -0.06743714 -0.015433371
-0.047155496 0.031094713 -0.08035956 0.031621106 -0.06068385 0.057077374 -0.08446292 0.026782887
-0.047204886 0.06419815 0.04938304 0.052046143 0.06433497 0.0004314404 -0.05707461 0.030473718
-0.019323323 0.030291324 -0.001133336 -0.045286894 -0.06734856 -0.016439378 0.006602992 0.030233782
-0.07536939 -0.015043509 0.06754385 0.07696356 0.077530734 0.0038491162 0.06366433 0.065868646
-0.17929684 0.059451845 0.06096059 0.062329657 -0.06561745 -0.008049011 -0.04197192 0.0405114
-0.051514026 -0.024491256 0.046163198 -0.027593765 0.03417737 -0.13251795 0.06460192 -0.013678874

lin4.bias f4 [64]
00000000: 2e8d 57bc de64 883b 86cc 453d 07f6 3abd
00000010: dcd9 4e3c 6194 283c 4116 ac3c 6cdd d7bc
00000020: ddb6 93bd 3487 8d3c 49f7 573d 4788 a33c
00000030: 6ec3 82bd 38e0 9a3c acd6 4a3d 5302 3a3c
00000040: 368f 84bc 2db9 01bc 4fee 733d a3e4 993d
00000050: b626 62bd ddd4 513d 0650 2dbd 979d 973d
00000060: b98d 783d 0ca5 2abd 7848 2a3d 4c02 4f3d
00000070: d369 cd3c 898a 753d c40e 56bd f956 10bd
00000080: 7205 6ebc 00bc 50bd 3f3c 02bd 9136 b63d
00000090: 3f76 f53c 410a 973d f1c7 543d d0f0 683d
000000a0: 678d 01bd d49b 46bd 246c 333d 65f4 793d
000000b0: 7782 f03d cd58 33bd 544d 503d 2f56 d03d
000000c0: 0614 96bc 97db a5bd 97f5 99bc dccc a2bc
000000d0: 5e43 973d 42f9 c33c 7bed ee3b 7821 cbbc
000000e0: babd 57bd 3bc7 40bd d571 7dbc 4a81 c43b
000000f0: ad91 943a 73e7 8d3c 4e26 403d f55e 203c
-0.013156218 0.004162415 0.048290752 -0.045644786 0.012625184 0.010289283 0.021006705 -0.0263507
-0.07212613 0.017276384 0.052726064 0.019962443 -0.063849315 0.018905744 0.049521133 0.011353093
-0.01618157 -0.0079176845 0.05955344 0.07514312 -0.0552127 0.051228393 -0.042312644 0.07403105
0.060682032 -0.041661307 0.041573018 0.0505393 0.025074875 0.05994657 -0.052260175 -0.035239194
-0.014527665 -0.05096054 -0.031795736 0.088971265 0.02996361 0.07375003 0.05194849 0.05687028
-0.031628992 -0.048488453 0.043804303 0.06102409 0.11743634 -0.04378586 0.050854996 0.10172688
-0.018320095 -0.08098524 -0.018793864 -0.019873075 0.07385896 0.023922566 0.0072914935 -0.024796233
-0.05267117 -0.047065 -0.015469034 0.005996858 0.0011334919 0.017322278 0.04691153 0.0097882645

lin5.weight f4 [16, 64]
00000000: 1d58 8fbd a17d e4bc 9539 b93d 561d 8c3c
00000010: 66d6 8abd 2cfc a8bc 1e2a 54bd b9b7 983d
00000020: efad 703d 819f 493d 3749 8bbd f1ba 50bc
00000030: c567 b0bd cd8a acbd 5116 34bd b471 313c
00000040: b712 383d a72a a3bc 9308 bd3c 2193 efbc
00000050: 5913 003e 5cc3 19bd 467e 193d 6774 393c
00000060: 1ef0 54bc 600c 373d e0cf dabb b940 8fba
00000070: ac65 aebd bb74 b7bd c20d 72bd 656a 7b3d
00000080: 76f6 b23d b9b9 17bb 2858 a53d f449 a53d
00000090: 4b06 993d 9f39 beb9 6a04 f63c b791 f0bd
000000a0: ed65 2e3d 3e02 ddbd c557 023e 1261 573d
000000b0: 880f 993d 2129 12bc 514b a8bb f49d d9bd
000000c0: 6bff 343d 594d dcbd 71a3 37bd eb43 81bd
000000d0: 5d1b 883c 2797 28bd 8ab3 2c3d 8651 cb3d
000000e0: a5c0 2e3d 7f21 82bd 9500 54bd 2422 cc39
000000f0: c5ba f2bd 42e1 e1bd 6fed 4dbd 0429 b1bd
00000100: 52b5 7dbd 7838 9bbd dd67 a0bd 1754 303e
00000110: db15 d93d 9916 cf3d 6063 b73d 96fa e23d
00000120: f14f 683d e0b3 f4bd 8a0c 353d 363a 963b
00000130: 51ae b83d 7704 9e3d 0ba1 13be 9b1c caba
00000140: e2a4 d3bd 5b78 97bc 54ee 5abe 2d48 eebd
00000150: 3fe1 cb3d e749 903d f9a8 143e 7a39 c63d
00000160: 56b7 e1bc 68f9 8a3c de18 6db9 6b3d ce3d
00000170: a911 b9bc 67b1 373d c2d3 89bd 2fc7 943d
00000180: ab41 fabd 5133 c03d 0f32 d93d 6d28 e4bc
00000190: 5018 9ebc f12a e4bd 3389 9ebb d1f5 94bc
000001a0: 2318 06bd d592 663c 2e83 13bd 78fb e93c
000001b0: 41f7 95bd 1378 d13d fa88 d53d 829f ad3d
000001c0: c4a6 c8bd 030c fcbc 8ce4 603c 0912 243d
000001d0: 91eb 103e a53b 503c 4ba8 16bd 6e35 6c3d
000001e0: f34e 22bd 1fac a53d 060c 69bd 7e8d b5bd
000001f0: 7c5e 6f3d 8135 06be 2585 18be 39dd df3d
00000200: 08ec ccbd 5c04 1bbd 0ca9 1bbe d20a 63bc
00000210: 49fd 0d3e f727 36bd a70f 3a3d f989 9fbc
00000220: cdff 1d3e b98d a63d 5503 bc3d d95a 203e
00000230: 2145 b83c 764a dfbd 9219 1b3d 15b5 613d
00000240: 2b80 ef3c f87d 253d dba6 a13d 9e51 a2bc
00000250: 976f 24bd 0219 1ebc bd3f 883d 9ba6 003e
00000260: 3307 6fbb fb55 523d 1e3d d13d cd92 99bd
00000270: 30e4 74bd 1ad0 7b3d 4426 00be 15ca 04be
00000280: c5a4 17be 0b63 22be 2983 d7bc f5f9 f13b
00000290: 1122 1a3e 8d9d ce3d b642 fcbd e97e 9fbd
000002a0: 21e5 c1bd 7ce2 313d e0e5 a0bc ec69 8f3d
000002b0: c25e 68bd 863f 0b3d e2df c73d 88fa 4abc
000002c0: 9fcf b33d 3759 953a f03a 95bd bb98 8d3d
000002d0: 22ca 1b3d 41cc bebd 2c28 063e dd8e 1dbe
000002e0: 9ab3 2d3d 4dd1 6b3d dd47 0b3c 8fed 893d
000002f0: c8ee 953d 7cf1 94bd d702 a63d 34b5 eabd
00000300: 4bfa 3dbd 6862 42bd bba7 62bd 1833 a23c
00000310: 1a21 c33d 7d3a 443d 7cf6 9cbd 79a2 3b3d
00000320: b40a 0838 df20 c13d 64b2 d6bd 43c3 723d
00000330: 3523 813d a857 a63d 02ce 0abd 4dc8 80bd
00000340: 36b8 98bd 2de5 9c3d 07c3 19bd 3617 c2ba
00000350: 3e88 febb ef13 993c 0cdd e53b b4f5 a5ba
00000360: 0997 c13d 93ba 88bb b3a5 4c3d 71df c1bd
00000370: 2274 923d da46 01be ad93 a1bc ad4a 3c3d
00000380: d19b 6c3d ff3d 5bbc 19df ebbd b0e9 8c3c
00000390: b69e efbd 0541 e8bc 81a4 403d da4e 97bd
000003a0: e1ef c23c d35d a83a b6d5 d0bd d254 86bc
000003b0: e173 773d bdda fcbd 7e92 9e3c 711c 2f3d
000003c0: 05c3 293d 3c5d 99bd 0942 803d 623c 22bd
000003d0: ddf9 b2bd e698 29bd 8c60 b73b e7d7 5abd
000003e0: 230a bd3d 099e e6bd 6c7c fdbd 8e33 843b
000003f0: 1948 213e fc9b 613d 6380 a53d 32ae 75bd
-0.06999228 -0.027891936 0.09044186 0.017103832 -0.067791745 -0.020628057 -0.05179798 0.07456917
0.058759626 0.04922438 -0.06801074 -0.012739883 -0.086135425 -0.08424912 -0.043966595 0.010830332
0.044939723 -0.0199178 0.023075378 -0.029244961 0.1250738 -0.037539825 0.03747394 0.011319256
-0.0129967015 0.044689536 -0.0066776127 -0.0010929323 -0.08515486 -0.089578114 -0.05909515 0.061380763
0.08738415 -0.002315147 0.08073455 0.08070746 0.074719034 -0.00036282555 0.030031402 -0.11746543
0.042577673 -0.10791443 0.12728794 0.052582808 0.074736655 -0.008920939 -0.0051359315 -0.1062583
0.044188898 -0.107569404 -0.044833604 -0.063117824 0.01661461 -0.041159775 0.04216341 0.09927659
0.04266419 -0.06354045 -0.051758368 0.0003893535 -0.1185203 -0.11029293 -0.050275262 -0.08650401
-0.0619405 -0.0757913 -0.0783231 0.17219578 0.10599872 0.10111732 0.08954501 0.11082952
0.056716863 -0.11948371 0.04420141 0.004584576 0.09017623 0.07715695 -0.14416902 -0.0015419902
-0.10334183 -0.018490007 -0.21379977 -0.1163486 0.09955072 0.07045346 0.14517583 0.096789315
-0.027553242 0.01696463 -0.00022611345 0.10070308 -0.022591429 0.04484692 -0.06729843 0.07264554
-0.122195564 0.09384788 0.10605251 -0.027851308 -0.019298702 -0.11141003 -0.0048381328 -0.01818362
-0.032737862 0.014073093 -0.036013775 0.028562292 -0.073225506 0.102279805 0.10426517 0.08477689
-0.09797433 -0.030767446 0.013726365 0.040056262 0.14152361 0.012709533 -0.03678159 0.057668142
-0.039626073 0.0808947 -0.056896232 -0.08864878 0.058439717 -0.13106348 -0.1489454 0.10930867
-0.10005957 -0.037845954 -0.15201205 -0.01385756 0.13866152 -0.044471707 0.045425083 -0.01947497
0.15429612 0.081325 0.09180323 0.15659656 0.0224939 -0.10902874 0.037866183 0.055104334
0.02923592 0.040403336 0.07893153 -0.019814309 -0.040145483 -0.009649517 0.06652782 0.12563555
-0.0036472797 0.05135153 0.10216735 -0.07498703 -0.05978793 0.061477758 -0.12514597 -0.12967713
-0.14808948 -0.15858094 -0.02630766 0.0073845335 0.15052058 0.10088644 -0.123174116 -0.07787878
-0.09467531 0.043428883 -0.019640863 0.07002625 -0.056730993 0.033996128 0.09759499 -0.012388833
0.08779835 0.0011394386 -0.07286632 0.06913897 0.038034566 -0.09316302 0.13101262 -0.1538653
0.04240761 0.05757265 0.00850102 0.06734764 0.073209345 -0.07272622 0.081060104 -0.11460343
-0.046381276 -0.04745713 -0.05533574 0.019799754 0.09527798 0.04790734 -0.07664201 0.045809243
3.2434895e-05 0.09430098 -0.10483244 0.059268247 0.06305543 0.08122188 -0.03388787 -0.06288204
-0.074570104 0.07660899 -0.03753951 -0.0014807943 -0.007767706 0.018686263 0.007014876 -0.0012661726
0.09452636 -0.004172632 0.04996271 -0.09466446 0.07151057 -0.12624684 -0.019723738 0.045969654
0.057765786 -0.01338148 -0.11517162 0.017201275 -0.117001936 -0.028351316 0.047031883 -0.073880866
0.023796024 0.0012845345 -0.10197012 -0.016397867 0.060413245 -0.123464085 0.019356962 0.042751733
0.04144575 -0.07488486 0.06262595 -0.039608367 -0.08739064 -0.04140558 0.005596226 -0.053428557
0.09230449 -0.112606116 -0.12377247 0.004034466 0.1575016 0.0550804 0.080811284 -0.05998058

lin5.bias f4 [16]
00000000: 5be9 273c d796 843d 8150 e7bc 12ff 883b
00000010: 42bc e33c aa0f 37bd ee46 1ebc 27a4 4abd
00000020: 533c 5d3c e70c 1e3c b3af 173c ea58 33bb
00000030: e3ea 1b3d 6979 97bd e52a 883d 5d0f d9bc
0.010248507 0.06474083 -0.02823663 0.0041807974 0.02779973 -0.044692673 -0.009660466 -0.049472954
0.013503152 0.009646631 0.009258199 -0.002736623 0.038065802 -0.07396204 0.066488065 -0.026496584
