src/virtuose_teleoperation/network_controller/trained_policy_MLP/Grasp_BC_AH_epoch_3009.pth (torch, 525575 bytes, 10 tensors)

lin1.weight f4 [256, 87]
-0.0670897 0.0071716635 0.09901448 -0.1439332 -0.09520879 -0.14563729 -0.01938298 -0.0022642426
-0.08880057 0.058727182 -0.009840778 0.021018175 0.061869044 0.0032741653 0.0825346 -0.0034458335
0.0530929 -0.006095193 0.07995405 0.041109737 -0.06192024 -0.098563924 -0.08039402 0.08202875
-0.047530383 -0.09520135 -0.07866721 -0.004276618 0.091067195 -0.035439674 0.021833954 0.068420015
0.1036826 -0.0599921 -0.0905808 0.082089834 -0.09285659 -0.06350033 0.087196834 0.08016975
-0.015220548 0.08161244 0.058637314 -0.06954635 -0.076002665 -0.08205334 0.03926697 0.08472199
-0.05925565 -0.019096429 0.00012527674 -0.0150896795 -0.10383929 0.0652761 0.025743658 -0.025839673
0.044776015 0.14640659 -0.030402672 0.06688649 -0.0105272345 -0.023880027 -0.024297448 0.025145067
0.13361126 0.031083867 -0.070433766 0.13988212 -0.06478951 -0.04637122 -0.11062486 0.06459867
-0.008189346 -0.011511825 -0.08904954 -0.049647443 -0.0073856013 0.022352455 -0.054566268 -0.02745873
0.011179087 -0.010124929 -0.012868296 0.05164562 -0.053715616 -0.057393238 0.047070052 -0.03243745
0.05506702 -0.09484975 -0.020063762 -0.049870443 -0.06778848 0.024226988 0.07047987 -0.05678081
-0.07204127 0.04923389 0.10008128 0.088865615 -0.08965472 0.0404662 -0.08900577 0.0008402341
-0.079311535 0.007527159 -0.041532747 0.05834453 -0.022678953 0.07835568 -0.0041685943 -0.042385094
0.03644157 0.05335383 0.03751927 -0.033176128 -0.06024842 0.09309769 -0.036048993 -0.08827764
0.04325851 -0.078242235 0.052326083 -0.050741263 0.07387776 -0.015368466 -0.07049529 -0.027745496
-0.022610404 0.09834977 0.029126614 -0.052826613 -0.10488882 0.027990546 0.0026335283 0.0011331238
-0.016693171 -0.054981932 0.09788084 -0.043753657 -0.0025472161 -0.0055775787 -0.06555699 0.030808581
-0.054110497 0.10726474 0.003516828 0.08744041 0.06764808 0.11054301 -0.06699393 -0.09058691
0.033732392 0.079789355 -0.04593307 0.04931729 0.040729035 0.05591986 -0.0744688 0.079095565
-0.041432913 0.015604461 0.06135296 0.012472601 0.043838967 0.05794113 0.06133284 -0.049640067
0.04460204 0.053582072 0.011160243 0.033235144 -0.046230458 -0.041573413 0.100545615 0.09217163
-0.025274914 0.034301445 -0.045525044 -0.10103242 0.07635154 -0.036753066 -0.07476662 -0.09157104
0.09582474 0.0041328976 -0.09265997 0.12060373 0.025870966 0.0865213 -0.0024492368 -0.067167625
-0.037003476 0.06411728 0.008283583 0.06329643 -0.017656429 0.025509067 -0.087331355 0.046065293
0.07627876 0.026973845 -0.028556218 -0.04153438 0.0094746165 0.09325982 -0.05870533 0.04843447
0.09814817 0.05698914 -0.10215769 -0.069194324 0.005688257 0.058724348 0.047430594 -0.09347964
0.040687453 0.0895385 0.04588796 -0.09959233 -0.018544776 0.079678185 -0.047098547 0.03019165
0.118382186 0.06279856 -0.04164614 -0.028050989 0.037754286 -0.035945836 0.09606146 -0.006746306
-0.0179875 0.012292431 -0.060091674 0.02078188 0.10256044 0.04234073 -0.057202384 -0.08391702
0.084640376 -0.07706034 -0.024079802 -0.079062805 -0.05292245 -0.0026371009 -0.049074754 0.040363614
-0.10637746 -0.06476735 -0.06946693 0.037188698 -0.025734179 0.018361684 0.06304122 0.010605717
00000000: 5366 89bd 4600 eb3b 1bc8 ca3d 3a63 13be
00000010: d3fc c2bd f121 15be 0ec9 9ebc b063 14bb
00000020: 13dd b5bd ea8b 703d 373b 21bc 4f2e ac3c
00000030: 656a 7d3d 6193 563b e607 a93d 7ed3 61bb
00000040: f177 593d 2fba c7bb f3be a33d af62 283d
00000050: 14a0 7dbd e2db c9bd 9fa5 a4bd b0fe a73d
00000060: 38af 42bd edf8 c2bd 461c a1bd df22 8cbb
00000070: 7081 ba3d 3129 11bd 1fdd b23c cb1f 8c3d
00000080: 8b57 d43d 47ba 75bd 6d82 b9bd b71e a83d
00000090: 992b bebd 760c 82bd 4194 b23d 0a30 a43d
000000a0: 9b5f 79bc 6c24 a73d ae2d 703d 516e 8ebd
000000b0: 49a7 9bbd 950b a8bd 67d6 203d b982 ad3d
000000c0: 0db6 72bd 1d70 9cbc b85c 0339 b43a 77bc
000000d0: b2a9 d4bd 7aaf 853d 5de4 d23c b9ad d3bc
000000e0: 0e67 373d 9ceb 153e 060f f9bc c9fb 883d
000000f0: 6c7a 2cbc 0ca0 c3bc 710b c7bc 07fd cd3c
00000100: 64d1 083e 98a3 fe3c 943f 90bd 423d 0f3e
00000110: 5db0 84bd c0ef 3dbd 498f e2bd 4f4c 843d
00000120: 9b2c 06bc 189c 3cbc 9b5f b6bd 1e5b 4bbd
00000130: ea02 f2bb 7f1c b73c e180 5fbd 21f1 e0bc
00000140: 7d28 373c 08e3 25bc 8cd5 52bc 5c8a 533d
00000150: e804 5cbd 2c15 6bbd 87cc 403d 22dd 04bd
00000160: f58d 613d 9640 c2bd c25c a4bc f344 4cbd
00000170: b0d4 8abd ad77 c63c c057 903d ff92 68bd
00000180: 608a 93bd 7aa9 493d 6af7 cc3d 2dff b53d
00000190: e59c b7bd e3bf 253d a848 b6bd 2843 5c3a
000001a0: 166e a2bd 63a6 f63b 3e1e 2abd adfa 6e3d
000001b0: 36c9 b9bc f178 a03d b498 88bb fe9b 2dbd
000001c0: c143 153d 8c89 5a3d cead 193d b1e3 07bd
000001d0: 0cc7 76bd 00aa be3d 1ca8 13bd e8ca b4bd
000001e0: d62f 313d 773d a0bd e053 563d 12d6 4fbd
000001f0: 394d 973d 05cc 7bbc d65f 90bd 864a e3bc
00000200: 7439 b9bc 9b6b c93d f09a ee3c b860 58bd
00000210: f3cf d6bd 6e4c e53c 4697 2c3b 5385 943a
00000220: 1ec0 88bc bc34 61bd c075 c83d 0937 33bd
00000230: 32ef 26bb 1fc4 b6bb be42 86bd 4762 fc3c
00000240: f8a2 5dbd 9ead db3d 957a 663b f513 b33d
00000250: 148b 8a3d 6064 e23d 1d34 89bd a185 b9bd
00000260: fa2a 0a3d 9a68 a33d 5124 3cbd ed00 4a3d
00000270: 7dd3 263d 390c 653d 1983 98bd dbfc a13d
00000280: 8fb5 29bd daa9 7f3c 3e4d 7b3d e159 4c3c
00000290: 7d90 333d ae53 6d3d 2538 7b3d 6253 4bbd
000002a0: a1b0 363d e078 5b3d 74d9 363c 9321 083d
000002b0: 265c 3dbd e248 2abd dcea cd3d 7bc4 bc3d
000002c0: 560d cfbc ac7f 0c3d 7878 3abd 16ea cebd
000002d0: 325e 9c3d 628a 16bd 3e1f 99bd 9989 bbbd
000002e0: c33f c43d 426d 873b 83c4 bdbd 17ff f63d
000002f0: 59ef d33c 1432 b13d 6083 20bb 2e8f 89bd
00000300: f590 17bd ec4f 833d deb7 073c 8fa1 813d
00000310: 37a4 90bc 64f8 d03c c8da b2bd f6ae 3c3d
00000320: 0a38 9c3d 41f8 dc3c bbee e9bc f41f 2abd
00000330: 6c3b 1b3c 01ff be3d 0075 70bd 3963 463d
00000340: e801 c93d 726d 693d 0d38 d1bd c1b5 8dbd
00000350: 8f64 ba3b f188 703d 9546 423d 4172 bfbd
00000360: e3a7 263d f65f b73d 03f5 3b3d 10f7 cbbd
00000370: 37eb 97bc 512e a33d 68ea 40bd 7b54 f73c
00000380: 5c72 f23d 889c 803d 2595 2abd 30cb e5bc
00000390: 3da4 1a3d f13b 13bd dfbb c43d 1e10 ddbb
000003a0: 865a 93bc 3166 493c b022 76bd c33e aa3c
000003b0: 350b d23d 796d 2d3d 0c4d 6abd b0dc abbd
000003c0: ef57 ad3d d0d1 9dbd 0143 c5bc aeeb a1bd
000003d0: 36c5 58bd 36d3 2cbb 9c02 49bd 5154 253d
000003e0: 6ddc d9bd bfa4 84bd ae44 8ebd 2d53 183d
000003f0: 7cd0 d2bc 3e6b 963c c11b 813d 9ac3 2d3c

lin1.bias f4 [256]
0.060093645 -0.07978721 0.08414553 -0.0013114172 -0.01540867 0.007861076 -0.0136669725 0.06554842
0.11652537 -0.07998569 0.10237771 -0.010793442 -0.10968698 0.03545354 -0.037421953 0.07272129
-0.08396585 -0.075583145 0.031310767 0.1005025 0.12864053 0.054763846 0.14974058 0.09607957
0.1286759 -0.028613104 -0.01811158 -0.053635888 -0.027078863 0.011507135 0.009146838 0.033297352
0.0017081696 0.09598326 0.059473146 0.088068366 0.11743227 0.022397554 -0.11759161 -0.07527571
0.009006667 0.057861615 0.13514778 0.08756619 0.0047529945 -0.086677134 -0.018825855 -0.019139068
0.08446709 -0.060355607 -0.084393755 0.12966706 0.062033895 -0.047075756 0.09627582 0.066394955
-0.042527586 0.065941274 0.049612373 -0.045527823 -1.838177e-05 -0.015691401 0.0021911394 -0.030519662
-0.07682401 0.032074332 -0.05763801 0.029776491 0.033701766 -0.055897687 -0.07504574 0.0760747
0.10850463 0.034054864 -0.034933846 0.049293716 0.10838484 0.028159596 0.09319689 -0.05251322
-0.031139048 0.12862064 -0.041454677 0.08184293 0.10192746 -0.12574081 0.0868533 -0.037900265
-0.046802517 0.027566595 -0.07126147 -0.00682862 -0.06878778 0.061937887 0.040059216 -0.027687738
0.045747947 -0.09215454 0.011326879 -0.027468652 0.08976573 -0.024168717 0.07675654 -0.057374638
-0.004798392 -0.02213895 0.045454532 -0.024408681 -0.0032690228 -0.11236058 -0.08446024 0.11655216
0.029963644 0.09862074 -0.0501973 0.026260823 0.124011725 -0.08737389 -0.051110156 0.0777037
-0.079112016 -0.017306084 -0.0894091 -0.05666311 -0.05324841 -0.03662575 -0.053313743 0.0618873
0.14238389 0.048938055 -0.037015144 0.040450063 0.066382036 0.090655856 0.03550765 -0.104468755
-0.0742503 -0.03308243 0.01223552 0.0074425586 -0.042279 0.00684579 0.0037137608 -0.012820828
-0.041298885 -0.036077924 0.050694145 -0.024806133 -0.10573329 -0.014049804 -0.09237479 -0.06053226
-0.081243955 0.083482474 -0.013602996 -0.102654755 0.11281323 -0.021925535 0.08949023 0.053341378
-0.06396328 -0.10022333 -0.05236151 0.13094193 -0.048613306 0.09821235 -0.10129149 -0.056913447
-0.033048842 -0.083255574 -0.080690235 0.044154022 -0.084438115 0.07608112 -0.0072326777 0.105510354
0.072480746 -0.010577952 -0.09052668 0.07028412 -0.04294663 0.02844333 -0.0507651 0.07983754
0.046943627 -0.09321672 -0.03799657 -0.050359234 -0.0940779 0.11099725 0.055106413 -0.044061977
0.042316087 0.030672355 0.047806732 0.08666108 0.018114278 0.111442424 -0.022244606 0.1147226
-0.110029034 0.0497381 -0.0061553316 0.10034208 -0.022125006 -0.06581518 0.090034015 -0.07097562
0.0784418 -0.034806307 0.09534032 0.014446226 0.028139971 0.052965183 0.07004873 -0.07310931
0.039907996 0.03342862 0.10183129 0.107312284 0.04630667 -0.0012671215 0.01706267 -0.070980676
0.07088418 0.083045654 0.004489551 0.107637085 0.019877981 -0.017446434 0.014960513 0.01057543
0.08187023 0.030274162 -0.06632784 0.10371193 -0.0015290981 -0.05155888 0.08078465 -0.016598744
0.115735784 0.07680072 0.05016655 -0.08237196 0.051370576 -0.05454545 -0.055507824 0.053439
0.04571648 -0.05695358 -0.025758954 -0.06465314 -0.10382402 0.023666928 -0.009560178 0.009780469
00000000: c124 763d 7a67 a3bd 7e54 ac3d dce3 abba
00000010: a574 7cbc becb 003c 70eb 5fbc 403e 863d
00000020: daa4 ee3d 8acf a3bd 68ab d13d fad6 30bc
00000030: 91a3 e0bd bb37 113d c347 19bd e6ee 943d
00000040: 4af6 abbd 56cb 9abd b83f 003d 41d4 cd3d
00000050: 58ba 033e 0e50 603d 9855 193e 5ec5 c43d
00000060: 9dc3 033e 0766 eabc bc5e 94bc 4eb1 5bbd
00000070: 7ed4 ddbc 6c88 3c3c 9fdc 153c ce62 083d
00000080: a9e4 df3a df92 c43d 1d9a 733d 305d b43d
00000090: 5480 f03d 137b b73c dfd3 f0bd 272a 9abd
000000a0: b390 133c 4d00 6d3d 2e64 0a3e e755 b33d
000000b0: 02bf 9b3b c883 b1bd ae38 9abc 89c9 9cbc
000000c0: 15fd ac3d 7137 77bd a2d6 acbd 71c7 043e
000000d0: 4117 7e3d 82d2 40bd 422c c53d 14fa 873d
000000e0: 6831 2ebd 380c 873d 5836 4b3d 627b 3abd
000000f0: 8d32 9ab7 418b 80bc 3899 0f3b 5f04 fabc
00000100: e855 9dbd 6060 033d d515 6cbd d4ed f33c
00000110: dd0a 0a3d f9f4 64bd 95b1 99bd 0dcd 9b3d
00000120: ad37 de3d 1d7d 0b3d cb16 0fbd 35e8 493d
00000130: dff8 dd3d f4ae e63c 03de be3d 1a18 57bd
00000140: 5117 ffbc 21b5 033e 61cc 29bd 449d a73d
00000150: 58bf d03d 33c2 00be 25e0 b13d 4f3d 1bbd
00000160: ffb3 3fbd 57d3 e13c 89f1 91bd 9ec2 dfbb
00000170: 9ce0 8cbd 95b2 7d3d 2215 243d 65d1 e2bc
00000180: 3362 3b3d 85bb bcbd 6094 393c f005 e1bc
00000190: 18d7 b73d 79fd c5bc 8832 9d3d ab01 6bbd
000001a0: d43b 9dbb be5c b5bc 882e 3a3d b7f4 c7bc
000001b0: 1a3d 56bb 4e1d e6bd 7ef9 acbd e6b2 ee3d
000001c0: 5176 f53c acf9 c93d af9b 4dbd f020 d73c
000001d0: dcf9 fd3d 15f1 b2bd e258 51bd 1e23 9f3d
000001e0: 7b05 a2bd 7dc5 8dbc 1e1c b7bd 9417 68bd
000001f0: 011b 5abd e204 16bd 835f 5abd 8a7d 7d3d
00000200: 15cd 113e 4573 483d 319d 17bd f7ae 253d
00000210: 4ef3 873d c7a9 b93d 7870 113d b7f3 d5bd
00000220: 8b10 98bd 7181 07bd 7e77 483c b5e0 f33b
00000230: bf2c 2dbd a652 e03b 9162 733b 730e 52bc
00000240: 0529 29bd 72c6 13bd aaa4 4f3d 3b36 cbbc
00000250: b28a d8bd 2631 66bc fe2e bdbd adf0 77bd
00000260: 3b63 a6bd dcf8 aa3d 1adf 5ebc a83c d2bd
00000270: 9f0a e73d 2e9d b3bc a746 b73d 7d7c 5a3d
00000280: 2eff 82bd e441 cdbd 0679 56bd a415 063e
00000290: bf1e 47bd 8e23 c93d ea71 cfbd 131e 69bd
000002a0: 395e 07bd e681 aabd ec40 a5bd d9da 343d
000002b0: e4ed acbd 6bd0 9b3d 1900 edbb d015 d83d
000002c0: c970 943d 254f 2dbc 0d66 b9bd 1ff1 8f3d
000002d0: cee8 2fbd fd01 e93c 11ef 4fbd dd81 a33d
000002e0: f647 403d 68e8 bebd 4ba2 1bbd 7c45 4ebd
000002f0: eaab c0bd 8752 e33d 43b7 613d 557a 34bd
00000300: a253 2d3d 9744 fb3c fed0 433d 5d7b b13d
00000310: 6564 943c ed3b e43d 523a b6bc aff3 ea3d
00000320: e756 e1bd 2eba 4b3d aab2 c9bb 2680 cd3d
00000330: 803f b5bc 1cca 86bd c163 b83d aa5b 91bd
00000340: 18a6 a03d 0f91 0ebd c941 c33d ddaf 6c3c
00000350: cc85 e63c 05f2 583d b575 8f3d 55ba 95bd
00000360: 9176 233d 73ec 083d ec8c d03d 8bc6 db3d
00000370: 10ac 3d3d 8b15 a6ba 03c7 8b3c 515e 91bd
00000380: ba2b 913d d713 aa3d 151d 933b d570 dc3d
00000390: 26d7 a23c d3eb 8ebc f11c 753c 9144 2d3c
000003a0: 94ab a73d 8501 f83c e4d6 87bd ec66 d43d
000003b0: 056c c8ba 672f 53bd 6c72 a53d 17fa 87bc
000003c0: e206 ed3d b249 9d3d 717b 4d3d a1b2 a8bd
000003d0: f469 523d 0d6b 5fbd 2c5c 63bd dae2 5a3d
000003e0: 3441 3b3d 2848 69bd 7104 d3bc de68 84bd
000003f0: b0a1 d4bd 25e1 c13c 4ba2 1cbc 433e 203c

lin2.weight f4 [256, 256]
-0.017898196 0.0033594265 0.02149842 0.011970673 0.03855999 0.012117682 0.06758262 0.04036052
0.04397865 0.01600385 0.0017105541 -0.04637433 0.05936461 0.052677263 -0.03652796 -0.02453681
0.0030417314 -0.055350024 -0.001637909 -0.005936861 -0.011606584 0.05726891 0.041953437 -0.014513494
-0.017075235 -0.04034407 0.05831355 0.025003048 -0.05683176 0.046940356 -0.00044121803 -0.014974003
0.060618445 0.030237047 -0.04539011 0.042156093 -0.040415045 -0.060476456 -0.03724938 -0.050290216
0.03836763 0.030947339 0.029179443 -0.026611097 0.0088137705 -0.043516465 0.048439037 0.008787457
0.054648764 -0.024371672 0.005751703 -0.041321356 -0.05183689 0.017036166 -0.06270083 0.009597506
0.045713834 -0.051186644 -0.046124186 0.043368544 0.052608196 -0.015118636 -0.007753221 0.028482197
-0.06694554 0.022535183 0.0021145341 -0.05874129 -0.008186146 0.0016521659 -0.013976539 -0.011416042
0.05541508 0.043142524 -0.011075288 -0.0068866056 0.013730649 -0.030908275 0.010978388 0.028709646
0.006471228 0.026641056 0.0031053291 -0.014542144 0.06925333 0.045490764 -0.0004620535 0.06262446
0.025431583 0.019038716 0.0610942 -0.005146416 -0.022986615 -0.04759212 0.0001676773 -0.04711966
-0.08551584 -0.056618497 0.05830473 0.0148648545 -0.031461727 -0.0053368346 -0.039427828 0.022990294
0.04189706 -0.015217399 0.029930215 -0.017274002 -0.025210658 0.023276718 -0.03624791 0.006167074
0.05230495 0.05976416 0.03034634 -0.003909121 0.062232643 -0.009597866 0.023708839 0.0316034
0.012219111 0.05657511 0.01236637 0.052011345 0.018007198 -0.023458786 -0.039146304 0.058887202
0.013050747 0.031487152 -0.03909212 -0.04491654 -0.031924892 0.000862273 -0.0082505355 -0.013381387
-0.045812335 -0.0039371946 -0.017944105 0.040353738 0.042884145 0.050506532 0.007937648 0.03010752
0.019638928 -0.018788068 0.037121538 0.03637779 -0.011792928 -0.012319453 0.028819585 0.030610474
0.010679776 -0.03664831 -0.037054088 -0.041845284 -0.03197979 -0.008068326 -0.057040416 -0.05096211
-0.05333923 0.033581447 0.069938995 0.018211845 0.022948543 0.05090573 0.034807175 0.007723404
-0.048729286 0.010545101 0.0022120927 0.05647119 0.037005663 -0.050383806 0.022660997 -0.026140265
0.049858015 0.06923223 -0.022447277 0.044168435 -0.055742055 0.06095428 -0.0481227 0.025335593
0.069206096 0.0025695213 -0.03836087 0.030696224 0.0050007477 0.05760666 0.025592513 0.0021351166
0.029213367 0.044325083 -0.003168292 -0.018349048 0.025889566 -0.049413532 -0.051819496 -0.0017230352
-0.035024583 0.010290395 -0.014977453 0.041791365 0.0068384497 0.042753506 -0.042632524 0.017752124
-0.010769764 0.053940233 0.0056465925 -0.016903158 -0.029321797 -0.062435713 -0.043876767 -0.006391472
0.045826085 -0.018215712 -0.04672426 0.012325262 -0.017207138 -0.021743989 0.04488728 0.0050905156
-0.036302797 0.012356057 -0.011782586 0.0072780987 -0.005324167 -0.009850578 0.01138981 -0.034761105
-0.012971127 0.049251273 -0.03732158 0.06748903 0.045513835 -0.022213414 -0.042072177 0.05110005
-0.081085905 0.055778567 0.03371315 -0.0015561304 0.031296965 0.046149015 -0.03806111 -0.0067998553
-0.05051333 -0.020605009 0.00028659217 0.06567705 0.049168527 -0.02051733 -0.010650345 0.0508357
00000000: 3d9f 92bc d329 5c3b 741d b03c a420 443c
00000010: 14f1 1d3d 3e89 463c c268 8a3d 1351 253d
00000020: f522 343d 821a 833c ac34 e03a 02f3 3dbd
00000030: 4e28 733d 1dc4 573d 589e 15bd 6c01 c9bc
00000040: c957 473b b5b6 62bd 1baf d6ba 008a c2bb
00000050: 8b29 3ebc ce92 6a3d 5ed7 2b3d 02ca 6dbc
00000060: 5de1 8bbc d33f 25bd 30da 6e3d 31d3 cc3c
00000070: 6bc8 68bd 8844 403d 4853 e7b9 8555 75bc
00000080: 0c4b 783d afb3 f73c fbea 39bd deab 2c3d
00000090: 3f8a 25bd 29b6 77bd ce92 18bd 1dfd 4dbd
000000a0: 6027 1d3d 4685 fd3c ba09 ef3c 84ff d9bc
000000b0: a267 103c 523e 32bd 0368 463d 44f9 0f3c
000000c0: 62d7 5f3d 1aa7 c7bc c878 bc3b 9540 29bd
000000d0: eb52 54bd 6e8f 8b3c 4b69 80bd dc3e 1d3c
000000e0: 6e3e 3b3d 16a9 51bd b7ec 3cbd 37a3 313d
000000f0: b17b 573d 28b4 77bc bb0e febb 7f53 e93c
00000100: be1a 89bd b49b b83c ff93 0a3b b59a 70bd
00000110: 2f1f 06bc 7d8d d83a dafd 64bc 5a0a 3bbc
00000120: ecfa 623d 37b6 303d 2075 35bc 09a9 e1bb
00000130: 84f6 603c 5a33 fdbc b2de 333c 7e30 eb3c
00000140: 980c d43b 583e da3c c782 4b3b 2c42 6ebc
00000150: b1d4 8d3d 8654 3a3d c53f f2b9 4141 803d
00000160: e555 d03c 15f7 9b3c e93d 7a3d 44a3 a8bb
00000170: 6d4e bcbc f4ef 42bd 88d2 2f39 8b00 41bd
00000180: ee22 afbd cce8 67bd f1d0 6e3d b88b 733c
00000190: 03de 00bd 9de0 aebb 137f 21bd 2456 bc3c
000001a0: 409c 2b3d 6652 79bc 3630 f53c 3582 8dbc
000001b0: 9586 cebc d1ae be3c b078 14bd 2b15 ca3b
000001c0: b73d 563d 44cb 743d e398 f83c 1518 80bb
000001d0: a8e7 7e3d 5e40 1dbc 0a39 c23c 9172 013d
000001e0: ab32 483c 4dbb 673d 519c 4a3c d909 553d
000001f0: d583 933c a42c c0bc e057 20bd b533 713d
00000200: cdd2 553c acf8 003d 0f1f 20bd 68fa 37bd
00000210: adc3 02bd 290a 623a 412d 07bc 9b3d 5bbc
00000220: b7a5 3bbd 9503 81bb 84ff 92bc f649 253d
00000230: 49a7 2f3d f0df 4e3d e90c 023c 0ca4 f63c
00000240: d1e1 a03c 6fe9 99bc c10c 183d e100 153d
00000250: 2037 41bc 88d7 49bc 0d17 ec3c d1c2 fa3c
00000260: 3afa 2e3c 8a1c 16bd 07c6 17bd f665 2bbd
00000270: 3efd 02bd 0331 04bc 36a3 69bd a5bd 50bd
00000280: 3d7a 5abd b38c 093d 2d3c 8f3d 0231 953c
00000290: 95fe bb3c 8782 503d f891 0e3d 9c14 fd3b
000002a0: 5c98 47bd 5cc5 2c3c c2f8 103b 564e 673d
000002b0: 4093 173d 405f 4ebd 8ea3 b93c 1c24 d6bc
000002c0: eb37 4c3d a1c9 8d3d 5ae3 b7bc f6e9 343d
000002d0: c851 64bd 32ab 793d 4f1c 45bd 978c cf3c
000002e0: edbb 8d3d 6a65 283b 4a20 1dbd a676 fb3c
000002f0: 50dd a33b f6f4 6b3d 64a7 d13c 50ed 0b3b
00000300: df50 ef3c 388e 353d 1fa3 4fbb be50 96bc
00000310: 5b16 d43c d865 4abd ae40 54bd 78d7 e1ba
00000320: f075 0fbd 0b99 283c fe63 75bc 6c2d 2b3d
00000330: 1315 e03b 4d1e 2f3d 719f 2ebd e76c 913c
00000340: aa73 30bc 6ff0 5c3d 0d07 b93b 7e78 8abc
00000350: 4434 f0bc 97bc 7fbd 20b8 33bd 8e6f d1bb
00000360: 22b4 3b3d 1e39 95bc f061 3fbd e5ef 493c
00000370: fcf5 8cbc 7320 b2bc b9db 373d 57ce a63b
00000380: 3eb2 14bd 0f71 4a3c bf0b 41bc 1e7d ee3b
00000390: 5a76 aebb 5264 21bc 539c 3a3c a961 0ebd
000003a0: da84 54bc b4bb 493d 83de 18bd b037 8a3d
000003b0: b76c 3a3d e8f8 b5bc e053 2cbd 494e 513d
000003c0: 5e10 a6bd 1178 643d cd16 0a3d 12f7 cbba
000003d0: 3f31 003d c006 3d3d f7e5 1bbd 52d1 debb
000003e0: 11e7 4ebd d6cb a8bc c041 9639 b081 863d
000003f0: f064 493d f613 a8bc c97e 2ebc 1839 503d

lin2.bias f4 [256]
0.05078834 0.0026973875 0.052452855 -0.01892086 -0.042049166 -0.0560423 0.08042102 -0.034672648
0.05931415 0.060140762 0.10972196 0.034981802 0.069713034 0.013154707 0.07406648 0.019311354
-0.013126664 -0.026881097 0.07563039 0.00617228 0.020063723 -0.021765567 -0.019081308 -0.026840277
0.047371954 -0.026627965 0.036189243 -0.033406593 -0.002472753 0.048529666 -0.02777772 0.027000783
0.014813266 0.025407003 -0.00810598 0.0051778615 -0.012617568 -0.016297586 -0.05008111 0.061185285
-0.030994475 0.013220702 -0.026158722 -0.043811083 -0.03944794 0.030513639 -0.03620782 -0.016370142
0.016842855 0.029376473 0.023111535 -0.05487147 0.052087408 -0.008221566 -0.03940291 0.064737804
-0.0056846957 0.0050940183 0.028137406 -0.03750224 -0.017593812 -0.057414606 -0.028077945 0.012910418
-0.045410432 0.030521657 0.0069017005 0.04178629 0.017022239 0.06816234 -0.0351168 -0.033998635
-0.0195068 0.0020428088 0.03434151 -0.037346564 -0.004053746 0.023229893 -0.004003718 0.008121215
0.025708843 -0.041909885 0.0023886096 0.02424327 -0.025826894 -0.016043726 -0.04220361 0.0070013246
0.06459482 -0.04656174 0.03421555 0.040190917 0.04453475 0.06672634 0.046600837 0.021391615
0.08322243 -0.042881478 0.016784009 0.019449225 -0.03742744 0.050968077 0.03182997 -0.05158712
0.010321816 0.030015066 -0.007064011 0.04541692 -0.010820768 0.046929806 0.0050463844 0.049424604
-0.04047986 0.07786713 0.06665939 0.009745208 -0.032695122 -0.05627031 0.08065042 0.094485484
0.046473097 0.063258074 -0.04444818 0.0028670428 0.011072938 0.09048141 -0.0002628928 0.010836635
0.025650226 -0.005582884 0.020038946 0.05005346 0.02189005 -0.034940686 0.00999873 0.012971499
-0.010022478 -0.0006056984 0.020564951 -0.005811488 0.0720393 0.03733594 -0.020910537 0.0802343
-0.053099066 -0.004402657 -0.007046245 0.010658995 0.038676497 -0.055778418 -0.06128554 0.08229977
-0.0007757052 -0.0069011557 -0.0016124219 -0.02904936 0.036280863 -0.011758357 0.07156783 -0.015053986
0.037112948 -0.06840764 -0.0532998 0.0025686556 0.015458374 0.0044899164 0.05847601 -0.059094027
-0.00462681 0.03303483 0.024476575 0.041502137 -0.020884153 0.029036148 0.027724875 -0.0098889945
-0.052060284 0.057576545 0.053043064 -0.023411341 -0.027512576 -0.021780703 0.051995125 -0.032795187
-0.009208412 0.030469008 -0.01648138 -0.0652462 -0.05897729 -0.004648294 -0.015763804 0.016639818
0.0043340293 0.1051116 0.069056496 0.02001375 -0.022068126 0.0690358 -0.06439365 0.06589332
-0.028504375 -0.018869145 -0.03392836 -0.037625793 0.03770134 -0.041327026 -0.0023441436 0.049141172
0.051657233 0.015193024 -0.06673066 0.03140282 0.058667343 -0.041249186 0.07953102 0.037018172
0.05387373 0.050310366 0.06191539 0.01231046 -0.033884928 0.052757878 0.03919993 0.004236827
0.040556926 0.08347938 -0.03061697 0.028924981 0.02988189 0.09171966 0.03034595 -0.05895416
0.0052966187 0.07271045 -0.03089963 0.019236743 0.0072265696 -0.066627465 0.08280183 0.0675502
-0.002904681 0.11274107 0.07961923 0.033961233 -0.044949166 -0.016299305 0.00058563746 0.035389226
-0.033378083 0.055012546 -0.0010149602 -0.04034268 -0.00956831 -0.00086182484 0.024630096 0.0002438061
00000000: 6f07 503d a7c6 303b ced8 563d ebff 9abc
00000010: bf3b 2cbd 9c8c 65bd c7b3 a43d e804 0ebd
00000020: 65f3 723d 2956 763d e8b5 e03d 1449 0f3d
00000030: b5c5 8e3d d786 573c 2bb0 973d d832 9e3c
00000040: 3811 57bc bf35 dcbc 1be4 9a3d d640 ca3b
00000050: ad5c a43c b44d b2bc 6750 9cbc 24e0 dbbc
00000060: 1809 423d e422 dabc 2c3b 143d 5ad5 08bd
00000070: e90d 22bb 0bc7 463d 1a8e e3bc bf30 dd3c
00000080: 57b3 723c 5922 d03c f2ce 04bc 0dab a93b
00000090: eab9 4ebc 8482 85bc da21 4dbd 6c9d 7a3d
000000a0: 20e8 fdbc a59b 583c d14a d6bc 4073 33bd
000000b0: 2a94 21bd bdf7 f93c a74e 14bd ad1a 86bc
000000c0: 07fa 893c eea6 f03c 6754 bd3c e8c0 60bd
000000d0: 9b59 553d bfb3 06bc f264 21bd 4195 843d
000000e0: af46 babb b9eb a63b 6b80 e63c f39b 19bd
000000f0: e620 90bc 942b 6bbd b803 e6bc 3886 533c
00000100: 4a00 3abd 8e08 fa3c a927 e23b 1a28 2b3d
00000110: 3972 8b3c b298 8b3d a2d6 0fbd 2742 0bbd
00000120: bacc 9fbc a5e0 053b afa9 0c3d b6f8 18bd
00000130: 49d5 84bb 9e4c be3c 9f31 83bb d80e 053c
00000140: 5a9b d23c b3a9 2bbd 388a 1c3b d299 c63c
00000150: ec92 d3bc 226e 83bc b1dd 2cbd 5e6b e53b
00000160: 4a4a 843d 86b7 3ebd 9b25 0c3d 3b9f 243d
00000170: 126a 363d d2a7 883d 85e0 3e3d 783d af3c
00000180: 8570 aa3d 7da4 2fbd 9e7e 893c fb53 9f3c
00000190: 844d 19bd e7c3 503d 2560 023d 044d 53bd
000001a0: d61c 293c 28e2 f53c 3879 e7bb 1807 3a3d
000001b0: 9749 31bc 7839 403d 245c a53b 7471 4a3d
000001c0: 36ce 25bd cd78 9f3d b884 883d 5daa 1f3c
000001d0: 52eb 05bd b27b 66bd 0c2c a53d 9b81 c13d
000001e0: 935a 3e3d 738d 813d 4b0f 36bd ffe4 3b3b
000001f0: 456b 353c 514e b93d e0d4 89b9 248c 313c
00000200: 6c20 d23c a0f0 b6bb b728 a43c db04 4d3d
00000210: c352 b33c f71d 0fbd b7d1 233c 6986 543c
00000220: 5235 24bc bbc7 1eba d477 a83c 4b6e bebb
00000230: 5789 933d 92ed 183d 934c abbc e151 a43d
00000240: 687e 59bd 2a44 90bb 30e4 e6bb 11a3 2e3c
00000250: 3f6b 1e3d e977 64bd 8c06 7bbd c88c a83d
00000260: b258 4bba 1723 e2bb e757 d3ba ecf8 edbc
00000270: 3e9b 143d 20a6 40bc 2892 923d fea4 76bc
00000280: bf03 183d 4e19 8cbd e450 5abd e456 283b
00000290: 1f45 7d3c 2620 933b 8a84 6f3d 940c 72bd
000002a0: 7f9c 97bb 884f 073d 1983 c83c 25fe 293d
000002b0: 3e15 abbc 37dd ed3c 471f e33c 7305 22bc
000002c0: 2a3d 55bd 62d5 6b3d af43 593d 24c9 bfbc
000002d0: 0e62 e1bc 726d b2bc d7f8 543d 3f54 06bd
000002e0: e1de 16bc 249a f93c f603 87bc cd9f 85bd
000002f0: 2c92 71bd b750 98bb 1823 81bc 3a50 883c
00000300: 7904 8e3b c044 d73d 7e6d 8d3d e0f3 a33c
00000310: 37c8 b4bc a462 8d3d d1e0 83bd 14f3 863d
00000320: 0282 e9bc 7793 9abc 77f8 0abd 811d 1abd
00000330: b86c 1a3d 8746 29bd 34a0 19bb 4148 493d
00000340: 8996 533d 29ec 783c 16aa 88bd 3ea0 003d
00000350: 2b4d 703d e8f4 28bd 29e1 a23d 5ea0 173d
00000360: b3aa 5c3d 3e12 4e3d fe9a 7d3d d0b1 493c
00000370: ecca 0abd a518 583d 1b90 203d 15d5 8a3b
00000380: 051f 263d 3df7 aa3d 71d0 fabc 15f4 ec3c
00000390: deca f43c 84d7 bb3d 1298 f83c eb79 71bd
000003a0: 428f ad3b 37e9 943d 3921 fdbc 6096 9d3c
000003b0: dccc ec3b fb73 88bd 0194 a93d c257 8a3d
000003c0: 765c 3ebb cae4 e63d 680f a33d ef1a 0b3d
000003d0: 9e1c 38bd 1f86 85bc 7785 193a 4bf4 103d
000003e0: 75b7 08bd d654 613d 6a08 85ba 5e3e 25bd
000003f0: 67c4 1cbc 16ec 61ba 0ec5 c93c 34a6 7f39

lin3.weight f4 [128, 256]
-0.017248044 -0.027305726 -0.05819054 0.024494438 -0.020386025 -0.021340212 -0.0659539 -0.043224603
-0.049407855 0.0064876764 0.049475275 -0.0060654525 -0.045656458 -0.05326135 -0.017490972 -0.041263137
-0.01321848 -0.031445496 0.024008062 0.039113432 -0.025687134 0.02682579 0.01465327 -0.04173006
-0.023728617 0.038772658 0.034508415 -0.010955666 -0.025211804 0.04534972 -0.019840471 -0.013295684
0.020851959 -0.046928167 -0.015296571 0.01113974 0.04378419 -0.037658304 0.039072875 -0.038289864
-0.004551592 -0.035246678 0.04459237 -0.03319233 -0.00488668 0.0015490269 -0.036663335 0.016864784
-0.029335128 0.007368416 0.03633715 -0.014240137 0.016060285 -0.041226827 0.048849646 0.029320061
-0.025260875 -0.0387363 0.006986029 -0.015309286 -0.037186813 0.039393008 -0.013718517 -0.010446114
0.024798056 0.02128444 0.008540118 0.03181697 0.0550183 -0.0068419003 -0.04301682 -0.02559276
0.0029465407 0.025327671 0.0038054625 -0.03890715 -0.047969505 0.02288939 -0.02194891 -0.001516703
0.013629004 0.0022250775 -0.05845136 0.046486165 0.02918405 -0.060775135 0.053441565 -0.05401266
-0.002733982 -0.0014593505 -0.036012534 0.052202836 -0.037807193 0.025559928 -0.034622535 -0.003798276
0.03481781 -0.05328163 -0.005095775 -0.058848515 0.051491223 0.011720715 0.016734939 0.028722487
-0.04207518 -0.00019755933 -0.053754896 0.0056276894 -0.025262699 -0.021122316 -0.06083704 -0.065928735
-0.008120716 -0.02787123 -0.030034315 0.004381415 0.016023887 0.027609255 -0.052584346 0.004424568
-0.05402823 0.05024622 -0.032880772 -0.030876655 0.010061558 -0.0027929053 -0.04461767 -0.05356164
0.026957743 0.028584136 -0.017697312 0.04309098 0.048637148 -0.06490254 0.04610675 -0.021205883
-0.04174435 -0.05774309 0.027786909 0.042409196 -0.007205077 0.046647694 0.00049154717 0.0010415822
0.012923002 0.02063271 -0.011517032 -0.0041872635 -0.03448342 -0.018395372 -0.017388664 -0.020400856
0.0021059618 0.027823023 0.03419234 -0.0046687233 0.018229548 -0.017574914 -0.06424865 -0.02918294
-0.00061775715 0.043646 -0.038912583 -0.056635365 -0.005342321 -0.012426895 -0.03648222 -0.032037444
0.007579773 0.044440333 0.05300013 -0.06296425 -0.025033772 0.047519963 -0.014922018 0.017658701
0.034107074 0.034338407 0.0052986005 0.053852446 -0.02772534 -0.024756227 -0.002521742 -0.033532403
-0.011251701 0.04004679 -0.010277097 -0.06673964 0.02661605 -0.039078612 0.029183216 0.032731093
0.0022071209 -0.030601447 0.035751067 -0.029464591 0.03699098 0.05302243 0.03438547 0.027847731
-0.063236184 0.020483213 -0.0600023 -0.02230869 0.009908726 0.021464031 0.05415049 -0.00031371415
0.017229436 -0.061439082 -0.059025228 -0.050570093 -0.04223063 0.053919297 -0.03208245 -0.030119589
-0.031305283 0.02306357 0.038066983 0.016380578 -0.06824251 -0.054625735 -0.0560776 -0.055043533
0.009498921 -0.051977176 -0.054618176 0.022696292 0.03782007 0.033396453 0.00069733645 0.013083989
-0.06810214 0.02780436 0.0054558096 -0.050548665 0.04591516 -0.059817646 -0.014961158 0.0018730122
0.034064207 -0.05363255 0.015687 -0.013135985 -0.026325801 -0.03172495 0.012025712 0.020253548
-0.06367737 0.041284237 -0.06184815 0.029964544 0.031516742 -0.024861732 0.0520962 -0.015748074
00000000: c54b 8dbc 42b0 dfbc 3459 6ebd 8fa8 c83c
00000010: 9800 a7bc abd1 aebc d712 87bd 480c 31bd
00000020: e45f 4abd 9396 d43b 96a6 4a3d b4c0 c6bb
00000030: 4402 3bbd 9328 5abd 3a49 8fbc 8903 29bd
00000040: 5392 58bc fecc 00bd 8eac c43c 6835 203d
00000050: d36d d2bc c2c1 db3c 4514 703c 24ed 2abd
00000060: 8462 c2bc 14d0 1e3d b258 0d3d 657f 33bc
00000070: fc88 cebc a1c0 393d 7c88 a2bc 24d6 59bc
00000080: bad1 aa3c c037 40bd 789e 7abc 7583 363c
00000090: 0d57 333d 983f 1abd e10a 203d d5d5 1cbd
000000a0: 8525 95bb d25e 10bd 7da6 363d aef4 07bd
000000b0: 7120 a0bb b808 cb3a 4b2c 16bd 0428 8a3c
000000c0: 3950 f0bc c172 f13b 43d6 143d 774f 69bc
000000d0: dc90 833c 76dd 28bd 9116 483d a030 f03c
000000e0: e5ef cebc f4a9 1ebd 0feb e43b cdd3 7abc
000000f0: 3351 18bd 905a 213d a1c3 60bc 2e26 2bbc
00000100: 4b25 cb3c b55c ae3c daeb 0b3c 8352 023d
00000110: de5a 613d 0532 e0bb 6832 30bd e8a7 d1bc
00000120: c01a 413b fa7b cf3c 1165 793b 1b5d 1fbd
00000130: ac7b 44bd 8882 bb3c 33ce b3bc 1ccc c6ba
00000140: 304c 5f3c 9bd2 113b b16a 6fbd 4768 3e3d
00000150: 6413 ef3c 59ef 78bd 8be5 5a3d 613c 5dbd
00000160: 9b2c 33bb ad47 bfba e181 13bd a4d2 553d
00000170: b7db 1abd 0e63 d13c 5cd0 0dbd 7fec 78bb
00000180: 1f9d 0e3d d73d 5abd 75fa a6bb 240b 71bd
00000190: 76e8 523d 3e08 403c b617 893c 6c4b eb3c
000001a0: 0657 2cbd ee27 4fb9 182e 5cbd 7b68 b83b
000001b0: b8f3 cebc b508 adbc 4330 79bd a505 87bd
000001c0: c00c 05bc 3552 e4bc 860a f6bc f991 8f3b
000001d0: 8744 833c ce2c e23c af62 57bd f7fb 903b
000001e0: b54c 5dbd fbce 4d3d fdad 06bd 0af1 fcbc
000001f0: 3cd9 243c 2d09 37bb 05c1 36bd 7363 5bbd
00000200: 7cd6 dc3c 4729 ea3c f4f9 90bc 2b80 303d
00000210: bf37 473d 9feb 84bd 6eda 3c3d f6b7 adbc
00000220: 20fc 2abd 0584 6cbd 5fa1 e33c 44b5 2d3d
00000230: 9118 ecbb a711 3f3d 2cdb 003a b385 883a
00000240: 00bb 533c ee05 a93c efb1 3cbc 5035 89bb
00000250: 7d3e 0dbd e4b1 96bc ac72 8ebc b21f a7bc
00000260: 2d04 0a3b 1ced e33c 440d 0c3d 17fc 98bb
00000270: 2256 953c 44f9 8fbc cc94 83bd 1011 efbc
00000280: fbf0 21ba 26c6 323d cd62 1fbd 7cfa 67bd
00000290: a30e afbb 2d9a 4bbc 616e 15bd b239 03bd
000002a0: bf5f f83b 1107 363d aa16 593d 67f3 80bd
000002b0: a013 cdbc 4ba4 423d 7b7b 74bc fba8 903c
000002c0: dcb3 0b3d 6ea6 0c3d e29f ad3b 6294 5c3d
000002d0: 4120 e3bc 92cd cabc cf43 25bb 4659 09bd
000002e0: 0e59 38bc 1a08 243d 4561 28bc cbae 88bd
000002f0: e709 da3c e510 20bd a411 ef3c 0a11 063d
00000300: 58a5 103b e3af fabc b66f 123d ba5f f1bc
00000310: db83 173d 0c2e 593d c7d7 0c3d ed20 e43c
00000320: f981 81bd 69cc a73c f9c4 75bd b7c0 b6bc
00000330: 3658 223c 56d5 af3c e7cc 5d3d 007a a4b9
00000340: bf24 8d3c 8ca7 7bbd 70c4 71bd 9622 4fbd
00000350: 06fa 2cbd 7bda 5c3d e368 03bd 5bbd f6bc
00000360: f839 00bd d0ef bc3c 20ec 1b3d 9030 863c
00000370: bbc2 8bbd 3cbf 5fbd a0b1 65bd 5475 61bd
00000380: 5da1 1b3c 05e6 54bd 4fb7 5fbd 93ed b93c
00000390: 38e9 1a3d b8ca 083d 75cd 363a 3a5e 563c
000003a0: 2379 8bbd f8c5 e33c a6c6 b23b 1e0c 4fbd
000003b0: 8911 3c3d 5903 75bd a51f 75bc dc7f f53a
000003c0: e986 0b3d cead 5bbd 0682 803c 5038 57bc
000003d0: 35a9 d7bc 05f2 01bd 7e07 453c c5ea a53c
000003e0: 4869 82bd a919 293d 7c54 7dbd 3478 f53c
000003f0: b317 013d d5aa cbbc d362 553d 1b02 81bc

lin3.bias f4 [128]
-0.038382288 0.027615687 0.016759885 0.0050812657 -0.034586404 -0.044943098 0.016391173 -0.03099353
-0.02732033 0.051930793 -0.055170383 0.035292838 0.016681975 0.029833179 -0.0057838266 -0.035312027
-0.0045803823 0.010772898 -0.057228792 0.0035069857 -0.0023157832 0.003999895 0.034910817 0.015610334
0.046245273 0.028555468 0.0023366017 -0.0492448 0.04264231 0.07490152 0.0078189075 -0.049614318
0.03530966 -0.027165363 -0.011723834 0.04860231 -0.008157389 -0.022648044 0.042285826 0.04717424
0.02223991 0.030922988 0.037825614 0.03357374 -0.034142446 0.04117096 0.016000636 -0.033759255
0.04459248 -0.031943966 0.024023635 0.08445467 -0.026492938 0.030155063 -0.050578028 0.05069228
-0.010015905 0.0008338137 0.005285775 -0.042122066 -0.004926655 0.025239248 -0.0366465 0.035008058
0.06947449 -0.03579093 -0.04095257 0.02074414 -0.008356467 0.03953028 0.05333261 -0.046687122
-0.018792465 0.0011436199 -0.016896535 0.05466583 -0.039206833 -0.01056005 -0.022825481 0.062345434
-0.021846669 -0.04215539 -0.012612995 0.007930196 0.027823264 0.035834998 0.04275218 0.05993171
0.004528186 0.049507663 -0.0262127 -0.004853159 0.03231713 0.0062822667 -0.050000455 -6.147509e-05
-0.016098518 0.013804616 0.030756177 0.03888136 0.04648986 0.05275125 0.037186224 -0.011096677
-0.0439048 0.01992252 -0.005521934 -0.009683361 0.051442925 0.07105327 -0.015673902 0.003855203
0.04402543 -0.031401556 -0.0069243805 0.025609279 -0.0016173816 0.011767158 -0.011407209 -0.0021598586
0.022713289 -0.050564706 0.051086392 -0.04652151 0.008307196 0.02174553 -0.004948455 -0.011881404
00000000: bf36 1dbd 4b3a e23c 074c 893c bf80 a63b
00000010: 79aa 0dbd 4116 38bd c846 863c 25e6 fdbc
00000020: e2ce dfbc 62b5 543d 57fa 61bd 398f 103d
00000030: a3a8 883c b664 f43c 4186 bdbb 58a3 10bd
00000040: 0817 96bb cf80 303c bd68 6abd 75d5 653b
00000050: 65c4 17bb 8d11 833b a5fe 0e3d 7dc2 7f3c
00000060: af6b 3d3d 28ed e93c ac21 193b eab4 49bd
00000070: b4a9 2e3d f865 993d e01a 003c 6238 4bbd
00000080: dda0 103d e589 debc 5315 40bc 3713 473d
00000090: 92a6 05bc 6488 b9bc e733 2d3d c739 413d
000000a0: 7930 b63c 3552 fd3c 08ef 1a3d 9e84 093d
000000b0: f3d8 0bbd e1a2 283d c413 833c 2547 0abd
000000c0: 9ba6 363d add7 02bd 37cd c43c 92f6 ac3d
000000d0: b807 d9bc c007 f73c e82a 4fbd b5a2 4f3d
000000e0: c019 24bc 4a94 5a3a 4b34 ad3b 3088 2cbd
000000f0: c76f a1bb 8ac2 ce3c a41a 16bd 9c64 0f3d
00000100: a448 8e3d 8399 12bd e2bd 27bd 9def a93c
00000110: 90e9 08bc 81ea 213d 4b73 5a3d ff3a 3fbd
00000120: a8f2 99bc 84e5 953a 9a6a 8abc 47e9 5f3d
00000130: 5897 20bd 0f04 2dbc 81fc babc ed5d 7f3d
00000140: c9f7 b2bc 21ab 2cbd bca6 4ebc a7ed 013c
00000150: 9ded e33c b8c7 123d e91c 2f3d f47a 753d
00000160: 2d61 943b 8cc8 4a3d 04bc d6bc 4007 9fbb
00000170: f85e 043d 79db cd3b 47cd 4cbd 30ec 80b8
00000180: 0ae1 83bc c22c 623c 61f4 fb3c 1042 1f3d
00000190: 276c 3e3d b211 583d 9550 183d d6ce 35bc
000001a0: 85d5 33bd 8d34 a33c 57f1 b4bb f6a6 1ebc
000001b0: d1b5 523d 6084 913d 8e66 80bc 93a7 7c3b
000001c0: 0254 343d eb9e 00bd eae5 e2bb 8dca d13c
000001d0: 52fe d3ba 0acb 403c 4de5 3abc 6a8c 0dbb
000001e0: 3811 ba3c f01c 4fbd f73f 513d 578d 3ebd
000001f0: e81a 083c af23 b23c a626 a2bb 38aa 42bc

lin4.weight f4 [64, 128]
0.023743901 -0.052843913 0.082414895 0.018597625 0.022958305 0.014887916 0.09365828 0.021176977
0.06198989 0.09100746 -0.08027549 -0.0150083825 -0.069492035 -0.023705656 -0.06965933 0.0022904428
0.0546858 -0.044194646 -0.02926953 0.017835487 0.06141799 -0.0038037333 0.030027539 -0.057427607
0.052547064 0.06874215 -0.060869414 -0.03626358 0.049544588 -0.07207807 -0.0716865 -0.040156364
-0.021494571 0.010438239 -0.016316304 0.08162794 -0.046857413 0.08172606 0.05378212 -0.043923113
0.010601829 0.06828314 -0.017157083 -0.07249546 0.079057015 0.007551077 -0.079041705 0.015687637
0.050108545 0.031039022 0.060223747 -0.033177204 0.06716353 -0.041115142 -0.05320518 0.09343725
0.08194732 -0.08230349 -0.061688513 -0.006960391 0.060925204 0.016640732 0.07210342 0.061145008
0.034529854 0.012540133 0.09266818 0.024441125 -0.031406622 -0.0049183983 -0.07529459 0.07520638
0.06678431 0.06780988 -0.05422964 -0.03563661 0.06965454 0.05323472 -0.009923213 0.06784792
0.032597896 -0.06100678 0.056463607 -0.034757245 -0.021359235 0.07488551 0.04272566 0.06378024
-0.04921814 -0.00044644924 -0.07699716 0.011556524 -0.005466715 -0.051876042 0.04173517 -0.0039926367
0.03970557 -0.06937801 -0.04707146 0.06028253 -0.0080993995 -0.036108986 -0.057902664 0.04596234
0.08680349 -0.0059296074 -0.03155179 -0.03676863 -0.06647043 -0.047350828 0.05343643 0.0381786
-0.04231894 -0.026104355 -0.01130341 0.07444613 0.03392763 -0.008293517 0.010128807 0.0357918
0.071181305 -0.010468373 -0.010639986 0.0037866621 -0.049677107 -0.0036439826 0.093519635 -0.048391137
0.0080268625 -0.03142309 -0.031036038 0.0467566 -0.014136346 -0.02066031 0.057563458 0.07289887
0.03789666 -0.010185 -0.04822426 0.09560583 0.036141228 0.015611222 -0.07671118 0.069879964
-0.05205967 0.028471965 0.065090224 0.07448215 -0.024516918 0.050453287 0.015761487 0.0508579
-0.07277816 0.024638196 -0.067929246 0.07641492 0.03309764 -0.027852649 -0.017939532 0.046001423
0.0036979367 -0.08232295 0.043882772 -0.04808518 0.092320696 -0.012682027 0.080414884 -0.0024251323
-0.06768349 0.08265722 0.03791787 0.031976167 0.04299284 -0.07974315 0.03717445 0.046170857
-0.036545023 0.0024355622 0.05360927 -0.009681476 0.02563782 0.049174577 0.06395716 -0.043394424
0.057429656 -0.026520811 0.0756094 -0.0011145634 -0.03874914 0.080102555 0.010148438 0.060904466
-0.021972964 -0.0024187462 0.024339743 0.042728767 -0.06344241 -0.032104596 0.09368944 -0.006391378
0.01313773 -0.0791258 0.021065623 0.01224775 -0.044836134 -0.069360085 0.09174062 -0.0042826487
-0.006731374 -0.057050943 0.03519899 -0.012714198 0.08669019 0.09211389 -0.025177982 0.08131947
-0.02898904 -0.058682367 -0.02483419 -0.026770953 0.034641813 -0.07517968 0.081921905 -0.070872195
-0.027562471 -0.07914143 -0.07777039 -0.0648507 0.04132104 -0.01809157 -0.07000973 0.01458979
-0.00834971 -0.074414745 -0.04323687 0.04870321 -0.06997791 0.09147011 0.092773 -0.0015833824
0.040424343 0.01656025 -0.014133289 -0.0032229908 0.025899515 -0.05827078 0.08404671 -0.0025064345
0.057903573 0.06988618 0.098829135 -0.0644487 0.052295536 0.015871102 -0.06386971 0.088674895
00000000: 9282 c23c dc72 58bd 24c9 a83d 0c5a 983c
00000010: 0e13 bc3c 72ec 733c eacf bf3d 577b ad3c
00000020: 1ce9 7d3d 1f62 ba3d 7a67 a4bd b8e5 75bc
00000030: d751 8ebd 5d32 c2bc 8da9 8ebd 411b 163b
00000040: 38fe 5f3d 7205 35bd a7c6 efbc ba1b 923c
00000050: 6e91 7b3d 0e48 79bb 50fc f53c 3639 6bbd
00000060: 973b 573d afc8 8c3d 3552 79bd 1f89 14bd
00000070: 44ef 4a3d ab9d 93bd 5fd0 92bd 007b 24bd
00000080: 6215 b0bc 2605 2b3c c5a9 85bc 8d2c a73d
00000090: 8fed 3fbd fe5f a73d a44a 5c3d b9e8 33bd
000000a0: 4bb3 2d3c 08d8 8b3d 038d 8cbc 8078 94bd
000000b0: a5e8 a13d 066f f73b 9ee0 a1bd 5c83 803c
000000c0: 9e3e 4d3d 8c45 fe3c 2dad 763d d2e4 07bd
000000d0: 088d 893d 5a68 28bd aded 59bd 075c bf3d
000000e0: ffd3 a73d bb8e a8bd 18ad 7cbd fe13 e4bb
000000f0: b58c 793d 2552 883c f5aa 933d 3073 7a3d
00000100: 2d6f 0d3d 2175 4d3c d1c8 bd3d c138 c83c
00000110: 3ba4 00bd 842a a1bb 0d34 9abd cd05 9a3d
00000120: 36c6 883d e8df 8a3d e61f 5ebd b2f7 11bd
00000130: 0aa7 8e3d a60c 5a3d f994 22bc daf3 8a3d
00000140: 5f85 053d 3fe2 79bd 6246 673d 9d5d 0ebd
00000150: 90f9 aebc 935d 993d 1a01 2f3d 379f 823d
00000160: f698 49bd 6711 eab9 b0b0 9dbd 9357 3d3c
00000170: 2122 b3bb f97b 54bd 7ff2 2a3d aad4 82bb
00000180: 4fa2 223d 0f16 8ebd 01ce 40bd d0ea 763d
00000190: 58b3 04bc 04e7 13bd 582b 6dbd 0243 3c3d
000001a0: 07c6 b13d 274d c2bb 733c 01bd b49a 16bd
000001b0: a621 88bd f1f2 41bd 28e0 5a3d 2a61 1c3d
000001c0: a056 2dbd cdd8 d5bc f031 39bc 3677 983d
000001d0: b3f7 0a3d 88e1 07bc 4cf3 253c 6c9a 123d
000001e0: 81c7 913d 8a83 2bbc 5653 2ebc a629 783b
000001f0: 397a 4bbd e2cf 6ebb 3987 bf3d c935 46bd
00000200: 1a83 033c 7fb5 00bd 4a3f febc d983 3f3d
00000210: 229c 67bc cf3f a9bc a9c7 6b3d 014c 953d
00000220: 8739 1b3d fcde 26bc cd86 45bd fdcc c33d
00000230: d308 143d 36c6 7f3c c01a 9dbd 3a1d 8f3d
00000240: 853c 55bd 0a3e e93c 064e 853d 198a 983d
00000250: b4d7 c8bc 1ba8 4e3d 3c1e 813c 6050 503d
00000260: b70c 95bd 0bd6 c93c 7d1e 8bbd 6d7f 9c3d
00000270: 6491 073d 3d2b e4bc edf5 92bc fd6b 3c3d
00000280: 1559 723b ef98 a8bd 6cbe 333d f7f4 44bd
00000290: a212 bd3d 47c8 4fbc 8fb0 a43d f8ee 1ebb
000002a0: a49d 8abd 3048 a93d c54f 1b3d 71f9 023d
000002b0: 4319 303d 6050 a3bd 3c44 183d a71d 3d3d
000002c0: 3cb0 15bd f49d 1f3b 6595 5b3d 0e9f 1ebc
000002d0: 6806 d23c 486b 493d f9fb 823d 5abe 31bd
000002e0: 5c3b 6b3d 2c42 d9bc 1ad9 9a3d 8b16 92ba
000002f0: 6bb7 1ebd cf0c a43d a245 263c f676 793d
00000300: a500 b4bc d483 1ebb 2464 c73c 5c04 2f3d
00000310: 18ee 81bd 1c80 03bd 40e0 bf3d c46e d1bb
00000320: a23f 573c b50c a2bd d091 ac3c c9aa 483c
00000330: 18a6 37bd a90c 8ebd 82e2 bb3d 7655 8cbb
00000340: dc92 dcbb 40ae 69bd d12c 103d 364f 50bc
00000350: a08a b13d 35a6 bc3d 0e42 cebc d38a a63d
00000360: 6c7a edbc ec5c 70bd 1271 cbbc c24e dbbc
00000370: 93e4 0d3d cef7 99bd acc6 a73d 7125 91bd
00000380: b1ca e1bc e714 a2bd 1546 9fbd 72d0 84bd
00000390: 4040 293d c634 94bc 4361 8fbd 040a 6f3c
000003a0: 39cd 08bc c266 98bd 2519 31bd 047d 473d
000003b0: 9450 8fbd ae54 bb3d c5ff bd3d 7f89 cfba
000003c0: ff93 253d 5da9 873c 508f 67bc d038 53bb
000003d0: 382b d43c 57ad 6ebd ae20 ac3d fe42 24bb
000003e0: 4c2c 6d3d 7c20 8f3d ee66 ca3d aefd 83bd
000003f0: d833 563d 1d04 823c 1fce 82bd 2f9b b53d

lin4.bias f4 [64]
-0.048556443 0.090501234 -0.06828864 -0.060186878 0.03462494 -0.026994709 0.026449008 -0.04099721
-0.08194983 0.0067654885 -0.0437669 0.07165566 0.047291353 -0.01118928 0.011731304 0.0070886305
0.043851744 0.037960596 -0.06849969 -0.0145687945 -0.05940559 -0.081646174 0.04221642 0.045023054
-0.012521606 0.035401978 0.06456773 0.03139741 -0.06559516 -0.072835036 -0.06311409 0.06467579
-0.010038605 0.02050126 0.10050106 -0.0077356934 0.0536832 -0.10802469 0.071195655 -0.036061216
0.08957422 0.0572816 -0.067960106 -0.057863936 -0.048567258 -0.08905162 -0.08374729 0.044789534
-0.063159995 -0.015997794 0.010204033 0.06557899 -0.016851826 0.050137106 -0.07844299 0.04841854
0.020852068 -0.07667367 -0.09609545 0.03723615 -0.09323035 -0.10259636 0.009061582 0.06288684
00000000: 1fe3 46bd b658 b93d eada 8bbd 8486 76bd
00000010: e2d2 0d3d 0224 ddbc 97ab d83c b1ec 27bd
00000020: 50d5 a7bd 08b1 dd3b ec44 33bd 34c0 923d
00000030: 94b4 413d 3e53 37bc a834 403c be47 e83b
00000040: e39d 333d 927c 1b3d 9149 8cbd f4b1 6ebc
00000050: 4753 73bd 1c36 a7bd 20eb 2c3d 186a 383d
00000060: 6c27 4dbc aa01 113d 163c 843d 929a 003d
00000070: c156 86bd 892a 95bd f641 81bd be74 843d
00000080: f678 24bc 42f2 a73c 80d3 cd3d b37b fdbb
00000090: eae2 5b3d 0c3c ddbd 07cf 913d edb4 13bd
000000a0: b072 b73d 1ca0 6a3d ab2e 8bbd bc02 6dbd
000000b0: 76ee 46bd b260 b6bd b383 abbd 3b75 373d
000000c0: 075a 81bd ce0d 83bc d12e 273c 474e 863d
000000d0: d70c 8abc 915c 4d3d b8a6 a0bd 8552 463d
000000e0: f5d1 aa3c 1607 9dbd b1cd c4bd ef84 183d
000000f0: 8eef bebd 0a1e d2bd 0877 143c d1ca 803d

lin5.weight f4 [19, 64]
0.06431616 0.10477855 -0.065005474 0.031568993 0.06422845 0.065226056 -0.024264779 -0.057866238
0.080848984 -0.10701099 0.028626537 -0.0265363 -0.0078436425 -0.09597712 -0.08199769 -0.033884943
0.11038785 0.05772391 -0.0015961361 -0.0685216 -0.10772742 -0.043517638 -0.07604556 -0.024399675
-0.008326241 -0.05411104 0.007135887 -0.045109037 0.111465864 -0.026050998 -0.089310944 -0.0062942663
0.013795642 0.09510232 0.03896751 0.11859723 -0.1268007 0.08709632 0.0051439214 -0.07184008
-0.10124308 -0.07262111 -0.08903374 0.08266106 -0.046818882 0.062427964 0.05656203 -0.0990523
-0.08475372 -0.016256088 -0.075182214 -0.0863286 -0.010263944 0.13026138 0.077101976 -0.06760464
-0.067989916 0.071124785 -0.089503735 0.056104533 -0.107528314 -0.012294367 -0.123229384 -0.091313004
-0.10993225 0.10153378 -0.10242932 0.049615785 0.0709561 0.06938863 0.046427794 -0.07422467
0.115635745 0.07102079 -0.026942538 -0.055457756 -0.080128066 0.09746497 -0.08047779 0.08485401
-0.053241752 -0.07472255 -0.08080971 0.0151818395 0.035573494 0.0022999395 -0.06851799 0.029994695
-0.0017851586 -0.059220616 -0.07407515 0.035589673 -0.015741518 -0.046874054 0.013925219 -0.017469
0.048846137 0.033392888 -0.11645532 -0.0884482 0.09307288 -0.06630145 -0.10307911 0.0349603
0.09555016 -0.003325726 0.05047137 -0.11560606 -0.001329766 0.055617716 -0.044100545 -0.0052136397
0.05375591 -0.079742104 0.07083121 -0.112344414 0.08387715 -0.083465956 -0.062013477 0.061687395
-0.039132603 -0.08130935 -0.015010487 -0.013937708 0.012645312 -0.09309822 -0.048158508 -0.08614853
0.04089409 -0.025464308 -0.00045880355 0.06406898 -0.013707018 0.04165542 0.019668872 0.101039045
-0.09601809 0.10352804 -0.015297846 0.10178434 -0.0017809519 -0.013762176 -0.032367665 0.023178987
0.10146321 -0.020548249 -0.11067625 0.04116764 0.043319702 -0.079060346 -0.069704995 0.1162506
-0.070683375 0.069520466 0.05690957 -0.08643175 0.004641069 0.13472864 0.11631569 -0.08008
-0.1134571 0.006442967 0.04943545 0.038034588 -0.022036465 -0.10869139 0.036781725 -0.038357668
0.017513841 0.011633939 -0.03125965 -0.106269896 0.02486815 0.029529663 0.1096329 -0.10946081
-0.025003027 0.082482874 -0.06864851 0.029335657 -0.10815663 0.016141765 0.06626992 -0.0326144
0.06183694 0.03698063 -0.028148916 -0.059210602 0.011209276 -0.014392725 0.0022172628 -0.028656198
-0.057360653 0.037677385 -0.05571316 0.059207343 0.05786578 0.059252582 -0.12516628 0.10712022
-0.02315593 0.09521349 0.063944444 -0.013046347 0.08817418 -0.03702785 0.016515695 -0.026189553
-0.00955372 0.07051982 0.035407744 -0.117276095 0.09178358 0.069091216 0.076834224 0.040260464
-0.102721095 0.09443493 -0.10532936 -0.06643328 0.03597874 -0.03114672 0.07492667 -0.020083334
0.025292361 -0.11664686 -0.0005999991 -0.061673023 -0.08155412 -0.11177988 0.056657318 -0.045277167
-0.023458714 -0.0019471595 0.01978955 0.11188914 -0.0036200495 -0.006641674 0.009622551 0.09517626
-0.0063070734 0.09143211 0.027546078 0.10481115 0.10421939 -0.027099613 -0.10592745 0.009118997
-0.060027584 -0.0063676652 -0.06555842 -0.074130505 -0.10154123 -0.10912882 -0.0019987065 -0.0013389167
00000000: 31b8 833d 2396 d63d 9721 85bd 7d4e 013d
00000010: 358a 833d 3d95 853d eec6 c6bc 2605 6dbd
00000020: 2794 a53d 9428 dbbd 3382 ea3c a862 d9bc
00000030: 9f82 00bc a78f c4bd 68ee a7bd f0ca 0abd
00000040: 0613 e23d e86f 6c3d 7135 d1ba 0d55 8cbd
00000050: 32a0 dcbd 8d3f 32bd c6bd 9bbd d4e1 c7bc
00000060: c96a 08bc 8aa3 5dbd 29d4 e93b 41c4 38bd
00000070: 3748 e43d e768 d5bc a8e8 b6bd 2240 cebb
00000080: 1e07 623c 01c5 c23d 659c 1f3d 1be3 f23d
00000090: 0bd8 01be 8e5f b23d 578e a83b e420 93bd
000000a0: 8858 cfbd 60ba 94bd 5257 b6bd 344a a93d
000000b0: 28c5 3fbd 77b4 7f3d 96ad 673d efdb cabd
000000c0: 5c93 adbd 7d2b 85bc 22f9 99bd 0dcd b0bd
000000d0: 1a2a 28bc 3d63 053e a4e7 9d3d 4d74 8abd
000000e0: 4c3e 8bbd dfa9 913d bc4d b7bd decd 653d
000000f0: ce37 dcbd 506e 49bc b05f fcbd 5002 bbbd
00000100: 2924 e1bd f1f0 cf3d 77c6 d1bd ec39 4b3d
00000110: 6f51 913d a01b 8e3d 122b 3e3d 1b03 98bd
00000120: 6fd2 ec3d 5973 913d 99b6 dcbc ac27 63bd
00000130: 2f1a a4bd b79b c73d 8ad1 a4bd f0c7 ad3d
00000140: 0614 5abd 2308 99bd 907f a5bd 40bd 783c
00000150: 83b5 113d 95ba 163b 2953 8cbd 6fb7 f53c
00000160: fcfb e9ba 5191 72bd b6b4 97bd 7ac6 113d
00000170: 5bf4 80bc 02ff 3fbd 9a26 643c 261b 8fbc
00000180: e312 483d fbc6 083d 2080 eebd 5424 b5bd
00000190: fe9c be3d 0ec9 87bd 241b d3bd 8832 0f3d
000001a0: cdaf c33d 6cf4 59bb 11bb 4e3d dfc2 ecbd
000001b0: 8b4b aeba 67cf 633d c6a2 34bd 2ed7 aabb
000001c0: 282f 5c3d d44f a3bd f40f 913d d414 e6bd
000001d0: c9c7 ab3d 33f0 aabd d801 7ebd ecab 7c3d
000001e0: 8249 20bd 8485 a6bd 8cee 75bc fc5a 64bc
000001f0: 482e 4f3c 48aa bebd db41 45bd a46e b0bd
00000200: 9080 273d 869a d0bc 928b f0b9 9936 833d
00000210: 6793 60bc e09e 2a3d 9d20 a13c 8fed ce3d
00000220: 22a5 c4bd 8206 d43d d1a3 7abc 4f74 d03d
00000230: d46e e9ba c07a 61bc f593 04bd dce1 bd3c
00000240: f2cb cf3d cd54 a8bc 3baa e2bd 669f 283d
00000250: 0070 313d 64ea a1bd 7ec1 8ebd cb14 ee3d
00000260: 72c2 90bd bf60 8e3d 021a 693d 2103 b1bd
00000270: 1c14 983b 4ef6 093e ec36 ee3d fc00 a4bd
00000280: 325c e8bd 861f d33b d47c 4a3d 28ca 1b3d
00000290: d185 b4bc 9799 debd 6fa8 163d ee1c 1dbd
000002a0: 3079 8f3c 479c 3e3c 1e0a 00bd 08a4 d9bd
000002b0: 4ab8 cb3c 31e8 f13c 3787 e03d fd2c e0bd
000002c0: 26d3 ccbc c8ec a83d 9797 8cbd 5551 f03c
000002d0: 3981 ddbd bc3b 843c 86b8 873d ad96 05bd
000002e0: bb48 7d3d 0079 173d 8e98 e6bc d186 72bd
000002f0: 1ca7 373c 77cf 6bbc 7f4f 113b 67c0 eabc
00000300: 01f3 6abd 9a53 1a3d 7c33 64bd 6683 723d
00000310: ab04 6d3d d6b2 723d 972b 00be d961 db3d
00000320: 81b1 bdbc 4aff c23d 4ef5 823d 58c0 55bc
00000330: aa94 b43d 84aa 17bd ec4b 873c 798b d6bc
00000340: 3587 1cbc b26c 903d b607 113d 732e f0bd
00000350: 08f9 bb3d b27f 8d3d 435b 9d3d 28e8 243d
00000360: 705f d2bd 1a67 c13d ebb6 d7bd 2c0e 88bd
00000370: 715e 133d 6827 ffbc 2773 993d ce85 a4bc
00000380: ed31 cf3c 8de4 eebd 4249 1dba da9c 7cbd
00000390: d905 a7bd daec e4bd 8111 683d 8d74 39bd
000003a0: 7d2c c0bc d537 ffba b21d a23c 2226 e53d
000003b0: 5a3e 6dbb 66a2 d9bb e7a7 1d3c c5eb c23d
000003c0: 91ab cebb c240 bb3d 50a8 e13c 3aa7 d63d
000003d0: fa70 d53d 0200 debc 7ef0 d8bd d867 153c
000003e0: 7cdf 75bd d9a7 d0bb 7e43 86bd bcd1 97bd
000003f0: d9f4 cfbd ee7e dfbd bbfc 02bb 977e afba

lin5.bias f4 [19]
-0.041175198 -0.036596753 0.119885 0.0016426983 0.00685535 0.084231906 0.07663903 -0.03824663
0.008270994 0.028217534 0.07265851 -0.09296451 -0.07628543 0.0014927667 -0.061553314 0.0991252
0.03551094 0.13717052 -0.0032099618
00000000: 53a7 28bd 7ae6 15bd 4486 f53d cf4f d73a
00000010: d8a2 e03b c781 ac3d ecf4 9c3d 80a8 1cbd
00000020: 1083 073c 7528 e73c fccd 943d 2d64 bebd
00000030: 893b 9cbd f0a8 c33a 541f 7cbd 2702 cb3d
00000040: eb73 113d 6e76 0c3e 395e 52bb
