src/virtuose_teleoperation/network_controller/trained_policy_MLP/Pull_skill.pth (torch, 462279 bytes, 10 tensors)

lin1.weight f4 [256, 27]
00000000: f2c9 d93b 1594 05be ccd7 75bd e871 613d
00000010: 42a0 f23c ada1 8cbd f4e7 443e 4e7f 163d
00000020: d5af b7bd 3e12 02be 9202 f43d 77e6 97bc
00000030: ac31 6bbd d4fe 84bd ec6e c4bd 9191 13bc
00000040: 947d 33be 27d2 763d d2e2 203e 74d7 3ebd
00000050: b0e0 3cbe dd11 913d e5d0 2cbe e117 083e
00000060: 5918 983d 67ba c33d d64e 453c 21ec a9bd
00000070: 57ef db3d ed0a 043e 4a09 b6be f1ee 5fbd
00000080: a750 ffbc 8fb8 57be 3182 73be 0c01 993d
00000090: 8ffd 21be 4ca6 a8bc 8a65 53be fb94 19be
000000a0: 8b29 2d3e 6ad9 db3d 5b48 5cbe 3827 03bd
000000b0: 92f8 f0bd 2c2b 37be 1308 23be dc3a 213e
000000c0: fbfa 353e 3529 0a3e 758d 21be ae41 0f3e
000000d0: 0d2e 3abe 0ed0 0abd 1736 943c f318 b23d
000000e0: 5ce8 8f3e 1e71 dbbc 7f2c b7bc 92cb 1c3d
000000f0: 472d 7c3e 9e68 65bd 7b44 2f3e 1fc5 ff3d
00000100: a562 d5bd 57d7 30be 529a 393d 0ebe bbbc
00000110: 19a5 933e 9692 0c3e b855 093e a17f 583d
00000120: dc1d 0cbe 8127 a3bd a070 98bd c433 8f3d
00000130: 1ecd 0bbe 004e 763e 6eaa b33c e24a 20be
00000140: d5ce 0d3e 4709 92bd 738f cb3d 7831 833e
00000150: caee 84be 1142 5abe 633f 11be 2e3f ad3c
00000160: 1179 e5ba 6a78 a5bc 384e 063e ffd3 bbbd
00000170: d959 5bbd 9110 1e3e 024d 773e f0ec 16bd
00000180: 835c 30be 4bca 243e 6536 cd3c 8ad7 d5bd
00000190: 544c 04be 8995 223e 1acc a9bb 20ac 983d
000001a0: cce1 c4bd 6310 bf3d 258f 02be 8aa2 6fbe
000001b0: 21d6 12be 7f81 a93d d29a 573e c89b 8bbe
000001c0: 5211 83be aeae c6bd bfde 48bd 4ee3 4dbe
000001d0: c353 49be 4ff3 39be 3260 453e adb1 36be
000001e0: 3ab8 26bd ccda 32be 1d20 eebd 61bd 3ebe
000001f0: 8c37 0e3e 13b4 c93d dbe2 bcbc 41f7 8cbd
00000200: cf66 6b3d f6b8 27be 6107 3c3e bb45 00be
00000210: 6a79 a8bd ac18 d03c 4807 543d f6ff 13be
00000220: cb99 4cbe 48b1 9fbd fb86 d6bd 833f a5bc
00000230: da5d 52be 215a 67be c687 aa3d 69da 3bbd
00000240: c8ef 2fbb c089 67be 3089 223d e719 cf3d
00000250: 583b 04bd 5c99 893d 6cdf 07be ad65 0fbe
00000260: ad88 123e af6e 2bbe bf18 2ebe 878f 24bd
00000270: 1f5d c63d 9950 9ebd 5a96 ff3d fc07 c13c
00000280: 4f0f db3d 69dc 9abd 825c 1f3d d4af fe3c
00000290: 4aed 56bd a417 2fbe f8c1 2cbe e2da 20bd
000002a0: 784b d5bd 0fcb 0c3e d436 8c3b 7b91 f1bc
000002b0: f11b 2d3d 3418 333e 0f64 103d 1127 5abd
000002c0: 8b2e d2bc 4fc4 663d 08e3 e1bd 03b4 ea3d
000002d0: 7967 62bd 0ae4 bdbd 0ff2 833d f690 2fbd
000002e0: 7c57 cebd fb55 013d 1e7f 1e3d 4d37 1fbe
000002f0: 57d8 f73d 635e 023e f30f 21bc d873 433d
00000300: 79b2 1bbe f897 b0bc 479a de3d 29ff f2bd
00000310: 91f5 3a3e 7ade 3e3e 2dfa 75bd 67b4 4cbd
00000320: 47ad fcbd 8d98 a23c af0f 3d3d 7920 b23d
00000330: 8cbd 34be 63b8 303e ce76 233e cce5 27be
00000340: d9fd c23d 2ccd 8bbc 57c9 30be 2014 3dbe
00000350: 8085 27be 4f05 033d 906c 803d b313 2abe
00000360: 67cc 673e e98b 20bc e520 783e 6f5f e83e
00000370: c00e 513e 173d 433e fc08 763e 6f12 eabd
00000380: 9cac 273e 1dff 46be cf5a 913e e741 d23c
00000390: 91d1 f0bd b17e 103e 1e38 efbd 972a 383e
000003a0: e3dc 0fbe eb52 76bd daec 043e 6ed5 083e
000003b0: 86d3 4a3d 0e84 233e 12b6 c0bd 701a 313d
000003c0: 73d9 ebbd 97b7 a93d a5e8 923d fef4 c8bd
000003d0: 5078 3abd 153f 613e 2add 01be b46a c03d
000003e0: d0ce 5e3d 342f b63d f5de 1fbe 2b3a 53bd
000003f0: 59ac 093e eb57 09be 9efc f33d 4b27 45be
0.006646388 -0.1304477 -0.060020253 0.05504027 0.029617433 -0.06866775 0.19229108 0.0367425
-0.08969084 -0.12702271 0.11914553 -0.018542511 -0.057420418 -0.06493917 -0.09591469 -0.009006874
-0.17528373 0.06025901 0.15711525 -0.04659219 -0.18445086 0.07083485 -0.16876562 0.13290359
0.07426519 0.09557038 0.012042722 -0.08296991 0.1073901 0.12894793 -0.35553962 -0.05467123
-0.031166388 -0.21066497 -0.23780133 0.07470903 -0.15819381 -0.020587109 -0.20644203 -0.14998238
0.16910379 0.10734828 -0.21511976 -0.032019824 -0.11766161 -0.17887563 -0.15921049 0.1574511
0.17771523 0.13492282 -0.15776618 0.13989899 -0.1818163 -0.033889823 0.018092198 0.08696165
0.28106964 -0.026787337 -0.022360085 0.038280077 0.24626647 -0.056007974 0.17115967 0.1248877
-0.104192056 -0.17269646 0.045313187 -0.022917774 0.28836897 0.13727793 0.13411605 0.05285609
-0.13683265 -0.07966519 -0.074433565 0.069922954 -0.13652465 0.24053192 0.021931853 -0.15653566
0.13848431 -0.07130676 0.0993947 0.2562368 -0.25963432 -0.21314265 -0.14184336 0.02114829
-0.0017507394 -0.02019902 0.13115776 -0.091712944 -0.053552482 0.15436007 0.2415047 -0.036847055
-0.1722279 0.16092794 0.025050351 -0.104415014 -0.12919742 0.15877356 -0.0051818015 0.07454705
-0.0961338 0.093292974 -0.12749918 -0.23401847 -0.14339496 0.082766525 0.21055153 -0.2726729
-0.25599152 -0.09701286 -0.049040552 -0.20106241 -0.19660859 -0.18159221 0.19274977 -0.17841215
-0.040703036 -0.17466277 -0.11627219 -0.1862693 0.13888377 0.098487996 -0.023057392 -0.068830974
0.057471093 -0.16379151 0.1836219 -0.125266 -0.08226283 0.02540239 0.051764756 -0.1445311
-0.19980542 -0.077974856 -0.10474964 -0.020171886 -0.20543614 -0.22592975 0.08326678 -0.04586259
-0.0026845802 -0.22611141 0.039681613 0.10112362 -0.032283157 0.06718704 -0.13268822 -0.1400363
0.1430995 -0.16741441 -0.17001627 -0.04017594 0.0968573 -0.077302165 0.12479849 0.023563378
0.10696279 -0.07561571 0.03890658 0.0310897 -0.05247239 -0.17098862 -0.16870868 -0.039271243
-0.10414785 0.13749336 0.004278997 -0.029488316 0.042262975 0.17489702 0.035251673 -0.053259913
-0.025656959 0.05633956 -0.11029631 0.11460116 -0.05527446 -0.092720106 0.064426534 -0.042862855
-0.1007528 0.031576138 0.038695447 -0.1554844 0.121018104 0.12731318 -0.009830463 0.0477179
-0.152048 -0.02155684 0.1086927 -0.11865074 0.18257739 0.18639556 -0.06005304 -0.049976733
-0.123377375 0.019848133 0.046157535 0.086976 -0.17650431 0.17257838 0.15963289 -0.16396254
0.09521074 -0.017065607 -0.17264305 -0.18464708 -0.1635952 0.031987485 0.06270707 -0.16609077
0.22636567 -0.009798982 0.24231298 0.4538531 0.20415783 0.19066273 0.24026865 -0.11429297
0.16374439 -0.19433255 0.28389594 0.02566619 -0.117587216 0.14110829 -0.116806254 0.17984997
-0.14049105 -0.06013767 0.12980977 0.13362667 0.04951813 0.15968344 -0.09409727 0.043238103
-0.115160845 0.0828697 0.0717328 -0.098123536 -0.045524895 0.2199672 -0.12682024 0.09395352
0.05439645 0.08895722 -0.15612395 -0.051569145 0.13444652 -0.13412444 0.11913417 -0.1925327

lin1.bias f4 [256]
00000000: dd49 82bd 8083 153e 6856 9d3d 4ff4 fcbd
00000010: 3874 44bc 1eb5 663c 6497 c73d 7380 813d
00000020: e224 8cbd 8c39 203e 04ba 3bbe ba06 b4bc
00000030: e7cd cebd d01f 2fbe d6e2 5d3d 7558 92bc
00000040: e2a6 503e d4f5 ce3d c28c 2bbd a6ad ef3d
00000050: 9e86 92bd 5018 8a3b ddd0 aebd df8d dc3c
00000060: 9a10 6c3d 4e2d de3d 107c 2dbe d99b c0bd
00000070: 878a f73c da89 af3c ee75 36bd b7fe 9d3c
00000080: 35fe 2f3e 4cf5 5b3d 495e b8bd 72b1 843c
00000090: ed00 9d3d 5713 983d 858f 15be 4ced 8d3d
000000a0: 916e 32be e267 073e 0cb0 a0bd e98c dcbd
000000b0: cb86 183e 396c 10be 9777 edbd 0a17 473c
000000c0: e8a0 063d 8630 d43b a2fb 13bd bfca 1a3e
000000d0: 0140 3ebe 5578 7ebc 6149 05be afd9 0bbd
000000e0: 6080 2cbe 01cd 97bd fbc9 1dbe 73c3 e7bc
000000f0: 7068 e5bd 5891 f13c 9ae0 43bd 64d1 a7bd
00000100: 81de 82bd e378 1f3e 8b4f e0bd 97a3 81bd
00000110: e0bd 153e c06d b1bc c10f b7bd 1453 edbd
00000120: 4591 cebd cfd6 c73d c912 813d 6710 00be
00000130: b7fe 753d bd40 95bd 0e6b 33be 93be 3abd
00000140: 0433 8abd 4bd6 c8bd eab6 a33c ccdb 863d
00000150: 16ee d0bc 727a 1cbe 4bc6 a0bd fabf b7bd
00000160: 32f6 813d 9d7c 33be e8f8 ab3d 8c25 2fbe
00000170: 8b94 d13d b595 8c3b 7fea b0bd b966 183d
00000180: 5852 363e 0950 a13d 8505 ac3d 23ce 68bc
00000190: 6f9a 33be 160b c93b 542f cdba 9f27 1b3e
000001a0: 1940 94bc 60dd 233e 6c47 07be 9ace 223e
000001b0: c692 30bd 06cc 31be b112 f23a 4ae7 e5bd
000001c0: 3d19 8c3c 9f19 14bd f29a ff3d 9416 683c
000001d0: acc8 053e 9377 963d 909a 31be 97d0 dcbd
000001e0: 15ed d23c b3af 073e 1ace c83d 1b2e 313e
000001f0: f256 1fbc b092 393d a215 c03a f668 303e
00000200: a568 053e 638e 01be 066e d53c 84c6 7e3c
00000210: 3000 00bd a346 8bbd 4844 24be 999d 113e
00000220: 753a 9dbd afb3 4d3d 82ba 24be 3b16 fe3d
00000230: 204b c8bd 3b57 283e e324 4cbe 04a6 e03c
00000240: 65aa 65bd b1d3 243e 92cd 663c 2b6d d7bd
00000250: 1bb9 aebd a922 a53a 9397 083e 64ff e03d
00000260: 6519 bb3d dc93 963d 5d07 5ebc 979e 0f3e
00000270: 4067 0f3e 18b3 2bbe 9933 32bd 2115 1bbd
00000280: ce09 df3d 81a5 b93d a13f 843c 0af9 e63d
00000290: 9734 3ebd a522 103e bb07 03be 7d87 d73d
000002a0: 3ea0 2e3e 1c46 04be c843 863c 482b 93bc
000002b0: 123d 03bc d16a c93c e62b fdbd 0537 083d
000002c0: 33e6 b43d 0c1e 6cbd edd6 8e3d e3c0 03be
000002d0: 999b 003e 8052 0ebe 9e46 313e ded1 803d
000002e0: 3365 35be 5092 d0bc 3d88 1c3e fa1e 853d
000002f0: d8cf 10be d6bd e03d c340 c93d 4e9f acbc
00000300: 6e09 863d 6a8c 26bd e31c 19be 168c 2ebe
00000310: d378 083e cf3d 8e3d 61ed 9cbc 375e c93a
00000320: 8c72 a93d 8723 213e a9fa 88bd 646c 38be
00000330: 58c1 3ebc c33a 35be 5649 183e 7cc2 9a3b
00000340: bda2 bd3d 92d7 393d f1ad 393e db86 a93c
00000350: cd2c 0abe f908 af3c d719 e03b b923 d6bd
00000360: 715b a3bd 4846 bfbd e944 7abd 6a47 fe3d
00000370: 798c d43d 6f62 efbc 1500 72bd b44e 023d
00000380: 14e9 8cbd 119c c03d 995d d8bd 9c89 6f3d
00000390: b214 5c3d 7824 a6bd 3526 e0bd 85db fe3d
000003a0: bd29 31be 1ac9 44bd 0025 883c 38e6 e6bb
000003b0: 56de e4bd cff5 ac3c e316 89bd 5636 f3bd
000003c0: aaea e53d 6297 77bd bd3a dd3d e224 11be
000003d0: adcf b8bc 6464 9ebc a72f efbd 5752 54bd
000003e0: d9cc c33d 1f85 91bd b172 b93d a799 9ebc
000003f0: a245 39be 2d69 a1bd e6f5 6b3d e2e4 543d
-0.063617446 0.14600945 0.07682496 -0.12351286 -0.011990599 0.014081268 0.09745672 0.06323328
-0.06842972 0.15646952 -0.18332678 -0.021975864 -0.100978665 -0.1710198 0.054171406 -0.017864445
0.2037616 0.10105482 -0.041882284 0.11703043 -0.071545824 0.004214324 -0.08535931 0.026923118
0.05763302 0.10848485 -0.16941857 -0.094047256 0.030217422 0.021428037 -0.04454606 0.019286497
0.17186816 0.05370073 -0.090023585 0.016197894 0.07666192 0.07425564 -0.1460553 0.069300264
-0.1742499 0.13223222 -0.07846078 -0.10769064 0.1489517 -0.14103784 -0.115950756 0.012151489
0.032868296 0.006475511 -0.036128648 0.15116404 -0.18579103 -0.015531619 -0.13016273 -0.034143146
-0.16845846 -0.07412148 -0.1540908 -0.02829144 -0.112015605 0.02948825 -0.04782162 -0.08194235
-0.063900955 0.15573458 -0.109526716 -0.063300304 0.14623213 -0.021658778 -0.08938552 -0.115881115
-0.10086302 0.09757768 0.06302411 -0.12506257 0.060057368 -0.072877385 -0.17521307 -0.045591902
-0.06748012 -0.09806498 0.019984681 0.06584892 -0.025504153 -0.15281084 -0.078503214 -0.089721635
0.06345786 -0.17528005 0.083970845 -0.17104167 0.102334104 0.0042903074 -0.086384766 0.03720734
0.17804849 0.078765936 0.0839949 -0.014209303 -0.1753938 0.0061353547 -0.0015654364 0.15151833
-0.01809697 0.16002417 -0.13210839 0.15899125 -0.043108724 -0.17362985 0.0018468705 -0.112257555
0.017101878 -0.036157247 0.12480725 0.014165539 0.13064831 0.07347026 -0.17344117 -0.10781973
0.025747815 0.13250618 0.09804936 0.17302744 -0.009725319 0.045305908 0.0014654885 0.1722754
0.130282 -0.12651972 0.02605344 0.0155502595 -0.03125018 -0.06800582 -0.16041672 0.14220275
-0.076771654 0.050220188 -0.16086772 0.12406584 -0.09779954 0.16439526 -0.19935946 0.027422912
-0.056070704 0.16096379 0.014087098 -0.10518869 -0.085314 0.001259883 0.13339071 0.10986212
0.09135703 0.07352421 -0.01355156 0.14025341 0.1400423 -0.16767538 -0.04350624 -0.037861947
0.10890542 0.090647705 0.016143622 0.11277969 -0.046436872 0.14075716 -0.12795918 0.10523889
0.17053315 -0.1291737 0.016389742 -0.017964974 -0.008010166 0.024587067 -0.123618886 0.033255596
0.088329695 -0.057645842 0.069745876 -0.12866549 0.12559356 -0.13898659 0.17312095 0.06290029
-0.17714386 -0.025460392 0.15286346 0.06500049 -0.14141786 0.10973708 0.098268054 -0.021072056
0.06544767 -0.040661253 -0.14952426 -0.17045626 0.13327341 0.06945383 -0.01915616 0.0015363161
0.08273801 0.15736209 -0.06688435 -0.18010098 -0.011642776 -0.17698197 0.14871725 0.0047228914
0.092595555 0.0453716 0.1813276 0.020694187 -0.13493653 0.021366583 0.006839018 -0.10456032
-0.079764254 -0.09339577 -0.061100874 0.12415965 0.103783555 -0.029221741 -0.05908211 0.03181334
-0.068803936 0.09404767 -0.10564727 0.058480844 0.053730674 -0.081124246 -0.109447874 0.12444214
-0.17301078 -0.048043348 0.016619205 -0.007046487 -0.1117522 0.021113304 -0.066938184 -0.11875598
0.11226399 -0.060447104 0.10802219 -0.14174226 -0.022559965 -0.01933498 -0.11679011 -0.051836338
0.09560556 -0.07105469 0.09055079 -0.019360377 -0.18092969 -0.07881389 0.057607554 0.051976092

lin2.weight f4 [256, 256]
00000000: 745e 15bd 6e1e a1bc 59f7 693c a156 30bd
00000010: 1041 993c 4ab8 35bd c074 553c 00c5 443d
00000020: 7168 373d 8208 af3c d8b9 5bbc 8c7a ccbc
00000030: 7294 7cbd ac5a 303d 2679 363d 0479 34bd
00000040: f90b 2abd 07ac 8e3b c922 663d dc2d 88bc
00000050: 9bd4 a2bc 1839 e13c 2cf3 e7bc 9a73 27bd
00000060: e286 39bd 4379 00bd 787e 803c ed91 b6bc
00000070: 9a44 15bd 79c2 9bbc 31c8 053d 6b2a 25bd
00000080: 6811 393d 54af 613d 743e eb3c 2b43 0fbd
00000090: 400c 373d 65bc e03c 23fc 523d 51a5 f43b
000000a0: 2566 973b 20bb 293d e27f d7bc b463 e4bc
000000b0: 31cc 623d 2438 02bd a104 613c c67f 05bd
000000c0: 7d86 6dbd 91b6 5e3b 7a68 10bd 7f49 6ebd
000000d0: 8e69 003d d0cd 893c 5d8f 133d b6ae 6c3d
000000e0: 31bc 003d dddc 6bbd 5046 88bb 58e0 c43c
000000f0: 5d3c 3d3b 2884 253c 6ec3 77bd 0310 b2bc
00000100: d6c5 41bd c342 6abd 83bd 70bc c266 77bd
00000110: 3528 06bd a227 26bd 7c64 8abd ced4 1d3c
00000120: ea1b 60bd f775 10bc df2a 79bc 9893 003c
00000130: 077e 3e3d d3d5 96bc d2e7 553d 58db 23bd
00000140: d7f9 1c3d 7412 443d 223b 61bd 9373 1c3d
00000150: c128 83bd c09c 51bd e03f 3f3d efac 85bd
00000160: 5b73 f03c c29a 72bd a8d4 27bc 36cb b93b
00000170: e69e 293c 4e34 59bd b05a af3b bf92 933c
00000180: daf7 82bd d9ad 78b9 3919 d1bc 2028 30bb
00000190: 000b 0d3d 908e 29bd aeee 503d 8b98 e83a
000001a0: 0889 be3c a137 853c f7e9 653d 3073 20bd
000001b0: 405d 9abc 8a4a eeba 26d5 043d c37c 553d
000001c0: 1efa 32bd 55a7 753c 6026 ebbc b71d 24bd
000001d0: 00a7 86bc 76b0 dcb9 63f2 79bd 473b f8bc
000001e0: 787d 4d3c c819 e3bc bb33 0cbd fbb7 85bd
000001f0: e1bd e5bc 093c 5a3c e898 64bd 97e9 fdbc
00000200: 04b9 babc c86d 80bc e0fd 0dbd d2ff ca3c
00000210: c7ba 65bd ac58 443c 9859 843c 132c b4bc
00000220: 7c30 4bbd 5067 9dbc 5cd5 68bd 55fc 69bc
00000230: c3b3 43bd 2543 43bd 9089 89bd 1f24 2cbc
00000240: 7452 573d be6b 3abd 7281 fabc 0829 ecbb
00000250: a408 76bd 35c1 393d 74ad 5b3d 8392 143c
00000260: ea06 6ebb 8cbf 63bc c01f 23bb d8ac 14bc
00000270: 06f2 09bd 928f 3bbd 6872 6e3c 70c9 253d
00000280: 5c8c 39bd afdf fcbc 98f3 02bc 5143 593d
00000290: 88ee 193c 340a 5dbc 600f a6bc 8fb1 36bd
000002a0: 0041 2b3d 81b6 af3c 3f6f 98bb 5848 723c
000002b0: 7493 463d 57db 4a3d 46af 123d ae93 02bd
000002c0: d3e5 8f3c 48f3 2ebd 1f55 37bd b63e 46bd
000002d0: 8de8 ea3c 7200 4abd 16d7 513d e5f6 25bd
000002e0: 46bc c63c aef9 6ebd 79eb d53a d93c 05bd
000002f0: d79e 493d a554 8fbc cda1 263d 90d3 113c
00000300: 2834 29bc 0554 313d 5420 7cbd 568b 713d
00000310: ea58 50bd a354 47bd d086 b93c 36b0 4a3d
00000320: 0ee1 b03c 3c0e 9cbc a0d7 07bb 76ef 6b3d
00000330: 4c32 113d 80e6 b13b 1eb9 3dbd d4b7 523d
00000340: 0229 0bbd fff3 f33b d195 d0bc c886 ebbb
00000350: f92a f8bc d497 82bc 5904 f43c 24af d5bc
00000360: da65 fbbc f84a ef3c 0fda 99bc 3dd1 603d
00000370: 68d3 2d3d 65ce e43c f158 01bc bb7c 07bd
00000380: 18d3 093c c66e 8abc e585 783c 38fe cebc
00000390: 7b0b fabc 137e 1b3d b813 3c3d bc2d f43c
000003a0: fb61 16bb 1d65 c8bc 5ef5 19bd 94b9 393d
000003b0: 8d98 013d dcc6 803c cfac 223c 5ac9 a4bc
000003c0: 1c2c 073c 0b48 263d f89d 763c 0f30 303d
000003d0: b736 753d ac42 92bc 7887 7d3d 36d0 443c
000003e0: e503 83bd 8543 41bc 9681 263d 08d8 58bd
000003f0: 8890 1e3d 982e dcbc 9ea8 1bbd 3f60 313d
-0.03646703 -0.01966783 0.014280164 -0.043051366 0.018707782 -0.044365205 0.013028324 0.048039436
0.044777337 0.021366362 -0.013411008 -0.024960779 -0.061665006 0.04305522 0.04454913 -0.044060722
-0.041515324 0.0043540034 0.056185517 -0.01662343 -0.019876769 0.027493045 -0.028314196 -0.04088173
-0.04529465 -0.031365644 0.015685305 -0.02228638 -0.036442377 -0.01901363 0.03266162 -0.040323656
0.045182616 0.055098847 0.028716303 -0.034976166 0.044689417 0.027433584 0.051509988 0.0074659963
0.004620331 0.041438222 -0.026306096 -0.027879573 0.055370513 -0.03179182 0.013734014 -0.032592557
-0.057989586 0.003398333 -0.035255887 -0.05817556 0.031350665 0.016821772 0.036025394 0.057783805
0.031429473 -0.05758368 -0.0041587725 0.024032757 0.002887509 0.010102309 -0.06048911 -0.02173615
-0.04730781 -0.057192575 -0.014693621 -0.06040073 -0.03275319 -0.04056514 -0.06757447 0.009633256
-0.05471412 -0.0088171875 -0.015207975 0.007847689 0.046506908 -0.018412506 0.052223034 -0.040004104
0.038324203 0.04786916 -0.054988034 0.038196158 -0.064042576 -0.05117488 0.046691775 -0.06527125
0.02935188 -0.05922962 -0.010243572 0.0056699766 0.010352826 -0.053028397 0.005351387 0.01801431
-0.0639493 -0.00023715886 -0.025524722 -0.0026879385 0.03443432 -0.041395724 0.051008873 0.0017745657
0.023258701 0.016261877 0.05613133 -0.03917235 -0.018843293 -0.0018180173 0.032429837 0.052120935
-0.04369556 0.014993508 -0.028704822 -0.0400674 -0.016437054 -0.00042093144 -0.061022174 -0.030301703
0.012542121 -0.027722254 -0.03422902 -0.06529232 -0.028044643 0.013319978 -0.055809885 -0.030995173
-0.0227933 -0.015677348 -0.034665942 0.024780188 -0.056086328 0.011984032 0.016156003 -0.021993672
-0.049606785 -0.019214302 -0.0568441 -0.014281352 -0.047778856 -0.047671456 -0.06715691 -0.010506659
0.052568868 -0.045512907 -0.030579302 -0.0072070397 -0.060066834 0.045350272 0.053632215 0.009068134
-0.003632004 -0.013900649 -0.002489075 -0.009074412 -0.033678077 -0.045791216 0.014553644 0.04047531
-0.045299873 -0.03086838 -0.007992648 0.053042714 0.009395249 -0.013491202 -0.020271003 -0.044602927
0.041810036 0.02144933 -0.0046519334 0.014787756 0.048480466 0.049525585 0.035811685 -0.03187912
0.017565643 -0.04271248 -0.044758912 -0.04839965 0.028675342 -0.04931683 0.051230513 -0.04051866
0.024259698 -0.05834358 0.0016320787 -0.032528732 0.049223747 -0.017496416 0.04068165 0.008900538
-0.010327376 0.043293018 -0.061554268 0.05897077 -0.050866045 -0.0486647 0.022647291 0.049484454
0.02159169 -0.019049756 -0.0020727888 0.057601415 0.035448357 0.005429089 -0.04631912 0.051444843
-0.033974655 0.007444858 -0.025462063 -0.007187698 -0.030293928 -0.015941538 0.02978723 -0.02608449
-0.030688215 0.029210553 -0.018780736 0.054887045 0.04243794 0.027930448 -0.00789474 -0.033077937
0.008412145 -0.016898524 0.015168642 -0.025267705 -0.030523052 0.03796203 0.045917243 0.029806964
-0.0022946585 -0.024462277 -0.037587516 0.045342997 0.031639624 0.015719824 0.009928896 -0.020115543
0.008250263 0.04059605 0.015052311 0.043014582 0.059866633 -0.017854057 0.06189677 0.012012532
-0.06397227 -0.011795883 0.040650927 -0.0529404 0.038712054 -0.026877686 -0.038002603 0.043304678

lin2.bias f4 [256]
00000000: c7c1 6dbd 464c af38 59ae 47bd f1b3 403d
00000010: b71f d13c 1e99 573d fca8 48bd 48de 4cbd
00000020: 73db 40bc 6495 573d eeda 3e3d 82b3 a8bc
00000030: 52cb 60bd f5c7 ed3c 6c39 36bd c5b3 413b
00000040: f3a4 42bd cb7a 84bc 5d55 b9bc e02e 53bb
00000050: 86ec 01bd 1956 bc3c 41b2 913c 549c e3bc
00000060: 6914 133d b97b b83c e1cb fb3b 0c86 c33b
00000070: 9a54 4cbc 6844 4a3d 58a3 51bd 5930 fbbc
00000080: 2c2d 58bd 3a99 0a3d b80e 6c3d 28ac 77bd
00000090: e1bb 7c3d 9295 683d 272b 33bd 1305 9e3c
000000a0: b133 983c b4e5 50bb 1458 42bd 4659 3e3d
000000b0: 13de 11bc b448 01bd 90c4 163d 8807 33bd
000000c0: 40d9 7e3c f428 a53c 0cf1 7c3d d846 fc3c
000000d0: b768 d63c 565f 4c3c 7074 aa3b 57ec 093d
000000e0: bb4f 1f3d b070 6ebd 49fd 203c f7c8 dabc
000000f0: f700 233d 9af2 16bd 55d8 d6ba 07ae ee3c
00000100: 8aac 623d 219f 9abc b68a 893d a437 1abc
00000110: 2009 6ebd 0515 c13c 7161 39bd ac0e b73b
00000120: 012c a3bc c59d 423c cbb0 3f3d 3500 bdbc
00000130: b74c c33c 50c4 563d ec54 c1bc 206a 1c3d
00000140: 60ba ee3c f6c9 673d c882 7bbd 1efb 94bc
00000150: f1f7 323c 3be9 623d cf22 17bd 0aac c53b
00000160: ba1b 3e3d 44e7 2a3c 1d9d ed3c 7ad7 0ebd
00000170: 5183 3ebc 2711 78bd 9110 1abd 405a 8abc
00000180: a254 47bd fb14 483d 4e47 263d f9d0 473d
00000190: b342 253c e61b 203d fa12 38bc acc3 64bd
000001a0: 43c3 43bd 53de 283d 1bf5 043d 3a7b 44bd
000001b0: 3683 2d3d f09c c5bb 9608 763d ab57 eabc
000001c0: 0d54 3c3d b516 3dbb cc6f 4d3d f59e 973c
000001d0: 2f3c 4f3d ab08 2fbd f08c 2abd e2ee 15bd
000001e0: 7795 433d 83fc 683c 5f00 6ebd cd5f 89bc
000001f0: 4537 0abd 75a8 853d fe09 163d 6930 813d
00000200: 64fc 19bd 5116 45bd bfca 463d 661e a53c
00000210: b0bf 4a3c 547f 4bbc b31a 4f3d 6e4f f33b
00000220: f221 e4bc 4017 b1bc 6b95 243d 7d53 6a3d
00000230: d91c 153d 5ec9 843c dac6 ef3c 40ad ed3c
00000240: a7bf 14bd 23a7 fc3c 2597 423d 2a03 ecbb
00000250: fb45 013d 97ab 24bd e58b 123d 0ae6 133d
00000260: e8bd a9bc df3f 1dbd 807c 153d 3d10 e73c
00000270: 9934 e43a fd57 d93c ab48 153d 0199 8cbc
00000280: 0c09 29bd 8ed8 06bd ff17 373d 9686 c23c
00000290: be2e 03bd faf1 843d 9b7d 5d3d c276 62bd
000002a0: ae82 0f3d 7fcb 1d3d f675 0c3d 0c88 5e3d
000002b0: 2f27 493d 6635 673d 2319 a13b 8a74 11bd
000002c0: 8a2b 73bd 3477 b23c 6850 093c 592f 473c
000002d0: bf6d 013d 5cfd 73bd b379 853a 7e93 343d
000002e0: d9c4 333c 8d71 abbc ce75 2d3d e335 63bd
000002f0: b10a 4f3d 4c30 433b 4e17 cdbc 3cc3 4c3d
00000300: ec55 e2bc f73a 9b3c 87b7 31bd d16b 45bd
00000310: 13c0 263d a1ef 813b 72e9 42bd d946 4abd
00000320: 3c46 b9bb 8271 31bd 150c 33bd f15d bfbc
00000330: af3e 41bd 07fb 3fbd 3b99 1d3d 37b6 eabc
00000340: d7dc 28bd 7512 01bc f143 3ebc a7fd 133d
00000350: ddd8 063d 6775 b6bb a7b0 c4bb 551a 73bd
00000360: 6d51 65bd 8004 5c3c dd94 13bd 5b91 373d
00000370: 5c40 84bd 8815 963c ef71 09bd 0340 91bc
00000380: 141d 0cbd aafb 2cbd 8e9b d5bc 6200 93bd
00000390: 99e0 113d 01a9 7d3c 1a83 ae3c 872d 2d3d
000003a0: 1716 83bd ddc2 363d 5965 1b3d c626 6b3c
000003b0: d0d7 903d 7079 26bd 22de b33b a995 3f3d
000003c0: c3b4 b43c d7a1 2abd 3b27 163d a438 6abd
000003d0: cc6d e63c f38d 34bd 29c8 303d c06a 0abb
000003e0: d761 033d 8511 8e3d 8a6a 03bd 23a1 c8bc
000003f0: 733e d3bb 5673 cf3c 7df5 5fbc 4053 56bd
-0.05804613 8.358857e-05 -0.048750255 0.047046605 0.025527818 0.05263626 -0.04898928 -0.05001667
-0.011771071 0.052632704 0.046595506 -0.020593408 -0.0548814 0.029026011 -0.044488356 0.0029556614
-0.04752059 -0.016171834 -0.022623712 -0.0032223985 -0.031719707 0.022990273 0.017785193 -0.027784504
0.035908137 0.022519933 0.0076842164 0.0059669074 -0.012471342 0.049381644 -0.051181167 -0.030662702
-0.052777454 0.033837534 0.057631224 -0.060466915 0.061702613 0.056783266 -0.043742325 0.019289529
0.018579336 -0.0031875195 -0.04744728 0.046471857 -0.008903044 -0.031563476 0.03680855 -0.043708354
0.015554726 0.02016113 0.061753318 0.0307955 0.026172979 0.012473902 0.0052018687 0.033672657
0.038894396 -0.058212936 0.009826013 -0.026707156 0.039795842 -0.036852457 -0.0016391376 0.029135717
0.055340327 -0.018874707 0.0671591 -0.00941268 -0.05811417 0.023569593 -0.045258943 0.005586466
-0.019918444 0.0118784355 0.046799462 -0.023071388 0.023840291 0.052433312 -0.023600064 0.038187146
0.029141605 0.05658909 -0.06140402 -0.018186148 0.010923372 0.055398207 -0.03689843 0.0060324715
0.04641316 0.010431115 0.029005582 -0.034873463 -0.011627988 -0.060563233 -0.037613455 -0.016888738
-0.048664697 0.048848134 0.040595345 0.048783276 0.010086703 0.039089106 -0.011234993 -0.05585067
-0.047793638 0.04122765 0.032460313 -0.04796908 0.04236146 -0.0060306713 0.060066782 -0.028606256
0.045978595 -0.0028852646 0.050155446 0.018508414 0.050594505 -0.042732876 -0.041638315 -0.03660477
0.047749963 0.01422036 -0.058105823 -0.016769314 -0.033744115 0.06526271 0.036630623 0.06308062
-0.037594214 -0.048116986 0.048533197 0.020156097 0.012374803 -0.012420494 0.05056257 0.0074252402
-0.027848218 -0.021617532 0.04018156 0.057208527 0.036404464 0.0162093 0.029269625 0.029013276
-0.036315586 0.030841416 0.047507424 -0.0072025256 0.03156088 -0.040202703 0.035777945 0.036108054
-0.020720437 -0.03839099 0.036495686 0.028205985 0.0017410695 0.026531214 0.036446255 -0.017162802
-0.041268393 -0.032921366 0.04470062 0.023745816 -0.032027 0.06491466 0.054074865 -0.055289038
0.035036735 0.038524147 0.034292184 0.054328963 0.049109634 0.05644741 0.0049163266 -0.03551153
-0.059367694 0.021785356 0.008380987 0.012157285 0.031598803 -0.059567794 0.0010183364 0.044085972
0.010972225 -0.020928169 0.042348675 -0.055471312 0.050547305 0.0029783426 -0.025035527 0.049990878
-0.027628861 0.018949015 -0.043387916 -0.048198525 0.04071052 0.0039653336 -0.047585912 -0.04938397
-0.0056541245 -0.04332114 -0.043712694 -0.023360224 -0.04717892 -0.046870258 0.03847621 -0.02865134
-0.041226234 -0.007877936 -0.011612878 0.036130574 0.03292166 -0.0055681947 -0.006002504 -0.059351284
-0.055985857 0.013428807 -0.03603064 0.044816356 -0.06457588 0.018320814 -0.03355592 -0.017730718
-0.03420742 -0.042232193 -0.02607515 -0.071778074 0.035614584 0.015482188 0.021302748 0.042279746
-0.06400698 0.04461943 0.03793845 0.014352506 0.07072413 -0.040643156 0.005489127 0.046773586
0.02205885 -0.04165825 0.036658507 -0.057182923 0.028128527 -0.044080686 0.043159638 -0.0021120757
0.03207573 0.06936935 -0.032084025 -0.024490898 -0.0064466535 0.025323551 -0.013669369 -0.052325487

lin3.weight f4 [128, 256]
00000000: 5a78 14bd a018 63bd 3037 3cbc 10aa 833b
00000010: 6049 45bc 72df 14bd 34f7 2c3d c857 9a3c
00000020: 0261 39bd 2adc 5e3d 061f 193d d844 28bd
00000030: c0e4 ffba 0016 7a3a 8402 bc3c 0c22 df3c
00000040: 1007 9d3b a8f1 543c e0c9 dabc eaa0 293d
00000050: ec7a 3ebd 1669 623d 2a50 4abd 8cb3 a23c
00000060: 6085 a6bc c0d2 41bd dc26 5c3d 44c1 ad3c
00000070: 226d 753d d4ac 8a3c dc73 9b3c c08b 333c
00000080: 283d 113c 008c cd3b 0093 803b e00e 25bb
00000090: 0403 91bc 60fa 65bd 007b 383a 588c 7b3c
000000a0: 0c6e 80bc e838 a13c a29d 6e3d 30b9 30bd
000000b0: d876 f2bc 408d 153c 8a1e 7fbd 867b 43bd
000000c0: be1f 51bd 9086 583d d000 a43b 0ce0 79bd
000000d0: be76 32bd 04de 8a3c d0e7 82bb 4cc1 3ebd
000000e0: 9c6e 353d a4a5 47bd a68d 00bd 30f4 833c
000000f0: 5239 1bbd b682 4abd b011 06bc 404d 62bb
00000100: 1839 68bd 66b6 5fbd e895 d5bc c8e2 8cbc
00000110: 0083 2e3c 4a6d 183d 8094 04bb b69a 5cbd
00000120: a0d9 273d 3205 2c3d 60e5 c9bb 8684 0cbd
00000130: 2ed1 2e3d d8fb 23bd ee3d 463d 8631 1c3d
00000140: 8ca5 bc3c e6e9 34bd 3c22 f4bc 706f acbc
00000150: 74f9 e2bc e856 eebc 9c2b 1ebd b844 733d
00000160: d02b dcbc 509b 1dbd 48ca 6dbc 8040 253b
00000170: 8afc 493d 3e2c 323d f847 79bc 405c 99ba
00000180: ee82 013d 8e5a 54bd 805e 98bc 4062 fdba
00000190: c0df c03c aaaf 723d 40b9 c0ba b454 463d
000001a0: b66e 6cbd c882 a7bc c02b f3ba 4028 e73c
000001b0: 9844 ca3c 9017 bf3b be67 37bd 2c55 413d
000001c0: a07f ae3b aca7 68bd b2c1 7cbd d012 b33c
000001d0: 90a7 eebb 605f 9ebb b006 37bc 0c32 47bd
000001e0: 828f 703d a009 c7bc 381f ef3c 2844 90bc
000001f0: 64a2 c6bc 58c4 54bc d614 18bd 30d2 5abd
00000200: 14db 0fbd 7061 dcbc a062 7b3c b467 23bd
00000210: e804 5f3c dcbe 0dbd 4efa 47bd e40e 18bd
00000220: b429 cf3c dc6a ecbc 00cc 52bb 284e 763d
00000230: c4d4 dd3c 10c5 d0bc 5edf 493d c076 e0bc
00000240: 1c5d 7a3d 00b5 5c3b 80d6 1cbd 20f8 21bc
00000250: 5c6f 663d 4c43 4d3d d8e9 9dbc 50bf f23b
00000260: d83b 42bc 64d3 563d de62 393d bca2 0d3d
00000270: 7c32 b0bc 1051 713c e0e5 61bc bcd8 213d
00000280: 6013 963c b0a4 453d 4822 623c 6482 cdbc
00000290: 58b3 133c ac1a 323d 8887 2abc aad0 31bd
000002a0: 2045 f9bb e06c d13c 9843 48bc 6ccb dd3c
000002b0: 5009 5a3c bc27 04bd e083 e2bb 00c5 44ba
000002c0: 007f 903c 1a50 62bd fc66 0cbd 788e 893c
000002d0: 1402 3a3d 04db 6dbd 0a40 36bd 8c1f 803c
000002e0: c02e fbba 8c00 1cbd 80f8 0f3a f853 0e3c
000002f0: 6806 30bd 902a bfbc 285f 7ebd 9eb6 5b3d
00000300: 9660 0ebd ac9b d83c 18b9 da3c b044 7fbc
00000310: 6c63 513d 80d3 813c ccc6 a8bc 60f0 31bb
00000320: 2ca0 553d 887c 443d 0069 a739 48ba 6cbd
00000330: a49b 4abd 2cae 53bd 007a 183d e0f5 1cbd
00000340: 88c8 903c b0f4 1ebd ecc5 80bc 507e 273c
00000350: 68e6 3f3d d6fc 05bd 4ca4 813c 7cfe 54bd
00000360: 9817 57bc 6c36 1dbd 00b0 c3b7 d83c 80bc
00000370: 00e9 f8bc 3408 3c3d e49a b5bc 5434 a63c
00000380: ace6 113d cc9b b8bc 96f1 34bd 009a 29bb
00000390: b4c6 983c b402 fd3c e663 423d 38cd f83c
000003a0: 1002 ac3c 2856 c3bc 36a2 7dbd d092 1bbc
000003b0: 5a22 743d e677 193d 9085 b1bc 8066 ce3c
000003c0: 183c 4abc 405c 213c 801e 163a 762a 42bd
000003d0: 14dd e7bc 4013 0a3c 70e8 4fbd ac6b 85bc
000003e0: 206d 76bb f681 363d ee12 0c3d 5eab 793d
000003f0: 9070 7d3c 22f1 233d 70c7 c6bb 409b 2f3b
-0.03624759 -0.055443406 -0.011487767 0.0040180758 -0.01204142 -0.036345907 0.04222794 0.018840685
-0.04525853 0.054409184 0.037383102 -0.04108128 -0.0019523129 0.00095400214 0.022950418 0.027237915
0.0047921017 0.012997068 -0.02670759 0.041413225 -0.046503946 0.055276 -0.049392857 0.019861005
-0.02032727 -0.047320127 0.053747997 0.02121032 0.05991853 0.016928114 0.018976144 0.010958612
0.008864678 0.006272793 0.0039237738 -0.0025185868 -0.017701633 -0.05614698 0.00070373714 0.015353285
-0.015677474 0.019680455 0.0582558 -0.04314536 -0.029597685 0.009127915 -0.062284984 -0.047725223
-0.051055662 0.052862704 0.0050049797 -0.061004683 -0.043570273 0.016951568 -0.0039949194 -0.04657106
0.04429494 -0.04874195 -0.031385086 0.016107649 -0.03789646 -0.049441062 -0.008182928 -0.0034530908
-0.056695074 -0.054617308 -0.026072457 -0.017197981 0.01065135 0.0372136 -0.0020230114 -0.05385848
0.040979028 0.041997142 -0.006161377 -0.03430607 0.042679958 -0.0400351 0.048398905 0.038133167
0.023028158 -0.044168375 -0.02980148 -0.021049231 -0.02770684 -0.029094175 -0.038615808 0.059391707
-0.02687636 -0.038478196 -0.01451356 0.0025215447 0.049313106 0.043499224 -0.015214913 -0.0011700466
0.031619005 -0.051844172 -0.018599749 -0.0019331649 0.023544192 0.059249558 -0.0014703646 0.048420623
-0.05772277 -0.020448104 -0.0018552467 0.028217435 0.024690911 0.0058316663 -0.04477667 0.047200367
0.0053252727 -0.05680053 -0.06170816 0.021859556 -0.0072831586 -0.004833147 -0.011171028 -0.048631713
0.05873061 -0.024296582 0.029189691 -0.017610624 -0.024247356 -0.012986265 -0.037129246 -0.053423107
-0.03512104 -0.02690193 0.015343338 -0.03989382 0.01361201 -0.034605846 -0.048822694 -0.037123576
0.02528844 -0.028859548 -0.003216505 0.06013313 0.027078994 -0.025484592 0.049285285 -0.027400374
0.061123952 0.003367722 -0.0382905 -0.009885818 0.056258544 0.050113007 -0.019276544 0.00740806
-0.011855088 0.05244769 0.045260303 0.034579024 -0.021508448 0.014728799 -0.013787717 0.039513335
0.018319786 0.04825276 0.013802119 -0.02508659 0.009014927 0.043482468 -0.01040829 -0.04341189
-0.0076071173 0.025564611 -0.012223147 0.027074538 0.013307884 -0.032264456 -0.0069126934 -0.0007506162
0.017638683 -0.055252172 -0.0342779 0.016791567 0.045412138 -0.058070198 -0.044494666 0.015640043
-0.0019163713 -0.03808646 0.00054920465 0.008687012 -0.04297486 -0.023335725 -0.062102467 0.053640954
-0.03476008 0.026441418 0.026699588 -0.015580341 0.051120207 0.015847921 -0.020602606 -0.0027151331
0.052154705 0.047970325 0.00031930953 -0.05779484 -0.049464837 -0.051679775 0.037225723 -0.038320422
0.017673746 -0.03880757 -0.015719377 0.010222986 0.046850592 -0.032711826 0.015825413 -0.052000508
-0.013128184 -0.03838198 -2.3327768e-05 -0.015654013 -0.03038454 0.04590626 -0.022168584 0.020288624
0.035620376 -0.022535227 -0.044175707 -0.0025879145 0.018649437 0.030885078 0.04745855 0.030371293
0.020997077 -0.023844793 -0.061922275 -0.009495452 0.059603073 0.03746786 -0.021670133 0.02519536
-0.012343429 0.009848654 0.0005726591 -0.047403775 -0.02830366 0.008427441 -0.05075878 -0.016286694
-0.0037601665 0.044557534 0.03419774 0.060954444 0.0154687315 0.040024884 -0.0060662553 0.0026795417

lin3.bias f4 [128]
00000000: aa1f 4dbd bd46 02bd 5bae a63c 810f 043d
00000010: 2b97 e83c 37ed 773c 71dd 8d3c 93b2 94bc
00000020: 2cc2 09bb 0e8d fe3c 5abd 9f3b ec65 7fbd
00000030: 8693 2c3d 4709 093d 9906 aebc d4bf a6bc
00000040: 5d52 8e3b fe74 87bd 7a3c 80bb bb30 253d
00000050: 355b c4bc 0b9b 21bd a8cf 30ba 9343 94bd
00000060: 5904 37bd 6412 1c3b 93af a73d ca00 603c
00000070: 377a 81bd 3bcc 393c 0e50 9a3c 1cfa 64bb
00000080: 28c2 8b3d b797 3bbd be03 383d 5ab7 6f3d
00000090: dfb4 7b3d d9ec 90bd 22ec 2a3d adb3 36bd
000000a0: 75f8 203d 6571 63bd 52db 3a3d 3f8d 02bc
000000b0: c248 f33c 82f2 62bb 9dcb a03d b9d5 cf3b
000000c0: e0a7 d9bc 3283 f43c d6d3 07bd 683a 7abc
000000d0: 29d9 943c d63b 49bd 8710 453d 5895 95bc
000000e0: 77e0 79bd 288f 41bd c135 2b3d 055e bfbc
000000f0: e46d 16bd d70c 513d 1d69 ae3d 2975 4a3d
00000100: 1e04 11bd d897 adbd 7464 d63c 0a7e 69bb
00000110: 3df2 f23c 4185 133d 2eae 09bd 4815 22bd
00000120: 38ac 00bd 48e5 91bc 4491 4abd 96bc 873d
00000130: 7e62 16bc cc8d 4f3d fab0 45bd 06ab bd3d
00000140: c3b8 a43d 0542 b73c b5ef 25bd 0dbc 5a3c
00000150: 5de6 1ebd ab1d 153c 3a1d 13bd 6681 763d
00000160: 9b67 22bc 81d0 28bc 98fe 68bd f24e 243d
00000170: 531c aebd 1ed6 4abd 3de8 01bd f56e 7b3d
00000180: 1bbb 093d 0e74 7bbd 43a0 8e3d cd7e a73d
00000190: 690e 093d 683e 50bd 20cc b43b 174e 95bc
000001a0: a7ce e1bc 8ab5 65bd 5222 8d3b 23e7 583d
000001b0: 8327 45bd 027e 873d 7fdc 7f3d 114e d8bc
000001c0: c6d7 c63c bab6 983c 1727 ac3c de64 77bd
000001d0: 7017 3ebd cf0e ae3b 80d1 d13c 6114 febc
000001e0: c9e7 f8bc 1c62 40bd 5c6a 073d 45e4 453c
000001f0: 58b9 abbc e431 ce3c 9e8c 5d3d dffc 813c
-0.050079025 -0.031805743 0.020346811 0.03224135 0.028392395 0.01513224 0.017317506 -0.018151557
-0.0021020276 0.03107312 0.0048748674 -0.06235306 0.042132877 0.033456113 -0.02124338 -0.020355143
0.0043433146 -0.06614111 -0.0039134594 0.040329676 -0.023969272 -0.0394545 -0.00067448104 -0.07239451
-0.04468188 0.0023814673 0.08187785 0.013672063 -0.06322139 0.011340196 0.018837001 -0.0034939116
0.06824142 -0.045798983 0.044925444 0.058524467 0.06145179 -0.07076425 0.0417291 -0.044604946
0.039299447 -0.055528063 0.045619316 -0.007968246 0.02969778 -0.003462941 0.07851336 0.0063426164
-0.026569307 0.029847715 -0.033161007 -0.015272714 0.018169956 -0.04912933 0.048111465 -0.01825969
-0.061005082 -0.047255665 0.04179931 -0.023360262 -0.036725894 0.051037636 0.085161425 0.04942814
-0.035404317 -0.084762275 0.026170947 -0.0035628104 0.029656524 0.036015753 -0.033613376 -0.039571077
-0.03141424 -0.017809525 -0.049454942 0.06627767 -0.009178756 0.050672337 -0.04826448 0.09261136
0.08043053 0.022370348 -0.040511806 0.013350499 -0.03879391 0.009101312 -0.035916544 0.060181998
-0.009912397 -0.010303617 -0.056883425 0.04011435 -0.08501496 -0.049520604 -0.03171562 0.061385114
0.033625703 -0.061389975 0.06964161 0.08178482 0.03346101 -0.050840765 0.0055174977 -0.018225713
-0.02756436 -0.056081332 0.00430707 0.052954804 -0.048133384 0.06615831 0.06246614 -0.026404412
0.02427281 0.018641818 0.021014733 -0.06039893 -0.04640907 0.005311824 0.025612593 -0.031015577
-0.030383961 -0.046968564 0.033060417 0.0120783495 -0.020962402 0.025170274 0.05408918 0.015867649

lin4.weight f4 [64, 128]
00000000: d766 78bd 673a a03c 8c34 8b3d ffdc b13d
00000010: 38c1 823c 5a04 6ebd e787 30bc 3107 9cbd
00000020: c7d2 d4bc eb1f ac3d 24d9 abbd 7b16 ee3b
00000030: c567 563d ce93 a93d 69ee 9ebd ca11 9fbd
00000040: 10f5 8f3d ca67 87bd 9f13 763d 03d2 b9bc
00000050: 554e 94bb 35d8 b4bd 9e4d 4a3d 6a60 efbc
00000060: bcdb a4bc 4ba6 28bd 0649 aa3d 5e14 a33d
00000070: b7d5 aebd 4ccb 563d 8aa9 37bd 5d2a 9b3d
00000080: a64b 8bbd 081d 903d 4d7a 713d cf03 9e3d
00000090: 1c6d 5cbc abbb 073c f405 683d c32b 9e3b
000000a0: 862b d4bb 66e8 343c 692d 48bd c4b7 16bc
000000b0: 1be7 febc f86a 4f3d 48c5 b33d a84b 0e3d
000000c0: 953a 923d ec0c 92bd 67b0 783c 717b a3bb
000000d0: 92db a83d 0533 8bbd fabe 19bd c85a 75bd
000000e0: abff 4d3c 96eb 443d aac0 5b3d 63ef 57bd
000000f0: 01f8 adbd 0c47 733c 6fa4 353d f26b fcbc
00000100: 5f38 693d af09 6f3d 16f4 5f3c b360 873d
00000110: 3205 17bc 5e22 513c 1f1e 3fbd af2c ad3d
00000120: 60f6 823d b005 9a3b 20b2 dbbc 4744 2fbd
00000130: 7d9b 0f3d e5f0 81bd 29be aa3d fb86 0b3d
00000140: f5cc 823d ce21 16bd 19a8 6fbd 0a56 87bd
00000150: 0fe0 883c 9d2e 4cbd d038 82bb 3e23 18bd
00000160: f055 67bd e5db 663c 3de9 493d 27e0 8bbb
00000170: 1740 b33d 485a fe3b a72a 9b3d 5f15 ac3b
00000180: 2e73 afbd 3c98 3ebd 5a99 1ebd 789f 88bd
00000190: bfb6 a0bd e5f1 ecbc 03c5 793c 0f72 6b3d
000001a0: 8063 3a3d ee7e 02bd 9902 cc3c 3599 3cbd
000001b0: 6a97 9cbd 658d 923d 6f3e 59bd fd9a 333d
000001c0: 6694 cfbb 77b5 9f3d 1980 4c3d e032 7fbd
000001d0: 2a93 96bd 1554 9dbd 573d 96bd 3383 20bd
000001e0: a1db 343c c941 1bbd 928c 6e3b 230c 30bd
000001f0: a787 9c3d 4de7 9b3d f7b0 e1bc 9e05 323d
00000200: 3370 91bd ecb1 7ebd eeb5 693d a1c4 16bc
00000210: e601 aa3d bd86 a3bd 6ca4 a8bd a1da 82bd
00000220: 2691 36bd 98e2 42bd 61b9 073d c9ba 6abd
00000230: 1238 acbd c756 4b3d 6dec 14bd c003 993d
00000240: 9a92 9e3c cdcc 41be d509 57bd 4e57 ec3c
00000250: 65f9 66bd fee2 c43c 6ee8 a03d d697 bc3a
00000260: dfda 3bbd 218a 743d 4e56 593d ef1b 2e3d
00000270: a1ad 6b3d bf05 28bd a26e 883c 7cb1 683d
00000280: d00e 903b a176 28bd f135 d23c cd7e 09be
00000290: 6b8e 953e 2033 c739 919d e9bc 4c5e 44bc
000002a0: 9acc 1e3e 7cfb acbd 0e5d 43bd 4835 123c
000002b0: 61d5 cc3d fb5a 75bd 9ad7 2dbe 43ef 0c3d
000002c0: c3f2 7c3d 71b6 b0bd fab4 cebc a4f4 733d
000002d0: 1611 323d ea32 25bd a1ca 863d d15f 6c3d
000002e0: 5736 9ebd 1618 223d 43fd 7c3a 88c3 433d
000002f0: edd9 b33d 16b9 e3bc f0c3 19be b875 833d
00000300: c647 f73c 0cf5 803d 4e53 8a3d 64e5 ed3b
00000310: 5c67 813d 97b7 5b3d 83bd 80bd 46d9 2eba
00000320: 7a07 a43d 3be0 7ebd 4037 853d 86c7 323d
00000330: 9b67 16bd da43 993c 89ac 833d 1a84 39bd
00000340: 54b1 c43d 977e 2bbd 83b4 a7bd 6b70 153d
00000350: ed8e 953d 98aa 24bd 530d 6cbd 7f29 453a
00000360: bc7c 8dbd b0b6 a8bc 9469 aabd 4721 cabb
00000370: 8e69 613d 92d9 97bd f8bf 91bd 0272 86bb
00000380: 770a 813d 9824 923d 30ef 0cbc 01e4 e23b
00000390: cad8 36ba 8a20 a93d f036 a33d e083 a13d
000003a0: 0efe 563c a645 9c3c 9db2 86bd 61a9 24bd
000003b0: 9864 cb3d 7121 f9bd de87 8abd bf35 74ba
000003c0: 4ce0 96bc 3c4b ac3c 7144 8abd 07a2 c83b
000003d0: 28a0 f9bc eb8b d73c 73a5 07bd 381b cb3c
000003e0: 5348 4dbc d847 a1bd 48bc 41bd 8f1f d6bc
000003f0: f108 453d 464e 4dbc 58dd 913d 550b 90bd
-0.06064495 0.019559098 0.06797132 0.0868473 0.015961275 -0.05810962 -0.010774589 -0.07618559
-0.025979413 0.08404525 -0.08391026 0.0072658635 0.052345056 0.08280145 -0.07760317 -0.07767065
0.07029164 -0.06611593 0.060077306 -0.02268315 -0.0045259395 -0.08830301 0.049390428 -0.029220778
-0.020124309 -0.041174214 0.08314709 0.07962869 -0.085368566 0.052439973 -0.04483942 0.075764395
-0.06801538 0.07036787 0.058954526 0.0771557 -0.013453748 0.00828449 0.056646302 0.004826994
-0.006474915 0.011041736 -0.04887143 -0.009199087 -0.031116059 0.050639123 0.08777863 0.03474012
0.0714008 -0.07131371 0.015178776 -0.0049890806 0.08245005 -0.067968406 -0.037535645 -0.05990103
0.012573163 0.048076235 0.053650536 -0.05271853 -0.084945686 0.014848482 0.04434627 -0.030813191
0.056938525 0.058358844 0.0136690345 0.06610241 -0.009217547 0.012764541 -0.046659585 0.08455788
0.063946486 0.004700385 -0.026818335 -0.042789724 0.035060395 -0.06344775 0.083370514 0.034064274
0.06386749 -0.036653332 -0.05850992 -0.066082075 0.016708402 -0.04984914 -0.0039740577 -0.037142985
-0.05647844 0.014090513 0.0492947 -0.0042686644 0.087524585 0.007762227 0.07576495 0.005251571
-0.08566891 -0.0465319 -0.038720466 -0.06671041 -0.07847356 -0.028923938 0.015244725 0.05748182
0.045505047 -0.03185933 0.024903582 -0.046044547 -0.076460674 0.07155875 -0.053038057 0.04384898
-0.006334829 0.077982835 0.04992685 -0.062304378 -0.07352288 -0.07682053 -0.073359184 -0.03918762
0.011038692 -0.037904534 0.0036399704 -0.042980324 0.07643061 0.076124765 -0.027550204 0.04346239
-0.071014784 -0.0621814 0.057058267 -0.009202153 0.08301143 -0.07984684 -0.08234486 -0.063893564
-0.044572018 -0.047579378 0.033135775 -0.05730704 -0.08409132 0.049643304 -0.036358286 0.074714184
0.019357014 -0.18925782 -0.05249961 0.028850224 -0.056390185 0.02403402 0.078568324 0.0014388512
-0.04586303 0.059702042 0.053060822 0.04250711 0.057538632 -0.041021105 0.016654316 0.056809887
0.004396297 -0.04112876 0.025660487 -0.13427277 0.2921022 0.0003799433 -0.028517516 -0.011985373
0.15507737 -0.08446404 -0.047696166 0.008923836 0.10001636 -0.05990122 -0.16976777 0.034407865
0.061754953 -0.08628548 -0.02523278 0.05955948 0.043473326 -0.04033176 0.06581617 0.057708565
-0.07725208 0.03957375 0.0009650776 0.047793895 0.087818004 -0.027798217 -0.1501615 0.064189374
0.030185591 0.06296739 0.0675417 0.0072600115 0.06318542 0.05364188 -0.062861465 -0.00066699495
0.080092385 -0.06222556 0.06504679 0.04364731 -0.0367199 0.018709112 0.06429393 -0.045291997
0.09604135 -0.041868772 -0.08188727 0.036484163 0.073026516 -0.040201753 -0.057629894 0.0007521137
-0.06908557 -0.020594925 -0.08320919 -0.0061685177 0.055032305 -0.07414545 -0.07116693 -0.0041029463
0.06300824 0.07135886 -0.008601949 0.006924153 -0.0006975053 0.082581595 0.07969463 0.07886481
0.013122095 0.01907618 -0.065770365 -0.040200595 0.09931296 -0.121645816 -0.06764196 -0.000931587
-0.0184175 0.021031968 -0.067513354 0.006122831 -0.030471876 0.026311835 -0.03311677 0.024793252
-0.0125294505 -0.07875031 -0.0472987 -0.026138095 0.04810423 -0.012530869 0.07122296 -0.070334114

lin4.bias f4 [64]
00000000: 8243 a8bd 7992 a5bc bc55 e7bc 1514 7dbc
00000010: b218 b53c ed5c ec3d 66aa 8e3b e1fe ee3c
00000020: d8db ce3c ff28 dbbb 72d7 35bd 5b7a f2bc
00000030: d191 c83c d403 c4bd 5839 6cbd 5879 7d3d
00000040: 6d20 fcbc 6d1e 6ebd 46e3 153a 0c17 31bd
00000050: 5b60 933d e1de a9bb ce4d 83bd 4912 63bd
00000060: 8def 6ebd 1ee7 29bd 74cd 3abd 7c45 7b3c
00000070: 120b 8dbc 35c2 c0bc 34da 45bd d9d9 b43d
00000080: 2482 b7bc e3e9 0c3d 5145 4f3d 4850 1abc
00000090: 0579 57bd 81f6 84bc 5776 ab3c e8f7 6f3d
000000a0: 0b2a 00bd df16 b6bd b279 b73d 2ef8 163d
000000b0: 78c9 db3c f971 05bd 3bcd 373d 70fb 1c3d
000000c0: 83e6 ca3d 131c 5abd 2541 6fba 25a2 123d
000000d0: 9a29 9fbd 37ab 643d ef65 11bd 6031 9abd
000000e0: 72be 99bb adc9 3abd 3c4c 873c aa2d 0fbd
000000f0: 1678 20bd 22cd 90bd 81a2 cc3c 3dcf 203d
-0.08216001 -0.020211445 -0.028239124 -0.015446682 0.022106502 0.11541162 0.004353809 0.02917427
0.025251314 -0.0066882367 -0.044394918 -0.02959936 0.024483593 -0.09571043 -0.057671875 0.0618833
-0.03077718 -0.058134485 0.00057177653 -0.04323487 0.07196113 -0.00518404 -0.064113244 -0.05543736
-0.058333922 -0.041480176 -0.04560609 0.015336391 -0.017217193 -0.023530105 -0.048303798 0.08830614
-0.022400923 0.03440274 0.050603215 -0.009418555 -0.052605648 -0.016230823 0.020930452 0.05858603
-0.031290095 -0.08891081 0.089587584 0.036857776 0.026829466 -0.032579396 0.044873457 0.038325727
0.09907248 -0.05324943 -0.0009126834 0.035799164 -0.07771607 0.055827346 -0.035497602 -0.07528949
-0.0046918923 -0.04560249 0.016515844 -0.034955658 -0.039177023 -0.07070376 0.024979832 0.039260138

lin5.weight f4 [12, 64]
00000000: 2407 b5bd 8886 e53d 2129 5e3e 38ad ff3d
00000010: 6975 d03d dc85 933d 70e0 c23d 68b8 1f3d
00000020: f797 ccbd e2b6 94bd 7007 123c ca36 26bd
00000030: 26e2 b2bd 3fa3 e4bd e21b ab3c 7a7f 533d
00000040: f1c6 8a3d 396c 823d 4c28 903c 18f2 143d
00000050: 0010 90bd e899 d33d 2519 23bc 11a2 a3bd
00000060: eca4 4abe 1eb7 013c 48c5 ba3d db71 20bd
00000070: 8334 dd3d 82e4 c2bc f080 22bd fc1b 223e
00000080: 12ef c1bd b293 e9bd f3d9 66bd bdc8 c83d
00000090: 8d24 cebd 3afb 02be 71cb b3bd 2411 f9ba
000000a0: 00c6 8d39 3db2 e1bd 9fbf ed3d 3204 b3ba
000000b0: 8eb2 0ebd 4a8b f8bd b745 94bc 35c0 b0bc
000000c0: 846b a93d 9dce 35bd 9020 a03c c1d9 1e3d
000000d0: 9ed1 b2bd 4edc c03d 02ee 033e f24c a5bd
000000e0: b757 823d 01b8 01be b4c3 e13d 8b88 0cbd
000000f0: 32ba f7bd e011 80bb 4c5a 023e 7a9c b9bd
00000100: 3075 fc3d 243c 06bd 1f0c 57bd 0a0c b1bd
00000110: 1c96 db3d 31e9 87bd 380e 133e fd09 cd3d
00000120: 218d 0bbc 1ea9 58bc dc4c d0bd bf81 bf3c
00000130: 56eb e73d 11c3 383d 82bd b0bd 795e 08be
00000140: ed40 32bd ac04 ef3c 86fc cf3d fe1e c83d
00000150: abdf eebc 9949 763d ca26 71bd c330 863e
00000160: b23e 483d 7d15 c0bc 6c3e 363d 9ff5 cabc
00000170: cfb2 1ebe f9cf f1bd fc6f f23d 9ea9 953d
00000180: 2cea 313d c077 5f3d 65d8 fbbd d9a3 ce3d
00000190: 5d9e f63b 4f4e 01be a3f4 a8bd 110b 12bd
000001a0: f0ef 0fbc 6d6e be3d b041 b13d b0e1 7fbd
000001b0: a886 01bd ec5b 713d a9a4 febd 7d09 ec3c
000001c0: 5df4 d33c f035 193e ebc1 c1bd be12 49bd
000001d0: efa7 a53d b122 373d 017d 6e3d 20fe 8f3d
000001e0: 911a cebc a07d d9bd 9f8d 733d b798 c9bd
000001f0: 5062 93bd ca90 f33d 9924 623d 4833 e63d
00000200: dcb5 f83d 265c bebc c00a 743d deff 8abd
00000210: 94a7 b0bb e745 563c 0496 0a3c 1e92 13be
00000220: 7003 db3a ba93 a63d 66d3 dc3d ea1a 9abb
00000230: 820a d23d 45d6 4fbd 777b 0e3d f537 6dbd
00000240: 0990 c53d 82ba ccbd 46c2 143e a2dc c0bd
00000250: a5e0 24bd 9bdd 8abd b7c2 be3c 272c aabe
00000260: 4aa0 0ebe 9660 b33d d05b 62bc f742 ab3d
00000270: 1dfe 963c 391b 363d 1a36 21bd b99e 463d
00000280: 4ad9 d5bd e437 ab3d ad00 ccbd e1a6 f43d
00000290: c78e 7a3c c326 4cbd d9b7 f8bd f493 e6bd
000002a0: b457 563d 0503 71bd 2915 653a 62cc 923d
000002b0: 3f41 943d d247 f0bd aeb6 26be b698 46bd
000002c0: 113b 87bb 39e1 b6bd 14ba 4abc 0b25 2f3c
000002d0: cae2 9a3b 3c07 debd e0d6 473d 0667 9abd
000002e0: 957a 94bd cc96 453e 6a53 a73d 26cd 323d
000002f0: 1e6f a43d 908a 91bd 7ca2 44bd 9d1c abbc
00000300: 285d b7bd 6472 e63c 65e2 cfbd 6cb7 5e3d
00000310: afc9 e1ba 29a0 3a3e 84da 1abd 8472 1f3e
00000320: 5b05 a4bc 1479 c4bd c4d3 2d3d 24c0 e83d
00000330: 9a3f 153d df7d b4bd 2a0a f53c 2a52 af3d
00000340: 022e 8ebd 9fa8 57bc c0ee 02bd 1e54 ca3d
00000350: 8449 0dbd a62d 94bd 42bb a93c 709d 61bd
00000360: e8c7 e0bd 262f 2a3b 6cf6 033d 1c00 283d
00000370: 8a32 5cbd 85cb b0bd 20b7 383d 7053 fe3d
00000380: 66c1 debd 48cb e8bc d762 b8bd 8a34 3c3b
00000390: 1584 afbd a79d a1bd 718f e8bd f965 dfbd
000003a0: 707f bfbd fad9 6fbd b58f d83d 504b d3bc
000003b0: f4d9 e53c f4fc b4bd 08d9 4dbd 21cd dabd
000003c0: a6cb 593d 16d2 eb3c bff6 acbd 93a6 da3d
000003d0: 2a1c 87bd b634 85bc 0619 133c e85c 80bd
000003e0: c301 54bd 4cce 6cbe c782 ef3c 4948 36bd
000003f0: 4c08 dd3d a615 9f3d a0ca 3e3b 8df9 0dbc
-0.088392526 0.112073004 0.21695377 0.12484211 0.10178644 0.07203266 0.09515464 0.038994223
-0.099899225 -0.07261445 0.008912906 -0.040579595 -0.08734541 -0.11163949 0.020887319 0.051635243
0.06776226 0.06368298 0.01759734 0.03636369 -0.07034302 0.1033209 -0.009954725 -0.07989896
-0.19789475 0.007917194 0.0911966 -0.03917108 0.108010314 -0.023790602 -0.039673746 0.15830988
-0.09469427 -0.11405124 -0.056360196 0.09803913 -0.10065565 -0.12791148 -0.08779038 -0.0019002301
0.00027041137 -0.110203244 0.116088144 -0.0013657867 -0.03483825 -0.12135942 -0.018099649 -0.021576026
0.0827246 -0.044386495 0.019546777 0.038781885 -0.087313876 0.0941702 0.12883762 -0.08071317
0.063643865 -0.12667848 0.110236555 -0.034309905 -0.12096061 -0.003908381 0.12729758 -0.09063049
0.12327039 -0.0327722 -0.052501794 -0.086448744 0.107219905 -0.066362746 0.14360893 0.10011671
-0.0085175345 -0.013223914 -0.1017091 0.023377297 0.11324184 0.045107905 -0.08629896 -0.13317288
-0.04351895 0.029177032 0.10155587 0.09771536 -0.029159388 0.060128782 -0.058874883 0.26209077
0.048887916 -0.023447746 0.044493124 -0.024775324 -0.15497898 -0.11807246 0.118377656 0.073077425
0.043436214 0.054557562 -0.12297133 0.10089845 0.0075262026 -0.12627529 -0.08249786 -0.035655085
-0.008785233 0.09298406 0.08655107 -0.06247109 -0.03162256 0.058925554 -0.1243375 0.028813118
0.025873357 0.14961982 -0.09460815 -0.04909014 0.080886714 0.04471082 0.05822468 0.07030892
-0.025159152 -0.10619664 0.059461232 -0.09843581 -0.07196486 0.11892851 0.055210683 0.1124025
0.12144062 -0.0232373 0.059580564 -0.06787084 -0.0053910706 0.013078189 0.008458618 -0.14411208
0.0016709398 0.08133645 0.107825086 -0.0047029154 0.102559105 -0.050741453 0.034785714 -0.057914693
0.09646613 -0.09996511 0.14527234 -0.09417082 -0.0402533 -0.06780549 0.023286207 -0.3323681
-0.13928333 0.08758657 -0.013815835 0.08362382 0.018431718 0.044459555 -0.039358236 0.048491213
-0.10441835 0.0836027 -0.099610664 0.11945892 0.01529283 -0.049841654 -0.12144441 -0.112586886
0.052329734 -0.05884077 0.000873881 0.07167889 0.07239007 -0.11732449 -0.16280624 -0.04848548
-0.0041269143 -0.089296766 -0.012373466 0.010689984 0.0047267424 -0.108412236 0.048788905 -0.075391814
-0.07249943 0.19295806 0.08170207 0.043652676 0.080290064 -0.07106507 -0.04800652 -0.020887667
-0.08953315 0.028130718 -0.10150603 0.054374143 -0.0017226244 0.18225159 -0.03780605 0.15571028
-0.020022085 -0.09593406 0.042438284 0.11364773 0.03643761 -0.088130705 0.029912073 0.085605934
-0.06942369 -0.013162761 -0.03196597 0.09879325 -0.034493938 -0.07235269 0.020719174 -0.055081785
-0.10975629 0.0025968044 0.032217428 0.04101573 -0.053759135 -0.08632568 0.045096517 0.12418258
-0.108767316 -0.028417245 -0.09003227 0.002871784 -0.085701145 -0.07891398 -0.11355484 -0.109081216
-0.09350479 -0.058557488 0.10574285 -0.025792748 0.02805803 -0.088373095 -0.050255805 -0.106836565
0.05317273 0.0287867 -0.084455006 0.10676303 -0.06597169 -0.016260486 0.008978134 -0.062677205
-0.051759493 -0.23125571 0.029237164 -0.04450253 0.10792598 0.07767801 0.0029112473 -0.008665455

lin5.bias f4 [12]
00000000: 7979 1bbc 548d b53d a033 5cbc 67ff 353b
00000010: 961c 763d a2bf a13d 1e29 753d 1330 b03d
00000020: 028c a1bd 492b 3bbd 964e 21bd 8be4 bfbd
-0.009489411 0.08864847 -0.013440043 0.002777064 0.060085855 0.07897879 0.059853666 0.086029194
-0.078880325 -0.045695577 -0.039381586 -0.09369763
