src/virtuose_teleoperation/network_controller/trained_policy_MLP/Touch_BC_AHEE_no_eff_yes_vel_epoch_438.pth (torch, 480519 bytes, 10 tensors)

lin1.weight f4 [256, 43]
000000 40 e2 aa 3c 22 2a a0 bd 43 46 f7 bc 80 b5 92 3d
       0.020859838 -0.07820536 -0.03018487 0.07163525
000010 f7 f5 69 3e 13 c9 4b 3e fc 93 f4 bd 12 36 80 3b
       0.22847734 0.19900922 -0.11942288 0.0039126957
000020 bb cc 27 be 77 0c 9f bd 9f 09 14 3e d5 e6 2b be
       -0.16386692 -0.07766049 0.14456795 -0.16787274
000030 5c e4 72 3d 9b b6 91 3c 62 c1 36 3e b1 1a 46 3d
       0.05929981 0.017787268 0.17847207 0.0483653
000040 07 4b 4d bd b0 45 9b bc ea 89 1e bd c1 77 1d be
       -0.05012038 -0.018954128 -0.038705744 -0.15377714
000050 cc 0d 98 3e f9 76 60 be ab 51 33 bc 9a 54 3f 3e
       0.29698026 -0.21920384 -0.010944764 0.18684617
000060 7f 27 d6 3e 63 95 14 3f 7b 84 4c be 9a b2 8d 3c
       0.41827008 0.58040446 -0.19972412 0.017297078
000070 b1 ee 12 bf 91 99 89 3f 9a 6f c4 3d bb 35 b4 bd
       -0.57395464 1.074999 0.09591599 -0.08799311
000080 3f 9f 84 be 3c 8d 13 bf 33 24 9a bd 56 3f dc bd
       -0.25902745 -0.5763738 -0.07526436 -0.10754268
000090 cd 5a 04 3e 21 83 c0 3e f3 dc f1 be ea c7 1c be
       0.12925263 0.37600043 -0.47238883 -0.15310636
0000a0 8b 29 42 be 0f ba 6e be 89 d0 07 3e c7 25 c1 3c
       -0.1896116 -0.23313163 0.13263144 0.023577584
0000b0 99 15 e8 bb 3c bb 2d 3c 43 27 df bb cd 5d a4 3c
       -0.0070826528 0.010603722 -0.0068101003 0.020064259
0000c0 09 4d 9c bd b2 af 38 3d 85 51 04 3e 87 2c ba bd
       -0.07631881 0.04508943 0.12921722 -0.09090524
0000d0 e3 f0 bf bd 81 51 01 bd f5 60 cc 3d 0d 98 c2 3d
       -0.09372117 -0.03157187 0.099794306 0.09501658
0000e0 2b ee c3 bc ea 07 25 3e f9 e3 d8 bd 74 4e 60 3c
       -0.023917278 0.161163 -0.10590357 0.01369058
0000f0 16 f2 4d bd 86 6b bd bc d2 b5 8c bc 25 0f d8 3d
       -0.0502797 -0.02312256 -0.017176542 0.105497636
000100 80 97 5d bd df 8f 20 bb ef 9c 10 3c 4b c7 09 be
       -0.05409956 -0.0024499816 0.008826478 -0.1345493
000110 61 aa d7 3d a0 c1 19 3d 33 49 be bd f8 ca 8d bd
       0.10530544 0.03753817 -0.092913054 -0.06923479
000120 6f 90 68 bd 44 a9 89 3c c5 b3 c4 bd 7d 31 e1 3c
       -0.056778368 0.016804345 -0.09604601 0.027489418
000130 6f 88 91 3d 63 09 23 3e b7 06 15 be 4a 8d a9 bd
       0.07106101 0.1592155 -0.14553343 -0.08278902
000140 a6 d8 0b 3d 9a 4f 05 be 70 12 4a 3d 6c 80 3e 3d
       0.03414216 -0.13018647 0.04933399 0.04650919
000150 1a ba 0f be 9b 95 a5 bd 36 76 81 bb 99 e8 27 be
       -0.14035836 -0.080851756 -0.0039508594 -0.16397323
000160 60 a7 85 be 0b aa 79 3e c6 48 81 3e ea 49 87 3e
       -0.2610426 0.24381272 0.25250834 0.2642358
000170 cf 9f 14 be 25 76 b9 bd c2 0f 19 be ca ef 38 bd
       -0.14514087 -0.090557374 -0.14947417 -0.045150556
000180 31 bf 84 3e 1e 8b 9c bd c8 cd 67 be 16 15 7d be
       0.25927117 -0.07643722 -0.22637093 -0.24715075
000190 93 51 40 3a a6 8b 00 3c 37 23 05 be 0f 74 98 bd
       0.0007336374 0.007845795 -0.13001715 -0.074440114
0001a0 05 dc 96 3e fa 5d 87 bc 94 6b 43 3e 5a 97 81 be
       0.29464737 -0.016524304 0.19084007 -0.25310785
0001b0 26 71 52 3e 5a 2e da bd 7f a9 d7 be 78 1a ea bd
       0.20550975 -0.10653372 -0.42121503 -0.1143083
0001c0 54 4a 0b be 78 2a b6 bc 85 65 6c 3e 75 57 43 3e
       -0.13602573 -0.022237048 0.23085602 0.19076331
0001d0 71 cd ad 3c ee 01 9a 3c 90 27 92 3c 7c d5 0a bf
       0.021216126 0.018799748 0.01784113 -0.54232
0001e0 14 a5 8a be c4 0e 7a bd 7a 67 25 3d 7e 13 0a be
       -0.2707907 -0.061049238 0.040381886 -0.13483998
0001f0 0d d5 ca 3d 66 11 22 bd 43 cd bf bd 92 03 fb bd
       0.099039175 -0.039567374 -0.093653224 -0.1225654
000200 d1 54 79 3d 72 20 d6 3d 9d 52 1d be 56 ee ba 3c
       0.060871903 0.10455407 -0.15363546 0.022818726
000210 aa 63 31 3d 00 29 27 3c ee 1e 77 3e 71 4f 6f be
       0.043307938 0.010202646 0.24132892 -0.23370148
000220 71 83 81 bd f1 f4 77 be 46 dd 20 bd 12 3f 8b 3b
       -0.063238986 -0.24214531 -0.039273523 0.004249462
000230 d8 22 87 be aa 28 88 be 70 f9 81 be db 71 83 bd
       -0.2639377 -0.26593524 -0.25385618 -0.064182006
000240 db 0e 7d bd 49 d2 8d bd df fe e7 bc 54 f6 07 3a
       -0.061781745 -0.06924874 -0.028319774 0.0005186547
000250 ba e9 34 be 84 a0 0f 3f e0 85 24 be 9e 9a 0a 3e
       -0.17667285 0.561043 -0.16066694 0.13535544
000260 b4 64 18 bd b3 45 c9 3d aa b9 0a 3e 0b bd b1 be
       -0.037205413 0.09827747 0.13547388 -0.3471454
000270 cd da 34 3d 98 81 00 bd 3f b3 9a 3e 50 73 b4 bd
       0.044153977 -0.03137359 0.3021488 -0.088110566
000280 c1 ef 3c 3d b8 b8 58 3e 77 7e ab 3d 85 bb 9a 3d
       0.046127085 0.21164215 0.08373731 0.07555298
000290 ae e5 31 bd 9b 81 bf 3d ed fe 12 be 3a da 15 be
       -0.04343193 0.09350892 -0.14355059 -0.14634028
0002a0 82 fc 51 bd 9e f3 3e bd 7d ec fd bd 1f 35 f3 3c
       -0.0512662 -0.04661905 -0.12398622 0.029688416
0002b0 7b ef 24 3d 14 0a 19 3e 4b 2f 03 bd 82 ec 70 bd
       0.04026745 0.14945251 -0.032027524 -0.0588193
0002c0 bb 4d ae bd c0 72 8a bd 5e 1e 94 ba 3e df 03 3e
       -0.0851092 -0.06760168 -0.0011300554 0.12878129
0002d0 dc f9 2e 3e 40 c5 01 bd 37 e0 e6 bd 2b 2a 80 3d
       0.17087501 -0.031682253 -0.11273234 0.06258043
0002e0 32 a1 d2 3c ae cc 18 3e 4a 5f 08 bd 0f 66 fd bb
       0.02571163 0.14921829 -0.033294 -0.0077331136
0002f0 c1 0a 3b 3d 58 9f 6c bd cc 1a f6 bd df a0 18 3e
       0.045664553 -0.05776915 -0.1201683 0.14905117
000300 1a 47 8c 3d 91 24 98 3c 8a fa af 3d 83 60 94 bd
       0.06849499 0.018572124 0.085927084 -0.07244971
000310 c1 38 a5 be 97 ac cc 3e 3d 9d 35 be f0 72 90 bd
       -0.32269862 0.39975426 -0.17735763 -0.070531726
000320 e8 9f 18 3e fc 42 7f be 48 c8 ed bd 88 e6 f3 3e
       0.1490475 -0.24927896 -0.11610466 0.4763682
000330 17 9a 3e 3f 30 be 7a 3e f6 15 c5 3e 9c 19 1a be
       0.7445387 0.24486613 0.38493317 -0.15048832
000340 86 37 67 3e 80 f7 97 3e cc 75 4a 3c 40 d7 11 3d
       0.22579774 0.29681015 0.0123571865 0.03560567
000350 e4 f0 e4 bc 2b 9f 49 be 6d a6 c7 3c 55 71 c2 bd
       -0.027946897 -0.19689624 0.02437135 -0.094942726
000360 40 cd 1c be 23 20 fb bd 7f 9b 18 3e d6 c9 dd 3d
       -0.15312672 -0.12261989 0.14903067 0.10829513
000370 76 05 e6 bd a5 a7 11 be 4f d1 96 3d 14 92 ed 3c
       -0.1123151 -0.14224108 0.07364141 0.02900032
000380 a7 c6 d1 bd b5 3e 53 bc 00 53 dd 3d e1 f2 3d bc
       -0.10242968 -0.0128933685 0.108068466 -0.011593551
000390 9f c5 22 be 78 33 b8 bd 5c 8d 65 3d ab 41 0b be
       -0.15895699 -0.08994192 0.056043014 -0.13599269
0003a0 b7 b7 29 bc ed 9f 17 3d f0 a1 36 be 07 3d 2d 3e
       -0.010358742 0.03701775 -0.17835212 0.16917811
0003b0 e2 c8 23 3d 94 ba 41 bc 4d e4 69 bc cc 99 87 3e
       0.0399865 -0.011824269 -0.014275623 0.26484525
0003c0 3c 02 c2 bd dd c5 93 3d 82 e1 07 3d 9c aa 66 3d
       -0.094730824 0.07215474 0.033174045 0.05631505
0003d0 38 b9 81 bd a2 10 02 3d 76 9d a3 3d 71 f0 40 be
       -0.06334156 0.031754144 0.07989018 -0.18841721
0003e0 8a 5e 96 bd 83 9b ca bd 27 57 b3 bd d8 8f 4c 3d
       -0.07342251 -0.09892943 -0.08756857 0.049941868
0003f0 c7 8a a0 3d 27 5b 26 3c 66 02 e1 3c 3f 39 b1 bc
       0.0783897 0.010153568 0.027466964 -0.021633742

lin1.bias f4 [256]
000000 99 41 14 be c1 10 94 3c 91 5b 4e bd 40 30 45 be
       -0.14478149 0.018074395 -0.050380293 -0.19256687
000010 5c 2b 89 bc 66 0b 26 be d1 bd b8 bd 8f 51 26 3e
       -0.016744308 -0.16215286 -0.090205796 0.1624205
000020 a8 62 0b 3d 79 d6 10 be c7 88 10 3e 6f 33 41 3d
       0.034029633 -0.14144315 0.14114676 0.04716819
000030 0a 4a 69 be 15 b1 2e bd 93 f9 36 3d 8e 74 94 bd
       -0.2278215 -0.042649347 0.044671606 -0.072487935
000040 20 bd 35 bb cb 1a f0 bd 91 c1 f8 3c 0e 67 ad bc
       -0.0027731135 -0.1172386 0.030365737 -0.021167304
000050 6a 11 39 3e 47 4d 52 be 6e ad 4b 3e 21 ad 4e 3d
       0.18073049 -0.20537291 0.19890377 0.050458077
000060 c2 e0 96 3d 0d 40 b3 3d 80 73 a2 3d 21 5f 2f bc
       0.07367088 0.08752451 0.07932186 -0.010703833
000070 e6 cd 03 bc 30 c1 2e bd d3 b2 05 be 1b e0 03 3e
       -0.0080446955 -0.042664707 -0.13056497 0.12878458
000080 7e a9 23 be b7 fd 33 be 3e 5c 46 be 1d 71 5a bd
       -0.15982625 -0.17577253 -0.19371125 -0.05333053
000090 dd 48 f3 bd ad be 2f be 66 12 36 3b 5e de 1a 3e
       -0.11879132 -0.17162581 0.0027781962 0.15123889
0000a0 77 43 b8 3a c7 a4 dc 3c 5f ef 3e be 64 05 b9 bd
       0.0014058192 0.02693404 -0.18646 -0.09034231
0000b0 63 dd 98 3d d2 fb 15 3e bb 41 9c 3d f8 de 1b be
       0.07464101 0.14646843 0.076297246 -0.15221775
0000c0 bc fc 0c bd 44 65 d7 bd 31 60 19 be c7 04 0e bc
       -0.034420714 -0.10517362 -0.149781 -0.008668131
0000d0 ac 0a bb 3d d7 80 65 bd 39 92 9d ba b1 af 85 3d
       0.09132895 -0.056031074 -0.0012021727 0.06527651
0000e0 49 14 13 3e 76 43 1e be 4e fc 2a be 0c bb 5b bd
       0.14363207 -0.15455422 -0.16697809 -0.05364518
0000f0 57 23 49 3d 69 81 5c bd c4 52 46 bd 5c 22 44 be
       0.04910597 -0.053834353 -0.048418775 -0.19153732
000100 db 91 4e be 49 cc 97 bd 70 61 02 bc 49 85 a9 3d
       -0.20172827 -0.07412011 -0.007957801 0.08277375
000110 36 47 2a be c4 32 d6 3d 34 c1 bc bd d9 33 24 be
       -0.16628727 0.104589015 -0.09216538 -0.16035403
000120 ab 51 4c bd 2f e0 44 3d 23 e6 8b be 5b c6 b3 bd
       -0.049882572 0.04806536 -0.27324018 -0.08778068
000130 d7 6d 94 3b 22 1f 30 be 5a e2 bb 3d 7f 41 eb 3c
       0.0045296955 -0.17199376 0.091740325 0.028717754
000140 43 c9 af bd 36 fd 28 3c 03 e6 2f bd 2f 0d 44 3e
       -0.085833095 0.010314276 -0.042943966 0.19145654
000150 70 2f 04 be a1 45 50 3d 3d 4a 59 be 6d 12 62 be
       -0.12908721 0.050847653 -0.21219726 -0.22077341
000160 69 d7 96 bd 7d 9f 13 bd 3c 3b f7 3c e3 78 fd 3c
       -0.07365305 -0.03604077 0.030179612 0.030941432
000170 d5 ad c3 3c 70 4b 43 3d a4 ff b1 bd 95 3f 0c bd
       0.0238866 0.047679365 -0.08691338 -0.034240324
000180 78 11 06 3d 2f 90 81 bd 42 8b fd bc 4a 40 d9 bd
       0.032731503 -0.06326329 -0.030950192 -0.10607965
000190 99 8c 3b 3e 4f ca c0 3d 6a a5 11 3d 61 93 7c 3d
       0.18315352 0.09413587 0.03555814 0.06166399
0001a0 c1 8a e0 3d d2 8d 46 bc a6 4d 4e 3e 70 29 5e bd
       0.10963965 -0.012118774 0.20146808 -0.054238737
0001b0 c2 59 54 bd 03 0d 1f be 91 98 99 bd 84 4f af bd
       -0.051843412 -0.15532307 -0.07499803 -0.08560088
0001c0 75 67 83 be dc 97 01 ba 50 db 72 3c 5a 1d 9f bd
       -0.2566487 -0.0004943588 0.014822796 -0.0776927
0001d0 7b 0b 14 be 9c 93 ba bd b9 13 13 bd 76 7f 17 be
       -0.14457504 -0.091101855 -0.03590748 -0.14794716
0001e0 13 f3 82 3d 5a ee 82 be 37 11 27 be 7b ce 15 be
       0.06394019 -0.25572473 -0.1631516 -0.14629547
0001f0 4f 5b 2d 3d 10 d6 15 be 3e 46 f4 3d 41 af 04 3e
       0.042323407 -0.1463244 0.1192746 0.12957479
000200 ca f1 d8 3d 60 ea bb bd 02 19 96 bc ab 34 1b 3e
       0.105929926 -0.09175563 -0.018322472 0.1515681
000210 7c c9 7a bd a2 f9 28 be 62 6f 9e 3d 80 12 30 be
       -0.061227307 -0.16501477 0.07736088 -0.17194557
000220 bb de 4b be bb 17 0b be 1d 55 15 be 04 b6 f2 3d
       -0.19909184 -0.13583271 -0.1458325 0.11851123
000230 4c 59 37 bd 47 f6 7a bd b6 a2 1a 3c 4b 19 4c 3d
       -0.044762895 -0.061270025 0.009438207 0.04982881
000240 1d 59 f6 bd c4 67 73 bd a2 d8 41 be b9 f7 d5 bd
       -0.12028716 -0.05942513 -0.18930295 -0.1044764
000250 5b a0 dd 3d 62 3b 25 3e df 54 ab 3d 6c ac b7 3d
       0.10821601 0.16135934 0.08365797 0.08968434
000260 06 6a 1b bd be 39 bb 3d 71 ec 5f 3d b4 5a 3c 3e
       -0.03794291 0.09141873 0.054668847 0.18393975
000270 75 a2 c0 bd f3 41 c7 3c bc 76 98 bc c9 cb 78 3d
       -0.09405986 0.02432344 -0.018611304 0.06074122
000280 07 a2 14 be 29 d8 06 3e 80 a2 58 be c4 e0 32 3e
       -0.14514934 0.13168396 -0.21155739 0.17468554
000290 21 58 37 3d 73 ab da 3d 0a 83 26 be 52 42 0b 3e
       0.04476178 0.106772326 -0.16260925 0.13599518
0002a0 71 a8 49 3e fb 1d 77 3c 38 ed 86 3c ea 62 5f be
       0.19693162 0.0150828315 0.016470537 -0.21815076
0002b0 1d 5e 07 3d 0d d5 2c 3e 42 d7 72 3d 5e 55 ef 3d
       0.033048738 0.16878147 0.059287317 0.116862044
0002c0 ef 10 b3 3d e9 b4 a6 bc fb d4 16 be 78 60 85 3e
       0.08743464 -0.020349937 -0.14729683 0.26050162
0002d0 e8 e3 0d 3d e9 a9 a7 3d d8 a8 6f be da b8 1d 3d
       0.034641176 0.08186705 -0.23404253 0.038506366
0002e0 73 bd 81 3c 36 e7 38 be c8 7e 9d 3c e6 c1 97 3c
       0.015837407 -0.1805695 0.019225493 0.018525075
0002f0 60 47 8e 3d c4 b9 fa 3c 17 db ab bd 5d dd 1e bd
       0.069472075 0.030606158 -0.083913974 -0.038785327
000300 de 19 08 3c e1 86 f6 bd 8b 45 a8 3b 73 c7 8f bc
       0.0083069485 -0.12037445 0.0051352433 -0.01755116
000310 fc 6b c7 bd e5 20 48 3d 9a 6e 68 3d 39 cd 9b 3b
       -0.09737393 0.048859496 0.056746103 0.004754689
000320 51 9e 1a 3e 91 98 32 3c 0c f8 d8 3b 7b 3d 8a bd
       0.15099455 0.0109006325 0.0066213664 -0.06750008
000330 42 07 36 be 7f df 59 be 10 74 46 be e9 d3 07 be
       -0.17776206 -0.21276663 -0.19380212 -0.13264431
000340 3d 5c 96 3c 34 1f fb bd 20 37 f1 bd b1 e3 80 3d
       0.01835453 -0.12261811 -0.117780924 0.06293429
000350 19 66 a4 3d d4 9c 17 be 48 56 08 bd eb f1 0c be
       0.08027286 -0.14805919 -0.03328541 -0.1376416
000360 2b bc 32 3d 57 63 cc 3d 93 80 19 bd 5b d8 09 be
       0.043636482 0.09979885 -0.037476134 -0.1346144
000370 65 85 96 bc 31 a6 09 be dc b7 88 be c7 70 90 be
       -0.018374154 -0.13442303 -0.26702774 -0.28211042
000380 28 7b 2d be 49 c5 1b be c5 5d 67 3c 1e 00 a4 be
       -0.16941512 -0.15211977 0.0141214775 -0.3203134
000390 3a 2a 67 be 05 86 36 3d 29 58 82 3d 9e 5e 32 3c
       -0.22574702 0.044561405 0.063644715 0.010886816
0003a0 b1 93 b3 bd f2 d6 bb bd a6 da 1f be 58 32 12 3d
       -0.08768404 -0.09171857 -0.15610752 0.035692543
0003b0 ef bb 8c 3d 96 1b 84 bd 31 18 90 bd a8 de 07 3e
       0.06871783 -0.06450574 -0.07035864 0.1326853
0003c0 fa 34 66 bd b4 bb 63 be 65 c0 55 be cf fb 91 bd
       -0.056202866 -0.22239572 -0.20874174 -0.07128107
0003d0 67 75 0b 3d 21 29 fd 3d 31 9c 6e be 7c a1 0c 3e
       0.03404751 0.1236136 -0.2330177 0.13733476
0003e0 2d 26 59 3d 5c 5e f8 3d 8f 7b da 3d 2a 07 ac 3d
       0.053014923 0.121273726 0.10668098 0.08399804
0003f0 df a3 d9 bd 7c 56 5e bd 00 57 ee bd 8e e8 97 3c
       -0.10626959 -0.054281697 -0.11637688 0.018543508

lin2.weight f4 [256, 256]
000000 a1 4d 03 38 9f 34 3a bd 7f 74 3a bd 12 eb 79 3b
       3.130513e-05 -0.04546034 -0.045521256 0.0038134498
000010 83 af b6 3c ac 12 90 bd 80 15 16 3d 37 f8 34 bd
       0.022300487 -0.070348114 0.036641598 -0.04418203
000020 1c ab d2 3b ff 18 1e bd f8 73 23 3c db 7c 57 bd
       0.0064290892 -0.038598057 0.00997638 -0.052609306
000030 ae f8 b6 bd cb 22 ea 3d 89 41 00 3d 82 30 1a 3d
       -0.08934151 0.114324175 0.0313125 0.037643917
000040 6e b4 90 bd 6b 6f ae bc ff 8d 36 bd 68 e1 30 3d
       -0.07065664 -0.021293363 -0.04456901 0.043183714
000050 d6 74 7f ba ec e1 bc 3c 14 86 23 bc 29 ca bb bd
       -0.0009744888 0.023056947 -0.009980697 -0.09169418
000060 62 11 86 3d 20 fb 98 3a 2b 01 f4 bb 6b 05 3c 3c
       0.06546284 0.0011671521 -0.0074464283 0.011475901
000070 74 5c 3a bd 21 31 64 bc 59 a0 59 ba c3 53 b4 3c
       -0.045498326 -0.013927729 -0.0008301787 0.022012597
000080 69 81 aa bc ef 39 ce bc 69 17 23 bc e5 a5 ad 3d
       -0.02081366 -0.02517411 -0.009954312 0.084789075
000090 93 2a 7c 3d 2a 16 4f 3d 9f 5a e3 bc 0d 11 d7 bc
       0.06156404 0.050558247 -0.027753172 -0.026253248
0000a0 1e 05 e8 3d 18 10 bf 3b 26 4c b5 bc 45 a9 23 3d
       0.11329101 0.005830776 -0.022131037 0.03995635
0000b0 5c d7 fd 3c a9 73 9a bd b4 ca 89 bc 0d 51 07 3d
       0.03098648 -0.07541592 -0.01682029 0.03303628
0000c0 de d2 b8 bc 71 a5 ce bd 1f f0 05 bd 6d fe 72 3b
       -0.022561487 -0.10090149 -0.0326997 0.003707792
0000d0 41 b5 7c bc 49 05 4a bd eb 20 dd 3c de b6 7d 3d
       -0.015424074 -0.049321447 0.026993236 0.061941974
0000e0 db 59 83 3d 6d ec 13 3d 3b 4a 82 3c 54 9b 87 bd
       0.06413623 0.036114145 0.015904536 -0.06621423
0000f0 a5 5c 45 bd cd de 6b bd 88 26 22 3d 70 66 9c bc
       -0.048184056 -0.057585526 0.039587528 -0.019091815
000100 54 aa 4e bd 3e fd b9 3c 35 c4 40 bc 92 3e 9e 3b
       -0.050455406 0.022703763 -0.011765529 0.0048292363
000110 4a ed e7 bc 45 ef 8b ba b7 37 44 bd fb 45 f8 3c
       -0.02831139 -0.0010676166 -0.047904696 0.030306807
000120 79 e0 66 bd cc 03 95 bd f2 f6 83 bd 8c 2c bd bc
       -0.056366418 -0.07276115 -0.064435855 -0.02309253
000130 07 a4 19 3c 60 fb c6 bd 22 62 ee bc 1a 73 3e 3d
       0.009377486 -0.09715915 -0.029099528 0.04649649
000140 d3 4b 19 bd 37 61 04 bd 89 ce 28 bd 53 94 49 3d
       -0.037425827 -0.032319274 -0.041212592 0.04921372
000150 35 77 ba bc a9 41 d9 bd c8 4c 56 bc 5d 02 e9 3b
       -0.02276192 -0.10608227 -0.0130798295 0.0071108774
000160 aa 6c b5 3b 0a 32 11 bc 5d 9c bc 3c 0e 03 15 bd
       0.0055366354 -0.008862028 0.023023779 -0.036379866
000170 31 7b 37 3d d4 87 db 3c 6d e4 33 bc b2 63 8c bd
       0.04479522 0.026798166 -0.010979754 -0.06854953
000180 b2 b8 44 bc ab 14 ef bc 48 93 84 bd 21 eb 91 3c
       -0.012006925 -0.02918466 -0.06473404 0.017812314
000190 1b 6a 3d bc c6 f6 88 bd 78 e4 8a 3c e4 ac 06 3d
       -0.011560942 -0.06687693 0.016954646 0.032879725
0001a0 b4 8f 6a bd 99 96 bd bc 5d 8a ee bc ff 32 87 bd
       -0.057265952 -0.0231431 -0.029118711 -0.066015236
0001b0 00 c0 bb 37 6f 61 cd 3c 80 01 2a bd a7 16 a0 bd
       2.2381544e-05 0.025070874 -0.041505337 -0.078168206
0001c0 9c c8 07 bd dd aa 84 bc 48 23 5b 3c d4 3b 02 bd
       -0.0331503 -0.016194755 0.013375111 -0.031795338
0001d0 1b 8d be bc 4b e3 47 bd 19 43 b1 3d d9 dd 20 bd
       -0.023260644 -0.048800748 0.08655376 -0.03927407
0001e0 40 17 0b 3d df 0f 77 bd 7f 03 ac 3c 5a 97 41 3c
       0.03395772 -0.06031787 0.02099776 0.01181587
0001f0 6d 28 3b 3d 46 6d 69 3c 27 66 6e bd 83 57 a5 bd
       0.04569285 0.014247244 -0.05820289 -0.08073332
000200 d6 50 43 3d 33 37 ff bb 79 7d 88 3d dd d2 15 3d
       0.047684513 -0.0077885627 0.06664557 0.036578048
000210 8f 03 af bd 63 d8 7b bd 2d 84 54 bd 4d b8 7e bc
       -0.085456006 -0.06148566 -0.051883865 -0.01554687
000220 18 75 4f 3c 68 69 3b 3d d3 fa af 3c 0c af 68 3d
       0.012662195 0.04575482 0.021481907 0.056807563
000230 2c 60 5d 3d 4a 61 42 bd fd 98 1f bd 8c 28 0a 3c
       0.054046795 -0.047456063 -0.03896426 0.008432519
000240 bd 1f 67 bd 7f e1 d9 bc ae 5b 01 3d 70 2a 45 bd
       -0.056426752 -0.026596783 0.031581573 -0.048136175
000250 ab 9a 22 3c a3 02 0e 39 9a be e4 3d 43 85 12 bd
       0.009924571 0.00013543158 0.11169167 -0.03577162
000260 67 13 43 3c 41 93 b8 bc 88 77 94 3c bb 4e 85 bd
       0.011906481 -0.022531154 0.018123403 -0.06509157
000270 bd c9 ae 3b 9f 0a f8 bc 0c 64 28 bd ea 65 51 bd
       0.0053341077 -0.030278502 -0.041111037 -0.051122583
000280 27 a4 46 bd eb af c7 bb d6 7f d4 3a d7 49 8a 3d
       -0.04849639 -0.006093969 0.0016212414 0.06752365
000290 c6 d9 fb 3b ed 6b db 3c cb 15 6a 3b fa b9 aa bc
       0.0076858727 0.026784861 0.0035718556 -0.020840634
0002a0 38 16 6b 3d 9f 8a f1 bc 88 3f ba bc cd 10 b2 bd
       0.057394236 -0.029485045 -0.022735372 -0.08694611
0002b0 40 76 39 3c 75 2b c5 3c 5e dc 60 3d 10 35 9c bb
       0.011319697 0.024068573 0.05489766 -0.0047670677
0002c0 55 ed 78 3d c7 2c ba bd 25 9c 4a bd 30 1c 8c bd
       0.060773212 -0.09090572 -0.049465317 -0.06841314
0002d0 10 51 46 bd 02 fe 01 bd b7 56 a0 bd 1b 4e 15 bd
       -0.04841715 -0.03173638 -0.078290395 -0.03645144
0002e0 ad ee fc bc 5d 43 ff bc 02 a7 11 bd 4f da e9 bc
       -0.030875528 -0.031160051 -0.03555966 -0.02854648
0002f0 94 df dc bc b4 cc 20 3d 2a d3 04 3b 65 3f 7c 3d
       -0.02696208 0.03925772 0.0020267465 0.061583895
000300 d7 29 b2 3b 6d a4 0c bc e0 31 98 bd ed e1 25 bd
       0.0054371166 -0.008584124 -0.07431388 -0.040498663
000310 c3 de 03 bc 22 55 15 3d 63 1a ae bc a5 b4 40 3d
       -0.008048716 0.036458142 -0.021252817 0.047047276
000320 dd e1 93 bc f2 62 a7 bc d5 84 89 ba d5 8a 8c bd
       -0.018052036 -0.020432923 -0.0010491858 -0.068624176
000330 d0 40 cd bb 2c c1 71 bc d8 06 94 bd 0f 9d 10 3a
       -0.00626383 -0.014755528 -0.07227868 0.00055165676
000340 5f 15 c4 3b a8 27 c3 bd 09 eb 87 3d 73 12 4b bd
       0.005983993 -0.09529048 0.06636626 -0.04957814
000350 7a 46 6b bd 03 bb 1e 3d ea 54 49 3d 70 47 dd 3d
       -0.05744026 0.038752567 0.049153246 0.10804641
000360 87 1f 5f bc 3f 7c 55 bc 9d 45 22 3d 7a d2 a4 3d
       -0.013618357 -0.013030111 0.03961717 0.08047958
000370 84 ad a9 3c 5a 74 da 3b 69 89 14 3d 3f c7 9b bc
       0.020712622 0.006666702 0.036263857 -0.019015906
000380 3c 03 61 bc 43 b9 83 3c 36 e0 02 3d 9d db 97 bd
       -0.013733681 0.01607955 0.031952105 -0.07414935
000390 fa 51 62 bd 37 c0 3b bd 8f 1f b1 bc 36 89 0a bd
       -0.05525396 -0.045837607 -0.021621494 -0.03382226
0003a0 a1 3f 01 3d 2a 3c 67 bc 96 4f 11 bd 21 54 80 bd
       0.031554822 -0.014113465 -0.03547629 -0.06266046
0003b0 73 f8 2f bd 4d fc a6 bd 84 27 1d bd 69 0a 76 bd
       -0.04296155 -0.08153591 -0.038367763 -0.06006852
0003c0 24 ee 1e 3d 6d 9f 79 3d 58 61 ad bc 43 b3 c9 3a
       0.038801327 0.060943056 -0.021164581 0.0015388507
0003d0 d3 5b 9b bc d6 50 9d bc 53 a0 ba 3c 7d be d0 bc
       -0.018964684 -0.019203585 0.022781527 -0.025481457
0003e0 17 e9 14 3d 04 44 3c bd c7 53 0a 3d f6 64 b6 3c
       0.036355104 -0.045963302 0.033771303 0.022264939
0003f0 f0 2c 22 bd 77 f5 2e bd e2 fc 23 bd 61 96 aa 3a
       -0.039593637 -0.042714562 -0.04003609 0.0013014787

lin2.bias f4 [256]
000000 a3 42 91 bc c6 e1 a2 3c e3 38 d2 bb 17 b1 37 bb
       -0.01773197 0.019883048 -0.006415473 -0.0028029138
000010 e8 69 aa 3d 37 f9 31 bd 59 0c ac bd df 4c b9 bc
       0.08320981 -0.04345056 -0.08400793 -0.022619663
000020 d5 20 8d bd fc 32 64 bd fe 68 a5 bd df 39 2e bd
       -0.06891028 -0.055712685 -0.08076666 -0.04253566
000030 1d aa f7 3c ab 95 c2 bc 89 72 8e 3d 94 4c ef 3c
       0.030232484 -0.023753008 0.069554396 0.02921132
000040 bd b0 1d bd a9 b0 a6 bd 50 62 0f be 0c d8 eb bc
       -0.03849863 -0.08139164 -0.14002347 -0.028789543
000050 9c 81 82 3d 26 8c 1f 3e 44 0b d0 bc 6c 59 85 3d
       0.06372377 0.15580806 -0.025395997 0.065111965
000060 97 b1 f6 bc e2 91 e4 bc 22 62 1d 3c c5 99 77 bd
       -0.030113978 -0.027901594 0.009605916 -0.06044938
000070 1c 6d 9a 3d 0b 03 8f bc 26 0e 7b bc eb 63 33 bd
       0.07540342 -0.017457506 -0.0153231975 -0.04379646
000080 89 1b ff bd 8f 91 59 be 89 6f 69 3c 6a a5 60 bd
       -0.12456424 -0.21246932 0.014247783 -0.05484525
000090 ea 40 95 3d f3 a9 a9 3d 1c 43 77 3d 06 fa 92 bd
       0.07287772 0.08284368 0.060366735 -0.071765944
0000a0 9f a6 19 bd 3f 04 b9 bd 09 b4 6e bd 25 30 42 3c
       -0.037512418 -0.09034013 -0.058277164 0.011852299
0000b0 24 b5 d9 3d da bb 5d bb c8 22 d9 3d 62 a0 15 bd
       0.10630253 -0.0033833892 0.10602337 -0.036529906
0000c0 9e a7 9f 3c 0b c0 2d bd 3d ae 0c 3e 2f d5 f7 3c
       0.019489106 -0.042419475 0.13738342 0.030253021
0000d0 34 eb 19 bd 8c 70 a8 bb 48 59 2e bd 05 12 d5 3d
       -0.037577823 -0.0051403698 -0.042565614 0.104038276
0000e0 d3 92 0e bd 2f 88 19 bd bb fb 91 3c 60 29 0c 3b
       -0.03480799 -0.03748339 0.01782023 0.0021386966
0000f0 66 81 0f 3d 67 dc 45 3c 5c da 31 bc 14 b7 3e 3d
       0.035035513 0.012076474 -0.010855284 0.046561316
000100 50 b5 2c bd 4c 66 d2 3b 7f 60 86 3d 58 53 87 ba
       -0.0421651 0.006420886 0.06561374 -0.0010324521
000110 6a e0 d7 3c b7 f0 9c bd 41 d3 8b 3d 17 fe 16 bd
       0.026352126 -0.076631 0.06827403 -0.036863413
000120 96 3c 03 3d b1 4e 5a bd bf a8 94 bd 9a 2d 2f 3d
       0.0320402 -0.053297702 -0.07258748 0.0427681
000130 3d 37 c1 3c ec 42 51 bd 7d ab 21 ba f5 94 48 3c
       0.02358591 -0.051089212 -0.00061672163 0.012242545
000140 60 34 f9 3c d1 39 e8 bc 33 a3 af 3c b2 b9 87 bc
       0.030420482 -0.028347882 0.021440124 -0.016568039
000150 0b 75 c5 3c f9 84 9f bd 13 6a 11 3d 56 df 1e bd
       0.024103662 -0.077890344 0.03550155 -0.03878721
000160 2f 6e a0 3d de 37 06 3c cc 42 f1 3c ee a3 87 bd
       0.07833516 0.008192031 0.029450797 -0.06623064
000170 41 4c e2 3b 96 79 8c 3d 6c 27 a3 3c 84 7c 02 3e
       0.006906063 0.06859128 0.019916259 0.12742811
000180 28 08 ba bc dc 21 0a be 91 07 01 bd a8 e2 0d bd
       -0.022708967 -0.13489479 -0.031501357 -0.034639984
000190 77 d9 90 bc 31 e1 0a 3d 56 11 75 bc 00 e9 1b 3e
       -0.01768182 0.033906166 -0.0149577465 0.15225601
0001a0 49 e7 fe bb 72 61 2e 3d 47 e3 c2 bc 93 9a c2 3d
       -0.007779036 0.0425734 -0.023790015 0.09502139
0001b0 5a 46 8c 3d d7 8a 59 3d 3a f6 ee bd 5a 4b 05 3d
       0.06849356 0.053110924 -0.11668058 0.032542564
0001c0 c6 77 aa bd 66 9e 24 3c 93 4d 59 3d da 7c 24 3d
       -0.08323626 0.010047531 0.053052496 0.04015813
0001d0 32 04 04 be ad 70 ca 3c fe ea b9 3c ae 08 99 bd
       -0.12892225 0.024711931 0.02269506 -0.07472359
0001e0 5b 20 1d bd f9 ba 6b 3b 6a ef c9 bd a7 d6 1c 3d
       -0.038360935 0.0035969599 -0.09860118 0.038290646
0001f0 51 71 89 3d 90 b9 86 bc e7 e5 83 bc 61 c3 68 bd
       0.067110665 -0.016445905 -0.016100837 -0.056826953
000200 10 6c 96 bd 3d 8f 53 bc de 02 a9 3d 20 50 8e 3c
       -0.0734483 -0.012912569 0.082525 0.017372191
000210 86 de 2d bd 58 be 8b bd 04 72 f9 3d d3 00 0e 3d
       -0.042448543 -0.068234146 0.1217995 0.034668755
000220 23 30 d0 bd 9e 01 5f 3c da d9 f7 bb 11 d8 93 bc
       -0.10165431 0.013611225 -0.0075638117 -0.018047364
000230 7b 6c 47 bd 1b 0d cb 3c d5 f5 aa bd 0d 36 99 bb
       -0.04868744 0.024786523 -0.0834767 -0.004675633
000240 2e 3e 2b bd a8 89 b0 bd f7 37 7c bd a8 7b fe 3c
       -0.041807346 -0.08620006 -0.06157681 0.031064823
000250 d0 10 c8 3d 96 e3 85 3d 36 b3 88 3d bb 35 07 bd
       0.09768832 0.06537549 0.06674807 -0.033010226
000260 d9 79 e8 bc 10 36 6c 3b ab f8 a4 bd ab 00 1f 3d
       -0.028378414 0.0036042966 -0.08055242 0.038818996
000270 e2 cb 25 3c 69 2a c2 3d 2f a6 7f 3c f5 a4 4b 3d
       0.01011941 0.09480745 0.015603586 0.049717862
000280 d6 93 32 bb 1b 29 73 bd 45 1f 01 bd 7e dc 08 be
       -0.0027248762 -0.059365373 -0.03152396 -0.13365361
000290 a8 63 d4 bc ff f0 88 bd 22 db 52 bd c1 99 3b bd
       -0.025926426 -0.06686591 -0.051478513 -0.045800928
0002a0 42 cd 47 3d 09 2d 2a bc a5 d2 d9 3c 00 3a d6 bc
       0.048779733 -0.010386714 0.026589701 -0.026150703
0002b0 98 6b e6 bc 0a 85 f0 3c 8d 79 71 3d 07 58 09 3e
       -0.028127477 0.029360313 0.05895381 0.13412486
0002c0 4c 52 a3 3a 8a c6 40 3e 3c a8 b6 3d 4f 27 73 3c
       0.001246044 0.18825737 0.08918807 0.014840915
0002d0 8a 6b 3d bd 1b 60 0e bd 73 7c 18 be f6 14 0e bd
       -0.046245135 -0.034759622 -0.14891224 -0.03468796
0002e0 a7 67 b0 3d c9 48 96 bd 6f 64 d4 3c 0f ee 89 bd
       0.0861352 -0.073381014 0.025926797 -0.06734859
0002f0 2a 6a 55 bd 6b 1b 25 3d d1 3d af bd 46 f1 08 bd
       -0.0521032 0.04030935 -0.085567124 -0.03343322
000300 76 e1 3e b9 ae 1e 37 3c cc 4d a6 3c b2 bf 13 bd
       -0.00018203803 0.011176748 0.020300768 -0.036071487
000310 48 fa c1 bc d9 93 43 3d a8 62 95 3d d9 7b 11 be
       -0.023678914 0.04774842 0.07294208 -0.142074
000320 1a 79 2f 3d 4e 50 a4 3c 3d 88 f8 bc 5e b3 a7 bb
       0.0428401 0.020057824 -0.030338401 -0.005117818
000330 24 67 1c 3d 43 94 fc bc cb 8e 11 bd a7 5e d1 3d
       0.0381843 -0.030832415 -0.03553657 0.102231316
000340 de d6 74 bc 7f c3 7f bd 15 31 28 bd 50 cf 87 3d
       -0.014943806 -0.0624423 -0.041062433 0.066313386
000350 11 da 39 3b 0a 65 b3 3c 93 6b 1a bd 09 3e 1b 3d
       0.0028358737 0.021898765 -0.037700247 0.03790096
000360 64 38 06 3e 6d db 4e bc a9 c6 df 3c 37 89 b2 bd
       0.13107449 -0.012625557 0.027316408 -0.08717578
000370 51 16 4d bd 16 53 4a bd d9 5c 2b 3d af fe a1 3d
       -0.05007011 -0.049395643 0.041836593 0.07909905
000380 08 f2 47 bd 0a 09 0c bc 65 56 18 bd d3 ce 01 bd
       -0.048814803 -0.008547077 -0.037191767 -0.031691384
000390 c6 a4 6c 3c 6e 53 52 3d 16 17 96 bd f9 58 ed 3b
       0.014443582 0.051349096 -0.07328622 0.0072432724
0003a0 b1 b5 34 be 3d a4 28 3d c2 43 ce bd 7c 80 83 bd
       -0.17647435 0.041172255 -0.100715175 -0.06420991
0003b0 a3 7b 6e 3c 8a 89 cd 3c f2 19 f2 3c 4b 08 3c bd
       0.0145558445 0.025089998 0.029553387 -0.045906346
0003c0 1a b7 dd 3c a3 10 4d bc 6c 70 97 bd 84 84 b9 3c
       0.027064849 -0.0125161735 -0.0739449 0.022646196
0003d0 b4 97 e3 bb 5a ab a6 3d ac c7 68 3c 19 a0 06 3d
       -0.0069455747 0.081381515 0.014207762 0.032867525
0003e0 59 37 b9 bd b5 f7 26 bb 74 8e 0c 3e 85 f5 ac bd
       -0.0904376 -0.0025477235 0.13726217 -0.08445267
0003f0 f2 4f 61 3c 47 66 9f bc 38 78 b0 3d 57 62 33 3d
       0.013751971 -0.01945795 0.0861668 0.043794956

lin3.weight f4 [128, 256]
000000 43 8c ba bc 8e c5 88 bc 4e eb 11 bd ad 8c 00 3c
       -0.02277196 -0.016695764 -0.035624795 0.00784604
000010 6d 0b c3 bc d3 f3 0b 3d 67 f1 5f 3c ae 22 15 bd
       -0.02380916 0.034168076 0.013668395 -0.036410026
000020 bf a3 f7 3c a8 12 b7 bd 67 a5 8c bd a7 aa 74 bd
       0.030229447 -0.08939105 -0.068674855 -0.05973306
000030 f9 a6 03 bd 47 8e 40 3c e7 60 d8 bc 0c dc 15 bb
       -0.03214166 0.011752672 -0.026413394 -0.0022866754
000040 e6 7d 86 bd 62 85 79 bc 22 61 2b bc 1e ee d7 3c
       -0.06566982 -0.015229555 -0.01046017 0.02635866
000050 a7 4c 43 3c a0 35 c8 bd 17 40 05 3c df 82 aa bc
       0.011920131 -0.09775853 0.008132956 -0.020814357
000060 3c 4b 35 3c 82 63 4b 3d f4 fd 35 3d bb 4e e0 bb
       0.011065301 0.049655445 0.04443164 -0.006845323
000070 67 00 6d bd 02 c2 45 3d 4e 7d 6d bd c6 96 a8 bc
       -0.05786171 0.048280723 -0.057980828 -0.020579707
000080 66 11 04 bd d5 d7 f2 bc 99 52 03 3c 70 f7 9a bc
       -0.032243155 -0.029643932 0.008015298 -0.018916816
000090 fb fd 6e 3b 43 49 4f 3d cb b2 08 bc 6c d1 a0 bc
       0.0036467302 0.050606977 -0.008343409 -0.01963111
0000a0 40 61 03 bc 00 b1 ea 39 cf 6e fb 3a 28 a2 10 3c
       -0.008018792 0.00044763833 0.0019182804 0.008827724
0000b0 c6 63 0b 3d a5 9c 38 bd af 51 44 bd b7 89 47 bd
       0.0340307 -0.045071263 -0.047929462 -0.04871532
0000c0 28 98 3c 3c 38 f9 b0 bd 7e 1a ae bd 30 72 7c bd
       0.011510886 -0.08641285 -0.08501147 -0.061632335
0000d0 af c0 d4 3c 97 d9 ea 3c f5 19 39 bd b3 3b a6 bd
       0.025970785 0.028668208 -0.04519077 -0.081168555
0000e0 ae 23 01 bd df 69 3d bb 10 b3 f9 bc 90 21 26 bc
       -0.031528167 -0.0028902215 -0.030480891 -0.010139838
0000f0 f3 1c 07 3d 0f 14 f2 3c 27 f9 5d 3d 0e ba 8b bd
       0.032986593 0.02955058 0.05419269 -0.068225965
000100 f2 67 04 3d ae 14 12 bd 95 53 7b bd 35 64 db 3c
       0.032325692 -0.035664253 -0.061359007 0.02678118
000110 1c 0a 16 bd 52 f1 45 3d 15 e0 f3 bc a7 0d ed 3c
       -0.036630735 0.048325844 -0.029769937 0.028937174
000120 62 6e 5e bd d0 c1 d6 bc e7 86 2b bd 50 c9 5a bd
       -0.054304488 -0.026215464 -0.0418767 -0.053414643
000130 58 f4 bf 3c 18 5e 82 bd 29 fc 63 bd c3 7d 85 bd
       0.023431942 -0.06365603 -0.0556604 -0.06518128
000140 16 b6 70 bb 27 7b 7e bd 52 38 7a 3c 51 84 47 3b
       -0.0036729625 -0.062129166 0.015272217 0.0030443857
000150 d7 e5 4a 3c 6a 14 47 3d 1a 10 b0 bc f2 3f c4 bc
       0.0123839 0.048603453 -0.021492053 -0.023956273
000160 3c e3 85 bc e4 c9 73 bd 30 46 a6 bc 0b bf d6 3c
       -0.016343705 -0.05951871 -0.02029714 0.026214143
000170 2e de 07 3d 65 ca 5a 3c 9c 24 6c bd 7b 18 4e ba
       0.03317087 0.013353919 -0.0576521 -0.0007861924
000180 c3 1a 4f 3c 6d 07 f9 39 4e 1b 8d bc fa 5f b6 3c
       0.012640658 0.00047498514 -0.017224934 0.022262562
000190 16 4e 25 3d 88 93 1c bd 6f b6 ac bc e1 cd 24 bb
       0.04035767 -0.038226634 -0.021083085 -0.0025147127
0001a0 22 8b a5 3a b8 1c 9b 3c 5d dc ab bc 37 ba 9e bb
       0.0012629966 0.018934593 -0.0209791 -0.004843976
0001b0 a2 e5 22 bd c1 87 b5 3c 48 48 89 bd f5 ac 7e 3c
       -0.039769776 0.02215946 -0.0670324 0.015544166
0001c0 c6 b3 f5 bb 4f 60 c2 3c 98 95 e7 bc bd ab 45 bd
       -0.0074982373 0.023727564 -0.028269574 -0.048259486
0001d0 89 60 e2 3c f0 6a 49 bd 9e 7f 8b bc 69 00 84 3c
       0.027633922 -0.04917425 -0.017028626 0.016113477
0001e0 1d 0b 60 bc 7b 49 de 3b eb a2 50 bd 50 7d 53 3d
       -0.013674525 0.006783662 -0.05093662 0.05163318
0001f0 2e 88 4b 3c 84 68 57 bd a1 ac a7 3c e4 2b 34 bd
       0.0124226045 -0.05258991 0.020468058 -0.04398717
000200 ef 89 73 bc 08 e2 96 bd 63 84 a3 3c bb 8a 0e 3c
       -0.014864429 -0.07367331 0.019960588 0.008700068
000210 0a 58 3d 3b a4 d6 2a 3d 86 74 6b bd fe 56 22 bd
       0.0028891587 0.041708604 -0.057484172 -0.039633743
000220 bb fc 42 bd b0 57 ba bc 64 cd 73 3c 44 3e 91 bd
       -0.047604304 -0.02274689 0.014880512 -0.07091954
000230 35 78 31 3c 7f da 0a bd 8c 3b ff bc e9 a5 44 3d
       0.010831882 -0.03389978 -0.031156324 0.048009787
000240 58 b2 a7 bc 6a 11 83 bc fc 7e 94 3d fc e5 9d 3b
       -0.020470783 -0.015999515 0.07250783 0.004818676
000250 cd 5c d3 bd 93 9f 2e bc 58 22 28 3d cb 15 05 3d
       -0.10320435 -0.010658163 0.041048378 0.032491487
000260 e1 50 ae 3a 19 a0 51 3d aa b4 b7 3c 4a b1 66 bd
       0.001329925 0.05117807 0.022425015 -0.05632142
000270 fc aa f4 bc 70 16 e7 3c 29 5b a4 bd 78 c7 97 bc
       -0.029866688 0.028208941 -0.080252 -0.018527731
000280 45 51 9d 3c db 11 af 3c 20 c8 a6 3b e3 0d 9b 3c
       0.019203791 0.021370819 0.0050897747 0.01892752
000290 b3 e6 20 3d 2d cc e2 3c e8 d1 86 3c 19 c4 22 bd
       0.039282512 0.02768525 0.016457513 -0.039737795
0002a0 fc 58 08 3c 92 43 8c bd 4c d8 b0 bc a4 4d f3 3c
       0.008321997 -0.068488255 -0.021587513 0.029700108
0002b0 17 71 08 bb 14 7a e2 3a b5 77 1d bd 23 2d 92 ba
       -0.002081936 0.0017278814 -0.03844424 -0.0011152368
0002c0 d1 92 81 bd 20 00 94 bc 32 1a 13 bc d1 1f 7d bc
       -0.06326831 -0.018066466 -0.008978413 -0.01544948
0002d0 9f bd dd bc a1 79 3f bd f4 27 9e bd 90 36 5b 3b
       -0.027067957 -0.046746854 -0.07722464 0.003344927
0002e0 9d c5 f2 3c 31 3e 3e 3d 5c 88 5c 3c 4f 4c 58 3d
       0.029635245 0.04644603 0.013460245 0.05280715
0002f0 80 2e 5d 3b ab 38 f3 3c d4 14 6f 3b 35 68 59 bd
       0.003374964 0.029690107 0.003648092 -0.053077895
000300 1e df 1a 3d 7a 9b 9d bd 8f e0 1e bb 83 43 03 3d
       0.037810437 -0.076956704 -0.0024242734 0.032046806
000310 f1 fb 44 3d f0 ae aa 3b 8e 13 c3 3c de c6 9d 3c
       0.048091833 0.0052088425 0.023813035 0.019259866
000320 cc 74 32 bd 86 34 84 3b 2a 10 28 3d 0f 7e 3c 3d
       -0.043568417 0.0040345816 0.04103104 0.046018656
000330 03 d6 bd bd 32 68 7a bd c4 05 c6 3c 93 8a 82 3c
       -0.09269335 -0.061134525 0.024172671 0.015935218
000340 80 77 9e ba fd 1a 12 ba c8 77 43 3d 9e cb 57 3d
       -0.0012090057 -0.00055734796 0.047721654 0.05268442
000350 34 f4 72 bc 40 8a 94 3a d2 19 dc 3a 15 85 51 bc
       -0.01482873 0.0011332706 0.0016792363 -0.012788077
000360 bf 87 2b bd 9e 51 21 3d f8 81 59 3d b9 16 3b 3d
       -0.041877504 0.039384477 0.053102463 0.045675967
000370 de a0 a4 3c 52 7d 7b bd 8f 7e b4 3c 53 c6 2d bd
       0.020096239 -0.06139881 0.022033004 -0.042425465
000380 cb 6a b5 bc 21 f2 8c bd c5 fd b0 3a ce b9 21 3d
       -0.02214565 -0.0688212 0.0013503364 0.039483838
000390 a8 33 55 bc 60 6a f6 ba 88 c6 f9 3c 70 87 c7 bc
       -0.013012804 -0.0018800013 0.030490175 -0.024356574
0003a0 c1 3c fb bc a0 f2 fc 3c 52 12 21 bd ca 1e 28 3d
       -0.030668618 0.030877411 -0.039324112 0.041044988
0003b0 72 2b 39 bb 29 3a 2a bd 78 40 98 3c 80 5e 53 bc
       -0.0028254655 -0.041559372 0.018585429 -0.0129009485
0003c0 7d 01 66 3c 81 47 ea 3a 2c b8 ec 3a a1 2e 4b bd
       0.014038441 0.0017874093 0.0018060259 -0.049605016
0003d0 00 35 5c 3c 02 66 95 ba 99 da 82 bd 2b f1 05 bd
       0.013440371 -0.0011398199 -0.063893504 -0.0327007
0003e0 ac 3c ad bb d5 a4 a7 3b 8c 2d 02 3d fa 71 9c 3c
       -0.0052867737 0.005116085 0.031781718 0.019097317
0003f0 98 c5 1c bd 2a 7f db 3c cf 46 35 3d e8 55 5b 3b
       -0.038274378 0.026794035 0.04425698 0.0033467952

lin3.bias f4 [128]
000000 ee 70 ee bb 70 ad 42 bd ab c8 18 3e e6 0e a1 bd
       -0.007276646 -0.047528684 0.14920299 -0.0786417
000010 06 7a 64 3c d0 12 96 3c 97 dc b3 3d c7 be 3c 3b
       0.013945108 0.018319517 0.087823085 0.0028800236
000020 30 15 13 bd 14 69 62 bd a5 65 a1 bd b0 fb 83 bc
       -0.035908878 -0.05527599 -0.07880715 -0.016111225
000030 6e 95 b8 3d 9b 87 02 3d 9d dc df 3d 6c 97 a0 bb
       0.090128765 0.031867605 0.109307505 -0.0049008634
000040 27 1d 58 bd 28 ea 0e 3e 12 7c 9a bd 9c a4 6f bd
       -0.052762177 0.13956511 -0.07543196 -0.058506593
000050 30 c3 b3 bd 9d 3e aa bc 60 9a 3e bd 94 fd 96 3d
       -0.087774634 -0.02078181 -0.046533942 0.07372585
000060 04 46 a5 bd 2b d4 21 bd 47 be 9e 3d d0 ac a5 bd
       -0.08069995 -0.03950898 0.07751136 -0.08089602
000070 0a b5 29 3e ca eb 99 bc 51 a5 a5 bc 57 fe c9 3d
       0.16572967 -0.01878919 -0.02022043 0.098629646
000080 a4 c4 f5 bb 73 d2 c1 bd ae 81 5e 3c f2 91 af bd
       -0.007500248 -0.09463968 0.013580723 -0.08572759
000090 d4 42 4d bd 92 a5 9a 3d ac f7 13 3e 4f e9 c3 bd
       -0.05011256 0.07551111 0.14449948 -0.095659845
0000a0 f6 75 9b 3d fc 1f c8 bc 68 df 96 bd bc 6c 3a 3e
       0.07590859 -0.024429314 -0.0736683 0.18205541
0000b0 7f 20 4d bd bc 5c 92 bd 65 9d 99 ba ab 56 a5 bd
       -0.05007982 -0.07146594 -0.0011719881 -0.08073171
0000c0 41 b8 1c bd 5a 2b e9 3d b3 58 94 bc 54 75 8a 3c
       -0.038261656 0.11385222 -0.018108701 0.01690165
0000d0 17 a2 05 3c d7 3f 44 bd ad a1 e9 3d 21 3c 11 3e
       0.008156321 -0.047912445 0.1140779 0.14183094
0000e0 f1 36 3b 3e 2f 57 1c bd 52 a5 0d 3c 96 48 77 bd
       0.18282677 -0.038169082 0.008645372 -0.060371958
0000f0 3e 71 3b 3d 23 29 dc bb 65 0a ba bd df c6 cd bd
       0.045762293 -0.006718771 -0.09084014 -0.10047697
000100 2d 8a 99 3d e1 dd 0a 3a e4 89 3d bd d3 12 38 3e
       0.07497058 0.0005297345 -0.04627408 0.17975931
000110 3a e1 bb bd 1a 84 11 bd 6f 94 32 3d f4 24 01 3c
       -0.09173818 -0.035526372 0.04359859 0.0078823455
000120 29 a8 5b bd 90 af 91 bd fd 46 9d 3d 4f 45 29 bc
       -0.053627167 -0.07113564 0.076795556 -0.010331466
000130 49 26 51 bc ec b4 4c bd 7d 0b 9e bc fa dd ba 3d
       -0.012765476 -0.049977228 -0.019292587 0.0912437
000140 16 b0 d0 bd ad a9 0d bc bc e9 c0 bd 91 3e 58 3e
       -0.10189836 -0.008646411 -0.09419581 0.21117617
000150 73 dd 4f 3d 69 2e c5 bd cd c6 70 bd 7c 73 28 3e
       0.0507483 -0.09627993 -0.05878334 0.16450304
000160 a6 ab a4 3d 50 e9 2c bd e3 87 a4 bd e8 d6 97 3d
       0.08040552 -0.04221469 -0.08033731 0.07414037
000170 e2 cb b1 bc c9 62 a3 bd 1b fe f5 3d 4d dc 06 3e
       -0.021703664 -0.07977826 0.120113574 0.13169976
000180 cb c3 43 3e c2 9b c1 3d 2a 9b 87 3d dc 60 ee bc
       0.19117658 0.094535366 0.06621392 -0.02909892
000190 66 86 22 bd 96 8c 4a bd 30 ec 2b 3d 8d d0 2c bd
       -0.039678954 -0.04945048 0.041973293 -0.042191077
0001a0 cd 65 84 3d d3 91 c9 3d b7 29 90 bd 7e 94 44 3e
       0.064647295 0.09842267 -0.070392065 0.1919727
0001b0 34 84 47 bd d6 fb fb 3d b3 16 9f bd f9 72 91 bc
       -0.048710063 0.12303893 -0.077680014 -0.017755019
0001c0 d0 3c b1 3c 6a 46 53 3c bc 6e 3a 3e 59 70 b3 3c
       0.021635443 0.012895206 0.18206304 0.021904157
0001d0 92 74 c4 bc 30 13 17 bd d6 d4 bb bd 75 32 e9 3d
       -0.023981366 -0.036883533 -0.091714546 0.11386577
0001e0 79 84 17 3e 6d 9a f6 bc 97 6b 90 3d 5f 08 14 3d
       0.14796628 -0.030102933 0.07051771 0.036140796
0001f0 b1 df f7 3d 31 59 c9 bd 8b 83 d9 bc 77 52 ec bc
       0.121032126 -0.09831465 -0.026551982 -0.028847916

lin4.weight f4 [64, 128]
000000 52 b0 dd bc 1f 50 32 bd c9 90 65 3c 86 19 b6 bd
       -0.027061615 -0.04353344 0.01401157 -0.08891587
000010 4a 52 cb bc 46 7f 29 bc a5 ee 3a bd 99 bd d9 bb
       -0.024819512 -0.010345286 -0.045637745 -0.0066449163
000020 00 b4 18 bc c6 8d de b9 08 0a 90 bd 59 f4 7b 3c
       -0.009320259 -0.0004244877 -0.07033163 0.015378081
000030 bd 07 13 bd 2b 14 96 3d 86 bb bb bb 6d 11 67 bd
       -0.03589605 0.073280655 -0.0057291416 -0.056413103
000040 b8 97 ac bd 55 23 56 3d d0 2f e0 bb 93 f1 52 bd
       -0.084273756 0.05227979 -0.006841637 -0.051499914
000050 41 65 48 3d 86 b4 aa bd 8c 0f a0 bd 56 06 2d 3d
       0.04892469 -0.08335213 -0.07815465 0.04224237
000060 b4 e0 49 bd 68 97 05 bd 65 1f 1d bc 74 a7 20 3c
       -0.04928656 -0.032615095 -0.009590005 0.009805549
000070 a4 b8 84 3d 19 e9 2f 3a 76 1e 92 bb 45 52 7a 3d
       0.0648053 0.00067104545 -0.0044591976 0.061113615
000080 f5 fe cc 3b 90 68 eb 3c 61 dc 97 3d bf b7 b4 3d
       0.006255979 0.028736383 0.07415081 0.08824109
000090 21 d0 12 3c b3 ae 8e 3b b3 41 40 bd aa ed 92 3d
       0.008960755 0.004354322 -0.046937656 0.07174237
0000a0 ab d2 f5 3c f6 01 a3 bd cb 33 df b9 66 93 f4 3d
       0.03000768 -0.079593584 -0.00042572463 0.119421765
0000b0 ed 9c 9b 3d 81 e5 c5 bc 1b 87 64 3d e5 42 6c bc
       0.075982906 -0.024157288 0.05579291 -0.014420246
0000c0 df 98 84 bd 76 72 f5 bc de f4 94 bd 78 5e 88 bd
       -0.0647447 -0.029961806 -0.07273267 -0.066586435
0000d0 2b d7 69 3d 16 6a 0e bd d5 a2 aa 3c 1a bc 8a bd
       0.057089966 -0.03476914 0.020829597 -0.06774159
0000e0 8a 78 84 3d 51 0e 89 bc 99 e9 31 3d 0f 0a ac bd
       0.064683035 -0.01673046 0.043435667 -0.08400356
0000f0 15 ba c0 bc f9 38 5b 3d 2c ad be bc d5 00 c5 bd
       -0.02352623 0.05352113 -0.023275934 -0.09619299
000100 0b a7 a1 3d a8 af 73 3c 38 fe c0 bd 2f 00 05 bd
       0.07893189 0.014873423 -0.094234884 -0.03247088
000110 39 5b fb bc 42 ca 96 bd 3e a0 0e 3d 5d fe 9a 3b
       -0.030683147 -0.07362796 0.034820788 0.0047300295
000120 86 64 6d 3d ab 2c 4d bd 75 51 9a bd 6d b8 c8 3d
       0.057957195 -0.050091427 -0.07535068 0.098008014
000130 3a c2 cf 3c 4e 7d 89 bc f5 c7 6e bd 4e 51 36 3d
       0.02536117 -0.016783383 -0.058296163 0.044511132
000140 93 31 f5 bc 79 73 fa 3c ff ef 35 bc 83 72 61 3d
       -0.029930865 0.03057264 -0.011104583 0.055040848
000150 8e 91 94 bd 97 31 9c bd 98 47 87 3b 8b 6f ab 3b
       -0.07254325 -0.07626646 0.0041284077 0.005231803
000160 0c e2 ba bd 2c b9 df 3c ec 33 88 3d ac 5a 15 bb
       -0.09125146 0.027309977 0.06650528 -0.002278964
000170 a1 13 72 bb 36 99 60 bd 89 f5 ee 3a 55 3f c1 3b
       -0.003693797 -0.054833613 0.0018231134 0.0058974423
000180 b0 13 3a bd 9c 31 e4 bc 64 8a 3c bc 03 ad 51 3d
       -0.04542893 -0.027855687 -0.011507604 0.051190387
000190 aa b2 82 bd 17 6f 1a 3c b2 c4 86 3d fd e5 0f bd
       -0.06381734 0.0094259 0.065804854 -0.035131443
0001a0 de 7c 68 3d 30 84 bc bd 45 37 aa 3d c2 ed 83 bb
       0.056759708 -0.092049 0.08311323 -0.0040261457
0001b0 0e 6b 00 3c 5d 53 24 bc 7b 08 c5 3c d2 cc 5d 3d
       0.007838024 -0.010029641 0.024051895 0.05415041
0001c0 3d 10 b1 bc d9 c0 b6 3b 69 3c 82 bd 19 2e 3d bd
       -0.021614188 0.0055771885 -0.063591786 -0.04618654
0001d0 ea 7e 96 bc 95 85 d4 3b 66 cd 4f 3d 7e bf 8b bd
       -0.018371064 0.006485651 0.050732993 -0.068236336
0001e0 19 4c cc bc 88 f0 93 bd d8 52 97 bb 84 2c a6 bc
       -0.02493863 -0.07223612 -0.00461803 -0.020284899
0001f0 cc 9f 06 be 1a df 92 3c 4e 63 58 3c 3a 27 46 3d
       -0.13146895 0.017928649 0.01320727 0.048377253
000200 25 67 84 3d 58 25 8f 3d 64 9b c3 3c 32 c7 b4 3d
       0.06464986 0.06989545 0.023877807 0.08827056
000210 5d 49 ec 3b 64 9c a0 bd 42 21 29 be 0f cb 32 3d
       0.007210894 -0.07842329 -0.16516593 0.043650683
000220 6f 0e 72 3d 07 e1 61 3d 50 ce 81 bd 89 08 89 3d
       0.059095796 0.055146243 -0.06338179 0.06691081
000230 5d a8 9d 3b 3b 29 69 bd 59 4c 9c bd 11 6c 3a 3d
       0.00481133 -0.056924086 -0.0763175 0.045513216
000240 1a 60 20 3d 0b da 55 3d b7 a0 a8 bd ce f7 e7 3b
       0.03915415 0.052209895 -0.08233779 0.007079101
000250 a7 3c c3 3c 1f d1 6c 3d 87 ea 1f 3d 8a 8e 81 bd
       0.023832632 0.05781662 0.039042022 -0.06326015
000260 8d e9 b2 3c 60 48 a9 3c 51 f8 8c 3a 0c 47 e0 3c
       0.021839881 0.020664394 0.0010755156 0.027377628
000270 05 d0 64 bb 3e a5 56 3d cd 96 91 3d 7f 58 86 3d
       -0.0034914028 0.05240368 0.07108841 0.06559848
000280 71 1d b5 3b f1 ee 0c 3d 5f ba c1 3c 35 dd 24 bd
       0.0055271913 0.03440756 0.023648439 -0.040250022
000290 8c 05 60 bd a3 0b 01 be 7f 25 c3 bc cc 61 93 3c
       -0.05469279 -0.12602095 -0.02382159 0.01799097
0002a0 e3 85 01 be 4f b4 30 3d fe 7b 63 3d 7a 1d 30 3d
       -0.1264873 0.043140706 0.05553817 0.04299686
0002b0 cc 28 16 bd 9e ef 32 bd 0c 2f d1 3c e4 ec 27 bd
       -0.03666 -0.043685548 0.025535129 -0.0409974
0002c0 c0 c4 74 bd a2 81 80 bc e3 8a 4e bd f1 ec 50 3d
       -0.059757948 -0.015686814 -0.05042542 0.051007215
0002d0 33 29 0f 3d b3 17 62 3d 7f bb 45 3c b8 49 cb bc
       0.0349514 0.055198383 0.012068628 -0.024815425
0002e0 72 c1 9c bd db e1 43 3d e9 7d 47 bd 8d e1 f6 3c
       -0.07654084 0.047822814 -0.04870406 0.030136848
0002f0 51 fc 30 3b c3 18 32 bd 28 11 71 bd 14 bb a4 3c
       0.002700586 -0.043480646 -0.058854252 0.020108737
000300 71 55 15 bd a7 2c ee bb ea 42 82 bc f6 28 6a 3c
       -0.036458436 -0.0072685066 -0.015901048 0.014291992
000310 c7 64 c4 bc c7 94 62 bd 5c 01 62 bd b4 20 1b 3d
       -0.023973836 -0.055317666 -0.055177078 0.037872985
000320 a5 29 c6 bc 79 c2 02 bd 3a 07 90 bc dd 03 a0 3d
       -0.02418978 -0.031923745 -0.01758157 0.07813237
000330 54 5f 81 3d 47 15 d4 bc bb 2b d6 bd 2e de 04 3c
       0.063170105 -0.025889052 -0.1045756 0.008109612
000340 f9 ad 4a bd 76 8b 9f bd 55 22 a0 bc d7 30 20 3d
       -0.04948232 -0.07790272 -0.01954762 0.039109077
000350 d7 e9 23 bd 31 32 f6 3c dd 00 7d 3d a6 cd c0 bc
       -0.04001793 0.03005323 0.0617684 -0.02353556
000360 f3 ee 28 bc bb b7 24 3d 90 f4 24 3d 92 c2 ff ba
       -0.010310876 0.04021428 0.040272295 -0.0019512943
000370 40 49 a7 3c d7 13 02 bd 51 ea 9d 3c d5 7b 1e 3d
       0.02042067 -0.031757202 0.01927677 0.038692314
000380 2b d9 30 3d 3f b7 63 3d 6e 4b 54 bd d8 e9 80 3d
       0.043175858 0.05559468 -0.051829748 0.06294602
000390 00 eb 42 bd e6 90 e0 bc 23 38 a6 bd 08 4c 20 3d
       -0.047587395 -0.027412843 -0.08116176 0.03913501
0003a0 e4 b4 d1 bc 71 bd b3 3b b5 4c 48 bd d2 1a a5 bd
       -0.02559895 0.0054852297 -0.04890128 -0.08061756
0003b0 57 8b 2c bc 1c d6 45 3d 0e 3e a6 bd 86 bb a5 3d
       -0.010531268 0.048299894 -0.08117305 0.08092408
0003c0 e9 17 5a bd 6e 99 58 bd 99 ec d7 3d 7d 85 ce 3d
       -0.05324546 -0.052880697 0.10543174 0.100840546
0003d0 04 ba a8 bc ac bb b6 3c 5f 21 a5 bd 1f 44 75 3d
       -0.020596512 0.022306286 -0.08063006 0.05987942
0003e0 ca a5 ba bc 4a ca d6 3d 6e 1e 57 3d 3d 33 cc 3d
       -0.022784133 0.10487802 0.052519254 0.099707104
0003f0 a7 4e a8 39 d6 9c 99 bd a8 db e9 3b 43 16 3d bd
       0.00032102058 -0.07500617 0.007136781 -0.04616381

lin4.bias f4 [64]
000000 8e f6 c7 bb 43 05 df 3d a1 86 e5 3d 93 a7 d6 bd
       -0.0061023897 0.108896755 0.11207319 -0.10481181
000010 83 e9 65 3e 5c ca 41 bd cf d6 fb 3d 53 a0 63 3e
       0.22452359 -0.047312126 0.12296831 0.22229128
000020 a5 0c 67 3c d6 3f 78 3e dd 98 81 be 89 41 6e be
       0.014102136 0.24243101 -0.25311938 -0.23267187
000030 fd 77 7c be bf f4 7f 3e 6b 24 07 be 42 8a e2 bd
       -0.24655147 0.24995707 -0.13197486 -0.11061527
000040 12 4f 4c 3e ba 93 dd 3d d7 35 28 be 5e dd 4f 3e
       0.19952038 0.10819192 -0.16426788 0.20299289
000050 99 f1 33 3e 3b 02 65 be 34 c8 8c 3d 30 41 ff 3d
       0.17572631 -0.22364132 0.06874123 0.124636054
000060 0e d1 13 be 1c 4c 7c 3e 72 ba 7f 3e 3e fd 75 3e
       -0.14435217 0.24638408 0.24973467 0.24022385
000070 de 2e 2a 3e e4 dd 50 be 4f c5 ee 3d 37 0b 48 bd
       0.16619441 -0.20397145 0.116587274 -0.04883882
000080 ea df 10 3e e9 6a 4e 3e 56 7c 2b 3c 47 43 5e bd
       0.14147916 0.2015797 0.010466656 -0.05426338
000090 e8 30 0f 3e 9b a8 30 3e 84 8a 36 bd 4d 0e 37 3e
       0.139835 0.17251818 -0.044565693 0.17876549
0000a0 fe 5e 0c be 8c 1f 74 be 9c dd 38 3e 77 71 28 be
       -0.13708112 -0.23840159 0.18053287 -0.16449533
0000b0 d9 1b 83 be 4e 20 1b bd 18 41 a4 bd c5 62 b4 3d
       -0.25607184 -0.037872605 -0.08020228 0.08807901
0000c0 7f 54 85 be ce 17 13 be 0f 12 17 bd fc a6 14 3e
       -0.26041028 -0.1436455 -0.036882456 0.14516824
0000d0 9b ec 48 3e fc 18 68 be 10 bf ba 3d 7a b2 b7 bd
       0.19621508 -0.22665781 0.091184735 -0.089695886
0000e0 8b ed 45 3e 0b 59 35 3e 66 6d 03 be c9 65 93 3e
       0.19328897 0.17709748 -0.12834701 0.28788593
0000f0 bf 0a e9 bd bc a4 4a be fd 1a b2 3d b0 05 82 bd
       -0.11379003 -0.19789404 0.08696554 -0.06348741
