src/virtuose_teleoperation/network_controller/trained_policy_MLP/Touch_BC_AHEE_epoch_3009_yes_vel_no_eff.pth (torch, 476423 bytes, 10 tensors)

lin1.weight f4 [256, 39]
-0.023307018 -0.015781317 0.04905388 -0.057214033 0.112455875 -0.100097865 0.0715825 -0.19065267
0.017035063 -0.23405527 -0.111154094 -0.13891435 0.037583556 -0.057037696 -0.061017692 -0.050678153
0.060782917 -0.012321856 -0.06294531 0.07724075 -0.04366871 -0.039012395 -0.13137704 0.050561592
-0.15529741 0.54154056 -0.91958433 -0.3737343 -0.3248888 -0.12148306 0.5544252 -1.6187027
-0.27713987 -0.06732018 -0.116880216 -0.03715313 0.29720455 -0.043735024 0.48047143 -0.0062711206
-0.03754539 -0.0748242 0.029705407 0.055464063 -0.056427743 0.08094719 0.27833417 -0.27255145
-0.10807105 -0.07339901 -0.034107648 0.13737871 0.18142466 -0.10615054 -0.04924911 0.25991735
-0.028497882 -0.4558466 0.046094727 0.013715653 -0.1873601 0.6480109 0.69336206 -0.18484195
-0.36255956 1.7185789 0.07974583 -1.4390595 0.41061443 0.45444897 0.10604915 0.08249437
0.2543743 -0.9531936 0.12510423 0.070185244 -0.12507193 -0.07422106 0.09670737 -0.13116252
-0.01098833 0.18385327 -0.11384098 0.11740143 0.11336614 -0.35795802 -0.19371065 0.27132955
0.17978732 0.12378086 0.3930829 0.013239849 0.013676273 -0.18426523 -0.13899429 -0.24148582
-0.6109623 -0.066719495 0.7998761 0.17556277 -0.28364363 0.14888416 -0.6182641 -0.07926405
-0.04944179 -0.009409809 0.010214611 0.08264575 0.3508428 -0.048114378 -0.03401977 0.091689885
-0.012041781 -0.07649618 -0.007318804 -0.055008493 0.09141605 0.027465463 0.054091077 0.14544629
0.13287927 -0.040401146 -0.024354551 -0.010458628 -0.31498134 0.09665355 -0.24975413 -0.50499105
0.03384433 -0.36886975 -0.2270803 -0.7185375 0.39221984 0.17847708 0.12629545 0.06781605
-0.089264244 0.3160351 0.572013 0.3385979 0.030020608 0.064265 -0.018867029 0.008419755
0.015056071 -0.005456499 0.053473156 -0.0033173417 0.0015385527 0.1192876 0.006358816 -0.0131028555
0.061641164 0.0015040573 -0.032305345 0.019205784 0.12265374 -0.0029454916 -0.04322112 0.085172266
-0.031722907 0.00963175 0.03386654 -0.061010264 -0.12821528 -0.01242123 0.03986753 -0.0615173
-0.102300934 0.024217436 -0.049111433 0.019689944 -0.03748846 0.027064716 -0.12031437 0.11166878
0.10984661 0.028664984 -0.122578755 -0.0847425 0.13798119 0.09808029 -0.08557267 -0.02464092
-0.09211578 -0.1286657 0.15081714 0.023288138 0.09054541 0.13590853 0.12757115 -0.049195673
-0.14097469 -0.009388865 0.08843925 -0.016951088 0.0044766204 0.00071092276 -0.13345376 0.13715269
0.14993799 -0.04106516 -0.08558408 0.038113005 0.020426618 -0.12910858 0.062001597 -0.09374377
-0.08970228 0.035769556 -0.12187219 -0.14599374 -0.07791287 0.03178758 0.028877748 -0.11519891
-0.114674136 0.1262881 0.14167747 0.1382126 -0.11223996 0.09655737 -0.15572806 -0.14936754
0.15323713 0.042548165 0.037888978 0.07291963 0.09943441 0.15934673 0.11196714 0.086270764
0.021843214 -0.067325436 -0.15160057 0.12984183 0.032786455 -0.013778571 0.15446879 0.06301735
0.114640154 -0.10860322 0.09447074 0.08985484 0.05022261 -0.16150558 -0.12959868 -0.026283002
-0.08106636 -0.032249853 -0.025592353 0.10058198 0.12860249 -0.074980035 0.15272373 -0.14804569
00000000: 5cee bebc d247 81bc b9ec 483d 4359 6abd
00000010: 444f e63d 1c00 cdbd d999 923d 743a 43be
00000020: 1e8d 8b3c 2fac 6fbe c2a4 e3bd 903f 0ebe
00000030: 37f1 193d 5ca0 69bd b0ed 79bd e593 4fbd
00000040: 82f7 783d 9ce1 49bc 78e9 80bd 6630 9e3d
00000050: f6dd 32bd 76cb 1fbd b487 06be ac19 4f3d
00000060: 4906 1fbe 67a2 0a3f e169 6bbf 1a5a bfbe
00000070: d357 a6be 1ccc f8bd cfee 0d3f a631 cfbf
00000080: 47e5 8dbe 2adf 89bd e55e efbd e12d 18bd
00000090: 322b 983e 7f23 33bd 5a00 f63e f97d cdbb
000000a0: 32c9 19bd 6e3d 99bd c158 f33c 492e 633d
000000b0: c720 67bd a4c7 a53d d181 8e3e dd8b 8bbe
000000c0: 5b54 ddbd 3852 96bd 76b4 0bbd 01ad 0c3e
000000d0: 63c7 393e 7465 d9bd 6fb9 49bd e313 853e
000000e0: 6474 e9bc ba64 e9be d3cd 3c3d 9eb7 603c
000000f0: 53db 3fbe 0be4 253f 2d80 313f 3547 3dbe
00000100: 68a1 b9be 65fa db3f c851 a33d 1a33 b8bf
00000110: 0e3c d23e 89ad e83e 4c30 d93d cff2 a83d
00000120: 593d 823e 7f04 74bf 531b 003e 48bd 8f3d
00000130: db12 00be 3601 98bd 830e c63d 784f 06be
00000140: 6508 34bc 0844 3c3e 7625 e9bd 2970 f03d
00000150: 822c e83d 4646 b7be 165c 46be b5eb 8a3e
00000160: 2b1a 383e d280 fd3d 2942 c93e f4eb 583c
00000170: 7212 603c 06b0 3cbe 8554 0ebe 0f48 77be
00000180: 0668 1cbf 3ba4 88bd aec4 4c3f bac6 333e
00000190: bd39 91be 1775 183e 8e46 1ebf 3155 a2bd
000001a0: 7983 4abd 992b 1abc 2f5b 273c 2d42 a93d
000001b0: aba1 b33e 9513 45bd 5058 0bbd e8c7 bb3d
000001c0: e44a 45bc 07aa 9cbd 94d2 efbb 9650 61bd
000001d0: 5738 bb3d 40ff e03c 9b8e 5d3d dfef 143e
000001e0: 8111 083e ac7b 25bd 3283 c7bc aa5a 2bbc
000001f0: 3c45 a1be 4cf2 c53d 8cbf 7fbe 1847 01bf
00000200: 5aa0 0a3d 7fdc bcbe bd87 68be 13f2 37bf
00000210: 0ad1 c83e b2c2 363e 9853 013e 24e3 8a3d
00000220: 2cd0 b6bd 5acf a13e 726f 123f b45c ad3e
00000230: c7ed f53c 5e9d 833d 078f 9abc 03f3 093c
00000240: bdad 763c 6ecc b2bb ab06 5b3d c267 59bb
00000250: 43a9 c93a 0f4d f43d 9d5d d03b 5cad 56bc
00000260: 727b 7c3d ca23 c53a 9c52 04bd 7355 9d3c
00000270: e231 fb3d 2609 41bb a108 31bd cc6e ae3d
00000280: e1ef 01bd 7dce 1d3c a4b7 0a3d e6e5 79bd
00000290: de4a 03be 6a82 4bbc 234c 233d 90f9 7bbd
000002a0: 2783 d1bd a563 c63c 1229 49bd ce4c a13c
000002b0: 808d 19bd d3b6 dd3c 6167 f6bd 9ab2 e43d
000002c0: 42f7 e03d d4d2 ea3c 920a fbbd 7a8d adbd
000002d0: f14a 0d3e 52de c83d b940 afbd c1db c9bc
000002e0: 33a7 bcbd f1c0 03be cf6f 1a3e c4c6 be3c
000002f0: df6f b93d 9b2b 0b3e 03a2 023e 6781 49bd
00000300: ab5b 10be c1d3 19bc a31f b53d 02dd 8abc
00000310: 9db0 923b 385d 3a3a 1aa8 08be c171 0c3e
00000320: 5889 193e f133 28bd b546 afbd 621c 1c3d
00000330: b955 a73c 0a35 04be 63f5 7d3d bcfc bfbd
00000340: d4b5 b7bd 1983 123d 2098 f9bd 627f 15be
00000350: c890 9fbd b233 023d 0791 ec3c 68ed ebbd
00000360: 46da eabd ab51 013e e613 113e 9b87 0d3e
00000370: 10de e5bd dfbf c53d 2d77 1fbe cef3 18be
00000380: 32ea 1c3e fc46 2e3d 7931 1b3d e356 953d
00000390: 45a4 cb3d ca2b 233e 074f e53d baae b03d
000003a0: 8af0 b23c ebe1 89bd 2e3d 1bbe 42f5 043e
000003b0: 174b 063d 84bf 61bc 112d 1e3e 3e0f 813d
000003c0: 75c8 ea3d 5d6b debd e079 c13d d005 b83d
000003d0: 39b6 4d3d b861 25be 84b5 04be 734f d7bc
000003e0: 1f06 a6bd 6c18 04bd 0ea7 d1bc edfd cd3d
000003f0: 5fb0 033e 228f 99bd 9c63 1c3e 4a99 17be

lin1.bias f4 [256]
-0.0694371 -0.097126916 0.08858338 0.10710775 -0.11037529 -0.10602994 -0.014158217 -0.0028751371
0.041167412 -0.14354342 -0.14819998 0.097303756 -0.09429311 0.084945016 -0.12773651 0.036472496
-0.036960214 0.032894842 0.09041684 0.11995928 -0.05126053 -0.17945363 -0.05313421 0.06485399
0.17472053 -0.04136313 -0.005482105 -0.0467305 -0.058284253 -0.034662295 -0.1380745 -0.12542485
-0.023353603 -0.15094924 -0.12412359 -0.03703125 -0.13462153 -0.049269706 -0.119844995 0.23495898
0.03713635 -0.08566204 0.10091586 0.068611674 0.06578542 0.0044701165 0.0056037907 -0.093987316
-0.09380838 -0.087683685 0.0692926 -0.18073007 -0.15923202 0.078909196 -0.026102388 -0.056628022
0.10577943 0.126084 -0.068141244 -0.0806722 -0.06964324 -0.016628753 -0.10840182 -0.03781954
0.16197073 -0.07101999 -0.102970935 0.013861687 0.0018858212 0.001844528 -0.1754287 -0.12648793
-0.021945508 -0.07414461 0.14057611 -0.028702315 0.0838072 -0.11886567 -0.020384118 0.15950303
-0.052548636 -0.046202578 0.27443177 -0.04127943 0.109722435 0.1831439 0.10124819 0.073936574
0.090220444 0.040174555 -0.120098814 -0.083012104 0.07316392 0.017426047 0.009422762 0.0050123194
0.024736946 -0.050528113 0.036465652 -0.02180292 -0.10962486 0.07934295 -0.032732856 0.13341375
-0.039190535 0.05097836 0.06607676 0.008526981 0.0946632 0.014327527 0.23901954 -0.12650226
0.06561502 -0.09654281 0.08641274 -0.00032064764 -0.0058029187 -0.047245733 0.008635655 -0.22916679
-0.022946186 -0.04489671 -0.048132066 0.14297523 -0.010045843 -0.10354684 -0.108973615 -0.11425102
0.29439434 -0.0828351 0.111450836 0.03834447 -0.11090821 0.03625096 0.05903955 -0.0022592624
0.1240723 -0.13475226 0.07868423 -0.044038948 0.06394511 -0.068928786 -0.009217734 -0.012493538
-0.010418791 -0.04175792 0.069568254 -0.06596693 0.103487454 -0.026334781 -0.0046050036 -0.053442936
-0.1475493 0.09672589 0.102978036 -0.049347322 0.043467786 0.018443162 -0.0027748698 -0.14613625
0.0828526 0.045059163 -0.12526187 -0.1301833 -0.033283457 0.13535708 -0.0280404 -0.10996564
-0.011602156 -0.03578796 -0.012395715 0.021391837 -0.07881293 0.16374218 0.0074564856 -0.17666261
-0.110713445 0.0705517 -0.09765597 -0.15398456 -0.09750606 -0.014485904 0.06277757 0.05012756
0.14136592 0.09956285 -0.036646668 -0.06451162 -0.19687384 0.0589979 -0.15763192 0.03074297
-0.14627177 -0.033242464 -0.16988522 0.030364476 -0.13965918 -0.078616954 0.042014785 -0.02446989
0.055003487 -0.00394916 -0.123993486 -0.024669439 -0.09675604 -0.035371706 -0.12604408 0.046512958
0.09036901 -0.009812729 -0.09715222 0.034582194 0.03753679 -0.010058003 -0.112177595 0.070861556
-0.037592284 -0.05886504 0.0684222 -0.1269761 -0.050963063 -0.17349562 0.06653573 -0.090354785
0.088898584 -0.15059696 -0.09066551 0.10517546 -0.06262397 -0.11375808 -0.11443322 0.12457988
0.026681356 -0.056947544 -0.13401455 0.14777519 0.032904044 -0.060187288 0.055039633 0.05631098
-0.13137412 0.07589527 0.05914493 -0.011905853 -0.043603633 0.007833221 0.020573009 -0.19228804
0.12290961 -0.034635622 -0.0495605 -0.080805406 -0.2089309 -0.031584762 -0.06805004 0.077829115
00000000: 0a35 8ebd 7aea c6bd 346b b53d 4f5b db3d
00000010: 710c e2bd 3a26 d9bd def7 67bc cc6c 3cbb
00000020: 299f 283d 0cfd 12be bcc1 17be 3147 c73d
00000030: bf1c c1bd a7f7 ad3d 5ccd 02be 2f64 153d
00000040: 9863 17bd bebc 063d 772c b93d 36ad f53d
00000050: 90f6 51bd b1c2 37be 42a3 59bd 2bd2 843d
00000060: f0e9 323e 636c 29bd 3ba3 b3bb 7b68 3fbd
00000070: 78bb 6ebd 0dfa 0dbd 6763 0dbe 5f6f 00be
00000080: 0e50 bfbc 7092 1abe 8234 febd 14ae 17bd
00000090: 3ada 09be 08cf 49bd 4b71 f5bd 1699 703e
000000a0: 491c 183d 946f afbd f9ac ce3d 4784 8c3d
000000b0: 82ba 863d 0e7a 923b 01a0 b73b 6c7c c0bd
000000c0: 9c1e c0bd 8193 b3bd 47e9 8d3d 4e11 39be
000000d0: b80d 23be 259b a13d add4 d5bc c9f2 67bd
000000e0: e3a2 d83d 2a1c 013e a38d 8bbd 7737 a5bd
000000f0: 1da1 8ebd 0639 88bc c601 debd a9e8 1abd
00000100: a8db 253e ee72 91bd 6de2 d2bd 211c 633c
00000110: a92d f73a 17c4 f13a 95a3 33be 0d86 01be
00000120: 11c7 b3bc 21d9 97bd 2ff3 0f3e 1e21 ebbc
00000130: 1ca3 ab3d d86f f3bd 98fc a6bc c354 233e
00000140: 3d3d 57bd ea3e 3dbd 5282 8c3e 9f14 29bd
00000150: 28b6 e03d 138a 3b3e 365b cf3d 0f6c 973d
00000160: 7fc5 b83d 138e 243d 5ef6 f5bd 4002 aabd
00000170: f7d6 953d 12c1 8e3c ee61 1a3c 623e a43b
00000180: 23a5 ca3c 91f6 4ebd 025d 153d 0a9c b2bc
00000190: 0083 e0bd 8e7e a23d e312 06bd 9d9d 083e
000001a0: 4186 20bd afce 503d 4153 873d c0b4 0b3c
000001b0: c8de c13d 01be 6a3c 8ac1 743e cf89 01be
000001c0: 2b61 863d 3db8 c5bd 2af9 b03d 991c a8b9
000001d0: 6926 bebb be84 41bd 907c 0d3c b3aa 6abe
000001e0: a4f9 bbbc 9de5 37bd 2126 45bd 1968 123e
000001f0: 5297 24bc 5e10 d4bd 8f2d dfbd 70fc e9bd
00000200: dbba 963e 73a5 a9bd 5640 e43d 170f 1d3d
00000210: d823 e3bd e37b 143d 75d3 713d 2210 14bb
00000220: 9e19 fe3d 7ffc 09be 3325 a13d 2f62 34bd
00000230: a7f5 823d 892a 8dbd fb05 17bc b2b1 4cbc
00000240: 94b3 2abc 5a0a 2bbd cd79 8e3d ab19 87bd
00000250: 3bf1 d33d 0abc d7bc 92e5 96bb fbe6 5abd
00000260: 2a17 17be 3918 c63d 26e6 d23d 6b20 4abd
00000270: 470b 323d 1d16 973c 97da 35bb bea4 15be
00000280: a0ae a93d f58f 383d a644 00be c54e 05be
00000290: 3c54 08bd 0c9b 0a3e fbb4 e5bc aa35 e1bd
000002a0: f816 3ebc 6596 12bd 6617 4bbc ef3d af3c
000002b0: ac68 a1bd 08ac 273e 8955 f43b 0be7 34be
000002c0: bbbd e2bd 697d 903d daff c7bd 21ae 1dbe
000002d0: 42b1 c7bd 4956 6dbc 8791 803d 8e52 4d3d
000002e0: 3ac2 103e 9ce7 cb3d d11a 16bd ab1e 84bd
000002f0: 4c99 49be c8a7 713d 436a 21be aed8 fb3c
00000300: 44c8 15be 4029 08bd 64f6 2dbe ecbe f83c
00000310: d102 0fbe ed01 a1bd b217 2c3d 1475 c8bc
00000320: 564b 613d f567 81bb 4cf0 fdbd 9017 cabc
00000330: 0828 c6bd ece1 10bd b311 01be 5f84 3e3d
00000340: 6313 b93d 92c5 20bc bef7 c6bd 0fa6 0d3d
00000350: 2dc0 193d 52ca 24bc 5ebd e5bd dd1f 913d
00000360: 5efa 19bd 781c 71bd f020 8c3d 0606 02be
00000370: a5be 50bd d6a8 31be e343 883d ee0b b9bd
00000380: 7610 b63d 1736 1abe d7ae b9bd 3b66 d73d
00000390: ff40 80bd fff9 e8bd f75b eabd bc23 ff3d
000003a0: dc92 da3c d441 69bd 1c3b 09be 6152 173e
000003b0: 64c6 063d f286 76bd 3d71 613d 58a6 663d
000003c0: f086 06be fb6e 9b3d f441 723d c410 43bc
000003d0: b999 32bd e956 003c ba88 a83c 28e7 44be
000003e0: 09b8 fb3d 15de 0dbd f3ff 4abd 4e7d a5bd
000003f0: fbf1 55be 065f 01bd d25d 8bbd df64 9f3d

lin2.weight f4 [256, 256]
-0.069802724 -0.011801606 0.04341404 -0.0023019817 -0.03247589 0.0023067296 0.029780366 0.008757725
-0.020665169 -0.016568586 -0.0486755 -0.04541616 -0.015819691 0.020558335 -0.03987036 -0.048418887
-0.052770406 -0.011485912 -0.016946264 -0.036901176 -0.054295212 0.013020292 -0.060999822 -0.030691175
0.018089166 0.03659349 -0.019057982 0.026758445 -0.049888335 -0.057684794 0.019370891 -0.060889747
0.03827854 0.00049579144 -0.019428074 -0.0050517954 0.026152886 -0.05593579 0.020353712 0.03808037
-0.005573851 0.055490285 -0.039443523 -0.0012032434 -0.029683875 -0.051893756 -0.019641012 -0.060428225
0.019717291 -0.05302426 -0.04840758 0.030226655 -0.06155067 0.047046494 0.05187062 -0.040915478
0.0047901794 0.058757365 0.003979251 0.028348114 -0.017000841 -0.030856896 -0.051726624 -8.409277e-05
-0.018811846 0.03140474 -0.0062770173 0.046082743 -0.008519657 0.03603185 -0.026937893 -0.062026307
-0.034317702 -0.05646441 0.02325923 0.015194283 -0.027930716 -0.060751013 -0.008089182 -0.04289659
0.048895538 -0.015953682 -0.026151765 0.020605637 -0.016494853 -0.06697622 0.058727726 -0.050508685
-0.056382388 -0.032920443 -0.032336988 -0.051036157 -0.035787143 -0.003554452 -0.027741253 -0.008860879
-0.021331578 -0.0016443729 0.053705007 -0.055778444 0.025927719 0.053591494 0.041939408 -0.0014481395
0.023815246 0.042858943 0.0383737 0.018501662 0.013530888 0.019663598 -0.046652403 0.015272863
-0.040287904 0.041339345 -0.052981567 -0.04698015 0.047639944 0.006480304 0.035144433 -0.057283767
-0.043365058 -0.056215987 -0.009032764 0.030549176 0.03505273 0.001659356 -0.046630263 -0.04691822
0.02823163 0.013681944 0.01929059 0.02483971 0.0085665425 0.055625916 -0.0031939119 -0.050939187
0.043360204 0.0049814833 0.008350749 -0.046754554 -0.06978814 0.048053216 0.050855376 -0.021725751
-0.019796843 -0.033992704 -0.041528154 -0.05665914 -0.058748078 0.027670234 0.024422154 -0.022871923
0.059637584 -0.020438172 -0.020772029 -0.036454897 -0.03813655 -0.05092056 0.031982664 0.061155554
0.048367128 0.041486416 -0.025818683 0.0077713802 0.041844208 -0.029297087 -0.0494062 -0.052021213
0.04983834 0.028950967 0.01747051 -0.04191556 0.020420818 0.017331453 0.04667972 -0.004227124
0.050350767 0.0080635995 0.024490109 0.03054998 -0.049944747 0.0010527628 -0.032196224 0.0085990615
-0.06453545 -0.0068608075 -0.0460991 -0.056084707 0.058892105 -0.030583963 0.029591223 -0.04033682
-0.0061796233 -0.0072892183 -0.011386946 0.024625242 -0.031999934 -0.03437295 -0.056657244 -0.005279438
-0.021015251 0.02427844 0.046448976 -0.03968858 0.061390243 -0.04793758 0.0077280626 -0.009590946
0.023314767 0.02719496 0.04318963 -0.021226577 0.0010681605 0.017053962 -0.018656038 0.018161394
0.052850872 0.049243487 -0.06743661 -0.024125377 -0.04473713 -0.06542287 0.022462074 -0.054238066
0.04644945 0.043275602 0.020893112 -0.06304421 -0.05214844 -0.024499921 0.035610266 0.015360066
0.035061404 -0.02267617 0.02543062 0.049271602 -0.018442504 -0.04032933 -0.048595704 -0.040780727
0.041487128 -0.014046973 -0.045213588 0.05690872 -0.009203163 -0.057323433 -0.017467879 -0.066365674
-0.04810844 0.026452977 -0.022997163 -0.0004665145 -0.006096284 0.040041775 -0.013132378 -0.0042466
00000000: bbf4 8ebd 865b 41bc ecd2 313d d8dc 16bb
00000010: 7005 05bd 802c 173b f4f5 f33c 907c 0f3c
00000020: 004a a9bc d8ba 87bc f65f 47bd 4c06 3abd
00000030: 4c98 81bc f469 a83c 1a4f 23bd e252 46bd
00000040: c825 58bd 682f 3cbc e4d2 8abc b025 17bd
00000050: a864 5ebd 1053 553c f3da 79bd 0f6c fbbc
00000060: bb2f 943c 0ee3 153d 7c1f 9cbc 8734 db3c
00000070: b657 4cbd e446 6cbd b4af 9e3c 8767 79bd
00000080: f5c9 1c3d 00f8 013a a027 9fbc 8889 a5bb
00000090: 943e d63c ed1c 65bd d4bc a63c 29fa 1b3d
000000a0: daa4 b6bb c849 633d 888f 21bd 26b6 9dba
000000b0: 992b f3bc 8c8e 54bd 30e6 a0bc 9683 77bd
000000c0: 2886 a13c f72f 59bd 0747 46bd e49d f73c
000000d0: 8e1c 7cbd d3b3 403d 4a76 543d fd96 27bd
000000e0: f0f6 9c3b 90ab 703d 6064 823b 4e3a e83c
000000f0: 5945 8bbc 9ac7 fcbc 4cdf 53bd f65a b0b8
00000100: 4d1b 9abc 42a2 003d 70af cdbb 42c1 3c3d
00000110: 0896 0bbc 2296 133d dbac dcbc 4c0f 7ebd
00000120: b890 0cbd 3a47 67bd 248a be3c 71f1 783c
00000130: f5ce e4bc 0ed6 78bd 7d88 04bc 56b4 2fbd
00000140: b046 483d 4cb1 82bc 3a3c d6bc 27cd a83c
00000150: 3720 87bc d42a 89bd 7c8c 703d 32e2 4ebd
00000160: 38f1 66bd 96d7 06bd ca73 04bd 4a0b 51bd
00000170: 8a95 12bd cff1 68bb a041 e3bc 382d 11bc
00000180: 90bf aebc 0088 d7ba c8f9 5b3d f077 64bd
00000190: 5e66 d43c c182 5b3d a8c8 2b3d 80cf bdba
000001a0: 3118 c33c dc8c 2f3d be2d 1d3d cc90 973c
000001b0: a8b0 5d3c 8e15 a13c 9716 3fbd 083b 7a3c
000001c0: ee04 25bd 7253 293d 3303 59bd 426e 40bd
000001d0: 1a22 433d bb58 d43b 9cf3 0f3d 62a2 6abd
000001e0: 8f9f 31bd bc42 66bd 28fe 13bc 4442 fa3c
000001f0: 7493 0f3d c07e d93a 60ff 3ebd 522d 40bd
00000200: 0546 e73c 3c2a 603c 4d07 9e3c a67c cb3c
00000210: af5a 0c3c 00d8 633d f350 51bb 9ca5 50bd
00000220: 789a 313d b63b a33b 94d1 083c b481 3fbd
00000230: 16ed 8ebd 73d3 443d ba4d 503d 34fa b1bc
00000240: fd2c a2bc ef3b 0bbd 6d19 2abd 6a13 68bd
00000250: d3a1 70bd b0ac e23c f810 c83c e65d bbbc
00000260: 8a46 743d f46d a7bc 1a2a aabc bb51 15bd
00000270: 1235 1cbd 1492 50bd 4100 033d 3f7e 7a3d
00000280: 9c1c 463d a9ed 293d b481 d3bc 10a7 fe3b
00000290: d564 2b3d 7200 f0bc 285e 4abd 3214 55bd
000002a0: 4a23 4c3d 942a ed3c 511e 8f3c a6af 2bbd
000002b0: 8f49 a73c b1fa 8d3c 3c33 3f3d b083 8abb
000002c0: 9b3c 4e3d 301d 043c 7b9f c83c f443 fa3c
000002d0: dd92 4cbd dcfc 893a 30e0 03bd 14e3 0c3c
000002e0: 292b 84bd a0d0 e0bb 69d2 3cbd 14b9 65bd
000002f0: d938 713d 388b fabc 4b69 f23c 3938 25bd
00000300: 707e cabb 65da eebb 5090 3abc e0ba c93c
00000310: 5d12 03bd a7ca 0cbd 6d11 68bd 23ff acbb
00000320: 2d28 acbc 94e3 c63c 4841 3e3d 7e90 22bd
00000330: 5674 7b3d 325a 44bd b03b fd3b 5823 1dbc
00000340: 9cfe be3c f7c7 de3c 9ce7 303d 5ce3 adbc
00000350: 8501 8c3a c0b4 8b3c 8cd4 98bc 34c7 943c
00000360: 287a 583d 8ab3 493d 351c 8abd 95a2 c5bc
00000370: 483e 37bd 6dfc 85bd 6202 b83c bc28 5ebd
00000380: c741 3e3d c241 313d 0828 ab3c 531d 81bd
00000390: 9a99 55bd 0fb4 c8bc 12dc 113d c9a8 7b3c
000003a0: 8c9c 0f3d 60c3 b9bc e053 d03c 05d1 493d
000003b0: bc14 97bc 5e30 25bd 4a0c 47bd b109 27bd
000003c0: 68ee 293d 4625 66bc e231 39bd 1e19 693d
000003d0: ddc8 16bc facb 6abd cc18 8fbc baea 87bd
000003e0: 5b0d 45bd eab3 d83c 8c64 bcbc 8496 f4b9
000003f0: 56c3 c7bb d802 243d 3029 57bc 1027 8bbb

lin2.bias f4 [256]
-0.055867426 0.070836715 -0.0024004488 -0.047970645 0.027058821 -0.0509081 -0.017518586 -0.059522547
-0.08029325 0.07793531 -0.080423266 0.0024256066 -0.05175568 -0.08365034 0.0009002984 0.013026479
-0.035986103 -0.059943337 -0.014451506 -0.042563308 0.030608406 -0.0053507355 -0.0061709937 -0.0675175
-0.022407914 -0.006331609 0.025306799 -0.07175698 -0.07822799 -0.04422623 0.042057253 -0.03220161
-0.018559754 0.13030948 -0.055750273 -0.016702082 0.07314062 -0.08117366 -0.019118205 -0.030189445
-0.068737105 -0.055343244 -0.06019699 0.030471738 -0.019353187 -0.0025873412 -0.03776493 -0.016637407
-0.032254666 -0.048334654 0.053664844 -0.059929457 -0.06441987 -0.010214217 -0.02365906 -0.05985218
0.008321581 -0.0256336 -0.060733076 -0.014718259 -0.0027659198 -0.06997156 -0.12647973 -0.0838951
-0.06433351 -0.05607044 -0.061632752 -0.03525977 -0.02358827 -0.04251537 -0.032933757 -0.024073418
-0.043847803 -0.005174383 -0.08853387 -0.0035100207 0.06162587 -0.08983289 -0.083276734 0.033898544
-0.03478983 0.01861471 -0.06420162 -0.120629095 -0.027661957 0.0039390144 -0.045579523 -0.047725864
-0.05880777 -0.006068942 -0.037270706 -0.06815023 -0.06276922 -0.073275246 -0.07281314 -0.009332791
-0.08681493 -0.05781412 -0.022275869 0.03848186 -0.027808374 -0.07394568 -0.046939444 -0.045984365
-0.018686695 -0.03547946 -0.04200887 -0.02734515 -0.028328381 -0.075108424 -0.0026249369 -0.019105997
-0.085839726 -0.054279093 0.053154767 -0.015517674 0.000118815464 -0.05905474 0.06495447 -0.10783403
0.066118605 -0.036970083 0.0044834698 -0.04523983 -0.02410045 -0.0387531 -0.03536941 -0.057699442
-0.11367628 -0.044257935 -0.051092073 0.018552618 0.008148738 -0.02164831 0.0825539 -0.054216553
0.006597992 -0.065982625 -0.056147426 -0.155087 0.0038833981 0.019391932 -0.11029695 -0.038351595
-0.037166204 -0.059570406 -0.0056880857 -0.06516907 -0.104890265 -0.08447903 -0.048603375 -0.029395675
0.0018067394 -0.07074426 -0.09074699 -0.05082915 0.046910413 -0.039575417 -0.022419024 -0.002687487
-0.05931986 -0.024820905 -0.035982862 -0.066267066 -0.043245923 -0.027928956 -0.14953965 -0.11173887
-0.068243265 0.01484023 -0.0025356703 0.05471827 -0.003296246 -0.020492662 -0.042827334 -0.07309668
-0.016818678 -0.13627824 -0.0056281593 -0.08956849 -0.03430912 -0.04538343 -0.08013684 -0.03492457
0.02937891 -0.0342644 0.056777705 -0.024472784 -0.05227296 -0.049801074 -0.05270148 -0.04599463
-0.019104002 0.02877287 -0.071740426 -0.025745416 -0.06465782 0.027499117 -0.050924037 -0.061695315
-0.0646231 0.013562018 -0.054195147 -0.03520377 -0.034499895 -0.06822944 -0.07657383 -0.05646579
-0.05555775 -0.088415384 -0.087131225 -0.03343955 -0.08247047 -0.031110143 0.0018918704 -0.024874404
-0.017266786 0.16915892 -0.06316613 -0.07828559 -0.03655776 -0.09552378 -0.033718828 -0.05325216
-0.061948042 -0.011270235 -0.08942627 -0.055259 -0.028601225 0.07940948 -0.09426305 -0.08304234
-0.043761417 0.0028060065 -0.028594067 -0.014732864 -0.054463975 -0.046971656 -0.026835915 -0.056146123
-0.021011986 0.013496386 -0.051336642 -0.060534332 -0.058605704 -0.023275875 -0.059590124 -0.07548261
-0.0019843231 -0.030138507 -0.07077864 -0.07374565 -0.025462516 -0.056626536 -0.073155746 0.056339566
00000000: 3ed5 64bd d712 913d d950 1dbb de7c 44bd
00000010: 76aa dd3c 0385 50bd 2383 8fbc eacd 73bd
00000020: ca70 a4bd 8c9c 9f3d f4b4 a4bd edf6 1e3b
00000030: c4fd 53bd df50 abbd 0102 6c3a 036d 553c
00000040: 2a66 13bd 2587 75bd 02c6 6cbc dd56 2ebd
00000050: 7bbe fa3c 3955 afbb 0c36 cabb 9d46 8abd
00000060: cd90 b7bc 6379 cfbb 3450 cf3c 53f5 92bd
00000070: ff35 a0bd 9026 35bd 3a44 2c3d d6e5 03bd
00000080: a00a 98bc d96f 053e 665a 64bd ced2 88bc
00000090: c0ca 953d 603e a6bd c89d 9cbc db4f f7bc
000000a0: 0ac6 8cbd 99af 62bd 1e91 76bd de9f f93c
000000b0: 938a 9ebc 6290 29bb 66af 1abd 2c4b 88bc
000000c0: 781d 04bd 8ffa 45bd abcf 5b3d 9778 75bd
000000d0: 91ee 83bd 8859 27bc a5d0 c1bc 8f27 75bd
000000e0: 3e57 083c 8efd d1bc 3fc3 78bd da24 71bc
000000f0: 6f44 35bb 404d 8fbd e783 01be 32d1 abbd
00000100: 4ac1 83bd 1eaa 65bd a072 7cbd 8c6c 10bd
00000110: 303c c1bc 9924 2ebd 8ce5 06bd 9e35 c5bc
00000120: c199 33bd df8d a9bb 3f51 b5bd 6008 66bb
00000130: 696b 7c3d 4efa b7bd fe8c aabd 33d9 0a3d
00000140: c87f 0ebd e07d 983c 247c 83bd 630c f7bd
00000150: 549b e2bc d912 813b 98b1 3abd 327c 43bd
00000160: 6be0 70bd fadd c6bb 2ba9 18bd 5992 8bbd
00000170: 268d 80bd 5511 96bd 0e1f 95bd 90e8 18bc
00000180: 07cc b1bd 80ce 6cbd e27b b6bc 289f 1d3d
00000190: 63ce e3bc d570 97bd 9343 40bd 1a5a 3cbd
000001a0: d714 99bc e952 11bd 7e11 2cbd f002 e0bc
000001b0: ec10 e8bc 72d2 99bd 2207 2cbb 2e84 9cbc
000001c0: bdcc afbd c153 5ebd d0b8 593d d83d 7ebc
000001d0: 912c f938 62e3 71bd d906 853d 17d8 dcbd
000001e0: 3169 873d f16d 17bd 12ea 923b 664d 39bd
000001f0: 4f6e c5bc 92bb 1ebd 84df 10bd 4056 6cbd
00000200: 1ccf e8bd cf47 35bd ec45 51bd a9fb 973c
00000210: 4982 053c cc57 b1bc 0512 a93d 2d12 5ebd
00000220: f833 d83b e621 87bd d8fa 65bd 20cf 1ebe
00000230: 9c80 7e3b d4db 9e3c 5ee3 e1bd 9016 1dbd
00000240: 973b 18bd 1900 74bd 1f63 babb 5d77 85bd
00000250: b5d0 d6bd 5703 adbd 5514 47bd 33cf f0bc
00000260: 1dd0 ec3a 5ee2 90bd 8fd9 b9bd 3a32 50bd
00000270: 2225 403d d519 22bd 1aa8 b7bc 8d20 30bb
00000280: 62f9 72bd 3655 cbbc c462 13bd 07b7 87bd
00000290: a322 31bd 44cb e4bc ec20 19be 59d7 e4bd
000002a0: 20c3 8bbd 7024 733c 7d2d 26bb 4420 603d
000002b0: d505 58bb 3ae0 a7bc b76b 2fbd b6b3 95bd
000002c0: 53c7 89bc 868c 0bbe 6c6c b8bb af6f b7bd
000002d0: b887 0cbd fae3 39bd c91e a4bd 110d 0fbd
000002e0: 0aac f03c d458 0cbd bd8f 683d 267b c8bc
000002f0: 2c1c 56bd 36fc 4bbd 82dd 57bd dd64 3cbd
00000300: ff7f 9cbc 15b5 eb3c a5ec 92bd 0de8 d2bc
00000310: 526b 84bd d445 e13c b995 50bd 3ab4 7cbd
00000320: 1e59 84bd 3a33 5e3c bbfb 5dbd d431 10bd
00000330: c34f 0dbd e0bb 8bbd bdd2 9cbd ac48 67bd
00000340: 8690 63bd 2013 b5bd db71 b2bd e9f7 08bd
00000350: 47e6 a8bd b3da febc a3f8 f73a 68c5 cbbc
00000360: 1373 8dbc ff37 2d3e 3e5d 81bd 3254 a0bd
00000370: 97bd 15bd f9a1 c3bd c11c 0abd f01e 5abd
00000380: 3bbd 7dbd cba6 38bc 1f25 b7bd 4357 62bd
00000390: 1e4d eabc 70a1 a23d fc0c c1bd 1a12 aabd
000003a0: 2c3f 33bd fae4 373b 1b3e eabc 1c62 71bc
000003b0: 9e15 5fbd 5a65 40bd fed6 dbbc 7af9 65bd
000003c0: 5421 acbc f21f 5d3c 5f46 52bd d9f2 77bd
000003d0: 890c 70bd 0cad bebc c614 74bd a096 9abd
000003e0: 6b0b 02bb 08e5 f6bc 64f4 90bd f607 97bd
000003f0: c496 d0bc 3af1 67bd aed2 95bd 51c4 663d

lin3.weight f4 [128, 256]
-0.028595239 0.013567255 -0.011251589 -0.02345068 0.018254245 -0.05720877 -0.057668317 0.04569947
0.028655551 -0.05638713 0.0017159507 -0.04326899 -0.038895637 0.04523199 0.040114064 0.0044377
0.066145495 -0.0073143095 -0.054154303 -0.008522384 -0.027578538 0.02586139 -0.042337395 0.051708486
-0.039833352 -0.07111709 -0.021839676 -0.04473988 -0.061435588 0.039110474 -0.01312098 -0.027227558
-0.004366778 -0.061846226 -0.02941212 0.024961516 -0.031476058 0.033428855 0.04966446 -0.059790082
-0.031550616 0.0045275465 0.032467306 -0.04802263 0.035785742 -0.010557047 -0.022811323 -0.009638011
0.0007165596 -0.0459035 -0.032469843 0.019366523 0.02061943 0.038673684 -0.06011066 -0.056690104
-0.039778247 0.005819209 -0.04645338 0.003469184 -0.034209475 -0.0048377514 0.004647199 0.023512937
-0.019399747 0.0048782453 0.040445574 -0.039851576 0.03933327 -0.0614599 -0.048617408 0.024667144
0.035462677 0.050634183 0.011920221 -0.0507735 0.028938895 0.028774165 0.05318755 -0.087038614
0.050692976 0.046417013 -0.01165576 0.009463797 0.0035581812 0.004129658 0.059632048 0.025709823
0.012339287 -0.02311115 -0.05139535 -0.028168716 -0.053500514 -0.058511075 -0.061323225 -0.03402881
-0.06200145 -0.042704888 0.035143644 -0.05266235 -0.050995424 -0.0022723079 0.010836839 -0.051701076
-0.03407246 0.020619258 0.020582497 -0.041075774 0.013900936 0.005071476 -0.046187773 0.03050986
0.013091736 0.026644442 -0.035409715 -0.017443845 -0.044017024 0.035790585 0.032639723 -0.0038043559
0.034354027 -0.028043382 -0.0017497465 0.030169025 -0.026960202 -0.019697286 -0.038745586 0.033211067
0.011809051 -0.009310646 0.06160573 0.052937977 -0.028796196 -0.051862553 -0.036940183 0.024843879
-0.053142205 0.061473414 -0.043358926 -0.011652333 -0.045195274 -0.04969803 0.007871802 0.036550358
-0.051312625 -0.048229747 0.025324874 0.044397213 -0.015859596 -0.011282586 0.05243265 0.056490913
0.034880295 -0.0076902155 -0.053237412 -0.06933179 0.025923481 -0.05903122 -0.005342044 0.057996396
-0.014845796 0.021413589 0.058037177 -0.0005004257 0.049270548 -0.010789692 0.0045090686 0.047425255
0.017272763 -0.04455793 -0.048408262 -0.06203155 0.06220319 0.010513812 -0.03513311 0.008724079
-0.02422087 -0.04436054 -0.03530897 -0.055958606 0.033135198 -0.04996544 0.046305574 -0.016060404
-0.047253564 0.054964505 -0.04535739 -0.008016534 0.014442634 -0.01691308 -0.028394692 -0.01441219
-0.0073947413 -0.03829864 -0.0062632905 -0.015465117 0.054384977 -0.05561187 -0.04390336 -0.03944315
-0.06956833 0.04786535 0.015885867 -0.019096173 -0.06211701 -0.050824717 0.05557158 -0.047522724
0.0023654972 0.030736461 -0.020042501 -0.0029316843 -0.042882085 0.029176801 0.054333895 0.050282814
0.000677146 -0.061398603 0.032629043 -0.053687878 0.025084645 -0.057993457 0.009159677 0.05238913
-0.010699138 0.041996308 0.05358398 -0.005120732 -0.039603107 -0.035221443 0.035791628 -0.016532816
0.053308643 0.040821854 -0.031010412 -0.053561576 0.05538083 0.022077568 -0.03869702 0.018290997
0.04064648 -0.025148487 0.05997421 -0.047756113 -0.03215029 -0.030502006 0.060413234 0.033144392
-0.01606697 -0.066891044 0.004782118 0.016589768 -0.021064565 -0.030811183 -0.036835335 -0.06664514
00000000: 9040 eabc 3149 5e3c 9658 38bc a41b c0bc
00000010: ed89 953c be53 6abd 9d35 6cbd 5e2f 3b3d
00000020: 0cbf ea3c 31f6 66bd c0e9 e03a d33a 31bd
00000030: 0851 1fbd 2e45 393d a54e 243d 206a 913b
00000040: 4a77 873d e0ac efbb e7d0 5dbd 78a1 0bbc
00000050: 63ec e1bc 44db d33c fa69 2dbd 47cc 533d
00000060: 4c28 23bd d6a5 91bd 1fe9 b2bc 2a41 37bd
00000070: e2a3 7bbd 4e32 203d 61f9 56bc 540c dfbc
00000080: 3017 8fbb 7852 7dbd b0f1 f0bc 187c cc3c
00000090: 0aed 00bd b2ec 083d f66c 4b3d 72e6 74bd
000000a0: 383b 01bd d05b 943b 70fc 043d 61b3 44bd
000000b0: 1294 123d 77f7 2cbc d0de babc c0e8 1dbc
000000c0: 80d7 3b3a 4f05 3cbd 19ff 04bd 8ba6 9e3c
000000d0: 14ea a83c 4c68 1e3d 9836 76bd e233 68bd
000000e0: 84ee 22bd 10af be3b e645 3ebd 405b 633b
000000f0: 3c1f 0cbd 0086 9ebb 8847 983b 349e c03c
00000100: 38ec 9ebc b0d9 9f3b 42aa 253d 683b 23bd
00000110: ec1b 213d 60bd 7bbd 0c23 47bd c012 ca3c
00000120: 5041 113d ca65 4f3d 084d 433c e0f7 4fbd
00000130: 4311 ed3c ccb7 eb3c 30db 593d 4d41 b2bd
00000140: 70a3 4f3d c41f 3e3d cdf7 3ebc 0b0e 1b3c
00000150: 6030 693b 1552 873b bc40 743d 689d d23c
00000160: b92a 4a3c 9853 bdbc ee83 52bd 14c2 e6bc
00000170: 5b23 5bbd 4fa9 6fbd 102e 7bbd cb61 0bbd
00000180: 3cf5 7dbd 52eb 2ebd c8f2 0f3d 7ab4 57bd
00000190: 94e0 50bd 00eb 14bb ff8c 313c 82c4 53bd
000001a0: 908f 0bbd b8e9 a83c a09c a83c 123f 28bd
000001b0: c0c0 633c a02e a63b 642f 3dbd d0ef f93c
000001c0: b87e 563c 7245 da3c c709 11bd 65e6 8ebc
000001d0: 324b 34bd 2699 123d 3bb1 053d 8052 79bb
000001e0: cfb6 0c3d 3cbb e5bc c057 e5ba 0825 f73c
000001f0: a4db dcbc 345c a1bc b1b3 1ebd 5408 083d
00000200: c07a 413c ae8b 18bc 4a56 7c3d 7ed5 583d
00000210: 00e6 ebbc d46d 54bd 974e 17bd 6485 cb3c
00000220: a4ab 59bd 8ccb 7b3d 2199 31bd 6de9 3ebc
00000230: ae1e 39bd 2990 4bbd bbf8 003c d4b5 153d
00000240: 302d 52bd 8e8c 45bd 1c76 cf3c dad9 353d
00000250: fceb 81bc 98da 38bc 9ec3 563d 0463 673d
00000260: a4de 0e3d 34fe fbbb 790f 5abd d3fd 8dbd
00000270: 7b5d d43c b8ca 71bd 500c afbb a18d 6d3d
00000280: c83b 73bc 8d6b af3c 64b8 6d3d 002f 03ba
00000290: eacf 493d 40c7 30bc cfc0 933b fc40 423d
000002a0: 9c7f 8d3c 6082 36bd be47 46bd cb14 7ebd
000002b0: c6c8 7e3d 2042 2c3c bce7 0fbd 70ef 0e3c
000002c0: d96a c6bc 66b3 35bd 23a0 10bd da34 65bd
000002d0: c6b8 073d 90a8 4cbd eaaa 3d3d 1c91 83bc
000002e0: f48c 41bd 7622 613d acc8 39bd c857 03bc
000002f0: cca0 6c3c 4d8d 8abc fc9b e8bc 1b21 6cbc
00000300: 964f f2bb 09df 1cbd 4a3c cdbb 6761 7dbc
00000310: c8c2 5e3d 46c9 63bd 02d4 33bd 248f 21bd
00000320: d779 8ebd 750e 443d 1423 823c 946f 9cbc
00000330: 686e 7ebd 942d 50bd 069f 633d 30a7 42bd
00000340: 7506 1b3b 08cb fb3c 2c30 a4bc 8021 40bb
00000350: 20a5 2fbd 3004 ef3c 388d 5e3d 5af5 4d3d
00000360: 8082 313a 1a7d 7bbd 08a6 053d d2e7 5bbd
00000370: 507e cd3c 8c8a 6dbd 7812 163c fc95 563d
00000380: 704b 2fbc 5204 2c3d e07a 5b3d d0cb a7bb
00000390: de36 22bd 5c44 10bd 3e9a 123d d46f 87bc
000003a0: 2a5a 5a3d d134 273d 8c09 febc 6263 5bbd
000003b0: 02d7 623d 04dc b43c c480 1ebd 00d7 953c
000003c0: ec7c 263d 3304 cebc 84a7 753d ea9b 43bd
000003d0: 06b0 03bd 58df f9bc de73 773d 6ac2 073d
000003e0: e19e 83bc 2cfe 88bd 50b3 9c3b 44e7 873c
000003f0: 988f acbc bc67 fcbc a6e0 16bd 3f7d 88bd

lin3.bias f4 [128]
-0.013513749 -0.041716006 0.1860633 -0.030633895 0.008403113 -0.023815429 0.13716611 0.033376902
0.17757726 -0.052704312 -0.08501237 -0.0020320767 -0.03744806 -0.027712079 -0.06018366 -0.027904162
-0.06411105 -0.033949647 0.04536317 -0.061032306 0.10855176 -0.05316119 0.02648517 0.06358924
-0.038269773 -0.055479933 -0.056070548 -0.05145786 -0.0006144596 -0.035034377 0.1116648 0.08759627
-0.050598405 0.07935963 -0.021851191 0.12980935 -0.057247225 0.012055294 0.01534136 -0.045487776
-0.046205007 -0.059024878 0.099867105 -0.08120265 -0.026817122 -0.047756802 0.053571083 0.1405933
-0.0070122085 -0.038035586 -0.011784266 -0.0021263354 0.074674584 0.105115384 -0.086042665 -0.087456726
-0.06456624 -0.078510046 0.050209936 0.040838357 0.012972561 0.13200359 0.12716685 -0.011467077
-0.029474327 -0.016112871 -0.008441146 0.08494677 -0.06468947 -0.039769698 -0.05489845 -0.044823263
-0.05559261 0.105826244 -0.07450992 0.04624719 0.02079055 -0.009574575 -0.020110177 -0.06328686
-0.041940164 0.026212448 -0.06222381 0.12930462 0.0880366 -0.053248536 0.044181366 -0.06868315
-0.018319488 -0.052407604 -0.010119787 -0.047526453 0.016580328 -0.060910676 0.116111875 -0.07788801
0.054305788 0.03640319 -0.014127867 -0.020811947 -0.03437088 -0.040286794 0.07434653 0.08368431
0.06801192 -0.038996186 0.09428419 -0.044112068 0.02799688 -0.052810315 0.09297117 -0.031062935
-0.016270036 -0.03398741 -0.036552403 -0.03728104 0.1196824 0.075250976 0.039285496 0.23378268
-0.010965322 0.023196679 -0.015286158 0.03799007 -0.05380906 -0.055816058 -0.015643878 0.08170188
00000000: c668 5dbc 67de 2abd 6187 3e3e eff3 fabc
00000010: 36ad 093c 9318 c3bc 4675 0c3e 38b6 083d
00000020: d0d6 353e 7ae0 57bd f71a aebd 972c 05bb
00000030: 2363 19bd 7104 e3bc 2483 76bd 4597 e4bc
00000040: a74c 83bd c90e 0bbd bbce 393d 03fd 79bd
00000050: 6350 de3d 8cbf 59bd 6df7 d83c 133b 823d
00000060: c4c0 1cbd ed3e 63bd 3baa 65bd 7ac5 52bd
00000070: b013 21ba 3580 0fbd 84b0 e43d ac65 b33d
00000080: 4640 4fbd 4d87 a23d 4501 b3bc beec 043e
00000090: 117c 6abd 9183 453c 545a 7b3c 6451 3abd
000000a0: 7641 3dbd 12c4 71bd 2087 cc3d 934d a6bd
000000b0: 95af dbbc a39c 43bd 5a6d 5b3d b1f7 0f3e
000000c0: abc6 e5bb 34cb 1bbd cb12 41bc fd59 0bbb
000000d0: fdee 983d bc46 d73d 2337 b0bd 831c b3bd
000000e0: 4e3b 84bd e0c9 a0bd efa8 4d3d 1f46 273d
000000f0: dd8a 543c f32b 073e 0738 023e 68e0 3bbc
00000100: 2574 f1bc 24ff 83bc bc4c 0abc 92f8 ad3d
00000110: ea7b 84bd 8de5 22bd 32dd 60bd 9998 37bd
00000120: 14b5 63bd 6ebb d83d a898 98bd b26d 3d3d
00000130: f250 aa3c aede 1cbc 19be a4bc 8b9c 81bd
00000140: 73c9 2bbd 7dbb d63c 65de 7ebd 6e68 043e
00000150: 884c b43d 231b 5abd 85f7 343d c0a9 8cbd
00000160: c012 96bc 5ba9 56bd 77cd 25bc 19ab 42bd
00000170: 78d3 873c 797d 79bd 10cc ed3d c083 9fbd
00000180: bf6f 5e3d 831b 153d 9278 67bc d17d aabc
00000190: 7bc8 0cbd c403 25bd fe42 983d ae62 ab3d
000001a0: d549 8b3d 77ba 1fbd 1218 c13d dbae 34bd
000001b0: b659 e53c a14f 58bd ab67 be3d b277 febc
000001c0: bd48 85bc 6236 0bbd f9b7 15bd 01b4 18bd
000001d0: 0c1c f53d 2f1d 9a3d d4e9 203d ba64 6f3e
000001e0: e5a7 33bc f606 be3c cb72 7abc 7a9b 1b3d
000001f0: e466 5cbd 619f 64bd 9727 80bc 5153 a73d

lin4.weight f4 [64, 128]
-0.027572015 0.002015888 0.04808466 0.010759032 -0.07733366 0.016545763 -0.0025779565 -0.043418277
0.26007447 -0.028589759 -0.009997399 -0.039966237 -0.012464851 0.020023962 -0.05047064 -0.07738874
0.041026123 -0.0823864 0.09401975 -0.007031232 0.021117562 -0.043390084 0.095126905 -0.12457348
-0.09705069 -0.06918718 0.008585228 0.07146863 -0.012344908 0.043857895 0.041218646 0.16102418
0.012635366 0.10447414 0.10116976 -0.13620186 -0.052388746 0.042662904 0.0003150139 0.0097957235
0.035019975 0.051897556 -0.14544472 -0.080391586 0.009465196 -0.010703675 -0.015858907 -0.047061596
0.067074075 -0.062352713 -0.03789108 0.11206107 -0.12205725 -0.04361651 0.064487755 0.03006802
-0.050567232 -0.01002294 -0.26793844 -0.025864264 -0.2731644 0.11448272 0.021149747 0.01813395
0.047277085 -0.09336855 -0.08390064 -0.22826917 -0.037614074 0.02880045 -0.01617522 0.034260545
-0.017976305 -0.0185749 -0.074729376 0.03145586 -0.0069025587 0.055220295 0.080120504 -0.0013835109
-0.07034097 -0.05056883 0.07269851 -0.09405506 -0.013278495 0.04177404 -0.10938148 0.027785942
0.046799198 0.030719252 0.062169243 -0.024124324 0.067801096 -0.013839001 -0.017999506 0.0021760024
0.18096793 -0.023608888 -0.06556097 -0.020144524 0.06122111 -0.028003842 -0.021810547 -0.09710485
0.121646695 0.016261222 0.00091943995 -0.017418608 -0.019677317 0.037337355 -0.09663227 -0.06384487
-0.07880319 -0.02754455 0.02015127 0.07995284 -0.06609411 0.17942949 0.12745394 0.035501838
-0.08307507 -0.019050466 0.04708592 0.29177442 0.0061547887 0.07019546 -0.084312245 0.116629906
-0.011212616 -0.08395391 -0.029490046 0.029837329 0.066508025 0.039515965 0.006067259 -0.025714539
0.022653464 0.01948439 -0.078701 0.03216645 0.08168593 0.060499813 0.060119793 -0.008659824
-0.09436716 0.052661873 -0.05273068 0.042586904 -0.057246532 0.06471418 -0.07377558 -0.02429334
-0.06790669 0.07998468 -0.0007654376 -0.02822545 -0.007906724 0.033809245 -0.0061446945 -0.020229297
0.009727349 -0.00014547889 -0.09704006 -0.025085082 0.073481895 0.0045867367 0.046419945 0.056682076
-0.056417625 -0.009759584 -0.020181775 0.07410006 -0.019713901 0.0019206763 0.027837988 -0.0033500292
-0.04899567 0.06932804 0.030038947 0.0026770595 0.0345887 -0.0098982835 -0.018068694 0.0056867804
0.06313182 0.07381169 -0.029284332 0.024248565 -0.035761453 0.039250005 -0.0069152443 0.043799203
-0.00817192 0.07531768 0.0703842 0.025086267 0.046765033 0.023606515 0.01781791 -0.070375845
0.065217644 -0.010716197 0.021131743 0.0044674496 -0.021626428 -0.07571263 0.010249515 -0.092284374
-0.08445154 0.04055448 -0.061428443 -0.0005201774 0.0078048576 -0.022061918 -0.04560583 -0.05311106
0.0678453 0.030483846 -0.031367835 0.048808165 0.02256996 -0.07925733 -0.014163584 -0.016076418
0.059046477 -0.06284908 -0.054342438 0.031447902 0.062616356 -0.05670964 -0.014190494 0.013537867
0.012377022 -0.040452216 0.033531565 -0.09443948 0.061436072 0.02566354 0.0051651224 0.034360595
-0.088301525 0.07173704 -0.045881666 -0.04136715 -0.062279876 0.00562969 0.0044113817 0.01339844
-0.07121826 0.035247058 -0.09374206 0.046696216 -0.061302036 0.029697983 -0.03660053 0.02312594
00000000: b5de e1bc fd1c 043b 6cf4 443d a746 303c
00000010: 1c61 9ebd fb8a 873c eff2 28bb 5dd7 31bd
00000020: 7b28 853e 1235 eabc 21cc 23bc a3b3 23bd
00000030: 6039 4cbc 4b09 a43c 4dba 4ebd fd7d 9ebd
00000040: 020b 283d 33ba a8bd 6d8d c03d 4066 e6bb
00000050: bdfe ac3c cdb9 31bd e5d1 c23d 6120 ffbd
00000060: 83c2 c6bd 02b2 8dbd 0ea9 0c3c 255e 923d
00000070: 4c42 4abc 56a4 333d e2d4 283d 86e3 243e
00000080: 9104 4f3c 8af6 d53d 1732 cf3d 8078 0bbe
00000090: 9595 56bd 4cbf 2e3d 7328 a539 3e7e 203c
000000a0: 1b71 0f3d 8892 543d 76ef 14be 58a4 a4bd
000000b0: e913 1b3c 785e 2fbc 8aea 81bc a9c3 40bd
000000c0: 225e 893d 8f65 7fbd ad33 1bbd 4680 e53d
000000d0: 27f9 f9bd 3aa7 32bd 2812 843d 3551 f63c
000000e0: 961f 4fbd 4237 24bc 3a2f 89be 4be1 d3bc
000000f0: 34dc 8bbe eb75 ea3d 3c42 ad3c a68d 943c
00000100: 9ea5 413d 0338 bfbd 19d4 abbd 65bf 69be
00000110: 3711 1abd ecee eb3c e581 84bc c954 0c3d
00000120: 0b43 93bc 642a 98bc b70b 99bd dcd7 003d
00000130: dc2e e2bb ad2e 623d 3816 a43d ec56 b5ba
00000140: ed0e 90bd 4321 4fbd f5e2 943d f09f c0bd
00000150: 0b8e 59bc 411b 2b3d 6603 e0bd 589f e33c
00000160: 84b0 3f3d f1a6 fb3c 2da5 7e3d 60a0 c5bc
00000170: 4ddb 8a3d fabc 62bc b373 93bc 439b 0e3b
00000180: a84f 393e 6d67 c1bc d444 86bd 2106 a5bc
00000190: fdc2 7a3d 5068 e5bc 08ac b2bc e8de c6bd
000001a0: e721 f93d 4136 853c 9206 713a 78b1 8ebc
000001b0: 5332 a1bc 0eef 183d 24e7 c5bd 19c1 82bd
000001c0: 9163 a1bd 1ca5 e1bc 4714 a53c 51be a33d
000001d0: 595c 87bd 5dbc 373e 4983 023e 606a 113d
000001e0: 4323 aabd b90f 9cbc 2add 403d 7563 953e
000001f0: 1cae c93b a3c2 8f3d e6ab acbd a9db ee3d
00000200: 1fb5 37bc 07f0 abbd 1c95 f1bc 6a6d f43c
00000210: 5c35 883d 7edb 213d dbcf c63b 4ca7 d2bc
00000220: c293 b93c ba9d 9f3c fd2d a1bd f8c0 033d
00000230: f44a a73d a7ce 773d 2c40 763d efe1 0dbc
00000240: 9243 c1bd fab3 573d 20fc 57bd 9b6f 2e3d
00000250: 577b 6abd de88 843d a717 97bd d402 c7bc
00000260: aa12 8bbd 02cf a33d a6a7 48ba 0f39 e7bc
00000270: 348b 01bc 907b 0a3d 6f59 c9bb e9b7 a5bc
00000280: 755f 1f3c b18b 18b9 f0bc c6bd 3b7f cdbc
00000290: ad7d 963d 564c 963b d722 3e3d 772b 683d
000002a0: 2b16 67bd aae6 1fbc 4054 a5bc c6c1 973d
000002b0: 0c7f a1bc 34bf fb3a 7e0c e43c 2a8c 5bbb
000002c0: afaf 48bd dcfb 8d3d 3d14 f63c 9b71 2f3b
000002d0: e1ac 0d3d 692c 22bc cc04 94bc 2c58 ba3b
000002e0: 414b 813d 952a 973d b2e5 efbc eda4 c63c
000002f0: 9a7a 12bd 9dc4 203d 4699 e2bb cb66 333d
00000300: 84e3 05bc 2840 9a3d 9725 903d b781 cd3c
00000310: b18c 3f3d 7362 c13c def6 913c 3621 90bd
00000320: d490 853d fd92 2fbc 7a1c ad3c af63 923b
00000330: e829 b1bc 390f 9bbd 95ed 273c 97ff bcbd
00000340: eef4 acbd 741c 263d 649c 7bbd 845c 08ba
00000350: e4bf ff3b 32bb b4bc 2ecd 3abd fc8a 59bd
00000360: 7af2 8a3d 42b9 f93c 8f7b 00bd 12eb 473d
00000370: a3e4 b83c ab51 a2bd 610e 68bc b1b2 83bc
00000380: b8da 713d 05b7 80bd 2d96 5ebd 84cf 003d
00000390: 013d 803d 5e48 68bd 3f7f 68bc eecd 5d3c
000003a0: fec8 4a3c 39b1 25bd 6558 093d 7c69 c1bd
000003b0: 64a4 7b3d 583c d23c 3040 a93b b2bd 0c3d
000003c0: 6ed7 b4bd dfea 923d 6aee 3bbd 9a70 29bd
000003d0: 2f19 7fbd 4379 b83b 5a8d 903b 2185 5b3c
000003e0: e1da 91bd 385f 103d d6fb bfbd 8844 3f3d
000003f0: d817 7bbd 2f49 f33c 70ea 15bd 9c72 bd3c

lin4.bias f4 [64]
-0.020308264 0.0016581621 -0.25498554 -0.027169378 0.2688858 0.0792935 0.02691344 0.03374085
-0.016590683 0.09007619 0.073244184 -0.15944344 0.14055304 0.12259888 -0.008367551 -0.01577404
-0.002186737 0.18134235 -0.19459248 -0.13868977 -0.17093395 0.2125773 0.026448524 0.18748172
0.05876516 -0.090320274 -0.11148351 -0.0010051224 0.17325446 -0.1637906 0.011093729 -0.05460755
-0.07665908 0.07136868 -0.16488285 -0.043256182 -0.038612172 -0.24971455 -0.018897153 0.2650021
0.251925 -0.18489248 -0.051777422 0.21117 0.0014748563 0.17888896 -0.06087359 0.014244949
0.21777849 0.10877705 -0.18902995 0.071018815 -0.02519921 -0.023895502 0.013150892 -0.14994901
0.0071620396 -0.011359449 0.0390053 -0.10569315 -0.068670385 -0.03011573 0.28390595 0.020573396
00000000: 845d a6bc b056 d93a 778d 82be 5192 debc
00000010: 66ab 893e a164 a23d 9379 dc3c d833 0a3d
00000020: 2fe9 87bc de79 b83d 0c01 963d 2445 23be
00000030: 23ed 0f3e 1f15 fb3d 0d18 09bc 8f38 81bc
00000040: 5c4f 0fbb cfb1 393e 4043 47be b104 0ebe
00000050: 4f09 2fbe ddad 593e 93aa d83c 35fb 3f3e
00000060: bdb3 703d d6f9 b8bd 7751 e4bd 50be 83ba
00000070: 9e69 313e b9b8 27be 79c2 353c 2bac 5fbd
00000080: 70ff 9cbd be29 923d 0dd7 28be 652d 31bd
00000090: cc27 1ebd 2cb5 7fbe 34ce 9abc 5bae 873e
000000a0: 50fc 803e 7454 3dbe 9014 54bd f33c 583e
000000b0: f74f c13a ab2e 373e 9656 79bd a663 693c
000000c0: 5301 5f3e 81c6 de3d 1191 41be 5072 913d
000000d0: 936e cebc 80c0 c3bc d776 573c 3c8c 19be
000000e0: 8baf ea3b fb1c 3abc 05c4 1f3d a675 d8bd
000000f0: 0fa3 8cbd 43b5 f6bc 1f5c 913e 8a89 a83c

lin5.weight f4 [19, 64]
-0.03595644 0.003983096 0.018625073 0.022913808 0.04411305 -0.11809522 0.0002146244 -0.031334013
-0.0009509944 -0.096296676 -0.020860327 0.023969287 -0.0134434365 0.0639037 -0.024195215 -0.007120774
0.0021327897 -0.025762724 0.02750232 -0.0055353055 0.01978529 -0.096741505 0.008494142 -0.08492914
-0.00022431517 0.090198465 -0.092760235 -0.00074724964 0.025759952 0.10612755 -0.0012593532 0.00013473188
-0.12215376 -0.017088804 0.054219928 0.0035617528 -0.003453817 0.0691856 0.00014351284 -0.077692166
-0.14109918 0.08000462 -0.009736622 -0.0010795326 0.0014944786 -0.005870346 -0.038478605 -0.0074871383
-0.116250396 0.018076044 0.07169953 0.022845596 -0.0031703794 -0.0021459595 -0.0023468474 0.070266254
0.006481022 -0.0032072905 0.06851305 -0.055522602 0.10485334 -0.0058227987 -0.08886781 0.0013769012
-0.04739488 -0.0015468007 -0.13725278 -0.06637645 0.031940293 0.059934713 -0.0034922482 -0.027564017
-0.002024684 -0.0055477726 0.053529132 -0.05049954 -0.00043498192 0.10422882 -0.022168078 -0.0040056994
0.002891604 -0.021397572 -0.10526038 -0.07016935 -0.07248381 -0.030701611 0.024379825 -0.008059792
0.0018359612 0.01724532 -0.046685483 -0.0012478968 -0.03789719 -0.11262653 -0.000116813855 0.06867305
-0.021170396 0.04323714 -0.052531127 0.00229249 -0.013029108 -0.13553853 0.0041456274 0.11346396
0.15050645 -0.01843096 -0.018655423 -0.0055070417 -0.0014336605 -0.0058789365 0.11277315 0.00087666104
-0.05731792 -0.0664466 0.0019858754 -0.07300957 -0.0017547043 0.0028831393 -0.0003855191 0.03423628
0.0058627627 0.0015978512 0.032460716 0.053903896 -0.058756024 -0.003548935 0.026087249 0.0011395323
-0.020979283 -0.0045333584 -0.11032574 -0.04458421 -0.08038091 -0.0041600554 0.008220163 -0.055782832
0.00051086996 0.016197471 0.052957866 0.021827156 -0.0048558796 0.023999542 -0.0052818377 0.0044247955
-0.0006358345 0.023531927 -0.0907009 0.016485889 -0.09575888 0.051758163 0.011028071 0.043597315
0.0032880805 -0.042241346 0.021611713 0.0051844227 -0.00855983 0.063240364 -0.00036620797 -0.0239314
-0.0081167 0.018214038 -0.07579907 -0.0009978511 0.005015572 -0.021746965 -0.002105059 0.093470275
-0.011436934 0.11139846 0.016137784 -0.04426896 0.01008536 0.033798102 0.060675435 -0.019194687
-0.01243916 -0.050634082 0.0037862405 -0.027482796 0.0054885657 -0.0008283654 0.0008784629 -0.022733897
-0.019042738 -0.0070731374 -0.06570005 0.040470086 0.0908155 -0.004933911 -0.048264287 -0.0023491136
-0.0072503407 0.00059976423 0.039884545 0.04099338 -0.0069076307 -0.07619816 0.0042913733 0.00038126146
0.0022063162 -0.022359068 -0.0020721783 -0.020706942 -0.025732838 0.0918559 0.004692975 0.00015229233
-0.0007016436 0.051415514 -0.071659006 -3.7542939e-06 -0.06306121 0.041577086 0.0030491739 -0.07251121
0.01243975 -0.084458485 -0.08802697 0.0005867033 -0.0593892 -0.031801753 0.00096642633 0.02651579
-0.04088078 0.010816477 -0.06714303 -0.0021219887 0.00036627974 -0.021524958 0.00082701666 0.010735807
0.007975137 -0.08063795 0.0031329114 0.06431668 0.00015181644 -0.022931833 0.020643342 0.004965338
0.096960254 -0.033210665 0.00071985164 -0.033298764 -0.0018850588 -0.0025134974 0.0019732104 0.0087862015
-0.0049790107 -0.003005092 -0.057985123 -0.05363551 -0.007999996 -0.0046181143 -0.046228074 0.0014917686
00000000: 0f47 13bd a284 823b 9c93 983c bdb5 bb3c
00000010: e3af 343d e8db f1bd cc0c 6139 1858 00bd
00000020: 274c 79ba 3137 c5bd 47e3 aabc 3d5b c43c
00000030: dc41 5cbc f1df 823d 0b35 c6bc 6255 e9bb
00000040: 46c6 0b3b 590c d3bc 8c4c e13c 8261 b5bb
00000050: c314 a23c 6920 c6bd 042b 0b3c 54ef adbd
00000060: 2536 6bb9 f9b9 b83d 14f9 bdbd 13e3 43ba
00000070: 8906 d33c 6759 d93d e210 a5ba d046 0d39
00000080: c02b fabd d2fd 8bbc b715 5e3d 4c6c 693b
00000090: 6f59 62bb 2eb1 8d3d ef7b 1639 121d 9fbd
000000a0: 4e7c 10be 76d9 a33d 5a86 1fbc 1a7f 8dba
000000b0: 61e2 c33a 085c c0bb be9b 1dbd ab56 f5bb
000000c0: b014 eebd 3614 943c 34d7 923d b026 bb3c
000000d0: 24c6 4fbb 3aa3 0cbb 91cd 19bb c1e7 8f3d
000000e0: c15e d43b 6831 52bb 9250 8c3d ab6b 63bd
000000f0: 59bd d63d 2dcd bebb 5400 b6bd 2379 b43a
00000100: 2221 42bd 05be caba fe8b 0cbe 60f0 87bd
00000110: d3d3 023d 1a7e 753d 34de 64bb efcd e1bc
00000120: 90b0 04bb 17ca b5bb 5d41 5b3d 9bd8 4ebd
00000130: 490e e4b9 eb75 d53d d499 b5bc 3e42 83bb
00000140: 1181 3d3b f649 afbc c192 d7bd f3b4 8fbd
00000150: 6472 94bd f281 fbbc 33b8 c73c 380d 04bc
00000160: a3a4 f03a 0f46 8d3c 4739 3fbd 7890 a3ba
00000170: 153a 1bbd bda8 e6bd f6f9 f4b8 75a4 8c3d
00000180: 8a6d adbc 6d19 313d e12a 57bd 9a3d 163b
00000190: 0a78 55bc 9dca 0abe 0bd8 873b cb5f e83d
000001a0: 5d1e 1a3e 86fc 96bc 42d3 98bc 6a74 b4bb
000001b0: aae9 bbba 18a4 c0bb 9cf5 e63d bacf 653a
000001c0: 32c6 6abd 2815 88bd 7625 023b 0b86 95bd
000001d0: 1bfe e5ba 0df3 3c3b 7f1f cab9 573b 0c3d
000001e0: 6b1c c03b fd6e d13a 87f5 043d 55ca 5c3d
000001f0: 28aa 70bd 4095 68bb edb4 d53c 5c5c 953a
00000200: bfdc abbc 918c 94bb 76f2 e1bd ef9d 36bd
00000210: bf9e a4bd 1351 88bb ddad 063c 8a7c 64bd
00000220: e7eb 053a 8fb0 843c 59ea 583d ddce b23c
00000230: 121e 9fbb b09a c43c 4413 adbb e0fd 903b
00000240: 22ae 26ba 07c6 c03c 65c1 b9bd 6a0d 873c
00000250: 3b1d c4bd 5e00 543d 15af 343c 1993 323d
00000260: d67c 573b 4305 2dbd 0c0b b13c 17e2 a93b
00000270: 873e 0cbc 2a84 813d 9aff bfb9 c90b c4bc
00000280: e8fb 04bc 9b35 953c 8b3c 9bbd 54ca 82ba
00000290: ab59 a43b b126 b2bc 08f5 09bb 586d bf3d
000002a0: fa61 3bbc e024 e43d 6333 843c 5e53 35bd
000002b0: 113d 253c e16f 0a3d ce86 783d 2d3e 9dbc
000002c0: 9ecd 4bbc af65 4fbd 9322 783b 9a23 e1bc
000002d0: 6dd9 b33b a926 59ba a648 663a 703c babc
000002e0: 84ff 9bbc c7c5 e7bb bf8d 86bd f6c3 253d
000002f0: 7afd b93d a5ac a1bb c6b0 45bd 96f3 19bb
00000300: 4494 edbb 7f39 1d3a fa5d 233d ade8 273d
00000310: 6859 e2bb c80d 9cbd a69e 8c3b 0ce4 c739
00000320: d897 103b 5d2a b7bc 62cd 07bb 9ba1 a9bc
00000330: accd d2bc f21e bc3d 87c7 993b a9b0 1f39
00000340: 81ee 37ba 1399 523d f5c1 92bd 47f2 7bb6
00000350: 3c26 81bd bc4c 2a3d a6d4 473b c280 94bd
00000360: 18d0 4b3c 92f8 acbd 7c47 b4bd fecc 193a
00000370: 1742 73bd 8e42 02bd c657 7d3a a437 d93c
00000380: 9b72 27bd 9837 313c 4982 89bd 1011 0bbb
00000390: 3c09 c039 1c55 b0bc 26cc 583a 3de5 2f3c
000003a0: 26aa 023c 8225 a5bd 8851 4d3b 77b8 833d
000003b0: ea30 1f39 8adb bbbc 3a1c a93c 46b4 a23b
000003c0: 1993 c63d e807 08bd 6db4 3c3a 4964 08bd
000003d0: 1414 f7ba 7db9 24bb fa50 013b 00f4 0f3c
000003e0: f826 a3bb 14f1 44bb cf81 6dbd e9b0 5bbd
000003f0: 6a12 03bc 8d53 97bb a659 3dbd 7387 c33a

lin5.bias f4 [19]
-0.17735027 0.2486839 0.12604274 0.08597266 0.2666435 0.23992737 -0.038561765 0.12217337
0.1934278 0.12511015 -0.072921224 0.16267845 0.1963151 0.123303406 -0.12288944 0.29400343
0.010671359 0.1638431 -0.108110376
00000000: 4f9b 35be fea6 7e3e 5911 013e 6f12 b03d
00000010: 7f85 883e 85af 753e f1f2 1dbd 0836 fa3d
00000020: f011 463e e01c 003e b957 95bd 2e95 263e
00000030: d306 493e 7f86 fc3d 75ad fbbd 9e87 963e
00000040: ecd6 2e3c 7cc6 273e f968 ddbd
