src/virtuose_teleoperation/network_controller/Rotate_bottle/Shake_down_skill.pth (torch, 463367 bytes, 10 tensors)

lin1.weight f4 [256, 27]
000000 91 2b c4 bd 4c c5 80 3d 83 63 89 3d b8 90 00 be
       -0.09578622 0.062876314 0.067084335 -0.12555206
000010 64 3b 38 bd 03 96 d7 bd 0e 83 35 bc e8 a1 90 39
       -0.044978514 -0.10526659 -0.011078609 0.0002758645
000020 a5 24 4f be 07 b8 2f be c1 88 16 3e a6 50 03 be
       -0.20228823 -0.17160045 0.14700605 -0.12823734
000030 df 44 3e 3e d5 22 80 3d cd 41 fa 3d 81 92 48 3e
       0.1858096 0.06256644 0.12219582 0.19587137
000040 b2 79 04 be 77 e2 a4 bd a7 e6 a9 3d d8 8f 2e be
       -0.12937048 -0.08051007 0.082959466 -0.1704706
000050 5b 1c 73 3d cf a0 d9 bc df 15 02 3e de b4 26 3e
       0.059353214 -0.026565937 0.12703656 0.16279933
000060 a3 fa 1e be 84 2f 07 bd 49 6e 4d bc a9 34 b6 bc
       -0.15525298 -0.0330043 -0.012538501 -0.022241907
000070 fd e6 65 bd 42 8e 7d bb 3c 05 a3 bd 24 29 8c 3e
       -0.05612849 -0.0038689529 -0.07959983 0.27375138
000080 df ae fd bd d6 cc 13 bd 85 24 9c 3d 6e 76 90 3c
       -0.1238687 -0.03608402 0.07624153 0.017634597
000090 76 23 30 3e 46 e1 2a bc d8 61 00 3d 69 6e bc bd
       0.17201027 -0.010429686 0.03134331 -0.092007466
0000a0 67 a8 7e be dd 4e 74 3d 9c 95 86 bb 6a bf b1 bd
       -0.24868928 0.059645522 -0.0041071903 -0.086790875
0000b0 8d 1c 1a 3e 4a 8a 34 3e fe a2 1f 3e 11 51 e4 bd
       0.15049954 0.17630878 0.1558952 -0.11148275
0000c0 4e 99 8d 3d 4b 06 1d 3e 43 fe 34 be 14 24 7e 3e
       0.06914006 0.15334432 -0.17675118 0.2481845
0000d0 69 22 1b 3e ff 5f af be 8e b7 e9 3d 4c 9e 29 3e
       0.15149845 -0.34252927 0.114119634 0.16564292
0000e0 aa c8 3c be 9d 71 8e 3d 7a 62 aa 3c 85 52 89 3d
       -0.18435922 0.06955264 0.02079891 0.067051925
0000f0 35 8c 37 be 0b c7 aa 3d c0 cb ce 3d 05 13 e5 bd
       -0.17924578 0.08338746 0.10097456 -0.11185268
000100 29 0b c8 bb 46 6e 0b bd e8 86 c6 bd 69 c1 56 bc
       -0.006104846 -0.03404071 -0.096937 -0.013107636
000110 69 0e 1f 3e 2a ae a4 3d 88 e8 1a be 61 b2 91 bd
       0.15532841 0.08041032 -0.15127766 -0.07114101
000120 76 c3 2e 3e 06 0c 31 be 3d 56 ab 3d 1b 9c 24 3e
       0.1706675 -0.17289743 0.08366058 0.16075175
000130 77 be ca bd 28 a9 8a bd c9 70 99 bd ec d5 ba 3d
       -0.098996095 -0.06770545 -0.07492215 0.091228336
000140 8b 13 22 bd 65 15 80 be 45 64 0b 3e 62 1e 1f be
       -0.03956942 -0.25016323 0.13612469 -0.15538934
000150 cb 68 0c 3e 40 d5 6b bd 66 f7 1f bd 40 93 95 bd
       0.1371185 -0.057576418 -0.039054297 -0.07303476
000160 25 8e d6 3d 08 ab 46 3b da dd 19 bc 8a ee 0f be
       0.10476331 0.0030314345 -0.009391272 -0.14055839
000170 a5 bf 31 3e 3b 01 c6 3d 34 0f 28 be d3 47 e7 3d
       0.17358263 0.096682034 -0.1641205 0.11292996
000180 91 5f 2a bc 3b 23 67 ba 2d e5 48 3d 71 c1 71 bd
       -0.010398761 -0.00088172004 0.049046684 -0.05902237
000190 98 94 a8 3c e8 82 08 3d ce 77 2c bd 51 d3 ba 3d
       0.020578668 0.033327967 -0.042106442 0.09122337
0001a0 bc 18 ea 3d 92 42 37 3e cd 08 0f 3e 1b a1 b6 3d
       0.11430499 0.17896488 0.13968201 0.08917447
0001b0 55 4e ac be 70 2f 15 be 55 f0 72 bd 25 bc 12 be
       -0.33653513 -0.14568877 -0.05931123 -0.14329584
0001c0 c4 bd 40 3d 31 8a 26 3e fc 95 a2 bd 69 64 c3 bd
       0.047055975 0.16263653 -0.079387635 -0.09540636
0001d0 e6 d0 37 be 47 3e 09 3e eb ba b1 bd c6 51 e5 bd
       -0.17950782 0.13402663 -0.0867823 -0.11197238
0001e0 a5 ee bd 3d 21 01 08 3e 33 0f 27 3e 32 57 19 bc
       0.092740335 0.1328168 0.16314392 -0.009359168
0001f0 3c 77 14 be 18 c3 36 be dc 90 a3 bc 33 d1 80 bd
       -0.1449861 -0.1784786 -0.019966535 -0.062899016
000200 59 8c 36 3e 07 e5 43 3e f8 b2 0a 3d f0 73 c4 bd
       0.17826976 0.19130336 0.033862084 -0.09592426
000210 b8 7e 0f bd 61 4b 3f 3e 92 b3 02 bf 2f 55 3b 3e
       -0.035032958 0.18681099 -0.5105525 0.18294214
000220 ad 47 9d bd 24 75 af bd 47 9e 9d 3d 44 94 3a be
       -0.07679687 -0.08567265 0.07696205 -0.18220621
000230 e5 83 9e bd 5c e3 c5 bd 5b 96 1d 3e 41 55 24 bd
       -0.07740001 -0.09662506 0.15389387 -0.040120367
000240 71 cd 30 be 58 65 07 3e 25 3c 8a bd a0 89 25 be
       -0.1726587 0.13222253 -0.06749753 -0.16165781
000250 37 b6 3a 3e dc d9 36 be 5c 0c f2 3d b8 fb b9 3c
       0.18233572 -0.17856544 0.118187636 0.022703037
000260 99 bd 22 ba af a6 c4 3c 77 24 6b 3d c3 a1 44 be
       -0.0006208062 0.024005262 0.057407822 -0.19202332
000270 9a 78 c0 3d 4a 56 0f 3e 3b 3e 09 be 10 9c a2 bd
       0.09398003 0.1399776 -0.13402645 -0.07939923
000280 d3 6f 2c 3e 45 1c 93 3d 97 c4 d0 bd 0d 57 3f be
       0.16839533 0.07183126 -0.101937465 -0.18685551
000290 2d 1c bb bd 34 7b 3b 3e c2 73 2c 3e c6 96 49 3d
       -0.091362335 0.18308717 0.16841033 0.049216054
0002a0 f9 1e a5 bd f8 a5 45 3e 22 bd fb 3d d3 75 a1 bd
       -0.08062548 0.19301593 0.122919336 -0.07883801
0002b0 04 c3 22 3c b4 e7 d6 bd bb bd f1 bd 6b e5 02 bd
       0.009934191 -0.104934126 -0.11803766 -0.03195707
0002c0 9f eb 9f 3d 04 6e 01 3e f1 fa f8 bc d7 64 2c 3e
       0.07808613 0.12639624 -0.030393096 0.16835342
0002d0 e3 34 47 3d 11 3b 1d 3d 05 f2 5a bd 69 53 12 be
       0.04863442 0.03838641 -0.053453464 -0.14289631
0002e0 b4 84 df 3c 47 14 4c bc 02 9d fa 3c e6 d0 35 3e
       0.027284957 -0.012456006 0.030592445 0.1775547
0002f0 d1 55 31 be 9a f1 01 be 97 59 70 3d 2c 9e 32 be
       -0.17317893 -0.1268982 0.05867919 -0.1744315
000300 91 79 26 3e 18 93 3b be 4a d6 89 bd 50 10 23 be
       0.16257311 -0.1831783 -0.067303255 -0.15924191
000310 a8 2e b8 3c 36 7c 2d 3d f4 4d 0d be e2 5b fa 3d
       0.022483185 0.042354785 -0.13799268 0.122245565
000320 80 4d a1 bd 6b 29 35 be ea 73 df 3d cb 4d 32 be
       -0.0787611 -0.17691581 0.10910781 -0.17412488
000330 67 a4 2c 3e 3b 37 13 be 2f 13 e8 bd 21 23 27 be
       0.1685959 -0.14376538 -0.11331784 -0.16321994
000340 8f 44 3c be bb ab 9e 3d b1 12 24 3d 4c 8e be 3d
       -0.18385528 0.07747599 0.040056888 0.09304485
000350 cb ed 0b 3e 73 82 03 be bd f0 1a 3e 6c 45 f6 3d
       0.1366493 -0.12842731 0.15130897 0.1202496
000360 2e cf dd bd 2f e8 34 be f1 d7 06 3d 21 a1 db 3c
       -0.10830532 -0.17666696 0.03292078 0.02681023
000370 76 dc f4 bd 38 fa b0 3c 37 9f 1e bb 12 0b 97 3e
       -0.11956112 0.021603689 -0.0024203786 0.29500633
000380 af 4f 20 be 76 1b 42 3e 87 bb 20 bd 3e 51 85 bb
       -0.15655397 0.18955788 -0.03924134 -0.0040685227
000390 6c 0f 04 3e a6 7a 61 bd 78 31 cc 3d 8e 46 83 3d
       0.12896508 -0.055048607 0.09970373 0.064099416
0003a0 6a 90 15 3e 5a 0b 24 be d5 cd cf bd 83 bb 09 3e
       0.14605871 -0.16019955 -0.10146681 0.13450436
0003b0 6b e2 0b be 36 cd a9 3c ea 54 61 3d 10 6a be 3d
       -0.1366059 0.020727735 0.05501262 0.092975736
0003c0 97 29 2b 3e 7d 1d 2e be 6c a2 37 3e e2 55 df 3d
       0.16715084 -0.17003436 0.17933053 0.10905053
0003d0 43 a7 94 bd d6 f0 b4 3d 32 c4 bb bc 1c 95 1d 3e
       -0.07258465 0.08834998 -0.022920702 0.15388912
0003e0 20 f8 b8 3d 06 ba 48 bc 0d 19 22 3e 6a 6a b8 3d
       0.09031701 -0.012251383 0.15829869 0.09004672
0003f0 6b bc d7 3c e1 3d 2b 3e 34 52 0f be 1b a6 30 3e
       0.026334962 0.16722824 -0.13996202 0.17250864

lin1.bias f4 [256]
000000 96 4e 24 be e5 42 ae bd bb 75 2d 3e 20 1b f5 3d
       -0.16045603 -0.08508853 0.16939442 0.11968064
000010 f1 f4 62 bb 1b 97 11 be 65 47 01 3e 7f 78 bd 3c
       -0.003463086 -0.14217798 0.12624891 0.023128746
000020 60 dc dc bd ab 57 b2 bc 73 76 31 bc ab 52 02 3d
       -0.10784221 -0.021770319 -0.010831463 0.03181712
000030 4b 5b 81 bc 1f 1e f0 3d 02 ee 60 bd dd 23 20 3e
       -0.015790602 0.11724495 -0.054914482 0.15638681
000040 43 14 45 bc 89 25 1a be 33 f5 0c 3e f8 55 b8 bc
       -0.012028757 -0.15053381 0.13765411 -0.02250193
000050 16 80 ab 3d 69 34 60 3c c6 d6 65 3d 39 38 aa bd
       0.0837404 0.013684371 0.056113027 -0.08311505
000060 aa 52 1c be c2 db 02 be 67 19 21 3e 2f b0 90 3d
       -0.15265909 -0.12779143 0.15732346 0.07064854
000070 d7 5e 42 bd 61 cc c2 bd 6d a0 90 bd 29 97 aa 3b
       -0.047453728 -0.095116384 -0.07061849 0.005206008
000080 d8 2e f8 3d ba 64 68 3c 7f fa 1f 3e 4a 68 13 be
       0.1211831 0.014184171 0.156229 -0.14395252
000090 ba 7e c3 3d 29 e5 7a 3c 59 6d f1 bc 82 9f 90 3c
       0.095456555 0.015313425 -0.029471086 0.017654184
0000a0 35 4d 14 3d 30 db de 3d 1f 14 82 bd c3 7e f8 bc
       0.036206443 0.108816504 -0.06351494 -0.030333882
0000b0 9b 69 02 3e 7d b6 36 be db 6f b6 3d 90 98 1d 3c
       0.12735598 -0.17843051 0.089080535 0.009618893
0000c0 4a cd ba bd 99 dd 1f 3e ca 11 20 3e 47 1c bd 3d
       -0.09121187 0.15611877 0.15631786 0.09233909
0000d0 fd 71 19 3e 96 26 db bd 5b 9c ee bc 28 f5 21 bd
       0.1498489 -0.10700719 -0.02912729 -0.03954044
0000e0 28 3d 77 3d d5 ca 84 bd 96 fb b1 3d 8f b5 9c bd
       0.060361058 -0.06484 0.08690564 -0.07651817
0000f0 77 04 aa bd 1f db 2d 3e 7f 19 31 3e ce 01 bd 3d
       -0.08301633 0.1697812 0.17294882 0.0922886
000100 89 eb 51 bd 9d 94 34 be ae 01 d4 bd 34 2c 63 3c
       -0.051250014 -0.17634816 -0.10351883 0.013865519
000110 f6 3a 40 be 20 04 0f 3e d1 11 75 3c 94 4c 22 bd
       -0.18772492 0.13966417 0.014957861 -0.03962381
000120 9a 41 94 bd ce 04 b7 bd d8 c6 e0 3d bc 3d 38 be
       -0.07239075 -0.08936463 0.109754264 -0.179923
000130 a9 f3 19 3e b5 92 e2 bd 4b 80 b6 3c c7 71 d1 3c
       0.15034355 -0.110631384 0.022277972 0.025566949
000140 39 01 32 3e e2 d2 1f be ea 12 2e 3e 43 fc 62 bd
       0.17383279 -0.15607789 0.16999403 -0.055416357
000150 de e4 31 be 30 ee a0 bb 1c 04 e2 bd ab 70 a3 3d
       -0.17372462 -0.0049112067 -0.1103594 0.07980474
000160 33 be 2e be a9 d9 28 3d 3c 9a 17 be 7d 76 d8 bd
       -0.17064743 0.041223202 -0.1480493 -0.10569475
000170 61 93 ff 3c 11 b5 db bd 1b e8 1b be 41 7b c5 bd
       0.031198205 -0.10727895 -0.1522526 -0.096426494
000180 c8 1d 13 3e 95 32 2b be fb 65 e9 3b 8b 3a 16 3b
       0.1436683 -0.16718514 0.0071227527 0.0022923078
000190 c9 6e 22 be ce 09 be bd c4 7c 5e 3d a7 e1 26 be
       -0.15862574 -0.09279214 0.054318205 -0.16297017
0001a0 30 6e 0c be 7c 46 16 3d e3 bc cf bd aa a7 98 3d
       -0.13713908 0.036688313 -0.10143449 0.074538544
0001b0 50 c7 dc 3d d0 5d d8 3d 74 e6 26 be 4b 90 aa bd
       0.10780203 0.10564768 -0.16298848 -0.08328303
0001c0 b2 12 8f 3d 47 33 31 be ef 0b 11 be f2 07 f4 bc
       0.06985988 -0.17304717 -0.14164709 -0.029788945
0001d0 3c e2 69 3d ac 67 39 3c d5 13 15 3d 8c ef 8b 3d
       0.05710052 0.011316221 0.036395866 0.06832799
0001e0 9d 53 35 be 06 4f c8 bd e6 9d 39 bd 7c dd 39 be
       -0.17707677 -0.097806975 -0.0453166 -0.18150896
0001f0 ff f8 b5 3d d6 78 08 3e 04 20 a4 3d cd f8 cf bd
       0.08885383 0.13327345 0.08013919 -0.10154877
000200 4b e9 a7 bd d1 ae d1 3d e1 c0 27 b9 b9 ee c1 bd
       -0.08198794 0.10238422 -0.00015998214 -0.09469361
000210 cc 32 9f 3d bb c3 e8 3d a4 81 fe 3c 1e 50 26 be
       0.077733606 0.113654576 0.031067677 -0.162415
000220 10 a4 44 be 97 3b 3b be d3 81 ec bd 86 e8 99 3d
       -0.1920321 -0.1828445 -0.115481995 0.075150535
000230 da f6 b8 3c 33 47 bf 3c 50 b3 47 be 7d 7a 79 3d
       0.022578645 0.02334938 -0.19501996 0.06090783
000240 1f 98 0f bd 61 0f 09 bd 42 db bb bd 3c 16 bb 3c
       -0.035057183 -0.033461932 -0.091726795 0.02283775
000250 15 ef 0c be f7 b9 fa bd 4d a6 ff bc 57 8a 1e be
       -0.13763078 -0.12242501 -0.031207228 -0.1548246
000260 26 08 bf bd 9c 06 00 be 48 0e e6 3d 97 e9 87 bd
       -0.09327726 -0.12502521 0.11233193 -0.066363506
000270 eb 65 a6 bb f5 a7 df 3d de cf e4 3d 96 49 91 3d
       -0.0050780675 0.10920707 0.1117246 0.070941135
000280 b1 fb 03 3d 9f f4 2e bd c0 41 26 be 23 18 15 be
       0.032222454 -0.042713758 -0.16236019 -0.14559989
000290 d0 10 25 bc e0 08 f9 bd eb f4 32 be 24 18 8d bc
       -0.010074809 -0.12159896 -0.17476241 -0.017223425
0002a0 c5 3c bb bd 6b 8b 3c be b5 8e 32 bd 9b 6a ec 3d
       -0.0914245 -0.18412559 -0.043593127 0.11543771
0002b0 21 95 77 bb dc cd d8 3d 80 2c 2a be 62 d1 94 3d
       -0.0037778097 0.105861396 -0.16618538 0.07266499
0002c0 ea 52 8c bd 26 b4 92 3d 75 2d 23 bd 9b 9a b2 3d
       -0.06851752 0.07163267 -0.039838273 0.08720895
0002d0 30 04 d5 3d f3 91 0c be c7 ca 1a be b4 0d 01 be
       0.10401189 -0.1372755 -0.15116416 -0.12602884
0002e0 74 32 98 bd 91 46 1b 3d 37 10 6e 3d f4 35 b2 3d
       -0.07431498 0.037909094 0.058120932 0.08701697
0002f0 bd 91 de bd 40 39 13 3d 9a 11 9e bd 56 b6 74 3d
       -0.10867641 0.03594327 -0.07718201 0.0597442
000300 70 64 93 bd 91 ec 06 3d 4a e6 b2 3d fb fb 42 be
       -0.07196891 0.03294045 0.087353304 -0.19041435
000310 62 b3 87 3d ec 27 16 3e 92 c6 96 bd 73 8c ed 3d
       0.066260114 0.14663666 -0.07362093 0.11599054
000320 2f 2a ee 3d ce 15 14 be 2f c2 a4 3d 74 6c 18 be
       0.1162914 -0.14461443 0.0804485 -0.14885122
000330 24 15 31 3e ff 76 29 be f2 e2 0a 3e 8f 51 2d 3e
       0.17293221 -0.165493 0.13563135 0.16925643
000340 6c 9f a3 3d 20 f9 86 3d 65 b4 55 ba f2 d8 e5 bd
       0.07989392 0.065904856 -0.0008152186 -0.1122302
000350 ff 6e c3 bd 2a f4 e9 3d 32 38 43 be 57 8f aa bd
       -0.09542655 0.11423524 -0.19064406 -0.08328121
000360 54 f5 08 3d 10 4c c6 bd 74 f9 b8 3d ab 08 cb 3d
       0.033437088 -0.096824765 0.090319544 0.09913763
000370 22 98 48 3d 5c 69 28 3e f9 4d 15 3e e8 5c 26 3e
       0.04897321 0.16446441 0.14580525 0.16246378
000380 71 50 19 3c 5f 72 2a 3e c4 0e 5e be 00 c2 6f 3d
       0.009357558 0.16645192 -0.2168532 0.058534622
000390 35 67 12 bd f7 83 e5 3d f4 01 f0 3d b4 e5 c3 bd
       -0.035742957 0.11206811 0.117191225 -0.09565297
0003a0 bb 45 9e bd 98 6a 07 3e d5 29 70 bd 8d 4e 31 3e
       -0.07728144 0.13224256 -0.058633644 0.17315121
0003b0 2a ff 73 bd 9b b1 3c be 41 ad ea bd ce 04 f0 bc
       -0.059569515 -0.18427126 -0.11458827 -0.029299166
0003c0 37 dc c3 bd 99 a5 da 3d e9 7a ac bd f0 a1 23 3d
       -0.09563487 0.106761165 -0.08421881 0.039949358
0003d0 e3 a5 30 3e 6b 4d b1 3d 4a 45 78 3d 3c 34 21 be
       0.17250781 0.086573444 0.060612954 -0.15742582
0003e0 94 2c a8 bc 0e 8f 1b be 8b 0f 12 3e c7 c2 36 be
       -0.020529069 -0.1519129 0.14263742 -0.17847739
0003f0 62 70 c0 3d d8 6f 0d bd 7d b5 01 be 8c 79 dc bd
       0.09396435 -0.03453049 -0.12666889 -0.10765371

lin2.weight f4 [256, 256]
000000 d5 9e af 3b e3 8e 51 bd b4 71 21 bd 16 5e 64 bd
       0.0053595104 -0.051161658 -0.039415076 -0.05575379
000010 3c 99 82 bb b4 16 d2 bc c4 ef 8c bc 20 64 cd 3b
       -0.003985552 -0.025645591 -0.017204173 0.0062680393
000020 10 1f 4b 3d 1a 10 b5 bc 1b 50 f3 3b 84 48 03 bd
       0.04959017 -0.022102404 0.007425321 -0.03205158
000030 ae f8 04 bd 86 f7 2f bd cc 32 07 3d 8d 53 12 3d
       -0.032463722 -0.042960666 0.033007428 0.03572421
000040 1e 0c 85 bd b0 3f 42 3d 2c f6 53 bb 2c f5 ab 3c
       -0.06496452 0.04742402 -0.0032342775 0.02099093
000050 b0 83 a2 3b 36 86 3c 3d 06 89 8c 38 80 03 4e 3a
       0.004959546 0.04602643 6.701243e-05 0.0007858798
000060 3e 38 85 bd d4 b0 b7 3c 6e e7 65 3c 48 da c2 bc
       -0.06504868 0.022423185 0.014032228 -0.023785725
000070 cb 2e 5f bd a0 26 36 bc 3a 81 02 3d e0 e9 4f bd
       -0.054487985 -0.011117607 0.03186152 -0.05076015
000080 0c 2d 94 bb f9 6c 00 3d dc c7 7a 3d 7c 61 86 3c
       -0.0045219716 0.031353924 0.061225757 0.016403906
000090 bc 12 46 bd b0 c6 c9 bb 0a 78 3c 3d 8e 88 a4 3c
       -0.04835771 -0.0061577186 0.046012916 0.020084646
0000a0 e0 7b 4d bd 4d a2 93 bd 88 af db bc 60 67 d8 3b
       -0.050166965 -0.07208691 -0.026817098 0.00660412
0000b0 02 44 92 bb d6 ea 5d bc 80 ae 2e 3c b8 0a 9a bc
       -0.0044636736 -0.013544759 0.010661721 -0.01880394
0000c0 f0 25 75 bd a4 68 4b bd 39 2e 89 bc 6c ff a9 3c
       -0.059850633 -0.04966034 -0.016745673 0.020751677
0000d0 52 11 33 3d a3 bb 27 3d 67 ae 83 bd 25 f2 e5 3c
       0.04371769 0.04095043 -0.06429749 0.028069565
0000e0 10 7b dc bc e0 d0 72 bd 16 78 48 bc 40 6c 8e bd
       -0.02691415 -0.05928123 -0.012235662 -0.06954241
0000f0 9a 4a 31 3d 08 8a 04 bc 70 0c cc 3b 33 7d 56 bd
       0.043284036 -0.00808955 0.0062270686 -0.052365493
000100 1c ff 27 3d 9b 72 35 3d d2 3b 4b bd 32 f0 08 bd
       0.041014776 0.04429875 -0.049617596 -0.033432193
000110 9c 66 14 3d 8a 1c d8 3b 7c 90 53 bd 34 9e 60 3d
       0.03623067 0.006595199 -0.051651463 0.054838374
000120 4c ca aa bc ec 4b 11 bd 10 40 4a 3c 9c 4e 7c 3d
       -0.020848416 -0.035472795 0.012344375 0.061598405
000130 80 31 15 3c 8b eb 20 3c 04 4b 5b 3d 0a a6 94 bd
       0.00910604 0.009821783 0.053538337 -0.07258232
000140 e4 96 0a 3d 40 ff 56 3c 8a 26 5e 3d 60 59 c7 3b
       0.033835307 0.01312238 0.054235972 0.0060836524
000150 ca b2 3a 3d 81 14 44 3d d8 e5 fc 3c 8a 6c 3a 3d
       0.045580663 0.047871117 0.030871317 0.045513667
000160 05 d6 a3 bc c4 15 2c bd 38 90 b0 3c f0 af fc bb
       -0.019999513 -0.042012945 0.021553144 -0.007711403
000170 86 5a 05 bd 78 20 35 bd e0 85 2c bb e8 e3 6c bc
       -0.032557033 -0.044220418 -0.0026324913 -0.014458634
000180 01 1e 78 bd 08 c8 cb bc a4 b8 93 3c 4c ef b4 bb
       -0.06057549 -0.024875656 0.01803238 -0.0055216905
000190 c1 13 63 bd 7d c0 2c bd 71 51 03 bd e0 92 6f 3d
       -0.05543876 -0.04217576 -0.03206009 0.05848968
0001a0 13 7d 9d bc 34 24 b2 bc be cc 02 3d 41 9a ff ba
       -0.01922468 -0.021745779 0.03193354 -0.0019500927
0001b0 db a0 77 bd 01 ac 4c bd 8a 49 61 3d 19 ed 3a bd
       -0.060456138 -0.049968723 0.055001773 -0.04563627
0001c0 16 34 2d 3b 44 2d c1 bc 78 c2 f8 bc c8 f7 1a bc
       0.002642875 -0.023581155 -0.030366167 -0.00945849
0001d0 d4 d3 d5 bc 80 f5 e4 3b 23 d1 18 3d 57 ec 86 3c
       -0.026101984 0.0069872737 0.037308823 0.016470117
0001e0 6e ed 21 3d 18 43 a4 bc c0 2c d8 3b 25 d8 04 bd
       0.03953307 -0.020051524 0.0065971315 -0.032432694
0001f0 82 74 17 bd d8 ed 00 3d 25 c8 ca 3c e0 9d 65 bb
       -0.036976345 0.031476825 0.02475364 -0.0035036728
000200 04 73 bc 3c c2 65 62 bd 46 d2 33 bd a0 76 73 bb
       0.023004062 -0.055272825 -0.043901704 -0.0037149563
000210 18 eb 2a 3c 10 37 1b 3c 14 d8 c2 3c 8e c5 38 3d
       0.010432027 0.009473577 0.023784675 0.045110278
000220 58 04 f3 bc b8 65 a8 bc 5f 9b 79 3c e4 5a 07 bd
       -0.029665157 -0.020556316 0.015234797 -0.033045664
000230 06 74 76 bd 21 09 26 3d 81 02 3b bc 94 98 bc bc
       -0.060169242 0.04053605 -0.011414171 -0.023021974
000240 f0 c8 c5 bc 74 8c a3 bc f4 e9 66 3d 04 97 64 bd
       -0.024143666 -0.019964434 0.05637546 -0.055808082
000250 90 2b de 3b 06 67 67 bd 93 63 1d 3d 64 25 17 bd
       0.0067800954 -0.056494735 0.03842504 -0.036900893
000260 23 88 9f 3c 9b 73 40 bd 58 6a 48 3d 80 bd ce ba
       0.019474095 -0.04698525 0.048929542 -0.0015773028
000270 20 f7 24 bd d3 b7 70 bd ca d4 38 bc 86 71 f3 bc
       -0.04027474 -0.05876906 -0.011281202 -0.029717218
000280 80 d3 0f bd 40 83 e6 3a f9 df 9e 3c b5 90 9f bd
       -0.03511381 0.0017586723 0.019393908 -0.077912726
000290 9a 3e 1d bc 3f 83 4a bc 18 ae 7a bc ae ca 47 bd
       -0.009597445 -0.012360393 -0.015300296 -0.048777275
0002a0 65 bc ff bc 44 be 21 3d 7c f3 05 bd 03 72 91 bd
       -0.031217763 0.039488092 -0.032702908 -0.07101824
0002b0 b2 90 69 3d e4 0e a0 3c 84 96 b6 3c 75 b3 e7 3b
       0.057022758 0.01953835 0.022288568 0.0070709535
0002c0 37 0b 30 3d d8 6f b0 3c 6c df eb bc 38 e8 21 3c
       0.042979445 0.021537706 -0.02879306 0.009882025
0002d0 a8 69 c3 bc 7a b8 17 3d 44 bd f2 3c d7 b3 54 bd
       -0.023854092 0.037041165 0.029631265 -0.05192932
0002e0 4d a6 1f bd 73 04 63 bd a3 c4 3a bc 7e ef 71 bd
       -0.038976956 -0.055424165 -0.011399421 -0.05906629
0002f0 c0 23 2d bd 80 a3 f3 bc 8a 59 5b 3c 60 df 42 bd
       -0.042270422 -0.029741049 0.013388047 -0.04757631
000300 4e c1 79 3d b9 1b b3 3c ce 48 5f bd e0 a5 4a 3d
       0.060975365 0.021863805 -0.05451279 0.049474597
000310 80 c5 7f ba 27 aa 51 b9 bc b3 ba bc e6 53 13 3d
       -0.0009756908 -0.0001999518 -0.022790782 0.035968684
000320 00 3a 4b bd d0 ec b1 3c 54 ec ab bd b4 94 c8 bc
       -0.04961586 0.021719366 -0.083946854 -0.02448497
000330 c4 ea 48 bd e4 f7 4d 3b 21 c2 f1 3c 04 a3 67 3d
       -0.049052015 0.0031428272 0.029511513 0.05655195
000340 78 e4 47 3c 67 83 82 bd 58 6c 88 3c 08 18 12 3c
       0.012200467 -0.06372719 0.016653225 0.008916862
000350 b8 28 5f 3d e8 72 1e bd dc 8b 3e bd 00 12 8a bb
       0.05448219 -0.038683802 -0.0465201 -0.0042135715
000360 be b2 31 bd b2 31 08 bd 00 f3 a8 3c f8 cf 40 bd
       -0.043383352 -0.03325052 0.020623684 -0.047073334
000370 3c 3c d0 bc e9 25 8b bd 7d 46 74 bd 76 f1 66 3d
       -0.025419347 -0.0679434 -0.059637535 0.05638262
000380 45 4d 0e bd e1 84 13 3d e0 4b 81 3d 32 79 ed 3c
       -0.03474166 0.036015395 0.063133 0.028988454
000390 90 4d b0 3c 6e ba 34 3d 87 ce 57 bc 28 28 12 bc
       0.02152136 0.044123106 -0.013171799 -0.008920707
0003a0 f9 88 e9 bc 00 33 ad ba 74 4b d3 bc 76 61 24 3d
       -0.028507696 -0.0013214052 -0.025792815 0.04013201
0003b0 80 5e 2f bc 78 6a d0 3c 80 cf 67 bb de 3d 1f bd
       -0.010703683 0.025441393 -0.0035371482 -0.03887736
0003c0 fc 19 df bc d3 96 1d ba 7e 4e 1a bd 8a fc 60 3d
       -0.02723407 -0.0006011549 -0.037672512 0.05492834
0003d0 20 7f 41 3c df a1 95 3c c6 c2 51 3d 2c 7c b7 3c
       0.011810094 0.018265663 0.05121114 0.022398077
0003e0 d7 74 8c bd 15 77 d1 b9 c0 68 74 3b 3a 02 50 bd
       -0.06858223 -0.0003995231 0.0037293881 -0.050783373
0003f0 d7 30 55 3d 29 fd d7 3c b2 e4 30 3d 0e 3b 6c bd
       0.05204853 0.026365833 0.04318685 -0.057673506

lin2.bias f4 [256]
000000 84 cf 14 3d 5b 4a 11 3d 4f 08 18 3d fc b5 ae bc
       0.036330715 0.0354713 0.0371173 -0.021327011
000010 d7 13 47 3d a1 65 91 bc d5 d4 28 3d 27 a2 fc 3b
       0.048602905 -0.017748656 0.041218597 0.0077097598
000020 68 b8 28 3c 6c 7c 31 3d ae 99 76 3b 9a 4a 64 bd
       0.010297872 0.04333155 0.0037628221 -0.055735208
000030 54 e9 c3 bc 2b d7 3b bd 22 18 b3 bb a5 8c 11 bd
       -0.02391497 -0.045859497 -0.0054655233 -0.03553452
000040 a2 f1 6a bd 80 94 94 3a 56 ec 10 3d 30 dc 36 bc
       -0.057359345 0.001133576 0.035381638 -0.011160895
000050 66 ab 37 3d 28 95 58 bc d0 a2 93 3b e7 6c 59 3d
       0.044841193 -0.013219155 0.0045054927 0.053082373
000060 30 52 8e 3d 0d 3d 85 3b e0 28 6d bd c2 4c 61 bc
       0.0694927 0.0040661157 -0.05790031 -0.013751211
000070 40 8b 09 3b f7 24 83 3c 30 c6 9b 3c c4 dc ac 3c
       0.002098754 0.016008837 0.019015402 0.021101363
000080 5a c5 1d bd e0 f7 d0 bc b8 93 2e 3d f0 89 4a bc
       -0.038518287 -0.025508821 0.042621344 -0.012361988
000090 c0 3e 85 bc 82 01 df bc f8 53 9b 3c df f9 1f 3c
       -0.016265273 -0.027222399 0.018960938 0.009764164
0000a0 00 63 61 bc fc c9 c2 bc 61 29 49 3c e1 ab 19 3d
       -0.013756514 -0.023777954 0.012277932 0.037517432
0000b0 39 1c 68 3d 37 7a ee 3c d2 cb 54 bd 0a 77 d8 3c
       0.05666754 0.029111011 -0.05195219 0.02642395
0000c0 48 cc 74 3d 3a e1 28 bd 00 51 6f 3d 8e 4c 93 3b
       0.05976513 -0.041230418 0.058426857 0.00449521
0000d0 80 e6 d4 3a 74 0f 40 bd b0 42 01 3c 2e 59 4c 3c
       0.0016243011 -0.046889737 0.007889435 0.012472434
0000e0 e6 eb cf ba 06 de 49 bd 74 22 7a bd 65 a9 aa bc
       -0.001586315 -0.049284004 -0.061068013 -0.020832727
0000f0 4d 47 2c 3d 47 52 88 bd c0 d0 88 bc a6 87 de bc
       0.042060185 -0.06656318 -0.016701102 -0.027164292
000100 02 e0 2f 3c 89 be 23 bc cf 3f 9f 3d c2 d3 45 bc
       0.01073456 -0.009994158 0.077758424 -0.012074413
000110 36 bf db 3c 2e 33 85 3c dc 91 33 3c d0 50 55 3d
       0.026824575 0.016259756 0.010960069 0.052079022
000120 a8 02 2f 3b a9 63 aa bd 8c 82 c8 bc f2 90 16 bd
       0.0026704464 -0.0831979 -0.024476312 -0.036759324
000130 b0 66 ab bc e0 99 fe bc 86 81 cf 3c 65 59 5e 3d
       -0.020922989 -0.031079233 0.025330316 0.054284472
000140 e0 ff 80 bc 6c c9 fe 3c 87 e6 57 3d 1f 25 11 bd
       -0.01574701 0.031101905 0.052710082 -0.035435792
000150 19 c6 85 bd 0f ed 1d 3d f3 8f 8e bc 6b 86 c9 3c
       -0.06531925 0.038556155 -0.017402625 0.024600228
000160 b7 b3 88 bc 9c 5d 3d bd 45 fa 14 3b d0 f6 ed 3b
       -0.016687257 -0.04623185 0.002273218 0.0072620884
000170 80 f8 3a bd cb fc 47 bc ae 00 1f 39 4c ca d6 3c
       -0.045647144 -0.012206267 0.00015163675 0.02621951
000180 97 f1 08 3c 58 89 9e 3b 03 84 8f bd 50 34 08 3d
       0.008358381 0.00483815 -0.07007601 0.033253014
000190 d1 2f 42 bd a0 1b 92 bd fa e2 00 bc 84 cc 0f bd
       -0.047408883 -0.07134175 -0.007866615 -0.03510715
0001a0 71 e4 af 3d 7b ba 9f 3c d0 41 6c bc ef 7d 40 3d
       0.085884936 0.0194981 -0.014419988 0.0469951
0001b0 e8 a3 64 3c 39 dc 72 3d df 7d b1 3c cd e4 d7 bc
       0.013955094 0.059292052 0.021666465 -0.026354218
0001c0 88 f9 e9 3c b0 41 1d bc a1 a3 e5 3b f2 9c 24 bd
       0.028561369 -0.009598181 0.0070080315 -0.040188737
0001d0 f8 42 21 bd 3a c5 52 3d d0 2c 85 3b 41 c8 38 bb
       -0.039370507 0.05145762 0.00406418 -0.0028195533
0001e0 6d 57 9c bc e3 35 31 bc 00 b6 d8 3b e9 4a e4 3c
       -0.019084657 -0.01081607 0.006613493 0.027867751
0001f0 34 6c 34 3d 8d a9 4b 3b 75 b8 09 bd a6 41 5f 3c
       0.044048503 0.0031076402 -0.033623178 0.013626492
000200 88 f5 b4 bc 99 2e a2 bb 36 1e 48 bd 1b 78 90 3c
       -0.022089735 -0.0049494025 -0.048856936 0.017635396
000210 09 ef f0 3c f4 b4 01 3d 5a f1 88 3d 13 93 f5 bb
       0.029410856 0.03166671 0.06686659 -0.0074943393
000220 7c 7c 2b bb 11 98 20 3d 70 37 13 bd 58 3d 4a bc
       -0.0026166728 0.03920752 -0.03594154 -0.012343727
000230 40 dd 7e bd f2 72 a1 bc 71 81 96 3c 6c a3 e7 3c
       -0.06222272 -0.01970813 0.01837227 0.028276168
000240 60 e7 4c 3d b4 31 41 3d 7f 51 c0 3c d8 f9 7a bd
       0.050025344 0.04716654 0.02347636 -0.061273426
000250 27 0e 59 3d 72 58 a8 3c 88 00 b9 bc ca 3f 23 bd
       0.052992012 0.020549987 -0.022583261 -0.039855756
000260 40 43 a2 3b f1 e8 dd bc 98 3e 32 bc 00 72 31 bc
       0.0049518645 -0.027088614 -0.010879181 -0.010830402
000270 a0 3c a0 bb 5b 05 02 3d c0 d2 e3 bc 00 45 92 39
       -0.0048900396 0.03174339 -0.027810454 0.000278987
000280 8d 7f cc 3c 38 96 18 bd 40 12 fb ba fe 4f 74 3c
       0.024963165 -0.037252635 -0.0019155219 0.01491165
000290 39 97 89 3d 77 8a 0c bd 70 5b 81 bb 19 3a 6f bd
       0.067182966 -0.034311738 -0.003947668 -0.058405016
0002a0 58 0c bc 3b 88 77 81 3c f6 c5 7c bd 5b c7 d8 bb
       0.005738776 0.015804067 -0.061712228 -0.006615562
0002b0 ea 09 68 3c bf cc 3e 3d 57 f2 d0 3c a2 18 3d 3d
       0.01416252 0.04658198 0.025506182 0.04616607
0002c0 5a 00 52 3d c8 57 1b bc 6a c5 6b 3d 09 9c 45 3d
       0.051269867 -0.009481378 0.057561316 0.04824451
0002d0 3c a4 86 bc c6 f7 99 bd a0 ba 21 3d c7 1e 4d 3d
       -0.016435735 -0.07517962 0.03948462 0.05007818
0002e0 99 1a 51 3d 00 5c b5 39 aa f5 06 bd 66 9f f1 bc
       0.051050756 0.00034591556 -0.032949127 -0.029494952
0002f0 f6 b4 13 3d fd db b2 bc 84 45 14 bd 4c 74 27 3d
       0.03606125 -0.021833414 -0.036199108 0.040882394
000300 2d 2b 7f bd 00 27 17 bc 51 ce e7 bc d4 2f 37 bd
       -0.062297035 -0.009225607 -0.028296622 -0.044723347
000310 f9 5a 18 3c 09 b0 2d bc 9d 6e 91 3c b9 90 a8 3d
       0.009299033 -0.010601052 0.01775294 0.08230729
000320 cc 0e 91 3d d0 99 04 3d 9f cc bd 3c 00 89 49 3c
       0.070829004 0.03237325 0.02316886 0.01230073
000330 f5 81 6e bc 18 42 4d bd 71 66 57 3c 1c d9 42 bd
       -0.014557351 -0.05011186 0.0131469825 -0.047570333
000340 14 a2 e0 39 f8 ac e5 3c 57 df 43 3c 32 6c 85 3d
       0.00042845367 0.02803658 0.011955104 0.06514777
000350 10 31 68 bd 2e 16 3f bd 00 87 dc 3a bd 2e d0 3b
       -0.056687415 -0.04665201 0.0016824901 0.006353228
000360 7b cd a5 bd 34 16 1f bd 9f ce 68 3c 96 d0 62 bd
       -0.08095833 -0.038839534 0.014209419 -0.055374704
000370 68 b0 e8 3b 70 c3 1c bd 5c 4b a6 3c 55 6d b6 bc
       0.0071011074 -0.03827232 0.020299606 -0.02226893
000380 e2 4b 03 bd f5 1b 90 3c 6c 6f 2f 3d 2a 33 29 3d
       -0.03205479 0.017591456 0.04283087 0.04130856
000390 71 f6 bc 3b a6 12 0b bd cc fa c6 bc ff 8c 16 3d
       0.005766683 -0.03395333 -0.024289511 0.036755558
0003a0 13 e4 38 bc 61 28 0a bd d7 3f 9e bc 80 38 1f 3c
       -0.011284846 -0.033729915 -0.01931755 0.0097180605
0003b0 27 1c f5 bc fb c5 9a 3d b2 76 2c bd a8 f7 34 bd
       -0.02992065 0.07557293 -0.042105384 -0.044181496
0003c0 27 c5 53 bd 4c 92 24 3d 7a b1 b3 bc 7c 3d 85 3d
       -0.05170169 0.040178582 -0.021935213 0.06505868
0003d0 39 82 71 bd 13 cf 60 3b a6 03 75 3d c4 b0 71 3d
       -0.05896208 0.0034303113 0.059817933 0.059006467
0003e0 22 26 19 3d 08 5c 0a bd 2d 49 6c 3c 9c 88 b4 3c
       0.037389882 -0.033779174 0.014421743 0.022037797
0003f0 47 05 ec 3b 31 8d 0c 3c 80 1d 0f bd 3a 79 71 bd
       0.0072027775 0.0085785845 -0.034940243 -0.0589535

lin3.weight f4 [128, 256]
000000 65 ac 86 bc a2 ec d6 bc 42 89 12 3e 80 d4 79 3c
       -0.016439626 -0.026235882 0.14310172 0.015248418
000010 6c 1f 4a bd 21 65 67 bd 32 80 cd bc bc 99 18 3d
       -0.049346372 -0.05649293 -0.025085542 0.037255988
000020 b0 42 26 bd 6b e4 bb 3c 78 a0 76 bc 35 b9 27 3d
       -0.040590942 0.022936067 -0.015052907 0.04094811
000030 08 f2 54 3c 22 0e 5c bc 30 b7 6f be 2c 4d 25 3c
       0.012997158 -0.013431104 -0.23409724 0.0100892
000040 60 b7 16 3c 9e c5 6d bd a4 b2 23 3b fc 9b 43 3d
       0.009198993 -0.05804979 0.0024978304 0.04775618
000050 d1 d1 04 bc 9a 4d 2b 3d 1c 38 aa 3c 48 84 93 bc
       -0.008106665 0.041822053 0.020778708 -0.018007413
000060 61 2f 66 bd 10 4b a1 3d 3e c7 01 3d a6 28 d6 3c
       -0.056197528 0.07875645 0.031684153 0.02614243
000070 6a 89 57 3d a0 1c 76 3d 50 a9 01 3c 80 01 3e 3d
       0.052621283 0.060085893 0.007913902 0.04638815
000080 29 2a d2 3d 70 ba c5 bc 27 c5 31 bd 38 35 25 bc
       0.10261948 -0.024136752 -0.04340091 -0.010083489
000090 a2 96 55 3d 0f da 5a bd 88 bb dd 3c 97 1c c4 3b
       0.052145608 -0.053430613 0.02706696 0.0059848535
0000a0 88 9c 4b 3d 68 cf 37 bd 97 0a e3 3c 32 18 ed 3c
       0.049709827 -0.044875532 0.02771501 0.028942201
0000b0 ad 16 f7 3c 74 ba 93 3c 7c 92 49 3d 11 f7 3c 3d
       0.03016218 0.018033244 0.049211964 0.04613406
0000c0 3e 0f c1 bc 8c 1c 60 3d 47 40 60 3c de a7 37 3c
       -0.023566838 0.054714724 0.0136872 0.011209456
0000d0 3a 5d 60 bd 90 0f 17 bc d0 f8 52 bd 20 8a 83 bc
       -0.054776408 -0.009220019 -0.051506817 -0.016057074
0000e0 6d 49 65 3d 1a b8 59 3d 10 75 01 bc e8 04 30 3d
       0.055978227 0.05315409 -0.007901445 0.04297343
0000f0 d3 de aa 3c 48 8a 73 bc 18 7b 16 bd b9 f6 73 bd
       0.020858204 -0.014864512 -0.036738485 -0.059561465
000100 d6 38 bf 3b e1 33 38 bc 65 b6 d4 3c a5 80 86 bc
       0.005835633 -0.011242838 0.025965879 -0.016418764
000110 28 86 61 bd d9 bc a3 bb a8 1d ee bb df 5e 42 3d
       -0.055059582 -0.0049968776 -0.007266719 0.047453757
000120 2e 8b 53 bb 09 f7 92 3c 80 60 51 bb a0 0b 37 bc
       -0.0032279002 0.017940061 -0.0031948388 -0.011172205
000130 3e 9a 02 3d c6 29 a5 bc 9a f5 c3 bc 19 86 7f 3d
       0.031885378 -0.02016152 -0.023920823 0.062383745
000140 00 5f e6 3a 72 4e 3a bd 05 a7 51 bf e2 99 eb bc
       0.001757592 -0.045484968 -0.81895477 -0.0287599
000150 83 75 52 3d 02 5e 56 3d 41 7c 96 bc 0b 67 75 bd
       0.0513816 0.052335747 -0.018369796 -0.059912723
000160 9a 9b 27 3d f8 ed 42 bd cd 14 74 3b bc f6 af 3c
       0.040919878 -0.047590226 0.0037243844 0.021479957
000170 2e fc 35 3d 09 30 73 3d 04 c1 d7 3c 38 ef c0 bc
       0.04442995 0.05937198 0.026337154 -0.023551568
000180 98 e8 11 3c f0 a5 0b 3d 84 db 26 3d 6a 50 99 3d
       0.008905552 0.034093797 0.04073669 0.07486041
000190 96 28 85 bd ec 66 91 bc 3f 8f 5d 3d a0 d7 37 bb
       -0.06501882 -0.017749272 0.05409169 -0.0028052106
0001a0 2e 42 92 bc 81 56 58 bc 86 26 45 3d bc 96 08 bc
       -0.017853823 -0.013204218 0.048132442 -0.008336719
0001b0 b0 8d 7c bc 4b 80 89 3d 48 a8 07 3e 1d d9 4d 3d
       -0.01541464 0.06713923 0.13247788 0.050255883
0001c0 80 b2 07 3d 6e 96 14 bd 59 a8 7e bd e7 b7 47 3d
       0.033129215 -0.036276273 -0.062172268 0.048759367
0001d0 c0 de ee 3b 58 c4 66 bd 3c 26 0e bd 38 c3 00 be
       0.0072897375 -0.05633959 -0.034704432 -0.1257447
0001e0 ec c2 fb bb 90 df 45 3e f6 aa 3e bd be 93 71 bc
       -0.0076831486 0.19323564 -0.04654976 -0.014744697
0001f0 b5 6f 0a 3d d4 14 9e 3c 4c 79 4a bd 72 58 04 bb
       0.03379794 0.019297041 -0.049432084 -0.002019432
000200 db ad 83 3d bb 36 bb 3c f2 53 61 bc ae 5e 39 bd
       0.06429645 0.022853246 -0.013752924 -0.04525631
000210 95 aa 91 bc 3b f6 ed 3c 9b 31 48 3d d0 e5 8e 3b
       -0.017781535 0.029048076 0.048875432 0.004360892
000220 11 90 87 bd cc 07 80 bd d6 c6 6b 3c 50 be 3d bc
       -0.06619275 -0.06251487 0.014390668 -0.011581019
000230 6a f5 20 3d 6c 4f 6b bd f7 fb 2e 3d 26 c5 8a 3d
       0.039296545 -0.05744879 0.04272076 0.06775884
000240 0c c5 d0 bc 6d 0f ea bc d1 bd b0 3b 38 51 95 bc
       -0.025484584 -0.028571809 0.0053937216 -0.018227205
000250 22 25 fd bc 7d 40 5a bd 58 84 da bc 80 49 50 3b
       -0.030901495 -0.053284157 -0.026674435 0.003178209
000260 b1 1e 88 3b fe 2b 62 3d ee 86 a2 3c 30 2f 48 bd
       0.0041540493 0.055217735 0.01983973 -0.048873127
000270 8b 22 3d 3c 02 64 56 bd 70 c2 f4 bc 7c a7 2c bd
       0.01154388 -0.05234147 -0.029877871 -0.042151913
000280 73 4c 99 3c 44 f0 5d 3d 28 ad d7 3c 5e 09 12 3d
       0.018713212 0.054184213 0.026327685 0.035653464
000290 f8 a5 bf bc f6 5b df 3c 00 39 47 3d d8 46 58 3d
       -0.02339457 0.02726553 0.048638344 0.052801937
0002a0 f7 90 57 bb e0 94 33 bd 0a 94 74 bd 8b 91 20 3c
       -0.0032892802 -0.04384315 -0.059711494 0.009800325
0002b0 8c 9d 6d bd 9e 34 28 3c 8d 79 66 bd 20 d6 e3 3b
       -0.058011577 0.010266451 -0.056268264 0.006953016
0002c0 f4 cc a1 3d 6a 31 5b 3e 40 45 bc bc 6b 7a d3 3c
       0.0790042 0.21405569 -0.02298224 0.02581521
0002d0 ef 33 c6 bc 85 35 1a bd 50 50 28 3d d5 b0 64 bd
       -0.024194686 -0.037648696 0.041092217 -0.055832703
0002e0 6b dc 96 bc 60 1e 27 3b 60 ad 13 bc 3f 33 64 3d
       -0.01841565 0.0025500283 -0.009013504 0.055712935
0002f0 7c 5b 31 bc eb f7 66 bd 68 6f 81 bd 3d 59 51 3d
       -0.010825034 -0.056388777 -0.06320077 0.051110495
000300 7c 9b 46 3d 40 0e d6 3a fb 7b ab bb 00 fb 62 3d
       0.048488125 0.0016331151 -0.0052332855 0.055415154
000310 9a 93 15 bd 8b d4 e3 bb 2d 90 1e bd 97 9c d5 3c
       -0.036517717 -0.0069528273 -0.038711715 0.026075644
000320 fd c5 04 3d 88 6c 3b bd d3 a8 66 3d 58 c5 4b bc
       0.03241538 -0.0457578 0.056313347 -0.012437187
000330 39 7b 24 bd 42 50 7a bd 85 27 28 3a 29 d7 6b bc
       -0.040156577 -0.061111696 0.000641458 -0.01439456
000340 9c e3 1d 3d 50 27 8d 3b a1 9c 34 bd 17 0d fc bd
       0.038547143 0.004307665 -0.044094685 -0.12307184
000350 66 7b 5f 3d 9e de 42 bd b0 3b 7f bd 6b 9f 98 bc
       0.05456104 -0.047575586 -0.06231278 -0.018630704
000360 f5 bc 88 bc de 37 e7 3c 48 44 1a bd 38 9a 36 bd
       -0.016691664 0.028224882 -0.037662774 -0.04458067
000370 1d 67 27 3e 26 4c 32 3d 00 00 ec ba da 4d 41 bd
       0.16347928 0.043529652 -0.0018005371 -0.047193386
000380 00 c8 5a 3c c9 75 2c be f8 64 f1 3c 4e 6b 85 bd
       0.013353348 -0.16841806 0.029467091 -0.06514607
000390 02 a3 68 bd a4 75 ac bc f0 c3 9d 3c 2c b3 77 3c
       -0.05679608 -0.02105219 0.01925847 0.0151184015
0003a0 77 f8 e9 3c 02 6f 2a bd 7e c8 23 bc 88 69 ca 3c
       0.02856086 -0.04160977 -0.0099965315 0.024708524
0003b0 27 9c 93 bc 4b f8 9c bb ec b3 f0 bc bb 62 61 bd
       -0.018018795 -0.004790341 -0.029382668 -0.055025797
0003c0 45 d0 08 3d cc 3d d1 3b 64 a9 b1 bc d3 14 2e bd
       0.033401746 0.0063855406 -0.021687217 -0.04250033
0003d0 0f f7 40 3d a7 80 76 bd 60 9a 68 bd 45 f9 04 3d
       0.047110613 -0.060181286 -0.05678785 0.032464284
0003e0 4a 06 31 bd e3 d7 dc bc fc ed d6 bb 7a 2c 75 bd
       -0.04321889 -0.026958412 -0.0065591317 -0.05985687
0003f0 b0 35 0f 3d ae 5f a9 3d f6 11 44 bd e0 29 37 bd
       0.03496331 0.082702026 -0.04786869 -0.04471767

lin3.bias f4 [128]
000000 b2 69 a0 bc 36 e3 ec bc 0e e7 8a bd 66 6f a3 ba
       -0.01958165 -0.028916936 -0.067823514 -0.0012469112
000010 e4 57 4b 3d da ff 52 bd b9 73 b2 bb ec e5 77 3d
       0.049644366 -0.05151353 -0.005445924 0.060522005
000020 de 2a 0c bd 7b 19 95 3d 69 26 43 ba e8 58 ce bc
       -0.03422057 0.07280251 -0.0007444383 -0.025188878
000030 44 a7 ca 3c 16 1d 20 bd 2f fe 05 3b af 67 27 bd
       0.024737962 -0.03909024 0.0020445695 -0.040870365
000040 80 8c e1 bb 60 1b 10 3b 00 d3 b2 bc 38 97 6b bc
       -0.006883204 0.0021988973 -0.021829128 -0.014379315
000050 14 c0 39 bd e5 fd 44 3d 31 d0 47 3d c6 08 3b bd
       -0.045349196 0.048093695 0.04878253 -0.045662664
000060 35 18 69 bc 7a 5d 6c bd 15 8b a5 3c 8c 3f 49 bd
       -0.014226963 -0.057706334 0.020207921 -0.04913287
000070 8c 58 b9 bc 84 04 c7 3d c9 22 8b bc 29 f7 bd 3d
       -0.02262523 0.09717658 -0.01698436 0.09275658
000080 a8 f9 aa 3c 11 b5 4e 3d 40 22 df 3c f2 20 bc 3c
       0.020870999 0.050465647 0.027238011 0.022964928
000090 5d 13 85 bb 10 f3 20 3c ed 8a cb bc 5a 52 5a bd
       -0.004061146 0.009823576 -0.024846518 -0.053301193
0000a0 98 16 83 3d 84 91 97 3d 47 a6 cc 3c 01 2b c0 3c
       0.06400794 0.07400802 0.024981631 0.023458006
0000b0 aa 39 ec 3c 6b 49 08 3d 7a b3 da 3b 2a 4b 34 bd
       0.02883609 0.03327314 0.0066742273 -0.044016995
0000c0 ab c0 b6 3c d9 a9 94 3d 7d 5c 89 bb 1d 49 1c bc
       0.022308668 0.07258958 -0.0041919337 -0.009538916
0000d0 88 44 29 bd cc 42 d3 bc cd 89 b2 bb 3b e6 85 3b
       -0.041325122 -0.025788687 -0.005448556 0.0040862835
0000e0 a4 c5 7e bd d7 43 90 3c fe b4 2e 3d e7 fa 0c 3c
       -0.062200204 0.017610474 0.042653076 0.008604742
0000f0 c1 da 86 3c 20 ec 40 3c f2 23 e0 bc b6 5d 51 bd
       0.016461732 0.011775047 -0.02736089 -0.05111476
000100 f4 47 4e bd f7 69 9c 3d 49 2e fa bc 28 e9 46 3d
       -0.05036159 0.07637399 -0.030539649 0.0485622
000110 cb 10 44 3d 48 8c f2 bc 74 48 e6 bc 5d c6 42 3d
       0.047867578 -0.029607907 -0.02811072 0.047552455
000120 44 99 85 3c 60 2d 5d bb 86 0d 1c bd f7 75 69 bc
       0.016308434 -0.003374897 -0.038098834 -0.014249316
000130 8b 76 0a bd 43 ec 88 3d 00 a6 b5 3a 0e 87 6a bd
       -0.033804458 0.06685688 0.0013858676 -0.057257704
000140 f0 a0 49 bd e4 8b 15 3c c0 01 d6 bb 22 48 43 3d
       -0.049225748 0.009127591 -0.0065309703 0.047676213
000150 00 bd 7f bb 74 6c 05 bd 81 76 4f bd e3 87 28 3d
       -0.0039022565 -0.032574132 -0.050650124 0.041145217
000160 02 1a 93 bb 57 89 05 3d f5 5a 3a 3d 2e ae 4f 3d
       -0.0044891844 0.03260168 0.0454969 0.05070322
000170 aa 88 6e bd 36 b6 06 bd 1d dd 22 38 a0 7b 26 3b
       -0.0582358 -0.032888614 3.8829738e-05 0.0025403276
000180 08 c9 a6 3c 2f ff 6e bd ca 98 b7 bb 4b 46 14 bd
       0.020359531 -0.05834883 -0.0056029307 -0.03619985
000190 d9 1b 58 3d ec e6 e6 3d 8d f1 ae 3d 55 a5 c7 3c
       0.052760933 0.112745136 0.08542166 0.024370829
0001a0 26 af 11 bd 3b 18 98 bc fe de 9b 3d eb 8d 49 bd
       -0.035567425 -0.018566241 0.07610892 -0.04920761
0001b0 ea 8e 76 bc fa a3 2b 3c d7 44 12 bd 8c 46 40 bd
       -0.015048722 0.010476107 -0.035710182 -0.04694228
0001c0 7a ee 9e bc 56 1b c0 3a 58 c0 8c bc c8 70 6c 3d
       -0.019400824 0.0014656584 -0.01718156 0.057724744
0001d0 b7 3f 82 bd 70 42 15 bd 84 4a db bc 04 90 38 3c
       -0.06359809 -0.036440313 -0.02676893 0.011264805
0001e0 42 4e 82 3c 4e c1 5b bd 78 dc b8 38 b5 be 86 bd
       0.015906457 -0.053651147 8.814869e-05 -0.06579343
0001f0 90 d0 c2 bc 38 98 df bc 02 45 0f bc 3e 73 14 bd
       -0.023781091 -0.027294263 -0.00874448 -0.036242716

lin4.weight f4 [64, 128]
000000 bc bd 48 bc 29 76 f3 3a fd cc a4 3d ee 33 81 bd
       -0.012252267 0.0018574643 0.08046911 -0.06308733
000010 2c 03 84 3c 9c b6 8d 3d 4d bf 51 bd a4 2e a6 3d
       0.016114794 0.069195956 -0.05120783 0.08114365
000020 ab a9 4f 3d aa e0 fc bc c7 15 9f bd 26 7e 4b bc
       0.050698917 -0.030868847 -0.077678256 -0.012420213
000030 1e 94 b5 3c 8d 80 5f bd 67 e8 1a 3c af 31 ab 3c
       0.022165354 -0.054565955 0.009454823 0.020897714
000040 88 dc 9d bd 07 d9 0d bc 66 52 44 3d eb a6 82 3d
       -0.077080786 -0.0086577 0.047930144 0.06379493
000050 53 40 92 bd 58 2b 89 3d 99 63 9f bd 9e 15 73 3d
       -0.07141175 0.0669772 -0.077826686 0.059346788
000060 3d c3 d9 3b 75 a1 38 bd ed 3e 69 3a 9b 53 cc bb
       0.0066455887 -0.045075852 0.00088976213 -0.0062355525
000070 45 47 1f 3c e2 b1 ae bd e9 a6 4c 3d c6 cc 8a 3d
       0.009721582 -0.08530022 0.049963865 0.06777339
000080 c3 d7 9d 3d c6 09 92 bc a4 bb c7 3c a6 3a b0 bc
       0.07707169 -0.017826926 0.024381466 -0.02151234
000090 d3 1b 17 bc 09 72 2c 3d b2 da b2 bd 38 4c 73 3c
       -0.009222942 0.04210094 -0.08733119 0.014849715
0000a0 0f ea ab bc b1 87 32 bd ae 48 39 3c 2e 43 a6 3d
       -0.020985631 -0.043586437 0.011308832 0.08118282
0000b0 57 bf 84 3d 36 98 ab 3b 2a 2e 00 bd 4a f5 91 3d
       0.06481808 0.005236651 -0.031294025 0.07126863
0000c0 0f 69 af bd c3 ea b1 3d 85 39 a8 3d 08 71 21 bd
       -0.0856496 0.08687355 0.08214096 -0.039414436
0000d0 da 0d aa 3d 17 ac 88 bd ed 30 5a 3d 47 a9 80 bd
       0.08303423 -0.066734485 0.053269316 -0.06282287
0000e0 75 ca 67 3b 1a a2 ae 3d e5 d3 08 bd 30 84 17 bd
       0.0035368477 0.08527012 -0.033405203 -0.0369913
0000f0 de 35 9c 3d 37 29 5a bd 7c 62 db 3b 98 73 fc bc
       0.07627462 -0.05326196 0.00669509 -0.030816838
000100 eb 19 1c bc 12 46 96 bd 8c 51 1e bc 66 8d 5b bd
       -0.009527664 -0.073375836 -0.009662997 -0.053601645
000110 06 fa 80 bd 5e 4f 21 3d 16 5b 30 3c e6 aa 28 bc
       -0.06297688 0.03938233 0.010763904 -0.010294652
000120 71 e3 82 3d 70 e6 fb 3c b8 15 ad bd 90 8f 2b bd
       0.06391037 0.03074953 -0.08451408 -0.04188496
000130 14 da 0f 3d 7d 4e 9b bd bc 6c be bb a4 6e 13 3d
       0.035120085 -0.0758333 -0.005811302 0.035994187
000140 96 99 4e bd c6 85 9a bd e5 5b b4 3d c8 84 76 bd
       -0.05043944 -0.075450465 0.0880659 -0.060185224
000150 48 56 52 3d 85 50 9b bd f0 7d 73 bc 0b 59 00 3c
       0.051351815 -0.07583717 -0.014861569 0.0078337295
000160 1a c5 4d bd 1c c8 87 bc fe c2 a4 bd b2 7a 63 bd
       -0.0502368 -0.016574912 -0.08045004 -0.055536933
000170 46 5f e1 bc e8 3c 49 bd d6 96 ac 3d e5 96 b2 3d
       -0.02751125 -0.04913035 0.08427207 0.08720187
000180 bd 89 25 bd 7e 12 31 bd 54 48 83 bd ff 05 25 3d
       -0.04041456 -0.043230526 -0.0641028 0.04028892
000190 b0 d5 59 bd 28 a5 e7 bb b3 6a 84 ba 70 c2 4d 3d
       -0.053182304 -0.0070692487 -0.00101026 0.05023426
0001a0 0c c3 55 3d 96 16 b1 bd da e8 9c 3d e0 b2 b1 3d
       0.052187964 -0.08646886 0.076616004 0.08676696
0001b0 ee f2 8f 3d 98 55 a6 3d 68 fa a6 bd 1c 52 9d bd
       0.07028757 0.081217945 -0.0815323 -0.07681677
0001c0 53 4f 42 bd 41 b3 6f 3c 7b 52 3d bd 07 f6 74 bc
       -0.04743893 0.01463014 -0.046221238 -0.014951236
0001d0 15 6c a7 3d ea 5b 69 3c 50 3b 0c bd df c8 46 3d
       0.08174912 0.014243105 -0.034236252 0.04853141
0001e0 38 8e 78 bd 12 2d ed 3c 23 8a 01 3d 29 7f 06 bd
       -0.060682505 0.028952155 0.031625878 -0.032836113
0001f0 41 b5 19 bd 86 d2 06 3d eb 9b 74 bc e0 0c 8c bc
       -0.037526373 0.032915615 -0.014929752 -0.017095983
000200 e0 75 28 bc 7b 7e fd 3c 2e 3b 0a bc 79 37 87 3d
       -0.01028201 0.0309441 -0.008436961 0.066023774
000210 d9 fe 04 bd 35 38 1b bd 27 96 50 bd b2 ac 54 bd
       -0.032469604 -0.0378954 -0.050924446 -0.051922508
000220 39 cf d9 bc c8 cf 86 3d c2 32 ab bd 43 46 82 bd
       -0.02658807 0.065826 -0.08359291 -0.063610576
000230 31 49 2f 3d 10 93 83 bd 66 df 78 3d 7a 71 6e bc
       0.04279441 -0.06424534 0.060759924 -0.014553422
000240 e0 94 1a bd 4e 33 95 3d 5b ec 9c bd 14 0b 7b 3c
       -0.037739635 0.07285176 -0.07662269 0.015322465
000250 6a 7a 3e bd f3 b8 ef 3c 36 bf 71 3d 3f 73 85 3b
       -0.046503462 0.029262995 0.059020244 0.0040725763
000260 15 c0 95 3d 11 64 bb bc 4c 5c 10 bd d6 7e 5b 3d
       0.07312027 -0.022874864 -0.03524427 0.053587757
000270 af e2 1e 3d 7c 81 0a 3d 0f 04 90 bd 86 df 74 3d
       0.0387904 0.033814892 -0.07032024 0.05978348
000280 7f 7b e8 bb f9 80 54 bc b5 06 9c 3c fb 91 83 bc
       -0.0070948 -0.012970203 0.019046167 -0.01606082
000290 33 73 48 bd 82 6a de bc 9b 9b a6 bd be 14 43 bc
       -0.048937988 -0.027150396 -0.08135148 -0.011906801
0002a0 2b 86 c0 bc 47 bc 98 bc 79 79 7b 3d 13 dd a4 bd
       -0.023501476 -0.018644465 0.061395142 -0.08049979
0002b0 61 ec 48 3d 65 4c 94 bb f3 23 a4 bc c1 94 a0 3d
       0.049053553 -0.0045257085 -0.020036673 0.078408726
0002c0 30 28 ed 3b 1b 99 8b bd e7 7b 44 3c a5 c8 19 3d
       0.0072374567 -0.06816312 0.011992431 0.037544865
0002d0 fc 67 0e 3d e2 3f 92 bd a1 84 a1 3d 6d 1d 4f 3d
       0.034767136 -0.07141091 0.07886625 0.050565172
0002e0 05 d1 b4 3c 4a 93 da 3c 24 c0 83 bd bb a1 a8 bc
       0.022072325 0.026681561 -0.06433132 -0.020584932
0002f0 5b ed f2 3c b2 7b f9 bc dd b8 0f 3d 0e 7a 61 bd
       0.029654196 -0.03045449 0.03508841 -0.05504804
000300 1d f0 0e bd 87 0e 82 3d f1 70 17 3d b5 93 9d bd
       -0.03489696 0.06350427 0.036972944 -0.076941885
000310 b2 5e a8 bd 47 f6 51 3c af 0b a8 bd b4 b2 a4 3d
       -0.08221187 0.012815065 -0.082053535 0.080418974
000320 d4 0d 15 bc 23 25 11 bd eb a9 6d bd 82 f2 c0 bd
       -0.009097535 -0.035435807 -0.058023375 -0.09421255
000330 e0 a4 37 3b f1 c4 49 3d 99 37 81 3d ff 9e 81 3c
       0.0028021857 0.049260084 0.063094325 0.015822886
000340 d3 4c 45 3d 2d ac 03 3b ff bf cb bb ad 70 4b 3d
       0.04816897 0.0020091638 -0.006217956 0.049668003
000350 91 a9 7e bd 77 41 82 3d 8f 13 6e bd 9f d3 83 3d
       -0.06217343 0.06360143 -0.05812412 0.06436848
000360 2e 6f 91 3d be 15 72 3c cd 03 a4 bd 9d ad 58 bd
       0.07101284 0.014775692 -0.080085374 -0.052899946
000370 75 09 2a 3d 3b 3a 19 bd 14 21 01 3d 17 32 03 3d
       0.041512925 -0.03740905 0.031525686 0.03203019
000380 83 b6 c7 bc 00 08 7c bd 87 d1 a4 bd ff 44 59 bd
       -0.02437902 -0.061531067 -0.08047777 -0.053044315
000390 91 58 91 3c b6 84 15 bd 46 f2 00 3c 6d 93 a4 bd
       0.017742427 -0.036503516 0.0078702625 -0.08035932
0003a0 54 a9 7f bd c3 99 a2 3c 4d 33 1d 3d f0 bc 7b 3d
       -0.062417343 0.01984871 0.038379002 0.06145948
0003b0 cd 06 1b bc 8b af d1 bc 0a 1c 91 3d 1a 52 d2 bc
       -0.009462071 -0.0255964 0.07085426 -0.025673915
0003c0 94 7f c4 bd f0 52 f3 3c 69 b2 50 3c cf 69 1f 3d
       -0.09594646 0.029702634 0.012737849 0.038919266
0003d0 a4 74 3b bd 00 f5 9e bd 22 54 e5 3c 63 6d 55 3d
       -0.045765534 -0.07761574 0.02799422 0.052106272
0003e0 ab a8 84 3d 51 7c 2d 3d ac b4 07 3c 54 21 b2 bd
       0.06477483 0.042354885 0.008282822 -0.08697763
0003f0 ab 9f a3 bd 03 5d b3 bd ec 0e 73 3d 6a d6 51 3c
       -0.079894386 -0.08757975 0.059340402 0.012807468

lin4.bias f4 [64]
000000 cb c2 7d bd 7d 6d 54 bd 9b 28 6a 3d 0f 80 45 bc
       -0.061953347 -0.05186223 0.05716763 -0.012054457
000010 8c 6d 96 3d cc 2b 93 bb 4d dc 2a bc 4b be c2 39
       0.07345113 -0.004491305 -0.0104285 0.00037144343
000020 52 5e 12 bc cf 4e 1d 3d b0 67 1b 3c 76 18 d8 3d
       -0.0089336205 0.038405236 0.00948517 0.105515406
000030 3b 14 5b bd 57 19 9a 3d 16 1b 0c 3e c6 a1 e2 3d
       -0.05348609 0.075243644 0.13682207 0.11066012
000040 24 31 f8 3c 46 e2 09 3e b0 8f 97 3b 60 b0 6f 3d
       0.03029687 0.13465223 0.004625283 0.058517814
000050 93 51 32 bc 2d be fb bc bd f4 2c bd b7 71 9e bd
       -0.010883707 -0.030730331 -0.042225588 -0.07736533
000060 d2 a5 91 3d 85 01 7e bc 3e b7 db bd 48 2f 9c 3d
       0.07111706 -0.015503292 -0.1072831 0.07626206
000070 f3 5a 76 3d 21 18 35 bd 6a 44 2c 3d bf 53 05 bd
       0.06014533 -0.044212464 0.042057432 -0.03255057
000080 2d 66 7f 3c 93 ae 03 bd 99 29 f0 bc 43 0f 98 3d
       0.015588325 -0.03214891 -0.02931671 0.07424786
000090 67 ac 6b 3d ab ad de 3c 64 39 2f 3d 4d 34 d3 bb
       0.057537463 0.02718242 0.04277934 -0.0064454437
0000a0 b3 97 11 3d d1 40 d4 3d d4 da 0b 3e fa 6e a0 3d
       0.035545062 0.10363925 0.13657695 0.07833667
0000b0 13 d5 33 3d 37 35 5a bc 1f 1b 44 bc fb d8 b7 bd
       0.043904375 -0.0133183515 -0.011969357 -0.089769326
0000c0 e2 ce 72 bd ef f3 67 bd e5 83 ef 3d 35 9f 03 bd
       -0.05927933 -0.056629118 0.11695079 -0.032134254
0000d0 a7 77 94 bc 71 ab 03 bd 3b f2 1f 3d e0 08 18 3d
       -0.018123461 -0.03214592 0.03904937 0.03711784
0000e0 90 5c 7b bc 0d f3 d7 3d 10 97 98 3d 15 b1 c8 3c
       -0.015341893 0.10544405 0.07450688 0.024498502
0000f0 78 04 da bc c7 6a 6b bd d3 b3 5d bd 58 35 d5 3c
       -0.026613459 -0.057474878 -0.054126572 0.026026413
