src/virtuose_teleoperation/network_controller/Tomato_demonstration/Place_and_release_skill_tomato.pth (torch, 462279 bytes, 10 tensors)

lin1.weight f4 [256, 27]
0.23060752 0.09856892 -0.083329596 0.14175165 -0.2427229 0.07837469 -0.08719522 -0.55474794
-0.042585745 -0.1474434 0.13225453 -0.9404182 -0.13457453 0.37408063 -0.21469796 0.033070404
-0.31587923 -0.13533552 0.14151196 0.0151005965 0.023701288 -0.20583132 0.06533137 -0.035369065
0.24824305 0.033135608 0.02412145 -0.007015844 -0.15218578 0.009447816 0.1321136 0.12667935
0.06812152 -0.091929965 -0.0893709 -0.11987285 -0.04887004 -0.13116537 0.18114708 -0.05324757
-0.043888263 -0.03986757 -0.10157974 0.16457835 0.12433935 0.1579358 0.03484216 -0.14695725
0.075516775 -0.1081871 -0.030982105 -0.04645619 -0.19063444 0.10879426 -0.1825511 0.16354357
-0.1564935 0.5014218 0.12141321 0.23552293 -0.06252096 -0.12638074 0.15085393 -0.2588241
-0.048703294 0.04020602 0.030240476 0.1708263 0.25424984 -0.010251178 0.08780022 -0.21362591
0.11447044 -0.10279396 -0.014164525 -0.108929515 0.010679507 0.0077265822 -0.039409928 -0.24772523
0.09530008 -0.20882343 0.13962092 0.08240372 0.7135026 -0.16657147 0.07475808 0.009388921
-0.34388685 -0.07941669 -0.05726258 -0.12040134 -0.17219305 0.010223247 0.30748847 0.1920842
-0.32131568 -0.061374795 -0.1783049 0.13276081 -0.12940182 -0.12909836 -0.016896326 0.06194691
-0.1288504 -0.06389176 -0.01009618 0.05605886 -0.1717653 0.12736171 -0.06472932 0.16561864
-0.061397478 -0.120305374 -0.17319734 0.038883068 0.041093122 -0.1841915 -0.1583341 -0.14331254
0.096100934 0.036425192 -0.12716615 0.034590464 0.109305814 0.1835988 -0.11067042 0.1290659
-0.16291589 -0.16439375 -0.04459345 -0.13330837 0.0671185 -0.03971597 0.15997116 0.22237481
0.088496655 -0.16874118 -0.3534561 0.43551347 -0.13324468 -0.01577872 0.16467355 0.14186887
-0.13209027 0.11673866 -0.5033464 0.1315352 0.16584183 0.2294343 -0.2201623 -0.13783282
-0.06433009 -0.026326329 -0.09945205 0.10140224 0.05119811 -0.08908778 -0.04189357 -0.06784563
-0.16654938 0.47785538 -0.13511837 -0.10536658 -0.11818001 -0.3598218 -0.08157632 -0.1663633
-0.095045775 0.091761224 0.01292458 -0.09866594 -0.23026298 -0.0673436 0.13579684 -0.43828782
-0.10137618 0.1317778 0.023982417 -0.034310587 -0.26145345 0.19671246 -0.116791 -0.008902383
-0.09740272 0.1362574 0.036879037 0.09290198 -0.16238202 0.0323189 0.08134908 -0.000102987375
-0.103720404 0.0676405 -0.13854332 -0.10263808 0.0018580938 -0.028094418 -0.06670266 0.10129817
-0.25378183 0.038894154 -0.32094282 -0.14966992 0.15980493 -0.19026068 -0.027103443 -0.20740816
0.08550138 0.13347228 -0.013793313 0.033609647 0.06670484 0.16654612 0.0902455 0.14500035
-0.270471 0.16735044 0.20685622 0.160516 -0.023974188 -0.17062446 0.07314845 -0.6709142
-0.6220653 0.03981539 -0.027167777 -0.07954164 0.001481956 -0.34835988 -0.060944363 0.08365398
-0.0073033655 0.0070504583 -0.2252122 0.16480517 -0.13109705 -0.05093308 0.022265675 -0.1419542
-0.078300916 0.18326838 -0.7443493 0.35374787 0.1521023 -0.20091724 -0.24475995 0.15391116
0.078482985 0.060750052 0.33678168 0.048513405 -0.18860233 0.12683585 -0.6386367 -0.17630339
00000000: 6124 6c3e 80de c93d b5a8 aabd 5827 113e
00000010: 5a8c 78be e982 a03d 6893 b2bd f603 0ebf
00000020: 646e 2ebd 67fb 16be bb6d 073e 3fbf 70bf
00000030: e8cd 09be 7f87 bf3e c8d9 5bbe d574 073d
00000040: ecba a1be 6595 0abe 83e8 103e 7e68 773c
00000050: 3429 c23c 72c5 52be 74cc 853d 27df 10bd
00000060: 6d33 7e3e 34b9 073d 599a c53c 2ae5 e5bb
00000070: 97d6 1bbe 03cb 1a3c ca48 073e 3bb8 013e
00000080: 4c83 8b3d c745 bcbd 1708 b7bd e67f f5bd
00000090: f32b 48bd 3750 06be 9f7e 393e 201a 5abd
000000a0: 2ec4 33bd 2d4c 23bd 0a09 d0bd 3a87 283e
000000b0: a1a5 fe3d ecb9 213e a7b6 0e3d f67b 16be
000000c0: 8aa8 9a3d 3391 ddbd 2fce fdbc d948 3ebd
000000d0: ad35 43be 86cf de3d adee 3abe f777 273e
000000e0: d53f 20be 2e5d 003f 7da7 f83d ec2c 713e
000000f0: fd0a 80bd f469 01be 7479 1a3e 9884 84be
00000100: 1b7d 47bd 11af 243d e0ba f73c 17ed 2e3e
00000110: 092d 823e 8ff4 27bc 9ad0 b33d c0c0 5abe
00000120: 7a6f ea3d a485 d2bd 5312 68bc 7016 dfbd
00000130: 19f9 2e3c 452f fd3b 4e6c 21bd afab 7dbe
00000140: b02c c33d cfd5 55be c9f8 0e3e 48c3 a83d
00000150: 1ba8 363f b691 2abe c41a 993d fdd3 193c
00000160: f011 b0be 38a5 a2bd 2b8c 6abd fa94 f6bd
00000170: 6053 30be 687f 273c 216f 9d3e b8b1 443e
00000180: 7d83 a4be 2364 7bbd 8f95 36be 73f2 073e
00000190: e981 04be 5c32 04be 2a6a 8abc 0bbc 7d3d
000001a0: 5cf1 03be afd9 82bd 736a 25bc fa9d 653d
000001b0: 3ee3 2fbe 1c6b 023e ce90 84bd ef97 293e
000001c0: ec7b 7bbd aa62 f6bd a55a 31be da43 1f3d
000001d0: 4351 283d b29c 3cbe 5622 22be 86c0 12be
000001e0: 91d0 c43d 9532 153d d837 02be bbae 0d3d
000001f0: badb df3d 5301 3c3e 2ca7 e2bd da29 043e
00000200: 6cd3 26be d656 28be 9fa7 36bd fd81 08be
00000210: 6d75 893d 37ad 22bd 7bcf 233e 39b6 633e
00000220: bc3d b53d 7dca 2cbe 33f8 b4be 9ffb de3e
00000230: 4b71 08be 6042 81bc 2fa0 283e 1346 113e
00000240: ac42 07be ae14 ef3d 4fdb 00bf 2ab1 063e
00000250: 71d2 293e d3f0 6a3e 3a72 61be 0c24 0dbe
00000260: 7fbf 83bd 50aa d7bc 84ad cbbd faab cf3d
00000270: 1cb5 513d a773 b6bd 9898 2bbd a6f2 8abd
00000280: ec8b 2abe 76a9 f43e 785c 0abe 6fca d7bd
00000290: 5c08 f2bd 903a b8be 7c11 a7bd 245b 2abe
000002a0: 5ca7 c2bd 4fed bb3d 9ec1 533c 5e11 cabd
000002b0: 0fca 6bbe 71eb 89bd 540e 0b3e 4367 e0be
000002c0: 519e cfbd c2f0 063e c676 c43c 4289 0cbd
000002d0: 3add 85be fe6e 493e 1f30 efbd 4ddb 11bc
000002e0: 147b c7bd 0f87 0b3e 790e 173d 6543 be3d
000002f0: 7947 26be d360 043d 599a a63d edfa d7b8
00000300: 5d6b d4bd 1a87 8a3d 4dde 0dbe ea33 d2bd
00000310: 488b f33a 4426 e6bc 679b 88bd 6a75 cf3d
00000320: b1ef 81be 7a4f 1f3d 9e52 a4be 1243 19be
00000330: e7a3 233e b2d3 42be 0a08 debc ce62 54be
00000340: 591b af3d f5ac 083e 59fd 61bc 45aa 093d
00000350: 8c9c 883d 118b 2a3e a2d2 b83d f97a 143e
00000360: 2d7b 8abe ea5d 2b3e 1ed2 533e 4e5e 243e
00000370: 8465 c4bc 2eb8 2ebe dbce 953d 08c1 2bbf
00000380: ac3f 1fbf 7615 233d f58e debc bae6 a2bd
00000390: 313e c23a 3a5c b2be cca0 79bd c752 ab3d
000003a0: 1251 efbb 8807 e73b 079e 66be b0c2 283e
000003b0: 4e3e 06be 359f 50bd 8166 b63c 715c 11be
000003c0: 3b5c a0bd b5aa 3b3e ad8d 3ebf 711e b53e
000003d0: b5c0 1b3e 40bd 4dbe 5aa2 7abe e39a 1d3e
000003e0: b0bb a03d 0cd5 783d a66e ac3e feb5 463d
000003f0: f820 41be 42e1 013e b27d 23bf e088 34be

lin1.bias f4 [256]
0.009088268 -0.17620626 0.0072730235 -0.13100111 -0.109435074 0.029448755 0.13627206 0.041569944
0.11873796 0.13033588 -0.1184543 -0.13405159 0.014921624 0.12408583 0.1891855 0.03892005
-0.069016464 -0.117672496 -0.052252445 -0.12795669 0.03399185 0.014349181 0.021872014 0.06930668
-0.088160306 -0.024041098 -0.0015831768 -0.04009237 0.10179827 -0.021681052 -0.15109333 0.09497364
-0.05495845 0.13347359 -0.043639753 0.096391745 -0.043056656 0.10286032 -0.15874031 -0.18777987
0.07655475 -0.15388483 -0.14659351 0.12223504 -0.16680884 -0.14042614 -0.036290437 0.07474668
0.19504762 -0.17440172 0.14181907 -0.14510481 -0.15282339 0.0723118 0.05471641 0.03645687
-0.095922716 0.07378297 -0.1176636 -0.0036775963 0.0849103 -0.046367247 0.049586866 -0.07023359
-0.024050793 0.023314424 0.08151003 -0.07316429 -0.034317065 -0.0010769197 0.088258125 -0.077851616
-0.17094286 -0.12356594 -0.11351982 -0.029279388 0.085296005 -0.20359078 -0.059841424 -0.019840049
0.010225174 -0.07871132 0.114879556 0.09148203 -0.13939166 0.18944292 -0.05967568 -0.15765543
-0.0164019 0.13410868 0.05807149 -0.081472196 0.15096232 -0.1299268 -0.015068911 -0.04569347
0.1317531 0.15656044 -0.1278223 0.10877342 -0.17087589 0.13689281 0.09708249 -0.051664826
-0.18587898 0.036877032 -0.13927548 -0.016617056 0.1560172 -0.04428414 0.028818503 0.11561735
-0.12229414 -0.014335162 0.15261832 0.12256254 0.20537058 -0.008412828 0.091051884 0.12966996
-0.07394219 -0.18460439 -0.021937903 0.13871375 0.0062724114 0.14898765 -0.04038536 -0.070653014
0.12428258 0.09813091 0.030462962 0.14451598 -0.1279797 0.012009599 -0.029048137 0.098529965
0.12546054 -0.05020175 0.04673037 0.079243526 0.11061328 -0.06488886 0.039875094 -0.040077116
-0.09722648 0.031256877 0.10263413 -0.13772947 0.04983453 -0.050750628 -0.07357314 -0.05647239
0.00086002913 0.016258413 -0.16028956 -0.12118627 -0.19144249 -0.006976203 -0.1772846 -0.13488908
0.044770528 -0.20919794 0.03789483 0.11145314 -0.01991633 -0.09373074 -0.12855875 -0.057052612
0.09280188 -0.166875 0.12989675 0.12236584 -0.17909315 -0.041567553 0.23261343 -0.04676462
-6.1480925e-05 0.014615599 0.13330545 -0.066345274 -0.032165606 -0.08761889 -0.1775193 0.011546464
-0.041386504 0.09638508 0.10158534 0.109399624 -0.10424004 -0.16494635 -0.007152478 -0.0147830695
0.09552047 -0.114026055 0.1499143 -0.057483874 0.051614236 -0.084778726 -0.046484087 -0.15862493
0.045565836 -0.17859557 -0.14261466 0.07226691 0.114096075 0.13846679 -0.15542373 -0.12494197
-0.1171146 -0.076037295 0.15515462 0.0036771086 0.0072429264 0.036537476 -0.17267506 -0.015214604
-0.13031797 -0.0092298 0.05917813 0.17248808 0.18189074 0.09935394 0.118472844 0.063099004
0.031157315 -0.16545348 -0.04942366 0.14999172 0.16482998 -0.1307819 -0.11973545 0.12702261
0.08436601 0.13583282 0.0063444613 0.10690729 -0.11935628 -0.16797064 0.004378311 0.026799828
0.23036635 0.027561001 -0.008068669 -0.055113982 0.20794609 -0.17087795 0.036140118 0.13852805
-0.1265963 0.19414416 0.071501546 -0.23530835 0.012525517 0.03495152 -0.059961352 0.13932562
00000000: f5e6 143c 6a6f 34be 8b52 ee3b 2825 06be
00000010: 7f1f e0bd 843e f13c e78a 0b3e 3f45 2a3d
00000020: e32c f33d c576 053e 2b98 f2bd d244 09be
00000030: d479 743c b620 fe3d d8b9 413e a16a 1f3d
00000040: 8158 8dbd 47fe f0bd a906 56bd 1407 03be
00000050: 0a3b 0b3d d418 6b3c f02c b33c a9f0 8d3d
00000060: 648d b4bd d6f1 c4bc 9982 cfba e637 24bd
00000070: 9d7b d03d 769c b1bc 36b8 1abe 8a81 c23d
00000080: 1d1c 61bd 4dad 083e 99bf 32bd 0969 c53d
00000090: 2d5c 30bd 6ea8 d23d d28c 22be 5e49 40be
000000a0: bdc8 9c3d fc93 1dbe 9c1c 16be 5d56 fa3d
000000b0: f0cf 2abe dfcb 0fbe 48a5 14bd ca14 993d
000000c0: 90ba 473e 5d96 32be 0539 113e 5b96 14be
000000d0: bc7d 1cbe 3618 943d 501e 603d cd53 153d
000000e0: 2173 c4bd 871b 973d 9df9 f0bd d403 71bb
000000f0: 74e5 ad3d 95eb 3dbd 991b 4b3d a1d6 8fbd
00000100: 2b06 c5bc e4fd be3c bbee a63d 29d7 95bd
00000110: 0d90 0cbd 6e27 8dba adc0 b43d ab70 9fbd
00000120: a50b 2fbe 2410 fdbd 147d e8bd 54db efbc
00000130: acaf ae3d 1a7a 50be 481c 75bd 9987 a2bc
00000140: 7d87 273c 6733 a1bd f945 eb3d ee5a bb3d
00000150: b0bc 0ebe 53fd 413e 7c6e 74bd 6d70 21be
00000160: 475d 86bc c953 093e 5fdc 6d3d e5da a6bd
00000170: de95 1a3e 880b 05be 98e3 76bc 1329 3bbd
00000180: 49ea 063e 6151 203e d9e3 02be 99c4 de3d
00000190: 17fa 2ebe a12d 0c3e 2fd3 c63d 7f9e 53bd
000001a0: 0f57 3ebe 5f0c 173d 3b9e 0ebe 7e20 88bc
000001b0: f9c2 1f3e 4963 35bd c814 ec3c cac8 ec3d
000001c0: 5a75 fabd 07de 6abc fa47 1c3e 1202 fb3d
000001d0: aa4c 523e f5d5 09bc 6979 ba3d 34c8 043e
000001e0: 016f 97bd ef08 3dbe 1eb7 b3bc fa0a 0e3e
000001f0: cd88 cd3b 3890 183e 1f6b 25bd 87b2 90bd
00000200: de87 fe3d dcf8 c83d 768d f93c fffb 133e
00000210: 1c0d 03be e9c3 443c 5cf6 edbc 14ca c93d
00000220: ba78 003e 5aa0 4dbd 5868 3f3d 6e4a a23d
00000230: 3789 e23d 73e4 84bd 1154 233d e727 24bd
00000240: ad1e c7bd 3607 003d d831 d23d f408 0dbe
00000250: 4b1f 4c3d e4df 4fbd 84ad 96bd 984f 67bd
00000260: 9473 613a 5d30 853c f222 24be 8230 f8bd
00000270: 8009 44be a298 e4bb 188a 35be 5d20 0abe
00000280: 4d61 373d fc37 56be 9c37 1b3d 8b41 e43d
00000290: 9227 a3bc e7f5 bfbd e8a4 03be 00b0 69bd
000002a0: e90e be3d 48e1 2abe a703 053e f19a fa3d
000002b0: 3264 37be bd42 2abd 3732 6e3e 428c 3fbd
000002c0: 52ef 80b8 4476 6f3c 3981 083e 08e0 87bd
000002d0: 15c0 03bd 8871 b3bd 9fc7 35be 612d 3d3c
000002e0: e584 29bd 8a65 c53d fa0b d03d e90c e03d
000002f0: cd7b d5bd b2e7 28be 565f eabb b034 72bc
00000300: 3ca0 c33d 7e86 e9bd 2283 193e 3674 6bbd
00000310: 7369 533d 78a0 adbd 1966 3ebd 936e 22be
00000320: 3ea3 3a3d c2e1 36be 9409 12be ac00 943d
00000330: 34ab e93d 3dca 0d3e 6627 1fbe 93e1 ffbd
00000340: c8d9 efbd 71b9 9bbd dae0 1e3e a5fb 703b
00000350: 1256 ed3b 52a8 153d bbd1 30be ad46 79bc
00000360: 1372 05be 9638 17bc c464 723d b7a0 303e
00000370: 9141 3a3e 147a cb3d e4a1 f23d 0d3a 813d
00000380: a03d ff3c a36c 29be 7770 4abd 6e97 193e
00000390: 31c9 283e b1eb 05be dc37 f5bd 3712 023e
000003a0: 16c8 ac3d c217 0b3e 33e5 cf3b 36f2 da3d
000003b0: 1171 f4bd 7f00 2cbe ef77 8f3b 508b db3c
000003c0: 28e5 6b3e 9cc7 e13c 7332 04bc 33bf 61bd
000003d0: d2ef 543e a1fa 2ebe a907 143d 4cda 0d3e
000003e0: 76a2 01be bacd 463e 676f 923d acf4 70be
000003f0: d337 4d3c 5329 0f3d 099a 75bd 60ab 0e3e

lin2.weight f4 [256, 256]
-0.036983855 -0.0422773 -0.009254917 -0.060864042 0.020196997 -0.11490442 -0.012968401 -0.03973078
-0.022622114 -0.061429966 -0.04747208 0.018383779 0.023786709 -0.044191834 -0.070825845 -0.043329913
0.029520959 -0.045860723 0.051152736 -0.04089185 -0.04225177 -0.053120445 0.056200314 -0.08419391
-0.060759164 0.0051178113 0.027678542 -0.04882847 -0.07422318 0.016620606 -0.008737589 -0.019433761
-0.034371465 -0.060141172 0.023225788 -0.032222565 -0.044028763 0.045589067 0.0036328633 0.02387499
-0.04467053 0.045467015 -0.091235735 -0.056398187 0.018476292 0.0072069964 -0.07505674 -0.058445767
0.035204753 -0.008424512 -0.043415483 -0.006513186 -0.059576143 -0.042459264 -0.032092772 -0.024548791
-0.048063554 -0.08200371 -0.047119804 -0.1061317 -0.0028377569 0.041845277 -0.08753581 -0.02053035
-0.023613716 -0.07435082 -0.016967915 -0.0694369 0.034073707 -0.012414443 -0.069951065 -0.021077357
0.006533757 -0.040900137 -0.08415155 -0.07147857 0.022259284 0.007443964 -0.045864955 0.014822251
0.026201295 -0.045579776 -0.02393537 -0.02915139 -0.07626649 -0.02355078 -0.08687088 0.045879874
-0.039323993 -0.0478547 0.03739654 0.014118431 0.033439197 0.03501598 0.018394545 -0.053542465
0.0055409027 -0.110564575 -0.037567064 -0.03836681 -0.0057481523 -0.045445785 -0.027584413 -0.035429582
0.04464989 -0.08940646 -0.0030169538 0.01861017 0.034661513 -0.01156473 -0.020652507 -0.03919889
0.042328883 0.00079739094 -0.09267367 -0.10795263 -0.02184152 -0.017199574 -0.01736454 -0.031793423
-7.759402e-05 0.027882904 0.018246941 0.018004768 -0.048262425 -0.045694567 0.003192052 -0.0013547919
-0.10869765 -0.0655044 0.0026201084 -0.011049727 0.008959137 0.020061696 -0.064633265 0.032113433
-0.017778935 -0.07362133 -0.00037789522 0.021178756 -0.0024019293 -0.05807355 -0.02371768 -0.032753643
-0.0070583746 -0.019041874 -0.0026682916 -0.06289183 0.0026892559 0.05739776 0.016524494 -0.053366475
-0.09443594 0.022839364 -0.02482805 -0.033881813 -0.031590335 0.051245708 0.02686062 -0.00083021075
0.018257108 -0.02994744 0.010825284 0.019235222 0.0339995 0.050215043 0.050426092 -0.05814057
-0.030646535 0.030394979 -0.09778824 0.02858659 -0.053738058 -0.04773641 -0.04210351 -0.05931955
-0.0051789912 -0.077293694 -0.026462179 0.0016895956 -0.049390502 -0.025339292 -0.04739195 -0.017423904
-0.00017673522 0.016680729 -0.07151574 -0.022441434 -0.020867536 0.013087879 -0.0026088578 -0.018626133
-0.017294053 -0.022988498 -0.03507447 0.040835477 -0.046806037 -0.031308383 -0.023381777 0.048191264
-0.04674514 -0.028467296 0.004039526 -0.04844625 -0.074955896 0.025713405 -0.032440037 -0.050612368
-0.022407837 -0.09941195 -0.12850942 0.015205668 0.0061484193 -0.049861446 -0.030862324 -0.034788635
0.026232429 -0.005263068 -0.03550172 -0.0024392158 0.023057118 0.011563104 0.04124497 0.0031090453
-0.009477707 0.032927547 -0.041254256 -0.06997286 -0.0011385963 -0.020019554 -0.040937826 0.05077064
-0.05441525 -0.034616005 0.016082972 0.038965523 -0.03380591 -0.031696647 -0.025876185 -0.029463094
0.019013166 -0.04447909 -0.04130756 -0.07455526 -0.018036194 0.0014316129 0.010113329 -0.025249915
-0.03492593 -0.029715031 0.009905085 -0.045694415 -0.043973707 0.0009487782 -5.854558e-05 -0.028059255
00000000: 627c 17bd f62a 2dbd efa1 17bc 934c 79bd
00000010: 2c74 a53c 0253 ebbd 6b79 54bc bebc 22bd
00000020: 0352 b9bc fd9d 7bbd 1572 42bd 9499 963c
00000030: 58dc c23c 7f02 35bd 240d 91bd b57a 31bd
00000040: f0d5 f13c 74d8 3bbd 8885 513d 367e 27bd
00000050: 3110 2dbd d394 59bd 4d32 663d db6d acbd
00000060: 9ade 78bd 50b3 a73b 1cbe e23c 5d00 48bd
00000070: 5302 98bd f027 883c 1b28 0fbc 8d33 9fbc
00000080: 18c9 0cbd 9756 76bd 0244 be3c cffb 03bd
00000090: 8157 34bd 9abb 3a3d 5515 6e3b 7c95 c33c
000000a0: 72f8 36bd 9f3b 3a3d cdd9 babd c901 67bd
000000b0: 985b 973c ab28 ec3b 59b7 99bd d464 6fbd
000000c0: dc32 103d f706 0abc 6fd4 31bd 906c d5bb
000000d0: 1d06 74bd c4e9 2dbd b673 03bd 8c1a c9bc
000000e0: 4ade 44bd 90f1 a7bd b200 41bd 945b d9bd
000000f0: a9f9 39bb f465 2b3d fa45 b3bd 442f a8bc
00000100: 8d71 c1bc 3e45 98bd 4c00 8bbc ef34 8ebd
00000110: df90 0b3d f365 4bbc 8142 8fbd 6caa acbc
00000120: 2019 d63b e786 27bd a657 acbd 5b63 92bd
00000130: 1a59 b63c 7fec f33b e4dc 3bbd 07d9 723c
00000140: 19a4 d63c dcb1 3abd 1c14 c4bc e5ce eebc
00000150: 9b31 9cbd 91ed c0bc 5ce9 b1bd 89ec 3b3d
00000160: 3212 21bd 4a03 44bd 1d2d 193d fe50 673c
00000170: 8af7 083d eb6c 0f3d 28b0 963c 584f 5bbd
00000180: 7690 b53b ae6f e2bd ecdf 19bd 8426 1dbd
00000190: ff5a bcbb 5c25 3abd b5f8 e1bc 9c1e 11bd
000001a0: cee2 363d bc1a b7bd 16b8 45bb 5b74 983c
000001b0: 3bf9 0d3d fe79 3dbc 722f a9bc 048f 20bd
000001c0: 0d61 2d3d 0008 513a b1cb bdbd 4516 ddbd
000001d0: fdec b2bc 1fe6 8cbc 1440 8ebc d239 02bd
000001e0: f9b9 a2b8 b06a e43c 9c7a 953c bc7e 933c
000001f0: d2ae 45bd 3a2a 3bbd bf31 513b 4693 b1ba
00000200: e09c debd 2c27 86bd 20b6 2b3b ea09 35bc
00000210: 58c9 123c 6d58 a43c 725e 84bd 6089 033d
00000220: 21a5 91bc c8c6 96bd 3d20 c6b9 127f ad3c
00000230: b069 1dbb 88de 6dbd 944b c2bc af28 06bd
00000240: f049 e7bb b4fd 9bbc 81de 2ebb 6fcd 80bd
00000250: 3a3e 303b ea19 6b3d 605e 873c ce96 5abd
00000260: a167 c1bd 9e19 bb3c 3264 cbbc a8c7 0abd
00000270: de64 01bd 05e7 513d ce0a dc3c 80a2 59ba
00000280: ee8f 953c 5554 f5bc 885c 313c 2f93 9d3c
00000290: 0f43 0b3d 4aae 4d3d 978b 4e3d ce24 6ebd
000002a0: 710e fbbc e4fe f83c 3345 c8bd 6d2e ea3c
000002b0: 701c 5cbd 4187 43bd bb74 2cbd 0ef9 72bd
000002c0: 87b4 a9bb 284c 9ebd 36c7 d8bc 6c75 dd3a
000002d0: b24d 4abd 5994 cfbc 101e 42bd 93bc 8ebc
000002e0: 0052 39b9 06a6 883c d876 92bd 19d7 b7bc
000002f0: 65f2 aabc 8b6e 563c 5ff9 2abb d595 98bc
00000300: 42ac 8dbc 6052 bcbc 3faa 0fbd 1a43 273d
00000310: b0b7 3fbd 383d 00bd 248b bfbc 3464 453d
00000320: d577 3fbd 3f34 e9bc 005e 843b 936f 46bd
00000330: 7a82 99bd eba4 d23c d8df 04bd ea4e 4fbd
00000340: a490 b7bc 7e98 cbbd f997 03be 3221 793c
00000350: ae78 c93b 843b 4cbd fcd2 fcbc 877e 0ebd
00000360: 64e5 d63c d075 acbb 406a 11bd 40db 1fbb
00000370: 48e2 bc3c 2c73 3d3c 7cf0 283d 20c1 4b3b
00000380: 6248 1bbc 09df 063d 39fa 28bd ee4d 8fbd
00000390: f43c 95ba 0c00 a4bc 6cae 27bd e0f4 4f3d
000003a0: 86e2 5ebd 83c9 0dbd 70c0 833c 509a 1f3d
000003b0: 1178 0abd 58d4 01bd 4bfa d3bc 965c f1bc
000003c0: 80c1 9b3c b52f 36bd 1e32 29bd 6eb0 98bd
000003d0: a4c0 93bc f5a4 bb3a 60b2 253c e9d8 cebc
000003e0: 7e0e 0fbd f06c f3bc f048 223c 112a 3bbd
000003f0: c61d 34bd 6db7 783a d68e 75b8 86dc e5bc

lin2.bias f4 [256]
-0.0009878109 0.015795946 -0.00035282297 -0.05391687 0.0068685473 -0.088893406 -0.03829603 -0.031830832
0.040121168 -0.03714827 -0.05288754 -0.042115312 0.01833595 -0.012022746 0.013813567 -0.007306539
-0.07435486 -0.024379142 -0.030316161 0.061926905 -0.06649324 0.044117916 -0.022532027 0.008956316
-0.06443869 0.013002723 -0.01374628 -0.022965668 0.014605382 0.018756427 -0.01319894 -0.020761985
-0.020697426 0.016384672 -0.030180667 -0.05763599 -0.0012548219 -0.06061987 -0.023623398 -0.024280785
0.002402331 -0.026026642 -0.017568428 -0.07086621 -0.06671406 -0.04296045 -0.043481197 -0.05414008
-0.016060386 -0.005298899 0.014048053 -0.0015574344 -0.06353936 0.06004315 -0.04359371 -0.051384587
-0.05434315 0.02913951 -0.022234164 -0.032792382 0.018942632 -0.027141878 -0.013373376 -0.011278316
0.01245422 -0.02280725 0.062488228 -0.07969216 -0.027658178 -0.074699804 -0.036166158 0.028503569
-0.04297801 -0.023107842 0.016466903 0.008432266 0.0013431774 0.020596355 -0.074831165 -0.07394278
-0.061084684 0.03387462 0.04159468 -0.027699402 -0.03500323 0.026667476 -0.06902107 -0.04525253
-0.01267326 0.06461201 0.008568073 -0.03114126 0.07046969 0.0123389615 -0.008708538 0.03173347
-0.027460435 -0.10132581 0.044121597 0.08018607 -0.034385875 0.004358126 -0.042899694 0.041531596
-0.03521383 -0.04852233 0.0026305956 0.045895994 -0.052645132 -0.05854861 -0.032684263 -0.04585688
-0.06849191 -0.010649076 -0.0067722118 -0.07697908 0.01744375 -0.05995817 -0.06485738 0.06623602
-0.046090063 0.018250603 -0.06334961 0.0069238534 0.065449834 -0.04339211 0.071022354 -0.03893786
-0.006635301 0.017108606 -0.0532741 -0.001134478 -0.027525157 -0.020326989 -0.01353765 0.01756437
0.017277725 -0.05608552 -0.07801544 -0.023776118 0.04363594 0.036175124 -0.0068868585 -0.05632693
-0.04872667 0.046149414 -0.008548727 0.06471179 -0.018888507 -0.032860976 -0.06643565 0.0050650947
-0.011473194 -0.01960585 -0.056078505 -0.017874412 -0.009359924 -0.054718673 0.049741764 -0.004006031
0.041327808 0.028916575 -0.019402374 -0.018462364 -0.025376597 -0.048343074 -0.050905924 0.0082476735
0.09114731 -0.026222395 -0.034478396 0.015053335 -0.086879976 0.008158193 0.036161236 -0.023876412
-0.014060147 -0.052993592 -0.047743637 0.09397526 0.014764362 -0.013123115 -0.06452369 0.009699842
-0.019984275 0.02305052 -0.018650632 -0.040550493 0.040399484 -0.060202163 -0.042594876 0.037207395
0.0068644388 -0.060310654 0.015048304 0.05409161 0.0016512396 0.024186261 -0.011774356 0.057873126
-0.01575538 -0.06436692 -0.009514965 -0.017054738 -0.063679524 -0.07525701 -0.013888402 -0.023434443
0.04362008 0.002394501 0.056744736 0.07756402 0.0106096 -0.013114451 -0.07547579 -0.09185253
0.013451266 -0.079048365 0.084639505 -0.035477456 0.06616292 -0.034401022 0.015409449 -0.028052513
-0.008409406 -0.0052845953 -0.053953726 0.05730543 -0.08628223 -0.05734837 0.017880753 0.012897318
0.044592462 -0.034679726 -0.09114874 -0.05890149 -0.015889782 0.0088962065 -0.036837514 -0.038990483
-0.015349452 0.02351182 -0.050709885 -0.04872553 -0.024203546 0.007411101 -0.054164916 -0.019482782
0.0039834836 -0.0886166 -0.06535225 0.008432984 0.076087765 0.05163303 -0.058142878 -0.078239374
00000000: 6f79 81ba 8066 813c 19fb b8b9 f0d7 5cbd
00000010: 8d11 e13b bf0d b6bd 4cdc 1cbd 0c61 02bd
00000020: 1856 243d c928 18bd 9ba0 58bd 1b81 2cbd
00000030: 4635 963c 0dfb 44bc 4d52 623c b16b efbb
00000040: 5c47 98bd c4b6 c7bc 9959 f8bc 11a7 7d3d
00000050: 9c2d 88bd fdb4 343d 1695 b8bc 83bd 123c
00000060: 6ff8 83bd 6009 553c 1438 61bc 7f22 bcbc
00000070: 6a4b 6f3c 14a7 993c 5e40 58bc 0a15 aabc
00000080: a68d a9bc 2639 863c 723d f7bc b713 6cbd
00000090: d678 a4ba 8a4c 78bd db85 c1bc 7fe8 c6bc
000000a0: 6d70 1d3b d335 d5bc aaeb 8fbc 4e22 91bd
000000b0: 62a1 88bd 4cf7 2fbd 5719 32bd fdc1 5dbd
000000c0: 1291 83bc 63a2 adbb ce29 663c d422 ccba
000000d0: ed20 82bd ceef 753d 518f 32bd a578 52bd
000000e0: ec96 5ebd fbb5 ee3c 6c24 b6bc 4e51 06bd
000000f0: 942d 9b3c a558 debc 011c 5bbc b0c8 38bc
00000100: c90c 4c3c 45d6 babc a8f3 7f3d a535 a3bd
00000110: 6793 e2bc 36fc 98bd f722 14bd 5180 e93c
00000120: b609 30bd a84c bdbc 99e5 863c 7d27 0a3c
00000130: 8e0d b03a b0b9 a83c 1541 99bd 506f 97bd
00000140: ef33 7abd 1dc0 0a3d 2f5f 2a3d dbe9 e2bc
00000150: 8c5f 0fbd c075 da3c eb5a 8dbd b85a 39bd
00000160: 81a3 4fbc 4d53 843d 1a61 0c3c f51b ffbc
00000170: 6a52 903d 5b29 4a3c 41ae 0ebc f4fa 013d
00000180: b5f4 e0bc e883 cfbd d9b8 343d 9838 a43d
00000190: 34d8 0cbd 9cce 8e3b 97b7 2fbd 091d 2a3d
000001a0: 613c 10bd 5abf 46bd 1266 2c3b 70fd 3b3d
000001b0: 6ca2 57bd abd0 6fbd efdf 05bd 6cd4 3bbd
000001c0: 7d45 8cbd 7679 2ebc 6ee9 ddbb 35a7 9dbd
000001d0: 32e6 8e3c b396 75bd f2d3 84bd c0a6 873d
000001e0: efc8 3cbd 4a82 953c 71bd 81bd 7ee1 e23b
000001f0: 900a 863d edbb 31bd 2b74 913d 4e7d 1fbd
00000200: f06c d9bb 5927 8c3c f135 5abd c4b2 94ba
00000210: 707c e1bc c984 a6bc 05cd 5dbc 27e3 8f3c
00000220: 048a 8d3c eeb9 65bd 8fc6 9fbd 22c6 c2bc
00000230: 99bb 323d 5e2c 143d 28ab e1bb 11b7 66bd
00000240: 9e95 47bd 2b07 3d3d f60f 0cbc 9d87 843d
00000250: 12bc 9abc 3b99 06bd 6a0f 88bd 18f9 a53b
00000260: 10fa 3bbc 739c a0bc 93b2 65bd 5c6d 92bc
00000270: 5e5a 19bc b020 60bd 05be 4b3d 0645 83bb
00000280: 5947 293d 74e2 ec3c baf1 9ebc 623e 97bc
00000290: 95e2 cfbc 6303 46bd bb82 50bd 4021 073c
000002a0: 71ab ba3d 59d0 d6bc 3839 0dbd 43a2 763c
000002b0: 21ee b1bd f1a9 053c ce1d 143d 7798 c3bc
000002c0: 885c 66bc cf0f 59bd d58e 43bd 1a76 c03d
000002d0: 39e6 713c 5502 57bc ff24 84bd 16ec 1e3c
000002e0: 10b6 a3bc 72d4 bc3c 36c9 98bc 4618 26bd
000002f0: ee79 253d 8b96 76bd f777 2ebd c866 183d
00000300: 16ef e03b 4e08 77bd 298d 763c 2a8f 5d3d
00000310: 686e d83a 4422 c63c 3ae9 40bc 5f0c 6d3d
00000320: 6d11 81bc ced2 83bd a8e4 1bbc 61b6 8bbc
00000330: 696a 82bd 5920 9abd 2e8c 63bc 97f9 bfbc
00000340: f8aa 323d 0fed 1c3b 2b6d 683d e3d9 9e3d
00000350: e3d3 2d3c ffdd 56bc 0d93 9abd 2e1d bcbd
00000360: b362 5c3c 1ce4 a1bd 7a57 ad3d cf50 11bd
00000370: 6d80 873d 16e8 0cbd ea77 7c3c 62ce e5bc
00000380: 9bc7 09bc 662a adbb 95fe 5cbd 19b9 6a3d
00000390: bdb4 b0bd 20e6 6abd a87a 923c 464f 533c
000003a0: 96a6 363d 540c 0ebd 31ac babd b042 71bd
000003b0: 4a2b 82bc 65c1 113c efe2 16bd 7cb4 1fbd
000003c0: 457c 7bbc dc9b c03c 2bb5 4fbd 6c94 47bd
000003d0: 8446 c6bc d2d8 f23b 08dc 5dbd 5b9a 9fbc
000003e0: e287 823b 9f7c b5bd 67d7 85bd 802a 0a3c
000003f0: e7d3 9b3d 287d 533d 3a27 6ebd f73b a0bd

lin3.weight f4 [128, 256]
0.008290429 -0.026654532 -0.050117895 -0.014920134 0.047076724 -0.030585652 0.059048284 -0.07214565
-0.011973691 0.05104379 0.0015966288 -0.039011445 0.018759578 0.002091037 0.019995421 0.023236493
-0.024784068 0.0025201482 -0.026793769 0.014965739 -0.035891056 -0.0032935764 0.047426183 0.086476766
-0.018432092 0.0004303691 -0.058207642 -0.03610664 0.056925286 0.026081052 0.075491965 0.03292329
0.03821762 -0.00043349742 0.057410054 -0.0111537315 0.009475797 0.047250643 0.025948007 -0.030669259
0.023395704 0.047328632 0.039233457 -0.059694402 0.022761744 -0.042537607 -0.045244437 -0.04499258
-0.029695641 0.054174677 -0.03797943 -0.03165068 0.007216837 -0.026103133 -0.06100167 -0.0034881227
0.046753157 0.026203198 0.021683676 -0.016363926 0.08684265 0.060178477 0.032549735 -0.0048640883
-0.01193056 0.009831579 0.040313397 0.10894556 -0.062160198 0.12075792 -0.045425046 0.02414174
0.047128856 0.049757082 0.0016462603 -0.0025198422 0.061495528 0.008135421 0.092694454 0.019029224
0.027025787 0.009931944 0.026035048 -0.016673984 -0.0043831877 0.03674131 -0.002807064 0.03462038
0.024148325 -0.041697927 -0.05260724 0.06299308 0.014585855 -0.014221084 -0.07274615 0.08096732
-0.15053633 -0.15917161 0.15278654 0.022276036 -0.04082923 0.025413541 0.050430495 -0.016748108
0.11323614 0.0324402 0.031004576 -0.09455307 0.028618412 -0.008478846 0.008377634 -0.052381795
0.017923648 -0.039544836 -0.034394227 -0.022670483 0.07371111 -0.015165915 -0.011285891 -0.002766275
-0.04402775 0.0018161471 -0.021287588 0.05281926 0.038354296 -0.027862974 -0.08425762 0.04508069
0.047573764 0.07790126 -0.033123937 -0.09222366 -0.013029259 0.04572323 0.105434336 -0.02602033
-0.046092827 -0.050795477 -0.024020318 -0.0099412855 0.060700513 0.091857135 -0.22122566 -0.010496088
0.045517027 -0.08812781 -0.036891412 0.005408397 0.041412212 0.06817267 -0.0013956622 -0.027225114
0.072590426 0.03830436 -0.013016197 0.004736669 -0.11630919 -0.0058910903 -0.018929837 0.05631139
0.100653805 0.04160302 0.058409087 -0.0086565735 -0.041257713 0.03582945 0.04508099 -0.05737511
-0.109253824 -0.021946568 0.016726248 -0.03199855 -0.008740305 0.17783198 0.08257562 0.013117584
-0.070235446 0.030383844 -0.015302738 -0.047050472 0.06140345 0.035031643 -0.013897987 -0.006249936
-0.062001392 0.08635635 -0.08897817 -0.055636615 -0.011524 -0.03677227 -0.038263697 0.047628585
0.024094561 0.04302957 -0.037895985 -0.11454589 -0.018270804 -0.034530092 -0.014692659 0.06012085
0.013893069 0.07024563 0.00074591325 -0.031384308 0.05457454 0.03797373 0.014510887 0.046307962
-0.10871009 0.07710941 -0.005257272 -0.043138362 -0.07557311 0.016520116 -0.042342007 -0.025389213
0.052328933 0.086662084 -0.046292998 -0.024731416 -0.019986004 -0.066500396 -0.043507416 -0.007348263
-0.04833329 0.010054714 -0.0023715033 0.0783084 0.0049894224 0.05798941 -0.009200931 -0.080588095
0.004602513 -0.029045591 0.03199521 0.0368107 0.04602606 0.0010708488 0.03772675 0.06374042
0.0018744064 0.038233027 0.02240275 -0.0011248731 -0.016190197 0.03343995 -0.03942599 0.012457336
-0.005283278 -0.019219091 0.031860203 -0.04294739 0.008537864 -0.10168567 0.019127768 0.022168037
00000000: 94d4 073c 9b5a dabc 6c48 4dbd 9473 74bc
00000010: 86d3 403d c38e fabc 9ddc 713d 19c1 93bd
00000020: 4d2d 44bc 4b13 513d f945 d13a 77ca 1fbd
00000030: b0ad 993c c809 093b 70cd a33c 755a be3c
00000040: f507 cbbc 1229 253b 9b7e dbbc dc32 753c
00000050: 8002 13bd 0bd9 57bb f541 423d bb1a b13d
00000060: e6fe 96bc 2aa3 e139 236b 6ebd 8ee4 13bd
00000070: 7d2a 693d eea7 d53c 889b 9a3d 92da 063d
00000080: 148a 1c3d 0a47 e3b9 ce26 6b3d 24be 36bc
00000090: 6040 1b3c e489 413d ea90 d43c 193e fbbc
000000a0: 59a8 bf3c abdb 413d 43b3 203d 1e82 74bd
000000b0: d676 ba3c ea3b 2ebd 3b52 39bd 244a 38bd
000000c0: 4644 f3bc 44e6 5d3d 5290 1bbd 25a4 01bd
000000d0: 377b ec3b 3dd6 d5bc e3dc 79bd fd98 64bb
000000e0: 3d80 3f3d 17a8 d63c f7a1 b13c a40d 86bc
000000f0: 8fda b13d b57d 763d df52 053d ee62 9fbb
00000100: 6578 43bc a214 213c a91f 253d da1e df3d
00000110: b19b 7ebd ee4f f73d 9d0f 3abd e6c4 c53c
00000120: 300a 413d 15ce 4b3d 54c7 d73a f023 25bb
00000130: bce2 7b3d 6e4a 053c 97d6 bd3d 2de3 9b3c
00000140: 2f65 dd3c 98b9 223c 7447 d53c e197 88bc
00000150: d8a0 8fbb 0e7e 163d b8f6 37bb 19ce 0d3d
00000160: b5d2 c53c 72cb 2abd b07a 57bd 8402 813d
00000170: 83f9 6e3c 8dff 68bc effb 94bd 32d2 a53d
00000180: 3226 1abe e2fd 22be 1374 1c3e 3c7c b63c
00000190: 8d3c 27bd 0f30 d03c 3590 4e3d 5433 89bc
000001a0: 59e8 e73d 04e0 043d 4ffd fd3c 0aa5 c1bd
000001b0: 2971 ea3c dcea 0abc 5842 093c 4b8e 56bd
000001c0: 9dd4 923c c4f9 21bd f6e0 0cbd 73b7 b9bc
000001d0: daf5 963d 757a 78bc 75e8 38bc 654a 35bb
000001e0: 7156 34bd c90b ee3a 4f63 aebc 0259 583d
000001f0: 6519 1d3d e440 e4bc 428f acbd 88a6 383d
00000200: b5dc 423d b28a 9f3d f7ac 07bd c2df bcbd
00000210: ac78 55bc 4848 3b3d f5ed d73d 9628 d5bc
00000220: d5cb 3cbd eb0e 50bd 42c6 c4bc c6e0 22bc
00000230: 1aa1 783d 981f bc3d fb88 62be c9f7 2bbc
00000240: 1070 3a3d 5a7c b4bd 731b 17bd ec38 b13b
00000250: da9f 293d 1d9e 8b3d a7ee b6ba 3407 dfbc
00000260: 4aaa 943d 08e5 1c3d e341 55bc 0f36 9b3b
00000270: 8333 eebd 0c0a c1bb bf12 9bbc c6a6 663d
00000280: 9523 ce3d ee67 2a3d 5e3e 6f3d 4dd4 0dbc
00000290: d9fd 28bd e7c1 123d d8a6 383d 2a02 6bbd
000002a0: 78c0 dfbd 4ac9 b3bc 7c05 893c e910 03bd
000002b0: 7f33 0fbc 9619 363e 681d a93d 23eb 563c
000002c0: 9ad7 8fbd 8ae7 f83c 56b8 7abc ffb7 40bd
000002d0: 2f82 7b3d 577d 0f3d 62b4 63bc 43cc ccbb
000002e0: 2cf5 7dbd 99db b03d 303a b6bd 38e3 63bd
000002f0: 29cf 3cbc 859e 16bd 65ba 1cbd 3116 433d
00000300: f561 c53c c63f 303d d238 1bbd 0997 eabd
00000310: a7ac 95bc 6d6f 0dbd 7ab9 70bc 4841 763d
00000320: c19f 633c f1dc 8f3d 6489 433a d58c 00bd
00000330: 8e89 5f3d 588a 1b3d 12bf 6d3c 6bad 3d3d
00000340: 65a3 debd 8aeb 9d3d 3245 acbb dab1 30bd
00000350: 13c6 9abd 3255 873c d06e 2dbd 0afd cfbc
00000360: dd56 563d e47b b13d ba9d 3dbd 8a99 cabc
00000370: b0b9 a3bc 5c31 88bd d534 32bd b3c9 f0bb
00000380: 21f9 45bd 87bc 243c 396b 1bbb 2860 a03d
00000390: 4f7e a33b 4e86 6d3d 80bf 16bc 5f0b a5bd
000003a0: add0 963b 05f1 edbc 690d 033d d1c6 163d
000003b0: d285 3c3d b95b 8c3a 5d87 1a3d 568a 823d
000003c0: a4ae f53a 3c9a 1c3d f985 b73c 7a70 93ba
000003d0: 4ea1 84bc 54f8 083d 267d 21bd db19 4c3c
000003e0: 591f adbb 5b71 9dbc d87f 023d 9ae9 2fbd
000003f0: 66e2 0b3c 9440 d0bd d6b1 9c3c be99 b53c

lin3.bias f4 [128]
0.019779872 -0.025625277 -0.044925176 0.060075294 -0.046980713 0.02207257 0.06343993 0.09859959
0.07341335 -0.055307552 0.017481929 0.083643086 -0.05657502 -0.0115559 0.08051926 0.11442102
-0.051010415 -0.021433316 -0.052610897 0.017956246 -0.07517362 0.0016892698 0.113782585 -0.032548532
-0.062417157 0.0585975 -0.07897822 -0.03817476 0.03182379 0.0033542556 -0.052274507 -0.006527507
-0.03368119 -0.020082856 -0.04793675 0.009480559 -0.03715011 -0.0065458296 0.026727809 0.06479975
0.005547377 0.008402812 0.09538873 -0.028122677 0.05833169 -0.0008390481 0.05048465 0.036266133
-0.07996372 -0.032455377 0.10758101 -0.05022625 0.020733155 -0.08358303 -0.026337083 0.042776857
0.07722854 -0.025469523 -0.0055458657 -0.016466316 -0.056054156 -0.007073256 -0.0064350786 -0.082385115
0.107086405 -0.04378798 -0.07041306 0.04973788 -0.042539775 0.06174489 -0.023681851 -0.009062932
-0.064001046 0.03129362 0.0822677 0.08638721 -0.035370406 0.025622249 0.07131568 -0.033433594
0.050824605 -0.06400919 -0.07786349 -0.080060266 -0.08698696 0.06891578 -0.022456909 -0.075470835
0.040501438 0.017086986 -0.016808959 -0.082790986 0.13452138 0.048733532 -0.019171476 0.06236136
-0.0037296598 -0.07368771 -0.052267347 -0.04793434 -0.08360751 0.09586813 0.102640904 0.035819862
-0.07130907 -0.01751668 -0.026724977 -0.059517834 0.026203504 -0.06024207 0.043211702 -0.021575289
0.026074188 -0.04563697 -0.02049542 -0.03368074 -0.040797066 -0.084978595 -0.006182762 -0.027767854
-0.03338268 -0.03434483 -0.051362555 -0.06188556 -0.046530064 0.11028114 -0.06372367 0.09667465
00000000: 6609 a23c 1aec d1bc 7603 38bd 8311 763d
00000010: d96e 40bd 89d1 b43c cbec 813d 95ee c93d
00000020: bd59 963d 2c8a 62bd 4336 8f3c 114d ab3d
00000030: 35bb 67bd f554 3dbc 48e7 a43d 9155 ea3d
00000040: 4cf0 50bd ec94 afbc 867e 57bd fa18 933c
00000050: a0f4 99bd 7d6a dd3a d806 e93d 9c51 05bd
00000060: 22a9 7fbd ef03 703d 55bf a1bd 235d 1cbd
00000070: aa59 023d 12d3 5b3b cb1d 56bd b3e4 d5bb
00000080: 4af5 09bd cd84 a4bc 5359 44bd 5954 1b3c
00000090: b72a 18bd 667e d6bb 47f4 da3c bbb5 843d
000000a0: c5c6 b53b f3ab 093c 2b5b c33d 8761 e6bc
000000b0: 36ed 6e3d 91f3 5bba fec8 4e3d cc8b 143d
000000c0: 05c4 a3bd eeef 04bd 6f53 dc3d 0aba 4dbd
000000d0: 94d8 a93c 942d abbd dec0 d7bc c936 2f3d
000000e0: ff29 9e3d 76a5 d0bc 18ba b5bb 5ee4 86bc
000000f0: 0b99 65bd c6c6 e7bb 5add d2bb 87b9 a8bd
00000100: 1e50 db3d 065b 33bd b934 90bd f2b9 4b3d
00000110: 303e 2ebd 36e8 7c3d 7100 c2bc b17c 14bc
00000120: fb12 83bd bd2d 003d f87b a83d c7eb b03d
00000130: 8fe0 10bd c0e5 d13c f50d 923d aaf1 08bd
00000140: 762d 503d 4017 83bd e576 9fbd a3f6 a3bd
00000150: 3826 b2bd b723 8d3d 8df7 b7bc 7490 9abd
00000160: d6e4 253d 02fa 8b3c f1b2 89bc 528e a9bd
00000170: f9bf 093e d09c 473d 800d 9dbc a06e 7f3d
00000180: 4f6d 74bb 95e9 96bd 4916 56bd cc56 44bd
00000190: 6a3a abbd 8356 c43d 6535 d23d d9b7 123d
000001a0: 7d0a 92bd 247f 8fbc 57ee dabc f9c8 73bd
000001b0: bba8 d63c 64c0 76bd c1fe 303d a9be b0bc
000001c0: 8999 d53c d5ed 3abd 03e6 a7bc d1f4 09bd
000001d0: d31a 27bd 4209 aebd c498 cabb 6979 e3bc
000001e0: 47bc 08bd 2aad 0cbd 8b61 52bd b77b 7dbd
000001f0: 4f96 3ebd 14db e13d 8e81 82bd 5cfd c53d

lin4.weight f4 [64, 128]
-0.044804376 0.029260365 0.048254136 0.026915897 0.014138592 -0.038401574 0.04605801 -0.013911939
-0.07399479 0.07302913 -0.040978853 0.026630664 -0.03731724 -0.107184544 -0.11088014 -0.07309714
-0.046293054 0.08103055 -0.07514939 -0.04228552 -0.06926918 0.0073895017 0.039879818 -0.022418963
-0.039426744 0.03290364 0.04438735 -0.022453174 -0.04704482 -0.07984005 -0.06590854 0.00021925844
0.020542447 0.08647357 -0.048003636 -0.08707123 0.00039439966 0.07413943 -0.06859114 0.03247741
0.008062534 0.057253953 0.026912048 0.06752367 0.022959653 -0.05332538 0.02379395 0.03688842
-0.031297617 -0.035263646 0.029459825 -0.056738235 0.07329728 -0.045609463 0.024226703 0.006460634
-0.07921159 -0.016232627 0.03921566 -0.061959237 -0.029389165 0.031118061 0.08038411 -0.04685674
-0.07709971 -0.08348479 0.08207815 -0.05581288 0.0018997164 -0.0437928 -0.031622525 0.0525491
0.017186536 -0.07752187 -0.07805327 0.013611209 -0.0515565 -0.08308746 0.04491028 -0.08787934
0.047724415 0.075324595 0.038832285 0.05350474 0.08391705 -0.06668724 0.043257385 -0.024760019
0.026895853 0.056948755 0.007864918 0.030946566 -0.061969787 0.05272126 0.060850915 0.015052821
0.011832433 -0.0029642931 0.05283899 0.010043004 -0.081923105 -0.06417625 -0.103520535 -0.07057275
-0.08471234 -0.08513693 -0.057851564 -0.08198596 0.040480595 0.009668698 -0.07486283 -0.027829064
0.0058695455 -0.08682417 -0.026189493 -0.07643389 -0.03745091 -0.04377222 -0.0117909815 0.07225336
0.0812125 -0.071125194 -0.059414033 -0.048532937 -0.10289181 -0.017285809 0.058399335 -0.054253086
-0.07916315 -0.08995966 -0.009567651 -0.06223107 -0.042040594 0.0800065 -0.038698178 -0.030504603
-0.07777632 0.012614983 -0.092787676 -0.023700615 0.046345137 -0.12952214 -0.12404518 0.016351923
0.04378573 0.0038552412 -0.05193732 -0.06773645 0.02660212 -0.044627782 0.040489137 -0.03427714
-0.024566945 -0.034344923 0.01688093 -0.03983833 -0.083630845 0.029982865 0.009412371 -0.018512882
-0.051194288 0.016293539 0.010313871 -0.069353685 -0.088075325 -0.0669751 -0.122725226 0.012831728
-0.12741695 0.011477857 -0.08032187 0.078613825 -0.04852258 0.027213091 -0.06436884 0.025810832
0.05295173 -0.0013385527 -0.062117383 -0.03817651 -0.08092633 0.021009108 -0.047212455 -0.096994825
-0.10099492 -0.048848756 0.021458853 0.0365241 -0.07268771 -0.028969217 -0.09215792 -0.06381507
-0.042899385 -0.06793525 -0.009369399 -0.04126482 0.036572054 0.034362134 0.03947377 0.011833094
0.055803787 -0.084041774 -0.05224959 -0.045494676 0.042405173 -0.056594353 -0.032716516 -0.013408155
-0.0030971663 0.029744409 0.018486544 0.06323656 -0.024255257 0.07119613 0.039148856 0.076597504
-0.125262 -0.08860862 -0.07772448 -0.0711339 -0.10053173 -0.020188227 -0.04365525 -0.029236369
-0.014717809 0.101513386 0.086754344 0.027879765 0.07948028 -0.03204994 -0.024436643 -0.09394943
0.06986207 -0.072324805 0.025011223 -0.0806274 -0.09387671 -0.01075906 -0.097490184 -0.07730597
0.016396787 0.03997984 -0.06464329 0.08188932 0.07899973 0.040335555 0.05543892 -0.06193308
0.08174827 0.06917079 0.030037068 0.03911159 -0.018426713 -0.08236424 0.013683512 -0.012104423
00000000: cb84 37bd 6fb3 ef3c 21a6 453d ba7e dc3c
00000010: 8ea5 673c f84a 1dbd 53a7 3c3d e7ee 63bc
00000020: 958a 97bd 4c90 953d 71d9 27bd 8d28 da3c
00000030: f6d9 18bd 9283 dbbd 2015 e3bd f4b3 95bd
00000040: c99d 3dbd 58f3 a53d ece7 99bd 9533 2dbd
00000050: 00dd 8dbd a223 f23b 0559 233d f9a7 b7bc
00000060: f07d 21bd f8c5 063d 83cf 353d b8ef b7bc
00000070: 12b2 40bd 2e83 a3bd 0efb 86bd bde8 6539
00000080: a248 a83c 0e19 b13d 769f 44bd 6752 b2bd
00000090: 6dc7 ce39 6ad6 973d 8379 8cbd 0807 053d
000000a0: b818 043c 1f83 6a3d a876 dc3c da49 8a3d
000000b0: e215 bc3c b76b 5abd 88eb c23c 5018 173d
000000c0: ee31 00bd 9d70 10bd bb55 f13c 5a66 68bd
000000d0: e21c 963d fdd0 3abd 1477 c63c bab3 d33b
000000e0: b039 a2bd 49fa 84bc 9aa0 203d f8c8 7dbd
000000f0: 8cc1 f0bc 4eeb fe3c 6da0 a43d daec 3fbd
00000100: 74e6 9dbd 13fa aabd 9718 a83d 0c9c 64bd
00000110: e8ff f83a 1460 33bd 9f86 01bd ba3d 573d
00000120: c7ca 8c3c c9c3 9ebd 65da 9fbd 8c01 5f3c
00000130: e92c 53bd c229 aabd d7f3 373d 15fa b3bd
00000140: ad7a 433d c843 9a3d 9a0e 1f3d c927 5b3d
00000150: b4dc ab3d 5293 88bd a82e 313d 86d5 cabc
00000160: b154 dc3c 1943 693d dbdb 003c a783 fd3c
00000170: 08d4 7dbd 3ff2 573d cf3e 793d 1ba0 763c
00000180: d2dc 413c 9644 42bb b26d 583d 698b 243c
00000190: 4dc7 a7bd d66e 83bd 9302 d4bd 7288 90bd
000001a0: aa7d adbd 455c aebd c3f5 6cbd 41e8 a7bd
000001b0: fbce 253d 7569 1e3c af51 99bd c7f9 e3bc
000001c0: 5155 c03b dfd0 b1bd 598b d6bc 5f89 9cbd
000001d0: 2066 19bd 804a 33bd f62e 41bc 92f9 933d
000001e0: bd52 a63d 16aa 91bd 215c 73bd 79ca 46bd
000001f0: f1b8 d2bd f89a 8dbc 2434 6f3d 7c38 5ebd
00000200: 4a20 a2bd c53c b8bd a3c1 1cbc 02e6 7ebd
00000210: c232 2cbd 73da a33d fb81 1ebd cae4 f9bc
00000220: 3149 9fbd 13af 4e3c 7707 bebd cb27 c2bc
00000230: 66d4 3d3d 74a1 04be 660b febd 78f4 853c
00000240: aa58 333d 37a8 7c3b 3abc 54bd 68b9 8abd
00000250: b0ec d93c 9fcb 36bd f0d7 253d 3066 0cbd
00000260: 9e40 c9bc 43ad 0cbd e049 8a3c 842d 23bd
00000270: a646 abbd a09e f53c 5836 1a3c 54a8 97bc
00000280: 1ab1 51bd 077a 853c 83fb 283c 4e09 8ebd
00000290: d660 b4bd 3e2a 89bd 5d57 fbbd 2b3c 523c
000002a0: 9779 02be 9f0d 3c3c cb7f a4bd 4900 a13d
000002b0: 9dbf 46bd fded de3c cfd3 83bd 3d71 d33c
000002c0: eae3 583d 6072 afba cc6e 7ebd f95e 1cbd
000002d0: b4bc a5bd 4b1b ac3c d961 41bd 39a5 c6bd
000002e0: 6dd6 cebd a215 48bd 7aca af3c 4b9a 153d
000002f0: 4bdd 94bd da50 edbc 4bbd bcbd 7ab1 82bd
00000300: 44b7 2fbd a321 8bbd 1c82 19bc 4d05 29bd
00000310: 94cc 153d 4fbf 0c3d 3faf 213d 98df 413c
00000320: 8392 643d 181e acbd ab03 56bd a058 3abd
00000330: 0cb1 2d3d 7bcf 67bd c101 06bd e1ad 5bbc
00000340: d4f9 4abb 8caa f33c 1871 973c 2b82 813d
00000350: f6b2 c6bc 47cf 913d 8d5a 203d 27df 9c3d
00000360: af44 00be 7078 b5bd 032e 9fbd a6ae 91bd
00000370: 94e3 cdbd c861 a5bc d9cf 32bd 1c81 efbc
00000380: f722 71bc 40e6 cf3d 43ac b13d 1b64 e43c
00000390: 8fc6 a23d cc46 03bd 5b2f c8bc 8f68 c0bd
000003a0: d813 8f3d 071f 94bd 56e4 cc3c fa1f a5bd
000003b0: 6f42 c0bd c546 30bc efa8 c7bd 9852 9ebd
000003c0: 8e52 863c e7c1 233d b463 84bd 96b5 a73d
000003d0: 9cca a13d e536 253d ec13 633d 8bad 7dbd
000003e0: a36b a73d 6aa9 8d3d 4c10 f63c 7933 203d
000003f0: 9ef3 96bc 95ae a8bd cf30 603c a151 46bc

lin4.bias f4 [64]
-0.058904495 -0.00839959 0.03827491 -0.03532882 -0.10497451 -0.0403874 0.14996476 0.11046948
-0.010579363 -0.055160463 -0.10467318 -0.0873256 -0.079953 0.019962434 0.13950805 -0.03385461
-0.06884929 -0.044973627 0.05463125 -0.011031357 0.1387031 -0.0009341756 -0.040097527 0.037339985
0.091371976 0.21141912 0.12352443 0.20642646 -0.029565841 0.048223384 -0.05270042 0.19717349
0.13872409 0.24642985 0.19759195 0.22761452 -0.040924218 0.13571708 0.20386815 -0.076797694
0.030676018 0.0023447347 -0.061642542 0.14940132 0.17837094 -0.032059297 -0.07710724 -0.10803121
0.01790638 0.040253434 -0.05213623 0.0051577617 -0.074560165 -0.08268256 -0.0802222 0.18501945
0.13201447 -0.09325387 0.0018281864 0.09982986 0.041004807 0.0067508756 -0.045506064 -0.06304043
00000000: d745 71bd 6f9e 09bc 27c6 1c3d f4b4 10bd
00000010: e0fc d6bd 426d 25bd 5d90 193e d33d e23d
00000020: 1155 2dbc f0ef 61bd e45e d6bd c4d7 b2bd
00000030: 66be a3bd 4288 a33c 33db 0e3e 22ab 0abd
00000040: db00 8dbd 4436 38bd 05c5 5f3d ddbc 34bc
00000050: 2f08 0e3e 77e3 74ba 4e3d 24bd d0f1 183d
00000060: 3b21 bb3d 417e 583e 60fa fc3d 7561 533e
00000070: 1034 f2bc e285 453d 65dc 57bd d9e7 493e
00000080: b00d 0e3e 1b58 7c3e 8b55 4a3e c813 693e
00000090: 27a0 27bd 6bf9 0a3e d0c2 503e 1c48 9dbd
000000a0: 464c fb3c 1faa 193b e47c 7cbd a9fc 183e
000000b0: dfa6 363e 9c50 03bd 67ea 9dbd 783f ddbd
000000c0: 67b0 923c c9e0 243d cd8c 55bd 7102 a93b
000000d0: 00b3 98bd 7955 a9bd 894b a4bd bd75 3d3e
000000e0: cd2e 073e e3fb bebd c29f ef3a 9973 cc3d
000000f0: a8f4 273d 7336 dd3b 9164 3abd 571b 81bd

lin5.weight f4 [12, 64]
0.013191905 0.039723653 0.0030108585 -0.035411518 -0.045825556 0.11184404 0.17849426 0.10360835
0.19600652 0.038740177 -0.01827457 -0.08903767 0.056008868 0.009177737 -0.07662648 -0.078286216
-0.09251906 -0.089549854 -0.011019766 0.11330599 -0.06248825 0.07460139 0.1281236 0.11458953
0.028247219 0.07141669 0.06742289 0.051247913 -0.031936985 -0.084060825 0.061429515 -0.045984272
-0.021226205 0.013166945 0.17220841 -0.126893 -0.04295935 -0.12482838 0.081965014 -0.106440924
-0.079783 0.052272223 0.119325526 0.14915553 0.07039127 -0.10933694 -0.080252655 0.107956156
-0.13287552 0.010423971 -0.12418558 0.10690188 -0.05792422 0.0014484662 -0.10822709 0.14686388
-0.111848995 -0.12697875 -0.0429397 -0.08298858 -0.07073521 -0.10562318 0.018041287 -0.069180906
-0.10194754 0.045410987 0.091324806 -0.026817553 0.021164887 -0.029117603 0.19867116 0.005189064
-0.07019757 -0.07301321 0.030485662 -0.09242064 0.070067294 -0.07022535 -0.061217286 0.029148893
0.075912975 0.19691947 -0.0773544 0.1403446 0.17428572 -0.488269 0.07142605 0.024421982
0.1006491 0.10195973 0.065714315 0.21272781 -0.058208797 0.12744904 0.09998408 0.15779123
-0.00870094 0.21010205 0.13390675 0.16957372 -0.06835534 -0.009514139 0.21417914 0.028538246
-0.26711902 -0.023181304 0.06493961 0.15292749 -0.09786794 -0.08470826 -0.02803557 -0.07022644
-0.070414156 -0.12949269 0.055288013 0.002206938 -0.07882771 0.02771326 -0.12032001 0.04405082
0.078642055 0.07684279 0.09118302 -0.27849123 0.12974608 -0.010916181 0.10841552 -0.018042646
0.10517469 0.029705113 -0.049433447 0.0037015106 -0.10796358 0.09600415 -0.07359614 0.077702455
0.14009911 0.095296815 0.031968925 0.09095855 -0.088182375 0.022326816 -0.06072622 -0.120728254
0.033768907 -0.1313389 0.09225531 -0.17899497 0.06085416 0.66314244 0.05216651 -0.060045928
0.015832942 -0.16609517 -0.04890216 -0.16637497 -0.11558457 -0.021929603 -0.09606552 -0.047096662
-0.0056333514 -0.17802759 -0.21330182 -0.0017590944 -0.021035146 -0.04389576 -0.16020668 0.0042300946
0.030362047 0.03408675 -0.08812642 0.05807591 0.11917047 0.12798503 0.017523304 -0.035933845
0.0637959 0.17239362 -0.0075437976 0.030627746 -0.111894995 0.054586243 -0.08194585 -0.006373283
-0.15559033 -0.06519124 0.024996921 0.19313431 0.03130448 -0.120549895 0.06071901 -0.03893991
0.049717195 0.078873545 -0.29925343 0.11840775 -0.091779724 -0.03308458 0.042151958 -0.1235316
0.049282286 -0.08270608 -0.065891884 -0.01515308 0.06614191 0.023506045 -0.0684568 0.11687949
0.055842847 -0.05840807 -0.022856656 0.09471787 0.10739738 -0.32886404 -0.07276265 0.17445455
-0.0925759 -0.034147434 -0.07498532 0.19439334 0.042016245 -0.1410212 -0.063166395 0.20814125
0.29546332 -0.03880171 -0.083939 0.032591015 -0.013656901 -0.013575509 0.16107932 0.0062181535
-0.2037651 0.20797509 -0.094074965 0.096535 0.098481834 0.08939304 0.061146077 -0.049741082
0.045842245 0.008859788 -0.02402839 0.037949476 0.057656776 -0.09982474 -0.04393831 0.0139635
-0.087568276 0.2727013 -0.055571802 -0.19125822 -0.124193184 -0.07519071 0.07351524 0.0595474
00000000: dc22 583c 45b5 223d d351 453b ab0b 11bd
00000010: 94b3 3bbd 7d0e e53d 33c7 363e 9d30 d43d
00000020: efb5 483e 05ae 1e3d 8db4 95bc 6259 b6bd
00000030: 8e69 653d 385e 163c 58ee 9cbd 8654 a0bd
00000040: a27a bdbd ea65 b7bd 408c 34bc f90c e83d
00000050: aef3 7fbd 9dc8 983d d532 033e eaad ea3d
00000060: b666 e73c ea42 923d 0315 8a3d 55e9 513d
00000070: 5bd0 02bd 1528 acbd 849d 7b3d 015a 3cbd
00000080: 94e2 adbc 2cba 573c 6757 303e 3df0 01be
00000090: 25f6 2fbd 06a6 ffbd 46dd a73d b3fd d9bd
000000a0: 4565 a3bd 661b 563d f160 f43d 3abc 183e
000000b0: 4c29 903d 0cec dfbd 815b a4bd 1e18 dd3d
000000c0: 8510 08be 4ec9 2a3c 0255 febd 5fef da3d
000000d0: f241 6dbd 76da bd3a 2aa6 ddbd 7c63 163e
000000e0: 1611 e5bd b806 02be 8ae1 2fbd ebf5 a9bd
000000f0: 9fdd 90bd f750 d8bd 52cb 933c b8ae 8dbd
00000100: dfc9 d0bd df00 3a3d 8008 bb3d 7cb0 dbbc
00000110: fc61 ad3c 0a88 eebc 7470 4b3e 0609 aa3b
00000120: bec3 8fbd f387 95bd 11bd f93c 0847 bdbd
00000130: 717f 8f3d 4fd2 8fbd fabe 7abd a9c9 ee3c
00000140: 4378 9b3d 42a5 493e fc6b 9ebd 7fb6 0f3e
00000150: f577 323e 65fe f9be d247 923d 9c10 c83c
00000160: 1e21 ce3d 43d0 d03d 3a95 863d 52d5 593e
00000170: 596c 6ebd 0082 023e 74c4 cc3d 0694 213e
00000180: 638e 0ebc fe24 573e da1e 093e bca4 2d3e
00000190: e2fd 8bbd 31e1 1bbc c751 5b3e 0ac9 e93c
000001a0: d3c3 88be b8e6 bdbc 0fff 843d 0699 1c3e
000001b0: fd6e c8bd 867b adbd daaa e5bc e1d2 8fbd
000001c0: 4c35 90bd bb99 04be af75 623d 47a2 103b
000001d0: 6c70 a1bd eb06 e33c 566a f6bd a26e 343d
000001e0: 160f a13d c15f 9d3d 2abe ba3d 6796 8ebe
000001f0: 28dc 043e c8d9 32bc f508 de3d 2cce 93bc
00000200: d465 d73d 2358 f33c ba7a 4abd 0b95 723b
00000210: 021c ddbd d39d c43d 93b9 96bd 7722 9f3d
00000220: 2476 0f3e fa2a c33d d9f1 023d 7a48 ba3d
00000230: f698 b4bd bae6 b63c 0fbc 78bd 6040 f7bd
00000240: 4451 0a3d b47d 06be 5af0 bc3d 754a 37be
00000250: 3642 793d b4c3 293f 8dac 553d b8f2 75bd
00000260: 16b4 813c da14 2abe a24d 48bd 335e 2abe
00000270: 9ab7 ecbd b6a5 b3bc 00be c4bd 6ee8 40bd
00000280: fa97 b8bb dd4c 36be cb6b 5abe 6a91 e6ba
00000290: e651 acbc 0acc 33bd 380d 24be 9b9c 8a3b
000002a0: d4b9 f83c 8c9e 0b3d a07b b4bd 01e1 6d3d
000002b0: a60f f43d 820e 033e 088d 8f3c 5e2f 13bd
000002c0: 6da7 823d f487 303e f631 f7bb 0ae7 fa3c
000002d0: 3429 e5bd d395 5f3d 3ad3 a7bd f9d6 d0bb
000002e0: 1253 1fbe fc82 85bd 58c6 cc3c 00c5 453e
000002f0: 2039 003d dde2 f6bd 7fb4 783d 747f 1fbd
00000300: 42a4 4b3d 7488 a13d bf37 99be c37f f23d
00000310: 02f7 bbbd b283 07bd 88a7 2c3d 23fe fcbd
00000320: 39dc 493d ce61 a9bd 53f2 86bd a044 78bc
00000330: 6975 873d c08f c03c 1433 8cbd 845e ef3d
00000340: 78bb 643d 4d3d 6fbd e23d bbbc 71fb c13d
00000350: 28f3 db3d de60 a8be 9604 95bd 37a4 323e
00000360: 6f98 bdbd 2ede 0bbd e791 99bd 0c0f 473e
00000370: 3a19 2c3d dd67 10be 625d 81bd fb22 553e
00000380: f846 973e 8bee 1ebd 36e8 abbd 287e 053d
00000390: 32c1 5fbc d06b 5ebc faf1 243e a7c1 cb3b
000003a0: cca7 50be 6cf7 543e 60aa c0bd 24b4 c53d
000003b0: d8b0 c93d b313 b73d 4f74 7a3d 4ebd 4bbd
000003c0: 14c5 3b3d a528 113c 30d7 c4bc e970 1b3d
000003d0: 8329 6c3d ea70 ccbd a8f8 33bd 2ac7 643c
000003e0: ff56 b3bd 819f 8b3e 429f 63bd 32d9 43be
000003f0: ff58 febd 96fd 99bd 288f 963d f9e7 733d

lin5.bias f4 [12]
-0.020167453 0.15236606 -0.065477505 0.06853145 0.19348836 0.012789898 -0.10436381 0.09787219
-0.22417901 -0.009300765 -0.0019725692 -0.1573385
00000000: 3736 a5bc d905 1c3e 1219 86bd 385a 8c3d
00000010: d021 463e b88c 513c b1bc d5bd 3771 c83d
00000020: 2f8f 65be 3c62 18bc 3846 01bb 581d 21be
